checkpoints/maddpg/maddpg0_checkpoint_critic_local.pth (torch, 474855 bytes, 13 tensors)

fc1.weight f4 [256, 52]
000000 ac 3c 12 3f ee b9 8d be 86 e9 69 3e fd 0a fe bd
       0.5712383 -0.27680916 0.22842988 -0.124044396
000010 e7 f2 17 be f7 cd 40 bf a2 9b 50 3e a3 82 38 be
       -0.14838754 -0.7531428 0.20371869 -0.18018584
000020 62 87 0f 3f 90 80 33 bf 24 3f 0a bd e1 4f 7f bf
       0.5606595 -0.70118046 -0.03375162 -0.9973126
000030 fc e7 2b be f2 cc 97 be 16 b9 21 3c 12 86 79 bf
       -0.16787714 -0.29648548 0.009870788 -0.974702
000040 ad da 25 3e 67 a0 65 bf bf f6 86 3d 8f 5b 88 be
       0.161967 -0.8969788 0.06590032 -0.26632354
000050 9c 5e 7f 3e 5d 58 ba 3e 0c 04 d6 3d d1 75 c6 be
       0.24938434 0.3639554 0.10449991 -0.38761762
000060 2d 78 ad 3f 05 5a 7a be 95 bd 11 be 4a d7 87 3e
       1.35523 -0.24448402 -0.14232476 0.2653144
000070 4b e6 ca 3d 3d 79 24 bf 0c 5b 7e bd 91 81 a5 3e
       0.09907206 -0.64247495 -0.062098548 0.32325414
000080 ed ec 91 3f 13 a2 c4 bd d2 ea 74 be 99 90 fa 3e
       1.1400429 -0.09601226 -0.23917702 0.48938444
000090 39 d6 5b 3e 36 1d 8b be 25 f5 a1 be 76 87 06 3f
       0.21468438 -0.27170724 -0.31632343 0.52550447
0000a0 9b 9d 12 3f e6 77 b2 be 5a ce ba be 6b 3e 74 be
       0.57271737 -0.348571 -0.3648556 -0.23851936
0000b0 e7 94 09 be 3b b5 03 3f 2d 88 a6 be 26 47 01 be
       -0.13435708 0.5144841 -0.3252577 -0.12624797
0000c0 1b fd 86 c0 d9 0f a8 3e d1 d2 b1 3e 74 33 35 c0
       -4.2183967 0.3282459 0.34731153 -2.8312654
0000d0 0c 15 b1 3e 63 c4 95 bf 8a b1 97 3e 42 f7 96 3e
       0.3458637 -1.1700557 0.2962764 0.29485518
0000e0 93 5c ce be 44 5b 2e bf 7d 43 c8 3e 48 c6 8a 3e
       -0.40305004 -0.6810801 0.3911399 0.27104402
0000f0 a1 08 19 3f a5 7e 93 bf 8e 99 8f 3e 70 41 bc 3d
       0.5977879 -1.1523024 0.2804684 0.09192169
000100 f6 2b f6 be 7d 21 79 be c4 9b e2 3e e7 fb 7c bd
       -0.48080415 -0.24329181 0.44259465 -0.06176367
000110 a9 f7 29 3f 4b 86 54 bf 73 aa 9f be d4 da 72 3f
       0.66393524 -0.83017415 -0.3118473 0.94865155
000120 50 be c4 3d 0f 09 1d bd 70 6a 93 be 47 90 87 3f
       0.09606612 -0.038338717 -0.28792143 1.0590905
000130 ed ac 90 3f 75 f5 f7 be 57 9a 04 3d 05 63 34 bf
       1.1302773 -0.48429456 0.032373752 -0.7046359
000140 a9 6a 0f 3f 37 ef 40 bf 9b e1 1b be e9 46 1f bf
       0.56022125 -0.7536501 -0.1522278 -0.62217575
000150 a2 a8 8c 3f be 28 06 bf f3 12 af be 2d d1 64 bf
       1.0988963 -0.5240592 -0.34194145 -0.89381677
000160 fb 6f a8 3e 24 97 a9 be b7 de 06 be ed 5f 80 bf
       0.32897934 -0.33123124 -0.13170896 -1.0029274
000170 59 47 a4 3f 87 90 65 bf 18 46 b0 3e 20 64 9b be
       1.2834274 -0.89673656 0.34428477 -0.30349827
000180 24 01 c7 3d 91 49 5e 3e 31 14 86 3e ab e8 a4 be
       0.097170144 0.21707751 0.2618728 -0.32208762
000190 e5 fd bb 3e c9 da 1e c0 a9 e1 1f 3f 32 4c df bf
       0.36717144 -2.4821036 0.62453705 -1.7445128
0001a0 dc 73 15 be 8f 75 43 bd b5 a3 09 be 81 07 2c 3e
       -0.14594978 -0.047719534 -0.13441356 0.16799738
0001b0 56 92 51 be 10 47 90 bf 89 41 00 bc c7 ed 4e 3e
       -0.20465979 -1.1271687 -0.007828125 0.20207892
0001c0 86 c0 04 3e fa b4 32 3e 9d ea c4 bc 26 eb 79 be
       0.12964067 0.1745185 -0.024037654 -0.24406108
0001d0 71 2a 6e be f7 1d 92 3f 21 4c ac bd 2a 2e cc bd
       -0.23258378 1.1415395 -0.08412958 -0.099697426
0001e0 ef 28 91 3e e8 6b 5d 3e fa b3 57 bc 78 c4 e1 bd
       0.28351542 0.21623194 -0.013165468 -0.110238016
0001f0 35 cb 35 bf 61 74 83 40 0d d3 1f 3d 93 5b 00 bd
       -0.71013194 4.1079564 0.039019633 -0.031337332
000200 f3 b5 13 3d e0 d5 c1 be a2 ee 16 3d 3c c9 8c bd
       0.036062192 -0.37858486 0.03684867 -0.0687432
000210 34 7b 9a 3e 60 dd 72 bf ab 6b 88 3c 50 59 0b 3e
       0.30172122 -0.9486904 0.016652903 0.13608289
000220 78 82 b2 3e 00 0c fd 3d 42 62 c7 bb e1 6e 85 be
       0.34865165 0.123558044 -0.0060847113 -0.26061156
000230 38 14 f0 3e c9 2d 89 3f 07 cd 0a 3e 06 4f 92 be
       0.46890426 1.0717098 0.13554774 -0.28575915
000240 e3 3a 04 bd 38 a4 8c bd 7b 30 7f 3d 60 96 6f 3e
       -0.03228272 -0.0686726 0.062302094 0.23397207
000250 7d 74 08 3f 20 2c 7f 40 be 10 13 bd 9c 4e 6b 3e
       0.53302747 3.9870682 -0.03590464 0.22979206
000260 b2 3f be 3f 48 89 01 bf eb 1a a1 bf 91 ad 5b bd
       1.4863188 -0.506001 -1.258634 -0.053632323
000270 fc 24 41 3e 04 da 8a 3e e4 3f fc 3b 21 70 83 bd
       0.18861765 0.27119458 0.007698046 -0.06417871
000280 b9 62 b1 bd 8c 33 06 bf b4 bb 2d bd 58 4b dc 3c
       -0.08661408 -0.52422404 -0.042415336 0.026891395
000290 7b f9 e6 3e 2b 20 b8 3d e8 7f 0c 3d 17 12 fa 3d
       0.45112213 0.089905106 0.03430167 0.122104816
0002a0 55 77 98 3d 5b 64 7d be 1f 44 1e be 68 76 72 3e
       0.07444636 -0.24745314 -0.15455674 0.23677981
0002b0 b7 47 c5 3e 79 f4 65 be 9a ae 80 3d ba bc 30 3e
       0.38531277 -0.2245654 0.062833026 0.17259493
0002c0 07 3a 93 3e 90 64 ea be 80 61 6a bc 42 0a 8c 3d
       0.2875521 -0.45779848 -0.014305472 0.06837894
0002d0 bd ff 1c 3d 5e b8 70 bf 52 62 b2 3d 3a d2 2b 3d
       0.03832983 -0.9403132 0.08710159 0.041948535
0002e0 69 de 15 3e 1e 4a c0 be e2 bd 49 bd 69 f6 37 be
       0.14635624 -0.37556547 -0.049253352 -0.17965092
0002f0 13 ae a3 3d b4 2f 7f bf 9d 0c cc bc 91 70 93 be
       0.079921864 -0.99682164 -0.024908358 -0.2879682
000300 71 85 ff 3d 4f b8 8f be 30 79 08 3b e9 eb b7 be
       0.12476624 -0.28070304 0.0020824187 -0.35922173
000310 9a 36 a2 bc 66 48 81 bf 00 ec 89 3e c9 89 4a be
       -0.019801427 -1.0100219 0.26937866 -0.19779123
000320 10 f6 2f be bf 2d 93 be 32 b6 d5 3e 71 97 3f be
       -0.17183709 -0.2874584 0.41740566 -0.18710114
000330 75 a5 71 3f 78 82 c4 3d 2e 18 0e c1 76 03 83 bd
       0.9439309 0.095951974 -8.880903 -0.063971445
000340 b2 15 71 3e 95 fa ac 3d e0 b9 b2 bd 07 86 17 bf
       0.23543432 0.08446232 -0.08726859 -0.59188884
000350 64 94 82 3e 38 f1 f9 3e 82 66 2d 3e dc 11 ef be
       0.25503838 0.48816848 0.16933635 -0.46693313
000360 4f c5 b1 3e 50 ad e9 be 4b 57 f4 bd b9 8e 88 bf
       0.34720847 -0.4564004 -0.11930712 -1.0668555
000370 1f 1c ec bd 02 12 85 3e d5 24 57 3d 10 40 81 bf
       -0.11528801 0.259903 0.05252536 -1.0097675
000380 35 33 92 3d d5 ef 48 bf 7f c7 18 bd 6f 7d 8e bf
       0.07138673 -0.78490955 -0.03729963 -1.1132029
000390 f6 b7 a0 bc 90 98 c2 3e ee 1c da 3c 0b 2b 93 bf
       -0.01961897 0.3800702 0.026625123 -1.1497511
0003a0 0c 3b 9c 3f fd 10 08 c0 3d 3c 87 3c 4f 5e 7f be
       1.220552 -2.126037 0.016508216 -0.2493832
0003b0 67 01 94 be ee b1 2d 3f 9a b6 38 be b3 92 9a bc
       -0.2890732 0.67849624 -0.18038407 -0.01886878
0003c0 c8 66 d9 3f 51 9b 0d c0 1f 9e bd 3c b4 0e 19 be
       1.6984491 -2.2126048 0.023146687 -0.14947015
0003d0 4d c3 09 be f9 1a c0 3e 83 68 e3 bb ab 82 b9 be
       -0.13453408 0.37520579 -0.006939949 -0.36232504
0003e0 19 d5 9b 3f 52 15 25 c0 40 3b 5a 3d cd 45 5c bf
       1.2174407 -2.5794263 0.05327916 -0.8604401
0003f0 e7 ff 48 bd d3 f3 a9 3e 7a b5 82 bc 10 6b 6f bf
       -0.049072172 0.33193836 -0.015955675 -0.9352274

fc1.bias f4 [256]
000000 fb 1e aa be cf 1a 0e bf 7e 0f 85 c0 93 e3 5a be
       -0.3322676 -0.55509657 -4.158141 -0.21375875
000010 b7 d8 82 bd fd e4 d9 be 0b bf a7 be c8 f8 80 bf
       -0.06388991 -0.42557517 -0.32762942 -1.0075922
000020 cf ac 4d bd f8 4e 82 3e 11 32 6f be 31 e8 e7 be
       -0.05021363 0.25450873 -0.23358943 -0.45294335
000030 22 d9 03 bf 83 76 33 bf 2c 74 9a bf 44 1c 89 3d
       -0.51503193 -0.7010271 -1.2066703 0.06694844
000040 c5 c2 37 bf 02 a7 b8 bf a4 20 c5 be 5d fd b3 bd
       -0.7178157 -1.4425967 -0.38501465 -0.087885596
000050 31 f2 bb be 28 2e 6f bf e9 06 25 bf d7 ff 5f be
       -0.36708215 -0.93429804 -0.6446367 -0.21874939
000060 a1 ad 34 bf a6 30 1e bf 3e c6 a6 be dc 6a 39 3d
       -0.70577437 -0.6179298 -0.32573122 0.045267925
000070 1c 3c d7 be d9 e7 3f bf 8d 20 9f be e4 76 a9 3b
       -0.42038047 -0.74963146 -0.31079522 0.0051716436
000080 45 b1 0e bf 34 cd da be 44 69 a1 bf bf 55 88 be
       -0.5573924 -0.42734683 -1.261025 -0.2662792
000090 66 ed d6 bb de df 58 bf 28 fa b0 bd 5b 75 b4 be
       -0.006559062 -0.84716594 -0.086414635 -0.35245785
0000a0 0b db 83 bf 59 c4 90 bf 9a ca a5 be aa 44 39 c0
       -1.0301222 -1.130992 -0.32381135 -2.894816
0000b0 5f bd b2 be f6 5f a7 bd 1c 8b b0 bf b3 ee cd be
       -0.34910104 -0.081726 -1.3792453 -0.40221176
0000c0 2c 08 e1 3c f7 04 cb be 4d a4 9d be c3 c9 6d bf
       0.027469717 -0.39652225 -0.30789414 -0.9288599
0000d0 ab b7 04 3f 19 50 29 be f1 1b 0f bf 6e 62 a8 be
       0.51842755 -0.16534461 -0.5590201 -0.32887596
0000e0 36 df 69 be ef 7b 3c bf 88 f9 ca be ea f9 f9 be
       -0.22839054 -0.7362661 -0.39643502 -0.48823482
0000f0 01 d8 25 be f3 f1 0e bf b4 33 9c bf e3 97 ae bd
       -0.1619568 -0.55837935 -1.2203279 -0.08525064
000100 b3 10 4a bf 5a e9 ee be f5 26 2f bf 21 e3 2d 3d
       -0.7893173 -0.46662408 -0.6841882 0.042452935
000110 95 a0 30 bf b5 ed fd be c0 95 e1 bf e2 5a 0c c0
       -0.6899503 -0.4959542 -1.7623825 -2.193047
000120 d2 5a 5a bf 91 fc 14 bf cb 16 3b bf 86 d6 c9 3e
       -0.8529483 -0.58197886 -0.73081654 0.3942148
000130 de d7 75 be 5e 4c e1 be 94 d1 96 be 2b 51 c3 be
       -0.24008128 -0.44003576 -0.2945677 -0.38147864
000140 75 f3 15 bf b9 47 97 3c 22 c8 1d bf 48 d5 94 3d
       -0.5857461 0.018466817 -0.61633503 0.07267243
000150 c9 4a c4 be 61 d6 0c bc 15 94 43 3d e4 07 23 be
       -0.38338307 -0.008596034 0.047748644 -0.15920979
000160 a5 63 ae bf b4 f9 77 bf c3 ba 3e be 1c 0a 4a 3e
       -1.3624159 -0.9686539 -0.18625931 0.19730419
000170 45 20 6f bf c7 57 0d bf 82 bb b6 be c6 05 a6 be
       -0.93408614 -0.5521206 -0.35689932 -0.3242628
000180 19 73 38 c0 61 74 04 bf cb 48 7d bd 29 2e d0 3d
       -2.882025 -0.5174008 -0.061837 0.10165054
000190 cc 23 68 bf 66 30 32 bf 21 c2 9b bf cf 49 80 bf
       -0.9067962 -0.696051 -1.2168618 -1.0022525
0001a0 40 f7 00 bc 90 ac c7 bf db 0a be be a9 3f 16 bf
       -0.007871449 -1.5599537 -0.37117657 -0.5869089
0001b0 ea dd fc be eb 94 95 3e 3d a4 08 bf 0b 6c 01 bf
       -0.49388057 0.29215178 -0.5337561 -0.50555485
0001c0 ba 3c 10 c0 88 9f c5 bd f0 ad 8d 3e c0 46 1b be
       -2.2537065 -0.09649569 0.27671766 -0.15163708
0001d0 95 19 bc be 05 30 46 bf 4e 23 1d bf 08 d0 07 bf
       -0.36738268 -0.7741702 -0.61381996 -0.53051805
0001e0 ea 25 06 bf eb 97 04 c0 1c d8 87 bf 4a 65 83 bf
       -0.524016 -2.0717723 -1.0612826 -1.0265286
0001f0 59 60 e0 bf 8b 5f be be 83 a1 c0 3c 35 77 78 bf
       -1.7529403 -0.37182269 0.023514515 -0.97056895
000200 ff e9 fb bf b5 e0 65 be 47 f5 83 3d b7 ef 6f be
       -1.9680785 -0.22449 0.06443267 -0.23431288
000210 f2 cc 24 be b0 5c 23 bf 97 1a 0f bf ce fc 46 bf
       -0.16093805 -0.63813305 -0.5589995 -0.777295
000220 cf bb 12 be 46 8e 2e bf 46 f5 ca be ad 40 18 3d
       -0.14329456 -0.6818584 -0.39640254 0.037171055
000230 15 b5 82 be d7 c8 c7 be 72 25 22 bf 5e 47 39 3e
       -0.2552878 -0.39020416 -0.63338387 0.1809363
000240 30 13 62 bd db 9f bf be 6a 89 f0 bc a7 86 21 bf
       -0.05519408 -0.37426648 -0.0293624 -0.6309609
000250 97 ad 46 bf e6 ca 48 bd 9e c6 b9 bf be f4 92 be
       -0.7760863 -0.049021624 -1.4513738 -0.28702348
000260 e4 69 c7 be 4b e0 8a bd 6b 12 89 c0 72 4e a0 be
       -0.38947976 -0.06781062 -4.2834983 -0.3130985
000270 a4 c0 04 3d 1e a7 33 bf 3d 84 d1 be d0 d7 ab 3e
       0.03241028 -0.70176876 -0.40921202 0.3356309
000280 8c d7 de be 5c 6c 2d bf 65 07 0b 3e 1f 15 73 bf
       -0.43523824 -0.6774347 0.1357704 -0.94954103
000290 d4 b1 8d be 2d 15 bf be 11 a0 5e bf 83 eb ba be
       -0.27674735 -0.37320843 -0.8696299 -0.36507806
0002a0 a4 4e 1b bf fd 70 c0 be 04 e4 81 bf 97 1e e9 bf
       -0.6066687 -0.37586203 -1.014771 -1.821246
0002b0 45 c5 f5 be 99 4f a2 bf 1a d8 8d bf 66 29 84 bf
       -0.48002067 -1.2680541 -1.1081574 -1.0325134
0002c0 b0 9b 15 bf fa e6 0c bf a5 9f b6 be 6f 5d 5d be
       -0.58440685 -0.5503994 -0.35668674 -0.21617673
0002d0 a0 4c 2d bf f2 82 c0 be 40 4e 49 bf ea 2f 3a bf
       -0.67695045 -0.37599903 -0.78635025 -0.7272936
0002e0 97 b2 aa be a7 4a 68 be 00 06 60 be 3f 5a 06 bf
       -0.33339378 -0.22684728 -0.21877289 -0.52481455
0002f0 b7 89 ab bf d0 bc f2 3e 4c 54 aa bf 2e de 56 3d
       -1.3401402 0.47409678 -1.3306975 0.05245798
000300 ed 5f 20 bf 93 00 0f bf d8 c9 f9 be 55 f8 0b be
       -0.6264637 -0.5586025 -0.48786807 -0.1366895
000310 26 f4 b5 be 68 31 4d bf de 7e 08 bf 89 f3 2c bf
       -0.35537833 -0.8015351 -0.53318584 -0.67559105
000320 cf 7d 41 3e ef 32 04 c0 3f 59 16 bf ce 5f 93 3d
       0.18895648 -2.0656087 -0.5872993 0.07196008
000330 c8 ec ef bd 42 d3 82 be 1e 6a 7e be 95 1b 5c bf
       -0.11715084 -0.25551802 -0.24845168 -0.85979587
000340 2f e6 99 3c 85 c1 0b bf a8 66 a7 be b1 45 37 bf
       0.018786518 -0.5459216 -0.32695508 -0.71590716
000350 96 2c 0d bf 94 01 37 bf e6 1b 6d bf cf ba b1 bf
       -0.5514616 -0.71486783 -0.92620695 -1.3885134
000360 75 f6 a2 be 90 3e db 3e 8c d5 74 be ff 9b 80 bd
       -0.31828657 0.4282117 -0.23909587 -0.06279754
000370 da 74 7c bf 89 b6 06 c0 51 91 e8 be 78 27 17 bf
       -0.986158 -2.104891 -0.45423368 -0.590446
000380 ce 32 0a bf 92 ca a9 be 6e 95 20 bf 14 c2 a0 be
       -0.5398377 -0.3316236 -0.6272801 -0.3139807
000390 ef d3 d8 bd e7 a5 c7 be 19 8c 71 3e d9 fa 8c 3e
       -0.10587298 -0.3899376 0.235886 0.27535132
0003a0 b4 a1 91 bf 95 5d 99 3e 28 7f 2f 3e 62 e4 33 bf
       -1.1377473 0.2995421 0.1713835 -0.7027036
0003b0 2d 0d 4b bf 20 fd 5e bf 19 c5 41 bf ec 24 4b be
       -0.7931698 -0.8710499 -0.7569137 -0.19838303
0003c0 05 7e 59 bf 14 e8 72 be 17 d6 a5 bf 91 9e 4b be
       -0.84957916 -0.23721343 -1.295596 -0.19884707
0003d0 8e 44 8b bf d9 e1 f4 be 59 ff 2b bf 89 30 2e be
       -1.0880296 -0.47828558 -0.67186505 -0.17010702
0003e0 20 af 23 3e a6 9f 2a bf b5 16 b1 bf 26 90 2f bf
       0.15984774 -0.66649854 -1.3835055 -0.6857933
0003f0 85 c1 eb be b9 a7 45 be 3f c0 b5 bf 58 a7 6a be
       -0.4604608 -0.19302262 -1.4199294 -0.22915399

fc2.weight f4 [256, 256]
000000 55 1e 27 3e bd 61 51 bf 50 a2 1c 3e b2 37 db be
       0.16320165 -0.8178976 0.15296292 -0.4281593
000010 0e 0f 88 be 9a dd b6 3e 93 7d 73 3e e2 b4 46 3e
       -0.26573986 0.35715944 0.23778372 0.19404939
000020 18 08 1a 3e 0e 9b fa bd 9e c3 9a 3d 8f 1c dd 3e
       0.1504215 -0.122366056 0.07556842 0.4318585
000030 88 49 19 3e f2 37 48 3f 2e 57 fb be 70 c5 64 3e
       0.14969456 0.78210366 -0.4908995 0.22340941
000040 5c b2 5c be 41 77 2a 3e ef e6 11 bf 1b 01 0d 3b
       -0.21552414 0.16647054 -0.56993 0.0021515551
000050 dd 5c a2 bd 5b 1b 23 bd 70 4a 80 3f 40 49 f1 3d
       -0.079278685 -0.03982101 1.0022717 0.117815495
000060 5b 21 0a bf 99 ce 85 3d d9 c0 09 3d 82 53 11 3e
       -0.53957146 0.06533546 0.03363118 0.14192012
000070 5b 16 e2 3e 95 32 45 3d 34 d9 7a 3e ab 51 d7 bc
       0.4415768 0.048143942 0.24496919 -0.02628406
000080 3f 00 09 be 3e b7 02 bd 42 30 46 3f fe 80 b9 3d
       -0.13379 -0.031913035 0.77417386 0.090578064
000090 e8 b1 0e 3f 6e 65 71 3c b0 dc bf bd 07 ae 8c bf
       0.55740213 0.014733655 -0.09368265 -1.0990609
0000a0 d6 d3 11 3e b2 07 c1 be 3d ce 47 be 26 91 c9 3e
       0.14240965 -0.37701184 -0.19512267 0.39368552
0000b0 5e 94 e8 bd ea 23 c1 3e f1 29 5e bf 09 1a d5 3c
       -0.11356424 0.37722713 -0.8678275 0.026013391
0000c0 f0 d2 87 3e 52 68 19 be 69 3f 9f 3e bf 4c 4e be
       0.2652812 -0.14981201 0.31103066 -0.20146464
0000d0 18 7d 7a 3e 68 40 b6 3e 5f 41 78 bf 4f 8d cc 3d
       0.24461782 0.35596013 -0.9697475 0.0998789
0000e0 59 62 3a bf 57 f7 9e 3d ec 16 3e bf ab 0c 76 be
       -0.72806317 0.0776202 -0.74253726 -0.2402827
0000f0 55 50 2d 3e b6 ba 6e 3e 58 21 89 3e 87 7e 85 bf
       0.16925175 0.23313412 0.26783252 -1.0429238
000100 e7 ab f5 bd 61 75 fd 3d 59 de 4f 3f f6 dc d4 bf
       -0.119956784 0.12375904 0.8119865 -1.6629932
000110 e8 5b 89 3f 47 5e 50 bf dc 4a e1 3e b4 13 60 be
       1.0731173 -0.81393856 0.44002426 -0.21882516
000120 28 26 9e be 34 ab e9 3d 35 b3 56 be dd ca 01 bf
       -0.30888486 0.114096075 -0.209668 -0.5070017
000130 ea c5 1e be 79 96 9a 3e a4 90 d0 3d 18 ce 70 bc
       -0.15505186 0.30192927 0.10183838 -0.014697574
000140 dc 28 3c be 25 6c fc 3d c1 a1 25 bf d8 a7 62 3e
       -0.18374962 0.123253144 -0.6469994 0.2213434
000150 11 6e cf be 03 f2 1e be 42 14 c3 bd 80 29 00 3f
       -0.40513662 -0.15522008 -0.09525348 0.50063324
000160 d8 d6 f0 3b 37 5c 63 bf 79 e5 4d 3e a4 3e 9b 3e
       0.00734983 -0.88812584 0.20107068 0.30321229
000170 0e 6f 11 bf ce c7 0c 3f f3 86 26 be 75 5b 10 be
       -0.5681008 0.5499238 -0.16262417 -0.14097388
000180 e3 e0 e7 3e 20 a5 91 be a8 d0 24 bd dd 55 b6 3d
       0.45288762 -0.28446293 -0.040238053 0.08903096
000190 47 ed da be c4 16 fd bd 2c 99 5e be cc 78 50 bf
       -0.42759153 -0.12357858 -0.21738118 -0.8143432
0001a0 3c 78 6e be 23 3e dc 3c 94 c8 a6 3e a9 1c a0 3e
       -0.23288053 0.026885098 0.32574904 0.31271866
0001b0 fa a2 23 3e e6 ea bb 3e e9 73 15 be 49 9c ba 3e
       0.1598014 0.3670265 -0.14594997 0.3644736
0001c0 b2 77 cf 3e 15 cc cf bd 3b ea af 3e 76 38 43 3d
       0.40521008 -0.101463474 0.3435839 0.047661267
0001d0 9f e6 26 3f f0 f4 7c 3f 91 27 28 bf 00 00 bf 3e
       0.6519565 0.98811245 -0.65685374 0.37304688
0001e0 e1 e8 39 bf bd cc 0b 3e 9a 44 2d 3e 90 27 8a 3e
       -0.7262097 0.1365232 0.169207 0.2698331
0001f0 9a 66 80 3e 03 6c df be 43 0d dc 3e 79 6c ad 3e
       0.2507828 -0.43637094 0.42978868 0.3387182
000200 85 a3 6d bf db 36 2f bf e9 43 1d bf 3a 13 96 3d
       -0.92827636 -0.6844308 -0.6143175 0.07327886
000210 47 d8 15 bf df 5d cc 3e 86 5b 72 3d f0 0a b3 3d
       -0.5853314 0.39915368 0.059169315 0.087423205
000220 67 4c 3e 3f 60 59 48 bf 0e 73 7f bd da 2a 77 bf
       0.7433533 -0.78261375 -0.062365584 -0.9654976
000230 86 9b 2d 3c dd fc a3 bd 97 bc 3b bf c8 5a a5 be
       0.010596162 -0.08007214 -0.7333464 -0.32295823
000240 25 6e 14 bd 16 bb af be 03 92 55 bf 58 28 68 3e
       -0.036237855 -0.34322423 -0.8342592 0.2267164
000250 5a 5e d4 bb 94 23 09 3f 96 53 d3 3e 94 12 e8 be
       -0.006480974 0.5356991 0.41274709 -0.45326674
000260 3d 1f 69 3d 79 0c fd bd 5d b1 5a 3d 96 27 bd bc
       0.056914557 -0.123558946 0.053391803 -0.023090165
000270 c0 c6 60 3d 33 73 3e bf fc 77 17 3f 28 34 ba 3d
       0.054877043 -0.7439453 0.59167457 0.09091979
000280 c1 00 2d 3d 6f d0 1b 3f e3 a9 22 3e 91 5f 08 be
       0.042237047 0.6086492 0.15885119 -0.13317706
000290 cc d0 77 be 81 26 96 bf 51 48 5b 3e 46 49 43 be
       -0.24200743 -1.17305 0.21414305 -0.1907092
0002a0 c9 c5 d5 bc 5b d8 a9 3e 3f 66 04 3f 07 d2 bc 3e
       -0.026095288 0.3317288 0.51718515 0.36878988
0002b0 16 a8 aa 3e 84 8a 82 bf 12 10 c7 be 7a 36 99 be
       0.33331364 -1.0198522 -0.38879448 -0.29924375
0002c0 1b aa bf be f9 3c 9b bd 81 ff 14 bd 15 1f 0d bd
       -0.37434468 -0.07579989 -0.03637648 -0.03445347
0002d0 8d 50 f1 bd 76 9c 82 be 19 b3 21 3f ba 06 d4 3e
       -0.11782942 -0.25509995 0.63163906 0.41411382
0002e0 5f 04 57 bf 1b ec 3b 3e 76 20 1b be 0d c9 84 bf
       -0.83991045 0.18351786 -0.15149102 -1.0373856
0002f0 7f 93 c6 3d c2 6a d9 be 46 54 8d bd 68 9c 06 3f
       0.096961014 -0.42464262 -0.069008395 0.52582407
000300 38 cd cb bd 85 18 71 bf be 06 94 3c 05 e9 e6 be
       -0.09951252 -0.9417804 0.018069621 -0.45099655
000310 3c c9 1e 3e d3 fd 8f 3d 56 d2 e0 3d cb 26 90 be
       0.15506452 0.07030835 0.109776184 -0.28154597
000320 71 97 eb 3d 36 80 a2 bd be e1 c4 be 98 3f 53 be
       0.115034945 -0.079346105 -0.38453478 -0.20629728
000330 d2 30 21 bc 14 72 90 bf 7a 16 a5 be 97 d2 3b bd
       -0.0098383 -1.1284814 -0.3224371 -0.04585513
000340 f5 c3 d4 3e b2 56 1a 3f 08 74 f1 bd 07 dd fc be
       0.41555753 0.60288537 -0.11789709 -0.4938738
000350 4f 27 d0 3e eb 60 c6 3e 2e b7 7c be e4 51 9b bd
       0.4065499 0.38745818 -0.24679253 -0.07583979
000360 24 b6 cf be 6a 0b 07 be 00 e9 1f bd ef a4 df bd
       -0.4056865 -0.13187948 -0.039040565 -0.109201305
000370 b8 ad 1d 3f b1 19 b5 3e 42 58 85 bd 94 77 6c 3e
       0.615932 0.35371163 -0.065109745 0.2309249
000380 25 2b 20 3f 89 87 69 3d dd 96 d1 3d 65 b8 5e bf
       0.62565833 0.057014022 0.10233853 -0.87000114
000390 90 ad df 3c d6 19 26 3f 33 bf 35 be 38 f6 ac 3e
       0.02730444 0.6488317 -0.17748718 0.337816
0003a0 70 a5 46 3e bc da 63 bf f7 f7 b7 3e aa c0 08 3e
       0.19399047 -0.8900564 0.3593137 0.13354746
0003b0 54 57 b3 3d 71 df 24 bf cb 49 e8 3d b1 9e 75 bd
       0.08756891 -0.64403445 0.113422 -0.059965793
0003c0 30 bd 3f 3f d1 b7 58 3d 75 76 04 be 23 e4 16 3f
       0.7489805 0.052909676 -0.12935813 0.5894186
0003d0 4b 2e 11 bd 38 7d 6c bd 71 9b 9a bf 72 9c c5 be
       -0.03544454 -0.057736605 -1.2078687 -0.3859592
0003e0 4f 11 01 bf 3b 02 32 3f 50 0d 2a bd d9 0f a4 3e
       -0.50417036 0.69534653 -0.041516602 0.3204334
0003f0 9c f4 0b bf 07 4c b5 3c 62 07 93 bd 9e 0b ba 3e
       -0.5467012 0.02213098 -0.071791425 0.36336988

fc2.bias f4 [256]
000000 56 0b 6a bf ab ca 19 bf 59 66 ba be ab 65 0c bf
       -0.9142355 -0.6007487 -0.3640621 -0.54842633
000010 bb ad 4d bf 43 1e 25 bd 74 69 c9 be 89 c7 12 3d
       -0.80343217 -0.040312063 -0.39338267 0.035834823
000020 2e e1 ad be 9c 87 82 3d 81 a3 d6 be 25 c5 f7 bd
       -0.3396086 0.06373522 -0.4192162 -0.12098149
000030 86 82 b1 be 23 86 b7 be 17 7a aa be 79 a0 22 bf
       -0.34669894 -0.35844526 -0.33296272 -0.6352611
000040 80 a8 6b be cf 79 80 bf 59 7d 5a be 45 d9 0f 3d
       -0.23013496 -1.0037173 -0.21336879 0.035119314
000050 90 d6 3c bf c8 d8 fa bc 3b a4 a0 be 52 7c 8a be
       -0.73764896 -0.030620947 -0.31375298 -0.27047974
000060 44 ab b0 be 44 cb a8 be 5f 61 27 bf 02 9f b6 be
       -0.34505665 -0.3296758 -0.6538295 -0.35668188
000070 ab 78 22 3e 89 36 32 bf 2e a9 17 bf c9 32 47 bf
       0.15866344 -0.69614464 -0.5924252 -0.77811867
000080 2b 69 6a be 40 be ee bd cb 23 b4 be dd 4c e9 be
       -0.22891681 -0.11657381 -0.35183558 -0.45566455
000090 48 67 4c be 85 ba 97 be b6 8b 51 be 59 66 74 bf
       -0.19961274 -0.2963449 -0.20463452 -0.9546867
0000a0 9e f7 2a 3c a5 27 08 be 9e ca f7 be a0 3f 2e bf
       0.010435013 -0.13296373 -0.48396772 -0.68065834
0000b0 71 bd 99 be 33 e9 6f bf b0 d8 73 bf 03 6e 12 bf
       -0.30027345 -0.9371521 -0.95252514 -0.57199115
0000c0 a4 a1 22 bf 85 e6 08 bf 9b 78 b7 bd 96 66 0a bf
       -0.63527894 -0.53476745 -0.089585505 -0.54062784
0000d0 fc 92 18 bf dd e3 32 bf 0e c8 77 bf 9b bd 83 be
       -0.5959928 -0.6987894 -0.96789634 -0.25730595
0000e0 2c 92 80 bd 1c af 04 bf dc 75 27 bf 2e 6f c7 be
       -0.0627788 -0.51829696 -0.65414214 -0.3895201
0000f0 9b 9d ae be 0f ad 5f bf db 34 27 bf 99 8d c3 be
       -0.34104618 -0.8737344 -0.65315026 -0.38193968
000100 f2 24 0b bf de e4 74 be 0a 52 fc be f1 4d b8 bd
       -0.5435325 -0.23915431 -0.4928134 -0.08999241
000110 d8 45 f8 be 76 16 c6 be d4 3f 54 bf b9 50 20 bf
       -0.48490787 -0.3868901 -0.82909894 -0.62623173
000120 6f 56 66 be b7 e8 11 be 1e 65 01 be 3c d5 1e bf
       -0.2249391 -0.1424893 -0.1263623 -0.6204412
000130 82 73 a0 be 13 90 05 bf cb 59 97 be 3a d8 d0 bd
       -0.31338125 -0.52172965 -0.29560694 -0.10197492
000140 6a f4 3d be 49 d3 9c be fa ad 6c bd dc 81 ea bd
       -0.18550268 -0.30629948 -0.057783104 -0.1145055
000150 76 01 6b be 7e 51 21 bf 1f ea ca be 58 3a cb bd
       -0.22949776 -0.6301497 -0.39631745 -0.099232376
000160 b8 88 a7 be be ab c7 be 59 b1 7c be 50 2b 78 be
       -0.32721496 -0.38998216 -0.24677028 -0.24235272
000170 d7 03 3a bd c4 e1 77 bf fa d7 32 be 54 20 ed be
       -0.04541382 -0.96828866 -0.17465201 -0.46313727
000180 8e a3 bc be 03 5e 0b bf f0 07 82 be 99 4b a0 be
       -0.36843532 -0.54440325 -0.2539668 -0.31307676
000190 f7 b7 6f be d1 e1 bb be e8 03 a8 be 9a 47 cb be
       -0.23410021 -0.36695722 -0.3281548 -0.39703065
0001a0 36 31 89 be 51 31 1c bf 30 17 9c be bb b4 bf be
       -0.26795357 -0.6101275 -0.3048644 -0.37442574
0001b0 75 5a 7e bd 92 20 43 bf aa a7 cc be 9c a6 ed be
       -0.062097985 -0.76221573 -0.39971668 -0.46416175
0001c0 03 ae 0c bd 3b 06 15 bf aa e4 40 be 5d 8c c9 be
       -0.034345638 -0.5821263 -0.18837228 -0.393649
0001d0 54 df a5 be cc f4 9b bf ea 84 ef bd e1 02 3b bd
       -0.32396948 -1.2184081 -0.11695273 -0.045657042
0001e0 c9 47 fb be ae f9 fa be 55 33 2e bf 7b f2 f3 be
       -0.49078205 -0.49018615 -0.68047076 -0.47645935
0001f0 e6 45 0c bf fe d5 2f bf d6 eb e5 be 61 49 85 be
       -0.54794157 -0.686859 -0.4490649 -0.26032546
000200 74 62 56 bf 03 d9 5e bd a8 06 ef be ce 8e 0c bf
       -0.8374398 -0.054406177 -0.46684766 -0.549054
000210 6f 06 a1 be 9a 34 39 3b da 28 f3 be ba 88 fb be
       -0.3145022 0.0028260113 -0.47492105 -0.49127752
000220 55 04 7f 3c ff 5d cb be 80 6a 38 bf 5b 10 06 bf
       0.015564998 -0.3972015 -0.72037506 -0.52368706
000230 39 5e 5f 3e 80 d5 18 bf 7b c0 ab be 6c 37 3a bf
       0.21813287 -0.59700775 -0.33545288 -0.7274082
000240 3c 3d ce be 5f c4 00 bf 38 a8 58 bf a0 9b 46 be
       -0.40281093 -0.5029964 -0.8463168 -0.19395304
000250 66 0c ca be 47 b4 31 be 21 41 48 bf 36 1e 35 bf
       -0.39462584 -0.17353927 -0.7822438 -0.70749223
000260 78 14 9c bd c3 8e 3c bf b5 86 ac be 98 96 f0 be
       -0.076210916 -0.7365534 -0.33696523 -0.46989894
000270 c2 60 02 bf 55 c8 76 bf ba d4 e6 be 3b 14 8b be
       -0.5092889 -0.9639943 -0.45084172 -0.27163872
000280 26 4f c1 bf 84 d3 0f bf 6d e9 9a be 46 85 6a be
       -1.5102279 -0.5618212 -0.30256215 -0.22902402
000290 28 15 29 be f7 eb 50 be 84 94 14 be 3c 3d 25 bf
       -0.16511977 -0.20402513 -0.14509779 -0.6454656
0002a0 9d 2f 6d be cc b7 a7 be 10 38 5f be f9 44 b0 be
       -0.23162694 -0.32757413 -0.2179873 -0.34427622
0002b0 92 95 a0 be c1 7c f9 bd 42 46 0b bf 11 23 bb bf
       -0.31364113 -0.12181998 -0.5440408 -1.4620076
0002c0 84 b5 18 bf 4a fc 29 be be 10 18 bf a5 85 9b bd
       -0.5965197 -0.16600147 -0.59400547 -0.0759385
0002d0 46 9b 16 be f5 5f ec be ea f6 d0 be ae 40 32 bf
       -0.1470767 -0.4616696 -0.4081338 -0.69629943
0002e0 6c f6 8a bf b4 0b 22 bf 3a 44 e9 be 54 f1 a0 bf
       -1.0856452 -0.6329911 -0.45559865 -1.2573647
0002f0 31 eb 30 bf e4 32 5c bf c6 f6 ce be 93 3b 65 be
       -0.69108874 -0.8601515 -0.40422648 -0.22386007
000300 6a 1e ac be 37 c6 15 bf ee a9 77 bf 8f da 09 bf
       -0.33616954 -0.58505577 -0.9674367 -0.5384912
000310 6f 1e d5 bd 7a 04 ef be d4 df eb be c8 72 a2 be
       -0.10406195 -0.46683103 -0.46069205 -0.31728196
000320 e3 4f 98 be 7b 8d 2e bf 16 e3 af be b6 b8 47 bf
       -0.2974845 -0.6818463 -0.3435294 -0.7801622
000330 44 38 0a bf 75 ba e7 be b4 5b 2d bf 4e f2 83 be
       -0.53992105 -0.45259443 -0.6771805 -0.257708
000340 0d 07 05 bf 34 d4 7b be e6 29 54 be 5a b7 3e bf
       -0.51963884 -0.24592668 -0.20719108 -0.7449852
000350 3d e5 a6 be 85 53 85 be fb e2 4e bf a3 f5 32 bf
       -0.3259677 -0.26040283 -0.80815095 -0.6990606
000360 8b 6e 79 be 78 8d 39 be 43 bf a5 be 43 3f 97 bf
       -0.24358575 -0.18120372 -0.32372484 -1.1816181
000370 4e e6 67 be 46 ef e1 be 18 5a 1c bf 84 ee 64 bf
       -0.22646448 -0.44127864 -0.6107497 -0.89426446
000380 29 88 10 be 1d 26 a1 be 01 6c e6 be 1d 5b 13 bf
       -0.14114441 -0.3147439 -0.45004275 -0.575609
000390 88 32 37 be 91 9f 16 bf 7b ba 0c bf fe 9a 7c bd
       -0.1789037 -0.5883723 -0.54972047 -0.06167125
0003a0 09 f3 c3 be a1 28 4b bf a3 ca e4 be 66 6e 37 bf
       -0.3827136 -0.7935887 -0.4468585 -0.7165283
0003b0 c4 bd 30 bf 2f 82 97 be 97 8a 9f be 1d 79 07 bf
       -0.6903956 -0.2959151 -0.31160423 -0.5291918
0003c0 d6 8e a8 be e9 92 59 be 66 b0 4f be 85 22 36 bf
       -0.32921475 -0.21247448 -0.20282134 -0.7114642
0003d0 2a 22 a8 be fe a4 01 bf 80 d9 13 be dd db 8b be
       -0.32838565 -0.50642383 -0.14438438 -0.2731618
0003e0 a6 83 2e bf 25 c0 b8 be b4 cb 32 bf a6 6a 67 be
       -0.6816963 -0.36084095 -0.69842076 -0.22599277
0003f0 74 65 da be 7d 9a 81 bd 66 78 e3 be 40 b3 80 be
       -0.42655528 -0.063282944 -0.44427794 -0.25136757

fc3.weight f4 [128, 256]
000000 a2 2b 7f bf b7 6d 6c bf 07 27 59 bf ec 36 f0 bd
       -0.99675953 -0.9235491 -0.84825176 -0.117292255
000010 60 66 e2 3d 15 42 0f bd 53 32 ed bd 54 00 57 bd
       0.11054683 -0.03497513 -0.11581864 -0.052490547
000020 0d 0b d2 be 0a fb c5 ba 66 7d 87 be 1e 5f af bd
       -0.41024056 -0.0015104723 -0.2646286 -0.08563064
000030 3f 3e 6e bf e4 6d a2 be 67 f2 66 bf eb 9a 7f 3b
       -0.9306373 -0.31724465 -0.90213627 0.003900225
000040 4e 5f e0 be b3 99 5e bf 17 93 ae be 6c 4a cc 3e
       -0.43822712 -0.86953276 -0.34096596 0.3990053
000050 42 78 16 3e cf ea 31 3e 79 ae 8d 3d 79 b8 8b be
       0.14694312 0.17374729 0.06918044 -0.2728918
000060 14 01 8f 3e 4b 3b c4 3e 54 25 7e be 3f 27 d3 be
       0.2793051 0.38326487 -0.24818927 -0.4124088
000070 36 55 9f 3e 6c 77 99 be 05 0e 98 be 0f 57 05 bf
       0.31119698 -0.29973924 -0.29698196 -0.52085966
000080 e8 48 62 3d 78 d4 f1 be 4a 82 87 bf c2 ac 9e bf
       0.05524531 -0.47232413 -1.0586636 -1.2396472
000090 87 f0 84 3e 79 1c 20 3f 0a 8b 24 bf 04 03 4b bf
       0.25964758 0.62543446 -0.64274657 -0.79301476
0000a0 78 cd 8c bf 58 f1 b5 3e a5 40 6e be c3 02 da 3e
       -1.1000204 0.35535693 -0.23266847 0.42580232
0000b0 b6 e1 95 3d a8 23 40 bf 2e 73 31 3f 59 b9 e5 be
       0.073184416 -0.7505441 0.69316375 -0.44867972
0000c0 ad 79 38 bf 73 fc 32 be d8 a6 a6 3e 97 29 c6 be
       -0.7206066 -0.17479114 0.32549167 -0.38703606
0000d0 36 2f d6 3d 6c 6e 6b bf d7 1c 39 bf 33 c1 d8 bb
       0.104582235 -0.91965365 -0.7230963 -0.006614828
0000e0 da e9 33 bf 33 ee 12 bf b0 4d 82 bf 2f b5 c1 bd
       -0.70278704 -0.57394713 -1.0179958 -0.09458386
0000f0 02 be ba be a9 60 7a bf 50 7a 89 3e f9 d7 69 3e
       -0.3647309 -0.9780374 0.2685113 0.22836293
000100 96 1b 98 bf 18 53 e7 bc 77 5c 17 bf f7 e9 47 3e
       -1.1883419 -0.028237864 -0.59125465 0.19522844
000110 31 69 3e bf 4e 5d b9 3c 66 af c3 bf e6 5a d6 bf
       -0.7437926 0.022627499 -1.5287902 -1.674649
000120 97 4a 30 3e 87 b1 fb 3d 4f 00 de be ce 6b 51 3e
       0.17215954 0.1228972 -0.4335961 0.2045128
000130 bf 91 0e 3e ff 01 36 3f 40 98 2b be ad 50 41 3f
       0.13922785 0.71096796 -0.16757298 0.75513726
000140 62 6d 42 be ef e2 94 bd b2 07 86 3e 85 2f 2d bd
       -0.18987039 -0.07269847 0.26177746 -0.042281646
000150 e9 af 74 3e c9 13 03 be f6 85 b1 bd 3a 69 ba bf
       0.2389523 -0.12800516 -0.08668129 -1.4563363
000160 61 10 c5 3e f4 8f 84 3e 97 23 83 bf 76 72 0f 3e
       0.3848906 0.25891078 -1.0245236 0.14008507
000170 b5 66 07 3e 0c 95 33 bf 33 f6 85 bf 77 c4 cf 3c
       0.13222773 -0.701493 -1.0465759 0.025362236
000180 db 52 84 3e 91 4b 91 bf 9c fb eb be 04 82 4b be
       0.25844464 -1.1351186 -0.460904 -0.19873816
000190 be 25 d6 3d b8 97 26 bf 05 fb 15 bf 1e ed fd be
       0.104564175 -0.65075254 -0.5858615 -0.4959497
0001a0 6d 3f fc 3e ab ce d1 be 27 bf a6 bf 17 a9 74 be
       0.4926714 -0.40977988 -1.3027085 -0.23892628
0001b0 53 1f 6b be 8c 86 6a 3e a9 08 9c 3e b9 d3 5c be
       -0.22961168 0.22902888 0.30475357 -0.21565141
0001c0 7a 56 b3 3e 6e cd 94 be 1f 42 af bd f8 67 80 be
       0.35026914 -0.2906298 -0.085575335 -0.25079322
0001d0 f9 ec 6f be ca 54 42 3e d6 77 3b be bf 0c 96 3d
       -0.23430242 0.18977657 -0.18307433 0.0732665
0001e0 8d 8d b1 be ce 60 3c 3e 41 23 11 bf f3 b3 60 3b
       -0.34678307 0.18396303 -0.5669442 0.0034286946
0001f0 1b f2 14 3f 22 31 f2 bf f7 7b d3 be ec 3d c6 bf
       0.58181924 -1.8921244 -0.41305515 -1.5487647
000200 12 ed b7 be 7f 54 99 be d1 94 80 bb f2 3f 0c 3f
       -0.35923058 -0.29947278 -0.0039239903 0.5478507
000210 54 2c 7b 3e 19 cf b0 bd b1 fa 98 bf 1b 1c 8b bf
       0.24528629 -0.08633251 -1.1951505 -1.0867952
000220 e2 98 77 be ce 10 49 3f 90 2e 5c be cd 1b bc 3e
       -0.24179414 0.78541267 -0.21502137 0.3673996
000230 38 d8 b3 be e7 ec a4 3e 9f bd 99 3e 9e 33 22 3e
       -0.351259 0.32211992 0.30027482 0.15840003
000240 20 6a a0 be 47 2e 39 be 26 c4 ca be 9e cc 7a bc
       -0.31330967 -0.1808406 -0.39602774 -0.015307574
000250 e7 24 21 be 7e f7 aa bd 0f 7f b5 3b a8 1f c0 3e
       -0.15736733 -0.08347987 0.005538828 0.37524152
000260 1d 6c e7 3e b9 46 98 be 92 89 b9 3e 6c 4b 37 bf
       0.4519967 -0.29741457 0.3623777 -0.7159946
000270 03 83 aa be 11 41 80 bf 1b 1c 7a be 7e 90 e5 3e
       -0.3330308 -1.0019857 -0.24424784 0.448368
000280 a7 25 30 bf c7 a3 92 3e a2 47 20 3e 1b 67 12 bd
       -0.6880745 0.28640577 0.15652326 -0.03574286
000290 51 79 d1 be 18 77 9b 3d 5f 44 da 3d 47 b6 9a 3e
       -0.4091287 0.07591075 0.10657572 0.30217192
0002a0 04 7c de 3e a6 f9 6c bf 0e 34 89 bd 34 67 06 3f
       0.4345399 -0.92568433 -0.06699382 0.52501225
0002b0 31 1e 94 3e 58 3e 0b 3f 6e 50 4f bf 75 3a 8d bf
       0.28929284 0.54392004 -0.809821 -1.1033465
0002c0 88 5e 97 bf 36 1e 93 3d 84 2c e6 be 66 7c b1 3e
       -1.1825724 0.07183497 -0.44955838 0.3466522
0002d0 54 7f d1 be 55 65 6c 3e e2 7b e2 bd ff 0a 6f be
       -0.40917456 0.2308553 -0.11058785 -0.23344038
0002e0 f3 e8 f7 3c 09 b4 2d be 48 2b 57 bf fe a6 b2 bf
       0.030262446 -0.16963209 -0.84050417 -1.3957212
0002f0 3c 4e 50 3d 05 41 1b bf ee 4a 1d be 78 a3 d9 3e
       0.05085586 -0.60646087 -0.15360615 0.4250753
000300 c5 8d 00 3f 65 6b 83 bf c3 29 b2 3d a7 e1 aa be
       0.50216323 -1.0267149 0.08699372 -0.33375284
000310 ff 3b 30 bf 3a 36 b0 be 95 22 12 3d e0 92 98 be
       -0.68841547 -0.34416372 0.03567751 -0.29799557
000320 cf 79 15 bf 9e 63 ae 3d 4b e0 ad bd 46 99 92 bf
       -0.5838899 0.08515094 -0.08490046 -1.1453025
000330 6d 4d 37 3e 11 56 9b be 6e fe ef be 7c f2 38 bf
       0.1790063 -0.303391 -0.46873802 -0.72245
000340 d2 c2 f7 3d bf 86 4c 3e 31 fe d9 3e 62 15 32 bd
       0.12097706 0.19973277 0.42576745 -0.043477423
000350 19 86 ee bd 96 50 9a bc 70 a1 2c 3e 16 83 34 bf
       -0.11646671 -0.018837254 0.16858459 -0.7051252
000360 c4 26 e6 be 4a 04 5f bf ff 24 26 3f 0e f9 3f 3f
       -0.4495145 -0.8711592 0.649002 0.749894
000370 aa 9d 3f be 2e 77 fd 3e e2 e9 c8 3e 2f 82 97 3e
       -0.18712488 0.4950499 0.39240938 0.2959151
000380 4f 8b cf 3e b0 c1 70 be 7e d1 89 3e b8 fc 10 3f
       0.40535972 -0.23511386 0.26917642 0.5663562
000390 34 f3 8b 3e c0 51 1f bf e0 96 14 bf 27 0f a1 bf
       0.27333987 -0.62234116 -0.58042717 -1.2582749
0003a0 ce 67 fc bd e4 8b ab bf 1c 17 2b bf 8a 64 3d bd
       -0.12324487 -1.3402066 -0.6683214 -0.04623846
0003b0 46 b1 92 3e 9e 32 f3 3e 88 84 10 bf 96 dc 83 be
       0.28650874 0.47499555 -0.56452227 -0.2575423
0003c0 de 40 79 bf e1 c6 2e bf 72 bf 49 be cc 21 18 bf
       -0.97364604 -0.68272215 -0.19701937 -0.5942657
0003d0 70 2c 27 bf 8a 61 79 3d 23 f8 1b bf 1c 83 56 bf
       -0.6530218 0.060884036 -0.609255 -0.8379381
0003e0 65 56 17 bf fc 86 81 be f6 dd 56 3d 3d 01 c9 be
       -0.591162 -0.25298297 0.052457772 -0.39258757
0003f0 e5 8b 56 bf 54 bb d4 3d 23 ef b6 bd eb e9 3b bf
       -0.8380721 0.103872925 -0.089323305 -0.73403805

fc3.bias f4 [128]
000000 3a 6b a3 be 39 01 5e bd 64 3d e9 be d2 73 96 be
       -0.31917745 -0.054200385 -0.4555465 -0.2938524
000010 76 ff f8 3e 73 bd 1d be c4 af 01 3f ec e3 e3 3e
       0.486324 -0.154043 0.5065882 0.44509828
000020 0d 58 1f 3f 0a 46 30 bd 1f 4f 08 3f 8f 96 dd be
       0.6224373 -0.043035544 0.5324573 -0.4327893
000030 16 32 b0 bd a3 d4 a0 3d d3 e6 e8 be 33 80 9e 3d
       -0.08603303 0.07853057 -0.45488605 0.07739296
000040 8c c3 49 3e 2c da bc 3e 78 b4 62 be d0 ba 55 be
       0.19703501 0.36885202 -0.22139156 -0.20872045
000050 7b 78 a9 bc 78 b5 09 3c 09 e9 d7 bd e7 41 24 bf
       -0.020687332 0.008405082 -0.10542495 -0.6416306
000060 bf c4 23 3e 5c 16 83 3e c7 41 8e 3d be c5 09 bf
       0.15993021 0.25602996 0.0694614 -0.53817356
000070 4d ec 83 be 3a 31 0c bf 2a 04 73 bd 75 88 dc bd
       -0.2576622 -0.54762614 -0.059330143 -0.107682146
000080 66 28 65 3d d5 2c c9 be bf c3 e1 bd 41 b5 5d be
       0.05594673 -0.39292017 -0.11023664 -0.21651174
000090 e4 53 2f be 10 33 5f 3e 44 f5 23 3d 48 0e e8 bc
       -0.17121845 0.21796823 0.040028825 -0.028327122
0000a0 ce db 84 be 5c e3 3b bf 5b e3 f9 bd 61 9c 80 3d
       -0.25948948 -0.733938 -0.12201568 0.06279827
0000b0 d0 01 95 be e8 d9 56 bf 90 7c 12 bf 4c 06 b4 3d
       -0.29102945 -0.8392625 -0.5722132 0.087902635
0000c0 cf 8c 49 3b b9 ce c9 be e0 d8 77 be c4 db a7 3d
       0.0030754094 -0.3941553 -0.24203825 0.08196214
0000d0 d4 bd 7e be b7 88 c8 be 1b 3f a2 3c 7f 4a 6f be
       -0.24877101 -0.39166805 0.019805482 -0.23368262
0000e0 3b 7f 08 3e a3 6c 3e be 99 dc 34 3e d2 54 58 be
       0.13329785 -0.18596129 0.17662276 -0.21126106
0000f0 05 e8 c1 bd 95 4e c6 3e 59 03 4d 3e 5e 3b fc bd
       -0.09468082 0.38731828 0.20020808 -0.12316011
000100 8a b8 9c be 4c 47 ee 3e 3b 4b ba bc 12 56 ac 3d
       -0.30609542 0.4653877 -0.02274095 0.08414854
000110 f4 dd 50 3a 03 cd c5 bd 11 7b 5b be 34 86 88 be
       0.0007967644 -0.096582435 -0.21433665 -0.2666489
000120 d3 b5 f7 bc 95 75 1a be 1e bb 88 be 62 a5 7d bf
       -0.030238068 -0.15083916 -0.2670526 -0.9908048
000130 a6 a4 cc bd b3 32 8a be 91 9b fa 3f ec 9c 40 bf
       -0.09992342 -0.26991805 1.9578725 -0.75239444
000140 04 5b 27 be 21 70 83 be c3 15 38 be 6b e5 9f be
       -0.16343313 -0.25671485 -0.17977051 -0.3122972
000150 7d 1b 24 be aa 86 15 3e 31 65 56 be c2 23 de be
       -0.16026111 0.14602152 -0.20937039 -0.43386656
000160 c0 2e 60 3c 89 8c 03 bf 6e cc 80 bf 5a c9 de be
       0.013683021 -0.51386315 -1.0062387 -0.43512994
000170 53 fb c6 3e 08 b4 22 bf b6 93 df be 17 dd a0 be
       0.3886362 -0.63555956 -0.43667382 -0.31418678
000180 58 9b 1d be 4c 87 d1 bd 40 5b 06 3e 03 92 a2 3d
       -0.1539129 -0.10230884 0.13120747 0.07938006
000190 9d 0a 26 bd 48 fa 25 be e4 59 cc 3e ae 66 be be
       -0.040537465 -0.16208756 0.3991233 -0.37187713
0001a0 b4 56 a8 3a 9d b0 63 3c 14 f6 84 be 1a d5 83 be
       0.0012843222 0.013897088 -0.25968993 -0.2574852
0001b0 aa 57 8f be 47 fc 8c be 08 93 a0 be ce 75 8a be
       -0.2799657 -0.27536222 -0.31362176 -0.27043003
0001c0 7a 52 59 be f7 cc 81 3c 84 05 9a 3d bf ce 89 bf
       -0.21222869 0.015844805 0.07520583 -1.0766219
0001d0 57 12 21 be 1a 98 07 bf a8 a4 bf 3e e2 35 ab be
       -0.15729652 -0.52966464 0.3743031 -0.33439547
0001e0 29 22 8d be 02 4d 40 be 63 e1 ed 3e 14 7f 92 be
       -0.27565125 -0.18779376 0.4646102 -0.28612578
0001f0 98 d9 b3 3e ed 9e 9d be 8e 49 01 be b8 f3 42 3d
       0.35126948 -0.30785313 -0.12625715 0.04759571

fc4.weight f4 [32, 128]
000000 5a b1 0a bc c1 e8 6e 3e fa ea 4a 3e 50 75 58 3d
       -0.0084651355 0.23330976 0.19816199 0.052846253
000010 45 6e 03 bd 55 02 28 3d a7 17 37 3d 5c 0b 9f 3d
       -0.032087583 0.04101785 0.04470029 0.077658385
000020 e6 48 d3 3c 91 d6 bc be cd 39 4a bd 33 9a 12 3e
       0.025791597 -0.3688245 -0.04937153 0.14316635
000030 af 2c ef ba fa a4 3a 3e eb 2c 00 3d bc 7e b2 be
       -0.001824757 0.18226996 0.031292837 -0.34862316
000040 fb 41 37 3e 35 a4 4f 3d d9 7c a7 bd be 21 f6 3d
       0.17896263 0.05069371 -0.0817811 0.120181546
000050 74 54 05 be 29 b7 01 bf be 5b fe 3e 69 79 83 be
       -0.13020498 -0.50670105 0.4967937 -0.25678566
000060 e7 de 04 be 11 89 bb b9 a5 a9 44 be d9 30 b1 3d
       -0.12975655 -0.00035769542 -0.19205339 0.08651895
000070 bc b9 92 bd 70 4b 12 bd f4 67 24 3d 77 b2 99 3d
       -0.07164332 -0.035716474 0.0401382 0.075047426
000080 33 09 ef bd 41 b9 1c 3d 2b 98 a7 be ff 88 e2 3d
       -0.116716765 0.03826261 -0.32733282 0.11061286
000090 cb 36 3d 3d 45 f5 95 3e dc cc c5 3d eb 5a f2 bd
       0.046194833 0.29288688 0.096582144 -0.118337475
0000a0 91 40 d3 bc 8a 5f c4 bd 28 3c 72 bb 7b e1 93 bd
       -0.025787624 -0.09588535 -0.0036962125 -0.07220741
0000b0 ac 42 1f 3c 46 bf e6 bd f0 e7 95 be d1 5c d7 bd
       0.009720486 -0.11266951 -0.29278517 -0.1051575
0000c0 39 a6 af be 7a 46 5c 3e 9f 20 03 bd 70 dc c5 be
       -0.34306505 0.2151126 -0.03201353 -0.38644743
0000d0 bf 5e 8b be ab a7 ef 3d b7 cc 30 bf 4a 13 ab bd
       -0.27220723 0.11701902 -0.6906237 -0.083532885
0000e0 70 66 b4 bd ef bc a0 bd 6c 9a 5a bd dc 3e 01 3e
       -0.08808601 -0.07848536 -0.053369924 0.12621635
0000f0 89 d4 8c be c2 6c 91 3d 2e d7 ce bd 24 dd 04 bf
       -0.275059 0.07100822 -0.10099636 -0.51899934
000100 e7 c7 ba bd 85 ed 0a bd 9b ee 1d bc 81 75 a0 3d
       -0.091201596 -0.033917923 -0.0096394075 0.07834912
000110 93 61 60 bd d2 ce 3b bd d1 da 99 bc bb ca b2 bd
       -0.054780554 -0.045851536 -0.018781098 -0.08730074
000120 63 5e 2c be 70 e6 a4 bd 75 a3 02 be e6 92 2f be
       -0.1683288 -0.08051765 -0.12757666 -0.17145881
000130 48 69 a6 3e 36 ce e7 bd 7a 18 2f bd d8 b5 d7 bd
       0.32502198 -0.113186285 -0.042747952 -0.10532731
000140 05 e5 eb 3d f0 6b 86 be 0c 8f ab be 6b cf 94 3d
       0.115182914 -0.26254225 -0.33507574 0.07266124
000150 3a fd b6 be d5 d6 02 bc 2c a1 c4 3d 46 01 94 be
       -0.35740072 -0.00798579 0.096010536 -0.28907222
000160 eb 7d 49 3e 2e f8 03 3e 55 a7 3a 3e 23 ee 42 be
       0.1967694 0.12887642 0.18227895 -0.19036154
000170 75 dc f9 be c3 c2 4f 3e 51 df 47 be ea 00 3d bd
       -0.48801008 0.2028914 -0.19518782 -0.04614345
000180 a1 5c c1 bd 80 bf 03 3d 7d 5e 6a bd 54 ce 8e be
       -0.09441496 0.03216505 -0.057219017 -0.2789179
000190 27 13 13 3e 1b d7 e7 3c ca 29 ce bd 0d 36 b7 bd
       0.14362775 0.028300812 -0.100665644 -0.08945856
0001a0 a8 38 0b 3d ce 47 bd 3c d7 5b c1 b9 ca cf 93 3d
       0.03398958 0.023105528 -0.00036880255 0.07217367
0001b0 b6 63 4e be 52 ca 3c be 04 d1 ce bd f9 b3 0d bd
       -0.20155224 -0.18436554 -0.1009846 -0.034595463
0001c0 ed f0 30 be ad 47 ca bd ae e4 16 3e ed a4 a3 3d
       -0.17279406 -0.09876952 0.14735672 0.079904415
0001d0 7c fd db 3d 24 46 8c bd 41 06 9e 3d eb bf ad be
       0.10741708 -0.06849316 0.077160366 -0.33935484
0001e0 f0 3d 83 be 91 5a 89 bd a2 81 9d 3d d6 ad 93 3d
       -0.25633192 -0.06706727 0.07690741 0.07210891
0001f0 d4 1f 28 be 00 90 50 be ab 77 04 be 07 44 9c be
       -0.16418391 -0.20367432 -0.12936275 -0.3052065
000200 b2 e3 90 3c 78 12 5d 3d ec 99 10 3e 87 32 fd 3d
       0.017686699 0.05397269 0.14121217 0.12363153
000210 9a bf 9b be 30 ee 42 3d a3 0a 40 be 18 d8 8d be
       -0.30419618 0.047590435 -0.18754058 -0.2770393
000220 7e 66 8b be 70 42 b4 bc 2c bc 9f be ce 8d 87 bd
       -0.27226633 -0.022004336 -0.3119825 -0.06618844
000230 c5 ba 44 be 7b 94 c2 bd dc 27 f7 3c a3 98 04 3d
       -0.19211872 -0.09500977 0.030170374 0.03237213
000240 8a 7f 0f bd eb 8d 58 bd 59 96 5d bd 9a 77 f5 bb
       -0.03503374 -0.05286972 -0.05409846 -0.0074910643
000250 61 88 a3 bc 71 42 e5 bc ff cf 1a bd 4a e0 2e be
       -0.019962491 -0.027985783 -0.037796017 -0.17077747
000260 22 b4 49 bd e5 a0 35 be 51 90 fc 3d 22 b2 96 3d
       -0.049244054 -0.17737158 0.12332214 0.07358195
000270 59 ba 11 3e f6 6b 3d be 8c e1 26 be df 64 23 3d
       0.14231242 -0.18498215 -0.16296977 0.03989112
000280 e1 8d d7 bd 7c 13 72 be f1 29 24 be 3c d1 62 be
       -0.10525108 -0.23640245 -0.16031624 -0.22150129
000290 7b 27 ac 3d 78 ac 45 be a8 a8 b3 3d e0 1a a1 3d
       0.08405968 -0.19304073 0.08772403 0.07866454
0002a0 71 a4 1c be 78 ef 10 3d 42 c4 11 be be 4b ab 3c
       -0.15297104 0.035384625 -0.14235023 0.02091014
0002b0 e1 cf 79 3d 27 60 fe bc fe 48 4a 3b d7 d1 42 bd
       0.060989264 -0.031051708 0.003086626 -0.0475634
0002c0 cf 9a 92 bd b7 3d 01 bd 0e ef 1b be 31 db 88 3d
       -0.07158434 -0.031552996 -0.15227911 0.066824324
0002d0 0e dc 04 bd 9e 70 89 bd c2 0e 65 3d fa d2 80 3d
       -0.032436423 -0.06710933 0.055922277 0.062902406
0002e0 4c 34 25 be 67 27 02 be 35 76 40 bd 60 04 f8 bd
       -0.16133231 -0.12710343 -0.04698773 -0.121102095
0002f0 6c 85 90 3d 8a 8a 16 3d cf 07 50 3d d7 4c 1b be
       0.07056698 0.036753215 0.050788697 -0.15166031
000300 44 c6 14 be d1 89 07 bf 58 7f 6f 3c 32 e8 e2 bc
       -0.14528757 -0.52944666 0.014617763 -0.02769861
000310 3f c9 14 3e 43 19 0a 3c 12 79 83 3d ee e1 dd bb
       0.14529894 0.008428874 0.06419577 -0.0067713177
000320 e5 e1 96 3c 49 5d 7a 3d f7 17 b4 3b 6d f7 76 3d
       0.018418262 0.06112412 0.005496021 0.060294557
000330 7d e5 99 bd 11 f9 1b 3e ec 94 96 be 45 93 3d be
       -0.075144745 0.1523173 -0.29410493 -0.1851321
000340 8f 63 b1 3d dd ce 59 be f2 bd 52 3b b1 64 9c be
       0.086615674 -0.21270318 0.0032156673 -0.3054557
000350 5e 06 fa 3d b1 e5 03 3c c8 5d 07 be 53 34 b1 bc
       0.12208246 0.008050368 -0.13219368 -0.021631395
000360 09 8f 29 3e ec a2 6c be e2 78 54 3d 74 b0 e8 bc
       0.1655847 -0.23109025 0.051873095 -0.028404452
000370 e9 d4 b6 3c 2b de 59 be 1e ce 30 be c4 63 28 bd
       0.02231832 -0.21276157 -0.17266127 -0.04111077
000380 9a fb d5 bd ce cf 7a 3d 60 80 fd bd 9d 59 53 be
       -0.1044838 0.061233334 -0.12378001 -0.20639654
000390 4d 4f f8 bd 5c a9 0f 3e 8b ec dc bb 3d 28 0d bd
       -0.121245004 0.14029449 -0.0067420653 -0.034462202
0003a0 b9 f1 2a bd af 8c 0f 3e cc ec 10 be eb 4b ee bd
       -0.04173443 0.1401851 -0.14152831 -0.11635574
0003b0 2a c8 ff bd b2 81 27 3d 1e f6 c9 bd 00 ee 63 bd
       -0.1248935 0.04089517 -0.09861396 -0.055646896
0003c0 ee 7b f0 3c cb f2 20 3d 08 cb 90 bc cc 53 12 be
       0.02935597 0.039294045 -0.017674938 -0.14289778
0003d0 0b c0 3b be e2 e6 e5 bc 02 e5 95 bd 2b 96 a4 bd
       -0.18334977 -0.028064195 -0.073190704 -0.08036455
0003e0 4a 6c 0d bd 01 b9 3d be 8f 48 15 be b8 45 7d bd
       -0.0345271 -0.18527605 -0.1457846 -0.061834067
0003f0 ff 16 b0 3c b3 02 38 bd 31 f0 0e be 95 fb 43 bd
       0.02149534 -0.04492445 -0.13958813 -0.04784735

fc4.bias f4 [32]
000000 1e a3 9d bf c0 84 4a bf 35 eb 10 3f ae 88 a1 be
       -1.2315404 -0.7910881 0.566089 -0.3154959
000010 28 0c 43 bf ac 02 7e bf 15 5f aa bf 4b 05 7d bf
       -0.76190424 -0.99222827 -1.3310267 -0.988362
000020 f9 97 0e bf 4c 42 41 bf 05 f7 96 3f 32 29 5b bf
       -0.5570064 -0.75491786 1.1794134 -0.85609734
000030 61 d7 66 bf 77 7b 67 bf 3c ae a2 3e 3e 4e 0a bf
       -0.9017239 -0.9042277 0.31773555 -0.5402564
000040 75 17 07 bf cc 91 28 bf c0 4c 04 bf 9c 86 52 bf
       -0.5277017 -0.6584747 -0.5167961 -0.8223665
000050 09 f9 41 bf d1 d0 9e 3f 53 71 67 bf 21 df 4e bf
       -0.7577062 1.2407476 -0.90407294 -0.8080922
000060 59 81 5d 3f 10 d2 6f bf c9 a2 98 3f 5d a7 f9 bf
       0.86525494 -0.93679905 1.1924678 -1.95042
000070 87 9e ec be 0f bb 57 bf a3 4a ae be 34 bc 57 bf
       -0.46214697 -0.84269804 -0.34041318 -0.8427155

Q.weight f4 [1, 32]
000000 5f 27 73 bc f7 92 09 3b fa 63 6c bd 04 1f 4b bd
       -0.01484093 0.002099214 -0.057712533 -0.049590126
000010 5b ab 9c 3b 26 5b f7 bb df 61 55 bc 09 e3 78 ba
       0.0047811694 -0.0075487075 -0.013023823 -0.000949428
000020 6e fa 6d bb 33 54 9e 3b 99 3c 2a 3d 80 76 d7 3c
       -0.0036312598 0.0048318147 0.041561697 0.026301622
000030 87 45 91 bc b2 27 52 bd 57 e2 0d 3c c8 74 61 3c
       -0.017733349 -0.051307388 0.008659921 0.013760753
000040 82 c5 87 3c 54 63 79 bc a9 39 22 3c dd 13 4e bc
       0.016573671 -0.015221436 0.009901443 -0.012577978
000050 b0 c2 b3 bd 07 5d a1 3c d4 64 88 bc f8 09 4c 3b
       -0.08777368 0.01969768 -0.016649641 0.0031133872
000060 e6 f7 cc bc 08 8b 8d bc 73 7a 8c bc 93 c1 18 3d
       -0.025020551 -0.01727821 -0.017148232 0.03729398
000070 a0 eb 65 bb b6 fe 82 bb 0d c6 bb bd b9 3b 1e bd
       -0.003508307 -0.003997649 -0.091686346 -0.038631175
