checkpoints/maddpg/maddpg1_checkpoint_actor_local.pth (torch, 166151 bytes, 10 tensors)

fc1.weight f4 [256, 24]
000000 eb 1f c1 3e b2 34 2f 3e 79 42 86 3d 8b 9b c9 be
       0.37719664 0.17109945 0.065556474 -0.39376482
000010 73 0d 89 3d b0 e2 97 bf 64 f3 aa bc 57 f9 c5 be
       0.06692018 -1.1866055 -0.02086801 -0.38666794
000020 54 69 8c 3e cd 16 57 bd 8d e3 4b bc 1f 03 e8 3c
       0.2742411 -0.05251198 -0.012444389 0.0283218
000030 72 e1 13 3e a7 84 8e bf 51 e2 38 be 03 8e 35 be
       0.1444147 -1.1134232 -0.18055083 -0.17729954
000040 75 6a 06 3e 90 bf 64 bd 63 14 18 be 74 be 31 bc
       0.13126548 -0.05584675 -0.14851527 -0.01084863
000050 83 45 b2 bd 66 77 7c bf b7 d3 ef 3a c0 42 68 bd
       -0.087046646 -0.9861969 0.0018297349 -0.056704283
000060 5a 0a f3 3e e4 55 f5 be b4 80 55 bc 4e 64 5d be
       0.47468835 -0.47917092 -0.0130311735 -0.21620294
000070 1c f0 10 bd 22 39 cc be 15 62 1f be 48 16 c3 be
       -0.035385236 -0.3988734 -0.15564759 -0.38102937
000080 d6 52 e6 3e 6b 21 8a be 5f cd a0 3d 1c 67 98 3e
       0.44985074 -0.2697862 0.078516714 0.29766166
000090 cc b3 6a 3e b8 82 79 be e6 28 2d 3e b3 67 95 3e
       0.2292015 -0.24366271 0.16910133 0.2918068
0000a0 2e 54 69 3e 10 cf 6c be c2 43 b3 be 2b 10 9c 3e
       0.22786018 -0.23125863 -0.35012633 0.30481085
0000b0 9c bc 03 3f 41 42 82 3e ec 5a 61 be e4 15 e2 3e
       0.5145967 0.25441173 -0.2200734 0.44157326
0000c0 1c fd 03 3f 7b 4b ca be 9e 1b cc bd 16 20 b2 bb
       0.5155809 -0.39510712 -0.09966205 -0.005435954
0000d0 36 cd 63 3e cc ed 93 bd d4 05 3f bd 34 9d dc bc
       0.2224625 -0.072230905 -0.046636418 -0.026930429
0000e0 bb 96 da 3e 93 70 12 bf 90 8f 7d 3d 70 1c d8 3d
       0.42693123 -0.57203025 0.06190449 0.10552299
0000f0 51 84 fa be fd ba 86 bd c6 87 08 be be 57 f4 3c
       -0.48929074 -0.06578634 -0.13333043 0.029826995
000100 55 7e dd 3e 2f a2 49 bf 4b 20 f1 bd b8 00 95 be
       0.43260446 -0.787631 -0.117737375 -0.2910211
000110 8a 1e b5 bf 51 0d 95 3c e6 78 61 3d 37 6c 1b be
       -1.4149945 0.018194826 0.05504694 -0.15178
000120 d9 9a 0d bf 02 ec d9 3e f9 b2 f4 bc c5 2b 20 3d
       -0.55314404 0.42562872 -0.029870497 0.039104242
000130 aa 77 4b be 7b a7 9f bf 0c c1 02 3e 9a ca 1e be
       -0.19869867 -1.2472986 0.12768954 -0.15506974
000140 72 cd 29 bf 3f 55 21 3e 5d 15 cf bd 13 fd aa bd
       -0.6632911 0.15755175 -0.101114966 -0.08349051
000150 bb b5 22 3e 0c 5e fe 3e 7b 48 0f 3e d5 59 2b 3c
       0.15889637 0.49681127 0.13992493 0.010458429
000160 54 2d 35 bf 0b aa c1 3e f6 71 8d bd d3 1e 27 be
       -0.7077229 0.37825045 -0.06906502 -0.16320352
000170 ac 85 ef 3e 28 f9 e8 3f 9f 7b 95 3d be cd 80 bc
       0.4678167 1.8201036 0.072989695 -0.015723106
000180 a8 89 33 3e 84 a8 6f be 38 92 ba bd 95 d4 72 be
       0.1753298 -0.23404127 -0.0910992 -0.23713906
000190 c0 f9 90 3f 8e ab df be c1 4b 0c 3e 54 87 19 be
       1.1326218 -0.43685573 0.13700773 -0.1499303
0001a0 cc 80 bc 3d 3e df ef be aa fa b8 3c 65 20 83 bd
       0.092042536 -0.46850008 0.022580463 -0.06402663
0001b0 17 46 6e 3f 6a 58 2b bd 1f 7d b6 bd 6c d1 83 bc
       0.930757 -0.041832365 -0.08910584 -0.016091071
0001c0 27 ec 0f 3f ff 8f c4 be 0e a8 22 3e 0d a2 6a bd
       0.56219715 -0.3839111 0.1588442 -0.05728345
0001d0 c8 21 33 3f dd 8d 26 3e dc 53 39 3e 51 1a 10 bd
       0.6997342 0.16265054 0.18098396 -0.035181347
0001e0 7e f4 a3 be 88 b7 29 bf e0 ca 91 bd 66 31 b1 bd
       -0.3202247 -0.6629567 -0.071187735 -0.08652
0001f0 be 59 ba 3e c5 19 04 bf df 80 27 3e a6 11 f3 bd
       0.36396593 -0.5160182 0.16357754 -0.118686005
000200 ba fc 59 be ac b9 04 bf 28 d9 9d bd d4 82 c3 3e
       -0.21287814 -0.5184581 -0.07707435 0.3818575
000210 ba ed 49 3e 35 94 22 bf 2e 53 f9 3b 7b 2d d2 3e
       0.19719592 -0.63507396 0.0076087927 0.41050324
000220 ce 6a 7b be ac 90 ff be af e4 3f be f0 75 7f 3e
       -0.24552462 -0.49915063 -0.1873958 0.24947333
000230 3a 59 db be f8 4e 46 bf 7e d5 ac be 2d e8 c6 3e
       -0.42841512 -0.77464247 -0.33756632 0.3884901
000240 e8 6a fd 3e 67 5d 88 3e c6 06 86 bc 13 9f 02 bd
       0.49495625 0.2663376 -0.016360652 -0.031889986
000250 05 41 96 ba e3 5a 2f be 74 35 9d bc bc 17 88 3c
       -0.0011463469 -0.17124514 -0.019190527 0.01661288
000260 38 ce 0c 3f af b1 37 3e 13 59 76 3c 15 4a 30 3d
       0.55002165 0.17938875 0.015035885 0.0430394
000270 1f 7b 15 3e 2d 84 a2 bd 83 8f ad bd ec 26 c2 3d
       0.14597748 -0.07935367 -0.08474638 0.0948008
000280 04 c3 aa 3e 07 c3 cc 3d 96 d1 2a 3d 46 ca 7f bd
       0.3335191 0.09998136 0.041703783 -0.062448762
000290 da 2b dc bd 4d 7e 28 bd 5d 3b 99 bd 00 c9 43 be
       -0.107505515 -0.041136075 -0.07482026 -0.19119644
0002a0 ea 4e 0d 3f f9 c5 18 3e a8 87 27 bd 23 a1 39 bf
       0.5519854 0.1491927 -0.040900856 -0.725115
0002b0 a5 4a 1d 3e 10 b1 1d bf b2 1c 71 bd e1 4b 18 bf
       0.15360506 -0.615983 -0.058865257 -0.5949078
0002c0 61 6d 81 3e 54 6f a2 3d 2b 7f 2b be cb 9d 0f 3d
       0.25278762 0.079313904 -0.1674773 0.035062592
0002d0 0c 15 ac 3e 6f d7 33 bf 01 66 f5 bd 85 0e e6 bd
       0.33609807 -0.702506 -0.11982346 -0.11233238
0002e0 48 39 b1 3e 4d 07 f8 3d 14 45 8a 3e 11 86 9f be
       0.34614015 0.121107675 0.27005827 -0.31156972
0002f0 29 4e a0 3e e6 33 f7 be 22 28 4d 3d ff ae 5b bd
       0.3130963 -0.48281783 0.0500871 -0.053633686
000300 21 d4 c4 3e d2 ba 06 be 29 fe 71 3d 8e eb 97 3c
       0.38443092 -0.13157204 0.059080277 0.018544938
000310 eb 56 97 3d 99 d9 cf be 26 b4 fb bd ec 4b 0b be
       0.07389625 -0.405957 -0.1229022 -0.1360318
000320 5e 56 48 3e 9f 37 9d 3d 9f 0e 72 3b d7 4c 27 3d
       0.19564196 0.076766245 0.0036934984 0.040844765
000330 f7 11 c0 bd 47 35 89 be 14 16 99 bd 7b c5 ec 3d
       -0.093784265 -0.2679846 -0.07474914 0.11561104
000340 a6 d4 ef 3e 63 0f d9 3d 6a 9c cd bc 7a 9b 2f bd
       0.46841925 0.10598638 -0.025098998 -0.042872883
000350 1e 23 47 3d 8e 51 2a be c0 c0 d4 bc f9 e4 ea 3d
       0.048617475 -0.16632673 -0.025970817 0.11469454
000360 a5 a6 9f 3d cd f2 e9 3e 08 fe 80 bc 06 9c fe 3e
       0.07795457 0.45693055 -0.015746132 0.4972841
000370 96 99 23 bc b6 9d a3 bf f0 c4 ae 3c 4c 84 07 3f
       -0.009985348 -1.2782505 0.021334141 0.52936244
000380 b3 bb 49 3e a2 96 f6 3e 11 30 86 bc 9e 2a cf be
       0.19700508 0.481618 -0.016380342 -0.40462202
000390 f7 b1 07 3d 78 93 67 bf 4a c3 ff bd b9 f7 bd be
       0.033128705 -0.90459394 -0.1248842 -0.3710306
0003a0 89 51 e2 3d 56 4c 86 3c 79 3f 91 bd 7a 6b 1f bf
       0.11050708 0.016393822 -0.070921846 -0.6227337
0003b0 e2 f6 ba bc 6f 36 83 be ad 52 d2 3c 32 09 55 bf
       -0.022822801 -0.25627467 0.025674189 -0.83217156
0003c0 d1 d9 77 3e e1 54 48 bf 32 b7 f4 bd 43 4c 94 be
       0.24204184 -0.78254515 -0.11949004 -0.28964433
0003d0 fd e7 e1 bd c4 ac 07 bf 35 b0 85 bd 6d 77 ab be
       -0.110305764 -0.52997994 -0.065277494 -0.33489552
0003e0 c5 c3 d0 3e 71 a2 24 bf 3d 39 7c be 67 88 1e bf
       0.4077436 -0.64310366 -0.2463121 -0.61926883
0003f0 42 18 16 be 68 91 63 bd 8b 6b f0 bd 2c 69 02 bf
       -0.14657691 -0.055558592 -0.11739262 -0.5094173

fc1.bias f4 [256]
000000 12 76 8e be f7 aa 5d bd 95 ec 8f bf e0 d5 56 bf
       -0.27824455 -0.054118123 -1.1244074 -0.839201
000010 0a 6d bc be 20 fe 6b bf ae 58 fc be f3 52 dd be
       -0.3680194 -0.9218464 -0.49286407 -0.43227348
000020 82 4f f7 be 0f 8c 3e bf c6 a3 2a bf 10 e3 9e bf
       -0.48302847 -0.7443246 -0.6665615 -1.2413044
000030 79 ae 3c bf dd 03 01 bf 39 2d 25 bf ac 11 bc be
       -0.73703724 -0.5039652 -0.6452213 -0.36732233
000040 95 c2 4a bf c9 87 1b bf e8 ae c6 bf 48 32 d4 be
       -0.7920316 -0.60754067 -1.5522127 -0.41444612
000050 be d6 a4 be cd a1 a6 be 02 ac ad be f2 26 dc be
       -0.32195085 -0.3254532 -0.33920294 -0.42998463
000060 b0 c5 cb bf 4e 58 0c bf 92 11 54 3d f7 2e 8c be
       -1.5919704 -0.5482224 0.05177457 -0.2737958
000070 8d e9 8a be 13 24 33 bf 0f 1b e7 3c 97 b8 41 bf
       -0.2713131 -0.6997692 0.028211145 -0.75672287
000080 f1 b6 82 be 6c 5d 39 bf 49 58 eb be 80 0a 17 bf
       -0.25530198 -0.72408175 -0.45965794 -0.59000397
000090 cb ed bc be 10 f2 2e bf 43 0c 2e bf c9 03 ab bf
       -0.36900172 -0.6833811 -0.6798746 -1.336053
0000a0 b1 14 99 be 08 d4 05 bf 45 eb 9c bd 72 54 bf be
       -0.298986 -0.5227666 -0.076620616 -0.37369114
0000b0 d9 02 24 be 02 3e 25 be 84 d3 cc be 07 7c d5 be
       -0.16016711 -0.16136935 -0.40005124 -0.41696188
0000c0 dc 46 0d bf 9a 84 3d bf a6 da 59 be cf 5b 39 bf
       -0.5518625 -0.7403046 -0.21274814 -0.72405714
0000d0 79 0f 52 bf 76 50 10 be 70 ac 35 bf 85 de 96 be
       -0.8205486 -0.14093193 -0.70966244 -0.29466644
0000e0 0a 2d c6 be 4a 5f 17 3d dc 50 aa be 30 91 50 bf
       -0.38706237 0.03695611 -0.33264816 -0.8147154
0000f0 97 f1 22 bf 8c 7a fe be ba 58 d5 be 64 cd ce be
       -0.63649887 -0.4970287 -0.41669255 -0.40391076
000100 5b 49 5b bf cb 08 16 bf 1a 7f 5f bf 70 68 5a bf
       -0.85658807 -0.58607167 -0.87303317 -0.8531561
000110 03 fe 56 bf 20 79 eb be 74 54 57 be a1 73 02 bf
       -0.8398134 -0.4599085 -0.2102831 -0.50957686
000120 ad 40 7d bc 15 02 32 bf d0 6a 2e be 26 8b 08 bf
       -0.015457314 -0.69534427 -0.17032933 -0.53337324
000130 b4 2f bf be 03 eb 39 be 2e 25 03 bf 6a 30 26 bf
       -0.37341082 -0.18156056 -0.51228607 -0.64917624
000140 d5 b0 23 bf 9e dd 12 c0 01 e9 ef be c8 2a 27 bf
       -0.639417 -2.2947764 -0.46857455 -0.65299654
000150 f3 d9 05 bd ec ff 36 bf a6 06 73 bf c3 5b ac be
       -0.032678556 -0.71484256 -0.9493202 -0.3366376
000160 d6 7b 0b bf 02 7c f8 be 69 c5 d5 be cb 7e ad be
       -0.54485834 -0.4853211 -0.41752174 -0.33885798
000170 29 ee ec be 37 19 22 be ab 2c ec bd 7e 97 08 bf
       -0.46275452 -0.15829931 -0.11531957 -0.5335616
000180 fd 17 9d be ef 45 60 be e2 33 ad be d9 57 6a bf
       -0.30682364 -0.21901678 -0.33828646 -0.91540295
000190 10 b4 5e bf e0 87 46 be f7 d8 84 be b5 eb e9 be
       -0.86993504 -0.1938777 -0.2594678 -0.45687643
0001a0 7a 8d a2 be 1d ef cb be 17 44 a5 bd 91 72 1b bf
       -0.31748563 -0.39830866 -0.08069628 -0.6072169
0001b0 5f 1e b8 be 38 6a b3 be f1 fa ee be 21 df 34 bf
       -0.3596067 -0.35041976 -0.46675828 -0.7065297
0001c0 85 e0 a6 be 77 6e b2 be 9d cf d2 be 8e 47 57 be
       -0.3259317 -0.34849903 -0.4117402 -0.2102339
0001d0 a1 f3 be be 85 87 2a bf 02 9d 44 be 91 1d 10 bf
       -0.3729525 -0.66613036 -0.19200519 -0.56295115
0001e0 e8 a9 59 bf f9 d0 c9 3d 39 ff be be 74 47 ec be
       -0.8502488 0.098543115 -0.37304094 -0.46148264
0001f0 a6 c8 89 be f1 66 12 bf 49 50 6b bf c2 05 04 bf
       -0.26910895 -0.57188326 -0.9191938 -0.51571286
000200 3e 0e 2f bf 5d 67 89 be 83 77 7e be 74 7d 19 bf
       -0.68381107 -0.26836672 -0.24850278 -0.5995705
000210 c9 05 4d bf e9 a1 84 be de 3b de be b4 74 97 bf
       -0.8008695 -0.25904778 -0.4340505 -1.183249
000220 fe 2c 9b be 59 3b 8a bf 7b e4 17 be c6 a1 59 bd
       -0.30307764 -1.0799361 -0.14833252 -0.053132795
000230 38 95 0a bf 50 f2 f0 be 1e 42 fc 3e e0 3d 6f bf
       -0.5413394 -0.4705987 0.49269193 -0.9345379
000240 5c 91 46 bf 6c 5c d1 be a4 3a e7 be c4 a4 15 bf
       -0.7756555 -0.40890825 -0.45161927 -0.5845454
000250 3b bd 94 bf 2c 75 16 bf 21 b7 69 bf 67 41 17 bf
       -1.1620249 -0.5877254 -0.9129506 -0.5908417
000260 c3 47 10 bf a8 74 56 bf c3 b3 4d bf 3c d3 81 bf
       -0.563595 -0.83771753 -0.8035242 -1.0142589
000270 61 d7 29 bf 56 c3 1d bf dc e5 c2 bf 1b 25 f0 be
       -0.6634427 -0.61626184 -1.5226398 -0.4690331
000280 95 e9 c4 be fd 44 48 bf be a7 04 bf 5c 27 11 bf
       -0.3845946 -0.7823027 -0.51818454 -0.5670068
000290 51 10 0f bf 20 6a 26 bf 4d b8 af bf e1 82 65 bd
       -0.5588427 -0.65005684 -1.3728119 -0.05603302
0002a0 7a f8 48 be 06 cb 95 3d 9e cf dc be 57 18 59 bf
       -0.19626036 0.07314114 -0.4312715 -0.84802765
0002b0 15 64 29 bf 73 d0 c4 be a4 56 30 bf 2b 95 01 bf
       -0.6616834 -0.38440284 -0.68882203 -0.5061824
0002c0 b8 07 75 bf a0 50 80 be 1d 5e 30 bf 7d 7b ff be
       -0.957149 -0.25061512 -0.68893605 -0.49898902
0002d0 a9 eb af be 27 f7 6f bf 65 44 29 bf ce 4c 54 bf
       -0.34359482 -0.937365 -0.66119987 -0.82929695
0002e0 df d0 90 bf bd b7 85 bf 97 97 4f bf 65 df 20 bf
       -1.1313742 -1.0446697 -0.8109068 -0.62840873
0002f0 4c e7 15 bf 51 eb 10 bf 51 08 e7 be c0 dd 2b bf
       -0.58556056 -0.56609064 -0.45123532 -0.6713524
000300 8a 6a d1 be d8 db 22 be ee ea 08 bf 88 1f 34 bf
       -0.40901595 -0.15904176 -0.53483474 -0.7036061
000310 80 5a 45 bf ba c7 86 be 71 2c 03 bd 14 53 0c bf
       -0.7709122 -0.26324254 -0.032024805 -0.5481427
000320 28 80 16 bf 1d 5c d8 bd 4b 20 b3 be 06 e8 c8 be
       -0.587893 -0.10564444 -0.34985575 -0.3923952
000330 83 f7 1b bf 37 2c c6 bd e7 92 23 bf 70 ad e4 be
       -0.6092455 -0.09676402 -0.6389603 -0.44663572
000340 24 b1 cb be 52 98 7b be 04 fb 35 bf 4b 6b cd 3d
       -0.39783585 -0.24569824 -0.71086144 0.1003023
000350 f4 81 7d bd 32 4d 10 bf ae e8 bb be 5e 8d 0c bf
       -0.06189151 -0.5636779 -0.36700958 -0.5490321
000360 c6 e6 72 bf 6a 5c 0c bf eb 3d 26 be 76 bc 28 bf
       -0.9488338 -0.5482851 -0.16234557 -0.6591257
000370 0e a2 22 bf 67 25 23 3e a5 97 fd be 2a dd 25 bf
       -0.63528526 0.15932237 -0.49529758 -0.64790595
000380 6f 54 25 bf a6 6b e6 3d 6d fd 12 bf dc 41 23 bf
       -0.6458196 0.11251001 -0.5741795 -0.6377237
000390 d3 8d 85 3e e5 55 3d bf 6a 9d 32 bf ae 5d 8b bf
       0.26084766 -0.7395919 -0.69771445 -1.0887964
0003a0 6e 35 c0 be a6 40 cf be c3 c1 55 bf 28 6d 2f bf
       -0.37540764 -0.4047901 -0.8349878 -0.68525934
0003b0 8c b3 f7 bd c1 78 0a bf 9d 8f 4b bf fe cf 71 be
       -0.12094793 -0.54090506 -0.7951601 -0.23614499
0003c0 d7 3c ab be 42 61 84 bf d9 f7 1a bf 78 4b 7c bf
       -0.33444855 -1.0342181 -0.60534436 -0.98552656
0003d0 99 53 0a be c8 a6 c6 be d4 9c b4 be da bc e4 bf
       -0.13508452 -0.3879912 -0.352759 -1.7870133
0003e0 c1 a4 c8 be 9c 5c 2b bf 15 4d 48 bf 85 c1 11 bf
       -0.39188197 -0.66938186 -0.7824262 -0.5693591
0003f0 c2 ff db be a8 04 0c bf 5d 64 83 be 4a 6e 23 bf
       -0.42968565 -0.54694605 -0.2566251 -0.6384016

fc2.weight f4 [128, 256]
000000 cf 21 4e bd 99 74 a8 3e 12 ce ec bd bf bd eb 3d
       -0.05032521 0.32901457 -0.11562742 0.115108006
000010 b9 a1 57 be 1e 95 9f be 84 0d db bc 31 f9 11 3e
       -0.21057786 -0.31168455 -0.026739843 0.14255215
000020 5b 0d 02 3d d5 a8 6a 3d ff 24 ef 3c 79 8e 1a 3d
       0.031751018 0.057289917 0.029192446 0.03773353
000030 f8 bb 11 3f e3 4a 50 be d2 9d bb 3d 24 52 44 3e
       0.5692744 -0.20341067 0.09160961 0.19171959
000040 eb dc 00 3e 34 3b 83 bc 63 d7 ab bd f0 73 89 3e
       0.12584274 -0.016019441 -0.08390691 0.26846266
000050 b1 b2 78 3d 3a 42 13 be 7c 28 c0 3d 60 34 b5 3d
       0.06071729 -0.14380732 0.09382722 0.0884788
000060 94 ea 8a 3e 11 96 c2 be bf 29 59 3d 59 4d 94 be
       0.27132094 -0.38005117 0.053018328 -0.28965262
000070 7c 74 ce bd 8e bb 17 bf a0 65 00 3f bf 85 8c 3e
       -0.100808114 -0.5927056 0.5015507 0.2744579
000080 9f e7 19 bd 26 25 02 3f ff 06 cd 3d e0 53 87 3d
       -0.037574407 0.50837934 0.100111 0.06607795
000090 e7 5a ec be c8 34 17 3d dd c2 a6 be 0c f8 0e 3f
       -0.46163103 0.03691557 -0.32570544 0.5584724
0000a0 3c 6c 01 bd 4d 10 c0 3d 9c 50 17 3e ba ba bc bd
       -0.03159736 0.09378109 0.14776844 -0.09215303
0000b0 1e 49 5c bd af 1b ca be 88 6f 0f 3f 2e 5b 70 3e
       -0.053780667 -0.39474246 0.5602956 0.23472282
0000c0 a1 8a 83 be 17 a9 e1 bd 04 c4 ad 3b d6 0a c5 3d
       -0.25691703 -0.110185795 0.005302908 0.096212074
0000d0 24 33 86 bc e7 6a af be 21 b9 ff bc 5f 06 83 3d
       -0.016381808 -0.34261248 -0.031216206 0.063976996
0000e0 48 77 60 3e f8 0e 2d be 46 d9 c9 be e1 f2 f5 bd
       0.21920502 -0.16900241 -0.3942358 -0.12009216
0000f0 06 d4 a2 3e fa 6c 13 be 84 c9 d9 3d f1 86 4a 3e
       0.31802386 -0.1439704 0.10634139 0.19778039
000100 f7 42 2a be 1c 4a 44 3e 49 75 a4 3d c6 31 b7 bd
       -0.16627108 0.19168895 0.08030183 -0.089450404
000110 51 d3 03 3f 8a d2 b1 bc cc 5a 04 be 7e 25 95 be
       0.5149432 -0.021706838 -0.12925261 -0.29130167
000120 5e 3c f2 3e ca 98 52 be 1a 7d 94 be dd 49 be 3e
       0.47311682 -0.20566097 -0.29001695 0.37165728
000130 bc 4a ca 3e 9b 56 0e 3e 78 9f 12 3e bc 8d 74 3e
       0.39510143 0.13900225 0.14318645 0.23882192
000140 9b 08 e5 3b 74 22 d9 3e 2e ac 5d 3e 76 8b 0f bc
       0.0069895512 0.42409098 0.21647713 -0.008761277
000150 ca 04 d1 bb d0 eb be 3d ea 0f fc 3d ab 93 c1 bb
       -0.0063787447 0.093223214 0.12307723 -0.005907496
000160 f9 b0 cf 3e 7e 69 23 bb 7a 11 3b 3e 32 40 82 be
       0.40564707 -0.0024934704 0.18268386 -0.25439602
000170 7b 4d 41 3f ba a5 1e 3e 6e 19 d0 bc 84 f8 8b 3e
       0.7550885 0.15492907 -0.02540275 0.2733804
000180 9a 9c fe 3e 59 f7 ac be 54 b4 1d 3d f1 a9 a4 3e
       0.49728853 -0.3378246 0.038502052 0.32160905
000190 b5 97 2c 3c f3 3a d8 be 75 ab e6 3e 3e 75 44 3d
       0.010534217 -0.42232475 0.45052686 0.047963373
0001a0 03 ab f3 3e 48 20 1d be 87 95 53 3e 6f 03 a7 3c
       0.4759141 -0.15344346 0.20662509 0.02038738
0001b0 dc 69 5b 3c 21 51 2e 3e 54 87 30 be 8c 8a 5f 3d
       0.013391938 0.17023136 -0.17239124 0.054575488
0001c0 dd 0b 65 3e 1f 4e 89 be 02 e0 34 3d af 5d a0 3d
       0.22367807 -0.26817414 0.044158943 0.07830369
0001d0 6c 5f 8d 3e 9e 8c ba 3d 38 9a eb bc c4 36 f3 3e
       0.27611864 0.09108852 -0.02876006 0.4750272
0001e0 0b dc 89 bd 25 d1 60 bd b3 6d 28 3d 32 47 a3 ba
       -0.06731423 -0.054886956 0.041120242 -0.0012457131
0001f0 2b a7 b4 3e ad 8e fa bc d9 b2 3c 3e a9 e5 af be
       0.3528379 -0.030585611 0.184276 -0.34354904
000200 e6 5d c9 3d 4d 22 6d bd 09 4e c4 3d 22 05 75 be
       0.09832363 -0.05789404 0.095851965 -0.2392774
000210 72 99 f6 be df 90 d6 3e ae aa f9 3d ac 48 ca 3d
       -0.48163944 0.41907403 0.12190758 0.09877142
000220 33 f7 9d 3c c2 d5 e9 3e 07 52 6f be 5f 88 53 3e
       0.019282913 0.45670897 -0.23371135 0.2065749
000230 f4 95 aa 3e 71 a1 13 3e 7f 11 22 3e 3e 73 0b 3e
       0.3331753 0.14417054 0.15826987 0.1361818
000240 e4 c3 b0 3d 88 f9 b7 3d 7b 8a e4 3e 0c ff 81 3d
       0.08631113 0.08983141 0.44636902 0.063474745
000250 9d b9 09 3d 06 fa b1 3e 01 78 06 bf 89 33 a0 bd
       0.03362428 0.34761065 -0.5252686 -0.078223296
000260 19 dd 90 3e 78 4a 98 3d 0a 72 ac 3e c4 d6 a7 be
       0.28293684 0.07436079 0.33680755 -0.3278104
000270 ab 6c c3 3e a6 28 65 3e 6b f3 aa 3d ee ef cb bd
       0.38168845 0.22378787 0.083472095 -0.09957872
000280 db d2 8d be d0 60 d7 3e 21 59 74 bb 69 6c 9e 3d
       -0.27699932 0.4206605 -0.003728457 0.07735521
000290 36 e8 4f 3e 8e 62 cb 3d d3 76 8f 3e a7 f2 2d bd
       0.20303425 0.09930907 0.28020343 -0.04246774
0002a0 5a 5b c4 3d e5 9a 93 3d d4 c0 73 be a1 fd 1b be
       0.095877364 0.07207278 -0.23804027 -0.1523347
0002b0 d9 3a 04 3f d8 63 4a bf c8 03 a1 bd 8e 71 49 bf
       0.51652294 -0.790586 -0.07862049 -0.78688896
0002c0 47 bf 79 be c3 30 a5 be 99 27 df bd 77 a3 ca 3e
       -0.24389373 -0.32263765 -0.108962245 0.3957784
0002d0 8f a6 6e 3e 0e 0e 24 3e d0 40 11 3e d7 5c 1f be
       0.23305725 0.16020986 0.1418488 -0.1556276
0002e0 ed 64 cf be b8 a9 c2 bc 02 61 65 be 3b 79 15 bd
       -0.40506688 -0.023762569 -0.22400287 -0.036492568
0002f0 c9 b1 f3 3d 91 a9 8b 3d 91 f2 1c bd 18 8a d2 3d
       0.11899144 0.068194516 -0.038317267 0.102802455
000300 e6 2f da 3b ca 1e ba 3d 42 18 4a 3d fc 5e ce 3e
       0.006658542 0.09087904 0.04933954 0.40306842
000310 79 dd 98 3e 1f 78 31 be da 50 59 bd 0b dc 8b be
       0.2985647 -0.17330979 -0.05305562 -0.27316317
000320 0c 34 82 3c c2 1a 5d be 55 83 b1 3d 8a 0f ba bb
       0.015893959 -0.21592239 0.08667628 -0.005678122
000330 da 2f b3 3e 83 6b 81 3d d1 89 d1 3e 9a b7 de 3d
       0.34997445 0.06319334 0.40925458 0.10874863
000340 ee c7 a8 3c 81 0f e4 be 16 2b 3f be ac 1e 42 be
       0.020603146 -0.4454308 -0.1866878 -0.18957013
000350 8d 02 74 3e 86 5c 6d 3d b0 49 f2 3d 40 70 95 3e
       0.23829098 0.057949565 0.11830461 0.29187202
000360 ab 0d f7 3a a3 98 e1 3d 42 b1 b2 3e 98 c8 6e be
       0.0018848678 0.11015441 0.34900862 -0.23318708
000370 56 06 cf 3c e4 2e a0 be 32 c8 62 3e 07 54 5f 3e
       0.025271576 -0.31285775 0.22146681 0.21809398
000380 d7 31 86 bd e1 77 10 3e bc e0 10 3e 60 3e 2a be
       -0.06552475 0.1410823 0.1414823 -0.16625357
000390 54 c3 1a 3f cc 86 a0 3e d3 83 85 3e f8 b6 25 bf
       0.604543 0.31352842 0.26077136 -0.64732313
0003a0 55 9d 00 bf ea 82 b4 be 3f b1 d5 3e c7 97 72 3e
       -0.5024007 -0.3525613 0.4173679 0.23690711
0003b0 5f 49 de 3d 49 67 6f bd 73 82 5e 3e e7 64 77 3c
       0.10853838 -0.05844811 0.2172945 0.015099741
0003c0 34 96 1e 3e ef fc 8d be d9 f4 76 be d5 93 a1 3d
       0.15486985 -0.27732036 -0.2411684 0.07889525
0003d0 cd 8a 4b 3e bb 6a 1c bf 9d 21 38 bd 1e 60 a5 be
       0.19877167 -0.6110036 -0.04495393 -0.32299894
0003e0 cc c5 71 3d 2e 7c c3 bd ec 30 9c be 29 d1 af be
       0.059026524 -0.0954517 -0.30506074 -0.34339264
0003f0 cb c6 05 bd 89 db cd 3c 0a f7 88 3d 86 a1 27 3e
       -0.032660287 0.025129097 0.06687744 0.1637021

fc2.bias f4 [128]
000000 01 72 79 bd 9f 6f fe bc d6 6b e4 bd 2c 2b ea be
       -0.06089974 -0.031059084 -0.111533806 -0.45736063
000010 a2 02 8f be 53 57 20 be 66 85 e5 bc 41 28 0e bf
       -0.27931696 -0.15658312 -0.02801771 -0.5553017
000020 cf 4d e0 be 26 68 a1 be 1f 72 78 bd 9c 59 02 bf
       -0.43809363 -0.3152477 -0.06065571 -0.50917983
000030 22 a2 b7 be d8 90 0f be e3 47 c8 be c7 bc 66 be
       -0.35865885 -0.14020097 -0.39117345 -0.2253295
000040 3a d2 2b be 83 0a 54 be ec 21 04 bf dc e6 28 bb
       -0.16779414 -0.20707135 -0.5161426 -0.0025772369
000050 24 bd 31 bd 64 be 1d be 47 44 68 be 7c bc b9 be
       -0.04339327 -0.1540466 -0.22682296 -0.36276615
000060 59 c6 c3 be 8d 0a 4d be a4 33 48 bf 95 f4 9e be
       -0.38237265 -0.20023556 -0.782038 -0.31045976
000070 b5 26 bb be 24 ab 82 be c2 91 9c be f9 c5 82 be
       -0.3655297 -0.25521195 -0.30579954 -0.25541666
000080 ba 79 97 be 11 7d 9a bd 83 25 38 bc c2 bb b9 bc
       -0.29585057 -0.07543386 -0.011239412 -0.022672538
000090 68 87 1c be 96 75 42 3d 0d 95 d9 be 13 63 08 be
       -0.15286028 0.04747542 -0.4249653 -0.13319044
0000a0 a0 e7 f8 be de 04 61 be 17 0b 63 be a1 12 30 bf
       -0.48614216 -0.21974513 -0.22172199 -0.68778425
0000b0 ac 2c 2a bf 61 60 e5 bb 74 73 37 be 2d 8b cb be
       -0.66474414 -0.0070000147 -0.17915136 -0.3975462
0000c0 ac 77 8d be 21 b8 f9 bd 21 f3 9c bd 38 15 c4 be
       -0.27630365 -0.12193323 -0.07663561 -0.3829744
0000d0 c4 f0 b2 be 25 2f c1 be 6a c3 b1 be 96 88 ee be
       -0.34949315 -0.3773128 -0.34719402 -0.46588582
0000e0 c4 eb 5b be 57 ab 95 be 52 13 97 bd 82 95 99 be
       -0.21476656 -0.29232284 -0.07376732 -0.29996878
0000f0 02 7f 7b be 8e 7c f4 bd 7c f3 4f be c4 63 56 be
       -0.24560168 -0.119378194 -0.20307726 -0.20936495
000100 8f e6 0a be 17 5c 4c be 9d 73 36 be ac e3 9e be
       -0.13564514 -0.19957004 -0.1781754 -0.31033075
000110 e5 a7 9c bd 21 3a 7a be 4b 80 2b be 0b 9a 2d bf
       -0.07649211 -0.24436237 -0.16748159 -0.67813176
000120 47 7b c6 bd 64 ba be bd c2 c8 e9 bd 61 9a 37 bf
       -0.09691482 -0.09312895 -0.11415245 -0.7171994
000130 26 6e b5 be ef 14 51 bd c6 4e f4 be 5a 49 04 be
       -0.354356 -0.051045354 -0.4771635 -0.12918606
000140 e6 a6 e8 be 01 cf 39 3d c7 43 f4 bd 35 78 0d bf
       -0.45439833 0.04536343 -0.1192699 -0.55261546
000150 7f 9f 6f be ca 11 48 be 54 0a ec be cd 16 8c bd
       -0.23400687 -0.19538036 -0.4610163 -0.068402864
000160 11 b0 e9 be bb f5 89 be c2 41 cb bd 26 88 d2 be
       -0.4564214 -0.2694529 -0.09924652 -0.41119498
000170 b2 7d b5 3c aa e7 9d be 76 bc b3 be 1c 17 0e be
       0.022154663 -0.30840808 -0.35104722 -0.13876003
000180 50 2d 5c be 1a aa 9d be 71 0b 2e 3d 7f 19 be bd
       -0.2150166 -0.3079384 0.04249138 -0.09282207
000190 59 c1 37 be 49 3a fe be 63 f0 26 be 5b 1f 06 bf
       -0.1794485 -0.49653843 -0.16302638 -0.52391595
0001a0 4f e5 22 be dd 46 98 be 27 7c 94 be 23 8e 7d be
       -0.15907787 -0.29741564 -0.2900097 -0.24761252
0001b0 71 3d 47 3d 57 ce d2 be 15 a6 9b be 1d 90 82 be
       0.04864258 -0.4117305 -0.30400148 -0.25500575
0001c0 55 f0 a2 be 10 cf 4d be d0 ae aa bd 42 3b da be
       -0.31823984 -0.2009852 -0.08334124 -0.42623335
0001d0 86 01 75 be c6 09 7e bf ab 84 08 bf 0a 9f 1f be
       -0.23926362 -0.99233663 -0.53327435 -0.15588012
0001e0 0b af 68 be 2c 2d 0e bf 01 1f 99 be 27 88 6a be
       -0.22723024 -0.55537677 -0.29906467 -0.229035
0001f0 f3 67 1e be 36 18 d1 bc 78 ec e7 be d9 e9 65 bf
       -0.15469341 -0.02552424 -0.452976 -0.8980995

fc3.weight f4 [2, 128]
000000 95 b8 d2 bc a0 d0 32 3e 72 07 54 be 7d b6 7a 3e
       -0.025722781 0.17462397 -0.20705965 0.24483676
000010 44 90 c8 bd 3a f7 0a be 61 72 bd bd 83 95 d5 be
       -0.097931415 -0.13570872 -0.09250332 -0.4171563
000020 af ea 8d 3e d8 8c 8f be bd a1 70 be 8d 1e e2 bd
       0.27718112 -0.28037143 -0.23499198 -0.11040983
000030 86 c9 1d 3d d3 4d 3e 3e 7c c7 a5 be 5f 30 43 be
       0.038522266 0.18584375 -0.32378757 -0.19061421
000040 24 4a a8 3d f2 c5 9f bd fd fc 0f bf 7c 6d 34 3c
       0.08217266 -0.07801427 -0.56245404 0.011012431
000050 83 a6 ae bd 3d da d0 3c 1d 17 e4 bd 2c 58 a7 bd
       -0.08527853 0.02549469 -0.11137221 -0.08171114
000060 44 a5 3a bc 36 5f 63 3e f8 75 17 3e 55 e1 aa be
       -0.011391941 0.22204289 0.14791095 -0.3337504
000070 59 2f d0 be 4b a9 40 bd f4 6e 03 3e 1b 11 ff bc
       -0.40661123 -0.04703645 0.12835294 -0.031136086
000080 39 13 04 3e 14 2b b3 3d 14 04 89 3d 43 99 00 be
       0.12897958 0.08748451 0.06690231 -0.12558465
000090 52 fe e0 3c 3c 2c ac bd 4b c4 bf be 23 98 51 3e
       0.02746502 -0.084068745 -0.37454447 0.20468192
0000a0 7d b0 1d bd 73 fd 9b bd 86 3e 8c 3e f5 9e a5 3e
       -0.03849839 -0.07616701 0.27391452 0.32347837
0000b0 7b b8 50 3e 1f e4 1b 3e 2e 05 23 3e 51 09 ca bd
       0.20382874 0.1522374 0.15919945 -0.09865058
0000c0 79 db 29 bf 12 a7 21 be 2a 38 17 3e 28 74 4c be
       -0.66350514 -0.15786389 0.14767519 -0.19966185
0000d0 8e 60 06 bc f0 51 dc be fe 10 74 3d ac fe ea 3e
       -0.008201731 -0.43031263 0.059586518 0.45897424
0000e0 61 59 e5 3d 8e 26 8c be 7c 1d a0 3d d7 8e a1 bd
       0.11198688 -0.27373165 0.07818124 -0.07888573
0000f0 bd 00 85 bd f4 fe be 3e 0d ec 2a 3d 7b db 06 3f
       -0.064942814 0.3730389 0.04172902 0.5267865
000100 af c4 7f be a5 7d ed 3d a7 93 e0 3c 51 7f f9 3d
       -0.24977373 0.115962304 0.027414156 0.12182487
000110 8c 69 0c be fc bf 54 bd 41 c8 8e 3d c1 00 f6 3e
       -0.13712138 -0.051940903 0.06971789 0.4804745
000120 68 fe e8 bd ae e3 21 3e 55 6f 9e bd f0 a7 90 3f
       -0.11376649 0.15809509 -0.07736079 1.130125
000130 9e c6 81 3f fa 8f b2 3d 4c ba a2 3e 38 7c c2 3e
       1.0138738 0.087188676 0.31782758 0.37985396
000140 29 5f 9e 3d 6e 5c 31 3e b1 e8 a8 bd 54 34 1d 3e
       0.07732994 0.17320415 -0.08247507 0.15351993
000150 10 d9 be bd 84 a0 6a 3c 62 f3 6d bf d7 f7 7f bc
       -0.09318745 0.0143204965 -0.929495 -0.0156230545
000160 f4 65 0d bf 62 37 18 bd 56 ed c3 bd 4b 9b 81 3e
       -0.55233693 -0.037162192 -0.095667526 0.25313792
000170 6c b9 24 be 4b 35 e5 bd b5 eb 36 3e 84 eb c8 3c
       -0.16086358 -0.111918055 0.17863353 0.024526365
000180 9a ac 8a 3e db 9b d5 bd 3c f7 89 be 2d 81 75 3e
       0.2708481 -0.10430118 -0.26946437 0.23975058
000190 e4 5e 92 bd e8 55 d6 3e 62 ca 01 be 93 58 17 3f
       -0.07147005 0.41862416 -0.12674859 0.5911953
0001a0 8b 39 49 be 17 69 6b be 28 b9 0b 3f 59 b1 88 3e
       -0.19650857 -0.22989307 0.545794 0.26697806
0001b0 ee 6d 5d 3a 33 1f c0 be 3c de 13 be 17 3e 22 3e
       0.0008446862 -0.37523803 -0.14440244 0.15843998
0001c0 ec 65 f6 3e b8 87 3a be 13 77 ec bd 03 a9 bc 3e
       0.48124635 -0.18215835 -0.11546149 0.36847696
0001d0 07 ad 50 be 6f e3 d6 3e 29 19 01 3f 33 1e 8a bd
       -0.20378505 0.41970393 0.50429016 -0.06744041
0001e0 33 86 fe 3e 48 2f cb be 5f b6 93 be 73 44 ab 3d
       0.4971176 -0.3968451 -0.28850076 0.08362665
0001f0 7e 25 df 3d 31 de ad 3e f8 91 d6 3e 6d f0 05 3f
       0.10895823 0.3395858 0.4190824 0.52319986
000200 66 dd d5 3e fc ac 29 3e 45 10 13 bf e0 b1 bf 3e
       0.41770476 0.16569895 -0.574467 0.37440395
000210 7c 71 96 3e 09 29 da be 93 e2 73 bd da 62 8e bd
       0.29383457 -0.42609432 -0.05954225 -0.06952448
000220 58 d8 c9 be 63 4b 3f 3d 40 fa 01 3f 4c 28 fe be
       -0.3942287 0.046702754 0.50772476 -0.4964012
000230 47 ff b6 3e 56 96 81 be ff 42 21 3f 0c 94 d5 be
       0.35741636 -0.2531001 0.6299285 -0.41714513
000240 2b 55 01 bf 8c 8e df 3e 2e 85 01 3f 25 5a 2c bf
       -0.5052058 0.43663442 0.5059384 -0.6732505
000250 b7 e1 7b bf d7 0f fc 3e dc b7 33 3f ba 5f 7e bf
       -0.9839129 0.49230835 0.7020242 -0.9936482
000260 89 be f2 be 11 81 0f 3f f4 86 71 3e 3a 73 9d 3e
       -0.47410992 0.56056315 0.23586637 0.30751973
000270 ed 88 25 bf 18 cc 4d bf a0 92 15 3e 27 a8 1a 3f
       -0.6466206 -0.8038955 0.14606714 0.6041283
000280 51 8e cc be 31 1c f7 3e b4 44 29 bf 8c c2 72 bd
       -0.3995233 0.48263696 -0.6612046 -0.059267566
000290 4b ff bc 3e 32 ae ac be 68 a6 a6 3e 1f 68 a9 be
       0.36913523 -0.3372665 0.32548833 -0.3308725
0002a0 97 e5 54 bf 90 48 b1 3e 7e 7d 6a 3e c6 26 c2 bd
       -0.83162826 0.34625673 0.22899434 -0.09480052
0002b0 98 9b 3f 3f bc ef 5a 3e 3a c3 b3 be 7e 01 5b 3e
       0.7484679 0.21380514 -0.35109884 0.21387288
0002c0 ec 7a 04 3f fa 05 ca 3d 61 4a 61 be 1d 08 1d 3d
       0.51750064 0.09864421 -0.2200103 0.038337816
0002d0 b9 65 36 3f c8 2f c2 bc c1 4d 58 3f 16 38 35 3d
       0.71248966 -0.023704425 0.84493643 0.04424294
0002e0 73 42 08 bf 1e cb ad 3e 01 93 fc be 25 98 fa be
       -0.53226393 0.3394403 -0.49330905 -0.48944202
0002f0 89 c5 82 be 30 b5 04 bf 43 ee 0c 3f f3 6c ce 3e
       -0.25541332 -0.5183897 0.5505106 0.40317497
000300 35 8c 14 be 4f 80 64 3e 9c 90 31 bf 25 0d 4f bf
       -0.1450661 0.22314571 -0.6936128 -0.8087943
000310 fc a5 1f 3d 35 4e 3a 3f a3 b5 10 3f f7 ff 65 be
       0.038976654 0.72775584 0.56527156 -0.22460924
000320 f0 a2 ed 3e 55 89 07 be 04 48 13 bf d0 85 7f 3e
       0.46413374 -0.13235982 -0.5753176 0.24953389
000330 fb 1b 5f 3e 42 3b e1 3d a3 3e ed 3e 7a 11 e9 3e
       0.21788017 0.10997631 0.4633685 0.45521146
000340 10 e1 3a 3f 61 46 3a be 14 50 bd 3e 3f b2 c1 3d
       0.7299967 -0.1819091 0.36975157 0.09457826
000350 45 ca 06 3f ee 4c 3d bf 5c b0 e3 3e 5e ea 01 3f
       0.5265239 -0.7394551 0.4447049 0.5074824
000360 2a 95 8b 3d 77 b7 1c 3f f4 c5 ad 3e 2a 6a 08 3d
       0.0681556 0.61217445 0.3394009 0.03330437
000370 be c3 07 3e d0 ec 0e bf ff 26 62 3d 3f 7e 25 bf
       0.13258263 -0.558301 0.05521297 -0.6464576
000380 45 61 dd be 66 80 1c bf 62 e5 ed bd bb 2a 16 bf
       -0.43238273 -0.6113342 -0.11616017 -0.5865895
000390 20 fa 42 3f fe 7e e1 be dc 32 72 3d 58 66 70 3e
       0.7616291 -0.440422 0.059130535 0.23476541
0003a0 f7 6c 96 be 3f d7 19 bf 7f 92 fb be 0b 40 0d be
       -0.2938001 -0.60094064 -0.49135205 -0.13793962
0003b0 39 89 c7 be 96 0e 3d be 5c 05 99 bd 34 19 4d 3c
       -0.3897188 -0.18462595 -0.07471725 0.012518216
0003c0 26 ef 3f be dc 48 54 3e 48 37 61 3e bf ca 92 3d
       -0.18743572 0.20730919 0.21993744 0.07167577
0003d0 7c cb ec 3e 82 01 00 3e ff 04 81 be d9 2e 92 3e
       0.46248996 0.12500575 -0.25199124 0.28551367
0003e0 bd 3a ec 3e 78 aa 8c be 3a 0f e0 bd c2 f1 da be
       0.46138564 -0.27473807 -0.10940404 -0.42762572
0003f0 77 a3 d2 3d 44 a2 e8 bd ac e5 40 3d dc 4f 86 bc
       0.10285085 -0.11359075 0.047094032 -0.016395502

fc3.bias f4 [2]
000000 76 b3 21 bd bd 23 85 be
       -0.039477788 -0.2600383

bn1.weight f4 [256]
000000 5b 98 86 3f fd e8 32 3f 4e 20 ae 3f 1a 43 ad 3f
       1.0515245 0.6988676 1.3603609 1.3536103
000010 b1 85 ad 3f 7e f4 54 3f 00 e4 89 3f c5 eb 48 3f
       1.3556424 0.83185565 1.0772705 0.78484756
000020 00 57 9a 3f c7 8d bc 3f 9d 73 77 3f 85 b2 25 3f
       1.20578 1.4730767 0.96660787 0.64725524
000030 19 a0 93 3f a9 17 69 3f f7 a2 51 3f f8 44 9d 3e
       1.1533233 0.9105173 0.8188929 0.3071668
000040 bf d1 83 3f 5e cc 04 3f f6 80 8f 3f 0e 02 28 3f
       1.0298384 0.5187434 1.1211231 0.65628135
000050 c3 16 94 3f 3a f8 6c 3f bb 79 85 3f 26 3d 78 3f
       1.1569446 0.92566264 1.0427774 0.96968305
000060 45 7b 9c 3f dc e2 87 3f ce 65 1c 3f 62 18 5e 3f
       1.2225119 1.0616107 0.6109284 0.86755955
000070 4c 7e a7 3f 52 f7 7d 3f 1b 76 7d 3f 91 d6 9a 3f
       1.3085418 0.99205506 0.9900834 1.209673
000080 21 64 68 3f f0 54 64 3f d7 6a 21 3f b7 c0 99 3f
       0.90777785 0.89192104 0.6305365 1.2011937
000090 e7 5a 82 3f 54 13 77 3f 29 f1 a2 3e d6 4a 9c 3f
       1.0183991 0.9651387 0.31824616 1.2210338
0000a0 87 4b cb 3f f8 90 0d 3f 4f 97 6f 3f a8 35 45 3f
       1.5882424 0.5529933 0.93590254 0.77035
0000b0 99 64 55 3f f4 a3 eb 3e cd 2e 34 3f cd 08 3a 3f
       0.83356625 0.46023524 0.7038391 0.7266968
0000c0 8a 53 6e 3f 96 c0 88 3f 79 40 9d 3f 86 fa 86 3f
       0.9309622 1.0683773 1.22853 1.0545204
0000d0 e2 05 64 3f 83 89 8e 3f da 0e 9c 3e d7 a4 49 3f
       0.89071476 1.1135715 0.3048008 0.7876715
0000e0 e4 ad 9a 3f 7f bd 1b 3f eb 34 a5 3e 54 a6 76 3f
       1.2084317 0.60836023 0.32266936 0.96347547
0000f0 f8 3f 90 3f b9 c5 58 3f 2c ea 38 3f 26 6b 06 3f
       1.1269522 0.846767 0.7223232 0.52507246
000100 cd 27 83 3f e5 08 ad 3f 4f e2 80 3f fe a5 2f 3f
       1.0246521 1.3518339 1.0069064 0.6861266
000110 b8 69 27 3f 31 85 4a 3f 5c cd 29 3f 14 a4 21 3f
       0.6539569 0.79109484 0.6632898 0.6314099
000120 da 6e 44 3f 6b 34 07 3f 6e 7b 3f 3f 29 b1 7f 3f
       0.76731646 0.5281436 0.74797714 0.998797
000130 24 71 fb 3e d1 13 82 3f b7 f6 85 3f fe 54 95 3f
       0.49109757 1.0162297 1.0465916 1.1666563
000140 77 92 89 3e 2c 31 44 40 bd a5 8e 3f d7 c9 ae 3f
       0.26869556 3.0655012 1.1144329 1.3655347
000150 f3 13 8b 3f 6f 67 3b 3f 0c 26 14 3f f9 88 14 3f
       1.0865463 0.732047 0.57870555 0.58021504
000160 11 f5 8d 3f 67 9f 84 3f 4b fb 54 3f d9 c3 87 3f
       1.1090413 1.0361146 0.8319594 1.0606643
000170 29 4f 86 3f ba 63 8c 3f dd 1e 36 3f b0 e7 a0 3e
       1.0492908 1.0967934 0.71140844 0.31426764
000180 92 29 e0 3f 3a 74 1c 3f 52 29 8b 3f 79 1f 7a 3f
       1.7512686 0.6111485 1.0871985 0.97704273
000190 6f 6b 08 3f 14 7a a2 3f 1d fa c0 3f a7 5e 43 3f
       0.5328893 1.2693505 1.5076329 0.76316303
0001a0 58 97 86 3f 8f dc 90 3f 9e cb 5b 3f ac b6 cf 3e
       1.0514936 1.1317309 0.8585757 0.40569055
0001b0 b2 2c 4c 3f a8 2c 30 3f d1 cc 22 3f 94 75 2d 3f
       0.797557 0.6881814 0.63593775 0.67757535
0001c0 7d f5 34 3f 61 11 d4 3e d3 d2 8d 3f 8a 84 69 3f
       0.70687085 0.4141951 1.1079963 0.91217864
0001d0 a5 f2 97 3f 40 e1 7d 3f 72 8c af 3f a2 a5 5d 3f
       1.1870924 0.9917183 1.3714736 0.8658086
0001e0 78 28 51 3f 0f 13 36 3f 96 de 45 3f 58 a4 7b 3f
       0.81702375 0.7112283 0.77292764 0.98297644
0001f0 27 a9 65 3f 7d ba 75 3f 99 7f 43 3f c7 88 4f 3f
       0.8971123 0.95987684 0.76366574 0.8106808
000200 25 b2 c4 3e 74 86 75 3f c8 b3 78 3f e0 e8 4c 3f
       0.38417163 0.95908284 0.97149324 0.8004284
000210 e5 4b 62 3f 06 fa 74 3f a0 f9 f0 3e 35 50 6e 3f
       0.88397056 0.95694005 0.4706545 0.93091136
000220 0a 4a 8a 3f d6 b8 b4 3f d6 6b ac 3f d2 cf 90 3f
       1.0803845 1.4118907 1.3470409 1.1313422
000230 80 a0 c2 3f c5 c6 47 3f f1 e5 44 3f 96 1b df 3e
       1.5205231 0.78037673 0.7691336 0.43575734
000240 0b d9 f0 3e 2c 8b 88 3f ad 36 81 3f e2 c0 47 3f
       0.4704059 1.0667472 1.0094811 0.7802869
000250 8f 43 7c 3f 60 0c 54 3f e2 0b b8 3f fa 63 4f 3f
       0.98540586 0.8283138 1.4378626 0.8101193
000260 35 66 2b 3f 19 e6 70 3f e9 b0 5c 3f 9f 1b 83 3f
       0.6695283 0.941011 0.86207443 1.0242804
000270 21 41 20 3f 35 cf 80 3f 9c 59 2b 3f 6f 31 a1 3f
       0.6259938 1.0063235 0.6693361 1.2593211
000280 1d 39 94 3f 25 1e 87 3f 04 f2 2b 3f 4d 87 b7 3f
       1.157993 1.0556074 0.6716616 1.4338166
000290 66 ee 83 3f 23 7e 8c 3f b3 03 f6 3f 8b 5b 35 3f
       1.0307128 1.0975994 1.9219879 0.7084281
0002a0 3a 88 36 3f b8 dd 71 3f 8f e1 64 3f af fa 2b 3f
       0.71301615 0.9447894 0.89406675 0.6717939
0002b0 15 99 31 3f b6 2f 38 3f 4e 8b 5b 3f d2 aa 6e 3f
       0.6937421 0.719478 0.8575944 0.932294
0002c0 a3 f0 5a 3f cd ba fc 3e e6 82 0e 3f 6e 74 6f 3f
       0.8552343 0.49361268 0.55668485 0.9353703
0002d0 96 a2 1b 3f 3b f4 30 3f 57 ec 54 3f f5 2b 2a 3f
       0.6079496 0.69122666 0.83173126 0.66473323
0002e0 ba 6a 2f 3f d1 12 b4 3f a5 2a 2d 3e 55 45 b9 3e
       0.68522227 1.4068242 0.16910799 0.3618571
0002f0 d5 f5 4c 3f 30 43 7c 3f e5 c2 8e 3f d7 cc 86 3f
       0.8006261 0.9854002 1.1153227 1.0531262
000300 d2 4a bc 3f 6d 98 8c 3f 0e 7c b5 3f 45 9f a5 3f
       1.4710333 1.0984017 1.4178483 1.293923
000310 49 be 31 3f be fa 28 3f fc 17 85 3f 04 17 c0 3f
       0.6943098 0.660076 1.0397944 1.5007024
000320 f4 d7 41 3f 58 d9 77 3f ac f2 c4 3d a7 69 a3 3f
       0.75720143 0.96816015 0.096165985 1.2766618
000330 16 90 53 3f 0c 96 a2 3f d5 24 9c 3f 5f 86 29 3f
       0.8264173 1.2702041 1.219874 0.6622066
000340 c5 52 5e 3f 7e b9 13 3f 62 50 4c 3f 9d a2 ac 3e
       0.86845046 0.57704914 0.79810154 0.33717814
000350 57 0f 77 3f 7b 88 8a 3f ed a0 1b 3f 26 b1 6e 3f
       0.9650778 1.08229 0.6079243 0.9323906
000360 ff b9 c3 3e 09 e8 9f 3f e7 b6 ec 3e 81 30 f2 3e
       0.3822784 1.2492687 0.46233293 0.4730263
000370 8a 89 dd 3e aa c8 1f 3f 05 a2 84 3f 85 d5 67 3e
       0.43268996 0.62415564 1.0361944 0.22640045
000380 26 55 70 3f ac a1 7d 3f cc 96 55 3f 78 9f 66 3f
       0.93879926 0.99074817 0.8343322 0.9008708
000390 81 db 9b 3f ae ca 25 3f b3 7e 33 3f 01 21 dc 3f
       1.2176362 0.6476239 0.701152 1.7197572
0003a0 a0 68 32 3f 47 74 80 3f 8e cd 19 3f a9 b4 68 3f
       0.69690895 1.0035485 0.60079277 0.90900666
0003b0 7b c4 c1 3e bd 6e 8e 3f 56 04 58 3f 61 8e 9d 3f
       0.37845215 1.1127545 0.84381616 1.2309076
0003c0 94 57 03 3f ee a6 c5 3f 3d 06 ab 3f ac 6f 5a 3f
       0.5130551 1.5441568 1.3361279 0.8532665
0003d0 d3 62 62 3f e4 29 8c 3f 60 f9 64 3f f8 51 bd 3f
       0.88432044 1.0950284 0.89443016 1.479064
0003e0 a0 8b 73 3f 82 2c 51 3f 6e 9a 55 3f d3 76 66 3f
       0.95134926 0.8170854 0.83438766 0.9002506
0003f0 62 e1 79 3f 61 1e 5c 3f 98 9e 70 3f 57 bb 20 3f
       0.9760953 0.85983855 0.93991995 0.6278586

bn1.bias f4 [256]
000000 79 9a 1e 3d d0 38 98 3e e1 78 c7 3d d0 74 22 3e
       0.038721535 0.29730844 0.09739853 0.15864873
000010 4f 66 2e be 63 5d 13 bd 15 04 45 3b f9 82 b1 3e
       -0.17031215 -0.035977732 0.0030062248 0.34670237
000020 3e 6e 5b 3f 74 7c 5c be 9c da fd 3e 2f 45 9b 3e
       0.8571509 -0.2153185 0.49580848 0.3032622
000030 83 b5 61 3e 31 d6 b8 3e 71 85 f6 3c 9d ad 9d be
       0.22041897 0.36100915 0.030092927 -0.3079652
000040 92 53 13 3e 80 6d c3 3e 26 4c 92 3e eb c1 47 bd
       0.14387348 0.3816948 0.28573722 -0.04876892
000050 64 61 46 be a5 0e f3 bc 11 a5 31 be ec 2b 68 3e
       -0.19373089 -0.029670069 -0.17348124 0.22673005
000060 1c 7e 15 3e 2f 10 40 3e 49 ba ea bd 5b da 22 3f
       0.14598888 0.18756174 -0.11461312 0.63614434
000070 b4 74 35 3f 89 03 25 bd 28 29 0c 3d b3 b2 f8 3e
       0.708812 -0.040286575 0.034218937 0.48573837
000080 d9 43 52 be 82 a4 20 3e d0 31 b4 3d 80 3e a8 3e
       -0.20533694 0.15687755 0.087985635 0.32860184
000090 aa ec 29 bf 8b 0f 4d 3e 1e 04 06 3e 77 98 5a be
       -0.66376746 0.2002546 0.13087508 -0.21347223
0000a0 be 21 11 bd c8 3a fd 3d f5 78 10 be 82 03 46 be
       -0.03543257 0.12364727 -0.14108641 -0.19337276
0000b0 2e a9 86 3e 3d 4a 11 3f 2a 66 d5 3c 47 85 31 be
       0.2630095 0.56753904 0.026049692 -0.17335998
0000c0 32 05 57 3e 52 97 4d 3d 54 73 c0 be 6c d8 cd 3e
       0.20998076 0.05019314 -0.37587988 0.4020418
0000d0 c9 de 37 3f 49 8f 97 be ca c6 c2 be 1e 2b 34 3e
       0.7182432 -0.29601505 -0.3804229 0.17594573
0000e0 74 0f b2 3d c1 11 1a 3e a0 8f 28 3e fd c0 43 3e
       0.08694354 0.15045835 0.16461039 0.19116588
0000f0 68 fc f6 3d d9 b3 99 3e c2 3f 67 3e 5c d7 18 bf
       0.120598614 0.30020025 0.22582915 -0.5970361
000100 e2 ea cd 3e c6 be 0e 3d 32 01 0c 3e 6c a0 15 3e
       0.40218264 0.034849904 0.13672331 0.14611977
000110 5f 1a 3d 3e 9d d5 e6 3d 88 c1 4d 3e 83 66 e6 3c
       0.18467091 0.11271212 0.20093358 0.028125053
000120 51 ab 48 bd 22 70 75 be 82 71 19 3d ed 88 a5 bd
       -0.048991505 -0.23968557 0.037461765 -0.08082757
000130 33 09 bb 3d 8f 4a 9a be 03 8e 3f 3e 87 5d 6c be
       0.09132614 -0.3013501 0.18706517 -0.23082553
000140 82 4e 4a be 64 8f cf 3e c8 56 69 be 1e 8a 2f be
       -0.19756511 0.40539086 -0.2278701 -0.17142531
000150 99 04 a5 3b eb 03 74 bc a3 17 58 3e 6b 77 c8 3e
       0.0050359485 -0.014893512 0.21102767 0.3915361
000160 cb f2 8a bd 13 a4 e7 3b f6 d0 95 3d a0 22 88 3d
       -0.0678459 0.0070691197 0.07315247 0.06647229
000170 26 96 f6 3c 8d 1d bd 3e 79 41 11 be 74 85 a0 be
       0.030100893 0.36936608 -0.14185132 -0.31351817
000180 bb a8 d0 3e 08 18 0a 3d af 6a 0e bf fe 8e d9 3d
       0.4075373 0.033714324 -0.55631536 0.10622977
000190 db e7 20 be ff 39 c6 3b 29 36 28 3e 9e a3 d9 bc
       -0.15713446 0.006049394 0.1642691 -0.026567277
0001a0 47 5b 87 be 50 9b ec 3e 8d c2 66 be 5f f7 db be
       -0.26436827 0.46212244 -0.22535153 -0.42962167
0001b0 07 98 2f 3f 33 ff 2a 3d 90 5c dd 3e 3c 0b 34 3e
       0.6859135 0.041747283 0.43234682 0.1758241
0001c0 03 42 96 bd 6b 3d e3 3d 2e 69 07 3e 61 f1 39 be
       -0.073368095 0.11095699 0.13223717 -0.18158485
0001d0 d7 41 a7 3e 48 08 c7 bd e8 0b e7 3d 1a ec 89 3e
       0.3266742 -0.097183764 0.11281568 0.26937944
0001e0 91 96 89 3d 5b 43 77 bd ea 2d 1f 3f 08 8b 99 3c
       0.067181714 -0.06036697 0.62179434 0.018743053
0001f0 79 32 fc 3d 51 5a 0b bd 8f 02 89 3e 6a ab e4 3c
       0.123143144 -0.03402168 0.26759765 0.027913768
000200 45 63 1a be a7 c9 ee be ec 3a c3 be fb 17 6f 3d
       -0.15076931 -0.46638224 -0.3813089 0.05837248
000210 e2 e5 37 3e b5 f3 de bd 55 88 3a 3e 11 c9 5c be
       0.17958787 -0.10886327 0.18216069 -0.21561076
000220 1d 23 3e bf 8e fd 65 3e 0c 64 8f be 26 8a 22 3e
       -0.7427233 0.22460005 -0.28006017 0.15873012
000230 cd e1 ba be 89 3e f3 bd a0 1b 61 3e 5c e4 7b be
       -0.36500397 -0.11877162 0.21983194 -0.24598831
000240 89 77 18 be cd 48 d2 3d a5 92 11 3e 5c dc e0 be
       -0.14889349 0.10267792 0.14216097 -0.4391812
000250 7e f1 9d be 68 d2 65 3e 3b d8 a6 3e 64 2a de 3b
       -0.30848306 0.22443545 0.32586846 0.0067799557
000260 bd 37 67 3e 08 21 3d bd 24 5a f7 3d e0 ba 93 bd
       0.22579856 -0.04617408 0.1207774 -0.07213378
000270 a2 8f 38 be 6a 80 f9 bd 76 14 db 3e c6 fe 47 bf
       -0.18023542 -0.12182696 0.42789048 -0.7812313
000280 24 a4 0a 3f b7 d5 2b 3e 0d bb b1 bd 8a bf fe bb
       0.5415671 0.16780744 -0.08678255 -0.007774298
000290 79 89 93 3e e8 d6 00 bf f6 18 ab 3e ff 94 04 3d
       0.2881582 -0.5032792 0.3341748 0.032368656
0002a0 9c 96 b5 3e cf 47 e2 be bc 5a b8 3e 69 d6 c6 bd
       0.35466468 -0.4419541 0.36006725 -0.09708864
0002b0 04 77 da bd 67 a8 2f bd d6 24 5c 3d a7 e3 99 3e
       -0.10667232 -0.04288521 0.053746067 0.30056497
0002c0 7f 39 cc 3e 21 6f f7 3e 85 ce 39 3f 01 be 6f be
       0.39887616 0.48326972 0.7258075 -0.23412324
0002d0 07 b3 20 bc 4f 8a 12 3d 24 30 4e bc 57 c1 81 bd
       -0.009808308 0.035776433 -0.01258472 -0.06335705
0002e0 c5 17 8d be b9 bb e7 3e 6a bc 4e be 4f f9 12 bf
       -0.27557197 0.4526041 -0.20189062 -0.57411665
0002f0 69 74 3a 3d 07 35 5e ba e9 25 d1 3b 4b 82 04 3e
       0.045521174 -0.00084765296 0.006382693 0.12940328
000300 64 b6 d3 3d 1d ff 20 be 09 22 26 be b2 6b eb 3d
       0.103375226 -0.15722318 -0.16223921 0.114951506
000310 8d 92 cc 3c 83 b6 89 3e 0b 9e f3 3e 85 50 05 3f
       0.024972225 0.26897058 0.47581515 0.5207599
000320 32 91 f7 3d 9b 9a 8b 3e e4 8e bd be 8b 6c 46 3e
       0.12088241 0.27266392 -0.3702308 0.19377343
000330 93 98 a8 3d 92 22 03 3f 41 a9 6d be bd 66 b9 3e
       0.08232226 0.51224625 -0.23209096 0.36211196
000340 b4 67 d8 3e 0e a0 4b 3e bc 1d 4d 3d 56 7a e1 be
       0.4226662 0.19885275 0.050077185 -0.44038647
000350 9b 4b b9 3c 30 f0 1d 3e 27 7d 84 bd d4 bc e5 be
       0.02261906 0.15423656 -0.064691834 -0.44870627
000360 24 f9 2d be e0 11 54 3e f0 1b 14 be a5 21 84 3e
       -0.16989571 0.20709944 -0.14463782 0.2580692
000370 ed 73 3c be 37 7a 44 be 0a c9 91 bd 42 d6 82 3d
       -0.18403597 -0.19187246 -0.07118423 0.06388523
000380 6a b5 8e 3e 20 15 ea bd 60 81 8a 3e 32 b4 8f 3d
       0.27872783 -0.114298105 0.2705183 0.070167914
000390 b5 af 85 be 76 92 84 3e a3 62 56 3e 66 a8 8b 3e
       -0.26110616 0.2589299 0.20936064 0.27276915
0003a0 01 2a 81 3c fe df 27 be 31 c8 6c bd c5 84 51 bd
       0.0157671 -0.1639404 -0.057808105 -0.05115201
0003b0 9c 8b d0 be 1a 3a 35 3f 08 f6 40 bd 7d 27 90 be
       -0.40731514 0.7079178 -0.047109634 -0.28155127
0003c0 23 ea 6a be e8 6f c0 3e 93 a2 92 3e b0 55 6d bc
       -0.22940879 0.37585378 0.2863966 -0.0144857615
0003d0 88 e4 23 be 97 9b 36 3e 0a b4 06 3f 33 3a 84 bc
       -0.16005147 0.1783279 0.5261847 -0.016141033
0003e0 e8 78 4d 3c 75 81 28 3f 90 d9 1e be 6a 56 85 3d
       0.012541033 0.65822536 -0.15512681 0.06510623
0003f0 ee ee 5d 3d 90 2a 80 be 83 25 75 3d c6 7f f8 bd
       0.05418294 -0.25032473 0.059850227 -0.12133746
