checkpoints/maddpg/maddpg1_checkpoint_actor_target.pth (torch, 166151 bytes, 10 tensors)

fc1.weight f4 [256, 24]
0.37936047 0.18131997 0.0726718 -0.39259532 0.061709628 -1.186103 -0.013753854 -0.3854987
0.27548894 -0.043635204 -0.01428912 0.027773961 0.13912873 -1.1127354 -0.18239735 -0.17785013
0.13504305 -0.04667395 -0.14226845 -0.009676713 -0.092913054 -0.9850666 0.008078356 -0.05553294
0.4830379 -0.484031 -0.009025285 -0.22542346 -0.044574402 -0.39764154 -0.15164347 -0.3902515
0.44819432 -0.2764149 0.06653382 0.29657486 0.21907406 -0.24122861 0.15711977 0.29072016
0.2245318 -0.23766011 -0.35961762 0.30293506 0.50442624 0.25842944 -0.22956319 0.43969917
0.5153914 -0.39480907 -0.09771917 0.0017918672 0.21827255 -0.064857654 -0.04469293 -0.019702915
0.425725 -0.56917244 0.063439906 0.11689121 -0.49414873 -0.055100735 -0.13179773 0.041194264
0.43079245 -0.78117186 -0.115387715 -0.28564465 -1.4182143 0.028054487 0.05739882 -0.14640118
-0.55651015 0.42924303 -0.032088816 0.036388543 -0.1982598 -1.2424306 0.12547334 -0.15778786
-0.66558844 0.16184534 -0.1027496 -0.07820774 0.15821084 0.49442303 0.13829322 0.015742475
-0.7124948 0.38163775 -0.07187544 -0.15937066 0.46531603 1.815744 0.07018098 -0.011888318
0.17185463 -0.23502031 -0.093918264 -0.23985185 1.130355 -0.42917374 0.13419183 -0.1526421
0.09265299 -0.46793404 0.028109076 -0.061445527 0.9249137 -0.036374312 -0.08357893 -0.0135093685
0.5674607 -0.3810899 0.1637432 -0.050340224 0.6926197 0.1660491 0.185883 -0.028237876
-0.31856605 -0.6641102 -0.07660881 -0.08811129 0.36943924 -0.5160027 0.15815952 -0.120277725
-0.21508697 -0.5223363 -0.076354146 0.37541875 0.2045926 -0.6324136 0.008330181 0.4040644
-0.25959268 -0.51443315 -0.18912417 0.25190154 -0.42987636 -0.7550024 -0.33929637 0.39091998
0.49494845 0.26636168 -0.016362617 -0.031890757 -0.0011462983 -0.1712389 -0.01919201 0.016612215
0.55000895 0.17940484 0.015036861 0.04303697 0.1459811 -0.07935344 -0.08474027 0.094798684
0.3335072 0.099976905 0.041707024 -0.062449705 -0.10750209 -0.041133326 -0.07481597 -0.19120671
0.54762864 0.14391191 -0.038599957 -0.72223425 0.14825206 -0.60870355 -0.056564566 -0.5920265
0.2460446 0.07708893 -0.17946145 0.042808264 0.3304278 -0.6917008 -0.131807 -0.10458857
0.33939192 0.117682785 0.269613 -0.31283897 0.30743417 -0.47037387 0.049639437 -0.05489915
0.38441023 -0.13158639 0.05907828 0.018543804 0.07389953 -0.40598735 -0.12291008 -0.1360419
0.19563243 0.0767606 0.0036935564 0.04084647 -0.0937854 -0.2680008 -0.07474892 0.11561587
0.46842405 0.105982155 -0.025098536 -0.04287306 0.048621252 -0.16633634 -0.025970265 0.11469944
0.08848526 0.45571092 -0.016521888 0.49858764 0.0023546093 -1.2808079 0.02055883 0.5306676
0.20685709 0.48166966 -0.014108982 -0.40121478 0.045159627 -0.90617007 -0.12261433 -0.36762202
0.11922729 0.019017689 -0.07406583 -0.6159388 -0.011496972 -0.25865617 0.022531515 -0.8253801
0.24518728 -0.78614765 -0.11866163 -0.28912014 -0.107156135 -0.5283912 -0.064448416 -0.33437225
0.41062915 -0.6461708 -0.24632078 -0.614235 -0.1455781 -0.049603235 -0.11739974 -0.5043821
00000000: 893b c23e f1ab 393e f4d4 943d 4102 c9be
00000010: 3cc3 7c3d 39d2 97bf d857 61bc 1660 c5be
00000020: e30c 8d3e d4ba 32bd ea1c 6abc 3886 e33c
00000030: c377 0e3e 1d6e 8ebf 5fc6 3abe 581e 36be
00000040: ba48 0a3e 2f2d 3fbd d2ae 11be 138b 1ebc
00000050: 3349 bebd 532d 7cbf 155b 043c 8276 63bd
00000060: be50 f73e e9d2 f7be cade 13bc 68d5 66be
00000070: a693 36bd ac97 cbbe 6d48 1bbe 0bcf c7be
00000080: ba79 e53e 4186 8dbe e242 883d a9d8 973e
00000090: f354 603e a204 77be 01e4 203e 46d9 943e
000000a0: aaeb 653e 2c5d 73be cd1f b8be 4e1a 9b3e
000000b0: 1422 013f dd50 843e 9d12 6bbe 4020 e13e
000000c0: b1f0 033f 6a24 cabe fd20 c8bd 16dd ea3a
000000d0: d782 5f3e 17d4 84bd ef0f 37bd 0268 a1bc
000000e0: a1f8 d93e 49b5 11bf c8ec 813d a964 ef3d
000000f0: 1001 fdbe 4fb1 61bd fcf5 06be 51bb 283d
00000100: d490 dc3e e1fa 47bf 6550 ecbd 0440 92be
00000110: 0c88 b5bf 86d2 e53c 061b 6b3d 31ea 15be
00000120: 7377 0ebf bec5 db3e 906f 03bd 270c 153d
00000130: 9e04 4bbe f707 9fbf 157c 003e 2493 21be
00000140: 0164 2abf c9ba 253e 626e d2bd 612b a0bd
00000150: 0602 223e 0425 fd3e bd9c 0d3e 5df6 803c
00000160: 0f66 36bf 0666 c33e 6e33 93bd 1032 23be
00000170: e73d ee3e 4d6a e83f 0cbb 8f3d 38c7 42bc
00000180: a9fa 2f3e 2aa9 70be 3858 c0bd b99b 75be
00000190: 79af 903f a9bc dbbe 9569 093e 364e 1cbe
000001a0: dac0 bd3d 0d95 efbe 0145 e63c 4eae 7bbd
000001b0: 25c7 6c3f 3bfd 14bd 6e2b abbd 6656 5dbc
000001c0: 1b45 113f 371e c3be 4cac 273e 8d31 4ebd
000001d0: 864f 313f c608 2a3e 1d58 3e3e 1e53 e7bc
000001e0: 171b a3be 2003 2abf 14e5 9cbd b173 b4bd
000001f0: 2427 bd3e c118 04bf 92f4 213e 2b54 f6bd
00000200: c23f 5cbe d5b7 05bf 905f 9cbd e336 c03e
00000210: b980 513e dce5 21bf 507b 083c 87e1 ce3e
00000220: 55e9 84be e4b1 03bf c4a9 41be 3df9 803e
00000230: c118 dcbe d647 41bf 41b8 adbe aa26 c83e
00000240: e269 fd3e 8f60 883e e50a 86bc e29f 02bd
00000250: 633f 96ba 4059 2fbe 9038 9dbc 5716 883c
00000260: 63cd 0c3f e7b5 373e 2b5d 763c 8947 303d
00000270: 127c 153e 0e84 a2bd 4f8c adbd d025 c23d
00000280: 75c1 aa3e b1c0 cc3d fcd4 2a3d 43cb 7fbd
00000290: 0e2a dcbd 6b7b 28bd 1e39 99bd b1cb 43be
000002a0: 6431 0c3f a55d 133e fd1a 1ebd 58e4 38bf
000002b0: 63cf 173e ffd3 1bbf 3fb0 67bd 0c8f 17bf
000002c0: 1ef3 7b3e cde0 9d3d bec4 37be b857 2f3d
000002d0: d52d a93e 4e13 31bf 6af8 06be 8832 d6bd
000002e0: c7c4 ad3e ac03 f13d b70a 8a3e 6e2c a0be
000002f0: 0368 9d3e d8d4 f0be b952 4b3d eedd 60bd
00000300: 6bd1 c43e 95be 06be 11fc 713d 2de9 973c
00000310: a358 973d 93dd cfbe 48b8 fbbd 914e 0bbe
00000320: de53 483e a934 9d3d 980f 723b a14e 273d
00000330: 8f12 c0bd 6737 89be f615 99bd 03c8 ec3d
00000340: 47d5 ef3e 2c0d d93d 729b cdbc a99b 2fbd
00000350: 1427 473d 1354 2abe 98bf d4bc 8ae7 ea3d
00000360: c337 b53d f152 e93e e958 87bc e146 ff3e
00000370: ca4f 1a3b 83f1 a3bf fe6a a83c d5d9 073f
00000380: 58d2 533e 689d f63e 5c29 67bc 066c cdbe
00000390: 4df9 383d c3fa 67bf 391d fbbd f438 bcbe
000003a0: 702d f43d fcca 9b3c d3af 97bd 2aae 1dbf
000003b0: cc5d 3cbc 956e 84be 0394 b83c 1c4c 53bf
000003c0: 6012 7b3e f940 49bf de04 f3bd 8e07 94be
000003d0: ad74 dbbd a544 07bf 88fd 83bd d732 abbe
000003e0: fc3d d23e 736b 25bf 843b 7cbe 813e 1dbf
000003f0: 6d12 15be c32c 4bbd 466f f0bd 2f1f 01bf

fc1.bias f4 [256]
-0.27820784 -0.05126288 -1.1153687 -0.8418354 -0.36766732 -0.9085775 -0.49286225 -0.43029657
-0.48302737 -0.74928606 -0.6671516 -1.2408398 -0.7353139 -0.50196916 -0.6479273 -0.36135405
-0.79784536 -0.593797 -1.5564336 -0.4209742 -0.32010347 -0.32359558 -0.3347679 -0.43624914
-1.5859762 -0.5513082 0.042457122 -0.27226636 -0.27130896 -0.70888734 0.028541476 -0.75768834
-0.25310296 -0.7168936 -0.45939177 -0.58491033 -0.374127 -0.67976946 -0.68426883 -1.333719
-0.30638358 -0.52165693 -0.07591606 -0.36584362 -0.16337833 -0.16870198 -0.413955 -0.4209119
-0.5511161 -0.7328171 -0.21273917 -0.7243608 -0.8293002 -0.14391391 -0.71736956 -0.3001437
-0.39396635 0.039194725 -0.3431135 -0.8146071 -0.633811 -0.50051653 -0.40768328 -0.40508848
-0.8561436 -0.5851084 -0.869171 -0.85476506 -0.8267003 -0.46999335 -0.20625505 -0.50976056
-0.01899007 -0.6977111 -0.16994359 -0.52915305 -0.37637115 -0.18279415 -0.4981542 -0.66056156
-0.64092433 -2.2922466 -0.4730448 -0.65294755 -0.032676805 -0.7208703 -0.95308506 -0.34668314
-0.5419641 -0.48532218 -0.41533706 -0.34680617 -0.45259094 -0.16054733 -0.11946813 -0.53318834
-0.30143303 -0.20217577 -0.3375542 -0.91162336 -0.8720948 -0.18545566 -0.2615714 -0.4784349
-0.3103117 -0.3982983 -0.08263978 -0.60090023 -0.35586575 -0.36070806 -0.46111614 -0.70826554
-0.3384814 -0.33050296 -0.41117853 -0.19231495 -0.37027726 -0.6766685 -0.19421515 -0.55236274
-0.85756075 0.09922244 -0.38570914 -0.4617285 -0.27299157 -0.5714091 -0.9194891 -0.52426803
-0.6867691 -0.2737138 -0.2525588 -0.60313934 -0.7854351 -0.2572244 -0.42310286 -1.1840434
-0.30307862 -1.0773427 -0.14569566 -0.041987203 -0.53117853 -0.47778997 0.4903076 -0.95009077
-0.764106 -0.41605842 -0.4460294 -0.5791323 -1.171226 -0.5873704 -0.9083492 -0.59202415
-0.5647792 -0.8397401 -0.8050297 -1.003644 -0.65520895 -0.6061058 -1.5223206 -0.4690201
-0.3866982 -0.79512435 -0.51837194 -0.5669965 -0.55354583 -0.6435764 -1.3819196 -0.050599374
-0.20046668 0.0829371 -0.4236428 -0.83779275 -0.64978 -0.38565382 -0.6873054 -0.498953
-0.9650889 -0.24959888 -0.66763777 -0.49683625 -0.34781834 -0.92784107 -0.66117305 -0.8312939
-1.1271516 -1.0400199 -0.80832905 -0.63432914 -0.57995963 -0.56604284 -0.45122787 -0.66209096
-0.40990856 -0.16878532 -0.525529 -0.7077098 -0.76593024 -0.25731575 -0.042440683 -0.5449072
-0.58757734 -0.1040571 -0.35371554 -0.3898338 -0.613273 -0.09675822 -0.6421321 -0.44683388
-0.40889865 -0.24601713 -0.70165104 0.09488291 -0.06554523 -0.57044816 -0.36852008 -0.5529649
-0.94895583 -0.55615735 -0.16166082 -0.65157926 -0.6399324 0.15209869 -0.50243044 -0.6410645
-0.63593334 0.11736953 -0.5743688 -0.6361533 0.26275268 -0.72743237 -0.7086799 -1.08369
-0.391773 -0.40595174 -0.825747 -0.6904766 -0.1244086 -0.5500179 -0.8028546 -0.23474891
-0.32942232 -1.0295821 -0.6017172 -0.97427577 -0.1319929 -0.39032727 -0.35567048 -1.7819165
-0.3918609 -0.6641399 -0.77909046 -0.568618 -0.42585647 -0.54451406 -0.2553365 -0.64342767
00000000: 4271 8ebe 07f9 51bd 67c4 8ebf 8682 57bf
00000010: e43e bcbe 8998 68bf 7158 fcbe d54f dcbe
00000020: 5d4f f7be 36d1 3fbf 72ca 2abf d7d3 9ebf
00000030: 883d 3cbf 0d81 00bf 90de 25bf 6603 b9be
00000040: 983f 4cbf 1503 18bf 3739 c7bf ee89 d7be
00000050: 9ae4 a3be 52ae a5be b366 abbe 0c5c dfbe
00000060: 4501 cbbf 8922 0dbf 85e7 2d3d 7f66 8bbe
00000070: 02e9 8abe a479 35bf d0cf e93c ddf7 41bf
00000080: b696 81be 5786 37bf 6635 ebbe afbc 15bf
00000090: 938d bfbe 5f05 2ebf 3e2c 2fbf 4eb7 aabf
000000a0: 4fde 9cbe 4f8b 05bf e179 9bbd db4f bbbe
000000b0: a64c 27be 36c0 2cbe e9f1 d3be c481 d7be
000000c0: f215 0dbf e799 3bbf 4cd8 59be b66f 39bf
000000d0: 054d 54bf 2b5e 13be 88a5 37bf 6fac 99be
000000e0: f5b5 c9be a68a 203d 93ac afbe 178a 50bf
000000f0: 7041 22bf da21 00bf ddbb d0be c267 cfbe
00000100: 3a2c 5bbf aac9 15bf fe81 5ebf e2d1 5abf
00000110: a2a2 53bf f8a2 f0be 8634 53be ab7f 02bf
00000120: 1091 9bbc 329d 32bf b105 2ebe 9376 07bf
00000130: b8b3 c0be 642e 3bbe 110e ffbe 901a 29bf
00000140: 9e13 24bf 2bb4 12c0 ee32 f2be 9227 27bf
00000150: 1dd8 05bd f58a 38bf 62fd 73bf 7480 b1be
00000160: 29be 0abf 267c f8be 0fa7 d4be 9490 b1be
00000170: 00ba e7be 8566 24be b5ab f4bd 087f 08bf
00000180: 6e55 9abe 2a07 4fbe e7d3 acbe 2660 69bf
00000190: 9b41 5fbf 17e8 3dbe b0ec 85be 6bf5 f4be
000001a0: 2de1 9ebe c1ed cbbe 0c3f a9bd 99d4 19bf
000001b0: 0934 b6be baae b8be 6a17 ecbe e450 35bf
000001c0: 6f4d adbe af37 a9be fe85 d2be 36ee 44be
000001d0: fb94 bdbe 263a 2dbf 56e0 46be a567 0dbf
000001e0: 1a89 5bbf 2235 cb3d ab7b c5be ae67 ecbe
000001f0: 8dc5 8bbe de47 12bf a363 6bbf 6e36 06bf
00000200: 1ad0 2fbf 3724 8cbe 634f 81be 5767 1abf
00000210: 4612 49bf ebb2 83be f0a0 d8be bc8e 97bf
00000220: 1f2d 9bbe 5ee6 89bf 3e31 15be c6fa 2bbd
00000230: 51fb 07bf e3a0 f4be 9909 fb3e 2639 73bf
00000240: 739c 43bf 9c05 d5be f75d e4be 0442 14bf
00000250: bcea 95bf e85d 16bf 9389 68bf e58e 17bf
00000260: 5f95 10bf 35f9 56bf 6d16 4ebf 6877 80bf
00000270: c6bb 27bf c029 1bbf 67db c2bf 6723 f0be
00000280: 4efd c5be 458d 4bbf 06b4 04bf af26 11bf
00000290: 2eb5 0dbf 6cc1 24bf bee2 b0bf 4a41 4fbd
000002a0: 2347 4dbe edda a93d b6e7 d8be 9679 56bf
000002b0: fb57 26bf 6b74 c5be 3ff3 2fbf c576 ffbe
000002c0: 1110 77bf d996 7fbe 4fea 2abf 5261 febe
000002d0: 3f15 b2be fe86 6dbf a342 29bf adcf 54bf
000002e0: 8146 90bf 5f1f 85bf a7ee 4ebf 6563 22bf
000002f0: 3c78 14bf 2fe8 10bf 5707 e7be cb7e 29bf
00000300: 89df d1be 0fd6 2cbe 1289 06bf 782c 35bf
00000310: 0114 44bf e4be 83be 48d6 2dbd 0a7f 0bbf
00000320: 786b 16bf e41b d5bd 341a b5be 4c98 c7be
00000330: 76ff 1cbf 2c29 c6bd c562 24bf 69c7 e4be
00000340: 2a5b d1be eaeb 7bbe 679f 33bf f951 c23d
00000350: 943c 86bd e408 12bf aaae bcbe 1c8f 0dbf
00000360: c5ee 72bf 5460 0ebf 6a8a 25be e6cd 26bf
00000370: 9cd2 23bf c2bf 1b3e 489f 00bf ce1c 24bf
00000380: 87cc 22bf 705f f03d d509 13bf f1da 22bf
00000390: 8587 863e 0239 3abf 0c6c 35bf 5bb6 8abf
000003a0: 7896 c8be e8d8 cfbe 2864 53bf 13c3 30bf
000003b0: f0c9 febd f9cd 0cbf e187 4dbf 0562 70be
000003c0: 0baa a8be 59c9 83bf 230a 1abf 236a 79bf
000003d0: 2629 07be fad8 c7be 711a b6be d715 e4bf
000003e0: fea1 c8be 1305 2abf 7972 47bf f390 11bf
000003f0: dc09 dabe 4665 0bbf 77bb 82be adb7 24bf

fc2.weight f4 [128, 256]
-0.045995276 0.3127543 -0.109861545 0.11568631 -0.20855576 -0.31062943 -0.024226151 0.1424916
0.025339967 0.0635772 0.04109881 0.037403103 0.5565201 -0.2259029 0.08919834 0.1999141
0.11712587 -0.025503693 -0.07755672 0.27166963 0.07191856 -0.14147088 0.093553655 0.08508148
0.27344328 -0.3733117 0.056559984 -0.29445574 -0.10722706 -0.5893027 0.5005082 0.26204577
-0.03016239 0.5060305 0.09974951 0.06497535 -0.45582643 0.034782123 -0.34409302 0.55741686
-0.02541512 0.109532334 0.15780051 -0.08927007 -0.05371956 -0.39558274 0.5511521 0.24356838
-0.25562674 -0.10414785 0.011686802 0.08387179 -0.018431138 -0.33842716 -0.027442189 0.06275998
0.20128712 -0.16841966 -0.3939172 -0.112385176 0.31391278 -0.14680792 0.09579238 0.20435017
-0.16184078 0.19148366 0.0751014 -0.08895864 0.5092754 -0.021920783 -0.13084374 -0.29649454
0.4809342 -0.19817235 -0.28545126 0.3770183 0.39867315 0.14348902 0.14206803 0.24435823
0.013870617 0.41169274 0.22327965 -0.0023803958 -0.010746134 0.092624865 0.115599595 -0.010544868
0.4069527 -0.006365874 0.18319553 -0.25486627 0.76387775 0.1535047 -0.024431063 0.27547
0.502783 -0.33321953 0.041352414 0.31995174 0.012278258 -0.42036164 0.44916412 0.05363842
0.4799607 -0.15981321 0.21523717 0.025463954 0.008320524 0.17022297 -0.18160298 0.06171537
0.2270717 -0.26700586 0.05723805 0.08507918 0.272874 0.08832472 -0.026778447 0.4805122
-0.06298008 -0.051603183 0.033914644 -0.0035547593 0.35250604 -0.036133453 0.18283997 -0.34011495
0.10220741 -0.058151823 0.09994748 -0.24403657 -0.48007348 0.4279295 0.12500183 0.10634271
0.025683168 0.47051638 -0.229406 0.19898924 0.33751813 0.13594866 0.16335897 0.137414
0.084133565 0.08948499 0.45125172 0.06848371 0.0328782 0.3605813 -0.5313721 -0.08071587
0.27774683 0.076390274 0.32360256 -0.31924725 0.37820947 0.2263248 0.07580954 -0.0931754
-0.27425477 0.42191094 -0.011433957 0.084616095 0.2027586 0.1088081 0.27843684 -0.050918434
0.08632994 0.07978531 -0.22951718 -0.14433555 0.52468187 -0.7826194 -0.06717996 -0.78819805
-0.24879047 -0.33187914 -0.111500174 0.39718482 0.22571437 0.15912919 0.14716539 -0.14095834
-0.40638933 -0.016394624 -0.21508808 -0.030251035 0.12426599 0.07151224 -0.037576936 0.113021255
0.01656943 0.088756524 0.05722717 0.3967694 0.2992448 -0.19003285 -0.06554913 -0.27389768
0.018343413 -0.22158407 0.09266953 -0.007015359 0.3387419 0.056893297 0.4083044 0.104432665
0.0201504 -0.42548585 -0.18069771 -0.1846767 0.2422374 0.051588748 0.12824857 0.29853648
0.006364692 0.09725848 0.3443018 -0.23357806 0.0334289 -0.30756527 0.2293124 0.22403702
-0.06153271 0.15276857 0.14005223 -0.16210604 0.61592597 0.32423842 0.25379995 -0.64004403
-0.4961583 -0.3469875 0.4219518 0.24283443 0.112889424 -0.07922515 0.22161496 0.022267774
0.16042458 -0.26951844 -0.24313965 0.077159815 0.21108885 -0.6105189 -0.04454781 -0.31765473
0.05337764 -0.095788874 -0.29835814 -0.3395507 -0.042333007 0.022972714 0.067588344 0.16610344
00000000: 8b65 3cbd 5521 a03e 17ff e0bd f2ec ec3d
00000010: a48f 55be d20a 9fbe ec75 c6bc 51e9 113e
00000020: c395 cf3c c334 823d 3a57 283d ff33 193d
00000030: 1a78 0e3f 1753 67be 9fad b63d 48b6 4c3e
00000040: b0df ef3d 1fed d0bc 0fd6 9ebd 4818 8b3e
00000050: 0a4a 933d bedd 10be 0f99 bf3d 333f ae3d
00000060: c200 8c3e b622 bfbe 71ab 673d e7c2 96be
00000070: dc99 dbbd 8bdc 16bf 4e21 003f dd2a 863e
00000080: 1e17 f7bc 378b 013f 7949 cc3d cc11 853d
00000090: 1562 e9be b377 0e3d f62c b0be dfb2 0e3f
000000a0: 5f33 d0bc 7d52 e03d 7596 213e 3ad3 b6bd
000000b0: 0b09 5cbd d289 cabe 4e18 0d3f fd69 793e
000000c0: 82e1 82be 784b d5bd 007a 3f3c f9c4 ab3d
000000d0: e6fc 96bc 5346 adbe 71ce e0bc 4e88 803d
000000e0: 361e 4e3e 3476 2cbe 84af c9be 332a e6bd
000000f0: 2db9 a03e d154 16be cc2e c43d 2c41 513e
00000100: 97b9 25be 4b14 443e c3ce 993d f32f b6bd
00000110: df5f 023f 3793 b3bc e7fb 05be 22ce 97be
00000120: 023d f63e b1ed 4abe ab26 92be 8b08 c13e
00000130: e31e cc3e c9ee 123e 487a 113e 0b39 7a3e
00000140: 9641 633c 64c9 d23e 6ca3 643e 6a00 1cbb
00000150: 8e10 30bc 1bb2 bd3d 7bbf ec3d 62c4 2cbc
00000160: 1b5c d03e d298 d0bb 9c97 3b3e d57d 82be
00000170: 7e8d 433f 5630 1d3e a723 c8bc 670a 8d3e
00000180: 63b6 003f c09b aabe 2661 293d b7d0 a33e
00000190: bf2a 493c a439 d7be d7f8 e53e f6b3 5b3d
000001a0: 69bd f53e 13a6 23be 2267 5c3e c899 d03c
000001b0: cf52 083c ee4e 2e3e 22f6 39be 41c9 7c3d
000001c0: 7c85 683e feb4 88be 7272 6a3d fe3d ae3d
000001d0: 24b6 8b3e 97e3 b43d 795e dbbc b205 f63e
000001e0: b3fb 80bd dc5d 53bd 15ea 0a3d f7f6 68bb
000001f0: ac7b b43e ac00 14bd 673a 3b3e 8c23 aebe
00000200: 1e52 d13d 9b30 6ebd 44b1 cc3d b9e4 79be
00000210: 31cc f5be 9319 db3e 7b00 003e 35ca d93d
00000220: 8265 d23c 86e7 f03e 68e9 6abe d6c3 4b3e
00000230: 2dcf ac3e 2036 0b3e 9347 273e 41b6 0c3e
00000240: 384e ac3d e843 b73d 770a e73e 3041 8c3d
00000250: 4bab 063d 1d9e b83e 0008 08bf 5d4e a5bd
00000260: d534 8e3e 8172 9c3d 3caf a53e 6074 a3be
00000270: aca4 c13e b0c1 673e 0842 9b3d bed2 bebd
00000280: 1f6b 8cbe b604 d83e 7e55 3bbc 344b ad3d
00000290: f39f 4f3e c8d6 de3d 468f 8e3e d98f 50bd
000002a0: c0cd b03d 7b66 a33d 8d06 6bbe b3cc 13be
000002b0: 8d51 063f bf59 48bf a695 89bd 59c7 49bf
000002c0: eec2 7ebe 10ec a9be 345a e4bd cf5b cb3e
000002d0: ab21 673e c3f2 223e 86b2 163e 6257 10be
000002e0: 4312 d0be 054e 86bc 0d40 5cbe 05d1 f7bc
000002f0: 2b7f fe3d 0275 923d 46ea 19bd b077 e73d
00000300: 9dbc 873c fbc5 b53d 0967 6a3d 5c25 cb3e
00000310: 9d36 993e f997 42be 9f3e 86bd 513c 8cbe
00000320: ed44 963c efe6 62be 86c9 bd3d 19e1 e5bb
00000330: 946f ad3e f208 693d 460d d13e cbe0 d53d
00000340: 7412 a53c 48d9 d9be d208 39be e41b 3dbe
00000350: 150d 783e b94e 533d 9853 033e c6d9 983e
00000360: e88e d03b 742f c73d 5348 b03e 162f 6fbe
00000370: beec 083d 3279 9dbe dfd0 6a3e f669 653e
00000380: b909 7cbd 5d6f 1c3e da69 0f3e 20ff 25be
00000390: 53ad 1d3f 9402 a63e 11f2 813e edd9 23bf
000003a0: 7608 febe 58a8 b1be 110a d83e 97a9 783e
000003b0: 9232 e73d cc40 a2bd 08ef 623e e86a b63c
000003c0: 5746 243e 52fe 89be 9af9 78be f705 9e3d
000003d0: ad27 583e f74a 1cbf c477 36bd a4a3 a2be
000003e0: 83a2 5a3d f52c c4bd 66c2 98be 97d9 adbe
000003f0: 6065 2dbd 4631 bc3c c26b 8a3d 0517 2a3e

fc2.bias f4 [128]
-0.06727319 -0.033102352 -0.112773955 -0.45468113 -0.28198764 -0.15914983 -0.025787223 -0.5462556
-0.4419485 -0.3118462 -0.06448234 -0.50121754 -0.353283 -0.13868001 -0.3898322 -0.21791251
-0.17163865 -0.20710175 -0.51306206 -0.00066978036 -0.04649015 -0.15633196 -0.23253961 -0.3634884
-0.3784121 -0.19644158 -0.7835674 -0.30680138 -0.3653247 -0.24495384 -0.3127846 -0.25678107
-0.29937485 -0.073733695 -0.009725288 -0.023123076 -0.15713818 0.049739268 -0.42223656 -0.13266857
-0.48402104 -0.21897042 -0.21856754 -0.68623817 -0.66749144 -0.009575618 -0.1762271 -0.40077478
-0.27845126 -0.1213642 -0.07660527 -0.38030273 -0.3514529 -0.3760136 -0.34420362 -0.46506566
-0.21460944 -0.29284248 -0.07056728 -0.31347153 -0.23645823 -0.1256808 -0.20191781 -0.20891967
-0.1383805 -0.19935822 -0.1815166 -0.30728683 -0.08146627 -0.2491453 -0.17049721 -0.6813119
-0.09647257 -0.09637048 -0.113082334 -0.7212017 -0.35177675 -0.04630708 -0.48359582 -0.12679522
-0.46357208 0.0424946 -0.11896034 -0.546397 -0.23522721 -0.19445282 -0.45282844 -0.075606376
-0.44970483 -0.27026618 -0.10059651 -0.41446912 0.0131825255 -0.30776352 -0.34933248 -0.13310583
-0.2163779 -0.3089443 0.042837027 -0.09229201 -0.17170976 -0.4922905 -0.16324094 -0.52436376
-0.16181365 -0.2973479 -0.2852375 -0.24844483 0.042140696 -0.41086373 -0.302124 -0.25045416
-0.3149191 -0.20428315 -0.08445325 -0.4290092 -0.239687 -1.000702 -0.5288262 -0.15346086
-0.22877617 -0.5564439 -0.2978061 -0.22980441 -0.16084433 -0.020826815 -0.44051158 -0.90177506
00000000: 87c6 89bd 5596 07bd 08f6 e6bd f7cb e8be
00000010: af60 90be 2cf8 22be ba3f d3bc 68d7 0bbf
00000020: 1347 e2be 4eaa 9fbe 510f 84bd cb4f 00bf
00000030: 82e1 b4be 2202 0ebe 1698 c7be 7524 5fbe
00000040: 0bc2 2fbe 7b12 54be 0958 03bf 3394 2fba
00000050: 756c 3ebd 7c15 20be dd1e 6ebe 271b babe
00000060: 3bbf c1be fb27 49be e097 48bf 1215 9dbe
00000070: d70b bbbe 2ed5 7abe 4e25 a0be cf78 83be
00000080: a947 99be b101 97bd d056 1fbc 9b6c bdbc
00000090: d5e8 20be 67bb 4b3d 642f d8be 45da 07be
000000a0: 9bd1 f7be c839 60be 2bd0 5fbe 4ead 2fbf
000000b0: b8e0 2abf 0ee3 1cbc e074 34be 5a32 cdbe
000000c0: 2a91 8ebe cb8d f8bd 39e3 9cbd 0ab7 c2be
000000d0: a2f1 b3be db84 c0be 753b b0be 161d eebe
000000e0: 94c2 5bbe 73ef 95be 9485 90bd 577f a0be
000000f0: 1b22 72be 78b2 00be 8bc3 4ebe 0aef 55be
00000100: 9eb3 0dbe 9024 4cbe 7ddf 39be b354 9dbe
00000110: cad7 a6bd f21f 7fbe d296 2ebe 756a 2ebf
00000120: 6993 c5bd e35d c5bd b697 e7bd ada0 38bf
00000130: 151c b4be 7eac 3dbd df99 f7be 9bd6 01be
00000140: 5259 edbe d10e 2e3d 7ba1 f3bd ace0 0bbf
00000150: 67df 70be a41e 47be 21d9 e7be 84d7 9abd
00000160: b63f e6be 5460 8abe 8b05 cebd 4c35 d4be
00000170: 85fb 573c 2e93 9dbe b5db b2be e54c 08be
00000180: 2b92 5dbe f32d 9ebe e175 2f3d 9803 bdbd
00000190: afd4 2fbe 800d fcbe a228 27be b43c 06bf
000001a0: 7ab2 25be fc3d 98be a60a 92be 5268 7ebe
000001b0: b99b 2c3d bb5c d2be ffaf 9abe 873b 80be
000001c0: 143d a1be 9a2f 51be d3f5 acbd 18a7 dbbe
000001d0: 8270 75be 0117 80bf 2761 07bf d824 1dbe
000001e0: 4d44 6abe 1c73 0ebf 0b7a 98be d951 6bbe
000001f0: 60b4 24be ff9c aabc bc8a e1be bbda 66bf

fc3.weight f4 [2, 128]
-0.025328187 0.17804594 -0.21007901 0.25240135 -0.09940465 -0.13778955 -0.09559523 -0.41801268
0.2773336 -0.29131693 -0.2304658 -0.11453078 0.038544204 0.19393522 -0.32303149 -0.18996044
0.07965885 -0.077632435 -0.5619754 0.0044104955 -0.08453042 0.027447809 -0.10895874 -0.08044551
-0.012517827 0.22172876 0.14760166 -0.3322671 -0.40461662 -0.04924682 0.12772748 -0.028222915
0.1264247 0.090339355 0.068792105 -0.12644097 0.022548359 -0.08846695 -0.36533695 0.20130332
-0.040203802 -0.07597962 0.28158566 0.32366905 0.18832397 0.1521278 0.15433007 -0.09838194
-0.66662025 -0.16092028 0.14819063 -0.19592817 -0.009011452 -0.42902875 0.058444574 0.45758477
0.11322253 -0.27112955 0.07921864 -0.073839486 -0.06780395 0.364026 0.049284484 0.5172371
-0.2521418 0.11525412 0.025590518 0.11764485 -0.13729742 -0.048562855 0.063917644 0.4780812
-0.116338804 0.15540043 -0.07858646 1.1260946 1.0291082 0.086248875 0.31521252 0.37812516
0.07087093 0.16779776 -0.08455302 0.15054841 -0.100973725 0.021125792 -0.9260597 -0.014536001
-0.5530927 -0.056644585 -0.09490203 0.24116214 -0.1581223 -0.112225235 0.17741933 0.027568577
0.2735357 -0.11436678 -0.26733607 0.23781423 -0.07180069 0.4133035 -0.12932475 0.5947309
-0.19768202 -0.23130785 0.54949325 0.2696367 -0.00077577174 -0.36784166 -0.14069693 0.16005673
0.4803177 -0.18053938 -0.11791831 0.36397552 -0.20324112 0.4073936 0.50336623 -0.07145511
0.48969048 -0.39622378 -0.28423607 0.08536939 0.11149906 0.33450094 0.42245612 0.5158924
0.41626284 0.16075881 -0.5706892 0.3767017 0.29301298 -0.42553195 -0.0661524 -0.072098516
-0.39639753 0.042969927 0.50494784 -0.50033617 0.3460666 -0.26077583 0.62650335 -0.42166436
-0.49951538 0.42815128 0.49029532 -0.67028815 -0.97593576 0.49114951 0.68480295 -0.99198335
-0.48425284 0.5573725 0.22104098 0.31503543 -0.65107447 -0.80543 0.15987685 0.61287475
-0.4054758 0.47862342 -0.6664539 -0.06679683 0.37041318 -0.343439 0.32518134 -0.3329255
-0.8393829 0.35610557 0.23130201 -0.09031041 0.74823457 0.21230562 -0.36345664 0.21226233
0.5122958 0.09348678 -0.21954374 0.038208663 0.7090305 -0.022108769 0.8348884 0.041035865
-0.53207666 0.34380558 -0.49321344 -0.5039489 -0.26523477 -0.51918596 0.54492164 0.4047292
-0.16022094 0.21473908 -0.6912239 -0.81133217 0.023692958 0.71517545 0.5737507 -0.21984176
0.46095422 -0.13420126 -0.57188886 0.24291539 0.22521995 0.10783394 0.46065924 0.4538083
0.7150354 -0.18734087 0.36744472 0.09057852 0.52405477 -0.7331818 0.43092296 0.50987196
0.073962525 0.6064626 0.34123158 0.018990658 0.12062127 -0.5667367 0.058618758 -0.64364845
-0.42639393 -0.60275096 -0.11587379 -0.5880966 0.7567618 -0.43366864 0.052537397 0.22196937
-0.29914483 -0.6011497 -0.49503595 -0.14597453 -0.39475855 -0.18568155 -0.06793491 0.010583173
-0.18523255 0.20417567 0.23289786 0.07568233 0.46360737 0.1254729 -0.2578854 0.2759931
0.45767462 -0.2864554 -0.11763033 -0.42930427 0.10380143 -0.11942405 0.050045762 -0.017496098
00000000: 0f7d cfbc ad51 363e f41e 57be c03a 813e
00000010: aa94 cbbd b418 0dbe 6fc7 c3bd c205 d6be
00000020: abfe 8d3e 7e27 95be 3aff 6bbe 1d8f eabd
00000030: 87e0 1d3d f496 463e 6264 a5be fd84 42be
00000040: 2e24 a33d c1fd 9ebd 9fdd 0fbf eb85 903b
00000050: 491e adbd 3ada e03c c325 dfbd 9ec0 a4bd
00000060: 9217 4dbc dd0c 633e e424 173e ea1e aabe
00000070: e929 cfbe 09b7 49bd feca 023e be33 e7bc
00000080: 7a75 013e d703 b93d e0e2 8c3d be79 01be
00000090: 56b7 b83c 292e b5bd 720d bbbe 7522 4e3e
000000a0: beac 24bd 349b 9bbd ff2b 903e f3b7 a53e
000000b0: 00d8 403e 64c7 1b3e b408 1e3e 787c c9bd
000000c0: a0a7 2abf 49c8 24be 49bf 173e 65a1 48be
000000d0: c5a4 13bc a8a9 dbbe 9463 6f3d 8d48 ea3e
000000e0: 37e1 e73d 7ed1 8abe 623d a23d 2839 97bd
000000f0: ccdc 8abd 9e61 ba3e 87de 493d a769 043f
00000100: bb18 81be 5a0a ec3d 35a3 d13c c8ef f03d
00000110: b297 0cbe d8e9 46bd 41e7 823d 0fc7 f43e
00000120: 0a43 eebd 4a21 1f3e f0f1 a0bd de23 903f
00000130: d1b9 833f 40a3 b03d 8963 a13e 9f99 c13e
00000140: c724 913d 2dd3 2b3e 222a adbd 5d29 1a3e
00000150: 50cb cebd ff0f ad3c 4012 6dbf 6828 6ebc
00000160: 7c97 0dbf 2704 68bd ff5b c2bd 35f3 763e
00000170: d0ea 21be 58d6 e5bd 6aad 353e 7fd7 e13c
00000180: df0c 8c3e 2139 eabd 46e0 88be 9385 733e
00000190: 3d0c 93bd 849c d33e b56d 04be 4940 183f
000001a0: 286d 4abe f7db 6cbe 97ab 0c3f d20d 8a3e
000001b0: 295d 4bba be55 bcbe db12 10be e9e5 233e
000001c0: 34ec f53e 51df 38be 287f f1bd 005b ba3e
000001d0: 711e 50be e595 d03e 9cdc 003f 0f57 92bd
000001e0: b6b8 fa3e d8dd cabe 6487 91be 26d6 ae3d
000001f0: 9f59 e43d b543 ab3e 2b4c d83e 8611 043f
00000200: 6720 d53e f59d 243e b018 12bf 0cdf c03e
00000210: cc05 963e 53df d9be e97a 87bd 63a8 93bd
00000220: 9ef4 cabe 3c01 303d 4344 013f 0816 00bf
00000230: a42f b13e 6984 85be 8662 203f 64e4 d7be
00000240: 7bc0 ffbe a536 db3e fd07 fb3e 0198 2bbf
00000250: edd6 79bf f377 fb3e 3f4f 2f3f 9ff2 7dbf
00000260: fdef f7be f7af 0e3f 9158 623e 534c a13e
00000270: d1ac 26bf a930 4ebf c2b6 233e 5ce5 1c3f
00000280: 869a cfbe 210e f53e b99c 2abf c7cc 88bd
00000290: cca6 bd3e 3dd7 afbe 2b7e a63e 3675 aabe
000002a0: cce1 56bf 7853 b63e 6fda 6c3e aaf4 b8bd
000002b0: 4d8c 3f3f a566 593e fd16 babe 4c5b 593e
000002c0: d125 033f ff75 bf3d 13d0 60be b080 1c3d
000002d0: 0683 353f 731d b5bc 3fbb 553f 3915 283d
000002e0: 2d36 08bf 4907 b03e 7986 fcbe cc02 01bf
000002f0: dacc 87be 5fe9 04bf fc7f 0b3f aa38 cf3e
00000300: f510 24be 90e4 5b3e 0df4 30bf 77b3 4fbf
00000310: bc17 c23c bd15 373f 53e1 123f 331e 61be
00000320: 3102 ec3e 0e6c 09be 4f67 12bf d0be 783e
00000330: 0fa0 663e 0ad8 dc3d 87db eb3e 9059 e83e
00000340: 8f0c 373f 49d6 3fbe b721 bc3e 3b81 b93d
00000350: 7428 063f cdb1 3bbf efa1 dc3e f886 023f
00000360: aa79 973d 2241 1b3f e8b5 ae3e 4c92 9b3c
00000370: 4908 f73d a815 11bf 391a 703d 25c6 24bf
00000380: 4e50 dabe e34d 1abf 3d4f edbd 808d 16bf
00000390: 24bb 413f d109 debe 7431 573d f04b 633e
000003a0: 8329 99be f2e4 19bf 5a75 fdbe 597a 15be
000003b0: cb1d cabe 4e23 3ebe 7521 8bbd 0b65 2d3c
000003c0: 9aad 3dbe 6d13 513e c77c 6e3e 56ff 9a3d
000003d0: f25d ed3e f87b 003e 8e09 84be f84e 8d3e
000003e0: 5454 ea3e 48aa 92be 2ce8 f0bd c5cd dbbe
000003f0: d895 d43d 9994 f4bd c9fc 4c3d fa53 8fbc

fc3.bias f4 [2]
-0.039199155 -0.26271233
00000000: 4b8f 20bd 3b82 86be

bn1.weight f4 [256]
1.0507437 0.6928579 1.3554505 1.3572521 1.3533361 0.83351743 1.0773678 0.77750075
1.2058771 1.474804 0.9643944 0.64228857 1.1581063 0.9182335 0.82049525 0.30192527
1.031586 0.5268396 1.1234218 0.65804106 1.1503148 0.9321658 1.0425025 0.9794005
1.2196839 1.0634743 0.6137475 0.86353064 1.3086368 0.9937708 0.98856163 1.2031375
0.9124845 0.8844029 0.63990825 1.2054574 1.0198351 0.9670588 0.30848473 1.224067
1.5807061 0.5673349 0.9428463 0.77067983 0.8272933 0.4577053 0.7007543 0.72626966
0.9333263 1.0742924 1.2286463 1.0538172 0.8856769 1.1166966 0.30804488 0.7841776
1.205041 0.60747266 0.3199082 0.96908003 1.1254916 0.8466093 0.72032917 0.5241198
1.027782 1.3574207 1.0088533 0.6841319 0.6516015 0.79294676 0.66485214 0.63256586
0.7684191 0.5295649 0.7529857 1.0047973 0.49551433 1.0200347 1.0439453 1.1736194
0.2674202 3.059024 1.1138914 1.3656195 1.0865471 0.73190063 0.5788674 0.5775662
1.1083816 1.03624 0.82447 1.0601823 1.047623 1.0975475 0.7152974 0.31699795
1.7475812 0.6112128 1.0817199 0.98969024 0.52837986 1.2672945 1.5071074 0.75781083
1.0456698 1.1318471 0.86178154 0.39998695 0.80491596 0.6862456 0.63718295 0.6798511
0.71272314 0.4178791 1.1075443 0.91468865 1.1747711 0.9899695 1.38294 0.8723099
0.81767756 0.70729893 0.75648886 0.9736545 0.89505345 0.9605214 0.763206 0.80894387
0.37526745 0.95766395 0.96487516 0.80141366 0.88344455 0.9619244 0.47155386 0.9296229
1.0804672 1.4220558 1.3412082 1.1352731 1.5151404 0.78384864 0.7623374 0.44157982
0.47606298 1.0682592 1.008811 0.7825165 0.98940915 0.82775176 1.4411362 0.8090184
0.67405087 0.93961084 0.86167926 1.0281603 0.6234068 1.0125235 0.661896 1.2594028
1.1633711 1.048407 0.68167925 1.4339273 1.0238264 1.092743 1.9161838 0.7118945
0.7209738 0.945781 0.88647115 0.6703267 0.6923685 0.7246568 0.845914 0.94010574
0.8526082 0.49107018 0.5501743 0.93277025 0.61286664 0.69729096 0.8317637 0.66604304
0.68928856 1.4105016 0.17213601 0.35985783 0.8026452 0.9854264 1.1152769 1.0432726
1.4757879 1.0953699 1.408247 1.2973492 0.6902034 0.66236 1.0430142 1.4905373
0.7587185 0.9723773 0.09430074 1.2795783 0.8329494 1.2702509 1.2153665 0.66454566
0.8610661 0.5816771 0.8012966 0.3370244 0.968381 1.0801866 0.6083516 0.94426906
0.38703558 1.2464383 0.4606232 0.47398812 0.432158 0.6186286 1.0416571 0.21651626
0.9388698 0.99194306 0.83910555 0.9027282 1.2096089 0.6484097 0.7048639 1.7117264
0.69080615 1.0124161 0.5993197 0.9106707 0.3789253 1.1121254 0.8415939 1.2285285
0.5170976 1.5406702 1.345001 0.8611562 0.8758242 1.100153 0.9000975 1.4699221
0.95139176 0.8211056 0.8378205 0.90410584 0.97883445 0.8573835 0.94722646 0.6324739
00000000: c57e 863f 235f 313f 677f ad3f 70ba ad3f
00000010: 1e3a ad3f 6661 553f 30e7 893f 4a0a 473f
00000020: 2e5a 9a3f 61c6 bc3f 8de2 763f 066d 243f
00000030: d43c 943f 5a11 6b3f fa0b 523f f395 9a3e
00000040: 030b 843f f6de 063f 49cc 8f3f 6175 283f
00000050: 843d 933f 6ba2 6e3f b970 853f feb9 7a3f
00000060: 9a1e 9c3f ed1f 883f 8e1e 1d3f 5810 5d3f
00000070: 6981 a73f c367 7e3f 6012 7d3f 6900 9a3f
00000080: 9698 693f 3a68 623f 07d1 233f 6e4c 9a3f
00000090: f589 823f 2a91 773f b6f1 9d3e 3aae 9c3f
000000a0: 9454 ca3f dc3c 113f 605e 713f 464b 453f
000000b0: 7ec9 533f 5958 ea3e a264 333f cfec 393f
000000c0: 79ee 6e3f 6a82 893f 4844 9d3f 7be3 863f
000000d0: b9bb 623f eaef 8e3f 0fb8 9d3e ddbf 483f
000000e0: c93e 9a3f 5483 1b3f 02cb a33e a115 783f
000000f0: 1c10 903f 63bb 583f 7e67 383f b72c 063f
00000100: 5c8e 833f f6bf ad3f 1b22 813f 4523 2f3f
00000110: 5bcf 263f 8ffe 4a3f c033 2a3f d6ef 213f
00000120: 1db7 443f 9191 073f acc3 403f 339d 803f
00000130: 0eb4 fd3e 7f90 823f 00a0 853f 2939 963f
00000140: 4deb 883e 0dc7 4340 fe93 8e3f 9fcc ae3f
00000150: fa13 8b3f d75d 3b3f a730 143f 61db 133f
00000160: 73df 8d3f 83a3 843f 7710 533f 0eb4 873f
00000170: 8318 863f 707c 8c3f bb1d 373f 8e4d a23e
00000180: beb0 df3f 7178 1c3f cc75 8a3f 575c 7d3f
00000190: e743 073f b536 a23f e5e8 c03f e4ff 413f
000001a0: 82d8 853f 5ee0 903f b79d 5c3f 17cb cc3e
000001b0: f90e 4e3f cbad 2f3f 6c1e 233f b90a 2e3f
000001c0: 0675 363f 40f4 d53e 03c4 8d3f 0929 6a3f
000001d0: e65e 963f a46e 7d3f 2e04 b13f b44f 5f3f
000001e0: 5153 513f 8b11 353f 41a9 413f 6c41 793f
000001f0: 3922 653f bbe4 753f 7861 433f f216 4f3f
00000200: 0e23 c03e 7729 753f 0f02 773f 7229 4d3f
00000210: 6c29 623f ad40 763f 826f f13e c4fb 6d3f
00000220: c04c 8a3f ed05 b63f b6ac ab3f a150 913f
00000230: 1ff0 c13f 4eaa 483f 8b28 433f c016 e23e
00000240: 87be f33e b8bc 883f b820 813f 0053 483f
00000250: eb49 7d3f 8ae7 533f 2777 b83f d41b 4f3f
00000260: 998e 2c3f 568a 703f 0397 5c3f c29a 833f
00000270: 9797 1f3f 5f9a 813f 0472 293f 1c34 a13f
00000280: 58e9 943f 3332 863f 8882 2e3f ee8a b73f
00000290: be0c 833f 01df 8b3f 8345 f53f b83e 363f
000002a0: bd91 383f b41e 723f c6ef 623f 889a 2b3f
000002b0: 103f 313f 1c83 393f d28d 583f c5aa 703f
000002c0: 8844 5a3f 8d6d fb3e 39d8 0c3f 08ca 6e3f
000002d0: d4e4 1c3f a981 323f 77ee 543f cc81 2a3f
000002e0: 3775 303f 518b b43f 6c44 303e 493f b83e
000002f0: 287a 4d3f e844 7c3f 65c1 8e3f f589 853f
00000300: 9ee6 bc3f 1535 8c3f 7041 b43f 8a0f a63f
00000310: 2cb1 303f 6d90 293f 7d81 853f edc9 be3f
00000320: 603b 423f b8ed 783f bf20 c13d 39c9 a33f
00000330: 2c3c 553f 9597 a23f 2191 9b3f aa1f 2a3f
00000340: d46e 5c3f cae8 143f c621 4d3f 768e ac3e
00000350: d1e7 773f 8e43 8a3f eebc 1b3f 9ebb 713f
00000360: 8729 c63e 4a8b 9f3f ced6 eb3e 92ae f23e
00000370: d043 dd3e 725e 1e3f 0555 853f 70b6 5d3e
00000380: c559 703f fbef 7d3f 9fcf 563f 3219 673f
00000390: 77d4 9a3f 2efe 253f f671 343f da19 db3f
000003a0: acd8 303f da96 813f 046d 193f b721 693f
000003b0: 7f02 c23e 205a 8e3f b372 573f 6c40 9d3f
000003c0: 8260 043f ae34 c53f fe28 ac3f bc74 5c3f
000003d0: 0436 603f d0d1 8c3f ca6c 663f 6826 bc3f
000003e0: 698e 733f fa33 523f 677b 563f 7b73 673f
000003f0: e594 7a3f 7c7d 5b3f 6f7d 723f cfe9 213f

bn1.bias f4 [256]
0.038389362 0.29569867 0.09850686 0.1587045 -0.16740334 -0.0344321 -0.0031842627 0.342498
0.8492608 -0.21654288 0.48742932 0.30513835 0.21709494 0.35868865 0.029674055 -0.30655983
0.14423539 0.38327938 0.28065905 -0.04808466 -0.18846247 -0.03433124 -0.16846342 0.22562788
0.14417501 0.18859589 -0.12009005 0.63202924 0.70306516 -0.03855396 0.035301983 0.48538437
-0.20578869 0.15503912 0.080041066 0.32074556 -0.65678346 0.19779633 0.13057919 -0.2170517
-0.03340714 0.12620008 -0.1398876 -0.1927747 0.26494774 0.5662233 0.022156192 -0.16905458
0.21212737 0.056344774 -0.37306008 0.4052149 0.7112725 -0.29089513 -0.3768997 0.16929379
0.08575883 0.15337557 0.16213453 0.19268337 0.120349795 0.30751055 0.22485578 -0.59689766
0.40170947 0.037071127 0.1377903 0.14174896 0.17970613 0.11582758 0.19629903 0.025499828
-0.047156263 -0.23523527 0.037658703 -0.07740668 0.09240266 -0.29621705 0.18612185 -0.23242052
-0.19797386 0.40377685 -0.22494824 -0.16714595 0.004520874 -0.013127894 0.21091208 0.38935268
-0.07160425 0.00038188687 0.068723686 0.061734788 0.02603463 0.37039116 -0.14381184 -0.3169474
0.40703157 0.037653103 -0.55759656 0.106158644 -0.15315595 0.012025358 0.16768773 -0.022505546
-0.26303548 0.46151978 -0.22374092 -0.42371762 0.68195236 0.041741446 0.4283601 0.17389679
-0.07833887 0.117701985 0.13844858 -0.17937577 0.31999 -0.09695038 0.115163445 0.26713437
0.067634985 -0.06408192 0.6179375 0.011320349 0.12493447 -0.03196263 0.26560962 0.033540398
-0.15720944 -0.46483672 -0.3833031 0.05878529 0.18494421 -0.11300503 0.17769691 -0.21566868
-0.7387155 0.22569184 -0.27373278 0.15892413 -0.36630106 -0.118228264 0.22408293 -0.24934386
-0.1461001 0.102579825 0.13756828 -0.44136882 -0.30585453 0.21403687 0.32782575 0.002687028
0.22151102 -0.04708328 0.12085269 -0.06807778 -0.17767899 -0.12277642 0.42703125 -0.77162695
0.54703933 0.16423343 -0.08579514 -0.0094360355 0.28408155 -0.49902496 0.33181518 0.033693787
0.35368523 -0.4363588 0.35976818 -0.09793871 -0.11258329 -0.04008358 0.054341342 0.3052248
0.40280363 0.47872415 0.722989 -0.2309964 -0.012161382 0.03424687 -0.0109593915 -0.06309731
-0.27402422 0.45428523 -0.19720683 -0.57230896 0.04915616 -0.0043554706 -0.0034383237 0.12997885
0.10574808 -0.15942101 -0.16205426 0.10990407 0.019217327 0.266116 0.4697302 0.517564
0.119266845 0.26978326 -0.36753845 0.19673097 0.08326154 0.51024395 -0.23207526 0.35103473
0.41916716 0.19874744 0.049735047 -0.44220352 0.01832993 0.15826333 -0.068291165 -0.4481381
-0.17492 0.20530468 -0.14161275 0.26108956 -0.18179588 -0.18943477 -0.07689283 0.060226984
0.27505368 -0.11323387 0.2790014 0.07380801 -0.2648817 0.25538772 0.2069709 0.27432844
0.017511655 -0.16391633 -0.059767067 -0.054609086 -0.41003752 0.7073499 -0.047443807 -0.28432187
-0.232022 0.37462395 0.29128993 -0.016079916 -0.16290247 0.17898482 0.52354836 -0.017209744
0.008378659 0.66083664 -0.15276405 0.06782246 0.051654413 -0.25213754 0.060874637 -0.11781583
00000000: 2a3e 1d3d d165 973e f7bd c93d 6f83 223e
00000010: c86b 2bbe ac08 0dbd 10af 50bb e65b af3e
00000020: 2869 593f 6bbd 5dbe 5690 f93e 183b 9c3e
00000030: 234e 5e3e 0aa6 b73e 0117 f33c 69f5 9cbe
00000040: 71b2 133e 323d c43e 8bb2 8f3e 6cf4 44bd
00000050: 4efc 40be ea9e 0cbd ad81 2cbe ff0a 673e
00000060: 9da2 133e 481f 413e c6f1 f5bd abcc 213f
00000070: 14fc 333f c2ea 1dbd d098 103d 4d84 f83e
00000080: 45ba 52be 93c2 1e3e 92ec a33d c338 a43e
00000090: f622 28bf 1f8b 4a3e 8db6 053e cd42 5ebe
000000a0: edd5 08bd 983a 013e b23e 0fbe bb66 45be
000000b0: 3ba7 873e 03f4 103f e780 b53c a51c 2dbe
000000c0: eb37 593e c7c9 663d bb01 bfbe 5478 cf3e
000000d0: f415 363f 35f0 94be fff8 c0be 5a5b 2d3e
000000e0: 53a2 af3d 7c0e 1d3e 9806 263e ca4e 453e
000000f0: f479 f63d 0672 9d3e 9840 663e 49ce 18bf
00000100: ddac cd3e e5d7 173d e718 0d3e a426 113e
00000110: e204 383e 0337 ed3d 9d02 493e 04e5 d03c
00000120: ed26 41bd 84e1 70be 0340 1a3d 6587 9ebd
00000130: 9b3d bd3d c3a9 97be ba96 3e3e a5ff 6dbe
00000140: a9b9 4abe d7bb ce3e d558 66be 4f28 2bbe
00000150: d723 943b 6116 57bc 56f9 573e 3c59 c73e
00000160: 40a5 92bd fd37 c839 01bf 8c3d 9edd 7c3d
00000170: 9446 d53c e9a3 bd3e 6943 13be ee46 a2be
00000180: 7166 d03e 243a 1a3d a6be 0ebf b469 d93d
00000190: ead4 1cbe 0206 453c 55b6 2b3e 8d5d b8bc
000001a0: 96ac 86be 524c ec3e 571c 65be 84f1 d8be
000001b0: 6e94 2e3f 14f9 2a3d 0452 db3e 0012 323e
000001c0: 2170 a0bd bd0d f13d 77c5 0d3e 48ae 37be
000001d0: bbd5 a33e ec8d c6bd d0da eb3d d6c5 883e
000001e0: 3684 8a3d 623d 83bd 2731 1e3f fc78 393c
000001f0: a5dd ff3d 3feb 02bd fcfd 873e a861 093d
00000200: 83fb 20be 14ff edbe 4e40 c4be d8c8 703d
00000210: 0462 3d3e 2e6f e7bd 2ef6 353e 40d8 5cbe
00000220: 761c 3dbf c31b 673e b426 8cbe 02bd 223e
00000230: d08b bbbe a921 f2bd ff75 653e ff53 7fbe
00000240: 449b 15be 5f15 d23d b3de 0c3e 18fb e1be
00000250: f798 9cbe 7b2c 5b3e c7d8 a73e d918 303b
00000260: c9d3 623e 66da 40bd 9d81 f73d 5d6c 8bbd
00000270: 7bf1 35be 3472 fbbd d7a3 da3e 5889 45bf
00000280: c50a 0c3f cf2c 283e 5db5 afbd 9a99 1abc
00000290: 2373 913e 3380 ffbe aee3 a93e 7f02 0a3d
000002a0: 3b16 b53e 6c6a dfbe 8933 b83e 1794 c8bd
000002b0: 1192 e6bd ae2e 24bd 0795 5e3d 6d46 9c3e
000002c0: 473c ce3e 551b f53e cf15 393f 528a 6cbe
000002d0: 8840 47bc 7246 0c3d 058f 33bc 2a39 81bd
000002e0: e74c 8cbe 1398 e83e 96f0 49be d782 12bf
000002f0: f857 493d 56b8 8ebb 8055 61bb 2d19 053e
00000300: 7392 d83d 433f 23be 8df1 25be 6315 e13d
00000310: a86d 9d3c 5b40 883e 7a80 f03e 137f 043f
00000320: 2d42 f43d 0821 8a3e 002e bcbe d873 493e
00000330: 0785 aa3d 599f 023f 23a5 6dbe d3ba b33e
00000340: 149d d63e 7384 4b3e fab6 4b3d 8068 e2be
00000350: a628 963c c80f 223e 3ddc 8bbd 5b72 e5be
00000360: 3a1e 33be 643b 523e ef02 11be 88ad 853e
00000370: b328 3abe 30fb 41be fd79 9dbd 92b0 763d
00000380: d6d3 8c3e 29e7 e7bd 46d9 8e3e a728 973d
00000390: 939e 87be 2ec2 823e 2ef0 533e c774 8c3e
000003a0: 9a74 8f3c afd9 27be 50ce 74bd c7ad 5fbd
000003b0: 70f0 d1be e214 353f 7054 42bd a392 91be
000003c0: 2d97 6dbe b6ce bf3e f423 953e 07ba 83bc
000003d0: e8cf 26be cc47 373e 4407 063f 73fb 8cbc
000003e0: a546 093c 972c 293f 2e6e 1cbe 80e6 8a3d
000003f0: 9493 533d 2c18 81be af57 793d 6d49 f1bd

bn1.running_mean f4 [256]
0.09672782 2.1997616 0.90169287 10.061198 9.053513 2.413855 6e-45 1.1413175
6e-45 0.34755826 1.6744777 2.9120286 0.22882646 0.599817 0.9095441 6.215073
0.64945656 3.0837436 16.476871 0.6233433 2.2275546 3.423577 0.15183072 0.13723414
2.0202491 2.2948565 12.028953 6.53264 6e-45 2.4263852 9.616076 3.0844626
0.13571425 0.22154589 5.25388 0.42910525 0.92049634 1.8683032 2.3468573 7.1179523
1.5640559 0.10465287 0.40447757 1.265895 1.0745912 6.9427905 6.7676377 0.6368236
5.601806 0.22727983 6e-45 0.74943846 1.701339 0.15561981 14.407837 0.6375554
4.038744 2.201035 7.2924047 0.81902736 1.3979782 0.22579962 5.727992 18.217466
4.699584 0.31344113 0.72241807 5.92901 4.383987 2.7683353 0.63229436 1.250741
4.563467 1.5836196 0.11197828 2.0607257 5.612311 2.240246 1.4577926 5.0464087
8.830264 5.6894855 1.9358509 6e-45 6e-45 0.4120791 0.3882869 17.087965
9.131432 6e-45 3.8809934 0.8931209 0.52268296 0.5322945 1.3568593 17.8854
1.4177538 0.60532993 1.2534674 0.63234293 1.2325734 0.26196235 1.4748842 0.48885247
0.6596352 6e-45 0.8536801 1.0051557 2.2367077 6.9764924 2.7417893 4.5026507
0.74579155 3.5180242 0.2657011 0.018183662 0.5192743 0.045853008 0.23337133 1.0137186
4.301195 1.7002912 0.6688668 0.45547622 7.234846 8.249147 1.0386935 1.3542919
7.6838417 0.34764275 1.3806167 0.39394465 3.9700668 7.507554 8.895401 0.007945881
6e-45 3.627418 1.1503633 3.420106 3.1985881 5.894003 3.6719198 9.8404875
1.1553727 0.09576086 0.44590086 0.41533074 7.0943155 0.500851 5.510195 1.0000946e-05
11.696864 21.583738 7.63965 5.6776476 0.30764896 1.1953881 1.5465219 6e-45
2.5659463 0.44021133 3.500422 6e-45 6.8832912 1.0364507 12.800473 1.6029603
13.754689 2.0449393 3.9287922 0.13904037 3.5809581 0.22085208 0.06618255 1.3072242
0.50958484 4.8962317 3.0596175 0.4357052 0.53187853 0.18120043 6e-45 0.6755275
1.0939367 6.0362897 1.0063038 18.91596 0.2813347 6e-45 6e-45 0.16621846
0.22400096 3.836008 2.3382256 0.3844567 0.17665201 2.0267653 4.724838 0.7450749
7.901221 1.4752798 1.9720358 0.24081272 5.6571283 6e-45 7.2638197 0.6588292
0.7194048 0.92484474 0.038321763 23.206585 1.0060757 0.08701951 8.664929 0.35959092
3.2814605 2.2089386 28.647888 3.6077075 0.7261194 6.6377983 1.3822918 7.1812296
3.0985117 19.240143 5.591247 0.74466324 8.671692 2.70639 13.976415 4.5289297
1.6274391 6.6812944 0.6215328 1.5156091 12.988599 2.2040198 0.031267807 8.492196
2.5967321 4.3796625 0.56459117 0.6089982 3.035653 1.3581524 1.6029614 4.9863505
6e-45 1.5017091 0.020771455 0.08420303 8.0718975 9.118171 1.5597022 0.17421472
00000000: 3c19 c63d e5c8 0c40 58d5 663f abfa 2041
00000010: 30db 1041 9a7c 1a40 0400 0000 b116 923f
00000020: 0400 0000 28f3 b13e 4955 d63f ad5e 3a40
00000030: 7c51 6a3e 9b8d 193f e2d7 683f e1e1 c640
00000040: c942 263f 0e5c 4540 a2d0 8341 6d93 1f3f
00000050: 4190 0e40 e31b 5b40 8379 1b3e 1b87 0c3e
00000060: c34b 0140 eede 1240 9776 4041 630b d140
00000070: 0400 0000 e549 1b40 73db 1941 d667 4540
00000080: adf8 0a3e eddc 623e c91f a840 afb3 db3e
00000090: a6a5 6b3f 8f24 ef3f e932 1640 44c6 e340
000000a0: fc32 c83f 3e54 d63d af17 cf3e d908 a23f
000000b0: 348c 893f 572b de40 7d90 d840 df06 233f
000000c0: ff41 b340 0bbc 683e 0400 0000 33db 3f3f
000000d0: 7ac5 d93f cd5a 1f3e 8086 6641 d536 233f
000000e0: 643d 8140 c2dd 0c40 615b e940 c7ab 513f
000000f0: f3f0 b23f 0438 673e b64b b740 5fbd 9141
00000100: fe62 9640 5b7b a03e 64f0 383f 73ba bd40
00000110: 9f49 8c40 682c 3140 0bde 213f 4818 a03f
00000120: ec07 9240 0cb4 ca3f de54 e53d eee2 0340
00000130: 0d98 b340 3160 0f40 f398 ba3f 2e7c a140
00000140: c348 0d41 4410 b640 f6c9 f73f 0400 0000
00000150: 0400 0000 08fc d23e 8acd c63e 27b4 8841
00000160: 581a 1241 0400 0000 3262 7840 92a3 643f
00000170: 8dce 053f 7444 083f 91ad ad3f 4d15 8f41
00000180: f578 b53f e7f6 1a3f 9f71 a03f 3ae1 213f
00000190: f7c4 9d3f ee1f 863e 01c9 bc3f df4a fa3e
000001a0: dadd 283f 0400 0000 c78a 5a3f f1a8 803f
000001b0: 3826 0f40 6d3f df40 7a79 2f40 b715 9040
000001c0: 32ec 3e3f 4f27 6140 f909 883e e7f5 943c
000001d0: 29ef 043f 5dd0 3b3d e5f8 6e3e 88c1 813f
000001e0: 64a3 8940 24a3 d93f db3a 2b3f 2e34 e93e
000001f0: dc83 e740 82fc 0341 e9f3 843f 7059 ad3f
00000200: 08e2 f540 3bfe b13e 0cb8 b03f 1db3 c93e
00000210: 9315 7e40 e23d f040 9053 0e41 712f 023c
00000220: 0400 0000 9e27 6840 1b3f 933f 04e3 5a40
00000230: abb5 4c40 ac9b bc40 bc00 6b40 a372 1d41
00000240: 41e3 933f 451e c43d 1e4d e43e 3ba6 d43e
00000250: a204 e340 c537 003f 8453 b040 bcc9 2737
00000260: 5b26 3b41 7fab ac41 0378 f440 4aaf b540
00000270: 2a84 9d3e 7a02 993f 6ef4 c53f 0400 0000
00000280: 7738 2440 6163 e13e ea06 6040 0400 0000
00000290: ec43 dc40 6baa 843f bdce 4c41 ce2d cd3f
000002a0: 3513 5c41 49e0 0240 5571 7b40 9960 0e3e
000002b0: 6b2e 6540 0c27 623e b78a 873d 1f53 a73f
000002c0: 2774 023f eead 9c40 c6d0 4340 c114 df3e
000002d0: 3129 083f 9b8c 393e 0400 0000 5fef 2c3f
000002e0: 1e06 8c3f 4929 c140 90ce 803f e353 9741
000002f0: 1a0b 903e 0400 0000 0400 0000 2c35 2a3e
00000300: 8260 653e 2881 7540 7da5 1540 82d7 c43e
00000310: 44e4 343e 86b6 0140 df31 9740 3bbd 3e3f
00000320: cdd6 fc40 f8d5 bc3f ab6b fc3f 9c97 763e
00000330: 3207 b540 0400 0000 3671 e840 08a9 283f
00000340: ea2a 383f a0c2 6c3f 48f7 1c3d 16a7 b941
00000350: 17c7 803f 4937 b23d 8da3 0a41 4d1c b83e
00000360: 7303 5240 405f 0d40 e02e e541 aee4 6640
00000370: f6e2 393f d868 d440 f0ee b03f a2cc e540
00000380: 044e 4640 d0eb 9941 7feb b240 40a2 3e3f
00000390: 40bf 0a41 7e35 2d40 659f 5f41 feec 9040
000003a0: ed4f d03f 2acd d540 c61c 1f3f 7bff c13f
000003b0: 4dd1 4f41 a90e 0d40 ac12 003d 09e0 0741
000003c0: dc30 2640 3226 8c40 0c89 103f 4ee7 1b3f
000003d0: 2448 4240 f0d7 ad3f d72d cd3f 2f90 9f40
000003e0: 0400 0000 0138 c03f e628 aa3c a372 ac3d
000003f0: 7e26 0141 07e4 1141 52a4 c73f 5865 323e
