checkpoints/maddpg/maddpg1_checkpoint_critic_local.pth (torch, 474855 bytes, 13 tensors)

fc1.weight f4 [256, 52]
0	0xbe40c909	-0.18826689
1	0xbea7e0e8	-0.32788777
2	0x3ca4cb32	0.020116422
3	0x3d8063fa	0.06269069
4	0xbe2d33c2	-0.16914275
5	0xbeb8f31b	-0.36122975
6	0xbc2b83ce	-0.010468436
7	0xbc9d0252	-0.019166145
8	0x3da423ad	0.08014617
9	0xbe9dc787	-0.3081629
10	0x3e17d7cd	0.14828415
11	0x3ddec17f	0.1087675
12	0xbe2135c1	-0.15743162
13	0x3dc19527	0.09452277
14	0xbdae0028	-0.084961236
15	0xbd0c2c50	-0.034221947
16	0x3cc482b2	0.023988102
17	0xbe3523bf	-0.17689417
18	0xbaf48a59	-0.0018656953
19	0x3ef3517a	0.475231
20	0x3d689bd1	0.056789223
21	0x3e8ea35a	0.27859002
22	0xbdb4ccea	-0.08828147
23	0x3ed2a3b2	0.41140515
24	0x3d39f29b	0.045397382
25	0xbeaf6dd5	-0.34263483
26	0xbde6584d	-0.11247311
27	0xbdf8fe7c	-0.12157914
28	0x3e691c4c	0.227647
29	0xbe6ec1eb	-0.23316161
30	0x3dd9311d	0.10605071
31	0x3b29ec59	0.0025928228
32	0x3ce08e41	0.027411582
33	0xbe8bf6c5	-0.27336708
34	0xbd3dda5c	-0.04635082
35	0x3de35130	0.1109947
36	0x3d9cbe69	0.07653505
37	0xbd4df63f	-0.050283667
38	0x3c96cd1e	0.018408354
39	0xbdb6a497	-0.08918112
40	0xbe8d9026	-0.2764904
41	0xbf60e61b	-0.87851113
42	0xbc017d4a	-0.007903406
43	0xbeb99a7c	-0.36250675
44	0xbdbb7ac3	-0.09154274
45	0x3d7f1884	0.06227924
46	0xbd15e4ce	-0.03659516
47	0xbec58502	-0.3857804
48	0x40893002	4.2871103
49	0x3f9c94e2	1.2232935
50	0xc017e4b1	-2.3733332
51	0x410af0b2	8.6837635
52	0x3d0c4b12	0.03425128
53	0x3f21aad4	0.6315129
54	0x3e12b396	0.14326319
55	0xbdebff79	-0.11523337
56	0xbf15efe0	-0.58569145
57	0xbf864eca	-1.0492795
58	0x3cb46b23	0.022023743
59	0x3d82ab6d	0.06380353
60	0x3f4fe242	0.8120462
61	0x3f22e4e0	0.63630486
62	0x3e942713	0.2893606
63	0xbd7eb98f	-0.06218868
64	0xbf323af9	-0.69621235
65	0xbfa0273c	-1.2511973
66	0x3ec970b7	0.39343807
67	0xbd614e7c	-0.05500649
68	0x3f835919	1.0261565
69	0x3f025af4	0.50920033
70	0x3e8fe6ea	0.2810586
71	0x3f9b768d	1.2145554
72	0xbf3b74e4	-0.73225236
73	0xbf28b1dd	-0.658964
74	0x3e85a565	0.2610275
75	0x3f8f9490	1.1217213
76	0x3e18df76	0.14928994
77	0x3fabdc7a	1.3426659
78	0x3d6c66bb	0.05771516
79	0x3e45e58f	0.19325851
80	0x3ec3e790	0.38262606
81	0xbf854ba8	-1.0413713
82	0xbd10aab8	-0.03531906
83	0xbbd12b70	-0.006383352
84	0xbdc37c63	-0.09545209
85	0x3fc62b80	1.5482025
86	0xbd02adde	-0.031904094
87	0x3c6d7b61	0.014494748
88	0x3f364d13	0.71211356
89	0xbfa4e70d	-1.2883011
90	0xbda90abb	-0.08254
91	0xbd5f446d	-0.054508615
92	0xbe919c62	-0.28439623
93	0x3f89638e	1.0733507
94	0xbd2511a7	-0.040300038
95	0xbeffa79e	-0.4993257
96	0x3f15b3b3	0.58477324
97	0xbf5055f3	-0.8138115
98	0xbe3caa61	-0.1842437
99	0xbefca729	-0.49346283
100	0x4058e5ac	3.389018
101	0xbebd5b12	-0.36983544
102	0xbff6f9a0	-1.929493
103	0xc05ff530	-3.49934
104	0x3ec330ef	0.3812327
105	0xbf2dad5a	-0.6784264
106	0x3c00014e	0.007812811
107	0x3e64a81d	0.22329755
108	0x3cc0ef2d	0.023551548
109	0xbf4b7304	-0.79472375
110	0x3e603a99	0.21897353
111	0x3e5c61f0	0.21521735
112	0x3e73a153	0.23792009
113	0xbedd1e7e	-0.43187326
114	0xbdf76de5	-0.120815076
115	0x3fb5c450	1.4200535
116	0xbe18158f	-0.14851974
117	0xbf233e6d	-0.6376713
118	0xbe83d487	-0.25748083
119	0x3fbbad0d	1.4662186
120	0xbd81b35b	-0.063330375
121	0xbf4943f9	-0.78619343
122	0x3ddba9ac	0.10725722
123	0x3f5a8a83	0.853676
124	0xbf3ab775	-0.72936183
125	0x3e073377	0.13203226
126	0x3d5160da	0.051117755
127	0x3f813044	1.0092854
128	0x4004f6af	2.0775564
129	0x3ec6d82e	0.38836807
130	0x3db89ce8	0.090143025
131	0x3e6e69d6	0.2328256
132	0xbcb21e30	-0.02174291
133	0xbf54e40c	-0.8316047
134	0xbc3a6692	-0.011376994
135	0x3ebcbd38	0.36863112
136	0x3fa0d556	1.2565105
137	0x3e735754	0.23763782
138	0xbe6aa9b1	-0.22916295
139	0x3bb2ab93	0.005452582
140	0x3e9cb783	0.30608758
141	0xbf290d8e	-0.6603631
142	0xbe94e21d	-0.2907876
143	0xbdb40161	-0.087893255
144	0x3f852704	1.0402532
145	0xbece26ba	-0.4026392
146	0xbe1f9da3	-0.15587477
147	0xbecf00b8	-0.40430236
148	0x3f204189	0.626
149	0xbdc6d5b3	-0.09708729
150	0xbc9b10c6	-0.018928897
151	0xbe57360c	-0.21016711
152	0x401fcc88	2.4968586
153	0xc018f622	-2.3900228
154	0x40193ea7	2.394449
155	0xc01b23da	-2.4240632
156	0xbd6a27de	-0.057166927
157	0xbdc20354	-0.09473291
158	0xbd935254	-0.07193437
159	0xbbd90708	-0.0066231526
160	0x3b5ec265	0.003399038
161	0x3ec12e8f	0.37730834
162	0x3d686a43	0.056741964
163	0x3d23735b	0.039904933
164	0xbe73c514	-0.23805648
165	0xbe4126fd	-0.18862529
166	0x3b5ae02d	0.003339778
167	0xbe275694	-0.1634162
168	0x3f04c197	0.51857895
169	0x3ee9ba80	0.456501
170	0xbd653933	-0.055962753
171	0xbd6140a6	-0.054993294
172	0xbbcf5582	-0.006327332
173	0xbd0fb3b0	-0.035083473
174	0xbd299017	-0.04139718
175	0xbdfa2699	-0.12214393
176	0x3fc9ae4e	1.5756319
177	0x3ec1d6d5	0.37859216
178	0xbcf29d51	-0.02961603
179	0xbe1caf28	-0.15301192
180	0x3ef34c24	0.47519028
181	0xbf0882b8	-0.5332446
182	0x3ddf5f17	0.10906809
183	0xbe186f7c	-0.14886278
184	0xbd2536e9	-0.04033557
185	0x3ec243e1	0.37942412
186	0xbe0de8c8	-0.1385833
187	0xbe18b6c2	-0.14913467
188	0x3fb8a2b0	1.4424648
189	0xbeefdebc	-0.4684962
190	0x3c30e7d0	0.010797456
191	0xbd5e9e86	-0.0543504
192	0xbf2e294b	-0.6803176
193	0x3ebcd0e9	0.36878136
194	0x3c5257bf	0.012838303
195	0xbdbc684d	-0.09199581
196	0x40098fab	2.1493938
197	0xbdec8fb7	-0.11550849
198	0x39d24711	0.0004010727
199	0x3e78c17d	0.2429256
200	0xbfc74493	-1.5567802
201	0x3e8fd350	0.28090906
202	0x3dd1378a	0.10215671
203	0x3d88b2eb	0.06674751
204	0x3e03709a	0.12835923
205	0xbed93a97	-0.42427513
206	0x401e8bef	2.4772909
207	0x3e1f2e25	0.15544946
208	0x3fa2d823	1.272221
209	0xbfc229ef	-1.5169047
210	0xbe6661a3	-0.22498183
211	0xbf94a21d	-1.1611973
212	0x3e99d5fa	0.30046064
213	0xbf87ac59	-1.0599471
214	0xbe003409	-0.1251985
215	0xbf9d3bf9	-1.2283927
216	0x3f7dd38f	0.9915094
217	0xc0030ab2	-2.0475278
218	0xbe1223ed	-0.14271517
219	0xbf6bf6a4	-0.9217322
220	0x3d9bb076	0.07602017
221	0xbf06b242	-0.5261575
222	0xbdf15477	-0.117836885
223	0xbf6f0210	-0.9336252
224	0x3f83ffc8	1.0312433
225	0xc015d15b	-2.340903
226	0x3dee7e8d	0.116452314
227	0x3e9f32ff	0.31093594
228	0xbe4221a1	-0.18958141
229	0xbde71b01	-0.112844475
230	0x3d8e601a	0.06951924
231	0x3f0396bf	0.51401895
232	0x3d9d768a	0.07688625
233	0x3f3f5ea0	0.7475376
234	0xbe2b04b3	-0.16701011
235	0x3defef3f	0.117155544
236	0xbe44a4dc	-0.19203514
237	0xbf9aa8e2	-1.2082789
238	0x3d0af300	0.03392315
239	0x3c8b772b	0.017024597
240	0xbe997d82	-0.29978567
241	0x3ee3cac6	0.4449064
242	0xbe21cf9d	-0.15801854
243	0x3e7e13f3	0.24812298
244	0xbe1fc558	-0.15602624
245	0xbef28320	-0.47365665
246	0xbe68c515	-0.22731431
247	0x3e8530ab	0.26013693
248	0x3c0b6adc	0.008509364
249	0x3eaad080	0.33362198
250	0x3f12d9d6	0.5736364
251	0xbf1c4389	-0.6104055
252	0x3ddf1858	0.10893315
253	0x3e078277	0.13233362
254	0x3f32af1f	0.69798464
255	0xbebb900b	-0.36633334

fc1.bias f4 [256]
0	0x3d9b8197	0.07593077
1	0xbd0062f3	-0.031344365
2	0xbf339329	-0.70146424
3	0xbf5358e7	-0.8255753
4	0xbf77805b	-0.9668023
5	0xbf225ee8	-0.63426065
6	0xbfb6d9ad	-1.4285179
7	0x3f0e4aef	0.5558309
8	0xbf6f531c	-0.9348619
9	0xbe9954f9	-0.29947641
10	0xbf0a56ff	-0.54038996
11	0xbf4aa7d5	-0.7916234
12	0xbf912a81	-1.1341096
13	0xbeeb488b	-0.45953783
14	0xbeb4b8fe	-0.35297388
15	0x3f38cb44	0.7218516
16	0xbf4c4b75	-0.7980264
17	0xbefdaa73	-0.49544105
18	0xbe5587a5	-0.20852526
19	0xbf99d9c3	-1.2019581
20	0xbf09cb0b	-0.53825444
21	0xc005e82f	-2.0922964
22	0xbe85022c	-0.2597822
23	0xbf23d373	-0.6399452
24	0xbf1a9602	-0.60385144
25	0xbfcb16a8	-1.5866289
26	0xbe4d96e8	-0.20077097
27	0xbe101d8f	-0.14073776
28	0xbf0fc02e	-0.5615262
29	0xbfb69c98	-1.4266539
30	0x3d9835c2	0.074321285
31	0xbeaf0d6c	-0.34189928
32	0xbebd14d1	-0.36929944
33	0x3ca02351	0.01954809
34	0xbfc84256	-1.5645244
35	0xbc1bd526	-0.009511268
36	0xbf3a2cf7	-0.7272486
37	0xbef95cca	-0.48703605
38	0xbf62a497	-0.88532394
39	0xbce7ed54	-0.028311409
40	0xbf4353da	-0.7629982
41	0x3cd0cd94	0.025488652
42	0xbe09b228	-0.13446867
43	0xbedd9083	-0.43274316
44	0x3cc3dd3f	0.02390921
45	0xbec1d232	-0.3785568
46	0xbf7fed23	-0.99971217
47	0xbf778d73	-0.9670021
48	0xbf9de30e	-1.2334917
49	0xbe86f53e	-0.2635898
50	0x3d83d85b	0.06437751
51	0xbfa23106	-1.2671211
52	0xbf88a5d7	-1.067561
53	0xbf767e4b	-0.9628646
54	0xbf193b76	-0.59856355
55	0x3cbd7ad4	0.023129858
56	0xbd1e5ee8	-0.03866473
57	0x3e8117f2	0.2521358
58	0xbfd617cc	-1.6726012
59	0xbe58d495	-0.21174844
60	0xbfb7e900	-1.4367981
61	0xbfb6a09d	-1.4267765
62	0xbfced6b8	-1.6159277
63	0xbf174233	-0.59085387
64	0xbec01ff9	-0.37524393
65	0xbe946aa7	-0.2898762
66	0xbf25d16b	-0.6477267
67	0xbae9efd7	-0.0017847967
68	0xbe1bd8d0	-0.15219426
69	0xbf449dc1	-0.76803213
70	0xbf0dd547	-0.5540356
71	0x3d994a8e	0.07484923
72	0xbe2376b7	-0.15963255
73	0xbf1884b8	-0.5957751
74	0xbea07f5a	-0.31347162
75	0xbe56d6d2	-0.20980385
76	0xbf2064bb	-0.626537
77	0x3e8c35b7	0.2738473
78	0xbe2dfc51	-0.16990782
79	0xbf1adb5c	-0.60490966
80	0xbe952f32	-0.2913757
81	0xbe102e7a	-0.1408023
82	0xbfc445ca	-1.5333798
83	0xbf04b695	-0.518411
84	0xbfbb0c23	-1.4613079
85	0xbea13b24	-0.31490433
86	0xbe914fa7	-0.28381082
87	0xbef4711e	-0.47742552
88	0xbcf908fd	-0.030399794
89	0xbf25b43e	-0.6472815
90	0xbf2f2c6b	-0.6842715
91	0xbf39e237	-0.726108
92	0xbf0e93b8	-0.5569415
93	0xbf4eefba	-0.80834544
94	0xbe4052ed	-0.18781634
95	0x3dcafe5f	0.09911799
96	0xbe3d1015	-0.18463166
97	0xbf4e3ba7	-0.8055977
98	0x3db9a2db	0.09064265
99	0xbf610762	-0.8790189
100	0xbf9e4210	-1.2363911
101	0xbfb9514e	-1.4477937
102	0xbe8f312d	-0.27967206
103	0xbeadb1c9	-0.33924702
104	0xbf2e2212	-0.6802074
105	0xbf6e7634	-0.93149114
106	0xbf0a8d5b	-0.5412194
107	0xbf3ed286	-0.74539983
108	0xbf977891	-1.1833669
109	0xbfdd1fcc	-1.7275329
110	0x3da1bf88	0.0789786
111	0xbf151935	-0.5824159
112	0xbf388354	-0.7207539
113	0x3d1464a3	0.036228787
114	0xbddfdfe1	-0.109313734
115	0xbf5b4215	-0.8564771
116	0xbfff6de4	-1.9955411
117	0xbf80160b	-1.0006727
118	0xbf34246d	-0.7036808
119	0xbf823fe9	-1.0175754
120	0xbe692b64	-0.22770458
121	0xbf737e7a	-0.9511486
122	0xbea52d4b	-0.32261118
123	0xbf24fd73	-0.6444923
124	0x3d8d3b04	0.06896022
125	0xbf8b7e38	-1.0897894
126	0xbf0a452a	-0.54011786
127	0xbe945a9d	-0.28975382
128	0xbf53c561	-0.8272305
129	0xbfab6f74	-1.3393388
130	0xbbb4bd57	-0.005515735
131	0xc0950efd	-4.6580796
132	0x3c929bc6	0.017896544
133	0xbed9129e	-0.42397016
134	0xbeb52dd8	-0.35386539
135	0x3d2c9c7e	0.04214143
136	0xbf1b9f93	-0.60790366
137	0xbfb3903f	-1.4028395
138	0xbf757dfc	-0.9589536
139	0x3e666fa7	0.2250353
140	0xbdde4096	-0.108521625
141	0xbe88c1fc	-0.26710498
142	0xbf33d1af	-0.70241827
143	0xbf422a08	-0.75845385
144	0xbf0aee0d	-0.54269487
145	0xbf1db967	-0.61611027
146	0xbf0c630b	-0.5483863
147	0xbe267295	-0.16254647
148	0xbf81a96b	-1.0129827
149	0xbef67a54	-0.48140204
150	0xbebc40f2	-0.367683
151	0xbf73d064	-0.95239854
152	0xbf496b35	-0.7867921
153	0xbfbc4a8e	-1.4710252
154	0xbeaa02ec	-0.33205354
155	0xbea42b02	-0.32064062
156	0xbe23a68e	-0.15981504
157	0xbf595883	-0.84900683
158	0xbe8997d7	-0.26873657
159	0xbf5096b5	-0.8147996
160	0x3c8debd9	0.017324375
161	0xbe85787b	-0.26068482
162	0xbede7d34	-0.43454897
163	0xbf11f9c5	-0.57021743
164	0xbf2aa823	-0.66662806
165	0x3d413973	0.04717393
166	0xbf69840b	-0.91217107
167	0xbf6b7622	-0.9197713
168	0xbe462a43	-0.19352059
169	0xbf41c9a2	-0.7569829
170	0xbfef0fd2	-1.8676703
171	0xbf9ac563	-1.2091488
172	0xbf1c840d	-0.61138994
173	0xbef215c6	-0.47282237
174	0xc04ff1b6	-3.2491279
175	0xbebc1120	-0.36731815
176	0xbfa5c7ab	-1.2951559
177	0xbf2c374d	-0.6727188
178	0xbe619422	-0.22029164
179	0xbf003d0b	-0.50093144
180	0xbecd96e2	-0.40154177
181	0xbf761777	-0.96129555
182	0xbc138ac4	-0.009005252
183	0xbf02712b	-0.5095393
184	0xbf96fa5b	-1.1795152
185	0xbf58e7cd	-0.847287
186	0xbe3f9af8	-0.1871146
187	0xbfa479c9	-1.2849666
188	0xbfa4ac2a	-1.286504
189	0x3e7f2e37	0.24919973
190	0xbe83ab85	-0.25716797
191	0xbf4b5d66	-0.7943939
192	0xbf667bf5	-0.90032893
193	0xbf444acd	-0.76676637
194	0xbe985b59	-0.29757193
195	0xbdbe5a55	-0.09294573
196	0x3e35de14	0.17760497
197	0xbf10ffba	-0.5664021
198	0xbf752ccd	-0.95771486
199	0xbf0dda3e	-0.55411136
200	0xbf4e6d5d	-0.80635625
201	0xbf389eb8	-0.72117186
202	0xbf2b5a73	-0.6693489
203	0x3ce86860	0.028370082
204	0xbebe6804	-0.37188733
205	0xbffe0984	-1.9846654
206	0xbf7817d5	-0.96911365
207	0xbf12774f	-0.572133
208	0xbf5fb332	-0.87382805
209	0x3ec62c32	0.38705593
210	0x3daf5bca	0.08562429
211	0xbe5a01eb	-0.21289794
212	0xbf09d507	-0.5384068
213	0xbeda5200	-0.42640686
214	0xbdaaf73a	-0.08347936
215	0xbfda3a75	-1.704909
216	0xbf0f967b	-0.5608899
217	0xbf4b9224	-0.7951987
218	0xbf1fd48f	-0.62433714
219	0xbec7e257	-0.3903987
220	0x3dc1b31e	0.09457992
221	0xbdd4c62f	-0.10389363
222	0xbe473c53	-0.19456606
223	0xc0350787	-2.8285844
224	0xbf14d4e5	-0.5813735
225	0xbfa36149	-1.2764064
226	0xbfdbb15c	-1.7163501
227	0xbede166a	-0.43376476
228	0xbf260ea3	-0.64866084
229	0xbf6e5615	-0.931001
230	0xbd7c8a34	-0.06165524
231	0xbf5a0b2f	-0.85173315
232	0xbf66fc22	-0.90228474
233	0xbf4192e4	-0.7561476
234	0xbeb0522c	-0.34437692
235	0xbf88b211	-1.0679342
236	0xbf46c335	-0.7764161
237	0xbdeb1574	-0.11478701
238	0xbc7b35b9	-0.015332633
239	0xbfc70863	-1.5549434
240	0xbdfb8e76	-0.12283032
241	0xbf1ba1e8	-0.60793924
242	0xbcfdbab2	-0.030972812
243	0x3e9b90ee	0.3038401
244	0xbf3596bc	-0.7093313
245	0xbf4f0bdc	-0.8087747
246	0xbf31749d	-0.6931856
247	0xbededd8a	-0.43528396
248	0xbf200105	-0.62501556
249	0xbeaa7c65	-0.3329803
250	0xbf097c41	-0.5370522
251	0xbdbba21b	-0.091617785
252	0xbf1f294c	-0.6217239
253	0xbf81f195	-1.015185
254	0xbf4e5494	-0.80597806
255	0xbf8196e1	-1.012417

fc2.weight f4 [256, 256]
0	0x3edaedbd	0.42759505
1	0xbf27dfcd	-0.6557587
2	0x3cf7654a	0.030199666
3	0xbf1fcd9e	-0.6242312
4	0xbe0c0dd3	-0.13677149
5	0xbf7838e2	-0.96961796
6	0x3eb3ce28	0.35118222
7	0xbf0cf537	-0.5506167
8	0x3c88d952	0.016705189
9	0xbebbf433	-0.36709747
10	0xbd8f148a	-0.069863394
11	0xbe4ba7c0	-0.1988821
12	0x3ccc5170	0.024941176
13	0xbe9a0875	-0.30084577
14	0xbe338c74	-0.17534047
15	0x3e4e2b18	0.20133626
16	0xbf229771	-0.6351233
17	0xbe478634	-0.19484788
18	0x3cab96d0	0.020945936
19	0xbef895f8	-0.48551917
20	0xbe6aa109	-0.22912993
21	0x3d1410c9	0.03614882
22	0xbd62bd75	-0.05535646
23	0xbeaacb1f	-0.33358094
24	0xbf0eb318	-0.55742025
25	0xbe01b979	-0.12668408
26	0x3f33968a	0.7015158
27	0xbc5b90df	-0.013401239
28	0xbd9437ce	-0.072372064
29	0xbf76552b	-0.96223706
30	0xbf6a7999	-0.91591793
31	0xbe90ff97	-0.2832
32	0x3bee7f7e	0.007278382
33	0xbda84dbd	-0.082179524
34	0x3e9b8234	0.30372775
35	0xbf652031	-0.89502245
36	0x3d513782	0.051078327
37	0x3e824392	0.25442177
38	0xbedef2d9	-0.43544653
39	0xbf4b18cc	-0.7933471
40	0xbf1dd6d2	-0.61655915
41	0x3f3469d3	0.70473975
42	0x3d894a91	0.067036755
43	0x3e85f145	0.26160637
44	0x3c5c9049	0.013462135
45	0xbee6fa63	-0.45112905
46	0x3e24fea3	0.16112761
47	0xbda8d7e8	-0.08244306
48	0x3ef45d56	0.4772746
49	0xbe453be2	-0.19261125
50	0xbe1b04c5	-0.15138538
51	0x3ef6ffdb	0.48242077
52	0xbf010f83	-0.50414294
53	0xbf1716d3	-0.590192
54	0x3eac19c2	0.33613402
55	0x3cf8bc81	0.030363323
56	0xbf91d370	-1.1392651
57	0xbd943858	-0.07237309
58	0xbee851f0	-0.45375013
59	0xbef157aa	-0.47137195
60	0x3ee3cc01	0.4449158
61	0xbea41ff8	-0.3205564
62	0x3e4399e0	0.19101667
63	0xbf4ff8fd	-0.812393
64	0x3db0486d	0.08607564
65	0x3eb6873f	0.3565006
66	0xbeca76b6	-0.39543694
67	0x3f2efa3a	0.68350565
68	0x3ec046ea	0.37554103
69	0xbe7f7abd	-0.24949165
70	0x3e9c35e2	0.3050986
71	0xbfa66ec7	-1.3002557
72	0x3e820d04	0.25400555
73	0xbf422ebb	-0.75852555
74	0xbf64c507	-0.8936314
75	0xbfb035c7	-1.3766412
76	0xbe64a134	-0.22327119
77	0xbde7cf0e	-0.113187894
78	0xbe0ee548	-0.13954651
79	0xbe086308	-0.13319027
80	0xbcbeccb3	-0.023290968
81	0xbd5d6d4b	-0.054059308
82	0x3dce9c52	0.100884095
83	0x3ef39916	0.47577733
84	0xbe664151	-0.22485854
85	0x3d47c9dd	0.048776496
86	0xbf1e9b88	-0.6195607
87	0xbe8ac85b	-0.27105984
88	0x3eb36d30	0.3504424
89	0x3e4fc4da	0.20289937
90	0xbe903a80	-0.28169632
91	0xbd6203bb	-0.05517934
92	0xbe99f241	-0.30067638
93	0xbf0da8fd	-0.5533598
94	0xbe41a44d	-0.18910332
95	0xbead5b21	-0.33858588
96	0x3e430a22	0.19046834
97	0xbe12a420	-0.14320421
98	0xbf28f97c	-0.6600568
99	0x3e686f08	0.22698605
100	0xbd459cfc	-0.048245415
101	0xbe7f33a3	-0.24922042
102	0xbdc68cf8	-0.096948564
103	0x3e3ac33a	0.18238536
104	0x3e9ae9b7	0.30256435
105	0xbe54c2c0	-0.20777416
106	0x3df040ee	0.11731134
107	0x3eec713b	0.46180138
108	0xbe4523e2	-0.1925197
109	0xbe5e3c67	-0.21702729
110	0xbd4d471c	-0.050116643
111	0x3ebdb5ce	0.37052768
112	0xbe770b46	-0.24125394
113	0x3e4de53d	0.20106979
114	0x3c9e28b6	0.019306522
115	0x3e03970b	0.12850587
116	0xbd58aa27	-0.052896645
117	0xbf709320	-0.93974495
118	0xbdbea2eb	-0.09308418
119	0xbf48e4d6	-0.78474176
120	0xbedc6b04	-0.43050396
121	0xbddbf453	-0.107399605
122	0xbf0ab33b	-0.54179734
123	0xbe7654a5	-0.24055727
124	0x3b927e06	0.0044705896
125	0x3eea08ae	0.45709747
126	0xbfd431eb	-1.6577734
127	0xbe4774c2	-0.19478133
128	0x3d94edae	0.07271896
129	0xbdecde17	-0.11565798
130	0xbf2746e7	-0.65342563
131	0x3ee07c94	0.43845046
132	0xbe24d260	-0.16095877
133	0x3f0a68f9	0.54066426
134	0xbf077d94	-0.5292599
135	0xbf7e22f2	-0.9927207
136	0xbe5f01bc	-0.21778005
137	0xbe81fcc3	-0.25388154
138	0x3e13d580	0.14436913
139	0xbd9aeb84	-0.07564452
140	0xbdd1ef94	-0.10250774
141	0xbcaaaeae	-0.020835247
142	0xbf7979b4	-0.9745133
143	0xbebad5bf	-0.364912
144	0xbf252b2e	-0.6451901
145	0xbf556364	-0.83354783
146	0x3ed6f96b	0.41987166
147	0xbd8c81ff	-0.06860732
148	0xbf324deb	-0.69650143
149	0x3e44c645	0.19216259
150	0xbf00ad12	-0.50264084
151	0x3ec38441	0.3818684
152	0xbece0577	-0.40238544
153	0xbe86acfd	-0.26303855
154	0xbdeb0309	-0.11475188
155	0xbeb13097	-0.34607384
156	0xbe8969c9	-0.2683852
157	0x3e3af491	0.18257357
158	0xbe674992	-0.22586659
159	0xbe8e1dfd	-0.27757254
160	0x3ed55608	0.416672
161	0x3df8db6c	0.121512264
162	0x3de0977c	0.10966393
163	0x3e90f6be	0.2831325
164	0xbdc0bdb4	-0.09411183
165	0xbef108b6	-0.47076958
166	0x3e683596	0.22676691
167	0x3ed56817	0.41680977
168	0xbe937d7c	-0.28806674
169	0xbf0ba031	-0.5454131
170	0xbdd8af45	-0.10580305
171	0x3e16dee7	0.14733468
172	0x3f1f3e68	0.622046
173	0xbeb76fb1	-0.358274
174	0xbcbced06	-0.02306224
175	0xbd68cf9e	-0.056838624
176	0x3e9f555d	0.31119815
177	0xbd2c8e73	-0.042128038
178	0x3d81afcd	0.063323595
179	0xbe582134	-0.21106416
180	0xbec9759d	-0.39347544
181	0x3eaac1e3	0.3335105
182	0xbea5ed89	-0.32407787
183	0x3e8f0edb	0.2794102
184	0xbe557abf	-0.20847605
185	0xbda05758	-0.078291595
186	0x3e5cd66e	0.21566173
187	0xbef46f71	-0.47741273
188	0xbcd6311d	-0.026146466
189	0xbf31b7be	-0.69420993
190	0xbd0f8b33	-0.03504486
191	0x3dde3028	0.10849029
192	0xbe9b05c4	-0.30277836
193	0x3eb14762	0.34624773
194	0x3ed724b2	0.42020184
195	0x3e24b003	0.16082768
196	0xbf38c056	-0.7216848
197	0xbf020b55	-0.5079854
198	0xbe99aab1	-0.3001304
199	0xbb9bf080	-0.0047588944
200	0xbe99b750	-0.3002267
201	0x3e50e738	0.20400703
202	0xbe74a4ba	-0.23890963
203	0xbe293166	-0.1652275
204	0xbe226890	-0.158602
205	0xbe5dcf11	-0.21661021
206	0xbf1adab6	-0.60489976
207	0x3f01f412	0.50763047
208	0xbdc6facb	-0.09715804
209	0xbdcf6249	-0.10126168
210	0xbcf45e91	-0.029830249
211	0x3f1d6fa5	0.6149848
212	0x3da79ddf	0.081844084
213	0xbe918547	-0.28421995
214	0xbed1822a	-0.4091962
215	0x3ec0315c	0.37537658
216	0xbe21ec3a	-0.1581277
217	0x3e6c7994	0.23093253
218	0x3f45424b	0.7705428
219	0xbede91bf	-0.4347057
220	0xbe1feab1	-0.15616871
221	0x3e6142a5	0.21998079
222	0xbedd898b	-0.43269
223	0xbef6879b	-0.48150334
224	0xbd4a8f43	-0.04945303
225	0xbec8cd10	-0.3921895
226	0x3ec19000	0.37805176
227	0x3d1f1582	0.03883887
228	0xbf2edc09	-0.68304497
229	0x3f4b0220	0.7930012
230	0xbf0fdb27	-0.56193775
231	0xbedc2eb4	-0.43004382
232	0xbf1dda44	-0.6166117
233	0xbe9bc60c	-0.30424535
234	0x3e96314c	0.29334486
235	0x3e50af20	0.20379305
236	0xbf346e93	-0.7048122
237	0x3f26aeba	0.6511036
238	0x3da2a4cc	0.07941589
239	0xbe6fc151	-0.23413588
240	0x3eb5a759	0.3547924
241	0x3e326cdb	0.17424338
242	0x3ece6846	0.4031393
243	0x3e52cd79	0.20586194
244	0xbe518a95	-0.20463021
245	0xbe8b5134	-0.2721039
246	0xbefb04be	-0.49027056
247	0x3ed005ca	0.40629417
248	0xbe6ea1d6	-0.23303923
249	0xbeb3abd4	-0.35092032
250	0xbe5a0722	-0.21291783
251	0xbe947266	-0.2899353
252	0x3e26eef4	0.16302091
253	0xbecb5bc9	-0.39718464
254	0x3f141777	0.57848305
255	0x3eaba1ae	0.3352179

fc2.bias f4 [256]
0	0xbe3d9a47	-0.18515883
1	0xbea34fcc	-0.31896818
2	0xbf59199a	-0.8480469
3	0xbf123a07	-0.5711979
4	0xbeb047ca	-0.3442977
5	0xbf34b487	-0.7058796
6	0xbef6307f	-0.48083875
7	0xbea9c5f7	-0.33158848
8	0xbf36867e	-0.7129897
9	0xbf30b77a	-0.69029963
10	0xbd8e97f6	-0.06962578
11	0xbf6031fd	-0.87576276
12	0xbe6c72f7	-0.2309073
13	0xbf1509b7	-0.5821795
14	0xbf3e9f8b	-0.74462193
15	0xbf14562b	-0.5794398
16	0xbef0a75e	-0.4700269
17	0xbe4d59a2	-0.20053723
18	0xbf913d37	-1.1346806
19	0xbe358ec6	-0.17730245
20	0x3d5e4af8	0.054270715
21	0xbedc6901	-0.43048862
22	0xbf28871f	-0.6583118
23	0xbf616e70	-0.8805914
24	0xbf17b0c0	-0.59254074
25	0xbe961e54	-0.29320014
26	0xbe358cc2	-0.17729476
27	0xbf92d405	-1.1470953
28	0xbece62a8	-0.40309644
29	0xbf1b8a90	-0.60758305
30	0xbe7f41cf	-0.24927448
31	0xbee159f0	-0.4401393
32	0xbf1a08b7	-0.6016955
33	0xbd941f4b	-0.07232531
34	0xbedcd460	-0.4313078
35	0xbf417382	-0.75566876
36	0xbf2bb2db	-0.67069787
37	0xbd905ccf	-0.07048952
38	0xbe150b30	-0.14555049
39	0xbe9ecf43	-0.31017503
40	0xbee0c470	-0.4389987
41	0xbefb504d	-0.49084702
42	0xbee59525	-0.4484035
43	0xbf196084	-0.59912896
44	0xbef2289b	-0.47296605
45	0xbf14e1ad	-0.58156854
46	0xbeab0f56	-0.33410138
47	0xbedcd576	-0.43131608
48	0xbf05f4f0	-0.5232687
49	0xbeea784e	-0.4579491
50	0xbf07d676	-0.53061616
51	0xbf1aa533	-0.60408324
52	0xbf445e30	-0.7670622
53	0xbeef1bf3	-0.4670101
54	0xbee86aba	-0.45393926
55	0xbf724888	-0.94641924
56	0x3e392414	0.18080169
57	0xbf02f95b	-0.51161736
58	0xbf26fbf6	-0.6522821
59	0xbf0a4448	-0.5401044
60	0xbf0cb72f	-0.54967016
61	0xbe4fc9e5	-0.2029186
62	0xbe5f3a55	-0.21799596
63	0xbe45b534	-0.19307405
64	0xbf045e0c	-0.51706004
65	0xbf27ea26	-0.6559166
66	0xbf102a32	-0.56314385
67	0xbef432b4	-0.47694933
68	0xbe738af0	-0.23783469
69	0xbe109a51	-0.14121367
70	0xbf503912	-0.8133708
71	0xbf2a66f8	-0.6656337
72	0xbe799f0d	-0.2437708
73	0xbebf99b5	-0.37421957
74	0xbf0240e9	-0.50880295
75	0xbea3d3e3	-0.31997594
76	0xbf3dea11	-0.7418528
77	0xbea671c2	-0.32508665
78	0xbfbce118	-1.4756193
79	0xbf25ea61	-0.6481076
80	0xbf158cff	-0.5841827
81	0xbea1b100	-0.31580353
82	0xbe2b1562	-0.16707376
83	0xbf19c72f	-0.60069555
84	0xbf41a07a	-0.7563549
85	0xbf2acc7a	-0.66718256
86	0xbeebfc9c	-0.46091163
87	0xbf22f049	-0.63647896
88	0xbf254b03	-0.64567584
89	0xbed2755b	-0.4110516
90	0xbe9e43fb	-0.3091124
91	0xbe611d7a	-0.219839
92	0xbec231b8	-0.37928557
93	0xbed72de0	-0.42027187
94	0xbf28ad78	-0.6588969
95	0xbedd9750	-0.43279505
96	0xbee08cfe	-0.43857569
97	0xbf26628f	-0.6499414
98	0xbea969b3	-0.33088455
99	0xbec7f7ba	-0.39056188
100	0xbf1c7b1e	-0.6112536
101	0xbecba1f3	-0.39771995
102	0xbece53fe	-0.40298456
103	0xbf00970f	-0.502305
104	0xbf65e2a1	-0.89798933
105	0xbf179000	-0.592041
106	0xbf0a3f13	-0.54002494
107	0xbea93904	-0.33051312
108	0xbec6ae62	-0.3880492
109	0xbeb90c1a	-0.36142045
110	0xbed97987	-0.4247553
111	0xbef8ce0f	-0.4859471
112	0xbf4167f3	-0.7554924
113	0xbe994bf6	-0.29940766
114	0xbf1b2cd1	-0.6061526
115	0xbeade375	-0.33962598
116	0xbe64a8f2	-0.22330073
117	0xbeed953a	-0.46402913
118	0xbeb6ee6b	-0.35728773
119	0x3cf8476e	0.030307498
120	0xbe9c3356	-0.30507916
121	0xbb029c8f	-0.0019929742
122	0xbeeb90ae	-0.4600882
123	0xbe85a502	-0.26102453
124	0xbdd44d66	-0.10366325
125	0xbf487b2f	-0.78312963
126	0xbeb4cdb5	-0.35313192
127	0xbe9a772c	-0.30169046
128	0xbd7b7be0	-0.061397433
129	0xbf05570c	-0.5208595
130	0xbed5f889	-0.4179118
131	0xbe4ebc13	-0.20188932
132	0xbe79c31b	-0.24390833
133	0xbe222ce5	-0.15837438
134	0xbe441af9	-0.19150914
135	0xbed7d808	-0.42157006
136	0xbf094eb8	-0.5363574
137	0x3da8af31	0.0823654
138	0xbe6bd647	-0.23030959
139	0xbf03f190	-0.5154047
140	0xbee45bcc	-0.44601285
141	0xbeaa91a4	-0.3331424
142	0xbec844d0	-0.39115
143	0xbea9daf5	-0.33174863
144	0xbf0bd7a5	-0.5462592
145	0xbefa46c8	-0.48882127
146	0xbe8e70fb	-0.27820572
147	0xbe361004	-0.17779547
148	0xbec1da99	-0.3786209
149	0xbecdcbaf	-0.4019446
150	0xbe04f75c	-0.12984985
151	0xbf03ed2d	-0.51533777
152	0xbf3c10d6	-0.7346319
153	0xbe0d4319	-0.13795127
154	0xbf1c88d5	-0.6114629
155	0xbf06d687	-0.5267109
156	0xbefbba74	-0.4916569
157	0xbe6e0dc9	-0.23247446
158	0xbf2adc1e	-0.6674212
159	0xbe36afb5	-0.17840464
160	0xbeac30ba	-0.33630925
161	0xbe97f154	-0.29676306
162	0xbe02f9be	-0.12790582
163	0xbf589aa5	-0.8461097
164	0xbe9e51c5	-0.3092176
165	0xbe3e5640	-0.1858759
166	0xbf0be4d0	-0.54646015
167	0xbf2245bb	-0.6338765
168	0xbf07dbd2	-0.53069794
169	0xbe922d4c	-0.28550184
170	0xbed4ff4b	-0.41601023
171	0xbf143db7	-0.5790667
172	0xbf36a75d	-0.71349126
173	0xbedc567b	-0.4303473
174	0xbf293d18	-0.66108847
175	0xbca504aa	-0.020143826
176	0xbe2c96c5	-0.16854389
177	0xbef20394	-0.47268355
178	0xbf3e2b70	-0.7428503
179	0xbf2db604	-0.6785586
180	0xbec494c1	-0.3839474
181	0xbe411503	-0.18855672
182	0xbf7828e5	-0.969374
183	0xbe4eef8e	-0.2020857
184	0xbe9519dd	-0.29121295
185	0xbebd3fdf	-0.36962792
186	0xbe386122	-0.18005803
187	0xbf01bbaf	-0.5067701
188	0xbf08c081	-0.5341874
189	0xbe3311bf	-0.17487238
190	0xbe930358	-0.2871349
191	0xbf0a26b5	-0.5396531
192	0xbf493d95	-0.7860959
193	0xbe4dd0a0	-0.20099115
194	0xbee361b3	-0.44410476
195	0xbf3721f6	-0.71536195
196	0xbed2266e	-0.41044945
197	0xbee6bca6	-0.45065802
198	0xbedbc2be	-0.42922014
199	0xbef3caac	-0.47615564
200	0xbe918906	-0.28424853
201	0xbeec3fba	-0.4614237
202	0xbec93616	-0.39299077
203	0xbe9eb3d4	-0.30996573
204	0xbebf01e7	-0.3730614
205	0xbeac6e48	-0.33677888
206	0xbedc7d5f	-0.430644
207	0xbf02c31c	-0.51078963
208	0xbd8a844f	-0.06763517
209	0xbf29b4b6	-0.6629137
210	0xbe9c6eee	-0.30553383
211	0xbef702a7	-0.4824421
212	0xbf46f541	-0.7771798
213	0xbe93cd7e	-0.28867716
214	0xbd7c9227	-0.06166282
215	0xbed489f8	-0.41511512
216	0xbf77a5a1	-0.96737105
217	0xbe705aaf	-0.23472093
218	0xbf28f501	-0.65998846
219	0xbea7a702	-0.32744604
220	0xbe84fae9	-0.2597268
221	0xbf127ee6	-0.5722488
222	0xbf5778c9	-0.8416868
223	0xbe47889a	-0.19485703
224	0xbcbd3eb2	-0.023101185
225	0xbf51db23	-0.81975
226	0xbe9211a9	-0.285291
227	0xbf0f9b9b	-0.5609681
228	0xbf201647	-0.6253399
229	0xbf2ad48c	-0.6673057
230	0xbf1c9341	-0.6116219
231	0xbf0a7a1c	-0.54092574
232	0xbf0e1122	-0.5549489
233	0xbf0e79a4	-0.5565436
234	0xbec3ea3b	-0.3826464
235	0xbeda8f10	-0.42687273
236	0xbf1c0a9f	-0.60953707
237	0xbec40b02	-0.38289648
238	0xbe13fe35	-0.14452441
239	0xbe0e77d5	-0.139129
240	0xbf8536bc	-1.0407329
241	0xbf07360b	-0.5281684
242	0xbedd269e	-0.43193525
243	0xbf7408de	-0.9532603
244	0xbebe6260	-0.3718443
245	0xbeadde79	-0.33958796
246	0xbee4f435	-0.44717565
247	0xbf3b46d6	-0.7315496
248	0xbe9c3beb	-0.30514464
249	0xbda2df82	-0.07952787
250	0xbe6d342e	-0.23164436
251	0xbef62d08	-0.4808123
252	0xbf1a9e86	-0.6039814
253	0xbf206dcf	-0.62667555
254	0xbee6bbce	-0.4506516
255	0xbecea77c	-0.40362155

fc3.weight f4 [128, 256]
0	0x3efec2f0	0.497581
1	0xbee11bd9	-0.4396656
2	0xbf03eeee	-0.5153645
3	0xbe3b21b7	-0.1827458
4	0x3e7181ea	0.23584715
5	0x3e7f8251	0.24952056
6	0x3e83b156	0.25721234
7	0xbf4fb955	-0.8114217
8	0xbf33f0fc	-0.7028959
9	0x3e83753a	0.25675374
10	0xbf80046a	-1.0001347
11	0xbe560db5	-0.20903666
12	0x3f552208	0.8325505
13	0x3ee99fa9	0.45629624
14	0xbf175a2c	-0.59121966
15	0x3efa547a	0.48892576
16	0xbf8f6ce4	-1.1205106
17	0xbdb03818	-0.08604449
18	0xbdb07fe8	-0.08618146
19	0xbed31452	-0.4122644
20	0xbde68afe	-0.112569794
21	0x3e6ae84d	0.22940178
22	0xbe44c7f7	-0.19216906
23	0xbd89317e	-0.06698893
24	0x3ed31e3a	0.41234
25	0xbedbe81a	-0.42950517
26	0x3ebaed76	0.36509293
27	0x3ede777c	0.43450534
28	0xbf6cd34a	-0.925099
29	0x3eef0462	0.4668303
30	0xbea00a12	-0.31257683
31	0x3dac979d	0.084273554
32	0xbf004530	-0.5010557
33	0xbe7e645d	-0.24842973
34	0x3e8af38f	0.27138945
35	0x3efc7595	0.49308458
36	0x3e94fdd5	0.29099908
37	0x3ea11061	0.3145781
38	0xbf09e53b	-0.538654
39	0x3e8d9170	0.27650023
40	0x3f13114c	0.5744827
41	0xbed3b1d1	-0.413466
42	0xbeaae94b	-0.33381113
43	0xbfa078b6	-1.2536838
44	0x3eaba19a	0.3352173
45	0x3e33fb87	0.17576419
46	0xbf0a7285	-0.5408099
47	0xbeed17c7	-0.46307203
48	0xbf113bcf	-0.56731886
49	0x3d21914d	0.03944521
50	0xbe5b426c	-0.21412057
51	0xbe0562a3	-0.13025908
52	0xbe321d55	-0.17394002
53	0x3d2add44	0.04171492
54	0xbef888cd	-0.4854187
55	0xbf4ae8fe	-0.7926177
56	0x3da39625	0.07987622
57	0x3f56bd4d	0.838826
58	0xbf30a823	-0.69006556
59	0x3e319385	0.1734143
60	0xbeedb04a	-0.4642356
61	0xbf2d6ae8	-0.6774125
62	0x3e4b7824	0.19870049
63	0x3cf9b3a1	0.030481162
64	0x3f03f262	0.5154172
65	0xbf079f0e	-0.52977073
66	0xbebe458c	-0.37162435
67	0xbe922673	-0.2854496
68	0x3e6c734b	0.23090856
69	0x3ddb9f56	0.1072375
70	0x3ebc6fca	0.36804038
71	0x3ee9f733	0.4569641
72	0xbe04bab7	-0.12961851
73	0x3df7408b	0.120728575
74	0xbec2b871	-0.38031343
75	0xbf0bf7c3	-0.5467493
76	0xbea2bf24	-0.31786454
77	0xbee03af0	-0.43794966
78	0xbeeb83df	-0.45999047
79	0xbee9fd80	-0.45701218
80	0xbf87f569	-1.0621768
81	0xbf40e81e	-0.7535418
82	0xbe1d96c0	-0.15389538
83	0xbe5a32bc	-0.21308416
84	0xbf872f8f	-1.0561389
85	0xbec47959	-0.3837383
86	0xbe5bdf0c	-0.21471804
87	0x3d3ea838	0.046547145
88	0xbfce42ae	-1.6114099
89	0xbe76886b	-0.24075477
90	0xbe28f8f3	-0.16501217
91	0x3d42d260	0.04756391
92	0xbf4f213f	-0.80910105
93	0xbf12c4c3	-0.57331485
94	0xbf208d28	-0.6271539
95	0xbe16b4ba	-0.14717379
96	0xbecec378	-0.40383506
97	0xbf6e992a	-0.9320246
98	0x3d5e7de9	0.054319296
99	0x3e718776	0.2358683
100	0xbcb1eede	-0.021720346
101	0xbee71203	-0.4513093
102	0xbf6943d7	-0.9111914
103	0x3f339c0d	0.7015999
104	0x3ebd5646	0.36979884
105	0xbe9730b6	-0.2952935
106	0xbf43e6e9	-0.76524216
107	0xbd96b7b2	-0.07359256
108	0xbf8294e6	-1.020169
109	0xbf363c2b	-0.7118556
110	0x3da1f0e6	0.07907276
111	0x3d955eeb	0.07293495
112	0x3de1a4b8	0.11017746
113	0xbff3dc0b	-1.9051527
114	0xbf1b1ea0	-0.60593605
115	0xbe8fa6b6	-0.28056878
116	0x3f3b0135	0.73048717
117	0xbef74c30	-0.48300314
118	0xbf865669	-1.049512
119	0xbd3c569a	-0.045981027
120	0x3e6de9e7	0.23233758
121	0x3e6cabf4	0.2311247
122	0xbf40eb34	-0.7535889
123	0x3ecb5574	0.39713633
124	0x3d86bfd1	0.06579555
125	0x3f0bfe70	0.54685116
126	0x3e2b9ee6	0.16759834
127	0xbe8f85c4	-0.28031743
128	0x3edc97b5	0.43084493
129	0x3e93f38e	0.28896755
130	0xbe2e8a2e	-0.17044899
131	0x3b2f209f	0.0026722325
132	0x3e6da498	0.23207319
133	0xbfa11abf	-1.2586287
134	0x3e13e983	0.14444546
135	0xbcd6606e	-0.026169028
136	0xbe829e7e	-0.25511545
137	0x3ebbe48e	0.3669781
138	0x3e05f296	0.1308082
139	0x3db6c84c	0.08924922
140	0xbe9b8da1	-0.30381492
141	0x3f02cf14	0.51097226
142	0xbe917305	-0.28408065
143	0xbe0e610a	-0.13904205
144	0xbf1611db	-0.58620995
145	0xbe1c210e	-0.15246984
146	0xbdc1fec8	-0.09472424
147	0xbf713025	-0.9421409
148	0xbea97dbe	-0.33103746
149	0xbdda57f4	-0.10661307
150	0x3ecaa25d	0.39576998
151	0xbf6478bc	-0.89246726
152	0xbf1a81f6	-0.60354555
153	0xbece6c17	-0.4031684
154	0xbef6869e	-0.4814958
155	0x3e708ab9	0.23490418
156	0x3ef3d996	0.47626942
157	0x3e9d3717	0.30706093
158	0xbe349067	-0.1763321
159	0x3df21b5b	0.11821624
160	0xbe51558b	-0.20442788
161	0xbefdb505	-0.4955217
162	0x3d31c8eb	0.0434045
163	0x3eb894a8	0.36050916
164	0x3e5fc201	0.2185135
165	0xbf02dc1d	-0.51117116
166	0xbec1cc80	-0.37851334
167	0xbe4602c6	-0.19336995
168	0x3dba6c55	0.09102694
169	0xbe4977c0	-0.19674587
170	0x3d9bebca	0.076133326
171	0x3ebdd41f	0.37075898
172	0x3ef59c58	0.47970843
173	0x3d178c71	0.03699917
174	0xbf1fd4c7	-0.6243405
175	0xbf2daaa0	-0.6783848
176	0xbd4e5755	-0.050376255
177	0x3e8899f7	0.26679966
178	0x3db5088e	0.08839522
179	0xbee48b96	-0.44637746
180	0xbe03fe2b	-0.12889926
181	0xbe886fc2	-0.26647764
182	0x3e396676	0.18105492
183	0x3dccc2d8	0.09998101
184	0x3d865aca	0.065602854
185	0xbfb8d36b	-1.443952
186	0x3e292c76	0.16520867
187	0xbe9cff59	-0.30663565
188	0xbe80b47b	-0.25137696
189	0x3f323a56	0.69620264
190	0x3f1d54ec	0.61457705
191	0xbecffbea	-0.40621883
192	0xbf178a1b	-0.5919511
193	0xbeeeba50	-0.4662652
194	0x3b873ff1	0.0041274955
195	0xbdf17ff9	-0.11791987
196	0xbae976d8	-0.0017811907
197	0x3d368bd3	0.04456694
198	0x3f1d8bec	0.6154163
199	0x3e42db0a	0.1902887
200	0xbed9a910	-0.42511797
201	0x3d87bc90	0.06627762
202	0x3cdd16e2	0.02698845
203	0xbf878d3a	-1.0589974
204	0xbe9f95c9	-0.31168965
205	0xbe8490b7	-0.2589166
206	0xbe6999a3	-0.22812514
207	0x3d9611ef	0.07327639
208	0x3ce9ce1a	0.02854066
209	0x3f16e4ac	0.58942676
210	0x3f1adccc	0.6049316
211	0x3e357063	0.17718653
212	0x3eaeceaf	0.34142062
213	0xbd501218	-0.050798506
214	0x3cba2a8c	0.022725366
215	0xbdd375e3	-0.103252195
216	0x3e6c9743	0.23104577
217	0x3eb7d0de	0.3590154
218	0xbf259571	-0.64681154
219	0x3efb48c5	0.49078956
220	0xbeb323a3	-0.34988126
221	0x3e7c9fe2	0.24670365
222	0xbf2ed197	-0.6828856
223	0xbf5a460c	-0.85263133
224	0xbd8177f9	-0.06321711
225	0xbea7fb55	-0.3280894
226	0x3d9de4df	0.07709669
227	0xbb84ab49	-0.004048739
228	0xbf00ab98	-0.5026183
229	0xbebcc2dd	-0.3686742
230	0xbf3d0e78	-0.738502
231	0x3e297976	0.1655024
232	0xbdaebb9e	-0.08531879
233	0xbd1951b5	-0.037431438
234	0xbda9001d	-0.08251975
235	0x3e982afe	0.297203
236	0xbcf7bd1e	-0.030241545
237	0xbefffb4f	-0.4999642
238	0x3ea3b98e	0.31977504
239	0xbd52393b	-0.05132411
240	0xbd460813	-0.048347544
241	0xbd12c7c7	-0.035835054
242	0xbe0fe0ef	-0.14050649
243	0xbe8ab70b	-0.27092776
244	0xbd36a854	-0.044594124
245	0xbd6c41fe	-0.057680123
246	0x3da0be07	0.07848745
247	0xbece6998	-0.40314937
248	0x3e84b7e7	0.25921556
249	0xbf415488	-0.7551961
250	0xbf737c8b	-0.9511191
251	0xbe7269ea	-0.23673216
252	0x3e48fc74	0.19627553
253	0xbf0984fe	-0.53718555
254	0xbcb8ae63	-0.022544092
255	0xbe8da4a3	-0.2766467

fc3.bias f4 [128]
0	0x3d789a20	0.06069386
1	0xbf1cb57d	-0.6121443
2	0xbf3be3f0	-0.7339468
3	0x3eb0abf7	0.345062
4	0x3d0354c4	0.03206326
5	0xbe71598b	-0.23569314
6	0xbf08646f	-0.5327825
7	0x3f34d502	0.70637524
8	0xbf3480be	-0.70508945
9	0xbeb256bf	-0.34831807
10	0x3ddc5c3f	0.10759782
11	0x3ebcb2e7	0.36855242
12	0xbdd677f7	-0.104721
13	0xbda94ae0	-0.082662344
14	0x3ddf01a8	0.10888988
15	0xbf3fe47b	-0.7495801
16	0xbe2d5bf1	-0.16929604
17	0x3f6efe88	0.93357134
18	0xbef84d2a	-0.48496372
19	0xbf6f6c24	-0.93524384
20	0xbe4ad5c6	-0.1980811
21	0xbf0da315	-0.5532697
22	0xbc8098ac	-0.0156978
23	0x3cd94a54	0.0265247
24	0xbef7108b	-0.4825481
25	0xbf18d552	-0.597005
26	0xbdcd05e6	-0.10010891
27	0xbe2ac5b5	-0.16676982
28	0xbcf0c718	-0.02939181
29	0xbe6fc49c	-0.23414844
30	0xbd3ebe5d	-0.046568263
31	0x3eb8d0af	0.36096713
32	0xbe89c77b	-0.26910004
33	0xbcf14b6e	-0.029454913
34	0xbef0e03e	-0.47046083
35	0x3c9ec6b3	0.019381857
36	0xbe4b0963	-0.198278
37	0x3c6beb62	0.014399381
38	0x3eb4b8c9	0.3529723
39	0xbf154f2a	-0.5832392
40	0xbe04b8c8	-0.12961113
41	0xbf4bd224	-0.79617524
42	0xbe1410f2	-0.14459589
43	0x3d1df6a6	0.0385653
44	0x3f9ff121	1.2495462
45	0xbea0dbb4	-0.3141762
46	0xbe1ab213	-0.15106992
47	0xbe76b43f	-0.24092196
48	0xbe988eb5	-0.29796377
49	0x3f2c8e0c	0.67404246
50	0xbf1a6259	-0.60306317
51	0xbde1c9a6	-0.110247895
52	0xbf3ca934	-0.73695683
53	0x3edd23a9	0.4319127
54	0xbf7167b9	-0.94298893
55	0x3ea51a1f	0.3224649
56	0x3e4a175d	0.19735475
57	0xbe9e68cf	-0.30939338
58	0x3d970c5d	0.07375405
59	0xbf4d5869	-0.8021303
60	0xbecbfcda	-0.39841348
61	0xbdbd0441	-0.09229327
62	0xbe83ea22	-0.25764567
63	0x3f00a5fa	0.5025326
64	0xbe524994	-0.2053588
65	0xbf3789e8	-0.71694803
66	0x3e856c82	0.26059347
67	0xbe839778	-0.257015
68	0x3e964c75	0.29355207
69	0xbdb9ffa8	-0.09081966
70	0x3e57c1f7	0.21070085
71	0xbe0a44d2	-0.13502815
72	0x3ece6467	0.40310976
73	0xbee25e0a	-0.4421237
74	0x3cea820e	0.028626468
75	0xbeb4f3d1	-0.35342267
76	0xbde052a6	-0.10953264
77	0x3e59c0b0	0.2126491
78	0xbf0c46df	-0.5479564
79	0xbe8e9364	-0.27846825
80	0x3ed29838	0.4113176
81	0xbd98b8e5	-0.07457141
82	0xbe4b4aec	-0.19852799
83	0xbeab2a7b	-0.33430848
84	0x3e489b52	0.195905
85	0xbf10d2ea	-0.5657183
86	0x3d8f61a7	0.070010476
87	0xbe4fbb6d	-0.20286341
88	0xbf017bcf	-0.5057954
89	0xbe45acdc	-0.19304222
90	0xbf0ba692	-0.5455104
91	0xbf1a1c5c	-0.6019952
92	0x3d61b795	0.055106718
93	0xbf301510	-0.6878214
94	0xbf635eb4	-0.8881638
95	0x3ead3994	0.3383299
96	0xbec8efca	-0.39245445
97	0xbf1652e3	-0.58720225
98	0xbdb5dd9f	-0.088801615
99	0xbc511e92	-0.012763636
100	0xbe0d4285	-0.13794906
101	0x3f91f2dd	1.1402241
102	0xbe864c80	-0.2623024
103	0xbdb59c6d	-0.088677265
104	0x3f12c7c9	0.573361
105	0x3ea1946d	0.31558552
106	0xbd8e7a0a	-0.06956871
107	0x3db7b278	0.08969587
108	0xbf1bb265	-0.60819083
109	0xbeeb26ba	-0.45927984
110	0x3c0c2084	0.008552674
111	0x3e043d8e	0.12914106
112	0x3f03800c	0.5136726
113	0xbf2fbca4	-0.6864722
114	0x3d8d0647	0.06885963
115	0x3c987ebd	0.018615121
116	0xbf261285	-0.6487201
117	0x3f15939a	0.5842835
118	0xbce1a789	-0.027545707
119	0xbf00695f	-0.50160784
120	0x3e3587ba	0.17727557
121	0xbf125d34	-0.57173467
122	0xbf5da3c1	-0.86577994
123	0x3f161fd3	0.5864231
124	0x3e8f7235	0.2801682
125	0x3f3d47f0	0.7393789
126	0xbd974b96	-0.07387464
127	0x3f452f45	0.7702525

fc4.weight f4 [32, 128]
0	0xbe57cecd	-0.21074982
1	0x3ca3e27a	0.020005453
2	0xbe4c0db8	-0.19927108
3	0xbe35bb02	-0.17747119
4	0x3b921cee	0.004459015
5	0xbdf5ebc4	-0.12007859
6	0xbe27e857	-0.16397224
7	0x3de2f9da	0.11082812
8	0xbc4ee712	-0.012628334
9	0x3d97942a	0.07401307
10	0xbe03688a	-0.12832847
11	0xbe6efff8	-0.23339832
12	0x3c8fa7f8	0.017536148
13	0xbaedb0cd	-0.0018134356
14	0xbe0e5e43	-0.13903145
15	0x3d77cd69	0.06049863
16	0xbca992e1	-0.02069992
17	0xbe0f8f09	-0.14019407
18	0x3e129442	0.14314368
19	0x3d507c1b	0.050899606
20	0x3cca098d	0.024662757
21	0x3dbc8480	0.0920496
22	0xbd3bb361	-0.045825366
23	0xbdbc3431	-0.09189642
24	0x3c6803d6	0.014161071
25	0x3ca2d6a7	0.019877745
26	0xbe5730a6	-0.21014652
27	0xbc2d594b	-0.010580371
28	0xbd0df47b	-0.034656983
29	0xbdee83d8	-0.11646241
30	0xbd77bca0	-0.06048262
31	0xbd4e71a5	-0.05040135
32	0x3d2e4c14	0.042553023
33	0xbe8c128c	-0.273579
34	0xbd1be745	-0.038062353
35	0xbc98c37d	-0.018647904
36	0x3e390cba	0.18071261
37	0xbd10e8f5	-0.035378415
38	0xbd338755	-0.043830235
39	0x3c744354	0.01490863
40	0xbe2b0b06	-0.16703424
41	0xbe54cd88	-0.20781529
42	0xbc9f046d	-0.01941129
43	0xbe969d89	-0.29417065
44	0xbea6ca67	-0.32576296
45	0x3e023043	0.12713723
46	0xbcf7c991	-0.030247482
47	0xbbaa0341	-0.005188376
48	0x3bbc4b27	0.0057462635
49	0x3df08973	0.11744966
50	0xbd99d155	-0.0751063
51	0x3dc19978	0.094531
52	0xbdfea448	-0.12433678
53	0xbe2e2f05	-0.17010124
54	0xbb93dd80	-0.004512489
55	0xbe1f199b	-0.15537111
56	0xbe255d85	-0.16148956
57	0xbe022997	-0.12711178
58	0x3e2a393c	0.16623396
59	0xbded53fa	-0.11588283
60	0xbd96f644	-0.0737119
61	0xbdd387ab	-0.10328611
62	0xbccfd45c	-0.025369816
63	0xbdfd4b8d	-0.12367926
64	0xbcd9f3b2	-0.02660546
65	0xbc742910	-0.014902368
66	0xbc53ef0f	-0.012935414
67	0xbe2ce568	-0.16884387
68	0xbe88467d	-0.26616278
69	0xbda9677b	-0.082716905
70	0xbd151e1b	-0.036405664
71	0xbd2049d0	-0.039132893
72	0xbdfe9f27	-0.124327
73	0xba324db3	-0.0006801739
74	0x3c27709e	0.010219721
75	0xbe804d2c	-0.25058877
76	0xbe234c30	-0.15947032
77	0xbed8b790	-0.42327547
78	0x3dc777bb	0.09739634
79	0x3d03aaff	0.032145496
80	0x3dba71a3	0.09103706
81	0xbe3a3fe4	-0.18188435
82	0xbd3c4b8e	-0.045970492
83	0xbcafa43c	-0.021440618
84	0x3d577e0d	0.052610446
85	0xbe4e575f	-0.20150517
86	0xbd8aea2a	-0.067829445
87	0x3d4be12c	0.049775288
88	0x3d305179	0.04304645
89	0x3d9e9101	0.07742501
90	0xbe1be71e	-0.15224883
91	0x3d05b8f9	0.032647107
92	0xbca25328	-0.019815043
93	0xbe3628c5	-0.1778899
94	0xbe3ba7da	-0.18325749
95	0xbe043959	-0.12912501
96	0x3d44af9d	0.04801904
97	0x3e1c88ee	0.1528661
98	0x3d656240	0.0560019
99	0x3d5dc5c3	0.05414368
100	0xbe0b4c11	-0.13603236
101	0xbd4efdfd	-0.05053519
102	0xbe38442b	-0.17994754
103	0xbb27592e	-0.0025535333
104	0x3dc6a19b	0.096987925
105	0xbe2342e8	-0.15943491
106	0xbcc91da6	-0.02455027
107	0x3c460e55	0.012088378
108	0xbdc8b3c4	-0.097999126
109	0xbcb2fc2b	-0.021848759
110	0xbe9968b2	-0.2996269
111	0xbdc602ae	-0.0966848
112	0xbc6dcef6	-0.014514675
113	0x3d614dc9	0.055005822
114	0xbe89d201	-0.26918033
115	0xbcd756d6	-0.026286524
116	0xbe0d8137	-0.13818823
117	0xbc1123ea	-0.00885866
118	0xbcb0c529	-0.021578388
119	0xbdb3da7c	-0.08781907
120	0xbe05fd77	-0.1308497
121	0xbe3c2c87	-0.18376361
122	0xbe0d23ba	-0.1378316
123	0xbe11ad5f	-0.14226292
124	0xbe4ed062	-0.20196679
125	0xbe078141	-0.132329
126	0xbdb881d7	-0.0900914
127	0xbeb3d3db	-0.3512257
128	0xbe85eba9	-0.26156357
129	0xbe2c4da0	-0.16826487
130	0xba79736f	-0.0009515797
131	0xbcc88678	-0.024478182
132	0x3b959882	0.0045652995
133	0xbb19adf6	-0.0023449636
134	0xbe95e3fa	-0.29275495
135	0xbdbc5f71	-0.091978915
136	0xbd58ea69	-0.052957926
137	0x3dca5184	0.09878829
138	0xbc413f83	-0.0117949275
139	0xbe096639	-0.13417901
140	0xbdafee0c	-0.08590326
141	0xbe10cd0f	-0.14140724
142	0xbdcbf077	-0.099579744
143	0xbc7e9f00	-0.015540838
144	0xbc00a841	-0.007852615
145	0xbd2d68fc	-0.04233645
146	0xbe2eb7e2	-0.17062333
147	0xbcf56b3a	-0.029958356
148	0xbb0ffb3c	-0.0021969816
149	0xbcae4cc8	-0.021276847
150	0xbe5138c9	-0.20431818
151	0xbe634378	-0.22193706
152	0xbe4f982d	-0.20272894
153	0x3ea160bc	0.31519115
154	0xbdaa3401	-0.083107
155	0xbdac0599	-0.08399505
156	0x3cb950ef	0.0226216
157	0x3e266090	0.16247773
158	0xbc4e295e	-0.012583105
159	0xbebd4c0b	-0.3697208
160	0xbdb0f8eb	-0.08641227
161	0x3e1190c3	0.14215378
162	0x3c73fcfa	0.014891857
163	0x3e0e9075	0.13922293
164	0x3e44a645	0.19204052
165	0xbe8f5236	-0.2799241
166	0x3d8a2089	0.06744487
167	0xbea732c6	-0.32655925
168	0x3dac84b5	0.08423749
169	0xbded1718	-0.115766704
170	0x3c1e2d66	0.0096543785
171	0xbec47349	-0.38369206
172	0xbeb9d722	-0.36296946
173	0xbe365cf1	-0.17808892
174	0xbe68ff79	-0.22753705
175	0xbe8235c1	-0.25431636
176	0x3d6473af	0.055774387
177	0xbbaf7d36	-0.0053555025
178	0x3dc5b9b7	0.09654563
179	0x3e97bc17	0.2963569
180	0xbe628f49	-0.22124971
181	0xbe8a6716	-0.27031773
182	0xbc50a54e	-0.012734724
183	0x3da65c4f	0.08123075
184	0xbc422f01	-0.011852027
185	0x3e76907f	0.24078558
186	0x3e4cdcdf	0.2000613
187	0xbee0df06	-0.43920153
188	0xbd3b979b	-0.04579888
189	0xbe84165c	-0.2579831
190	0xbe084e81	-0.13311197
191	0xbc1b4b38	-0.009478383
192	0x3c571749	0.01312811
193	0xbe73791e	-0.23776671
194	0xbd683cc3	-0.056698572
195	0xbe957f9b	-0.29198918
196	0xbf11523f	-0.5676612
197	0xbd9c5726	-0.0763381
198	0xbe4a2a23	-0.19742636
199	0xbe04dbe6	-0.1297451
200	0xbd8d45f1	-0.06898106
201	0xbdad5046	-0.084625766
202	0xbd305b92	-0.04305608
203	0xbc4bdeb9	-0.012443238
204	0xbec7634f	-0.38942954
205	0xbedb253d	-0.42801848
206	0xbe4e4e14	-0.20146972
207	0xbe2caa41	-0.16861822
208	0x3d99f7c7	0.07517963
209	0xbe8f88cb	-0.28034052
210	0xbe977917	-0.29584572
211	0xbdf60325	-0.120123185
212	0xbed5702f	-0.41687152
213	0xbedced9e	-0.43150038
214	0x3d667306	0.05626204
215	0xbe693fbe	-0.22778222
216	0xbd9c62a1	-0.076359995
217	0x3e4e9865	0.20175321
218	0xbe8d1c78	-0.27560782
219	0xbea8a827	-0.3294079
220	0xbed8fb46	-0.42379206
221	0x3e66cae4	0.22538334
222	0x3d93e8b3	0.07222118
223	0x3dc8a34f	0.09796774
224	0x3d9362c2	0.07196571
225	0x3e333c7e	0.17503545
226	0x3e1c32ba	0.15253726
227	0x3cc04e58	0.023474857
228	0xbe4127b4	-0.18862802
229	0xbcaf4bac	-0.021398388
230	0xbe4929a3	-0.1964479
231	0x3daa4e83	0.08315756
232	0xbd45f4b5	-0.048329074
233	0xbe2bc981	-0.16776086
234	0xbec545d8	-0.3852985
235	0xbe0c8b85	-0.13725097
236	0x3e2c2b6e	0.16813442
237	0x3d53e73e	0.0517342
238	0xbdf9bf2c	-0.12194666
239	0x3c2f260c	0.010690223
240	0xbc792d11	-0.015208499
241	0xbed35ceb	-0.41281828
242	0xbecc9b2d	-0.3996214
243	0x3d26452f	0.040593322
244	0xbd3521bc	-0.044221625
245	0xbe124d9f	-0.14287423
246	0xbf028362	-0.50981724
247	0xbe522a10	-0.20523858
248	0x3c5e2967	0.013559676
249	0x3e8b0887	0.27154943
250	0xbe08c2f7	-0.13355623
251	0xbd9fa233	-0.07794609
252	0xbea19e56	-0.31566113
253	0xbf40ca74	-0.7530892
254	0xbd0404d1	-0.032231156
255	0xbe86650e	-0.26248974

fc4.bias f4 [32]
0	0xbf443ceb	-0.76655453
1	0xbf89b70d	-1.0758988
2	0xbf1eed58	-0.6208091
3	0xbf0e1ab9	-0.55509526
4	0x3fa7f48b	1.3121504
5	0x3e2d57f2	0.1692808
6	0x3f6efaec	0.93351626
7	0x3fc72f39	1.5561286
8	0xbed98eba	-0.42491704
9	0xbf5c2e21	-0.8600789
10	0xbf501452	-0.81281006
11	0x3f9928e0	1.1965599
12	0xbf4cfbcf	-0.8007173
13	0xbf6c729b	-0.92362374
14	0x3f5bd3f1	0.8587027
15	0xbf4c0b11	-0.79704386
16	0xbf88c5a6	-1.0685318
17	0xbf5c706b	-0.86109036
18	0x3e83bdd1	0.25730756
19	0xbf604bca	-0.87615645
20	0xbe8b1c53	-0.27170047
21	0xbf66d95c	-0.90175414
22	0x3f7beda3	0.9840948
23	0xbf0663b9	-0.52495915
24	0xbeb728f8	-0.35773444
25	0xbf22801e	-0.6347674
26	0xbf5296da	-0.8226143
27	0xbef52b09	-0.47884396
28	0xbf616887	-0.8805012
29	0x3fd68442	1.6759112
30	0xbf52ca9a	-0.82340395
31	0x3feedbf2	1.8660872

Q.weight f4 [1, 32]
0	0xbc974fb4	-0.018470623
1	0xbb8ea8a5	-0.0043536
2	0xbbeb57d6	-0.0071821017
3	0xbc043327	-0.008068836
4	0x3cae861e	0.021304186
5	0x3c32c2be	0.010910688
6	0x3cc98d37	0.02460347
7	0xbcca8376	-0.024720889
8	0xbcd06185	-0.025437126
9	0x3cf3367a	0.029689062
10	0xbc933742	-0.017970685
11	0xbcd40c8b	-0.025884887
12	0x3befed5c	0.0073219966
13	0x3d1cdc9f	0.03829634
14	0x3c97a275	0.018510083
15	0xbc925e4b	-0.017867228
16	0xbcabd95c	-0.020977668
17	0xbb8b0925	-0.0042430335
18	0xbda692a0	-0.08133435
19	0xbc49d4ec	-0.012318831
20	0x3d0ddbbc	0.034633383
21	0x3c88d46d	0.016702855
22	0xbcf04fef	-0.02933499
23	0x3c4f0ffa	0.012638086
24	0xbce564b9	-0.02800213
25	0xbd15b8f3	-0.036553334
26	0x3c8582f1	0.01629779
27	0x3c5c6916	0.013452789
28	0x3c977e3a	0.018492807
29	0x3cbd6387	0.023118747
30	0x3be6117c	0.0070211273
31	0xbd09ed55	-0.033673603
