checkpoints/maddpg/maddpg0_checkpoint_actor_target.pth (torch, 166151 bytes, 10 tensors)

fc1.weight f4 [256, 24]
0.04575718 -0.12568061 -0.023789326 0.34740236 -0.31603664 0.17278965 0.031782947 0.32578716
0.22563432 -0.3277934 -0.12061053 0.32155386 -0.2950728 0.6362614 -0.11282605 0.44821382
0.2978705 -0.23380989 0.05467843 0.6615648 -0.35121644 1.4482449 -0.19104089 0.5436754
-0.2706885 0.32920378 0.063401766 0.108548746 0.68072116 0.47829622 -0.007579016 0.15916438
-0.29555807 0.059003916 -0.1759494 0.084830776 0.7068824 0.37631744 -0.23641363 0.036624283
0.00786251 0.34428623 -0.1247749 0.21551096 0.81286186 -0.21282898 -0.029340599 -0.038343687
0.7441568 0.6588837 0.062490333 0.25744027 0.20035976 -0.08443726 -0.061414223 0.11287165
0.8652328 0.7571165 -0.11256403 0.16162264 0.3139641 -0.10785143 0.0696991 0.119186014
0.74922913 0.49399036 -0.102016635 -0.13059415 0.34958154 -0.19690244 -0.066342175 -0.03428467
0.5343109 0.30799162 -0.17581081 -0.15997276 -0.4786126 -0.22934201 -0.09229251 -0.11901411
0.6440783 0.14366889 -0.08663147 0.034309253 -0.18984659 -0.41024685 -0.07448224 0.06574808
0.74577796 0.3065551 0.083859 0.10875872 -0.058649555 -0.57609755 -0.07470437 -0.004564175
-0.021125348 -0.083387814 -0.08147315 -0.46884724 0.09227026 -0.11096646 -0.118548796 -0.35914832
-0.12264978 -0.52070004 0.17356877 -0.866478 0.042734608 0.1787984 0.069252394 -0.7947165
0.07094904 -0.7386366 0.11865075 -1.1557693 -0.30223 0.5075837 0.07013632 -1.2205409
0.0904298 -0.84711325 0.12195967 0.3026307 0.09367409 -0.2894989 0.21079694 0.44537407
-0.021902073 -0.87862164 0.058698267 -0.15776753 0.1368359 -0.00910745 0.08634667 -0.08737829
0.14128156 -0.8640111 0.38130215 0.42859164 0.28364444 -0.10144833 0.13529274 0.5699021
0.7864636 0.4514961 -0.015494147 0.060598213 -0.17669278 -0.45239016 -0.102681495 0.096966825
0.7793706 0.3127347 -0.08525437 -0.048259895 -0.13355337 -0.35761756 -0.038570292 -0.22764052
0.7298981 0.45414853 -0.011868463 -0.055524305 0.015900675 -0.46457946 -0.033198353 -0.051508393
0.84104043 -0.63644034 -0.018710263 -0.39330763 -0.07877141 -0.5106288 0.10517941 -0.2367974
0.6257937 -0.82327986 0.05827132 0.21830659 -0.025918439 -0.60937715 -0.0075618816 0.13557324
0.5950731 -0.7959757 0.06373566 -0.18451416 0.022945577 -0.76285994 0.14293629 -0.23056667
0.09731005 -0.4611696 -0.19019616 0.04058923 -0.07357518 -0.32528752 -0.028952591 -0.06456299
0.12858659 -0.5112924 -0.0276131 0.102248184 0.3064184 0.26182556 -0.009839525 -0.02360134
0.29878902 -0.43546686 -0.028736398 0.76907843 0.5585752 1.1380764 -0.035104334 0.64929277
-0.33136854 -0.46812493 0.010783704 -0.20425753 0.53311634 -0.08674028 -0.054503705 -0.28439966
-0.30543995 -0.08835264 -0.008990277 -0.022784054 0.65637916 -0.19238786 -0.16320185 -0.12594911
0.012164897 -0.089364514 -0.070851125 0.24244992 0.8846934 -0.6316143 -0.067662954 0.2660556
-0.18348269 0.04902665 0.04432093 0.4595134 -0.16996059 -0.8802168 -0.12806885 0.4799809
-0.0879029 0.1658291 -0.1268727 -0.116455756 -0.1794306 -0.81285703 0.06832538 0.049359992
00000000: e16b 3b3d 6bb2 00be d5e1 c2bc b9de b13e
00000010: 8ecf a1be c5ef 303e d62e 023d 93cd a63e
00000020: af0c 673e 89d4 a7be a702 f7bd b5a2 a43e
00000030: c813 97be 07e2 223f 5811 e7bd 487c e53e
00000040: 7b82 983e dc6b 6fbe 7df6 5f3d 505c 293f
00000050: a4d2 b3be 1760 b93f 39a0 43be 502e 0b3f
00000060: af97 8abe 668d a83e c9d8 813d ce4e de3d
00000070: be43 2e3f 3ee3 f43e 6559 f8bb fdfb 223e
00000080: 6353 97be 17ae 713d 142c 34be c2bb ad3d
00000090: 3ff6 343f aeac c03e 6a16 72be 5803 163d
000000a0: c2d1 003c 4946 b03e fc89 ffbd e8ae 5c3e
000000b0: b717 503f d7ef 59be b25b f0bc 450e 1dbd
000000c0: 0f81 3e3f 9aac 283f ddf5 7f3d 36cf 833e
000000d0: 1c2b 4d3e 71ed acbd 7b8d 7bbd 4029 e73d
000000e0: e67f 5d3f 63d2 413f f887 e6bd 6880 253e
000000f0: e7bf a03e 36e1 dcbd 67be 8e3d cc17 f43d
00000100: 7bcd 3f3f 4eec fc3e 19ee d0bd 79ba 05be
00000110: 5afc b23e cba0 49be 68de 87bd 156e 0cbd
00000120: 99c8 083f 14b1 9d3e c007 34be e6cf 23be
00000130: b60c f5be a2d8 6abe db03 bdbd abbd f3bd
00000140: 51e2 243f f01d 133e d76b b1bd dc87 0c3d
00000150: 2567 42be e00b d2be 258a 98bd eea6 863d
00000160: 4eeb 3e3f caf4 9c3e 44be ab3d e4bc de3d
00000170: 843a 70bd 217b 13bf 9bfe 98bd 138f 95bb
00000180: 110f adbc 3bc7 aabd 65db a6bd bf0c f0be
00000190: 31f8 bc3d 6242 e3bd b6c9 f2bd 4ae2 b7be
000001a0: cf2f fbbd 994c 05bf 03bc 313e 81d1 5dbf
000001b0: 7c0a 2f3d ee16 373e 33d4 8d3d 8a72 4bbf
000001c0: bb4d 913d 4a17 3dbf 2aff f23d 40f0 93bf
000001d0: e4bd 9abe 01f1 013f a2a3 8f3d af3a 9cbf
000001e0: 4233 b93d 6adc 58bf fec5 f93d 69f2 9a3e
000001f0: 34d8 bf3d 3339 94be 27db 573e 1208 e43e
00000200: fa6b b3bc 59ed 60bf 986d 703d d08d 21be
00000210: b61e 0c3e 6a37 15bc 86d6 b03d 64f3 b2bd
00000220: 1dac 103e d52f 5dbf 093a c33e 5d70 db3e
00000230: d839 913e 24c4 cfbd 2e8a 0a3e 1be5 113f
00000240: ae55 493f 7f2a e73e 2adb 7dbc d535 783d
00000250: f4ee 34be af9f e7be ad4a d2bd 8b96 c63d
00000260: d584 473f c31e a03e d899 aebd 2bac 45bd
00000270: 37c2 08be a619 b7be e2fb 1dbd 991a 69be
00000280: 9ada 3a3f 2886 e83e f173 42bc 746d 63bd
00000290: 2242 823c 5cdd edbe fffa 07bd 77fa 52bd
000002a0: 6d4e 573f c1ed 22bf 4446 99bc 9e5f c9be
000002b0: e852 a1bd 92b8 02bf 4d68 d73d 057b 72be
000002c0: 0434 203f 78c2 52bf e8ad 6e3d c38b 5f3e
000002d0: e852 d4bc 2400 1cbf a9c9 f7bb b6d3 0a3e
000002e0: b656 183f 10c5 4bbf d787 823d 48f1 3cbe
000002f0: 5df8 bb3c ca4a 43bf e45d 123e ab19 6cbe
00000300: 7e4a c73d 6c1e ecbe c8c2 42be e440 263d
00000310: 95ae 96bd 168c a6be fc2d edbc 9a39 84bd
00000320: 34ac 033e 0fe4 02bf de34 e2bc 7f67 d13d
00000330: dfe2 9c3e 000e 863e f635 21bc 9957 c1bc
00000340: e0fa 983e 83f5 debe 9868 ebbc 53e2 443f
00000350: c9fe 0e3f 7dac 913f 90c9 0fbd 0d38 263f
00000360: 23a9 a9be 12ae efbe 22ae 303c e328 51be
00000370: 507a 083f e3a4 b1bd 473f 5fbd d59c 91be
00000380: a062 9cbe 3bf2 b4bd f44b 13bc a0a5 babc
00000390: 7708 283f 5301 45be 631e 27be cef8 00be
000003a0: 474f 473c be04 b7bd 651a 91bd cb44 783e
000003b0: 447b 623f 7ab1 21bf e092 8abd 7138 883e
000003c0: e3e2 3bbe 2bd0 483d dd89 353d 5745 eb3e
000003d0: 260a 2ebe e355 61bf 7b24 03be 0ec0 f53e
000003e0: 7006 b4bd 1bcf 293e ebea 01be 5b80 eebd
000003f0: a8bc 37be 6617 50bf 2dee 8b3d b42d 4a3d

fc1.bias f4 [256]
-0.9101073 -0.16895846 -0.3738167 -0.83150405 -0.346204 0.1745513 -0.73252076 -0.5469209
-0.62705576 -0.33058524 -0.44460818 -0.60911846 -0.08877109 -0.7448565 -0.9011704 -0.33323756
-0.2338271 -0.16456358 -0.07925498 -0.40407306 -0.1730468 -0.25103238 -0.13768306 -0.3521729
-0.4056097 -0.20527157 0.08758991 -0.06976506 -0.22280224 -0.2777061 -0.19789882 -0.2523174
-0.36402726 -0.13060789 -0.28165895 -0.4146371 -0.17829573 0.071059495 -0.2478199 -0.66754705
-0.53571993 -0.076064296 -0.20821941 -0.7651874 -0.18528318 -0.67590594 -0.055865448 -0.20981269
-0.31307882 -0.53959894 -0.79710656 0.06630396 -1.02636 0.17163502 -1.1824287 -0.14404574
-0.82587343 -0.22584115 -0.3237478 -0.20126513 -0.29134762 -0.3986741 -0.32517192 -0.5841629
-0.9208581 -1.3136935 -0.8060245 -0.028487295 -0.5508242 -0.2970396 -0.54178345 -0.6437811
-0.66236717 -0.350367 0.14244974 0.14923146 -0.9082407 -0.8807914 -0.14297035 -0.57903683
-0.28960782 0.24672875 -0.26759106 -0.34835592 -0.53572816 -0.5405317 0.15708305 -0.7642885
-0.26345468 -0.83848226 -0.5962347 -0.17859046 -0.5896041 -0.2589564 0.035017062 -1.2201612
-1.043212 -0.76425177 -0.45609224 -0.9624473 -0.85458004 -0.5963183 -0.534962 -0.16421995
0.05674966 -0.2270558 -0.6396555 -0.75901425 -0.82258594 -0.48041436 -0.5774584 -0.52723145
-0.39659348 -0.67866564 -0.27952564 -0.54996955 -0.46756628 -0.0463842 -0.6987587 -0.31211865
-0.5242361 -0.59859157 -0.71456647 -0.49155095 -0.1167315 -0.100307 0.08551718 -0.08056248
-0.037804026 -0.11624963 -0.49902257 -0.086748704 -0.72818303 -0.5574015 -0.669506 -0.030425154
-0.7559026 -0.19399337 -0.56456536 -1.1244016 -0.023399895 -0.025935484 -0.44537234 -0.98322785
-0.23629932 -0.6793649 -0.5769309 -0.35055888 -0.07702146 -0.06480668 -0.6332378 -0.96156096
-0.100101605 -0.8139373 -0.53376454 -0.17909835 -0.3756717 -0.3839434 -0.532261 -0.2766834
-0.26274565 -0.020319171 0.1633906 -0.68910396 -0.57865864 -0.484679 -0.6545869 -0.07918227
-0.21677917 -0.21887492 -0.43832687 0.037955828 -0.37499255 -1.2022369 0.041901145 -0.49782714
-1.1096143 -0.6754765 -0.054905165 -0.43310785 -0.43206474 -0.89251 -0.32744116 -0.42527762
-0.40036365 -0.35296082 -0.533247 -0.007880303 -0.22870474 -0.19358493 -0.42752528 -0.0637533
-0.9547387 -0.10367568 0.05740822 -0.7373661 -0.07073906 -0.36253503 -0.5973202 -0.19467065
-0.5153962 -0.027439075 -0.4986182 -0.42884323 -0.38707107 -0.76981556 -0.21759851 -0.6121191
-0.41055077 -0.5421502 0.08133709 -0.52639556 -0.47996065 -0.49915954 -0.64007276 -0.11937275
-0.42459184 -0.25293073 -0.6055361 -0.09676879 -0.31357577 -0.30201456 -0.51348764 -0.5137234
-0.64564335 -0.4925954 -0.177675 -0.48884445 -0.51672316 -0.71286553 -0.4776117 -0.027705712
-1.000743 -0.5932825 -1.1833072 -0.9198094 -0.54953045 0.1252687 -0.5612652 -0.2780902
-0.7124942 -0.8846155 0.116515025 -0.6228341 -0.041071426 -0.5331081 -0.27202943 -0.75550777
-0.10088796 -0.30843747 -0.8726275 -0.68482834 -0.6383118 -0.6102489 -0.14585188 0.17279738
00000000: cbfc 68bf 7203 2dbe e764 bfbe 73dd 54bf
00000010: a741 b1be 93bd 323e 7b86 3bbf 0203 0cbf
00000020: ba86 20bf 7842 a9be afa3 e3be 30ef 1bbf
00000030: 9ecd b5bd eaae 3ebf 1ab3 66bf 1d9e aabe
00000040: 5f70 6fbe 5b83 28be 6f50 a2bd aae2 cebe
00000050: 2e33 31be 5187 80be cafc 0cbe 0250 b4be
00000060: 13ac cfbe b632 52be 5762 b33d fce0 8ebd
00000070: 4526 64be 7e2f 8ebe fda5 4abe bf2f 81be
00000080: c861 babe 13be 05be 9a35 90be 504b d4be
00000090: 2893 36be a487 913d 80c4 7dbe 5de4 2abf
000000a0: f124 09bf 99c7 9bbd 7837 55be 52e3 43bf
000000b0: e0ba 3dbe 2c08 2dbf 2bd3 64bd 23d9 56be
000000c0: de4b a0be 2823 0abf 2d0f 4cbf 5fca 873d
000000d0: c45f 83bf 17c1 2f3e d359 97bf ba80 13be
000000e0: 716c 53bf e742 67be 46c2 a5be 7218 4ebe
000000f0: 842b 95be 031f ccbe ef7c a6be b38b 15bf
00000100: 5bbd 6bbf 1c27 a8bf 9f57 4ebf 305e e9bc
00000110: d102 0dbf 9315 98be 52b2 0abf d7ce 24bf
00000120: e590 29bf 4e63 b3be 58de 113e 22d0 183e
00000130: 7682 68bf 8c7b 61bf d266 12be c23b 14bf
00000140: 7a47 94be 76a6 7c3e b201 89be b55b b2be
00000150: 7b25 09bf 4960 0abf 61da 203e 69a8 43bf
00000160: 88e3 86be c6a6 56bf d6a2 18bf 6be0 36be
00000170: 4bf0 16bf ef95 84be 0d6e 0f3d 3e2e 9cbf
00000180: f987 85bf 01a6 43bf ec84 e9be f262 76bf
00000190: c2c5 5abf 51a8 18bf 45f3 08bf 4629 28be
000001a0: 5572 683d 5181 68be 76c0 23bf c24e 42bf
000001b0: fe94 52bf dff8 f5be 50d4 13bf a4f8 06bf
000001c0: 4d0e cbbe 08bd 2dbf fc1d 8fbe ceca 0cbf
000001d0: d964 efbe 5cfd 3dbd dae1 32bf 04ce 9fbe
000001e0: 5634 06bf 4c3d 19bf d4ed 36bf 91ac fbbe
000001f0: ed10 efbd c26d cdbd a223 af3d f1fd a4bd
00000200: 65d8 1abd 4914 eebd e37f ffbe 4ea9 b1bd
00000210: 346a 3abf ddb1 0ebf bf64 2bbf 2c3e f9bc
00000220: d582 41bf 33a6 46be 5b87 10bf 64ec 8fbf
00000230: 23b1 bfbc a776 d4bc d807 e4be d2b4 7bbf
00000240: 73f8 71be dcea 2dbf beb1 13bf 747c b3be
00000250: 6dbd 9dbd 5db9 84bd df1b 22bf dc28 76bf
00000260: 1202 cdbd 325e 50bf cba4 08bf 8f65 37be
00000270: 0b58 c0be 3b94 c4be 4242 08bf 72a9 8dbe
00000280: 9986 86be 6474 a6bc de4f 273e 1e69 30bf
00000290: f922 14bf d927 f8be 0293 27bf 502a a2bd
000002a0: 5cfb 5dbe bf20 60be 616c e0be 9277 1b3d
000002b0: 06ff bfbe e6e2 99bf 89a0 2b3d 33e3 febe
000002c0: d707 8ebf 07ec 2cbf 3de4 60bd 50c0 ddbe
000002d0: 9737 ddbe 897b 64bf 5ea6 a7be fdbd d9be
000002e0: 77fc ccbe 48b7 b4be e082 08bf 631c 01bc
000002f0: 9331 6abe 213b 46be 98e4 dabe 1791 82bd
00000300: c169 74bf ea53 d4bd e224 6b3d 06c4 3cbf
00000310: a4df 90bd 319e b9be fae9 18bf be57 47be
00000320: 01f1 03bf e9c7 e0bc e24a ffbe 5791 dbbe
00000330: 2e2e c6be a212 45bf 25d2 5ebe d6b3 1cbf
00000340: b633 d2be 5bca 0abf 0f94 a63d dcc1 06bf
00000350: 67bd f5be d791 ffbe cfdb 23bf b379 f4bd
00000360: 1a64 d9be 2380 81be 6a04 1bbf b72e c6bd
00000370: 018d a0be a7a1 9abe ed73 03bf 6083 03bf
00000380: e248 25bf 7735 fcbe 6ff0 35be d249 fabe
00000390: f847 04bf 5b7e 36bf 8589 f4be 17f7 e2bc
000003a0: 5918 80bf 5de1 17bf 9c76 97bf a178 6bbf
000003b0: 07ae 0cbf 7046 003e 13af 0fbf d761 8ebe
000003c0: 0566 36bf 2976 62bf 6e9f ee3d 0e72 1fbf
000003d0: 833a 28bd c679 08bf 7147 8bbe f568 41bf
000003e0: 599e cebd 84eb 9dbe 8464 5fbf e950 2fbf
000003f0: 6768 23bf 4639 1cbf 325a 15be ccf1 303e

fc2.weight f4 [128, 256]
0.11208652 -0.39966288 -0.20294145 0.0063036815 -0.1401392 -0.149998 0.033279274 -0.057486653
0.17690691 -0.18495372 -0.41438037 0.065042764 -0.12984605 -0.07292784 -0.31005132 -0.34428135
0.13560875 -0.25969404 -0.09779437 0.18695408 -0.2746587 -0.21347813 0.13881569 -0.5370948
0.08572352 -0.13327916 -0.24561891 -0.45555934 -0.41181386 -0.23738228 -0.53864807 0.18368304
-0.44809178 -0.27397254 0.2477036 -0.22045557 0.20712619 -0.067258745 -0.25735456 -0.08029139
-0.20416632 0.03481623 -0.025340587 -0.09852017 -0.0069030314 0.01453676 -0.6450999 -0.27499402
0.40441015 0.169944 0.0021513216 -0.35949856 -0.25581038 -0.35857052 -0.15987593 -0.03732742
-0.27649975 0.14469662 -0.6042184 0.003333547 0.026277414 -0.14664236 -0.11177682 0.018107511
-0.07901917 -0.21875875 -0.32435828 0.27653918 -0.14365605 0.28713635 0.053469177 0.27256826
-0.06434372 -0.19255513 -0.034053553 0.119781725 -0.009276508 -0.3022812 -0.13739823 0.12657025
-0.06681232 -0.36591932 0.047827713 -0.061327938 -0.050398298 -0.0806799 -0.0044676126 -0.42479876
-0.17871077 -0.30840042 -0.24331227 0.0768233 -0.023450386 -0.0519161 -0.021495828 -0.17279047
0.014327621 0.0136246 -0.1369812 -0.120018795 0.069929816 -0.035445634 0.4242885 -0.1570073
-0.6071614 0.24563888 0.107250735 -0.18696627 -0.4688337 -0.022828573 -0.76630265 0.05734365
-0.6049568 0.11686519 -0.17919692 -0.31998858 0.30284438 0.2667172 0.17014192 0.031919535
-0.062147953 -0.3162258 -0.043608397 0.24093598 -0.06991397 0.4533661 -0.22875345 0.14219585
-0.2496647 -0.57702005 -0.4631898 -0.10314252 0.26626375 0.16505437 -0.5585045 -0.12718578
-0.13676584 0.008611377 0.07599455 -0.25326177 -0.2930865 0.09034781 -0.09677713 -0.24730621
0.10903422 0.27721447 -0.12066025 -0.10720049 -0.17467538 -0.0770719 -0.12194383 0.020521946
-0.29734036 -0.5205462 0.13826059 0.026892979 -0.29565802 -0.22904266 -0.977181 -0.05037861
-0.16980806 0.15025458 -0.29103866 -0.045416433 -0.50317675 -0.073243596 0.0086258575 -0.19692305
-0.04238095 -0.42545217 0.0087746065 0.10372673 -0.13949302 -0.045158967 0.18749878 -0.44500276
-0.22781685 -0.13293251 -0.4542768 0.016895942 0.024356999 0.21857561 0.18880579 -0.12301981
0.013971746 -0.20554149 -0.5038078 -0.4094101 -0.11797563 -0.29977247 -0.5289801 -0.1829589
-0.22742474 -0.38774607 -0.09680769 0.0056462022 -0.21659972 -0.101575516 -0.32459635 0.021424232
-0.19472413 0.05135185 -0.19035256 -0.2571311 -0.03797534 -0.025037495 -0.10842773 0.18674454
-0.21462935 -0.102577575 0.007740924 -0.58900696 -0.34078273 -0.5533913 -0.18318853 -0.19827275
-0.09279229 0.010395095 0.2888928 -0.33004552 -0.12275168 -0.03669439 -0.3056664 -0.009194323
-0.058898948 -0.15237369 -0.057399593 -0.17156908 0.13074484 -0.09622071 -0.16964181 -0.067121685
0.36627728 0.14125404 0.35229853 -0.15161474 -0.5927533 -0.28436074 -0.11560456 -0.93739057
0.1627271 0.009785047 -0.23106341 -0.54386884 0.21235864 0.25767323 -0.15777497 -0.07680538
0.029788345 0.103294514 -0.091810994 -0.17618681 -0.5342097 -0.017758094 -0.1617501 -0.17302153
00000000: 9e8d e53d 9da0 ccbe e2cf 4fbe 1d8f ce3b
00000010: a780 0fbe 1399 19be d94f 083d 2077 6bbd
00000020: 1627 353e 8264 3dbe aa29 d4be 2435 853d
00000030: 5df6 04be 315b 95bd 0cbf 9ebe a545 b0be
00000040: 05dd 0a3e 9ef6 84be 6a48 c8bd e470 3f3e
00000050: 11a0 8cbe 039a 5abe b325 0e3e 0b7f 09bf
00000060: d08f af3d 557a 08be 8683 7bbe 133f e9be
00000070: 44d9 d2be 5714 73be d7e4 09bf 6817 3c3e
00000080: 496c e5be 2146 8cbe 03a6 7d3e 1bbf 61be
00000090: e318 543e f4be 89bd fac3 83be d06f a4bd
000000a0: fa10 51be 779b 0e3d 1097 cfbc f1c4 c9bd
000000b0: d332 e2bb 972b 6e3c 4425 25bf 04cc 8cbe
000000c0: d90e cf3e cd05 2e3e 30fd 0c3b 3210 b8be
000000d0: 94f9 82be 8e96 b7be 84b6 23be a3e4 18bd
000000e0: 6091 8dbe 5a2b 143e 0fae 1abf a377 5a3b
000000f0: bb43 d73c 6a29 16be 3feb e4bd 3456 943c
00000100: cdd4 a1bd 4b02 60be 4a12 a6be 8b96 8d3e
00000110: 921a 13be 8903 933e 7f02 5b3d 118e 8b3e
00000120: a4c6 83bd 2c2d 45be bd7b 0bbd 1f50 f53d
00000130: 7ffc 17bc 9ac4 9abe 1fb2 0cbe a29b 013e
00000140: e6d4 88bd c759 bbbe fee6 433d 0133 7bbd
00000150: 726e 4ebd 813b a5bd 0d65 92bb 397f d9be
00000160: f5ff 36be a9e6 9dbe da26 79be 8955 9d3d
00000170: 061b c0bc faa5 54bd 0518 b0bc fcef 30be
00000180: 66be 6a3c b739 5f3c cd44 0cbe 6acc f5bd
00000190: 5d37 8f3d 712f 11bd 583c d93e 86c6 20be
000001a0: ee6e 1bbf c288 7b3e 46a6 db3d 1674 3fbe
000001b0: f90a f0be fd02 bbbc 692c 44bf 2de1 6a3d
000001c0: 73de 1abf 0457 ef3d 667f 37be 8bd5 a3be
000001d0: 6b0e 9b3e 288f 883e af39 2e3e 0fbe 023d
000001e0: da8e 7ebd 59e8 a1be b89e 32bd ecb7 763e
000001f0: 0e2f 8fbd 9a1f e83e 583e 6abe ca9b 113e
00000200: 1aa8 7fbe 96b7 13bf 3727 edbe 633c d3bd
00000210: b953 883e 0304 293e 27fa 0ebf fd3c 02be
00000220: 580c 0cbe bc16 0d3c 08a3 9b3d 87ab 81be
00000230: 6f0f 96be 4608 b93d 1733 c6bd d73d 7dbe
00000240: 554d df3d 0eef 8d3e b91c f7bd ee8b dbbd
00000250: 1ade 32be dfd7 9dbd b0bd f9bd a41d a83c
00000260: ff3c 98be 8442 05bf 2f94 0d3e aa4e dc3c
00000270: 7d60 97be 298a 6abe 8928 7abf cd59 4ebd
00000280: 2ae2 2dbe 56dc 193e 0503 95be 9506 3abd
00000290: 31d0 00bf bd00 96bd 7853 0d3c 32a6 49be
000002a0: a697 2dbd ded4 d9be 5ec3 0f3c ae6e d43d
000002b0: 42d7 0ebe 9cf8 38bd aeff 3f3e 67d7 e3be
000002c0: d248 69be 761f 08be f896 e8be 5c69 8a3c
000002d0: 5488 c73c 49d2 5f3e 4e56 413e cff1 fbbd
000002e0: c0e9 643c 7879 52be 8cf9 00bf 339e d1be
000002f0: 359d f1bd c77b 99be 3d6b 07bf 9459 3bbe
00000300: 08e2 68be a786 c6be 1c43 c6bd c703 b93b
00000310: 51cc 5dbe d306 d0bd 7e31 a6be df81 af3c
00000320: c365 47be 5156 523d c8eb 42be b0a6 83be
00000330: 088c 1bbd 6f1b cdbc 5c0f debd f639 3f3e
00000340: ccc7 5bbe 3114 d2bd 94a7 fd3b 29c9 16bf
00000350: 137b aebe 0dab 0dbf c695 3bbe 0308 4bbe
00000360: e209 bebd 3050 2a3c c2e9 933e bafb a8be
00000370: 3c65 fbbd db4c 16bd 4e80 9cbe c9a3 16bc
00000380: 0640 71bd d907 1cbe d61b 6bbd ceaf 2fbe
00000390: fae1 053e 5d0f c5bd 95b6 2dbe 1877 89bd
000003a0: b288 bb3e e6a4 103e 7960 b43e e540 1bbe
000003b0: aebe 17bf bb97 91be 15c2 ecbd d4f8 6fbf
000003c0: efa1 263e 7651 203c e39b 6cbe fd3a 0bbf
000003d0: 8b74 593e bfed 833e c38f 21be 244c 9dbd
000003e0: b006 f43c 138c d33d 6707 bcbd 516a 34be
000003f0: f8c1 08bf 6c79 91bc d1a1 25be 8e2c 31be

fc2.bias f4 [128]
-0.07508611 -0.32070667 -0.40433824 -0.115682386 -0.2385081 -0.086821906 -0.10299856 -0.28705218
-0.14908804 -0.2974424 -0.34085172 -0.030859802 -0.16959754 -0.41701528 -0.32693955 -0.31073755
-0.24288149 0.016494699 -0.4491302 -0.22819784 -0.47132525 0.008497846 -0.19076727 -0.044877112
0.14317337 -0.17321548 -0.1432901 -0.2706529 -0.3618444 -0.14694804 -0.31135908 0.25237632
-0.25074556 -0.052543726 -0.49508536 -0.035910208 -0.15851048 -0.15353678 -0.006293911 -0.27904162
-0.298513 0.1258624 -0.16818893 -0.2668444 -0.30379173 -0.13104334 -0.1434899 -0.32818642
-0.009048025 -0.5689058 -0.109414816 -0.65218425 0.0006645147 -0.0657702 -0.32196167 -0.19226511
-0.40019792 -0.37693173 -0.49435022 -0.26028568 -0.282574 -0.4040796 -0.4983887 -0.24477623
0.15381795 -0.19173177 -0.025408685 -0.013210564 0.123869695 -0.47558838 -0.21604213 -0.4635427
-0.43024644 -0.33849218 -0.25491387 -0.1914001 -0.18376924 -0.0193688 -0.12951957 -0.36421612
0.034778986 -0.09818111 -0.38393742 -0.10356257 -0.31466827 -0.24558629 -0.500412 -0.3484942
-0.19006 -0.09767198 -0.36140296 -0.077746056 -0.17277773 -0.09980601 -0.050143912 -0.08185976
-0.3398909 -0.3271629 0.041890297 -0.43720898 -0.27440706 -0.17350505 -0.48902485 -0.36209345
-0.7251481 -0.15922287 -0.086840965 -0.12662506 -0.28999478 -0.06816236 -0.07524696 -0.30018303
-0.4149317 0.02863335 0.02007238 -0.10116883 -0.3975361 -0.2775602 -0.20204075 -0.37881163
-0.2519714 -0.3321033 -0.3313191 -0.36419633 -0.39044198 0.13706562 -0.19649132 0.0012174662
00000000: bfc6 99bd aa33 a4be 6c05 cfbe e3ea ecbd
00000010: 783b 74be afcf b1bd e9f0 d2bd 81f8 92be
00000020: 89aa 18be 5f4a 98be 1e84 aebe b2cd fcbc
00000030: faaa 2dbe 0783 d5be 9f64 a7be fe18 9fbe
00000040: edb5 78be e41f 873c 65f4 e5be b2ac 69be
00000050: 8b51 f1be 8d3a 0b3c 7f58 43be 10d1 37bd
00000060: 0a9c 123e 665f 31be a4ba 12be 0493 8abe
00000070: ab43 b9be 8c79 16be 756a 9fbe 7837 813e
00000080: b961 80be 1738 57bd d47b fdbe 9516 13bd
00000090: 9250 22be bf38 1dbe 273d cebb 8bde 8ebe
000000a0: b2d6 98be 13e2 003e b839 2cbe d49f 88be
000000b0: 978a 9bbe 3a30 06be 04ef 12be 0d08 a8be
000000c0: 2b3e 14bc cfa3 11bf e014 e0bd 8cf5 26bf
000000d0: d432 2e3a 87b2 86bd 29d8 a4be 25e1 44be
000000e0: bee6 ccbe 32fd c0be 791b fdbe 2a44 85be
000000f0: 8aad 90be 85e3 cebe ce2c ffbe 9fa6 7abe
00000100: 7482 1d3e 5555 44be e025 d0bc 1f71 58bc
00000110: 65af fd3d 5280 f3be 263a 5dbe 7855 edbe
00000120: 4349 dcbe d94e adbe 1284 82be 63fe 43be
00000130: 012e 3cbe 51ab 9ebc c7a0 04be 897a babe
00000140: 6974 0e3d 2e13 c9bd 7293 c4be 9d18 d4bd
00000150: 331c a1be f97a 7bbe 001b 00bf d56d b2be
00000160: 179f 42be 3f08 c8bd cf09 b9be 5339 9fbd
00000170: a5ec 30be 1867 ccbd b463 4dbd 17a6 a7bd
00000180: 2e06 aebe e581 a7be 2995 2b3d dbd9 dfbe
00000190: 157f 8cbe 4fab 31be 7761 fabe 5064 b9be
000001a0: 4ea3 39bf 520b 23be add9 b1bd 00aa 01be
000001b0: 327a 94be b598 8bbd 141b 9abd 97b1 99be
000001c0: ee71 d4be 7d90 ea3c d56e a43c 9b31 cfbd
000001d0: da89 cbbe 5f1c 8ebe c5e3 4ebe 99f3 c1be
000001e0: 6502 81be 7209 aabe a8a2 a9be f177 babe
000001f0: 03e8 c7be ee5a 0c3e 0535 49be 6393 9f3a

fc3.weight f4 [2, 128]
-0.2781266 0.3361491 0.07299208 0.069556035 0.089890026 -0.12378244 -0.12696733 0.747997
-0.26193827 -0.2136938 0.4706168 0.16379483 0.3768522 0.1437666 0.013332402 0.123702765
-0.2708392 0.050542984 0.17741793 -0.19160159 0.23346926 0.30657956 -0.47505048 0.094177805
-0.26108193 -0.010626851 0.06566732 0.17242956 -0.055961877 0.11631675 -0.11661294 -0.092406146
-0.3179013 0.21465562 -0.3657478 0.18299684 0.0661688 0.3121637 -0.063836075 0.36776406
0.38670254 -0.17428446 0.46013737 0.1166657 -0.30576667 0.25719902 0.040542874 -0.13175265
-0.044455305 0.09609313 -0.14756481 0.2554402 0.010727672 -0.03428431 0.08982738 0.17092414
-0.20666385 0.46880963 -0.14826997 0.40155092 -0.47402793 0.22061503 0.681532 -0.09332208
-0.14044842 -0.03660675 0.24101405 0.18560138 0.016983973 -0.3454027 0.053111847 -0.39420438
-0.4196437 0.14125645 -0.12992655 -0.28501502 -0.21201338 0.05436686 -0.1164393 -0.68791485
-0.34117946 -0.05064323 -0.23236299 0.043296985 -0.16971433 -0.112651505 0.27858657 0.42904723
0.0031838736 -0.013529205 -0.2301265 0.017543202 -0.2550361 0.1842462 0.00198008 0.04175061
0.42654577 -0.4663338 -0.03337809 0.47601864 -0.103878446 -0.3133842 -0.29679957 0.88003117
-0.14236017 -0.23129296 -0.09833725 -0.09368176 0.09204791 -0.005081286 0.06880397 0.10539801
0.8561669 0.10669366 0.104366 0.39974922 0.5021878 -0.05824852 -0.39701653 0.6289224
-0.40329388 -0.03635015 -0.6019314 0.11685534 0.4962837 0.16276391 -0.37688404 0.029248409
-0.19478607 -0.2924217 0.20095685 -0.20963685 0.5912914 -0.09432771 0.5968659 -0.1428524
-0.4262583 0.21034311 -0.10963114 0.12474458 -0.47557783 -0.97337514 0.13995448 -0.44724646
-0.064872496 0.49003372 0.25134024 -0.031340532 0.59159267 -0.37724826 -0.37661317 1.3102635
0.058404785 -0.4774755 0.35475114 -0.038320042 -0.0718167 0.08279283 -0.51774603 0.008773466
0.092724375 -0.56845474 -0.56792337 -0.8114353 -0.23770477 0.17720062 0.58245736 -0.5209961
-0.49407572 0.23840004 0.4530108 -0.7925308 -0.020994952 -0.44279864 0.47643167 -0.29002336
-0.6393394 0.8083587 0.15950872 0.30771267 0.15603341 -0.33389235 0.75792915 1.0745596
-0.48022607 0.3255325 0.29236168 0.12671334 -0.3049238 1.24892 0.4356507 -1.2553201
-0.060923997 -0.17750219 -0.09772129 -0.06864996 0.3494784 0.61119 -0.4273116 0.45450997
0.24294002 -1.211521 -0.6809285 0.37054324 0.40650225 0.40371308 -0.9739143 -0.36977926
-0.34500393 -0.57319576 -1.1545535 -0.05558347 0.07567663 0.26559773 0.8458177 0.86880845
0.52114844 -0.18561961 -0.69545853 -0.30353245 -0.502946 -0.32515088 -0.61454743 0.9098736
-0.899081 0.1308062 0.0031336863 1.2113358 0.27773792 -0.2678506 -0.13235554 -0.47824228
1.074936 -0.12401324 -0.54267335 0.5458 -0.04110159 -0.74053925 -1.0594095 0.39480308
0.5704378 0.74952847 -0.13360259 0.7519493 -1.0846094 -0.3895914 -0.49603492 0.49632636
-0.3267215 0.24533671 0.18795866 0.37437344 -0.06996817 -0.0885002 0.22112219 1.0186906
00000000: 9c66 8ebe bc1b ac3e df7c 953d 6573 8e3d
00000010: 4318 b83d a681 fdbd b903 02be bb7c 3f3f
00000020: c61c 86be 8cd2 5abe aff4 f03e d5b9 273e
00000030: c6f2 c03e 8d37 133e 2670 5a3c e057 fd3d
00000040: 70ab 8abe 2906 4f3d 0cad 353e 3533 44be
00000050: 9112 6f3e fff7 9c3e d139 f3be 4be0 c03d
00000060: 88ac 85be 3e1c 2ebc 967c 863d 6091 303e
00000070: 4838 65bd 7a37 ee3d c4d2 eebd 6f3f bdbd
00000080: f6c3 a2be afce 5b3e 4c43 bbbe 8663 3b3e
00000090: 8283 873d ecd3 9f3e 7dbc 82bd 924b bc3e
000000a0: e0fd c53e a077 32be 2097 eb3e 6dee ee3d
000000b0: 738d 9cbe 97af 833e 4910 263d 2bea 06be
000000c0: c416 36bd 7acc c43d 3b1b 17be 0fc9 823e
000000d0: 1ec3 2f3c b46d 0cbd 6bf7 b73d bd06 2f3e
000000e0: b09f 53be d107 f03e 15d4 17be 1598 cd3e
000000f0: cab3 f2be e8e8 613e e278 2e3f a61f bfbd
00000100: b6d1 0fbe f6f0 15bd 63cc 763e 4a0e 3e3e
00000110: f921 8b3c 9fd8 b0be cf8b 593d 28d5 c9be
00000120: 8adb d6be 88a5 103e 770b 05be 7ded 91be
00000130: 091a 59be c9af 5e3d ba77 eebd 301b 30bf
00000140: 13af aebe 476f 4fbd 90f0 6dbe 2e58 313d
00000150: 98c9 2dbe d5b5 e6bd e6a2 8e3e 14ac db3e
00000160: 89a8 503b 99a9 5dbc 48a6 6bbe c3b6 8f3c
00000170: 1794 82be 09ab 3c3e 3bc4 013b b002 2b3d
00000180: 3564 da3e 4ec3 eebe 77b7 08bd b7b8 f33e
00000190: 39be d4bd e573 a0be 1df6 97be b949 613f
000001a0: ddc6 11be 10d8 6cbe 0a65 c9bd 39dc bfbd
000001b0: 9d83 bc3d eb80 a6bb 19e9 8c3d e9da d73d
000001c0: c12d 5b3f 3582 da3d d7bd d53d eeab cc3e
000001d0: 618f 003f 0096 6ebd c045 cbbe 0f01 213f
000001e0: 897c cebe e5e3 14bd 2d18 1abf da51 ef3d
000001f0: e618 fe3e 95ab 263e f2f6 c0be 5c9a ef3c
00000200: 0076 47be 4cb8 95be a2c7 4d3e 0bab 56be
00000210: e05e 173f e32e c1bd 34cc 183f e647 12be
00000220: 873e dabe 2f64 573e 4b86 e0bd 167a ff3d
00000230: f07e f3be 1d2f 79bf 3a50 0f3e 7dfd e4be
00000240: dfdb 84bd b3e5 fa3e abaf 803e ee5e 00bd
00000250: 9e72 173f af26 c1be 71d3 c0be b7b6 a73f
00000260: db39 6f3d ab77 f4be f1a1 b53e 7af5 1cbd
00000270: a214 93bd 4a8f a93d 018b 04bf 95be 0f3c
00000280: 47e6 bd3d 4086 11bf 6d63 11bf 39ba 4fbf
00000290: e168 73be 1474 353e ed1b 153f 0060 05bf
000002a0: 7ef7 fcbe 241f 743e 08f1 e73e 4ce3 4abf
000002b0: 9bfd abbc 81b6 e2be daee f33e f17d 94be
000002c0: bfab 23bf 99f0 4e3f 4156 233e 848c 9d3e
000002d0: 39c7 1f3e f0f3 aabe a507 423f 2b8b 893f
000002e0: 31e0 f5be 32ac a63e 6eb0 953e 24c1 013e
000002f0: f91e 9cbe 9cdc 9f3f 9c0d df3e 54ae a0bf
00000300: 718b 79bd 22c3 35be 1a22 c8bd 5a98 8cbd
00000310: d5ee b23e f376 1c3f 96c8 dabe 88b5 e83e
00000320: 45c5 783e 1f13 9bbf 5551 2ebf d8b7 bd3e
00000330: 1021 d03e 7bb3 ce3e 7352 79bf b553 bdbe
00000340: 5ba4 b0be f5bc 12bf 69c8 93bf 7eab 63bd
00000350: 59fc 9a3d 6dfc 873e 8287 583f 3b6a 5e3f
00000360: fc69 053f 1113 3ebe 9209 32bf 9b68 9bbe
00000370: 12c1 00bf 2d7a a6be fb52 1dbf 7aed 683f
00000380: 2c2a 66bf 0ff2 053e 885e 4d3b 0d0d 9b3f
00000390: aa33 8e3e b723 89be 3688 07be 2cdc f4be
000003a0: 8197 893f a7fa fdbd a4ec 0abf 8cb9 0b3f
000003b0: 245a 28bd fb93 3dbf bb9a 87bf a123 ca3e
000003c0: 3608 123f 19e1 3f3f 1ecf 08be c07f 403f
000003d0: 7bd4 8abf 8678 c7be 4af8 fdbe 7d1e fe3e
000003e0: 0a48 a7be 8c39 7b3e 3c78 403e e0ad bf3e
000003f0: 794b 8fbd 983f b5bd db6d 623e 7464 823f

fc3.bias f4 [2]
0.032748412 0.13188873
00000000: 3323 063d d70d 073e

bn1.weight f4 [256]
1.093326 1.0299375 1.0584942 1.1557969 1.2542961 0.05882871 1.0267031 1.0984449
0.70591724 0.83962953 1.5696007 1.0813394 0.85047984 0.8598577 1.1565998 0.91051626
1.3536901 0.33187166 0.8397279 1.1758243 0.34167072 1.0618583 1.3630443 1.2635518
0.918226 0.634573 0.8350103 0.9325634 0.83527243 0.9370986 0.8172823 0.74946386
1.1882184 0.54337764 1.1272544 0.8419989 0.90285945 0.10979199 0.8084021 1.0656468
1.5967689 0.7753812 0.56454855 1.3557765 0.71716326 0.88099897 0.77756226 1.1874096
0.75053835 0.82072556 0.9276482 0.6698812 0.5935555 0.5834734 0.16705532 0.52363825
1.1581923 1.0464836 0.49536547 1.1462716 0.68213665 0.57868296 1.0288218 0.78270847
0.9361854 1.0671929 1.2783264 0.5199008 0.92479134 0.8165209 1.0262263 1.085186
0.75841546 0.7817301 0.93554795 0.69553113 1.1690071 0.9488762 0.87938493 0.7074864
0.8690171 1.5300747 0.97318745 1.1130278 0.4402688 1.0488765 0.45981282 0.9661001
1.0593647 0.9695927 0.91858435 0.9603231 0.6942712 1.0812055 0.30810422 1.0768834
0.7538183 0.7936182 0.74167836 1.3496283 0.79198873 0.79173195 1.3232055 1.4187381
0.83106405 0.3613388 1.2341709 1.2690184 0.97980493 0.8070378 0.44567433 1.0098138
1.0395613 0.3855193 0.68412 0.9224764 1.4422601 0.34859943 0.8276896 0.42569253
1.0550003 0.45163414 0.8518415 1.2030159 0.8855145 1.4260876 0.6858275 1.4747596
1.2513039 0.8520452 0.5439038 0.4440731 1.181411 1.150744 0.6336826 0.41244233
0.96259904 1.2564614 0.7672486 0.87557614 0.5909388 0.53381604 0.6984965 1.2786701
0.56784797 0.8765175 0.737606 1.0728544 1.0076928 1.0539888 0.9067654 0.339463
0.49637738 0.936557 1.1486108 0.8584705 0.75145 1.2619543 1.0080856 1.1142364
0.75127256 1.1848091 1.2190561 0.7285525 1.1157354 0.95029014 0.58889586 1.0527692
0.6579179 0.9862624 0.87172866 0.72063595 0.7777612 1.6303704 0.37220943 0.6141175
0.927549 0.8639151 -0.007191934 0.78747696 0.97922754 0.85696566 1.234525 0.62168276
0.91532123 1.0105039 1.0197167 0.98938996 0.6332088 0.4537173 0.67495316 1.0337756
0.7244583 0.13264541 0.31959203 0.42971522 0.46921518 0.9872146 0.8692359 0.8388489
1.3242453 0.90870017 0.20571907 0.7036681 0.8962009 0.74748063 0.5604438 0.7441644
1.0581867 1.4458313 0.2788614 0.8682312 0.79391205 0.9199051 0.96700835 0.8254676
0.39904016 0.8739385 1.2593124 0.5856571 0.7528116 0.64832205 0.38221574 0.93591243
0.9214785 1.133211 0.8620895 1.1749347 0.9634382 0.95359427 0.89481956 1.1875378
0.64618105 0.986857 1.0266721 0.60723764 1.3676466 0.3922605 1.2926629 0.9253938
0.8106966 0.97176564 1.0899315 1.0759151 1.0729536 0.681487 0.443158 0.3205537
0.21531482 0.66747373 1.1390418 0.7646889 0.57939243 0.4820911 0.9774118 0.50197804
00000000: 1bf2 8b3f fed4 833f bd7c 873f 27f1 933f
00000010: c68c a03f 60f6 703d 026b 833f d899 8c3f
00000020: feb6 343f f6f1 563f ade8 c83f 5469 8a3f
00000030: 0cb9 593f a21f 5c3f 760b 943f 9817 693f
00000040: b845 ad3f 15eb a93e 68f8 563f 6981 963f
00000050: 77ef ae3e f9ea 873f 3c78 ae3f 11bc a13f
00000060: dc10 6b3f 6073 223f 3cc3 553f 7abc 6e3f
00000070: 6ad4 553f b2e5 6f3f 6a39 513f dddc 3f3f
00000080: 8a17 983f cc1a 0b3f df49 903f 3d8d 573f
00000090: cc21 673f 9fda e03d 71f3 4e3f 1d67 883f
000000a0: ec62 cc3f 627f 463f 4186 103f 168a ad3f
000000b0: 0398 373f 2689 613f 520e 473f 0afd 973f
000000c0: 4823 403f 121b 523f 5a7a 6d3f 567d 2b3f
000000d0: 41f3 173f 835e 153f 8d10 2b3e 280d 063f
000000e0: a53f 943f 2df3 853f 8ba0 fd3e 07b9 923f
000000f0: 82a0 2e3f 9124 143f 6fb0 833f 955f 483f
00000100: d9a9 6f3f c799 883f 33a0 a33f 3818 053f
00000110: 20bf 6c3f 8407 513f 625b 833f 60e7 8a3f
00000120: 8427 423f 771f 483f 1280 6f3f 540e 323f
00000130: 06a2 953f 8de9 723f 5f1f 613f d41d 353f
00000140: e877 5e3f 7dd9 c33f d022 793f b277 8e3f
00000150: ea6a e13e 9641 863f 966c eb3e 5652 773f
00000160: 4399 873f 3a37 783f 5828 6b3f bcd7 753f
00000170: c2bb 313f f164 8a3f d6bf 9d3e 51d7 893f
00000180: 3cfa 403f 902a 4b3f a2de 3d3f 9fc0 ac3f
00000190: c6bf 4a3f f2ae 4a3f cc5e a93f 3699 b53f
000001a0: 9dc0 543f 6601 b93e 50f9 9d3f 326f a23f
000001b0: 7fd4 7a3f 079a 4e3f 6d2f e43e 9441 813f
000001c0: 5810 853f c962 c53e 7d22 2f3f 6a27 6c3f
000001d0: fb9b b83f a07b b23e 77e3 533f 5ff4 d93e
000001e0: 400a 873f 973c e73e 4912 5a3f 6dfc 993f
000001f0: 14b1 623f 0a8a b63f 6492 2f3f ecc4 bc3f
00000200: ba2a a03f a21f 5a3f 483d 0b3f 8d5d e33e
00000210: 7a38 973f 944b 933f 0639 223f a42b d33e
00000220: e46c 763f bad3 a03f 676a 443f c225 603f
00000230: c447 173f 2ba8 083f abd0 323f 76ab a33f
00000240: 7c5e 113f 7363 603f bfd3 3c3f 4b53 893f
00000250: 14fc 803f 1be9 863f c721 683f 18ce ad3e
00000260: 2d25 fe3e 33c2 6f3f ae05 933f b9c4 5b3f
00000270: 075f 403f b887 a13f f308 813f 4c9f 8e3f
00000280: 6653 403f d3a7 973f 080a 9c3f 6b82 3a3f
00000290: 6bd0 8e3f 3746 733f e1c1 163f 24c1 863f
000002a0: 4f6d 283f b17b 7c3f 9c29 5f3f 997b 383f
000002b0: 5c1b 473f faaf d03f 3c92 be3e ce36 1d3f
000002c0: da73 6d3f 8a29 5d3f 51aa ebbb 1798 493f
000002d0: a8ae 7a3f 1a62 5b3f ea04 9e3f 9a26 1f3f
000002e0: 7e52 6a3f 3158 813f 1486 823f a948 7d3f
000002f0: f919 223f a24d e83e bbc9 2c3f c252 843f
00000300: 1976 393f 33d4 073e 91a1 a33e a203 dc3e
00000310: f93c f03e 19ba 7c3f 3e86 5e3f cdbe 563f
00000320: df80 a93f 93a0 683f 05a8 523e 9823 343f
00000330: 6c6d 653f e45a 3f3f 3f79 0f3f 8f81 3e3f
00000340: a972 873f 0011 b93f ecc6 8e3e 6644 5e3f
00000350: d23d 4b3f e77e 6b3f dc8d 773f d851 533f
00000360: fe4e cc3e 6fba 5f3f 2631 a13f a0ed 153f
00000370: 43b8 403f 6ff8 253f c8b1 c33e f597 6f3f
00000380: 04e6 6b3f 0f0d 913f e6b1 5c3f 4364 963f
00000390: e3a3 763f c11e 743f e512 653f 3d01 983f
000003a0: 1f6c 253f a9a2 7c3f fe69 833f ed73 1b3f
000003b0: 0b0f af3f 5ed6 c83e fa75 a53f 9ce6 6c3f
000003c0: d089 4f3f a2c5 783f e082 8b3f 96b7 893f
000003d0: 8b56 893f ef75 2e3f 9be5 e23e 9d1f a43e
000003e0: 7d7b 5c3e 8fdf 2a3f 1fcc 913f a7c2 433f
000003f0: 1053 143f a5d4 f63e a937 7a3f a281 003f

bn1.bias f4 [256]
-0.12672667 -0.022575371 0.008682744 -0.023236893 0.4276843 -0.016691182 -0.012861104 0.47375447
-0.29487523 0.024366792 0.7147281 0.1481621 0.0011184098 0.27069825 -0.12543096 -0.06241543
0.106205866 0.07412167 0.72649294 -0.05015183 -0.23510781 0.13072066 -0.109896675 0.9069077
0.44599068 -0.016905233 -0.08807883 0.1292277 0.47282544 0.42394397 0.3316645 0.2024496
0.5731539 0.10237802 0.13352111 0.46735683 0.21742465 -0.25982532 0.14974247 -0.0006028189
0.05359974 0.75181454 -0.04622273 0.17459102 0.17185599 0.38203833 0.4631332 0.16101523
0.42017695 0.22829807 0.626461 -0.37610924 -0.21661453 0.66091895 -0.1858067 0.39547297
0.092144005 -0.014837215 0.50380725 -0.18426451 -0.29832867 0.11956234 0.08461936 -0.32135424
-0.2972199 -0.11098717 0.43929648 -0.18625794 0.06612335 0.18786588 0.0040136417 -0.11415386
-0.023609938 0.51794803 0.5294513 0.57581747 0.009620437 -0.09630459 0.6444474 0.12913875
0.0150573095 -0.14633577 0.32681176 0.1749462 0.083553836 0.1675529 -0.60031116 0.27759615
-0.01767919 -0.17996877 0.41474319 -0.22976677 0.34612867 0.5992539 -0.041019317 -0.20244479
-0.09389391 -0.1062595 -0.13552535 0.038476113 -0.067314714 0.019238142 0.44915062 -0.025879296
0.50407624 -0.12358897 -0.04789504 -0.025148481 0.11818105 0.07888307 0.23880692 -0.06438778
0.2455877 0.03921049 0.55017436 0.40956527 0.25506866 0.053964704 0.20820083 0.07022157
-0.30584395 -0.0840857 -0.38432288 -0.03135263 -0.23966849 0.025732452 0.61845464 0.044588443
-0.08106278 0.4332385 0.52961415 0.08498191 0.20768435 -0.019311521 0.44270298 0.6478397
-0.10743752 0.00013534553 -0.17896536 -0.071857095 -0.048170388 -0.44911894 0.18047872 0.01192951
0.74627495 -0.13076343 0.41521174 0.49822196 0.33714172 -0.07155831 0.15954396 -0.31357783
0.7325597 0.2514982 -0.13503566 0.15607354 0.38423333 0.16555864 0.43281963 -0.07503085
-0.27467608 -0.16835213 -0.1987352 -0.43511266 0.12550865 0.3193047 -0.35374215 0.082675144
0.29209822 0.32082248 0.48921865 0.5750422 -0.00061053026 -0.011715999 0.42950025 -0.06918024
-0.28452897 -0.010305504 0.058051236 0.41672745 0.0020295966 0.46328264 0.046451367 0.20992531
-0.025427472 0.30279157 0.24374777 0.47213885 0.23331384 0.6445568 0.38645092 0.3643744
-0.061212577 0.03754435 0.05964253 -0.10298337 0.049321868 0.5972898 -0.28497797 0.2931612
-0.2662559 -0.09864794 -0.3067275 0.19536199 0.30745035 -0.24113424 0.3123557 0.14476767
0.16917141 0.010045722 0.002528203 0.69838226 0.15443708 0.3430091 0.4315201 0.32559082
0.055211287 0.32515928 0.46036783 0.6044629 0.025138108 0.52737355 -0.37417307 0.12947598
0.09152654 0.36932468 0.5687025 -0.022681583 -0.016718028 -0.09834609 0.3737728 -0.020405388
0.019454092 -0.18084121 0.13447331 -0.14561675 0.4431174 0.49073708 0.1009427 0.45256293
-0.29396737 -0.14886752 0.37282273 0.02389125 -0.16921312 -0.4050996 -0.21767664 0.12190763
0.41565523 -0.020248415 -0.058800854 0.09845903 0.019683803 -0.4961111 -0.08842141 0.63744396
00000000: a3c4 01be fcef b8bc 1142 0e3c 4c5b bebc
00000010: 70f9 da3e f2bb 88bc 61b7 52bc f28f f23e
00000020: e3f9 96be de9c c73c 6cf8 363f ceb7 173e
00000030: 9b97 923a f698 8a3e f970 00be 52a7 7fbd
00000040: 7682 d93d 1acd 973d 71fb 393f 016c 4dbd
00000050: 1ac0 70be a3db 053e 8211 e1bd 1a2b 683f
00000060: e458 e43e d87c 8abc ac62 b4bd 4454 043e
00000070: 2d16 f23e 2f0f d93e eecf a93e f34e 4f3e
00000080: 37ba 123f 91ab d13d c2b9 083e 6549 ef3e
00000090: 91a4 5e3e d307 85be 1756 193e 7e06 1eba
000000a0: 678b 5b3d eb76 403f 0c54 3dbd fdc7 323e
000000b0: 04fb 2f3e 879a c33e cb1f ed3e 2de1 243e
000000c0: 6f21 d73e f8c6 693e c05f 203f 6491 c0be
000000d0: 33d0 5dbe fc31 293f 1d44 3ebe 6f7b ca3e
000000e0: ffb5 bc3d ca17 73bc 83f9 003f d6af 3cbe
000000f0: 89be 98be 1add f43d ea4c ad3d 8b88 a4be
00000100: 352d 98be 3e4d e3bd 78eb e03e 67ba 3ebe
00000110: ae6b 873d ea5f 403e de84 833b 80c9 e9bd
00000120: a169 c1bc 3e98 043f 1f8a 073f c668 133f
00000130: 0a9f 1d3c 573b c5bd 81fa 243f f33c 043e
00000140: efb2 763c 0bd9 15be df53 a73e 1925 333e
00000150: 461e ab3d fd92 2b3e fead 19bf 1521 8e3e
00000160: f3d3 90bc bc49 38be 3859 d43e fb47 6bbe
00000170: c737 b13e b468 193f df03 28bd b04d 4fbe
00000180: 734b c0bd 959e d9bd 28c7 0abe 2199 1d3d
00000190: 4cdc 89bd 4f99 9d3c 12f7 e53e d100 d4bc
000001a0: 240b 013f 371c fdbd 972d 44bd 3004 cebc
000001b0: e808 f23d 728d a13d cd89 743e bedd 83bd
000001c0: 587b 7b3e 2e9b 203d 3ad8 0c3f 8ab2 d13e
000001d0: 5c98 823e 180a 5d3d 9932 553e 54d0 8f3d
000001e0: 9497 9cbe 2035 acbd f8c5 c4be 9e6b 00bd
000001f0: a86b 75be ddcc d23c 0b53 1e3f 5fa2 363d
00000200: 3e04 a6bd 70d1 dd3e cb94 073f ff0a ae3d
00000210: 35ab 543e 3233 9ebc f7a9 e23e d3d8 253f
00000220: 3408 dcbd 8aeb 0d39 b242 37be d029 93bd
00000230: 504e 45bd ebf2 e5be 6acf 383e fe73 433c
00000240: e00b 3f3f d9e6 05be a296 d43e f316 ff3e
00000250: d79d ac3e 2a8d 92bd 7e5f 233e 468d a0be
00000260: 0889 3b3f 5fc4 803e ca46 0abe bed1 1f3e
00000270: 3bba c43e 3488 293e 899a dd3e c6a9 99bd
00000280: 58a2 8cbe 8064 2cbe 3e81 4bbe 16c7 debe
00000290: 5785 003e e87b a33e b11d b5be 9651 a93d
000002a0: e68d 953e d842 a43e de7a fa3e f735 133f
000002b0: fe0b 20ba 76f4 3fbc 75e7 db3e 5fae 8dbd
000002c0: c8ad 91be 6bd8 28bc 22c7 6d3d 4d5d d53e
000002d0: fb02 053b 6233 ed3e ca43 3e3d a9f6 563e
000002e0: 464d d0bc 7f07 9b3e 0499 793e 2fbc f13e
000002f0: d3e9 6e3e ad01 253f e5dc c53e 488f ba3e
00000300: 0aba 7abd 1bc8 193d ba4b 743d f2e8 d2bd
00000310: ba05 4a3d fce7 183f a2e8 91be 3a19 963e
00000320: b152 88be ee07 cabd 630b 9dbe f90c 483e
00000330: 226a 9d3e e5eb 76be 16ed 9f3e fa3d 143e
00000340: 453b 2d3e d096 243c 35b0 253b 2ec9 323f
00000350: c124 1e3e e49e af3e 34f0 dc3e d7b3 a63e
00000360: 3b25 623d 477b a63e 55b5 eb3e 15be 1a3f
00000370: 6fee cd3c f401 073f 9d93 bfbe 5a95 043e
00000380: 4472 bb3d 2018 bd3e 7d96 113f bace b9bc
00000390: 3ff4 88bc ad69 c9bd 265f bf3e 3329 a7bc
000003a0: 305e 9f3c 702e 39be 5fb3 093e 8f1c 15be
000003b0: 49e0 e23e e441 fb3e 0cbb ce3d 54b6 e73e
000003c0: e482 96be ba70 18be 9fe2 be3e 95b7 c33c
000003d0: 3446 2dbe 3769 cfbe a0e6 5ebe b5aa f93d
000003e0: c3d0 d43e 01e0 a5bc 2ad9 70bd e3a4 c93d
000003f0: ed3f a13c 4602 febe 4916 b5bd 872f 233f

bn1.running_mean f4 [256]
6.497087 4.8826346 0.02981167 0.0051216446 10.549749 13.290905 6e-45 0.9918801
2.3332183 2.5557897 0.73483855 4.6352105 6e-45 9.282722 17.100483 19.085464
8.489327 6.716504 5.1132865 0.0040641422 14.636539 0.7136948 0.35262492 1.1294776
2.7205842 0.687928 4.264007 1.059501 0.6012407 0.5272835 1.8677408 4.040433
0.28692123 2.8041353 0.6004106 1.9129558 0.85796064 21.796667 1.3064198 4.551066
0.9724946 2.4853888 2.1185126 10.759112 0.79128194 4.38557 2.2958562 2.230583
3.1722329 0.8118384 2.2598457 0.8774325 2.708252 16.434578 0.27126315 5.996104
1.4639714 2.473924 2.7479932 6e-45 0.3843173 4.206378 0.5716621 6e-45
0.19528563 16.317814 0.3306466 8.612522 4.0694118 1.8766619 6e-45 0.17230432
6.2574244 4.2144856 1.5116876 6.417552 1.4708368 1.8355827 8.365165 6e-45
6e-45 0.9211269 10.11209 0.23169251 0.4567009 6e-45 7.020688 0.55624306
1.1610279 1.2371176 0.7247424 0.4351108 5.6823263 0.36339813 6.7230763 3.9452422
3.5046048 0.005173745 5.2143145 11.572326 0.5733677 0.030614698 0.043953307 1.5102115
5.145829 7.488969 0.65732986 2.9567413 8.807417 0.025279403 2.939664 7.4766974
0.4387809 2.590278 0.43731928 2.594838 0.843484 9.04296 0.53758126 3.95186
0.42193988 0.7385313 15.215222 6e-45 5.5757737 0.23910993 7.3724437 0.48653778
0.4927009 1.1763786 0.9745738 1.8742715 1.3477296 10.239456 2.4779131 3.2029743
10.409723 0.16966875 8.68719 0.16480699 15.872391 20.537441 3.000874 2.1199555
5.57939 2.4162874 0.00032360456 2.137186 0.21375139 4.5728617 1.3126143 0.95120674
2.3172078 2.166649 4.0765896 7.196557 1.7584492 2.3671343 2.1576273 4.467995
15.113982 11.020962 1.2000192 3.60279 1.0109504 2.2907805 0.5855505 1.2796265
6.849346 2.8705437 2.0056655 3.6087046 6e-45 14.383169 4.7253737 9.458434
0.7421421 0.72170687 10.262001 6e-45 6e-45 3.8627598 4.6618032 0.9140582
0.32906237 0.094740085 0.47904637 0.31775796 1.6439834 1.9724501 2.546398 1.2250606
0.0027544135 15.920688 8.779413 0.0009800304 1.084184 6e-45 5.5265927 8.745329
1.2318786 11.744298 8.029848 3.6315975 0.40004897 8.703513 3.2538588 2.78776
3.3898025 2.146094 0.21169978 0.8045582 1.2636752 4.1858797 6e-45 1.6891
0.7823121 1.4165572 0.8644658 8.113408 0.29188406 2.8039887 8.492554 0.099797904
1.8106029 2.7093713 1.0057527 4.8335013 3.149905 0.5360396 1.330414 11.266269
3.2193313 6e-45 0.14367373 19.064194 1.0238311 10.212051 0.8183693 4.516646
5.4854293 5.717397 4.885994 3.7613487 1.5131475 0.16422981 7.2597346 0.97754407
4.560887 3.8599017 12.98423 3.130698 2.1220946 1.6752918 8.343418 12.741664
00000000: 23e8 cf40 8b3e 9c40 9a37 f43c 78d3 a73b
00000010: c6cb 2841 8ca7 5441 0400 0000 dbeb 7d3f
00000020: 7353 1540 0f92 2340 611e 3c3f a553 9440
00000030: 0400 0000 0886 1441 cacd 8841 08af 9841
00000040: 49d4 0741 9aed d640 0ba0 a340 7f2c 853b
00000050: 442f 6a41 b4b4 363f 418b b43e b992 903f
00000060: 0d1e 2e40 0d1c 303f bf72 8840 bb9d 873f
00000070: e9ea 193f 0dfc 063f 2112 ef3f 3a4b 8140
00000080: 57e7 923e f476 3340 82b4 193f bcdb f43f
00000090: 4fa3 5b3f 935f ae41 c438 a73f 55a2 9140
000000a0: 68f5 783f 9c10 1f40 b695 0740 5325 2c41
000000b0: 7491 4a3f 9756 8c40 4fef 1240 dfc1 0e40
000000c0: dd05 4b40 a4d4 4f3f 50a1 1040 6b9f 603f
000000d0: 0054 2d40 047a 8341 01e3 8a3e 15e0 bf40
000000e0: 6a63 bb3f c554 1e40 1fdf 2f40 0400 0000
000000f0: 3dc5 c43e a69a 8640 7358 123f 0400 0000
00000100: f5f8 473e e28a 8241 834a a93e e4cc 0941
00000110: 9f38 8240 7536 f03f 0400 0000 8b70 303e
00000120: d23c c840 11dd 8640 fb7e c13f 965c cd40
00000130: 6144 bc3f 60f4 ea3f b7d7 0541 0400 0000
00000140: 0400 0000 f9ce 6b3f 1fcb 2141 cd40 6d3e
00000150: b3d4 e93e 0400 0000 7aa9 e040 f265 0e3f
00000160: 909c 943f df59 9e3f b888 393f d8c6 de3e
00000170: 9ed5 b540 520f ba3e 7123 d740 d97e 7c40
00000180: 724b 6040 8588 a93b aadb a640 3f28 3941
00000190: 3ac8 123f adcb fa3c 6208 343d 9c4e c13f
000001a0: a2aa a440 a2a5 ef40 c546 283f 403b 3d40
000001b0: 2eeb 0c41 c016 cf3c 7423 3c40 1b41 ef40
000001c0: e4a7 e03e 1dc7 2540 50e8 df3e d311 2640
000001d0: 91ee 573f f7af 1041 ed9e 093f 46eb 7c40
000001e0: 8108 d83e 6310 3d3f 8d71 7341 0400 0000
000001f0: bd6c b240 3cd9 743e 0feb eb40 7b1b f93e
00000200: 4b43 fc3e 9393 963f ab7d 793f 21e8 ef3f
00000210: 6782 ac3f d0d4 2341 2196 1e40 88fd 4c40
00000220: 3a8e 2641 a5bd 2d3e bbfe 0a41 2ac3 283e
00000230: 50f5 7d41 ae4c a441 520e 4040 5aad 0740
00000240: 5d8a b240 74a4 1a40 78a9 a939 a8c7 0840
00000250: a5e1 5a3e e254 9240 bf03 a83f 4982 733f
00000260: 224d 1440 61aa 0a40 6c73 8240 324a e640
00000270: dd14 e13f 217f 1740 9116 0a40 d1f9 8e40
00000280: dfd2 7141 dc55 3041 3b9a 993f 1d94 6640
00000290: d366 813f 269c 1240 a3e6 153f cdca a33f
000002a0: d82d db40 fdb6 3740 d35c 0040 04f5 6640
000002b0: 0400 0000 7621 6641 4336 9740 bf55 1741
000002c0: 06fd 3d3f c8c1 383f 2831 2441 0400 0000
000002d0: 0400 0000 7537 7740 7e2d 9540 b8ff 693f
000002e0: dd7a a83e 1707 c23d 9145 f53e 2cb1 a23e
000002f0: 0c6e d23f 3f79 fc3f 2ff8 2240 c9ce 9c3f
00000300: 6483 343b 23bb 7e41 7a78 0c41 5d74 803a
00000310: 8bc6 8a3f 0400 0000 d9d9 b040 deec 0b41
00000320: 33ae 9d3f a5e8 3b41 427a 0041 186c 6840
00000330: 38d3 cc3e 9741 0b41 393f 5040 a96a 3240
00000340: 86f2 5840 9b59 0940 d4c7 583e 87f7 4d3f
00000350: 1cc0 a13f baf2 8540 0400 0000 6e34 d83f
00000360: 9b45 483f bf51 b53f a14d 5d3f 85d0 0141
00000370: d471 953e 8d74 3340 80e1 0741 d862 cc3d
00000380: d6c1 e73f 5766 2d40 81bc 803f 0bac 9a40
00000390: 0b98 4940 e439 093f 024b aa3f a342 3441
000003a0: 8609 4e40 0400 0000 351f 133e 7883 9841
000003b0: e60c 833f 9064 2341 a780 513f 5d88 9040
000003c0: a388 af40 ebf4 b640 105a 9c40 f0b9 7040
000003d0: d1ae c13f dc2b 283e bf4f e840 5440 7a3f
000003e0: c9f2 9140 a108 7740 68bf 4f41 5b5d 4840
000003f0: 66d0 0740 f66f d63f a47e 0541 dbdd 4b41
