checkpoints/maddpg/maddpg0_checkpoint_actor_local.pth (torch, 166151 bytes, 10 tensors)

fc1.weight f4 [256, 24]
0.038113967 -0.13246197 -0.02569138 0.35050482 -0.33005315 0.17558268 0.029880175 0.32888916
0.21741648 -0.3346102 -0.12023609 0.31681275 -0.3101043 0.63737947 -0.112451896 0.4434714
0.29089707 -0.24198747 0.057486925 0.6548776 -0.36522108 1.4488049 -0.18822928 0.5369888
-0.2766286 0.33108017 0.058402445 0.11253339 0.67756796 0.48680475 -0.012577446 0.16314834
-0.30133876 0.061259516 -0.17592168 0.08455042 0.70503163 0.38503557 -0.23638466 0.036344647
0.0022550367 0.34727696 -0.12213284 0.21806253 0.8135475 -0.20509258 -0.026699759 -0.035788864
0.7462278 0.66489553 0.05449158 0.25119188 0.19776185 -0.09520004 -0.06941124 0.10662534
0.86336654 0.7604094 -0.12054093 0.1536853 0.31115103 -0.119314566 0.061720043 0.11124908
0.75035596 0.49254826 -0.10442386 -0.13820922 0.34634677 -0.20932724 -0.068749905 -0.04190097
0.5314944 0.31178877 -0.1817122 -0.14998512 -0.48468092 -0.22410037 -0.09819508 -0.10902712
0.64234203 0.15254411 -0.087464884 0.041392874 -0.1953711 -0.40482932 -0.075315826 0.07283125
0.7426605 0.32085532 0.07386382 0.10493142 -0.06375904 -0.5714458 -0.08469755 -0.00839013
-0.028525759 -0.09146211 -0.09140644 -0.46865657 0.089608066 -0.10784862 -0.1284816 -0.3589593
-0.13195847 -0.5264394 0.17151909 -0.8538553 0.03853557 0.18248801 0.06720399 -0.7820948
0.062317755 -0.74423426 0.115829036 -1.158603 -0.30583107 0.51236 0.067315206 -1.2233772
0.08585441 -0.84360147 0.10790864 0.29998574 0.09511217 -0.2898276 0.19674498 0.4427277
-0.029166004 -0.87495315 0.051524244 -0.15596499 0.13766895 -0.011354919 0.07917245 -0.08557696
0.13665366 -0.86045516 0.394797 0.43142876 0.28240928 -0.10622117 0.14879127 0.57273746
0.786477 0.45146066 -0.015493312 0.060595706 -0.17668091 -0.4523714 -0.102672994 0.09696284
0.77937156 0.31270143 -0.08525371 -0.04826157 -0.13353708 -0.35758713 -0.038571183 -0.22765005
0.7299352 0.45412475 -0.011868627 -0.055525735 0.015901312 -0.46455708 -0.03319873 -0.051508527
0.83957857 -0.630071 -0.016271466 -0.394958 -0.076578885 -0.5074749 0.107616745 -0.23844998
0.6226712 -0.8161225 0.05967503 0.2180106 -0.025268245 -0.60665387 -0.0061573293 0.13527821
0.5949573 -0.7932395 0.069717035 -0.19516659 0.022696925 -0.76152235 0.14891629 -0.24121854
0.09738284 -0.45868284 -0.17984496 0.04737712 -0.060792577 -0.32119352 -0.018603344 -0.05777379
0.12892811 -0.50726795 -0.022766547 0.101123095 0.31851134 0.26648983 -0.004993232 -0.024724722
0.29917514 -0.43242538 -0.02584981 0.7694242 0.5699795 1.1433021 -0.03221768 0.6496407
-0.34513688 -0.46973693 -0.0002616993 -0.20809335 0.5239032 -0.081075914 -0.06554828 -0.28823474
-0.31770778 -0.089600325 -0.00999753 -0.025155045 0.6444818 -0.18915953 -0.16420671 -0.12831883
0.0015387955 -0.08698108 -0.074898876 0.24885516 0.8719492 -0.6288276 -0.07171072 0.27246016
-0.18702744 0.055582922 0.03144024 0.45916817 -0.17007375 -0.88250786 -0.1409472 0.47963515
-0.08921436 0.17325458 -0.123258345 -0.12004713 -0.17876735 -0.81047183 0.07193735 0.045766283
00000000: 641d 1c3d 1ca4 07be bb76 d2bc 5e75 b33e
00000010: bafc a8be f2cb 333e 45c7 f43c 2964 a83e
00000020: 6da2 5e3e 0752 abbe 573e f6bd 4835 a23e
00000030: fec5 9ebe 4d2b 233f 2e4d e6bd af0e e33e
00000040: 76f0 943e 90cb 77be 6977 6b3d 0fa6 273f
00000050: 42fe babe 7072 b93f 2dbf 40be 1978 093f
00000060: 44a2 8dbe 5783 a93e 6737 6f3d e877 e63d
00000070: 1875 2d3f 793e f93e a211 4ebc 5c10 273e
00000080: 1349 9abe 42eb 7a3d d024 34be c528 ad3d
00000090: f47c 343f 6223 c53e d20e 72be 20de 143d
000000a0: 3dc9 133b 49ce b13e c820 fabd c94b 5f3e
000000b0: a644 503f ca03 52be 74b9 dabc 5897 12bd
000000c0: c908 3f3f 9836 2a3f 9032 5f3d 399c 803e
000000d0: 1582 4a3e 3df8 c2bd 7b27 8ebd 635e da3d
000000e0: 9705 5d3f 31aa 423f 2ade f6bd ae5f 1d3e
000000f0: 304f 9f3e 325b f4bd 28ce 7c3d 8fd6 e33d
00000100: 5417 403f 492f fc3e 2ddc d5bd b886 0dbe
00000110: 5d54 b13e e159 56be c0cc 8cbd 5aa0 2bbd
00000120: 0410 083f c7a2 9f3e c312 3abe b395 19be
00000130: 1928 f8be 917a 65be 811a c9bd 9c49 dfbd
00000140: 8770 243f 8634 1c3e ca20 b3bd 938b 293d
00000150: 5d0f 48be ca45 cfbe 2f3f 9abd 8d28 953d
00000160: 001f 3e3f 2647 a43e ea45 973d 49e6 d63d
00000170: 1994 82bd 464a 12bf e975 adbd c176 09bc
00000180: daae e9bc 7d50 bbbd 4d33 bbbd c1f3 efbe
00000190: 6f84 b73d bddf dcbd ae90 03be 83c9 b7be
000001a0: 1f20 07be bcc4 06bf b3a2 2f3e 4396 5abf
000001b0: 79d7 1d3d 23de 3a3e 3fa2 893d 5d37 48bf
000001c0: e740 7f3d 2386 3ebf c637 ed3d 1a4d 94bf
000001d0: e495 9cbe 062a 033f 8edc 893d a097 9cbf
000001e0: 70d4 af3d 44f6 57bf 34ff dc3d bb97 993e
000001f0: 2bca c23d 4864 94be 8477 493e 35ad e23e
00000200: 8bed eebc eefc 5fbf 160b 533d 49b5 1fbe
00000210: 17f9 0c3e fb09 3abc 2a25 a23d f942 afbd
00000220: f0ee 0b3e ca46 5cbf d522 ca3e 3be4 dc3e
00000230: f397 903e 7c8a d9bd bd5c 183e ec9e 123f
00000240: 8f56 493f da25 e73e a9d7 7dbc 3433 783d
00000250: d7eb 34be 399d e7be 3846 d2bd 7494 c63d
00000260: e584 473f 671a a03e 7f99 aebd edad 45bd
00000270: f2bd 08be a915 b7be d1fc 1dbd 181d 69be
00000280: 09dd 3a3f 0a83 e83e a174 42bc f46e 63bd
00000290: 7843 823c 6dda edbe 64fb 07bd 9bfa 52bd
000002a0: 9fee 563f 554c 21bf bd4b 85bc ef37 cabe
000002b0: 64d5 9cbd e0e9 01bf 2b66 dc3d 3b2c 74be
000002c0: 6167 1f3f 67ed 50bf ce6d 743d 2c3e 5f3e
000002d0: 5aff cebc ab4d 1bbf 6cc3 c9bb 5f86 0a3e
000002e0: 1f4f 183f be11 4bbf cec7 8e3d c0d9 47be
000002f0: e7ee b93c 21f3 42bf 837d 183e fe01 77be
00000300: a870 c73d 7ad8 eabe 4729 38be 830e 423d
00000310: a301 79bd 7a73 a4be 0a66 98bc 36a4 6cbd
00000320: bb05 043e 50dc 01bf e980 babc a019 cf3d
00000330: eb13 a33e 5b71 883e 449e a3bb 808b cabc
00000340: 7c2d 993e dc66 ddbe fbc2 d3bc fcf8 443f
00000350: 2dea 113f b957 923f b0f6 03bd da4e 263f
00000360: c8b5 b0be 5c81 f0be af34 89b9 6c16 55be
00000370: 851e 063f 210b a6bd 2d3e 86bd 8193 93be
00000380: 98aa a2be 6080 b7bd aecc 23bc f411 cebc
00000390: c2fc 243f 09b3 41be ce25 28be 0366 03be
000003a0: 69b1 c93a 2323 b2bd 9564 99bd e3d3 7e3e
000003b0: 1038 5f3f d8fa 20bf 12dd 92bd e67f 8b3e
000003c0: 1f84 3fbe ebaa 633d 7bc7 003d 1718 eb3e
000003d0: d027 2ebe 09ec 61bf 7654 10be bd92 f53e
000003e0: 05b6 b6bd a669 313e df6e fcbd 45db f5bd
000003f0: ca0e 37be 157b 4fbf e453 933d 6d75 3b3d

fc1.bias f4 [256]
-0.90319437 -0.16564043 -0.37958893 -0.8285022 -0.34121796 0.17607929 -0.73253936 -0.5457808
-0.62713844 -0.32445264 -0.44577387 -0.6045273 -0.08877632 -0.75414854 -0.89805716 -0.33717883
-0.23338784 -0.16334619 -0.06425848 -0.39802936 -0.16075118 -0.2586793 -0.13714625 -0.3470423
-0.41113558 -0.21312135 0.09892207 -0.06443166 -0.23015817 -0.27676624 -0.19614068 -0.25893202
-0.37394446 -0.1309101 -0.2791515 -0.4206115 -0.18583484 0.06905405 -0.2503563 -0.6686911
-0.5358952 -0.08212103 -0.21097822 -0.7662744 -0.19358617 -0.6710622 -0.063521795 -0.21809955
-0.31635883 -0.53265375 -0.79843384 0.06981642 -1.030381 0.1733169 -1.1885674 -0.14925705
-0.8215793 -0.22657815 -0.31623766 -0.20126298 -0.2921692 -0.4008826 -0.31964138 -0.58419496
-0.91931623 -1.3080981 -0.7926839 -0.026467375 -0.5553784 -0.29496852 -0.5418323 -0.6447243
-0.6656524 -0.34749162 0.14052753 0.1440451 -0.90986437 -0.8814552 -0.14142817 -0.57905835
-0.28960657 0.2414906 -0.26654333 -0.33960804 -0.5443935 -0.54053354 0.14234507 -0.77896774
-0.27121705 -0.8467137 -0.5956286 -0.1837601 -0.5957576 -0.25670332 0.033612605 -1.2202979
-1.0504633 -0.7591849 -0.44910076 -0.95614314 -0.855842 -0.6020253 -0.5416432 -0.1698491
0.04991693 -0.2222 -0.63105196 -0.7528419 -0.8188157 -0.47998098 -0.5717345 -0.52128285
-0.39023462 -0.6789881 -0.2809067 -0.5558589 -0.46652025 -0.04330437 -0.69651514 -0.31480274
-0.5335989 -0.5863578 -0.7033617 -0.491573 -0.12830152 -0.08605836 0.09073378 -0.08353208
-0.045569386 -0.114715755 -0.4993706 -0.10159546 -0.718192 -0.5520787 -0.6614222 -0.028471101
-0.7468621 -0.19402401 -0.57167506 -1.1379515 -0.027029444 -0.021390349 -0.4270587 -0.97656476
-0.23958033 -0.66958547 -0.5825433 -0.3467852 -0.0784681 -0.06251204 -0.64222383 -0.9722671
-0.0990757 -0.80867386 -0.540452 -0.17512068 -0.3779026 -0.37964988 -0.52850574 -0.27319854
-0.27098766 -0.013024837 0.15577841 -0.7006535 -0.56187904 -0.48128626 -0.66209936 -0.064343505
-0.2114912 -0.21219419 -0.439538 0.041416235 -0.37500215 -1.2034997 0.04005813 -0.5057888
-1.1075629 -0.6736643 -0.04595853 -0.43312022 -0.43208843 -0.9011382 -0.32794887 -0.42455918
-0.40492728 -0.35909152 -0.531253 -0.007996567 -0.22891553 -0.20136988 -0.42343885 -0.06557149
-0.954861 -0.102257475 0.07111653 -0.7376788 -0.07449111 -0.36255693 -0.6006089 -0.19478051
-0.51761013 -0.03198751 -0.50951535 -0.4447281 -0.3877207 -0.76921546 -0.22848846 -0.61951
-0.40488625 -0.5307135 0.07658613 -0.51469386 -0.4829819 -0.5011524 -0.6400866 -0.13056259
-0.42064372 -0.25195017 -0.6036296 -0.09648284 -0.31099942 -0.3058657 -0.53106654 -0.51119524
-0.6543891 -0.4956593 -0.1743021 -0.498776 -0.5070872 -0.7302998 -0.47404447 -0.027855827
-0.9999933 -0.59330314 -1.1928848 -0.91789025 -0.54996794 0.12867998 -0.55532795 -0.28814372
-0.7087704 -0.8837927 0.11318254 -0.6231271 -0.043434516 -0.53314656 -0.26904976 -0.75372887
-0.09608419 -0.30669528 -0.86982685 -0.69181603 -0.63459766 -0.6102884 -0.13800646 0.17060286
00000000: bf37 67bf a59d 29be 7b59 c2be b818 54bf
00000010: 1fb4 aebe 214e 343e b387 3bbf 4ab8 0bbf
00000020: 258c 20bf a81e a6be 793c e4be 4dc2 1abf
00000030: 5cd0 b5bd e10f 41bf 13e7 65bf b4a2 acbe
00000040: 39fd 6ebe 3944 27be f399 83bd 81ca cbbe
00000050: f59b 24be 9d71 84be 1170 0cbe 87af b1be
00000060: 5d80 d2be 7c3c 5abe a797 ca3d bff4 83bd
00000070: 95ae 6bbe 4eb4 8dbe 1ad9 48be bd92 84be
00000080: a675 bfbe 4c0d 06be f2ec 8ebe 645a d7be
00000090: 7d4b 3ebe 366c 8d3d b32e 80be 572f 2bbf
000000a0: 6e30 09bf 122f a8bd ad0a 58be 8f2a 44bf
000000b0: 743b 46be bbca 2bbf b717 82bd 7d55 5fbe
000000c0: c9f9 a1be ff5b 08bf 2966 4cbf e9fb 8e3d
000000d0: 86e3 83bf fc79 313e fa22 98bf d7d6 18be
000000e0: 0553 52bf 1a04 68be e7e9 a1be e217 4ebe
000000f0: 3497 95be 7c40 cdbe 09a8 a3be cd8d 15bf
00000100: 4f58 6bbf c26f a7bf 55ed 4abf 1cd2 d8bc
00000110: 472d 0ebf 1d06 97be 86b5 0abf a70c 25bf
00000120: 3268 2abf 6cea b1be 73e6 0f3e 8f80 133e
00000130: dfec 68bf 0ca7 61bf 8cd2 10be 2b3d 14bf
00000140: 5047 94be 5049 773e 5e78 88be 1be1 adbe
00000150: 5f5d 0bbf 6860 0abf e8c2 113e 6e6a 47bf
00000160: f6dc 8abe 3bc2 58bf 1e7b 18bf 9c2b 3cbe
00000170: 9283 18bf 9e6e 83be 5fad 093d b932 9cbf
00000180: 9575 86bf f159 42bf 89f0 e5be ccc5 74bf
00000190: 7618 5bbf 541e 1abf 21a9 0abf ecec 2dbe
000001a0: b275 4c3d 6688 63be 9f8c 21bf 3fba 40bf
000001b0: e89d 51bf 11c0 f5be 315d 12bf cb72 05bf
000001c0: d5cc c7be 2ad2 2dbf 01d3 8fbe c54c 0ebf
000001d0: bedb eebe ec5f 31bd d14e 32bf d32d a1be
000001e0: f099 08bf 8b1b 16bf 830f 34bf 75af fbbe
000001f0: 7961 03be 5e3f b0bd a2d2 b93d de12 abbd
00000200: f7a6 3abd 18f0 eabd 81ad ffbe 4811 d0bd
00000210: 6edb 37bf 0855 0dbf f752 29bf 3a3c e9bc
00000220: 5b32 3fbf 3bae 46be 4c59 12bf 65a8 91bf
00000230: da6c ddbc d03a afbc 70a7 dabe 2600 7abf
00000240: 8c54 75be f469 2bbf 8f21 15bf d48d b1be
00000250: e2b3 a0bd 5006 80bd c868 24bf 7fe6 78bf
00000260: 33e8 cabd 4005 4fbf 105b 0abf d652 33be
00000270: 737c c1be 7861 c2be 274c 07bf aee0 8bbe
00000280: e5be 8abe 2066 55bc 6084 1f3e 075e 33bf
00000290: 4ed7 0fbf 276b f6be 587f 29bf 87c6 83bd
000002a0: 2691 58be 6f49 59be 200b e1be 12a4 293d
000002b0: 4800 c0be 470c 9abf fe13 243d 607b 01bf
000002c0: 9fc4 8dbf 4375 2cbf 033f 3cbd efc1 ddbe
000002d0: b23a ddbe feb0 66bf eae8 a7be d25f d9be
000002e0: a152 cfbe d8da b7be 3200 08bf 0804 03bc
000002f0: d568 6abe e833 4ebe facc d8be 584a 86bd
00000300: c571 74bf 5e6c d1bd 8ba5 913d 85d8 3cbf
00000310: cc8e 98bd 10a1 b9be 81c1 19bf 8b74 47be
00000320: 1982 04bf 5605 03bd 996f 02bf 67b3 e3be
00000330: 5483 c6be 4eeb 44bf e1f8 69be 3598 1ebf
00000340: 404d cfbe d7dc 07bf 30d9 9c3d fac2 03bf
00000350: 6749 f7be 864b 00bf b7dc 23bf 33b2 05be
00000360: 9d5e d7be 9dff 80be 7887 1abf cc98 c5bd
00000370: 513b 9fbe 6e9a 9cbe faf3 07bf b1dd 02bf
00000380: 0b86 27bf 0ec7 fdbe 407c 32be 915f ffbe
00000390: 77d0 01bf edf4 3abf f5b5 f2be e731 e4bc
000003a0: 90ff 7fbf b7e2 17bf 73b0 98bf dbfa 6abf
000003b0: b3ca 0cbf afc4 033e f929 0ebf 9387 93be
000003c0: fa71 35bf 3d40 62bf 3fcc e73d 4285 1fbf
000003d0: 64e8 31bd 4b7c 08bf e4c0 89be 60f4 40bf
000003e0: cac7 c4bd 2a07 9dbe f9ac 5ebf db1a 31bf
000003f0: fe74 22bf dc3b 1cbf 9151 0dbe 84b2 2e3e

fc2.weight f4 [128, 256]
0.122155815 -0.40642267 -0.20835446 -0.0013698338 -0.1488636 -0.1497219 0.03323259 -0.06634339
0.17460632 -0.1930089 -0.41247538 0.07381235 -0.1277132 -0.0783552 -0.3164401 -0.3450929
0.13105473 -0.25070137 -0.097070344 0.17988823 -0.27390385 -0.21891086 0.14456062 -0.5383317
0.08217627 -0.13621435 -0.24478586 -0.45559603 -0.40999806 -0.23482218 -0.540648 0.18962201
-0.44509903 -0.2826614 0.24272858 -0.22358523 0.20292549 -0.0691479 -0.2588617 -0.074458234
-0.2059573 0.036277298 -0.026035776 -0.10488078 -0.0067882445 0.004758985 -0.6411437 -0.26739302
0.4172684 0.16633324 0.0047851307 -0.35698798 -0.25551832 -0.3572671 -0.16162567 -0.044823073
-0.27149907 0.14091416 -0.60439545 0.0016832199 0.024807543 -0.14139456 -0.112396814 0.016424924
-0.07869073 -0.2177293 -0.32352328 0.29073313 -0.14157684 0.2852558 0.052850906 0.27101326
-0.06007068 -0.19697908 -0.03463617 0.12771063 -0.0073675863 -0.30390903 -0.14712016 0.12833367
-0.06462402 -0.36311606 0.0611059 -0.0697315 -0.05388891 -0.07896751 -0.0010272316 -0.4225546
-0.19262365 -0.30764598 -0.2419809 0.07449751 -0.027028833 -0.049904384 -0.024857743 -0.17796455
0.009885759 0.011189438 -0.12794736 -0.11981873 0.068249226 -0.036007904 0.42689937 -0.15890913
-0.6003289 0.2505538 0.107475646 -0.18932155 -0.46836412 -0.027980197 -0.76175725 0.05502349
-0.6072439 0.121220686 -0.17785278 -0.30811453 0.2974606 0.27920985 0.16121264 0.033159282
-0.06264626 -0.31780985 -0.04414706 0.23990932 -0.0633718 0.45163238 -0.23071535 0.14299048
-0.2515566 -0.5749462 -0.46154597 -0.10379235 0.2569927 0.16100448 -0.5571631 -0.125918
-0.13773482 0.0077696745 0.09031956 -0.25439397 -0.29533002 0.085245445 -0.0961831 -0.24840839
0.11529272 0.27455074 -0.11969574 -0.109613016 -0.17142464 -0.07942244 -0.12236768 0.019014318
-0.2944796 -0.52400595 0.15316953 0.019139819 -0.29479778 -0.23073022 -0.98105645 -0.0533427
-0.17371583 0.14906855 -0.27525878 -0.04395323 -0.5050012 -0.07900302 0.007361257 -0.19934085
-0.038817495 -0.424427 0.001438621 0.09840961 -0.13640456 -0.050926995 0.19220367 -0.42975143
-0.22965367 -0.13484171 -0.45231324 0.018512374 0.020466061 0.21242417 0.19462374 -0.12712003
0.013163169 -0.20606251 -0.5043636 -0.4076558 -0.12141377 -0.30048227 -0.5247645 -0.17569649
-0.23049198 -0.388287 -0.09898676 0.003906693 -0.21727917 -0.09997915 -0.3180418 0.030323807
-0.19389093 0.05034199 -0.19360532 -0.25110635 -0.03034769 -0.016192952 -0.10076728 0.1839328
-0.21810572 -0.10652898 0.004508462 -0.5875933 -0.33897346 -0.55709183 -0.18153799 -0.18718013
-0.09479657 0.0032515086 0.29356232 -0.3306536 -0.124038436 -0.033998717 -0.3089311 -0.005304699
-0.060927153 -0.15144312 -0.056626435 -0.17638741 0.124307044 -0.097085476 -0.16680123 -0.068860285
0.36615503 0.13947776 0.35244548 -0.15245636 -0.5959354 -0.27751595 -0.110220484 -0.93166405
0.17441219 0.011698579 -0.2341485 -0.54331964 0.22387427 0.25593278 -0.16042843 -0.07276507
0.031662375 0.10974322 -0.099077195 -0.17433561 -0.5343844 -0.018431919 -0.16429037 -0.17188369
00000000: d42c fa3d a216 d0be df5a 55be ff8b b3ba
00000010: b36f 18be b350 19be e51e 083d 0bdf 87bd
00000020: 00cc 323e 20a4 45be f92f d3be ee2a 973d
00000030: 40c7 02be b178 a0bd 7004 a2be 04b0 b0be
00000040: 3633 063e ee5b 80be d1cc c6bd 9f34 383e
00000050: 203d 8cbe 2b2a 60be b307 143e 1bd0 09bf
00000060: 084c a83d c67b 0bbe 25a9 7abe e243 e9be
00000070: 44eb d1be 3a75 70be e867 0abf 462c 423e
00000080: 05e4 e3be ffb8 90be d78d 783e 87f3 64be
00000090: b3cb 4f3e 6a9d 8dbd 8589 84be 8f7d 98bd
000000a0: 78e6 52be 8197 143d fb48 d5bc bccb d6bd
000000b0: ec6f debb 42f1 9b3b fe21 24bf bde7 88be
000000c0: 34a4 d53e 4353 2a3e 96cc 9c3b 21c7 b6be
000000d0: 4cd3 82be b7eb b6be 3381 25be 6698 37bd
000000e0: ed01 8bbe cd4b 103e a9b9 1abf 7d9f dc3a
000000f0: 3039 cb3c bcc9 10be 4d30 e6bd 908d 863c
00000100: 9b28 a1bd 6ef4 5ebe d8a4 a5be f9da 943e
00000110: 85f9 10be 0c0d 923e 317a 583d 40c2 8a3e
00000120: ac0c 76bd e2b4 49be a8de 0dbd 93c6 023e
00000130: cb6b f1bb f799 9bbe aba6 16be e769 033e
00000140: 9959 84bd 59ea b9be 2e4a 7a3d 64cf 8ebd
00000150: 9eba 5cbd b8b9 a1bd 2ca4 86ba 1459 d8be
00000160: 223f 45be c683 9dbe d7c9 77be 2792 983d
00000170: 926b ddbc 8a68 4cbd 77a2 cbbc 573c 36be
00000180: e1f7 213c e853 373c a204 03be 8663 f5bd
00000190: 40c6 8b3d 067d 13bd 8e92 da3e 13b9 22be
000001a0: 28af 19bf 9648 803e 311c dc3d 82dd 41be
000001b0: 6ccd efbe ba36 e5bc 8602 43bf 5060 613d
000001c0: 5674 1bbf 8d42 f83d 0a1f 36be 30c1 9dbe
000001d0: c14c 983e 98f4 8e3e ed14 253e 07d2 073d
000001e0: af4c 80bd f9b7 a2be 8cd3 34bd caaa 753e
000001f0: 13c9 81bd 5c3c e73e a540 6cbe 196c 123e
00000200: 07cc 80be ad2f 13bf c14f ecbe 1591 d4bd
00000210: 8c94 833e 5cde 243e 3ea2 0ebf a6f0 00be
00000220: 5b0a 0dbe c198 fe3b 76f9 b83d ed3f 82be
00000230: 7f35 97be 2a95 ae3d a5fb c4bd c55e 7ebe
00000240: 971e ec3d ea91 8c3e 0a23 f5bd ca7c e0bd
00000250: f189 2fbe 3ba8 a2bd e89b fabd eac3 9b3c
00000260: 08c6 96be 4125 06bf 79d8 1c3e 1ccb 9c3c
00000270: bcef 96be 8b44 6cbe 8426 7bbf e07d 5abd
00000280: 90e2 31be 6da5 183e b8ee 8cbe 4d08 34bd
00000290: c247 01bf 56cc a1bd b336 f13b 0220 4cbe
000002a0: 18ff 1ebd 7f4e d9be 1c90 bc3a fa8a c93d
000002b0: a3ad 0bbe d398 50bd 0ad1 443e 6108 dcbe
000002c0: 552a 6bbe f213 0abe 9a95 e7be 43a7 973c
000002d0: 71a8 a73c b985 593e 724b 473e c12b 02be
000002e0: 55aa 573c 0d02 53be f91d 01bf 43b8 d0be
000002f0: c8a7 f8bd d0d8 99be f756 06bf c8e9 33be
00000300: 1706 6cbe 8ecd c6be 92b9 cabd b703 803b
00000310: 6e7e 5ebe dec1 ccbd 60d6 a2be a269 f83c
00000320: 588b 46be 6733 4e3d 7940 46be 0391 80be
00000330: b89b f8bc 15a7 84bc 135f cebd e158 3c3e
00000340: 1b57 5fbe de2b dabd b8bb 933b 846c 16bf
00000350: ee8d adbe 929d 0ebf 18e5 39be 26ac 3fbe
00000360: b424 c2bd 4317 553b cd4d 963e 6e4b a9be
00000370: dd07 febd 3d42 0bbd 382c 9ebe 0ad3 adbb
00000380: c08e 79bd e813 1bbe 1ff1 67bd e79e 34be
00000390: b194 fe3d c0d4 c6bd f1cd 2abe 9f06 8dbd
000003a0: ac78 bb3e 42d3 0e3e bc73 b43e 851d 1cbe
000003b0: 398f 18bf 9216 8ebe 47bb e1bd 8981 6ebf
000003c0: 1c99 323e 66ab 3f3c a0c4 6fbe ff16 0bbf
000003d0: 4c3f 653e 9f09 833e 5a47 24be da05 95bd
000003e0: 68b0 013d 0ec1 e03d fce8 cabd 0985 32be
000003f0: 6bcd 08bf 89fe 96bc bc3b 28be 4702 30be

fc2.bias f4 [128]
-0.07346699 -0.32169494 -0.4115517 -0.11365531 -0.25367618 -0.084783465 -0.1014258 -0.3004457
-0.14860892 -0.3047186 -0.33157018 -0.029035782 -0.1774353 -0.4180041 -0.3334014 -0.3212552
-0.24147561 0.021225328 -0.4470557 -0.22306326 -0.4704048 0.00605002 -0.1888789 -0.043401852
0.14266369 -0.1713998 -0.14767008 -0.26720166 -0.3680864 -0.14879979 -0.31822094 0.24963662
-0.24980049 -0.054297492 -0.48361528 -0.041912753 -0.15598728 -0.15682183 -0.00369225 -0.27602038
-0.30256635 0.11975359 -0.16978727 -0.26381332 -0.30619985 -0.13396391 -0.14993113 -0.3315411
-0.011253202 -0.56560665 -0.117343664 -0.65185446 0.00082832616 -0.061091654 -0.3223487 -0.19623163
-0.39532685 -0.37902194 -0.4865606 -0.26116064 -0.28340405 -0.39912385 -0.50542796 -0.24539092
0.14844674 -0.19133808 -0.021245478 -0.015667278 0.11597608 -0.47545668 -0.21403319 -0.46927172
-0.43564904 -0.33235705 -0.25507095 -0.18987325 -0.17881806 -0.016325822 -0.12719329 -0.36944947
0.044047847 -0.10067875 -0.3827323 -0.104830235 -0.310329 -0.24936947 -0.511243 -0.3499099
-0.1868483 -0.098584965 -0.3693263 -0.06428826 -0.1722291 -0.099297166 -0.047478717 -0.0795987
-0.33960053 -0.3283054 0.031361986 -0.41073436 -0.27884504 -0.17672895 -0.5006036 -0.36844486
-0.72027737 -0.16264378 -0.08711741 -0.13482782 -0.28565234 -0.07286242 -0.07549236 -0.30309755
-0.41398275 0.028992025 0.01960695 -0.10257695 -0.40658048 -0.27836666 -0.19970028 -0.3816778
-0.25481376 -0.33978662 -0.33138233 -0.35535294 -0.4018913 0.14407806 -0.1975344 -0.0014373441
00000000: dc75 96bd 33b5 a4be e8b6 d2be 1dc4 e8bd
00000010: d8e1 81be f4a2 adbd 54b8 cfbd 05d4 99be
00000020: f02c 18be 1404 9cbe 91c3 a9be 73dc edbc
00000030: 99b1 35be a204 d6be 97b3 aabe 907b a4be
00000040: 6245 77be bde0 ad3c 7ce4 e4be b26a 64be
00000050: e6d8 f0be 3f3f c63b 7869 41be 24c6 31bd
00000060: 6e16 123e 6e83 2fbe d336 17be a8ce 88be
00000070: d275 bcbe f95e 18be dbed a2be bea0 7f3e
00000080: b3cb 7fbe 0c67 5ebd 6c9c f7be b5ac 2bbd
00000090: 21bb 1fbe e795 20be adf9 71bb 8b52 8dbe
000000a0: fae9 9abe 5f41 f53d b7dc 2dbe 8a12 87be
000000b0: 3ac6 9cbe d62d 09be 8c87 19be c1bf a9be
000000c0: 5a5f 38bc 99cb 10bf e051 f0bd efdf 26bf
000000d0: 0724 593a 3e3b 7abd e40a a5be f2f0 48be
000000e0: 4868 cabe 2a0f c2be 791e f9be d9b6 85be
000000f0: 561a 91be f659 ccbe ba63 01bf c247 7bbe
00000100: 6c02 183e 21ee 43be ff0a aebc aa58 80bc
00000110: de84 ed3d 0f6f f3be 842b 5bbe 6244 f0be
00000120: 640d dfbe b42a aabe a998 82be 226e 42be
00000130: 151c 37be bbbd 85bc f53e 02be 7b28 bdbe
00000140: 846b 343d a930 cebd 7df5 c3be 3cb1 d6bd
00000150: 71e3 9ebe b65a 7fbe d2e0 02bf 6427 b3be
00000160: 2955 3fbe eae6 c9bd 5618 bdbe 90a9 83bd
00000170: d35c 30be 505c cbbd 0b79 42bd a504 a3bd
00000180: 1fe0 adbe a517 a8be 6d75 003d c64b d2be
00000190: c7c4 8ebe 6ff8 34be 8f27 00bf cea4 bcbe
000001a0: 1964 38bf 178c 26be 9d6a b2bd 4e10 0abe
000001b0: 0641 92be e438 95bd bd9b 9abd 9a2f 9bbe
000001c0: 8cf5 d3be af80 ed3c c19e a03c dd13 d2bd
000001d0: 512b d0be 1386 8ebe 3b7e 4cbe 466b c3be
000001e0: f376 82be 83f8 adbe f2aa a9be d2f0 b5be
000001f0: b2c4 cdbe 3389 133e 7546 4abe 4465 bcba

fc3.weight f4 [2, 128]
-0.2778375 0.33501562 0.06502241 0.07612361 0.07858953 -0.12434258 -0.122730054 0.74427897
-0.2664022 -0.22592804 0.46394375 0.15583932 0.36966494 0.13893306 0.004791182 0.120081775
-0.2700382 0.051108677 0.17281789 -0.19564414 0.2374691 0.30547443 -0.47153446 0.08923457
-0.25620982 -0.0029427654 0.059562463 0.17642957 -0.04617337 0.10835227 -0.12282106 -0.088997506
-0.32312065 0.2084185 -0.3681377 0.1840291 0.0652031 0.30603865 -0.06469212 0.36863846
0.3772726 -0.17877026 0.45157495 0.11710959 -0.30227727 0.2598415 0.040084798 -0.13529618
-0.03194351 0.08807066 -0.14096211 0.25386488 0.012924671 -0.030284503 0.0909635 0.16441841
-0.21258238 0.47436416 -0.14825225 0.4100854 -0.4724184 0.21745469 0.67585063 -0.09290197
-0.13872097 -0.035717297 0.24395691 0.17826992 0.012196661 -0.35206977 0.053509794 -0.37918666
-0.41772342 0.15447927 -0.13804623 -0.28303134 -0.20424336 0.05172383 -0.10773549 -0.68043166
-0.346953 -0.044261355 -0.22253355 0.038051516 -0.1686929 -0.11462774 0.2755207 0.4250798
0.005510181 -0.010404683 -0.22774908 0.019451678 -0.25501192 0.18294542 0.0018922958 0.042672645
0.41774634 -0.4691955 -0.036497112 0.46802977 -0.10127478 -0.31516176 -0.28623706 0.8736246
-0.13940859 -0.22625262 -0.10482064 -0.09466534 0.09739542 -0.006457733 0.07987307 0.10026248
0.8619104 0.11005314 0.10331378 0.4038731 0.49908906 -0.051952187 -0.39512125 0.6359375
-0.39362386 -0.03576464 -0.59646106 0.1176347 0.4927049 0.16711155 -0.37666008 0.032641273
-0.19396852 -0.28768215 0.199976 -0.2191111 0.58960146 -0.095733486 0.59446406 -0.13636394
-0.42895716 0.20873612 -0.10898849 0.120002724 -0.4804201 -0.9731966 0.13768315 -0.45307583
-0.059871804 0.49609244 0.25294647 -0.02451466 0.59417236 -0.37495914 -0.3726117 1.3145269
0.055538494 -0.47558093 0.35310903 -0.038393497 -0.07202191 0.08197653 -0.52098674 0.013092989
0.08691768 -0.56759864 -0.5710962 -0.80646527 -0.24726537 0.17051685 0.57530123 -0.52116364
-0.48954928 0.23810957 0.45527294 -0.79104775 -0.031224612 -0.44659212 0.47352317 -0.2927592
-0.6376489 0.81370866 0.16707732 0.3139432 0.16426985 -0.33560574 0.76149577 1.0828596
-0.48810953 0.32835832 0.29224002 0.12313538 -0.3116146 1.2598308 0.4351765 -1.2579854
-0.060869973 -0.17687395 -0.09577891 -0.06988164 0.34350437 0.6258364 -0.4267455 0.4545149
0.23837918 -1.2094632 -0.691612 0.37627494 0.42488793 0.39736336 -0.9662249 -0.36335823
-0.3557668 -0.5756868 -1.1652753 -0.0530498 0.08360338 0.2667473 0.83932734 0.880013
0.5151249 -0.18770698 -0.69833905 -0.3125992 -0.50877124 -0.32397598 -0.6240988 0.9117407
-0.9065505 0.14085218 0.0010888932 1.241141 0.27559328 -0.27044812 -0.13203861 -0.46806362
1.0707325 -0.12364383 -0.5428936 0.5417051 -0.0403815 -0.73791516 -1.0600408 0.39409262
0.56475526 0.739125 -0.13420786 0.7467714 -1.070994 -0.38884768 -0.489954 0.5047056
-0.33789828 0.23750122 0.17957237 0.38496885 -0.07776622 -0.08659091 0.21448602 1.0249486
00000000: b840 8ebe 2b87 ab3e 782a 853d b2e6 9b3d
00000010: 8cf3 a03d 53a7 febd e559 fbbd 1189 3e3f
00000020: df65 88be ae59 67be 098a ed3e 5894 1f3e
00000030: b944 bd3e 7844 0e3e 59ff 9c3b 6fed f53d
00000040: 7242 8abe 5557 513d 2cf7 303e f056 48be
00000050: 1a2b 733e 2567 9c3e f76c f1be 9dc0 b63d
00000060: ef2d 83be 69db 40bb c5f7 733d f4a9 343e
00000070: 4a20 3dbd cce7 dd3d 9c89 fbbd 5344 b6bd
00000080: 1270 a5be a96b 553e 8b7c bcbe 2072 3c3e
00000090: 3489 853d 19b1 9c3e 4d7d 84bd 2ebe bc3e
000000a0: e029 c13e 8d0f 37be d534 e73e 27d7 ef3d
000000b0: 16c4 9abe f209 853e f52f 243d 158b 0abe
000000c0: 33d7 02bd 645e b43d 5f58 10be 94fa 813e
000000d0: 00c2 533c 3517 f8bc 124b ba3d 4d5d 283e
000000e0: 32af 59be dcdf f23e 70cf 17be b7f6 d13e
000000f0: d3e0 f1be 71ac 5e3e 8c04 2d3f 6343 bebd
00000100: df0c 0ebe 4d4c 12bd d7cf 793e 648c 363e
00000110: 81d4 473c 7d42 b4be 162d 5b3d c124 c2be
00000120: d8df d5be d02f 1e3e fe5b 0dbe 7ce9 90be
00000130: 2c25 51be 5edc 533d 6da4 dcbd c530 2ebf
00000140: d3a3 b1be 654b 35bd d6df 63be e8db 1b3d
00000150: d5bd 2cbe f3c1 eabd 0d11 8d3e 0fa4 d93e
00000160: c08e b43b 6778 2abc 0e37 69be 2059 9f3c
00000170: ec90 82be 0b56 3b3e e906 f83a 83c9 2e3d
00000180: d9e2 d53e 643a f0be ff7d 15bd 99a1 ef3e
00000190: 2769 cfbd e25c a1be aa8d 92be dda5 5f3f
000001a0: 20c1 0ebe c4ae 67be 34ac d6bd e7df c1bd
000001b0: 4077 c73d 649b d3bb 7e94 a33d 6a56 cd3d
000001c0: 29a6 5c3f 8a63 e13d 2d96 d33d 74c8 ce3e
000001d0: 9a88 ff3e d1cb 54bd 554d cabe cdcc 223f
000001e0: 1189 c9be f17d 12bd acb1 18bf 76ea f03d
000001f0: d143 fc3e 4a1f 2b3e 97d9 c0be dbb2 053d
00000200: af9f 46be 134b 93be 82c6 4c3e a95e 60be
00000210: 1ff0 163f eb0f c4bd cc2e 183f fda2 0bbe
00000220: 46a0 dbbe ecbe 553e 5c35 dfbd fdc3 f53d
00000230: a0f9 f5be 6a23 79bf d0fc 0c3e 8ef9 e7be
00000240: 233c 75bd d4ff fd3e 3382 813e f8d2 c8bc
00000250: ae1b 183f a5fa bfbe f6c6 bebe 6b42 a83f
00000260: 557c 633d 587f f3be b5ca b43e 8042 1dbd
00000270: 3980 93bd 50e3 a73d 635f 05bf fa83 563c
00000280: e601 b23d 254e 11bf 5c33 12bf 8274 4ebf
00000290: 2233 7dbe f89b 2e3e f146 133f fb6a 05bf
000002a0: 34a6 fabe ffd2 733e 8919 e93e 1b82 4abf
000002b0: c2ca ffbc b9a7 e4be a171 f23e 89e4 95be
000002c0: f53c 23bf 364f 503f 5116 2b3e 2abd a03e
000002d0: 5b36 283e 84d4 abbe 63f1 423f 259b 8a3f
000002e0: 7ee9 f9be 951e a83e 7ca0 953e 672e fc3d
000002f0: f38b 9fbe 2342 a13f 74cf de3e aa05 a1bf
00000300: cb52 79bd 721e 35be bc27 c4bd 1b1e 8fbd
00000310: cedf af3e d036 203f 637e dabe 2db6 e83e
00000320: ac19 743e b1cf 9abf 7c0d 31bf 1ca7 c03e
00000330: e98a d93e 3673 cb3e 845a 77bf 170a babe
00000340: 1127 b6be 3660 13bf be27 95bf bf4a 59bd
00000350: 4038 ab3d 1a93 883e 28de 563f 8848 613f
00000360: 3adf 033f 4236 40be 59c6 32bf 010d a0be
00000370: d53e 02bf 2ee0 a5be f0c4 1fbf d767 693f
00000380: b213 68bf 8e3b 103e 31b9 8e3a b5dd 9e3f
00000390: 901a 8d3e 2d78 8abe 2135 07be 09a6 efbe
000003a0: c30d 893f fa38 fdbd 13fb 0abf 2fad 0a3f
000003b0: 1267 25bd 02e8 3cbf 6baf 87bf 82c6 c93e
000003c0: cd93 103f 4c37 3d3f c96d 09be 692c 3f3f
000003d0: 5516 89bf 0b17 c7be 40db fabe 6334 013f
000003e0: 0101 adbe 8533 733e d2e1 373e a31a c53e
000003f0: e543 9fbd 9356 b1bd 39a2 5b3e 8431 833f

fc3.bias f4 [2]
0.033093322 0.12781473
00000000: dd8c 073d dde1 023e

bn1.weight f4 [256]
1.0912123 1.0336046 1.0456594 1.1513422 1.2535675 0.050630182 1.0266361 1.0971783
0.7019255 0.8408528 1.5712388 1.0765563 0.8504914 0.8594573 1.1508112 0.90383804
1.3602096 0.3303491 0.83834165 1.1788182 0.32642275 1.051806 1.3532888 1.2729073
0.9173349 0.635982 0.8269325 0.93061256 0.8389499 0.93017566 0.8220732 0.75435144
1.1867408 0.5428627 1.12116 0.83481693 0.9037303 0.10519791 0.81394297 1.0627518
1.6041713 0.7720906 0.56502986 1.3580425 0.71931714 0.8817566 0.7775345 1.188976
0.75167775 0.81639874 0.9296308 0.66869855 0.5877741 0.58510536 0.16554594 0.5178453
1.1514839 1.0463544 0.49520376 1.1461835 0.6754403 0.5749808 1.0252209 0.7826672
0.9634213 1.0635779 1.2724464 0.5301838 0.9176768 0.821801 1.0260943 1.0821433
0.7498302 0.7834907 0.9400079 0.6952558 1.1663457 0.948482 0.8781811 0.70747006
0.8690627 1.5311342 0.9763153 1.1190317 0.4428754 1.0489268 0.47059074 0.95483726
1.0615201 0.9725905 0.91732156 0.95680636 0.69332224 1.0914547 0.30814874 1.0740111
0.7439202 0.79110557 0.73382413 1.3452494 0.78295624 0.78900397 1.323315 1.4253242
0.8279675 0.3582588 1.2215563 1.2743673 0.9708664 0.8069597 0.44258258 1.0030226
1.0323735 0.3839109 0.6884467 0.9132248 1.4379965 0.34745708 0.82516855 0.4234171
1.0756147 0.4470808 0.84321344 1.2028966 0.8873293 1.4172267 0.68589437 1.4711154
1.247305 0.8427445 0.5383638 0.4537952 1.1745623 1.1497574 0.6393533 0.41117394
0.9541172 1.2611368 0.7557862 0.8860374 0.586847 0.51594 0.69214624 1.2772772
0.57101846 0.879546 0.73002905 1.0622648 1.0058409 1.0503628 0.9075427 0.34407482
0.5063799 0.93142104 1.1499375 0.8649258 0.75298876 1.2595575 1.0108598 1.1083634
0.7414338 1.1836593 1.2179227 0.72810674 1.1193595 0.9516584 0.57735467 1.0453949
0.64620596 0.9864267 0.869931 0.72710145 0.7777756 1.6273263 0.37697196 0.6112431
0.9222203 0.8486687 -0.015124982 0.78747743 0.97925675 0.8542231 1.2323065 0.6152429
0.9207366 1.005488 1.0132847 0.98475295 0.6278653 0.45417216 0.67693573 1.0322542
0.7156423 0.13680033 0.30974737 0.4137296 0.47407135 0.98718023 0.8649854 0.8401164
1.3283057 0.9051025 0.20982783 0.7029965 0.8979924 0.7452846 0.5680869 0.74435383
1.0563159 1.4579344 0.28227362 0.8628378 0.7991864 0.9152647 0.96695364 0.8166839
0.39963704 0.8757592 1.2600025 0.5763757 0.7606015 0.6509035 0.38472039 0.92678857
0.92207515 1.1332456 0.86753905 1.1888878 0.9597737 0.95998484 0.88934505 1.1805727
0.64165246 0.9868435 1.0181442 0.60366714 1.3681601 0.39319426 1.3019676 0.92443055
0.8072611 0.96791536 1.0887324 1.0774264 1.0764434 0.6830762 0.4417673 0.31520987
0.20801373 0.66205525 1.1354495 0.76477826 0.57898986 0.47897464 0.980105 0.50404423
00000000: d8ac 8b3f 284d 843f 2bd8 853f 2e5f 933f
00000010: e674 a03f 9861 4f3d d068 833f 5770 8c3f
00000020: 64b1 333f 2142 573f 5a1e c93f 99cc 893f
00000030: ceb9 593f 6505 5c3f c84d 933f ee61 673f
00000040: 591b ae3f 8423 a93e 8f9d 563f 84e3 963f
00000050: e220 a73e 94a1 863f 9138 ad3f a0ee a23f
00000060: 76d6 6a3f b7cf 223f d9b1 533f a03c 6e3f
00000070: 6cc5 563f fe1f 6e3f 6473 523f 2d1d 413f
00000080: 1fe7 973f 0df9 0a3f 2c82 8f3f 90b6 553f
00000090: de5a 673f 0072 d73d 915e 503f 4008 883f
000000a0: 7c55 cd3f bba7 453f cca5 103f 56d4 ad3f
000000b0: 2b25 383f cdba 613f 800c 473f 5e30 983f
000000c0: f46d 403f 82ff 503f 49fc 6d3f d42f 2b3f
000000d0: 5d78 163f 77c9 153f e084 293e 8291 043f
000000e0: d363 933f f1ee 853f 598b fd3e 24b6 923f
000000f0: a8e9 2c3f f131 133f 703a 833f e15c 483f
00000100: c7a2 763f 5223 883f 86df a23f 20ba 073f
00000110: deec 6a3f 8d61 523f 0f57 833f ac83 8a3f
00000120: dff4 3f3f d992 483f 5ca4 703f 49fc 313f
00000130: d14a 953f b7cf 723f 7ad0 603f c21c 353f
00000140: e57a 5e3f 35fc c33f cdef 793f 6e3c 8f3f
00000150: 90c0 e23e 3c43 863f 45f1 f03e 3770 743f
00000160: e4df 873f b1fb 783f 96d5 6a3f 43f1 743f
00000170: 917d 313f cab4 8b3f acc5 9d3e 3279 893f
00000180: 8e71 3e3f e585 4a3f e6db 3b3f 2231 ac3f
00000190: d26f 483f 2afc 493f 6362 a93f 0671 b63f
000001a0: aef5 533f b36d b73e f55b 9c3f 781e a33f
000001b0: b38a 783f e994 4e3f 2f9a e23e 0b63 803f
000001c0: d124 843f f88f c43e 0b3e 303f 1ac9 693f
000001d0: 4510 b83f e5e5 b13e 3f3e 533f 20ca d83e
000001e0: bead 893f c6e7 e43e d6dc 573f 84f8 993f
000001f0: 0328 633f af67 b53f c696 2f3f 824d bc3f
00000200: b1a7 9f3f 1bbe 573f 36d2 093f d857 e83e
00000210: 0f58 963f 402b 933f a8ac 233f 6485 d23e
00000220: 0641 743f ee6c a13f 347b 413f 59d3 623f
00000230: 9b3b 163f a514 043f 7f30 313f d27d a33f
00000240: 442e 123f ed29 613f 2fe3 3a3f 4bf8 873f
00000250: 65bf 803f 4a72 863f b854 683f 932a b03e
00000260: 1da2 013f 9c71 6e3f 2731 933f c76b 5d3f
00000270: dfc3 403f 2e39 a13f db63 813f dade 8d3f
00000280: 9bce 3d3f 2682 973f e4e4 9b3f 3465 3a3f
00000290: 2c47 8f3f e39f 733f 84cd 133f 80cf 853f
000002a0: c16d 253f 7686 7c3f ccb3 5e3f 5223 3a3f
000002b0: 4d1c 473f 3a4c d03f 7802 c13e 6e7a 1c3f
000002c0: a116 6c3f 5a42 593f c6ce 77bc 1f98 493f
000002d0: 92b0 7a3f 5dae 5a3f 38bc 9d3f 8f80 1d3f
000002e0: 65b5 6b3f d5b3 803f 50b3 813f c518 7c3f
000002f0: c8bb 203f 4189 e83e a94b 2d3f e820 843f
00000300: 5534 373f 6315 0c3e 3597 9e3e 5ed4 d33e
00000310: 7bb9 f23e d8b7 7c3f af6f 5d3f de11 573f
00000320: ec05 aa3f ccb4 673f 1bdd 563e 94f7 333f
00000330: d4e2 653f f9ca 3e3f 256e 113f f98d 3e3f
00000340: 5c35 873f 989d ba3f 2b86 903e f0e2 5c3f
00000350: 7b97 4c3f ca4e 6a3f 468a 773f 3212 513f
00000360: 3a9d cc3e c131 603f c347 a13f 5c8d 133f
00000370: c8b6 423f 9da1 263f 12fa c43e 0442 6d3f
00000380: 1e0d 6c3f 310e 913f 0a17 5e3f 7a2d 983f
00000390: bbb3 753f 91c1 753f 1eac 633f 021d 973f
000003a0: 5643 243f c7a1 7c3f 8d52 823f ee89 1a3f
000003b0: df1f af3f c250 c93e e0a6 a63f 7ba7 6c3f
000003c0: aaa8 4e3f 4dc9 773f 955b 8b3f 1ce9 893f
000003d0: e6c8 893f 15de 2e3f 532f e23e 3063 a13e
000003e0: 8d01 553e 747c 293f 6956 913f 82c8 433f
000003f0: ae38 143f 2a3c f53e 29e8 7a3f 0b09 013f

bn1.bias f4 [256]
-0.12811296 -0.019288577 0.015872488 -0.026251815 0.42915553 -0.012490411 -0.007920395 0.47624093
-0.29670307 0.02824174 0.7206568 0.14337951 -0.00069165893 0.26543748 -0.12857151 -0.0653194
0.10231009 0.078666225 0.7264136 -0.047765218 -0.24179678 0.13129869 -0.10812486 0.9059795
0.44638363 -0.018084956 -0.08678045 0.12548134 0.4756009 0.425342 0.3355471 0.20414525
0.5748846 0.10051142 0.13581985 0.46729535 0.21746804 -0.26740018 0.14760332 -0.0048134616
0.057459187 0.7558796 -0.040345684 0.1701108 0.1773411 0.3806812 0.46216872 0.15681449
0.42454046 0.22829057 0.6284152 -0.38032392 -0.21888053 0.6615034 -0.18659085 0.4043962
0.09549153 -0.011716479 0.50463164 -0.1852061 -0.30116937 0.122610964 0.08786413 -0.32249898
-0.29895958 -0.113754384 0.43971527 -0.18680237 0.06070761 0.18875411 0.0046711885 -0.10775344
-0.021523595 0.5199849 0.53124326 0.5760092 0.0045183953 -0.10172819 0.64783967 0.1318476
0.01780645 -0.14602645 0.33039868 0.1743359 0.082232915 0.16881908 -0.60510975 0.27585194
-0.019372432 -0.18772103 0.4184669 -0.22669408 0.3454071 0.600835 -0.046909206 -0.20543815
-0.09665593 -0.10901055 -0.13890049 0.03616112 -0.06551157 0.017917318 0.45067164 -0.022844601
0.50560373 -0.118765295 -0.04604318 -0.029243052 0.116395466 0.07780036 0.23731989 -0.06568703
0.24572295 0.041055527 0.5483108 0.41210893 0.25966558 0.054659113 0.19981705 0.071142845
-0.31025308 -0.086292684 -0.38788003 -0.025999295 -0.24537504 0.025819696 0.6215867 0.046594426
-0.07931859 0.43114287 0.5242526 0.08199565 0.21365398 -0.015958501 0.4452125 0.65220046
-0.10931695 -0.0031281386 -0.18504477 -0.06978124 -0.050412796 -0.45342025 0.18157074 0.010323831
0.74515504 -0.13217224 0.41606775 0.50064266 0.33913562 -0.07171695 0.16392998 -0.31480822
0.7338052 0.2509096 -0.13767007 0.15288201 0.3838327 0.16838841 0.42677194 -0.0719999
-0.27863768 -0.16926922 -0.19746053 -0.4457298 0.12886652 0.32307276 -0.35216495 0.08484922
0.29243982 0.31972706 0.48968628 0.58687395 -0.0030006226 -0.015333315 0.43039834 -0.075542085
-0.29043412 -0.006245721 0.054719474 0.41359892 0.004877245 0.46525252 0.044084363 0.21301615
-0.02212006 0.3015499 0.24060273 0.4734684 0.22948067 0.64327615 0.3877104 0.36531907
-0.061526585 0.03423802 0.057363104 -0.10555676 0.05289945 0.5966897 -0.29250404 0.2887431
-0.26912847 -0.09796664 -0.31114736 0.19601424 0.30704302 -0.24418786 0.31527176 0.14361063
0.16714248 0.0057084956 0.005681073 0.70090276 0.15210612 0.34450924 0.43013048 0.32809138
0.053867504 0.32387346 0.45899037 0.60440105 0.027220102 0.52930105 -0.3808369 0.1312432
0.09425105 0.37084106 0.5701343 -0.027312689 -0.015050702 -0.09202784 0.37284288 -0.018074712
0.02116343 -0.18667625 0.13885826 -0.15003271 0.44007152 0.48925713 0.09749309 0.4508066
-0.29590997 -0.1505742 0.37166885 0.021800507 -0.16701369 -0.4063466 -0.21909966 0.12622271
0.41935685 -0.015317368 -0.059947517 0.10445877 0.018612577 -0.4982815 -0.0910571 0.64186823
00000000: 0b30 03be 1403 9ebc 0507 823c 0c0e d7bc
00000010: 46ba db3e 95a4 4cbc 8bc4 01bc dad5 f33e
00000020: 77e9 97be 395b e73c f77c 383f 14d2 123e
00000030: 7250 35ba 6ce7 873e 40a8 03be 2dc6 85bd
00000040: f487 d13d c21b a13d 3ef6 393f 76a5 43bd
00000050: 9399 77be 2a73 063e 9170 ddbd 46ee 673f
00000060: 658c e43e e726 94bc f3b9 b1bd 2e7e 003e
00000070: f681 f33e 6dc6 d93e d4cc ab3e 740b 513e
00000080: a32b 133f eed8 cd3d 5c14 0b3e 5641 ef3e
00000090: f1af 5e3e ade8 88be 5325 173e 3eba 9dbb
000000a0: 535a 6b3d 5381 413f 8441 25bd 8731 2e3e
000000b0: e898 353e a5e8 c23e 61a1 ec3e fa93 203e
000000c0: 5e5d d93e 01c5 693e d2df 203f d1b9 c2be
000000d0: 3822 60be 4958 293f ac11 3fbe 050d cf3e
000000e0: 1091 c33d 7af6 3fbc 8a2f 013f aba6 3dbe
000000f0: df32 9abe 751b fb3d 1cf2 b33d 961e a5be
00000100: 3b11 99be 0ff8 e8bd 5c22 e13e 1f49 3fbe
00000110: 8ba8 783d c248 413e c510 993b d6ad dcbd
00000120: 4052 b0bc bb1d 053f 8fff 073f 5775 133f
00000130: 0c0f 943b df56 d0bd d2d8 253f 0f03 073e
00000140: d5de 913c f587 15be 042a a93e 1c85 323e
00000150: bb69 a83d e9de 2c3e 79e8 1abf 773c 8d3e
00000160: efb2 9ebc f139 40be 4b41 d63e 7e22 68be
00000170: 33d9 b03e 53d0 193f de23 40bd 615e 52be
00000180: 8bf3 c5bd ec40 dfbd ee3b 0ebe af1d 143d
00000190: ee2a 86bd 57c7 923c 6fbe e63e 9a24 bbbc
000001a0: 3f6f 013f 383b f3bd c697 3cbd 208f efbc
000001b0: bf60 ee3d cc55 9f3d fc03 733e ec86 86bd
000001c0: cc9e 7b3e d729 283d 195e 0c3f f1ff d23e
000001d0: e3f2 843e 3ce2 5f3d d79c 4c3e 57b3 913d
000001e0: 7ed9 9ebe 38ba b0bd 3698 c6be 79fc d4bc
000001f0: 9843 7bbe d483 d33c 4e20 1f3f ccd9 3e3d
00000200: c971 a2bd c2be dc3e 6b35 063f 56ed a73d
00000210: 1cc8 5a3e 67bb 82bc e5f2 e33e 9cf6 263f
00000220: 91e1 dfbd 7501 4dbb 607c 3dbe 77e9 8ebd
00000230: a67d 4ebd b326 e8be aeed 393e 4925 293c
00000240: 7bc2 3e3f 2958 07be d506 d53e 1e2a 003f
00000250: 2fa3 ad3e 56e0 92bd 43dd 273e 8b2e a1be
00000260: a8da 3b3f 3977 803e 62f9 0cbe 1a8d 1c3e
00000270: b885 c43e 036e 2c3e da81 da3e af74 93bd
00000280: 99a9 8ebe e954 2dbe 1833 4abe b236 e4be
00000290: 96f5 033e cb69 a53e f74e b4be 6ec5 ad3d
000002a0: acba 953e 44b3 a33e 29b8 fa3e 5f3d 163f
000002b0: 18a6 44bb 9638 7bbc 2c5d dc3e cfb5 9abd
000002c0: c8b3 94be e8a8 ccbb 8721 603d 3dc3 d33e
000002d0: 4cd1 9f3b 9435 ee3e ce91 343d e820 5a3e
000002e0: 2135 b5bc c064 9a3e 9060 763e 736a f23e
000002f0: fbfc 6a3e bfad 243f fa81 c63e 1a0b bb3e
00000300: 4d03 7cbd 2b3d 0c3d 93f5 6a3d 252e d8bd
00000310: 18ad 583d a8c0 183f 17c3 95be 23d6 933e
00000320: 35cb 89be bca2 c8bd b54e 9fbe f5b7 483e
00000330: be34 9d3e 620c 7abe 4d6b a13e aa0e 133e
00000340: 6627 2b3e 550e bb3b 4b28 ba3b 5d6e 333f
00000350: b5c1 1b3e 8463 b03e 103a dc3e 98fb a73e
00000360: 2ca4 5c3d bed2 a53e c900 eb3e 07ba 1a3f
00000370: b1fc de3c 4680 073f 0efd c2be 9e64 063e
00000380: b206 c13d e1de bd3e 52f4 113f dcbe dfbc
00000390: 3897 76bc 1879 bcbd 43e5 be3e 6b11 94bc
000003a0: ee5e ad3c 0f28 3fbe dc30 0e3e 2da2 19be
000003b0: 0e51 e13e e97f fa3e 75aa c73d 1fd0 e63e
000003c0: 8381 97be 2030 1abe 614b be3e fa96 b23c
000003d0: a305 2bbe a90c d0be a95b 60be 8740 013e
000003e0: f1b5 d63e b3f5 7abc 878b 75bd 7bee d53d
000003f0: 6779 983c c11e ffbe 257c babd 7a51 243f

bn1.running_mean f4 [256]
6.540006 4.8782425 0.02035532 0.006752945 10.447512 13.419695 6e-45 1.1170645
2.381288 2.541477 0.7228635 4.627419 6e-45 9.087772 17.129602 19.287529
8.366272 6.554266 5.176667 0.009429922 14.864063 0.66528255 0.3433522 1.1398135
2.649888 0.66498566 4.826024 1.10273 0.5045687 0.52520853 1.8147178 3.9142065
0.22507142 2.7288353 0.7688679 1.7811846 0.75601405 22.434582 1.2758026 4.430378
1.0173688 2.4285648 1.9883225 10.757426 0.6864182 3.9979393 2.1700625 2.1523743
3.1669896 0.86239904 2.1558247 0.9445853 2.5787976 16.827984 0.26667315 6.0938296
1.5871304 2.3697736 2.8689892 6e-45 0.3817936 4.122789 0.65008837 6e-45
0.2104422 16.471226 0.36873505 8.907226 3.9042866 1.7781382 6e-45 0.14726031
6.370686 4.138978 1.4947112 6.1667743 1.4955437 1.8510097 8.111372 6e-45
6e-45 0.9094256 9.98538 0.26232654 0.37777808 6e-45 7.1527343 0.44349006
1.0665325 1.239531 0.70341396 0.4208536 5.446999 0.3920839 7.0494323 3.870237
3.4658656 0.018100027 5.278891 11.57723 0.5399856 0.03288503 0.023639401 1.2676882
4.960343 7.514731 0.7437419 2.921435 8.737023 0.030726794 2.8918593 7.667175
0.5038923 2.556228 0.3973082 2.5893977 0.82511663 9.331282 0.5793038 3.8564775
0.3054314 0.81952584 15.348823 6e-45 5.4829607 0.35141313 7.167404 0.51840085
0.43559423 1.1844599 1.0621558 1.6681031 1.4725904 10.465524 2.759624 3.198003
10.371055 0.160726 8.945444 0.1470408 16.186789 21.21562 3.2607422 2.0768597
5.447893 2.544464 0.00052461337 2.0927413 0.2201931 4.2956557 1.1089499 0.81718487
2.1629412 1.9250813 4.0941505 7.018009 1.6575439 2.4311945 2.185947 4.518897
15.134116 11.519645 1.1763281 3.3902464 1.0478144 2.5373662 0.5276532 1.7803013
6.9638214 2.864539 2.0075552 3.5701282 6e-45 14.233757 4.794141 9.507548
0.7555974 0.69415 10.287979 6e-45 6e-45 3.6107047 4.5948057 0.9238427
0.27502188 0.07849 0.49989292 0.29388326 1.6635544 1.6620623 2.5043411 1.2364328
0.0019024774 15.905804 9.286958 0.0012584982 1.1690762 6e-45 5.4068494 8.93134
1.2420437 11.767538 7.8194013 3.3836167 0.31988284 8.937155 3.0807576 2.6995428
3.6859245 2.0554812 0.19055046 0.9128261 1.2116008 4.336224 6e-45 1.5673261
0.78914 1.4806733 0.8745103 8.029078 0.26443824 2.7024958 8.116635 0.106460266
1.7449619 2.631806 1.0654764 4.460243 3.3651102 0.51681566 1.3598388 11.315544
3.2011068 6e-45 0.14954123 19.227293 1.2206179 10.300953 0.9096722 4.3069963
5.487325 5.6789327 4.708511 3.767824 1.5243798 0.18751183 7.038994 0.91385376
4.583243 3.9655263 12.901594 2.870247 2.061057 1.6192639 8.5938 12.658568
00000000: bb47 d140 901a 9c40 33c0 a63c cf47 dd3b
00000010: 0229 2741 12b7 5641 0400 0000 f8fb 8e3f
00000020: 0667 1840 8fa7 2240 950d 393f d113 9440
00000030: 0400 0000 8467 1141 6d09 8941 dc4c 9a41
00000040: 40dc 0541 8cbc d140 42a7 a540 f67f 1a3c
00000050: 34d3 6d41 f54f 2a3f dccb af3e 69e5 913f
00000060: c497 2940 803c 2a3f ca6e 9a40 4226 8d3f
00000070: 6a2b 013f 1174 063f ac48 e83f 5c82 7a40
00000080: 1f79 663e 3da5 2e40 87d4 443f dbfd e33f
00000090: 238a 413f 067a b341 804d a33f a8c5 8d40
000000a0: 2439 823f 9b6d 1b40 5a81 fe3f 6b1e 2c41
000000b0: 1ab9 2f3f 3dde 7f40 4ee2 0a40 80c0 0940
000000c0: f5af 4a40 2fc6 5c3f 08f9 0940 58d0 713f
000000d0: 050b 2540 b69f 8641 6289 883e a700 c340
000000e0: 1727 cb3f 5faa 1740 859d 3740 0400 0000
000000f0: 737a c33e e3ed 8340 316c 263f 0400 0000
00000100: 297e 573e 12c5 8341 d7ca bc3e ff83 0e41
00000110: d5df 7940 089a e33f 0400 0000 68cb 163e
00000120: a9dc cb40 8272 8440 b252 bf3f 3756 c540
00000130: fa6d bf3f e3ed ec3f 2ec8 0141 0400 0000
00000140: 0400 0000 1ed0 683f 1ec4 1f41 aa4f 863e
00000150: 216c c13e 0400 0000 33e3 e440 2111 e33e
00000160: 2384 883f f4a8 9e3f f012 343f 207a d73e
00000170: d14d ae40 39bf c83e f394 e140 f7b1 7740
00000180: bed0 5d40 8246 943c adec a840 563c 3941
00000190: 7f3c 0a3f 74b2 063d 6ba7 c13c 9b43 a23f
000001a0: 21bb 9e40 ad78 f040 df65 3e3f cbf8 3a40
000001b0: d9ca 0b41 c2b6 fb3c 3914 3940 7f59 f540
000001c0: 16ff 003f 3d99 2340 fb6b cb3e b1b8 2540
000001d0: d83a 533f ee4c 1541 414d 143f 87d0 7640
000001e0: 8161 9c3e 72cc 513f c794 7541 0400 0000
000001f0: 6a74 af40 6cec b33e 605b e540 ebb5 043f
00000200: 3506 df3e 629c 973f b9f4 873f 6784 d53f
00000210: d87d bc3f c972 2741 ae9d 3040 15ac 4c40
00000220: d7ef 2541 5b95 243e 8a20 0f41 dd91 163e
00000230: 8b7e 8141 97b9 a941 00b0 5040 45eb 0440
00000240: 2455 ae40 80d8 2240 3586 093a 79ef 0540
00000250: 4d7a 613e 0376 8940 12f2 8d3f 0733 513f
00000260: a16d 0a40 1069 f63f 4803 8340 8893 e040
00000270: 662a d43f b198 1b40 8ee6 0b40 ce9a 9040
00000280: 5725 7241 7750 3841 eb91 963f ccf9 5840
00000290: c81e 863f 3564 2240 4814 073f eae0 e33f
000002a0: a0d7 de40 9b54 3740 c97b 0040 fb7c 6440
000002b0: 0400 0000 78bd 6341 9a69 9940 eb1e 1841
000002c0: d56e 413f d0b3 313f 909b 2441 0400 0000
000002d0: 0400 0000 c915 6740 a608 9340 f580 6c3f
000002e0: abcf 8c3e 5dbf a03d f7f1 ff3e de77 963e
000002f0: 5aef d43f 75be d43f 2047 2040 6e43 9e3f
00000300: 8c5c f93a 2c7e 7e41 6197 1441 31f4 a43a
00000310: 4aa4 953f 0400 0000 e904 ad40 c5e6 0e41
00000320: 4afb 9e3f d647 3c41 8938 fa40 2d8d 5840
00000330: afc7 a33e 96fe 0e41 222b 4540 4fc5 2c40
00000340: 30e6 6b40 018d 0340 a91f 433e f9ae 693f
00000350: bc15 9b3f 59c2 8a40 0400 0000 249e c83f
00000360: 1405 4a3f b486 bd3f e8df 5f3f 1a77 0041
00000370: 7364 873e b1f5 2c40 bddd 0141 d707 da3d
00000380: e95a df3f 826f 2840 8861 883f 50ba 8e40
00000390: f75d 5740 084e 043f 330f ae3f 780c 3541
000003a0: efde 4c40 0400 0000 5621 193e 7fd1 9941
000003b0: 353d 9c3f b4d0 2441 47e0 683f ead2 8940
000003c0: 2b98 af40 d1b9 b540 1fac 9640 0724 7140
000003d0: e11e c33f 1a03 403e 703f e140 52f2 693f
000003e0: eda9 9240 2fcb 7d40 ee6c 4e41 20b2 3740
000003f0: 5ce8 0340 0a44 cf3f 3480 0941 7f89 4a41
