checkpoints/maddpg/maddpg0_checkpoint_critic_target.pth (torch, 474855 bytes, 13 tensors)

fc1.weight f4 [256, 52]
000000 cc 79 17 3f 43 7c 9d be 5f 0c 76 3e d4 43 f7 bd
       0.5917022 -0.30758867 0.24028157 -0.12073484
000010 4c 89 17 be 50 f3 41 bf 53 be 5c 3e 27 1f 35 be
       -0.14798468 -0.7576189 0.21556978 -0.17687665
000020 0b 7e 14 3f 99 1d 3a bf 46 25 1a bd 2e 12 80 bf
       0.58004826 -0.7270141 -0.037633203 -1.0005548
000030 f8 d7 2f be e4 f0 9b be cc 45 c4 3b 60 5a 7a bf
       -0.1717223 -0.30457222 0.0059897657 -0.9779415
000040 e4 2f 36 3e 5b e8 6a bf b3 77 81 3d 88 26 80 be
       0.17791706 -0.91760796 0.06321659 -0.25029397
000050 4d e9 77 3e c9 d7 b5 3e 4a 85 d0 3d 02 41 be be
       0.24210091 0.35516194 0.10181673 -0.37158972
000060 e5 f2 ab 3f 97 e9 6b be 06 93 1b be 58 81 84 3e
       1.34335 -0.23038326 -0.15192804 0.2587993
000070 9e 12 ca 3d 7d 9e 25 bf e8 d7 92 bd a9 2b a2 3e
       0.09866832 -0.6469496 -0.07170087 0.31673935
000080 d8 24 91 3f 3e 00 b6 bd d2 7d 6f be cd b1 eb 3e
       1.1339369 -0.08886765 -0.2338784 0.4603409
000090 62 c6 5f 3e 27 41 8f be c8 3e 9f be 2e 30 fe 3e
       0.21853021 -0.27979395 -0.31102586 0.49646133
0000a0 9c 66 12 3f e7 ce b3 be 4a 1d b1 be 92 12 84 be
       0.5718782 -0.3511879 -0.34592658 -0.25795418
0000b0 40 1f 02 be 12 75 01 3f fb d6 9c be 59 2d 15 be
       -0.12707233 0.5056926 -0.30632767 -0.1456808
0000c0 55 eb 86 c0 82 99 9c 3e c1 fe b0 3e f9 99 35 c0
       -4.216227 0.30585867 0.34569362 -2.8375227
0000d0 14 c6 b1 3e f6 6e 97 bf d6 c5 9f 3e 7d 37 99 3e
       0.34721434 -1.1830738 0.31205624 0.29925147
0000e0 b1 5a cb be 31 f8 28 bf f4 57 d0 3e 76 06 8d 3e
       -0.3971763 -0.6600371 0.40692103 0.27543992
0000f0 1c 8d 18 3f 5f aa 94 bf 06 b7 92 3e 7c 25 dd 3d
       0.59590316 -1.1614493 0.2865526 0.10798165
000100 ce 98 f4 be 5e 97 5f be 81 b9 e5 3e e4 35 3b bd
       -0.4777283 -0.21835086 0.4486809 -0.04570569
000110 11 29 28 3f 5a 6c 56 bf 36 d8 a2 be 84 e6 72 3f
       0.6568766 -0.8375908 -0.3180558 0.9488299
000120 0f 4f c7 3d 22 f2 30 bc 3a 98 96 be 10 96 87 3f
       0.09731876 -0.010799916 -0.29413015 1.059267
000130 03 13 8d 3f 60 14 00 bf 95 15 14 3d 75 f9 36 bf
       1.1021427 -0.5003109 0.036153395 -0.7147439
000140 df e9 0d 3f 3c 8c 3b bf 6e 03 18 be 3a dd 21 bf
       0.55434984 -0.73260856 -0.14845058 -0.6322819
000150 01 1f 8b 3f b0 62 0a bf 0e f6 a2 be 15 ae 65 bf
       1.0868837 -0.54056835 -0.3182835 -0.89718753
000160 da dc a6 3e 3b d2 9c be 88 48 dd bd 77 ce 80 bf
       0.3259037 -0.30629143 -0.1080485 -1.0063008
000170 4a a3 a1 3f 5d 07 69 bf 0e 31 b1 3e 5f cf 98 be
       1.2627957 -0.9102686 0.34607738 -0.29845712
000180 b4 71 c4 3d 9f 7d 7a 3e f5 fe 86 3e 07 54 a2 be
       0.09592 0.24461983 0.26366392 -0.31704733
000190 be 59 ba 3e 42 d3 1f c0 fb 10 24 3f 28 78 de bf
       0.36396593 -2.4972692 0.6408841 -1.7380419
0001a0 6b 97 15 be 8e 68 36 bd 07 f1 0a be 0d 20 20 3e
       -0.14608543 -0.044533305 -0.13568507 0.15637226
0001b0 a9 6d 50 be d4 d8 8f bf bd 0e 15 bc 66 06 43 3e
       -0.20354332 -1.1238046 -0.009097752 0.1904541
0001c0 aa c6 04 3e eb 26 33 3e 4f 4c bb bc a0 f9 79 be
       0.1296641 0.17495315 -0.022863535 -0.2441163
0001d0 be 1f 6c be 33 86 92 3f 04 e5 a9 bd 3c 4a cc bd
       -0.23058984 1.1447204 -0.082956344 -0.099750966
0001e0 c5 72 91 3e c7 30 5c 3e 9d 95 44 bc 74 e1 e8 bd
       0.28407875 0.21502982 -0.011998561 -0.11371127
0001f0 ec c8 34 bf d3 67 83 40 67 9b 24 3d 84 94 0e bd
       -0.7061908 4.106424 0.040187266 -0.034809604
000200 b1 a0 02 3d 09 ed c1 be 46 ad 19 3d 54 8d 8b bd
       0.03189153 -0.37876156 0.037518762 -0.068140656
000210 20 e9 99 3e aa 00 72 bf 79 e8 8d 3c e9 f7 0b 3e
       0.30060673 -0.94532263 0.017322766 0.13668789
000220 e3 8c b1 3e c0 30 fb 3d f9 52 2a bc 5d fb 82 be
       0.346778 0.12265158 -0.010395759 -0.255824
000230 25 0f ef 3e 02 96 89 3f 63 63 06 3e 86 db 8f be
       0.46691242 1.0748904 0.1312385 -0.2809717
000240 9b 50 e9 bc 32 3c 8c bd a8 4b 7f 3d cb bf 75 3e
       -0.028480818 -0.06847419 0.06232801 0.23998944
000250 08 72 07 3f 39 13 7f 40 fe f6 12 bd 04 78 71 3e
       0.5290837 3.9855483 -0.03588008 0.23580939
000260 2d 34 bd 3f 84 ca 00 bf c5 de a1 bf ef 06 79 bd
       1.4781548 -0.50309014 -1.2646109 -0.060797628
000270 57 e4 43 3e 55 9d 87 3e 5d a9 e8 3b 01 e8 95 bd
       0.19130073 0.26487222 0.007100268 -0.07319642
000280 55 3a a2 bd 56 84 05 bf 2f 2f 30 bd 33 6e 92 3c
       -0.07921282 -0.52155054 -0.043013748 0.017874813
000290 e9 3f e8 3e 13 6b a9 3d bc e9 29 3d bb a3 03 3e
       0.4536126 0.08272376 0.041482672 0.12855427
0002a0 1e d8 a7 3d df ee 74 be 55 ea 16 be 5c 11 79 3e
       0.08195518 -0.23919247 -0.14737828 0.24323028
0002b0 c1 c0 c6 3e 77 2f 6b be 76 77 85 3d 9f a9 3c 3e
       0.38818935 -0.22967325 0.06516926 0.1842408
0002c0 bf 2b 97 3e d4 44 e4 be 60 1f 44 bc 64 e3 a3 3d
       0.29525563 -0.44583762 -0.011970371 0.08002356
0002d0 f1 d4 04 3d ab 0d 71 bf a1 1e b0 3d ab e6 22 3d
       0.03242964 -0.9416148 0.08599592 0.039770763
0002e0 59 4a 0e 3e 58 eb be be 02 47 4e bd fe 31 3a be
       0.13895549 -0.37288928 -0.050360687 -0.18183133
0002f0 89 01 8c 3d 60 e7 7f bf 66 21 0d bd d6 10 94 be
       0.0683623 -0.99962425 -0.03445568 -0.28919095
000300 05 26 f0 3d a7 7d 8b be 0d 99 f4 bb 47 8c b8 be
       0.11726002 -0.27244303 -0.007464534 -0.36044523
000310 12 e9 f8 bc e9 e0 81 bf 01 79 89 3e f5 f8 4e be
       -0.030384574 -1.0146762 0.2685013 -0.20212157
000320 45 d9 37 be b9 0d 8d be 6e 43 d5 3e 85 06 44 be
       -0.17953975 -0.27549532 0.41653007 -0.19143112
000330 cc 10 6e 3f 88 58 aa 3d 2d da 0d c1 1d 07 6b bd
       0.9299438 0.08317667 -8.865766 -0.05737983
000340 e9 a2 71 3e 4c 03 a2 3d 13 6f bc bd a0 da 19 bf
       0.23597302 0.07910785 -0.09200873 -0.6009922
000350 52 cf 84 3e 8b 8e fc 3e b0 8c 28 3e cd ba f3 be
       0.25939423 0.49327502 0.16459918 -0.47603455
000360 2f 83 af 3e 0f 43 ed be d8 13 04 be c7 6d 89 bf
       0.34279773 -0.46340224 -0.12898195 -1.0736626
000370 89 95 e5 bd 1a da 89 3e 53 86 2f 3d 1a 1f 82 bf
       -0.11210162 0.2692421 0.04285271 -1.0165741
000380 16 7d 88 3d a9 a5 49 bf 14 b9 24 bd ed 48 8c bf
       0.06664483 -0.787684 -0.040215567 -1.0959755
000390 15 38 8e bc af 6f c8 3e 79 3b c2 3c 9e f6 90 bf
       -0.017360726 0.39147708 0.02371 -1.1325262
0003a0 9b 9d 9b 3f 75 85 07 c0 30 02 9b 3c 5c d9 83 be
       1.2157472 -2.1175206 0.018921942 -0.2575177
0003b0 5c 3c 96 be c7 00 2f 3f 91 3e 36 be b1 2f dd bc
       -0.29342926 0.6836056 -0.17797305 -0.02700028
0003c0 8e 70 d8 3f a0 17 0d c0 0b e0 8f 3c 87 08 1b be
       1.6909349 -2.204567 0.017562887 -0.15139972
0003d0 66 07 0d be 45 e3 c4 3e 09 32 4d bc fb 7f ba be
       -0.13772354 0.38454643 -0.012524136 -0.36425766
0003e0 aa e4 9b 3f 4b 85 24 c0 e5 a3 63 3d d1 40 5b bf
       1.2179158 -2.5706356 0.055576224 -0.85645777
0003f0 d5 40 52 bd e1 ca af 3e 97 cc 5f bc 24 66 6e bf
       -0.05133136 0.34334472 -0.013659618 -0.93124604

fc1.bias f4 [256]
000000 77 ac ab be e7 d1 09 bf 67 03 85 c0 b5 33 56 be
       -0.33530018 -0.5383591 -4.1566653 -0.20918162
000010 10 5b 76 bd 86 54 d4 be 15 0d a2 be 3e c6 82 bf
       -0.060145438 -0.41470736 -0.31650606 -1.0216749
000020 58 ca 34 bd 29 18 82 3e 28 fe 7b be b5 28 ec be
       -0.044138283 0.25409058 -0.24608672 -0.46124807
000030 5d 6e fb be 2a 20 36 bf ac 4a 98 bf c2 c3 81 3d
       -0.49107638 -0.7114283 -1.1897788 0.06336166
000040 58 87 33 bf a7 44 b7 bf db 81 c8 be 2a d9 be bd
       -0.70128393 -1.4317826 -0.39161572 -0.093187645
000050 78 04 bb be 96 82 70 bf 7a 68 24 bf ce 2f 65 be
       -0.36526847 -0.9394926 -0.6422192 -0.22381517
000060 df a4 32 bf e9 af 1e bf 20 2d a8 be 06 35 37 3d
       -0.69782823 -0.6198717 -0.32846928 0.0447283
000070 00 b3 d4 be 26 42 43 bf 8a e5 a4 be b6 9e 03 3c
       -0.41542816 -0.7627281 -0.32206374 0.008033445
000080 04 83 0e bf b1 16 da be 67 5d a0 bf 98 82 86 be
       -0.55668664 -0.42595437 -1.2528504 -0.2627151
000090 9a 7d 98 3a 3f 75 56 bf 20 ca c4 bd 4e 58 b3 be
       0.0011634112 -0.83772653 -0.09608865 -0.3502831
0000a0 26 ea 83 bf c9 f2 91 bf 24 f2 a1 be c2 e6 39 c0
       -1.0305831 -1.1402217 -0.3163005 -2.9047093
0000b0 83 74 b2 be 88 97 9a bd 97 12 af bf 6d 74 d5 be
       -0.34854516 -0.075484335 -1.3677548 -0.41690388
0000c0 ec 97 12 3d 03 47 cb be 03 41 9b be 8e cf 6c bf
       0.035789415 -0.39702615 -0.30323038 -0.92504203
0000d0 2b 6d 06 3f f6 d2 26 be d7 02 12 bf 2b 8b ac be
       0.5251033 -0.16291413 -0.57035583 -0.33699927
0000e0 10 bc 72 be ee 56 3a bf 1b 7e ca be 4a 37 f9 be
       -0.23704553 -0.72788894 -0.39549336 -0.48674995
0000f0 c1 0a 23 be 53 94 12 bf 72 aa 9b bf 54 81 c4 bd
       -0.15922071 -0.57257575 -1.2161391 -0.0959498
000100 1b 1b 4c bf bf cb f4 be 19 20 32 bf bd 45 3a 3d
       -0.7972886 -0.47811696 -0.6958023 0.045476664
000110 92 e3 31 bf 49 5a 00 bf 1a 52 e2 bf 42 a0 0b c0
       -0.6948787 -0.50137764 -1.7681305 -2.1816564
000120 d7 e3 5c bf 8d a2 15 bf 0b a2 39 bf fa 62 c1 3e
       -0.86285156 -0.5845116 -0.7251288 0.37770826
000130 11 e0 86 be 87 9d dd be 4e 79 94 be 98 52 c3 be
       -0.26342824 -0.43284246 -0.28998798 -0.38148952
000140 1c 19 19 bf 54 6d bd 3b dd 35 1c bf 93 83 91 3d
       -0.5980394 0.005780855 -0.6101969 0.07105174
000150 19 85 c8 be 4a 0d 58 bb 57 5c 1c 3d 74 63 1d be
       -0.39164045 -0.0032966905 0.038174 -0.1536997
000160 26 a2 af bf 6e 05 77 bf da 2c 3a be 89 22 4e 3e
       -1.3721359 -0.9649266 -0.18181172 0.20130362
000170 e5 07 6e bf 65 40 09 bf e9 92 af be 87 ae 9f be
       -0.92980796 -0.53613883 -0.3429177 -0.3118784
000180 5a d9 37 c0 b3 04 03 bf 5e 17 7b bd 76 2b ca 3d
       -2.872641 -0.51179045 -0.06130158 0.09871571
000190 12 5b 6a bf bc 00 32 bf 03 2d 9c bf 1a 84 7d bf
       -0.9154521 -0.6953237 -1.2201236 -0.99029696
0001a0 42 12 3c bc 82 d7 c6 bf e1 29 bb be 69 14 17 bf
       -0.011478962 -1.5534518 -0.3655539 -0.5901552
0001b0 5b a9 fb be 10 0f 91 3e 84 48 0a bf 30 66 fe be
       -0.49152645 0.28331804 -0.540169 -0.49687338
0001c0 91 70 0f c0 e1 85 b7 bd ae 44 8a 3e 57 ed 20 be
       -2.2412455 -0.08961082 0.27005523 -0.15715538
0001d0 e5 3e b5 be 71 1b 41 bf 7d 1f 1c bf 86 c0 06 bf
       -0.35399547 -0.754325 -0.6098555 -0.5263752
0001e0 49 7e 05 bf 10 01 05 c0 be f4 85 bf d4 9f 82 bf
       -0.5214582 -2.0781898 -1.0465314 -1.0205026
0001f0 eb 9c df bf e7 b4 c2 be 81 78 00 3d dd 5d 79 bf
       -1.7469763 -0.38028643 0.03136492 -0.9740885
000200 c9 f2 fa bf e1 9c 66 be 72 c4 6f 3d d4 2b 5f be
       -1.9605342 -0.22520782 0.058536954 -0.21794063
000210 e5 d4 1f be 7f e8 24 bf a4 9a 0f bf 90 a1 46 bf
       -0.15608557 -0.6441726 -0.5609534 -0.77590275
000220 5d 6e 0e be 1a 78 2d bf d5 ba ca be 7e d3 0e 3d
       -0.13909288 -0.67761385 -0.39595667 0.034869663
000230 d2 60 7c be 5b 2b ca be 24 ed 1c bf ae 7f 4e 3e
       -0.24646309 -0.39486203 -0.6129935 0.20165893
000240 3e 40 7c bd 6c e5 bd be 65 4d 0e bd f1 c3 20 bf
       -0.061584704 -0.37089097 -0.034741778 -0.6279898
000250 bc 20 48 bf 98 59 4d bd b7 0e b9 bf 61 e9 91 be
       -0.7817495 -0.05013427 -1.4457616 -0.28498366
000260 3f 1e ce be bf b5 8d bd 3f 28 89 c0 44 1b a0 be
       -0.4025745 -0.06919431 -4.286163 -0.31270802
000270 91 9f 02 3d 4a d4 2e bf 08 eb d0 be 4f 5c a8 3e
       0.031890456 -0.6829268 -0.40804315 0.32882926
000280 6c 3e e1 be ef ce 2d bf ba f8 00 3e b3 06 74 bf
       -0.43992937 -0.6789388 0.12594882 -0.9532272
000290 29 cd 92 be a2 06 bb be e9 39 5d bf eb 75 c2 be
       -0.2867215 -0.36528498 -0.8641649 -0.3798059
0002a0 cc 37 1b bf 7e 3f c3 be 4e e2 81 bf 4e e9 e7 bf
       -0.60632014 -0.38134378 -1.0147188 -1.8118074
0002b0 82 c2 f6 be 8c ad a1 bf 42 10 8b bf d0 7a 82 bf
       -0.48195273 -1.2631087 -1.0864336 -1.0193729
0002c0 7c 54 1a bf ef b8 0c bf 21 7a b5 be 0a fb 5f be
       -0.6028516 -0.54969686 -0.3544474 -0.21873108
0002d0 74 69 30 bf 78 36 bf be 42 6c 4b bf 1e b5 3c bf
       -0.6891091 -0.37346244 -0.79462063 -0.7371386
0002e0 3e 0e a5 be 15 c0 62 be 0f c1 5b be 03 7d 06 bf
       -0.32237428 -0.22143586 -0.21460365 -0.525345
0002f0 f6 76 ab bf cf 3c ef 3e 45 e3 a8 bf 30 b2 78 3d
       -1.3395679 0.4672608 -1.3194357 0.060716808
000300 68 4c 1f bf 82 de 12 bf 2d 7b 00 bf 96 35 15 be
       -0.6222596 -0.5737077 -0.5018795 -0.14571223
000310 82 a7 b6 be 88 46 4d bf 23 7a 04 bf 5c c5 2c bf
       -0.35674673 -0.8018575 -0.51748866 -0.67488647
000320 63 2e 2b 3e de 96 03 c0 9c 45 15 bf 11 1a ae 3d
       0.16716914 -2.0560832 -0.5830934 0.085010655
000330 27 a8 f0 bd d9 7f 7a be e4 d0 88 be 4f 6d 58 bf
       -0.117508225 -0.24462833 -0.2672187 -0.8454179
000340 ac 5e b4 3c 60 9f 0b bf 85 d6 a4 be 95 4b 37 bf
       0.0220178 -0.5454006 -0.32194915 -0.71599704
000350 b7 07 0d bf 5f 2d 39 bf c6 a0 6d bf eb 12 b2 bf
       -0.55089897 -0.72334856 -0.92823446 -1.3912023
000360 08 5c a1 be 53 e6 db 3e b3 1a 72 be b7 71 7d bd
       -0.31515527 0.4294916 -0.23642997 -0.061876025
000370 45 9c 76 bf 2f 29 06 c0 8b 6b e8 be be fc 15 bf
       -0.963322 -2.0962636 -0.4539455 -0.5858878
000380 17 3f 0a bf 7f 22 9b be 4d 4c 22 bf 33 61 9f be
       -0.5400252 -0.30299756 -0.63397676 -0.31128845
000390 83 aa d9 bd a1 34 c8 be dd 5e 74 3e 56 13 8b 3e
       -0.10628226 -0.39102653 0.23864312 0.2716319
0003a0 f6 86 92 bf 62 2c 93 3e 94 e5 35 3e e9 f3 31 bf
       -1.1447437 0.287448 0.17763358 -0.695128
0003b0 f9 53 4a bf 0d ed 5e bf e8 6e 41 bf db 11 54 be
       -0.7903438 -0.8708046 -0.75559855 -0.20709936
0003c0 f2 87 57 bf f0 13 6e be fe f1 a5 bf 6b a2 44 be
       -0.8419181 -0.23249793 -1.2964475 -0.19202583
0003d0 4b d8 8b bf 97 dc f6 be 63 5f 2c bf ee dc 28 be
       -1.0925382 -0.48215172 -0.6733305 -0.16490528
0003e0 02 58 16 3e 43 9a 2b bf c8 05 b1 bf a7 72 30 bf
       0.1468201 -0.6703226 -1.3829889 -0.68924946
0003f0 c5 cf f2 be 1c 7b 47 be 0c 31 b4 bf 58 df 72 be
       -0.4742414 -0.19480556 -1.4077468 -0.23718011

fc2.weight f4 [256, 256]
000000 3b 75 23 3e 94 e7 51 bf eb de 1b 3e cf 8e e0 be
       0.15962689 -0.81993985 0.15221755 -0.43858954
000010 b7 ad 87 be 59 4c b7 3e ba 2b 7f 3e 55 bb 4d 3e
       -0.2649972 0.35800436 0.24919024 0.20090993
000020 0c e6 24 3e a2 c1 09 be 33 cb 9a 3d 2b 6d e2 3e
       0.16103381 -0.13452771 0.075582884 0.44223914
000030 fa ac 23 3e 44 61 4b 3f 0c 8f f0 be 3f 9c 54 3e
       0.15983954 0.7944529 -0.46984136 0.20762728
000040 60 f9 4d be e0 d8 2b 3e 87 0a 0d bf 6b 1f ac b9
       -0.2011466 0.1678195 -0.5509419 -0.00032829805
000050 08 ca 93 bd 5a 41 33 bd fc b8 80 3f ce 84 c8 3d
       -0.07216269 -0.043763496 1.0056453 0.097909555
000060 0f 1f 06 bf b7 21 79 3d 08 c4 fa 3c 42 8d 02 3e
       -0.5239114 0.06082317 0.030611053 0.12749198
000070 b4 8c e0 3e d8 53 e1 3c 70 d5 72 3e 3e dd 0e bc
       0.43857348 0.0275058 0.23714232 -0.00871974
000080 30 04 00 be 82 28 10 bd 15 f4 47 3f a5 7b 9e 3d
       -0.12501597 -0.03519488 0.78106815 0.07738427
000090 23 74 0e 3f ea 88 b0 3c 92 f0 ab bd 3e 15 8c bf
       0.5564596 0.02154966 -0.083954945 -1.0943983
0000a0 19 f4 00 3e 80 31 bd be 1f c2 64 be 2a ad c6 3e
       0.12593116 -0.36951828 -0.22339676 0.3880399
0000b0 a7 f0 b0 bd 1b 0a b9 3e 9a d6 5b bf ec 35 dd 3c
       -0.08639651 0.36140522 -0.8587433 0.027003251
0000c0 ea ff 8f 3e ca c3 05 be 34 77 a9 3e c5 36 47 be
       0.28124934 -0.13062969 0.33098757 -0.19454487
0000d0 99 9f 76 3e 89 fa b5 3e 08 0f 73 bf 6c dd bf 3d
       0.24084319 0.35542706 -0.9494481 0.09368405
0000e0 f5 b9 34 bf e6 a6 b3 3d 99 29 3e bf a3 68 75 be
       -0.7059625 0.08772068 -0.74282223 -0.23965697
0000f0 8c 6e 31 3e c3 e4 6a 3e f2 9f 8e 3e 9c 13 85 bf
       0.17327327 0.22938828 0.27856404 -1.0396609
000100 09 ac ea bd 8b 92 0c 3e db 0c 4e 3f 00 88 d4 bf
       -0.11458594 0.13727777 0.80488366 -1.6604004
000110 c8 4c 87 3f 7e f4 4b bf 1f c6 e2 3e 12 ac 5d be
       1.0570307 -0.7966994 0.4429178 -0.21647671
000120 f1 91 9d be 53 95 fb 3d 83 44 51 be 9d c9 03 bf
       -0.30775407 0.12284341 -0.20436291 -0.5147951
000130 84 af 14 be 6b ab a4 3e d4 07 df 3d fc ba 6b bc
       -0.14520079 0.32162032 0.10890165 -0.014387842
000140 7c 11 2e be 54 02 01 3e fd 3b 20 bf 03 88 4e 3e
       -0.16998857 0.12598544 -0.62591535 0.20169072
000150 6b 76 d0 be 9b 64 1f be fc b2 c1 bd ba cd f3 3e
       -0.40715346 -0.15565722 -0.09457967 0.47617894
000160 07 9b 03 3c fa e4 5d bf f2 72 49 3e 77 ef a0 3e
       0.008032567 -0.86677516 0.19672754 0.31432697
000170 0f 52 10 bf 17 a6 0b 3f 78 56 1d be 89 a8 0a be
       -0.5637521 0.5455031 -0.15365016 -0.13540854
000180 1a ee e6 3e 8b 30 95 be 48 e3 a7 bc 7c 19 c7 3d
       0.45103532 -0.29138598 -0.020494118 0.09721658
000190 ae 49 d9 be 7e 94 02 be 6d 6c 53 be 9b 3c 4d bf
       -0.42439026 -0.12751958 -0.2064683 -0.801706
0001a0 ef 94 70 be 70 d2 e8 3c 8d e5 ad 3e 6a b1 a2 3e
       -0.23494314 0.028420657 0.33964196 0.3177598
0001b0 a9 79 2d 3e d4 e0 b5 3e ea 94 0b be c2 02 b4 3e
       0.16940941 0.35523093 -0.13631025 0.35158354
0001c0 34 40 d0 3e 1b 88 f2 bd ee c8 b3 3e df 6f 82 3d
       0.40673983 -0.11842366 0.35114235 0.06368994
0001d0 0a 10 26 3f 53 e4 7f 3f b9 8e 28 bf d7 db c3 3e
       0.64868224 0.9995777 -0.6584278 0.38253662
0001e0 44 3b 35 bf 89 6b 0e 3e 53 41 32 3e 2d cb 86 3e
       -0.7079356 0.13908209 0.17407732 0.26326886
0001f0 69 8e 82 3e 96 d6 e5 be ba f6 dd 3e 7e 9b b1 3e
       0.25499275 -0.4489028 0.433523 0.34688944
000200 15 fd 6e bf df a4 2b bf fe da 18 bf d1 f1 91 3d
       -0.9335492 -0.6704845 -0.59709156 0.07126201
000210 7e 58 16 bf 22 8b cb 3e c7 67 43 3d 0c 7c ea 3d
       -0.5872878 0.39754587 0.04770639 0.11449441
000220 7a 76 3d 3f ba 07 4d bf 5d 83 8d bd f3 18 76 bf
       0.74008906 -0.80089915 -0.06909821 -0.9613182
000230 38 3c 2b 3c 39 b9 91 bd 34 17 43 bf 01 58 a2 be
       0.010451369 -0.071154065 -0.7620728 -0.31707767
000240 13 3b 1f bd d6 08 af be 6f e9 52 bf 79 a6 80 3e
       -0.038874697 -0.3418643 -0.8238744 0.2512701
000250 00 57 c8 3b 00 b3 06 3f fb 0b d5 3e 44 4b e7 be
       0.006113887 0.5261688 0.41610703 -0.4517461
000260 80 a9 7e 3d a2 9f f6 bd 0b 4a 45 3d 34 7a 52 bc
       0.062173367 -0.12042166 0.048166316 -0.012846518
000270 dd 98 56 3d 32 39 41 bf c9 45 18 3f bc 96 ef 3d
       0.052391876 -0.754779 0.59481484 0.11698672
000280 df c3 40 3d 2d 1e 1e 3f d2 2b 25 3e 5b cc f4 bd
       0.047061797 0.61764795 0.16129997 -0.1195304
000290 a7 05 76 be 7e b1 96 bf 38 fb 5e 3e 5e bc 51 be
       -0.24025594 -1.1772916 0.2177552 -0.20482013
0002a0 3e b8 97 bc 1d 60 a6 3e f8 a0 04 3f 39 57 bc 3e
       -0.01852047 0.32495204 0.5180812 0.36785296
0002b0 cb 0d a7 3e b3 6f 81 bf 38 0a c1 be 5d 2a 8d be
       0.3262771 -1.0112213 -0.3770311 -0.27571383
0002c0 55 32 b8 be 4e 6a a3 bd b2 62 05 bd 4d ef c1 bc
       -0.359759 -0.079792604 -0.032564826 -0.023673678
0002d0 4c 7b d3 bd 3d e1 8c be 12 5e 23 3f f4 7b c5 3e
       -0.103262514 -0.27515593 0.63815415 0.3857113
0002e0 80 86 59 bf 78 6a 33 3e 50 b1 19 be 10 6d 83 bf
       -0.84970856 0.17521083 -0.15009046 -1.0267658
0002f0 b3 f1 ce 3d b3 0b d5 be db 3a 53 bd 7b 40 08 3f
       0.10104694 -0.41610488 -0.0515698 0.5322339
000300 44 75 ab bd d8 b6 70 bf 75 e6 e0 3c d2 94 e4 be
       -0.08371976 -0.94029 0.02745364 -0.4464479
000310 59 0c 2c 3e d4 a0 b1 3d 03 8c c8 3d 87 14 92 be
       0.16801585 0.08673254 0.0979233 -0.28531286
000320 8a f4 de 3d 3c 8c ad bd 26 ce c4 be 97 76 5a be
       0.10886486 -0.08474013 -0.3843853 -0.21334301
000330 95 d9 b9 bb e4 44 92 bf 3a 9d a3 be 19 79 ff bc
       -0.0056716898 -1.1427274 -0.31955892 -0.031185674
000340 02 f5 dd 3e 4e e4 18 3f 58 df ff bd c4 f5 f7 be
       0.4335099 0.59723365 -0.12493771 -0.48429692
000350 2f 43 c6 3e 0a 98 cc 3e cf 2b 6b be cf 3e 9a bd
       0.38723132 0.39959747 -0.2296593 -0.07531511
000360 9c 0a d2 be 58 fc 0c be 5e 81 15 bd 5d ff bc bd
       -0.4102372 -0.13768137 -0.036500327 -0.09228394
000370 f7 85 1d 3f e6 4f bb 3e 72 6f 8e bd 00 2c 5c 3e
       0.6153254 0.36584395 -0.0695485 0.2150116
000380 12 e2 22 3f 98 ca 41 3d 5a 9e b9 3d 92 dd 5f bf
       0.63626206 0.04731235 0.09063406 -0.87447464
000390 b6 4c f6 3c ed 55 27 3f a6 f1 3e be a5 d3 ad 3e
       0.030065876 0.6536549 -0.18646869 0.33950534
0003a0 23 f1 38 3e 1c bb 63 bf 54 d8 ba 3e 10 ad 26 3e
       0.18060736 -0.8895738 0.3649317 0.16276956
0003b0 59 34 b1 3d fe cc 22 bf f2 43 fa 3d 77 75 6e bd
       0.08652563 -0.63594043 0.12219991 -0.058217492
0003c0 4e 39 42 3f 85 42 78 3d 1c 5b 0c be 0e 3f 17 3f
       0.7586869 0.060610313 -0.1370663 0.5908059
0003d0 bc 9b 8c bd 62 46 97 bd 65 8b 99 bf 25 66 bc be
       -0.068656415 -0.07386471 -1.1995665 -0.3679668
0003e0 47 df f9 be b2 10 29 3f 04 a3 38 bd 34 f2 a8 3e
       -0.4880316 0.660411 -0.04507734 0.32997286
0003f0 04 e0 0a bf d7 2f 0c 3d 6f 6b b9 bd 99 b5 b8 3e
       -0.5424807 0.03422531 -0.090536945 0.36076048

fc2.bias f4 [256]
000000 b2 f0 68 bf ff ec 17 bf da 61 ba be af 41 0c bf
       -0.9099227 -0.59346 -0.3640278 -0.54787725
000010 12 93 4f bf a7 e3 1c bd b3 1a c9 be 1d 98 12 3d
       -0.81083786 -0.038303044 -0.39278182 0.035789598
000020 01 d7 ad be 36 ae 7c 3d fd 09 d6 be 57 c7 f9 bd
       -0.33953097 0.061689578 -0.41804495 -0.12196224
000030 b8 2d b3 be a4 ad b9 be 63 94 ac be dd 40 22 bf
       -0.34995818 -0.3626529 -0.3370696 -0.63380224
000040 d0 c3 6e be a7 b6 82 bf 8a 5b 4f be 2b 57 f0 3c
       -0.23316884 -1.0211991 -0.20249763 0.02933844
000050 56 ae 3d bf 55 fa 08 bd ee e5 a4 be 3a a7 8c be
       -0.7409414 -0.03344186 -0.32206672 -0.27471334
000060 6d 03 b2 be a3 fb a4 be a5 e0 26 bf 49 24 b7 be
       -0.3476824 -0.32223234 -0.6518653 -0.3576987
000070 4a a9 1a 3e a6 d2 30 bf e4 40 19 bf f4 7e 48 bf
       0.15103641 -0.69071424 -0.5986464 -0.78318715
000080 d9 7b 75 be ec e3 fc bd 11 eb b3 be ed 5e e4 be
       -0.23973025 -0.1234816 -0.3514028 -0.44603673
000090 3b fa 41 be 5d ce 95 be 72 c6 57 be 73 7b 74 bf
       -0.18943112 -0.29259005 -0.21071795 -0.9550087
0000a0 7d 3d 04 3c aa 6f 0b be 34 d1 f7 be 48 cf 2d bf
       0.008071301 -0.13616815 -0.48401797 -0.6789441
0000b0 8b 0d 98 be b1 94 70 bf e4 56 73 bf 20 56 14 bf
       -0.29697832 -0.93976885 -0.9505446 -0.57943916
0000c0 70 7c 1f bf 3f 0b 08 bf 81 d8 c7 bd 59 90 0a bf
       -0.6229925 -0.5314216 -0.09758092 -0.5412651
0000d0 8c 6c 17 bf 0e c5 30 bf d3 d7 76 bf 93 85 83 be
       -0.59150004 -0.6905068 -0.9642307 -0.25687847
0000e0 c1 2f 7e bd bf f5 04 bf 92 54 23 bf c2 84 c2 be
       -0.06205726 -0.5193748 -0.6380092 -0.3799191
0000f0 c7 ee ad be fa eb 5f bf 74 e7 29 bf 2f c5 be be
       -0.33971235 -0.87469447 -0.66368794 -0.37259814
000100 fe 22 09 bf ba ab 57 be 0c 3d f9 be c2 cc af bd
       -0.5356902 -0.21061602 -0.48679388 -0.08583976
000110 fd c5 fc be e9 b2 c5 be 38 66 53 bf 0f d1 1f bf
       -0.49369803 -0.3861306 -0.8257785 -0.62428373
000120 3a ee 66 be cd f1 14 be af 74 00 be 8e 6d 1e bf
       -0.22551814 -0.14545365 -0.12544511 -0.6188592
000130 5a bb 9a be 82 35 09 bf d7 2b 9d be 5d ed d7 bd
       -0.30221063 -0.5359727 -0.3069751 -0.1054332
000140 ea 7b 34 be d4 c4 99 be 06 d7 59 bd 00 21 e7 bd
       -0.17625394 -0.3003298 -0.053183578 -0.11285591
000150 7a ce 6f be 05 bb 22 bf d7 e6 c7 be 80 fb c2 bd
       -0.23418608 -0.6356662 -0.39043304 -0.09520626
000160 80 8a a1 be cf e0 cb be 31 c3 77 be 6b 2e 7c be
       -0.3155098 -0.39819953 -0.24195553 -0.24627082
000170 e7 a3 3c bd 1e 08 78 bf 79 c2 2e be b6 f1 e3 be
       -0.046054747 -0.96887386 -0.17066373 -0.44520348
000180 d5 b9 b8 be 35 a1 0c bf e5 80 78 be a9 37 9e be
       -0.3607928 -0.5493348 -0.2426792 -0.3090184
000190 38 cf 71 be cf 4a bd be ed c3 aa be ef de cc be
       -0.23614204 -0.36971137 -0.33352605 -0.40013835
0001a0 b9 52 80 be b5 53 1b bf e2 a2 96 be 10 35 be be
       -0.25063112 -0.606746 -0.29421145 -0.37149858
0001b0 e8 c2 8f bd 1b a5 43 bf d9 ac ca be a1 f2 e8 be
       -0.07019597 -0.76423806 -0.39584997 -0.4549761
0001c0 4a 4c b7 bc a5 52 14 bf fa 7a 39 be 17 aa c7 be
       -0.022375245 -0.57938606 -0.18113318 -0.38996956
0001d0 39 57 a1 be 56 6c 9c bf e4 33 e4 bd 15 b4 11 bd
       -0.31511858 -1.2220562 -0.1114271 -0.03557213
0001e0 6b 0e fb be 9d 19 00 bf 68 0b 2f bf 63 fb f3 be
       -0.49034438 -0.5003908 -0.6837678 -0.4765273
0001f0 77 13 0a bf 9b e7 31 bf c5 59 ec be c4 9a 80 be
       -0.5393595 -0.69494027 -0.4616224 -0.25118077
000200 21 b6 55 bf 0a d6 70 bd c0 1a eb be 75 b0 0d bf
       -0.8348103 -0.058797874 -0.45918846 -0.5534738
000210 78 ed a0 be 76 42 83 39 d7 12 f6 be 76 47 f9 be
       -0.31431174 0.00025035784 -0.4806125 -0.48687333
000220 e8 d1 4b 3a 6f ce ce be 08 85 39 bf 1c 5b 03 bf
       0.0007775114 -0.4039187 -0.72468615 -0.51310897
000230 fc ca 63 3e 69 10 18 bf 46 55 ad be 5b 35 3b bf
       0.22245401 -0.5940004 -0.3385412 -0.7312829
000240 2b 74 cd be c2 2f fd be 92 d5 57 bf 25 68 4a be
       -0.40127692 -0.494505 -0.8431026 -0.1976629
000250 9b 4b c7 be 9d 54 33 be 70 25 47 bf 05 76 33 bf
       -0.3892487 -0.17512746 -0.777915 -0.7010196
000260 43 f0 ac bd 9d c5 3d bf 60 28 ab be 9e e5 f6 be
       -0.08444264 -0.7412966 -0.3342924 -0.4822206
000270 85 96 01 bf 16 66 74 bf cc 38 e9 be cd da 87 be
       -0.506203 -0.9546827 -0.45551145 -0.2653412
000280 4c ee c0 bf 28 e1 0d bf f5 dc a1 be 14 07 6e be
       -1.5072722 -0.55421686 -0.3161389 -0.23244888
000290 1e 04 32 be a7 41 54 be 7e ec 09 be a4 be 26 bf
       -0.17384383 -0.2072817 -0.13469121 -0.65134645
0002a0 a3 47 80 be ec 44 a2 be cc 59 62 be ed 05 ae be
       -0.25054654 -0.31693208 -0.22104567 -0.33988896
0002b0 59 2c a2 be 5d e5 f0 bd c8 94 0b bf 59 af b9 bf
       -0.3167446 -0.117624976 -0.545239 -1.4506637
0002c0 f1 39 1d bf 5e 75 29 be 07 40 17 bf b8 83 ae bd
       -0.61416537 -0.16548678 -0.5908207 -0.08521217
0002d0 7a 4f 29 be 25 bb ea be 0d 7f d0 be 55 8e 30 bf
       -0.16534224 -0.45845905 -0.40721932 -0.6896718
0002e0 64 ce 8a bf e0 ad 23 bf 06 df e5 be 54 bc a1 bf
       -1.0844235 -0.6393719 -0.44896716 -1.2635598
0002f0 5a 5a 31 bf af 78 5e bf ef ad cb be cf 58 5f be
       -0.6927849 -0.869029 -0.39781138 -0.21811222
000300 8a f2 a9 be 0f 43 15 bf f4 e6 7a bf d6 1d 09 bf
       -0.33192855 -0.5830545 -0.98008657 -0.5356115
000310 f5 74 d9 bd 28 5f f0 be 2c ff ee be ce ea a7 be
       -0.10618011 -0.46947598 -0.46679056 -0.3279633
000320 f8 01 99 be c2 0d 2d bf c2 cc b5 be 59 f3 47 bf
       -0.29884315 -0.6759912 -0.3550778 -0.78105694
000330 87 8f 0c bf 46 fc e8 be 9f 8a 2c bf 3c 5c 82 be
       -0.54906505 -0.4550497 -0.6739902 -0.25460994
000340 9c 25 08 bf e8 d2 72 be f6 b8 58 be cb f3 3b bf
       -0.5318239 -0.23713267 -0.21164307 -0.73418874
000350 37 52 aa be 59 10 84 be ee 8a 4d bf 97 eb 31 bf
       -0.3326585 -0.25793722 -0.80290115 -0.69500107
000360 b1 e1 81 be c3 d8 3a be 28 14 a6 be a6 cb 96 bf
       -0.253675 -0.1824675 -0.32437253 -1.1780899
000370 43 96 5f be 22 0c de be df 0b 1e bf 71 e7 65 bf
       -0.21834664 -0.43368632 -0.61736864 -0.89806277
000380 c4 f3 08 be fe 7d 9f be e5 32 e7 be 8d a6 13 bf
       -0.13374239 -0.31150812 -0.45156017 -0.5767601
000390 4f be 32 be 47 db 14 bf 84 8a 09 bf fc 43 88 bd
       -0.1745541 -0.5814709 -0.53726983 -0.06653592
0003a0 2d 31 c3 be ac 46 4c bf 8b 90 e2 be 05 0f 36 bf
       -0.38123456 -0.79795337 -0.44250903 -0.7111667
0003b0 d1 78 31 bf a0 56 96 be 75 cb 9e be 0c 40 06 bf
       -0.69324976 -0.29362965 -0.310146 -0.5244148
0003c0 2e 29 a7 be 2e 3b 5b be de a5 4e be 23 c7 38 bf
       -0.32648605 -0.21409294 -0.20180461 -0.7217886
0003d0 c5 9e a9 be a1 38 f9 be 48 00 02 be 4c b4 8a be
       -0.33128944 -0.48676017 -0.1269542 -0.2709068
0003e0 da b6 2d bf 0b b5 b8 be b0 1d 2f bf aa b2 5d be
       -0.67857134 -0.36075625 -0.68404675 -0.21650186
0003f0 47 8a db be 34 f1 48 bd bc 07 e5 be 4c 91 82 be
       -0.42878935 -0.049058154 -0.44732463 -0.25501478

fc3.weight f4 [128, 256]
000000 18 a2 7c bf 77 4e 6f bf ff 43 59 bf 10 af eb bd
       -0.98684835 -0.934791 -0.8486938 -0.11508
000010 7c 50 ec 3d cd 93 02 bd 60 33 fe bd d8 ca 64 bd
       0.11538789 -0.031879235 -0.12412143 -0.05585751
000020 69 4e c8 be c9 e1 a6 ba f1 c4 84 be 49 e3 b3 bd
       -0.39122322 -0.0012732084 -0.25931504 -0.087835856
000030 94 80 6f bf 2d e9 94 be 38 75 66 bf 6a b9 4e bc
       -0.9355557 -0.2908415 -0.9002261 -0.012617448
000040 f8 4b e6 be ee 45 5c bf 54 c4 aa be 3d 5f d3 3e
       -0.44979835 -0.86044204 -0.3335291 0.412836
000050 bc f6 22 3e d6 8a 33 3e f4 9d ae 3d e1 94 90 be
       0.15914434 0.1753343 0.08526221 -0.28238586
000060 a4 62 91 3e 66 1b c3 3e 20 0c 7f be ca a5 d7 be
       0.2839557 0.3810684 -0.24906969 -0.42118675
000070 d4 2f 94 3e 7d b9 a3 be 13 ad a1 be a0 3e 05 bf
       0.2894274 -0.31977454 -0.31577358 -0.52048683
000080 9a 7b 5f 3d 1c 18 e9 be 50 fb 88 bf f3 33 9e bf
       0.054561235 -0.45526206 -1.0701694 -1.2359604
000090 15 7d 8b 3e cb 98 19 3f eb 77 29 bf 60 9e 47 bf
       0.27243868 0.5999877 -0.66198605 -0.77976036
0000a0 9a bc 8a bf b5 df a9 3e 49 f9 7b be 89 de e0 3e
       -1.0838807 0.33178487 -0.24606813 0.4391978
0000b0 83 6f a5 3d 8d 7a 42 bf fa 5f 32 3f a2 c8 e2 be
       0.0807791 -0.7596825 0.696777 -0.44293696
0000c0 e2 dd 38 bf 53 d8 26 be a4 29 a5 3e bb 9a cc be
       -0.72213566 -0.16293459 0.32258332 -0.399618
0000d0 2e 9c e8 3d 97 58 6b bf 72 de 38 bf ff 55 a1 3b
       0.11357914 -0.9193205 -0.72214425 0.0049235816
0000e0 99 33 35 bf fa 95 15 bf 5e be 81 bf 2a 8a d7 bd
       -0.70781857 -0.5843197 -1.013622 -0.105243996
0000f0 43 ea b8 be 9b a1 77 bf 0a 76 82 3e ad 02 60 3e
       -0.36116228 -0.96730965 0.25480682 0.2187602
000100 a1 3e 9a bf 75 cb b7 bc 9f 91 17 bf 38 51 40 3e
       -1.2050363 -0.022435883 -0.59206575 0.18780982
000110 c8 d8 3b bf 71 53 61 3c 6d f6 c3 bf 3b 4f d6 bf
       -0.73377657 0.013752804 -1.5309578 -1.6742929
000120 2f ae 1d 3e 71 d8 d9 3d 62 09 e2 be 3e d7 4c 3e
       0.15398477 0.10636986 -0.44147784 0.20003983
000130 b5 d5 fd 3d b1 a3 38 3f 05 d0 1a be a0 ed 41 3f
       0.12394277 0.72124773 -0.15118416 0.7575321
000140 66 47 44 be eb fe 98 bd 1b b9 8c 3e 77 e3 ad bc
       -0.19167861 -0.07470497 0.27484974 -0.021226628
000150 a0 59 71 3e b1 f2 05 be 75 8c a2 bd 10 95 b6 bf
       0.23569345 -0.1308086 -0.07936946 -1.426424
000160 bd e1 be 3e 4c a7 89 3e 7e 39 81 bf 02 f0 02 3e
       0.372816 0.2688545 -1.009567 0.12786868
000170 18 34 fe 3d fd 00 32 bf 56 d1 84 bf df de ba 3c
       0.1241228 -0.6953276 -1.0376384 0.022811351
000180 5a 37 85 3e 4e 3a 8f bf c1 43 f7 be 89 2f 50 be
       0.26018792 -1.1189668 -0.4829388 -0.20330633
000190 14 d1 ed 3d 6b d3 26 bf e0 4e 18 bf 5a b5 fe be
       0.11612144 -0.6516635 -0.59495354 -0.49747735
0001a0 11 db 00 3f c9 5f c7 be 9f 34 a8 bf 31 12 65 be
       0.5033427 -0.38940266 -1.3141059 -0.2237022
0001b0 80 7c 75 be a6 fb 6b 3e 23 67 9a 3e 94 ff 3b be
       -0.23973274 0.23045215 0.30156812 -0.18359214
0001c0 08 b0 ae 3e c0 d0 90 be 2e 59 86 bd bd 21 75 be
       0.34118676 -0.28284264 -0.065599784 -0.23938651
0001d0 ef 51 6a be 8e a6 48 3e 48 14 4d be 50 59 80 3d
       -0.22882818 0.19594786 -0.20027268 0.06267035
0001e0 55 4b b1 be 04 a8 33 3e 3b 2d 12 bf a1 31 9b bc
       -0.34627786 0.17544562 -0.57100266 -0.018944563
0001f0 77 b0 19 3f 99 a4 f1 bf a0 f1 d5 be 23 3a c5 bf
       0.6003489 -1.8878356 -0.41785908 -1.5408367
000200 ad c4 b4 be 5f a0 98 be 1e 14 a1 bc ec d7 0e 3f
       -0.35306302 -0.29809853 -0.019662913 0.5579822
000210 d3 36 6e 3e 01 00 9f bd 0b 9c 99 bf 68 32 8a bf
       0.23263101 -0.077636726 -1.2000746 -1.0796633
000220 88 e0 72 be 7e 91 48 3f 24 cc 66 be 78 37 bb 3e
       -0.23718464 0.78347003 -0.22538811 0.36565757
000230 9f ed b7 be e4 a8 9e 3e 14 95 92 3e 3f ff 2c 3e
       -0.35923478 0.30988228 0.28629363 0.16894244
000240 59 e2 90 be 41 39 2e be 68 a1 c9 be 0a d4 4c bd
       -0.2829769 -0.17014028 -0.39380956 -0.050006904
000250 0c 92 12 be ea 7a 88 bd 37 9a 29 3c 7a 01 bf 3e
       -0.14313525 -0.06664069 0.010351709 0.37305814
000260 ef 23 e0 3e 6c fe 8c be 34 e4 c1 3e 88 b5 2e bf
       0.43777415 -0.27537858 0.37869418 -0.68245745
000270 ab 6a a8 be 57 25 7c bf 59 12 7b be 9d b9 d6 3e
       -0.3289388 -0.98494476 -0.24518718 0.41938487
000280 d5 aa 2e bf 20 e8 8e 3e 8d b2 13 3e b1 c4 07 bd
       -0.6822942 0.27911472 0.1442358 -0.033146564
000290 14 6f c2 be ed ed 97 3d 68 09 ce 3d 6c ab 96 3e
       -0.3797537 0.074184276 0.10060388 0.2942766
0002a0 2f 5a c9 3e 28 7b 68 bf 7c b6 b3 bd b4 34 01 3f
       0.39326617 -0.9081292 -0.087750405 0.50471044
0002b0 d0 06 88 3e cf a7 09 3f 7d 95 4b bf 6f 73 89 bf
       0.26567698 0.5377168 -0.79524976 -1.0738353
0002c0 81 27 95 bf b1 96 9f 3d 0f 0c f1 be ce f3 b2 3e
       -1.1652681 0.07792414 -0.47079512 0.34951633
0002d0 5c 6b bc be f2 b1 5c 3e 49 9f ca bd 5e 90 65 be
       -0.3680066 0.21552256 -0.098936625 -0.22418353
0002e0 3b 94 0a 3d b8 26 2d be e9 07 55 bf 60 20 b1 bf
       0.03383277 -0.16909301 -0.83215195 -1.3838005
0002f0 0f a7 7f 3d 16 10 1a bf 55 07 20 be ab df d8 3e
       0.06241518 -0.60180795 -0.15627797 0.42358145
000300 4a 6a fc 3e 8a 05 82 bf f5 f5 9f 3d 3e cf a2 be
       0.49299842 -1.015794 0.078105845 -0.31798738
000310 68 12 32 bf 4f 6a b1 be 81 84 3d 3d 75 6a 93 be
       -0.69559336 -0.3465142 0.046268944 -0.28792158
000320 ad 98 16 bf 7d 77 c0 3d fa 68 d4 bd 94 f9 8f bf
       -0.58826715 0.093977906 -0.10371585 -1.124804
000330 90 b0 24 3e 19 6c a3 be a8 41 f4 be f0 48 3c bf
       0.16082978 -0.3191841 -0.47706342 -0.73548794
000340 6d 9e e0 3d 70 51 47 3e bd d3 e0 3e 61 6e 58 bd
       0.10967717 0.1946466 0.43911543 -0.05283964
000350 f8 d0 fe bd 3a d1 13 bc 55 57 31 3e e6 e1 33 bf
       -0.124422014 -0.0090220515 0.17318471 -0.7026657
000360 c3 6b e8 be 31 00 5b bf 93 97 27 3f 90 f3 3f 3f
       -0.45394716 -0.8554717 0.6546566 0.7498102
000370 39 01 48 be 59 7a f3 3e 55 29 d3 3e df 41 9f 3e
       -0.19531716 0.4755428 0.4124247 0.31104943
000380 f4 66 cb 3e 32 37 6e be 7e 68 7c 3e 01 57 12 3f
       0.39726985 -0.23263243 0.24649236 0.5716401
000390 22 f7 87 3e 4c e1 1c bf 62 ad 1b bf 6b 73 a0 bf
       0.26555735 -0.61281276 -0.60811436 -1.2535223
0003a0 0c 08 03 be a9 fa ab bf 4d c1 27 bf 5d 1a 1a bd
       -0.12796038 -1.343587 -0.6552933 -0.0376228
0003b0 2a ae 9b 3e 4e 10 f1 3e 40 11 14 bf 6b 80 7f be
       0.30406314 0.47082752 -0.5783882 -0.24951331
0003c0 ed a8 7c bf 1d 50 35 bf 78 22 4f be 5b d8 16 bf
       -0.9869526 -0.7082537 -0.20227993 -0.5892388
0003d0 a8 3c 23 bf 81 8c 9b 3d 4d df 19 bf 32 bb 52 bf
       -0.6376443 0.07595158 -0.60106355 -0.8231689
0003e0 80 ec 17 bf 08 da 81 be 16 15 5f 3d 26 1b cd be
       -0.59345245 -0.25361657 0.05446347 -0.40059775
0003f0 5c 0a 54 bf 5e e8 d5 3d 68 dd af bd b5 f9 3e bf
       -0.8282831 0.10444711 -0.08587152 -0.7459977

fc3.bias f4 [128]
000000 ff 1e a7 be 2c 73 09 bd 98 bd ec be ab 8c 93 be
       -0.32640836 -0.033557102 -0.462384 -0.2881826
000010 32 95 fa 3e 7e c5 1b be 05 44 fb 3e 27 81 e6 3e
       0.48941952 -0.15212056 0.49075332 0.4502041
000020 ff b1 1d 3f de 5d 37 bd 3d 42 07 3f 00 7d e0 be
       0.61599725 -0.044767253 0.52835447 -0.43845367
000030 3e 03 be bd 5b 11 a2 3d 26 8a e6 be 43 b1 5f 3d
       -0.09277962 0.079134665 -0.45027274 0.05461241
000040 76 d0 3c 3e 82 e4 bb 3e 2e 64 65 be 69 85 44 be
       0.18438897 0.36697775 -0.22401497 -0.19191517
000050 a5 d0 f0 bc 7e 03 42 bc 92 14 d9 bd 5e fb 21 bf
       -0.029396364 -0.011841653 -0.105996266 -0.6327418
000060 ab f6 1a 3e c0 41 80 3e 69 5b 98 3d 1a 72 07 bf
       0.15133159 0.25050163 0.0743931 -0.5290848
000070 ec eb 83 be 9a e0 0c bf a8 9b 67 bd ff fc ef bd
       -0.25765932 -0.55030215 -0.05654493 -0.11718177
000080 ae 43 82 3d 15 e7 ce be 4e 84 da bd e6 c4 5a be
       0.06360565 -0.40410677 -0.10669766 -0.21364173
000090 cb 3c 29 be fd ee 59 3e ff fc 1c 3d ff e8 06 bd
       -0.16527097 0.21282573 0.038327213 -0.032937046
0000a0 b7 3d 7f be 44 ef 36 bf 87 e3 f9 bd 0a cb 80 3d
       -0.24925886 -0.7145884 -0.122016005 0.06288727
0000b0 67 df 95 be a5 4e 55 bf 0e d9 12 bf 7c 4c a6 3d
       -0.29272005 -0.8332313 -0.5736245 0.08120057
0000c0 4f 4a 47 3c bf b2 ca be b6 b8 74 be e3 2e a2 3d
       0.012163713 -0.39589497 -0.23898587 0.07919099
0000d0 45 03 79 be 89 97 bc be b2 ec 95 3c 4f 3c 6a be
       -0.24317653 -0.36834362 0.018301342 -0.22874568
0000e0 83 de f0 3d ad 6c 3e be 25 60 3c 3e ab 51 58 be
       0.11761191 -0.18596144 0.18396051 -0.21124904
0000f0 50 e7 c1 bd 48 e5 c8 3e e3 af 4a 3e 7b 95 ec bd
       -0.094679475 0.39237428 0.19793658 -0.11551949
000100 92 28 9d be 85 f3 ec 3e 55 f6 a2 bc 57 5b ad 3d
       -0.30695015 0.4627954 -0.01989285 0.08464687
000110 64 df 50 3a 4c ca a2 bd d5 d0 55 be ad 53 8c be
       0.0007967858 -0.07948741 -0.20880444 -0.2740759
000120 bc d7 ea bc 74 d9 1d be f5 1c 81 be a5 64 7e bf
       -0.028667323 -0.15414983 -0.25217405 -0.9937232
000130 87 98 c1 bd b9 53 7c be 31 15 fa 3f 71 6a 3f bf
       -0.094529204 -0.24641313 1.9537717 -0.7477179
000140 1d 40 2c be 45 ad 85 be 9d 34 2e be 7a 00 ab be
       -0.16821332 -0.26108757 -0.17012258 -0.333988
000150 73 ac 25 be 43 a5 0a 3e 92 fe 5b be 94 08 df be
       -0.16179065 0.13539605 -0.2148383 -0.43561232
000160 14 2b c9 3c ad 02 00 bf 20 88 80 bf 4d 63 e1 be
       0.024556674 -0.5000408 -1.0041542 -0.44021073
000170 ce 14 c8 3e 3d 64 22 bf f2 c2 de be 48 de a3 be
       0.39078373 -0.634342 -0.43508106 -0.32005525
000180 39 9a 1d be 5d 87 d1 bd ed 91 06 3e 1d bb a7 3d
       -0.15390863 -0.102308966 0.13141604 0.08189986
000190 83 64 08 bd 9f 7e 09 be 97 c1 c9 3e 99 d1 c1 be
       -0.03329898 -0.13427208 0.3940551 -0.37855223
0001a0 86 4f 87 bc 05 27 e0 3c 00 f0 82 be 34 45 84 be
       -0.016517412 0.027362356 -0.2557373 -0.25834048
0001b0 1a d2 8e be a4 a9 86 be 9a dc 9e be a5 78 89 be
       -0.2789467 -0.263013 -0.3102768 -0.26849857
0001c0 94 4f 59 be 7b b6 0b 3d c9 a6 b3 3d a4 1e 8a bf
       -0.21221763 0.034109574 0.08772046 -1.0790601
0001d0 f4 10 21 be aa 89 09 bf 81 22 bd 3e 4a 13 a7 be
       -0.15729123 -0.53725684 0.36940387 -0.32631904
0001e0 24 28 8d be 17 a2 4f be 0b 08 ef 3e db b9 8a be
       -0.27569687 -0.20276676 0.46685824 -0.2709492
0001f0 a1 48 b3 3e be 87 9c be 22 48 01 be 6b ae 53 3d
       0.3501635 -0.30572313 -0.12625173 0.05168001

fc4.weight f4 [32, 128]
000000 61 4f 7b 3c 40 31 6a 3e 96 58 65 3e cf 4f 4d 3d
       0.01533875 0.2287035 0.22397074 0.05012494
000010 ed 67 51 bd ea b8 50 3d f7 5c dc 3c af 53 9c 3d
       -0.051124502 0.050957598 0.026899798 0.07633149
000020 4b 9c d4 3c 03 4a cd be 62 cd 40 bd 87 c3 35 3e
       0.025953433 -0.4009553 -0.04707087 0.17750369
000030 ac de c3 bb d9 fd 2d 3e 65 05 f4 3c 54 74 b2 be
       -0.0059774723 0.16991366 0.029787729 -0.34854376
000040 e4 f2 38 3e 90 02 53 3d 39 b9 84 bd 69 6b fb 3d
       0.18061405 0.051516116 -0.06480641 0.12276346
000050 d9 3f 02 be 08 f3 04 bf d0 d4 f6 3e a2 7a 83 be
       -0.12719668 -0.51933336 0.48209238 -0.256795
000060 7b f0 b2 bd f8 00 c5 3b 39 72 5b be 7e 36 b4 3d
       -0.08737274 0.0060120784 -0.21430291 0.08799456
000070 08 b9 92 bd 88 af 48 bd 66 47 30 3d 13 22 83 3d
       -0.07164198 -0.048995525 0.04303684 0.064029835
000080 48 a7 c1 bd 5a 2a 12 3d f2 94 a7 be 21 b0 10 3e
       -0.094557345 0.03568492 -0.32730824 0.14129688
000090 c6 6a 43 3d c5 a3 8b 3e fb 64 c6 3d 95 3d f5 bd
       0.04770925 0.27273384 0.09687229 -0.119746365
0000a0 e4 f6 a2 bc 03 1c 02 be 91 3a 72 bb 64 95 9e bd
       -0.019893117 -0.12705998 -0.0036961178 -0.07743338
0000b0 58 1f 17 bc 2e 70 e9 bd ec 0c a1 be 1b a0 c4 bd
       -0.0092237815 -0.1139835 -0.3145517 -0.0960085
0000c0 69 a0 a5 be 6d 9e 4f 3e 07 0e a1 bc 1d 24 c6 be
       -0.32348946 0.20275278 -0.01966001 -0.38699427
0000d0 b9 63 87 be 41 13 e9 3d 46 5d 33 bf ff a6 a7 bd
       -0.2644327 0.113806255 -0.700642 -0.08186149
0000e0 90 a3 ba bd 04 bb a0 bd 76 66 46 bd 6a 3c 01 3e
       -0.09113228 -0.078481704 -0.048437558 0.12620702
0000f0 4b d1 8c be f2 27 91 3d 77 f6 db bd 97 3b f4 be
       -0.27503428 0.07087697 -0.10740369 -0.47701713
000100 09 2b d1 bd b8 d0 fc bc 60 0c 21 bb 20 63 ad 3d
       -0.102132864 -0.030861244 -0.0024574026 0.08466172
000110 32 60 60 bd b6 61 8f bd cb e9 00 bc 2b c8 b2 bd
       -0.05477924 -0.07001059 -0.007868241 -0.08729585
000120 83 da 2f be 66 31 7e bd 66 c6 e5 bd 0a cd 2d be
       -0.171732 -0.06205883 -0.11219482 -0.16972747
000130 d0 04 a3 3e 09 6b de bd e8 0a 26 bd a2 6f c4 bd
       0.3183961 -0.10860259 -0.040537745 -0.09591605
000140 4f db d9 3d dc 61 84 be 11 88 a7 be 8b fe 6e 3d
       0.10637533 -0.2585591 -0.32720998 0.05834822
000150 d1 05 bd be b3 ff a9 bc 61 7a d4 3d b9 43 a0 be
       -0.369185 -0.02075181 0.103749044 -0.31301668
000160 cc 47 42 3e 84 bd eb 3d e0 2e 34 3e a8 12 51 be
       0.18972701 0.115107566 0.17596006 -0.20417273
000170 34 22 f4 be 4f f0 52 3e ed 72 46 be 38 68 2f bd
       -0.47682345 0.20599483 -0.19379778 -0.042824
000180 97 5e c1 bd f3 c0 03 3d 0d 00 4f bd 23 3d 8d be
       -0.0944187 0.032166433 -0.050537158 -0.27585706
000190 a6 58 14 3e 5d b1 9f bb 6d 5f 02 be 05 bd ac bd
       0.14486942 -0.0048734383 -0.12731715 -0.0843449
0001a0 51 ac 1a 3d ae 41 bd 3c c0 94 9b 3c 50 d1 84 3d
       0.03776199 0.023102608 0.018991828 0.06485236
0001b0 8a f4 4f be 53 14 2b be 67 95 9c bd 9f dd 1a bd
       -0.20308128 -0.16706972 -0.07645684 -0.03780901
0001c0 82 ef 30 be ef 54 a2 bd 63 0a 0c 3e 80 02 9e 3d
       -0.17278865 -0.07926356 0.13675837 0.077153206
0001d0 2e fb db 3d 37 95 90 bd 0f db a5 3d 1f 7c ad be
       0.10741268 -0.070597105 0.08098423 -0.3388376
0001e0 7a 65 8a be df d6 c1 bd a3 d9 a3 3d 2f 4e 85 3d
       -0.27030545 -0.094648115 0.08000495 0.06509053
0001f0 d9 51 37 be ac 16 52 be 8b 78 04 be eb 51 97 be
       -0.17902316 -0.20516461 -0.12936608 -0.29554686
000200 5f e0 90 3c 6e 14 5d 3d 0f 9a 10 3e 19 37 fd 3d
       0.017685113 0.05397456 0.14121269 0.12364025
000210 a8 bd 9b be f0 f0 42 3d bf 0a 40 be eb da 8d be
       -0.30418134 0.047593057 -0.187541 -0.27706084
000220 02 66 8b be 2d 3f b4 bc 33 b9 9f be 9f 8d 87 bd
       -0.27226263 -0.02200278 -0.31195983 -0.06618809
000230 e2 bd 44 be 31 93 c2 bd 34 2c f7 3c b3 9b 04 3d
       -0.1921306 -0.09500731 0.030172445 0.03237505
000240 e6 7c 0f bd 43 8c 58 bd 57 95 5d bd b4 76 f5 bb
       -0.03503122 -0.05286814 -0.0540975 -0.007490957
000250 de 85 a3 bc 36 42 e5 bc 5f cf 1a bd 28 e0 2e be
       -0.019961294 -0.027985673 -0.03779542 -0.17077696
000260 6f b3 49 bd be 9e 35 be 09 93 fc 3d 93 b4 96 3d
       -0.049243387 -0.17736337 0.12332732 0.073586605
000270 1e bb 11 3e dc 6a 3d be 28 e5 26 be 9d 66 23 3d
       0.14231536 -0.18497795 -0.16298354 0.03989278
000280 5a 8e d7 bd 81 13 72 be ef 29 24 be 34 d1 62 be
       -0.10525198 -0.23640253 -0.16031621 -0.22150117
000290 09 cc ad 3d 2b ac 45 be bb aa b3 3d ab 1c a1 3d
       0.08486182 -0.19303958 0.08772799 0.07866796
0002a0 21 a4 1c be fe ef 10 3d ef c2 11 be 14 4e ab 3c
       -0.15296985 0.035385124 -0.14234518 0.020911254
0002b0 e6 d3 79 3d fb 5f fe bc c6 4b 4a 3b b1 d1 42 bd
       0.060993098 -0.031051626 0.0030867918 -0.04756326
0002c0 c8 99 92 bd 6a 3c 01 bd 88 ec 1b be 8f dd 88 3d
       -0.07158238 -0.031551756 -0.15226948 0.06682884
0002d0 35 da 04 bd 18 6e 89 bd 55 13 65 3d d8 d6 80 3d
       -0.03243466 -0.06710452 0.05592664 0.06290978
0002e0 98 7c 24 be ca 26 02 be 37 74 40 bd 0e 03 f8 bd
       -0.16063154 -0.1271011 -0.04698583 -0.12109958
0002f0 85 86 90 3d 9c 89 16 3d 8b 08 50 3d 60 4c 1b be
       0.070569076 0.03675233 0.050789397 -0.15165854
000300 61 c8 14 be b7 89 07 bf 3e 83 6f 3c a4 e8 e2 bc
       -0.14529563 -0.5294451 0.014618693 -0.027698822
000310 49 cc 14 3e f8 19 0a 3c a2 7a 83 3d 90 df dd bb
       0.14531054 0.008429043 0.06419875 -0.0067710355
000320 73 e3 96 3c 87 60 7a 3d 03 1c b4 3b 6c f9 76 3d
       0.018419003 0.061127212 0.0054965033 0.06029646
000330 fe e4 99 bd 27 fc 1b 3e 4c 33 96 be ec 91 3d be
       -0.0751438 0.15232907 -0.2933601 -0.18512696
000340 b1 64 b1 3d 94 cc 59 be dd bf 52 3b b8 61 9c be
       0.086617835 -0.21269447 0.0032157816 -0.30543303
000350 96 0a fa 3d 03 e8 03 3c d7 5a 07 be ea 31 b1 bc
       0.1220905 0.008050921 -0.13218246 -0.021630246
000360 c3 90 29 3e f4 a0 6c be 2f 7d 54 3d 21 b1 e8 bc
       0.16559128 -0.23108274 0.051877197 -0.028404774
000370 3e d7 b6 3c 34 dc 59 be 5a cc 30 be fb 63 28 bd
       0.022319432 -0.21275407 -0.17265454 -0.041110974
000380 01 fc d5 bd cf d1 7a 3d 6a 7d fd bd 37 58 53 be
       -0.104484566 0.061235245 -0.123774365 -0.2063912
000390 46 4d f8 bd c5 ab 0f 3e 77 e9 dc bb 3c 27 0d bd
       -0.12124114 0.14030369 -0.0067416984 -0.034461245
0003a0 3c f4 2a bd 6d 90 0f 3e 17 ec 10 be be 4a ee bd
       -0.041736826 0.14019938 -0.14152561 -0.1163535
0003b0 5c c7 ff bd 51 85 27 3d d7 f5 c9 bd 5d ee 63 bd
       -0.12489197 0.040898625 -0.09861343 -0.055647243
0003c0 3e 7d f0 3c 9b f5 20 3d ef c8 90 bc cc 53 12 be
       0.029356595 0.039296728 -0.017673938 -0.14289778
0003d0 2b bd 3b be 46 e6 e5 bc 8a e5 95 bd 67 93 a4 bd
       -0.1833388 -0.028063904 -0.07319172 -0.08035927
0003e0 a4 69 0d bd fd b8 3d be 62 45 15 be b9 46 7d bd
       -0.034524575 -0.18527599 -0.14577249 -0.061835025
0003f0 c1 14 b0 3c 20 00 38 bd 2c f4 0e be 92 fa 43 bd
       0.021494271 -0.044921994 -0.13960332 -0.047846384

fc4.bias f4 [32]
000000 2c 74 9d bf d1 51 4a bf 03 39 10 3f 60 1d a1 be
       -1.2301078 -0.7903109 0.5633699 -0.31467724
000010 49 0c 43 bf 3b 02 7e bf 3b ac aa bf 87 b4 7d bf
       -0.7619062 -0.99222153 -1.333381 -0.9910359
000020 6d 96 0e bf 58 3f 41 bf 41 76 96 3f 21 d4 5a bf
       -0.5569828 -0.7548728 1.1754838 -0.85479933
000030 8e cc 66 bf b8 a0 68 bf 5e 21 a1 3e cc 6a 08 bf
       -0.90155876 -0.9087024 0.3147077 -0.5328796
000040 86 14 07 bf f3 8e 28 bf ac 49 04 bf ff 56 52 bf
       -0.5276569 -0.65843123 -0.51674914 -0.82163996
000050 ad d1 4a bf 0a 26 9f 3f d0 70 67 bf 8f 95 4e bf
       -0.7922619 1.2433484 -0.90406513 -0.8069696
000060 5b 96 5d 3f 5f d1 6f bf 66 1b 98 3f 2f dc f8 bf
       0.8655755 -0.9367885 1.1883361 -1.9442195
000070 97 f4 eb be 53 b9 57 bf d0 62 ac be f1 87 57 bf
       -0.46085045 -0.8426716 -0.33669138 -0.84191805

Q.weight f4 [1, 32]
000000 eb aa 7d bc d1 24 3e 3b 91 f9 62 bd bb 15 45 bd
       -0.015482645 0.0029013644 -0.055413786 -0.048116427
000010 44 be 9c 3b 15 5b f7 bb e6 35 4a bc c6 21 ea ba
       0.0047834236 -0.0075486996 -0.012341952 -0.0017862848
000020 f6 f3 6d bb d2 51 9e 3b 8f 13 2a 3d 04 98 cf 3c
       -0.0036308742 0.004831531 0.04152256 0.025341041
000030 72 96 8e bc 9b 8f 36 bd 36 82 02 3c 74 b5 89 3c
       -0.017405722 -0.044570547 0.007965615 0.016810156
000040 4f c4 87 3c c3 69 79 bc d5 39 22 3c 31 f3 40 bc
       0.0165731 -0.015222969 0.009901484 -0.011776731
000050 df 37 21 bd 9c 25 9e 3c 78 64 88 bc dd ce 5a 3b
       -0.039359923 0.019305043 -0.01664947 0.003338746
000060 8f ed cb bc 50 7f 8d bc fa 73 89 bc 9e 41 1d 3d
       -0.02489355 -0.017272621 -0.016778935 0.038392656
000070 4a e1 a2 bb a3 fd 82 bb 43 f5 bb bd a1 b5 13 bd
       -0.004970704 -0.003997521 -0.09177639 -0.036061887
