checkpoints/maddpg/maddpg1_checkpoint_critic_target.pth (torch, 474855 bytes, 13 tensors)

fc1.weight f4 [256, 52]
00000000: 9d37 3cbe bb46 aabe 3c01 753c 4de8 893d
00000010: 7206 33be 2889 bdbe 470d 80bc ebe6 6dbc
00000020: 5482 aa3d 0d50 9fbe 3850 1a3e d096 f53d
00000030: c70a 29be 722a b13d bd10 a9bd ab07 bdbc
00000040: 1923 e23c 0439 37be f030 eb3a 4e8d f13e
00000050: 1ae5 463d 97bc 883e a34e adbd 58df d03e
00000060: 95db 1e3d 212a acbe 01d5 e6bd 3fd0 08be
00000070: 33ef 6e3e d8ed 77be d9b5 d83d ef8d 1abc
00000080: 66e7 af3c 9b3b 8abe 3aa8 1abd 30eb d23d
00000090: fa67 ac3d afcd 6ebd 0a33 dd3c eb0b c7bd
000000a0: 96af 8fbe 68bc 60bf bfe8 02bb 6a8e bfbe
000000b0: a79f aabd 82df 4f3d d468 fbbc 0179 cbbe
000000c0: 30e9 8940 d29e 9b3f 5ae4 17c0 a25d 0a41
000000d0: 2ef3 083d f4d5 213f 1561 183e 4fdf ebbd
000000e0: 8317 15bf 334f 85bf 02d4 e13c dacc 823d
000000f0: 0bcd 4e3f 1384 223f 2842 933e 4a0d 72bd
00000100: f985 31bf 3536 9fbf 188c c83e 13a2 54bd
00000110: 2d4c 833f be1d 023f 715b 903e 7545 9c3f
00000120: 49ac 3abf 74bd 27bf e919 863e 6263 903f
00000130: c75c 143e a7ae aa3f e2a9 683d 8335 4b3e
00000140: d936 c23e 124c 84bf e068 14bd a815 9dba
00000150: 869d c8bd c1d2 c43f 7645 04bd a328 483c
00000160: 1198 353f 00f6 a3bf d4d6 a9bd 079a 68bd
00000170: ae43 92be c10f 883f 4785 15bd 210a 01bf
00000180: 06eb 143f aa61 4fbf c5c7 38be de13 ffbe
00000190: 7891 5840 f392 c2be a5fd f6bf ac56 60c0
000001a0: 12eb c63e 8c85 2ebf f2b8 743c da9f 4f3e
000001b0: 2b13 cf3c 9a7b 46bf b786 673e 9a59 473e
000001c0: daec 763e 91dd e1be 006c fabd 54a0 b53f
000001d0: 7a8d 18be d28c 1dbf 4c94 84be 2589 bb3f
000001e0: ab49 7bbd b0b7 4abf abf4 d03d 95ce 5d3f
000001f0: e335 3bbf 7c53 163e 3bf6 3b3d 58d2 823f
00000200: b6e0 0440 fdb6 ca3e 4bab cb3d 95fb 713e
00000210: 1f42 c0bc 9cec 4fbf 5be5 07bb 5686 be3e
00000220: b218 a03f 6816 7b3e e8e9 6abe d6b7 473c
00000230: baf3 9c3e 115c 23bf 5d02 95be c735 a6bd
00000240: ce6d 853f 19d6 cabe ae58 16be b5cf cfbe
00000250: debf 203f 3c97 a8bd 7bca 21bc 63d3 58be
00000260: 2f6e 1f40 9c2d 18c0 ad96 1840 e92f 1bc0
00000270: 276e 82bd 0bfc b9bd f56a 97bd 086e 0bbc
00000280: adc9 d63a d8e9 c33e 7a3a 603d 5cb9 1b3d
00000290: 962a 76be 2ce1 3cbe 5b88 fb3b 8cd8 1fbe
000002a0: ca45 043f 7709 ed3e f376 53bd b046 43bd
000002b0: 9f8a 16bc abe7 e0bc 1777 33bd dbae dabd
000002c0: de57 c93f 09d2 c53e 7d35 03bd 5ef3 0cbe
000002d0: 206f f23e 342e 06bf 17c4 e63d 33a2 13be
000002e0: 9601 1ebd 2eff c43e 1737 0abe 79e9 13be
000002f0: 659a b83f 3822 ebbe c329 583c 4468 62bd
00000300: c3ad 2dbf b11f c03e ee99 793c 624d bebd
00000310: ec60 0940 3ed9 d9bd 4e24 cab8 580b 7d3e
00000320: 0dee c6bf 4ece 933e 5a33 d03d 6b45 913d
00000330: b3d4 003e e178 d6be a6d8 1e40 9bfc 1e3e
00000340: 7106 a43f 1a8e c1bf dcd3 5ebe 199f 93bf
00000350: 17cb 973e 96c1 88bf bd4b f1bd 0639 9cbf
00000360: d438 7f3f d8e1 02c0 8f37 18be d44c 6dbf
00000370: 5035 933d c854 07bf b37b fdbd 4e58 70bf
00000380: ed65 843f 4fd5 15c0 762c d93d e94a 9a3e
00000390: 243f 46be 9812 e7bd 551b 723d da22 013f
000003a0: df88 9d3d 9585 3b3f 8047 33be f6f7 f83d
000003b0: ab8e 40be 42be 9bbf 77d5 d33c dd97 af3c
000003c0: 73bf 97be 67c3 dc3e f2b6 20be 22fb 833e
000003d0: 1188 1bbe f1c7 f3be 9bac 67be da21 8a3e
000003e0: 1ced 463c 10a6 a53e 17b8 113f aa03 19bf
000003f0: da52 e73d 5f87 073e 868d 313f d50f b5be
-0.1838059 -0.33257088 0.014953908 0.06733761 -0.17482927 -0.37018704 -0.015631331 -0.014520387
0.08325639 -0.3111576 0.15069664 0.11991656 -0.16508017 0.08650674 -0.08255146 -0.023074945
0.027604626 -0.17892843 0.0017943662 0.4717812 0.048558332 0.26706383 -0.084622644 0.40795398
0.03878363 -0.33625892 -0.11271096 -0.1336069 0.23333435 -0.24211824 0.1058156 -0.009433254
0.021472644 -0.269986 -0.03775809 0.10298765 0.084182695 -0.058301624 0.027001876 -0.0971907
-0.2806365 -0.87787485 -0.0019975153 -0.3741334 -0.083312325 0.050750263 -0.030689634 -0.39740756
4.3097153 1.2157843 -2.3733125 8.64786 0.03343504 0.6321709 0.14880784 -0.11517202
-0.58239 -1.0414795 0.027566914 0.063867286 0.8078162 0.6348278 0.2876141 -0.059094705
-0.6934505 -1.2438418 0.39169383 -0.05191238 1.0257622 0.5082663 0.28194764 1.2208697
-0.72919136 -0.6552346 0.26191643 1.1280329 0.14488517 1.333455 0.056802638 0.19844632
0.3793247 -1.0335715 -0.03623283 -0.0011984603 -0.0979567 1.5376817 -0.032292806 0.01221672
0.7093516 -1.2809448 -0.08292928 -0.056787517 -0.2856726 1.0629808 -0.036504056 -0.5040608
0.5817112 -0.810084 -0.18044956 -0.49819845 3.3838787 -0.38002738 -1.9296156 -3.50529
0.3885122 -0.68172526 0.0149366725 0.20275822 0.025277695 -0.7753235 0.22609983 0.19467774
0.24113789 -0.44114354 -0.122276306 1.4189553 -0.14897719 -0.61543 -0.25894392 1.4651228
-0.061349552 -0.79186535 0.10202917 0.86643344 -0.731291 0.14680284 0.04588912 1.0220442
2.0762153 0.39592734 0.09944781 0.23631127 -0.023469029 -0.8122041 -0.0020736072 0.37211865
1.2507536 0.24520266 -0.2294079 0.012189826 0.306547 -0.6381236 -0.29103366 -0.08115726
1.0424135 -0.3961647 -0.14682266 -0.40588155 0.62792766 -0.08231971 -0.009874935 -0.21174388
2.4911 -2.3777838 2.3841965 -2.4247992 -0.06368666 -0.090812765 -0.07393447 -0.00851012
0.0016387008 0.38264346 0.054743268 0.03801857 -0.24039683 -0.18445271 0.007676167 -0.1560995
0.5166899 0.46296284 -0.05162711 -0.047674835 -0.009188323 -0.027454218 -0.043814745 -0.10677882
1.572994 0.38636807 -0.032033432 -0.13764712 0.47350407 -0.5241425 0.1126787 -0.14417343
-0.03857573 0.38475937 -0.13497578 -0.14444532 1.4422117 -0.45924544 0.0131935505 -0.055275217
-0.67843264 0.3752418 0.015234454 -0.09292103 2.1465406 -0.10637139 -9.638873e-05 0.24711359
-1.5541397 0.28868335 0.101660445 0.070933186 0.12581138 -0.41889098 2.4819732 0.15526049
1.2814466 -1.5121491 -0.21760505 -1.1532928 0.29647133 -1.0684078 -0.11782024 -1.2204902
0.9969609 -2.0450344 -0.14864944 -0.92695355 0.07187903 -0.5286374 -0.123771094 -0.9388474
1.0343605 -2.3411443 0.106041834 0.30135277 -0.19360024 -0.11282843 0.059108097 0.50443804
0.07692122 0.73250705 -0.17507744 0.1215667 -0.18804424 -1.2167437 0.025858624 0.021434719
-0.29638252 0.4311783 -0.15694788 0.25777537 -0.15188624 -0.4761348 -0.22624438 0.26978952
0.012141492 0.32353258 0.56921524 -0.59771216 0.112950996 0.13235234 0.6935657 -0.3536364

fc1.bias f4 [256]
00000000: 0547 923d 14c1 00bd 1492 31bf f7c2 52bf
00000010: 5cb2 78bf 0ba9 20bf 3a5b b7bf 41e8 0b3f
00000020: 2172 6bbf 22e5 97be e440 0abf aaad 48bf
00000030: b02f 90bf 104e eabe d926 b2be b300 373f
00000040: 1ded 49bf c455 05bf 1340 60be b3f4 99bf
00000050: 376c 09bf ba3f 05c0 2281 88be f636 24bf
00000060: 535a 1bbf 8b65 c9bf 3689 54be 8249 0cbe
00000070: e981 0fbf ab7a b9bf 2d28 923d c492 b4be
00000080: 361a bcbe ebd6 8a3c 848a c9bf e8e5 f3bb
00000090: 9254 3bbf 7cb3 f8be 1789 64bf 6e00 3cbd
000000a0: 1821 43bf b8de 3f3c ae09 fdbd e991 e4be
000000b0: 2104 103d 804a c2be 7580 80bf 7594 75bf
000000c0: 15fd 9cbf 30d9 82be 291c 693d 3a5e a1bf
000000d0: 2efb 86bf acd4 77bf 1f69 17bf 723f df3c
000000e0: 7ebd 50bd 402d 813e 769f d5bf 3ad7 55be
000000f0: 3d52 b6bf f35a b8bf 36c5 cebf 5248 15bf
00000100: dcb9 babe f191 91be 527a 24bf fa2f 13bb
00000110: 3eea 0bbe 6353 41bf e9d5 10bf 36e1 a53d
00000120: 657b 22be d0fd 17bf 92d1 9fbe c932 5fbe
00000130: 395d 20bf 6985 8c3e e302 2dbe 95aa 19bf
00000140: f2ef 95be 024e 10be 4e90 c0bf 35ba 05bf
00000150: e6d6 b9bf 479e 9bbe c339 87be 2487 f5be
00000160: ed67 07bd d058 28bf 07e4 2ebf cf81 3abf
00000170: 6c82 0abf cd4f 4cbf 1ffd 4cbe 2dba 993d
00000180: b216 2ebe 7dce 49bf 1524 a63d f8d7 5fbf
00000190: e56d 9cbf d53d b8bf 196f 8abe 935f acbe
000001a0: d359 29bf f872 6fbf e9bd 06bf b009 3cbf
000001b0: 18bd 97bf 0039 dcbf ab07 a23d 5344 15bf
000001c0: 9fd1 37bf 3883 3d3d de32 d7bd eac7 5abf
000001d0: 1f0c 00c0 2903 7bbf 33f4 33bf d19e 82bf
000001e0: 9f5b 69be 38b7 76bf f776 b0be 3d6a 24bf
000001f0: 7fed 873d 4e1d 8cbf 1ed4 07bf 0c1c 90be
00000200: 62bb 52bf 0e8f adbf b3b9 5fbc 1fab 94c0
00000210: 9c19 d93c b5df d6be b458 b7be b15f 093d
00000220: 074e 22bf e743 b3bf b894 79bf 690c 663e
00000230: a684 f7bd 80ad 88be 7ad1 35bf e806 3ebf
00000240: b63e 0fbf ab67 21bf 656b 0bbf 365d 18be
00000250: 8b8c 83bf bd73 f5be ab2d bbbe fc59 75bf
00000260: 718b 4abf 130d bdbf 0276 acbe 9575 a6be
00000270: 735a 28be 1d05 5cbf 62e8 8cbe c829 4fbf
00000280: d382 a83c 5b49 80be 7f30 d7be 3718 11bf
00000290: 3bd5 2abf 85ee 1c3d 2f1e 68bf 79f6 6bbf
000002a0: da1e 46be 52f7 40bf 22af efbf f925 9abf
000002b0: 2c96 1cbf 4f37 f9be 716e 4fc0 aaea b9be
000002c0: a322 a6bf 835e 2cbf 9061 62be 52e8 01bf
000002d0: 09b9 d1be 009d 76bf 22d5 5b3b 15ba 02bf
000002e0: 98c5 96bf e88b 57bf ef69 3abe 76aa a4bf
000002f0: 5c33 a4bf 4a88 803e b606 80be 2b8b 4bbf
00000300: 2b94 60bf 8d1c 45bf afe0 99be a4d0 e5bd
00000310: aaa1 3a3e 6aeb 14bf a4ab 6fbf bdf2 07bf
00000320: f3dc 50bf d96a 37bf 22e8 28bf 8501 063d
00000330: a32a c4be 22e2 fdbf 3183 79bf 148b 0fbf
00000340: f810 5cbf 69e2 c73e dd91 e83d b37b 53be
00000350: 6db2 09bf 6622 d5be 3524 89bd 701d dabf
00000360: 0629 11bf ff51 4abf 5dde 1fbf 5ef9 c0be
00000370: 97db cc3d 7570 d3bd a7e6 4bbe 6c30 34c0
00000380: 5c8f 16bf 6473 9fbf 3c58 dcbf 6a68 dfbe
00000390: 1603 24bf 7cb6 6abf 780d 81bd d1cc 5ebf
000003a0: f614 69bf 3539 44bf c9fa abbe 0205 88bf
000003b0: 182d 41bf 751d d6bd 3d01 bbbc 7d4c c6bf
000003c0: 150e e2bd 6042 1ebf 0a1b 8dbc 10f5 9c3e
000003d0: c1dd 32bf 77bf 4dbf 1465 2dbf 3612 e2be
000003e0: 1acb 1dbf d927 aabe d0d0 0abf 2aa1 bdbd
000003f0: 921c 1ebf 1eca 82bf c702 4dbf dda8 80bf
0.07142452 -0.031434134 -0.6936352 -0.8232874 -0.97147155 -0.6275794 -1.4324715 0.54651266
-0.9197102 -0.29667002 -0.54005265 -0.7838999 -1.1264553 -0.45762682 -0.34795263 0.7148544
-0.7887743 -0.5208399 -0.21899442 -1.2027801 -0.5368075 -2.0820146 -0.2666102 -0.64146364
-0.606847 -1.5734113 -0.20755467 -0.13699916 -0.560576 -1.449056 0.07136569 -0.35268223
-0.36738747 0.016948184 -1.5745397 -0.0074431784 -0.7317592 -0.48574436 -0.8927168 -0.045898847
-0.7622237 0.011710815 -0.12355362 -0.4464257 0.035160188 -0.37947464 -1.0039202 -0.9592965
-1.2264735 -0.25556326 0.05691162 -1.2606881 -1.0545404 -0.96808887 -0.5914478 0.027251933
-0.050961964 0.25229836 -1.6689289 -0.20882884 -1.4243847 -1.4402755 -1.6153934 -0.5831348
-0.36469924 -0.28431657 -0.64249146 -0.0022459016 -0.13663575 -0.75517863 -0.565764 0.08099596
-0.15867384 -0.5937166 -0.31214577 -0.21796717 -0.62642246 0.27445534 -0.16895632 -0.6002591
-0.29284626 -0.14092258 -1.5044038 -0.52237254 -1.4518707 -0.30394194 -0.26411256 -0.47954667
-0.033058096 -0.6576052 -0.6831669 -0.7285432 -0.5410526 -0.79809266 -0.20018433 0.07506213
-0.17000845 -0.788307 0.08112351 -0.8743892 -1.2221037 -1.439387 -0.27037886 -0.33666667
-0.66152686 -0.93534803 -0.5263353 -0.7345228 -1.1854582 -1.7204895 0.07911619 -0.5830738
-0.7180423 0.046267718 -0.10507749 -0.85461295 -2.0007398 -0.98051697 -0.70294493 -1.0204717
-0.22788857 -0.9637332 -0.34465763 -0.64224607 0.06637096 -1.0946443 -0.5305804 -0.28146398
-0.82317173 -1.3559282 -0.013655114 -4.645889 0.02650147 -0.4196755 -0.35809863 0.033538524
-0.6340031 -1.4005097 -0.9749255 0.22465672 -0.120858476 -0.2669487 -0.7102276 -0.7422929
-0.55955064 -0.6304881 -0.54460746 -0.14879307 -1.0277265 -0.47939864 -0.3655828 -0.9584043
-0.7911902 -1.4769615 -0.33683783 -0.32511583 -0.16440754 -0.859453 -0.27521044 -0.8092313
0.020570194 -0.25055966 -0.42029187 -0.56677574 -0.66731614 0.038313407 -0.90671057 -0.9217296
-0.19347706 -0.7537738 -1.8725321 -1.2042838 -0.61166644 -0.4867501 -3.2411158 -0.36311847
-1.297932 -0.67331713 -0.2210753 -0.5074512 -0.40961483 -0.96333313 0.0033543785 -0.5106519
-1.1779051 -0.84197855 -0.18204473 -1.286452 -1.2828174 0.2510398 -0.2500512 -0.7950923
-0.87726086 -0.7699669 -0.30054232 -0.11221436 0.18225732 -0.58171713 -0.9362128 -0.53104764
-0.8158714 -0.7164741 -0.65979207 0.032716293 -0.3831378 -1.9834635 -0.9746581 -0.5607159
-0.8596339 0.39039925 0.11355946 -0.20652656 -0.5378788 -0.41627806 -0.06696359 -1.7040234
-0.5670322 -0.79031366 -0.62448674 -0.37690252 0.10002821 -0.10324184 -0.19912206 -2.8154554
-0.588125 -1.245709 -1.7214427 -0.4363435 -0.6406721 -0.916847 -0.06301397 -0.87031275
-0.9104761 -0.7664979 -0.3358977 -1.0626528 -0.7545943 -0.10454837 -0.022827739 -1.5492092
-0.11037842 -0.6182003 -0.017224807 0.30655718 -0.6986962 -0.8037028 -0.6773236 -0.4415452
-0.61638033 -0.33233526 -0.5422487 -0.09259255 -0.61762345 -1.0217931 -0.8008236 -1.0051533

fc2.weight f4 [256, 256]
00000000: 902f db3e 3bf2 2abf e1a1 a13c 64e5 20bf
00000010: 06e9 f1bd 1e17 73bf f597 ab3e 2f6d 0bbf
00000020: 82bb 283d 73eb b2be 86d8 8cbd af4a 48be
00000030: 2a37 433d a7bd 98be 7538 2ebe 334e 5a3e
00000040: 2a7a 23bf 94e5 38be 1baa a63c 9d4f fabe
00000050: 7b91 5dbe f587 a53c e839 37bd 17e9 aebe
00000060: 68c9 0fbf 839a f3bd 6539 393f 7a43 46bb
00000070: 4d67 80bd 97fb 77bf 94f0 67bf 3d73 89be
00000080: 787c 0d3a 329e 8dbd e10c 9a3e d40a 64bf
00000090: 7e0d 563d 5357 863e a679 d0be ab88 45bf
000000a0: 2cd9 1fbf d195 343f 71ea b33d 84c8 8f3e
000000b0: 9abe 0c3c ad4b e5be 7234 433e 435d 88bd
000000c0: db92 e83e 3a9d 43be c475 1abe e958 f63e
000000d0: 1bb0 03bf 6555 18bf 4fab aa3e c4fc 2f3d
000000e0: 49aa 90bf 3169 3abd c4cb efbe 6791 f2be
000000f0: adbb e23e a85b 99be 2d64 503e 29d7 4fbf
00000100: f4de de3d 5d4f b73e aa65 d2be dde3 2f3f
00000110: 62e0 cc3e 77ce 5dbe f8bc 913e d7ed a2bf
00000120: 476e 853e ade6 41bf 8539 68bf 5878 abbf
00000130: b981 63be 1678 afbd acc7 fcbd 8b4a ecbd
00000140: 32ea 48bc a460 2abd 0802 fd3d 70ab fe3e
00000150: ffa9 4dbe ab3d 553d 0b98 17bf fd68 95be
00000160: af25 ac3e d9f1 3d3e 94cb 94be 4643 5dbd
00000170: 3ddc 8bbe 102c 0abf c8ea 47be 2938 a7be
00000180: c8de 273e 2ff1 2fbe 23c2 23bf aee7 4d3e
00000190: 6c6c 41bd 6b3d 7dbe 935b 8abd 2e86 433e
000001a0: 3f80 9f3e 88c0 71be 8a1b 003e 0c52 eb3e
000001b0: cd00 50be 3bfb 58be 6717 6abd 8e2b bb3e
000001c0: afe0 6ebe e829 5b3e 9ccb 2f3d 01b2 053e
000001d0: 356c 9bbd a79b 6cbf 098a bebd 721a 4abf
000001e0: 2181 dcbe ea5f c0bd 6bb7 04bf 6249 8dbe
000001f0: c5e9 ad3c e7a9 e83e 46c2 d3bf 5391 2fbe
00000200: 562f 7a3d dcb2 f2bd bcf2 2bbf 59f8 e23e
00000210: bfbc 28be 4f3b 0d3f 6970 03bf 48bb 7dbf
00000220: dbff 48be 6055 71be 0f39 0e3e d03b 74bd
00000230: 42e9 ccbd e685 dabc ad6c 7abf f671 b2be
00000240: a0d5 21bf 9f1f 58bf 9fb7 d33e 06d0 8abd
00000250: 3bec 2fbf a7b5 5e3e 6a68 f7be d878 c73e
00000260: a4dc c2be de67 7cbe 254f 04be 78ce bdbe
00000270: d4da 8fbe 1c61 543e f27f 6cbe 3dc0 85be
00000280: e97d d13e f632 1c3e 02bf d13d 257a 893e
00000290: 456e d0bd ed49 e7be 2417 623e c9f5 dc3e
000002a0: 36d1 99be fb12 11bf 11ae e8bd 3086 213e
000002b0: 6c05 1d3f a9da abbe cc16 11bc 1a10 4fbd
000002c0: daf9 9f3e d0a8 a1bc 5f20 563d d447 6bbe
000002d0: 9212 c9be 53ec ab3e d332 b1be 96c6 8d3e
000002e0: 2184 5dbe 1e8e c5bd 103c 643e 2d18 e8be
000002f0: bb6b f43a 38b2 2fbf 9f2a e5bc 9b96 e43d
00000300: 9b77 9abe 4b5c b53e 392b da3e a01d 2f3e
00000310: b347 36bf d377 00bf 6b50 9bbe 89a1 ea3c
00000320: 17bb 97be a19f 483e db5a 59be 09db 36be
00000330: 7b44 12be 0c1f 6dbe 12e3 18bf 915d 023f
00000340: c599 ecbd 8db4 97bd 53f3 07bd d91f 243f
00000350: 7558 af3d 39d5 90be 77ca c8be 3bf5 ca3e
00000360: ad4e 35be 071d 6a3e aa34 3e3f 00da d6be
00000370: 6b1f fcbd 30ce 6c3e 0bc8 ddbe 7f8e f8be
00000380: 4dd7 45bd b08a dbbe 2436 bd3e 34db 473d
00000390: 677b 26bf affa 493f 04db 09bf 2e77 d8be
000003a0: 5899 1cbf f7d7 95be 0634 9a3e 3d47 5d3e
000003b0: e240 31bf 7857 273f 33ce 3c3d 1789 85be
000003c0: cb57 bf3e dc07 333e c531 cc3e 73cf 6b3e
000003d0: 5014 56be 5f9c 74be 6f4f fabe bddd db3e
000003e0: 7a2f 5fbe 996e b4be da51 33be 315e 8fbe
000003f0: 47db 203e 9bf9 ccbe 9bcb 0f3f cd6e a33e
0.42809725 -0.66775864 0.01973051 -0.6285002 -0.11812024 -0.9495715 0.33514372 -0.54463476
0.041194446 -0.34945258 -0.06877236 -0.1955974 0.04766003 -0.29832193 -0.17013724 0.21318893
-0.6385828 -0.18056327 0.020344784 -0.48888865 -0.21637528 0.02020643 -0.044732958 -0.34162208
-0.56166697 -0.11894705 0.723532 -0.0030252622 -0.06269703 -0.9686827 -0.9060147 -0.26845732
0.00053972704 -0.06914939 0.3008795 -0.8907902 0.05225896 0.26238498 -0.4071781 -0.77161664
-0.62440753 0.705411 0.087849505 0.2808267 0.008590365 -0.447843 0.19062975 -0.06658413
0.45424542 -0.19102946 -0.15083987 0.48114708 -0.5144059 -0.595053 0.33333823 0.042965665
-1.1301967 -0.045510475 -0.46835148 -0.47376558 0.4428381 -0.2995274 0.20350714 -0.81187683
0.10882369 0.35802737 -0.4109319 0.68707067 0.4001494 -0.21660791 0.28464484 -1.2728833
0.26060697 -0.7574261 -0.9071277 -1.3396101 -0.22217454 -0.085678264 -0.12342772 -0.115376554
-0.012262868 -0.04159607 0.12353903 0.4974017 -0.2008438 0.052060764 -0.59216374 -0.29181662
0.336225 0.18549289 -0.29061568 -0.054019235 -0.27316466 -0.53973484 -0.19523156 -0.32660034
0.16393578 -0.17181848 -0.63968104 0.2010791 -0.04722254 -0.2473046 -0.06755748 0.19094154
0.31152532 -0.23608601 0.12510505 0.45961034 -0.20312805 -0.21189587 -0.057151224 0.36556667
-0.23327897 0.21402705 0.042918786 0.13056184 -0.07588998 -0.92425007 -0.09303672 -0.789466
-0.43067268 -0.09393294 -0.51842374 -0.2759505 0.021229634 0.45442125 -1.6543663 -0.1714528
0.0610803 -0.11850521 -0.6716726 0.443301 -0.16478251 0.5516862 -0.513434 -0.99113894
-0.19628851 -0.23567724 0.13888954 -0.059627354 -0.10005428 -0.026675176 -0.97822076 -0.3485257
-0.6321659 -0.8442325 0.4135103 -0.067779586 -0.68719834 0.21748982 -0.4832185 0.38959384
-0.3805896 -0.24648997 -0.12920816 -0.37071586 -0.2809664 0.2074017 -0.23095682 -0.2612323
0.40916374 0.15253815 0.1024151 0.26851 -0.10177282 -0.45173588 0.2207914 0.4315627
-0.30042428 -0.56669587 -0.113613255 0.15773845 0.613364 -0.33565262 -0.008855533 -0.050552465
0.3124531 -0.019733816 0.052276965 -0.22976619 -0.3927198 0.3357874 -0.34609088 0.27690572
-0.21632434 -0.09646247 0.22288537 -0.45330945 0.0018647829 -0.68631315 -0.027974425 0.11161538
-0.30169377 0.35421976 0.426111 0.17101145 -0.71203154 -0.5018284 -0.30334792 0.02864148
-0.29634926 0.19592144 -0.21226065 -0.17856993 -0.14283936 -0.23156375 -0.5972148 0.5092402
-0.11552767 -0.07407484 -0.033191036 0.64111096 0.08561794 -0.28287676 -0.39216968 0.3964022
-0.17705794 0.22862636 0.7429911 -0.41963196 -0.1231068 0.2312553 -0.43316683 -0.48546216
-0.04830103 -0.42879248 0.3695537 0.048793033 -0.6503205 0.7889814 -0.53849816 -0.42278427
-0.61171484 -0.2926633 0.30117816 0.21609206 -0.6923963 0.6536784 0.046095084 -0.26081154
0.37371668 0.17483467 0.3988172 0.23028354 -0.20906186 -0.23887776 -0.48888728 0.4294261
-0.21795455 -0.3524063 -0.17511693 -0.2800155 0.15708648 -0.40034184 0.5617005 0.31920472

fc2.bias f4 [256]
00000000: 1619 26be fcb4 a1be 89ce 59bf 50e5 14bf
00000010: c877 adbe 29da 33bf 6a0d f3be cf16 a7be
00000020: bdba 38bf fbf6 29bf 9335 8bbd 852c 61bf
00000030: c854 78be ccc0 17bf 9c0f 3fbf e647 16bf
00000040: bb40 f0be ab9b 40be 0e71 90bf b69a 2cbe
00000050: ee96 853d 8cd6 d7be 23df 29bf 3ea2 61bf
00000060: aa33 16bf f59e 93be bcf5 2bbe d662 91bf
00000070: 8840 cabe a85f 1bbf 31bd 7bbe f552 e4be
00000080: bf69 1bbf e355 93bd 3a16 debe 917a 3fbf
00000090: 3c11 29bf 0099 7dbd 9cae 0dbe bf88 9abe
000000a0: d0e4 debe 2377 fcbe 9fce e4be 8295 17bf
000000b0: 91db efbe 8d73 12bf db1f a6be 6c0f ddbe
000000c0: 50f8 06bf 970d e4be 2961 06bf 7feb 17bf
000000d0: 7a69 45bf d257 edbe 51a9 e3be 6365 73bf
000000e0: f6c2 3a3e edf1 00bf e81a 26bf 8d8a 0abf
000000f0: a643 0fbf d622 59be 6f9f 5ebe 21d5 4dbe
00000100: 86a1 04bf ca40 26bf a581 10bf c6b8 f4be
00000110: 0814 75be c544 11be f239 50bf ee6f 29bf
00000120: 4a4e 81be 27bd c0be 147b 00bf b066 a0be
00000130: 103a 3ebf b9f4 a5be ee6d bdbf ff66 28bf
00000140: 9a99 15bf e320 a0be d63d 33be 9528 17bf
00000150: 3b29 40bf 25f2 2abf 3ce1 e5be e5fc 21bf
00000160: e4da 24bf 681a d5be c914 a5be 4939 63be
00000170: a30d c3be 26ea d3be 80f3 27bf bbf8 ddbe
00000180: 0718 e4be 36e3 26bf 3d8b acbe 37ed c6be
00000190: 03f3 1cbf 0c92 c8be 1cf4 ccbe 83ae 00bf
000001a0: 8371 65bf 7118 14bf b499 0abf 87b8 adbe
000001b0: 7d4f c9be ecfb b7be 079b d3be e013 f8be
000001c0: c876 40bf 3bd3 9abe ec6a 1bbf 743d afbe
000001d0: a118 69be 3721 efbe 6b2c b3be 2397 0e3d
000001e0: 4439 9bbe 0234 6cbb 634a f2be 5835 8bbe
000001f0: 072b dabd 33d7 48bf e466 b6be 7f82 9abe
00000200: fbae 7bbd da44 02bf e2a3 dbbe b935 53be
00000210: ba98 80be 3a37 1abe f28d 4abe 4688 d3be
00000220: 91b0 08bf b63f 9e3d 34c9 63be b35a 01bf
00000230: 1b74 dfbe 84c9 acbe 2cc2 cdbe c286 abbe
00000240: 9e33 0ebf 0750 fbbe 8c4d 8cbe 2855 37be
00000250: 58a6 bdbe 57ba ccbe 46cd 09be 899e 04bf
00000260: 14fb 3cbf a651 04be 781c 1bbf 2e5a 06bf
00000270: e592 febe d332 6abe fc35 2abf 6519 39be
00000280: dacc a7be 819d 99be 19e3 03be 6262 59bf
00000290: 5ab6 a0be 8100 42be e4e2 0bbf f7c8 24bf
000002a0: edfa 05bf 2b8d 95be 693c d3be b418 14bf
000002b0: b5f9 38bf 155a e0be 32ed 27bf 71c8 e2bc
000002c0: cdb6 30be 5676 f3be 2e43 3ebf 40e5 2cbf
000002d0: 48ca c1be 79c9 44be 6a55 79bf c969 51be
000002e0: 7f6a 99be a931 b7be aa72 41be ee90 03bf
000002f0: e437 07bf 14e5 2bbe 7c09 94be c989 0abf
00000300: 1671 48bf 370a 4fbe 167e debe c8ae 3bbf
00000310: 507d d3be 2024 e9be 3864 dbbe 7e71 f2be
00000320: 8745 93be 7935 ebbe 17aa cebe ba70 9abe
00000330: fb91 c9be 5381 aebe 60d9 ddbe 5e3e fdbe
00000340: a997 96bd 5955 2abf cb3f 9dbe 68f5 f9be
00000350: 35ae 45bf 3a44 90be 0df6 61bd 6ddd d2be
00000360: 4e90 78bf 6de8 71be bca6 2abf 845c aabe
00000370: f24c 86be 4871 11bf d5f1 53bf 8a0f 3bbe
00000380: 3324 ecbc 6719 53bf 357e 8ebe 59b3 10bf
00000390: 0bcb 1cbf 9e68 28bf d783 1cbf 2031 0fbf
000003a0: f8c1 0ebf 344e 0ebf 61e7 c2be d9b0 dbbe
000003b0: 87fd 1fbf bcdd c9be 22df 11be d408 0abe
000003c0: fb98 85bf c4c1 03bf 54fb ddbe c3be 70bf
000003d0: 0826 c4be 3413 acbe e0e0 debe 35ba 3bbf
000003e0: 0c58 98be e604 a7bd ff07 73be 98a5 fbbe
000003f0: feb5 1abf 5221 21bf 138b e7be fd23 ccbe
-0.16220507 -0.31583393 -0.8508077 -0.58162403 -0.33880448 -0.7025476 -0.47471172 -0.3263459
-0.7215994 -0.6639249 -0.06797328 -0.87958556 -0.24251091 -0.5927856 -0.74633193 -0.5870346
-0.46924385 -0.18809383 -1.1284502 -0.16855893 0.06522928 -0.42155874 -0.66356105 -0.88138187
-0.58672583 -0.28832212 -0.16792959 -1.1358287 -0.39502358 -0.60692835 -0.2458389 -0.4459454
-0.6070823 -0.07194116 -0.43376333 -0.74796396 -0.6604192 -0.06191349 -0.1383614 -0.30182454
-0.43533945 -0.49309644 -0.4468889 -0.59212506 -0.46847203 -0.57207566 -0.3244618 -0.43175828
-0.52722645 -0.44541618 -0.52492005 -0.59343714 -0.7711407 -0.46356064 -0.44465116 -0.9507658
0.18238434 -0.5036915 -0.64884806 -0.5411766 -0.559626 -0.21204695 -0.21740507 -0.20100833
-0.51808965 -0.6494261 -0.5644782 -0.4779722 -0.23933423 -0.1418639 -0.8133842 -0.66186416
-0.25255042 -0.37644312 -0.501878 -0.31328344 -0.74307346 -0.3241327 -1.4799173 -0.6578216
-0.584375 -0.3127509 -0.17504057 -0.590463 -0.7506291 -0.66775733 -0.44898403 -0.6327651
-0.643965 -0.4162171 -0.3224242 -0.22189821 -0.38096341 -0.4138958 -0.65605927 -0.4335383
-0.4454958 -0.65190446 -0.3369998 -0.38852856 -0.61308306 -0.39173925 -0.4002999 -0.50266284
-0.8962633 -0.57849795 -0.5414078 -0.33929846 -0.39318457 -0.3593439 -0.41329214 -0.48452663
-0.75181246 -0.3023928 -0.60710025 -0.34226573 -0.22763301 -0.46705028 -0.34994826 0.034812104
-0.30317128 -0.0036041741 -0.47322378 -0.27189136 -0.10652738 -0.7845337 -0.35625374 -0.30177686
-0.06144617 -0.5088631 -0.4289847 -0.20625962 -0.2511652 -0.1506013 -0.1978071 -0.41314906
-0.5339442 0.07726996 -0.22244722 -0.5052902 -0.4364327 -0.33747494 -0.40187204 -0.3350125
-0.5554751 -0.49084494 -0.27402914 -0.17903578 -0.37040973 -0.39985916 -0.13457212 -0.51804405
-0.73820615 -0.12921771 -0.60590315 -0.52481353 -0.49721447 -0.2287095 -0.66488624 -0.18076093
-0.32773477 -0.30002978 -0.128796 -0.84915745 -0.31389123 -0.18945505 -0.5464308 -0.6436915
-0.5233601 -0.29209265 -0.41257027 -0.57850194 -0.7225602 -0.43818727 -0.65596306 -0.027683469
-0.17257233 -0.4755122 -0.7432126 -0.6753731 -0.3784964 -0.1921748 -0.97395957 -0.2045051
-0.29964063 -0.35780075 -0.18891397 -0.5139302 -0.5281966 -0.16786605 -0.28913486 -0.54116493
-0.78297555 -0.2021874 -0.4345557 -0.7331357 -0.41306543 -0.45535374 -0.42849898 -0.47352213
-0.28763983 -0.45939234 -0.40364143 -0.3016413 -0.39369187 -0.34083042 -0.43329906 -0.49461645
-0.07353146 -0.6653648 -0.30712733 -0.48820043 -0.77218944 -0.28177053 -0.055166293 -0.4118456
-0.9709519 -0.2362382 -0.66660666 -0.3327371 -0.2623058 -0.5681348 -0.8279088 -0.18267646
-0.028825855 -0.82460636 -0.27830663 -0.5652366 -0.6124732 -0.65784633 -0.6113867 -0.55934334
-0.5576472 -0.5558808 -0.38067153 -0.42908362 -0.6249623 -0.39426982 -0.14245275 -0.1347993
-1.0437311 -0.5146754 -0.4335581 -0.9404108 -0.38310266 -0.336084 -0.4353094 -0.73331004
-0.29754674 -0.08155231 -0.23733519 -0.49149776 -0.6043395 -0.6294147 -0.45223293 -0.39871207

fc3.weight f4 [128, 256]
00000000: 2911 fa3e e934 e1be 5b55 05bf 8c99 3fbe
00000010: d15c 7c3e 462a 883e d61b 853e ec5c 53bf
00000020: 869a 37bf a884 713e 8492 7bbf 9b15 54be
00000030: 093c 563f 0de1 e93e 9b82 1abf e01d 023f
00000040: 2abe 8dbf 92ae b1bd 70b7 b0bd 149b cdbe
00000050: ccca 06be a06f 4d3e d803 4abe 4ca7 83bd
00000060: aee5 d43e f083 d9be eaf9 bd3e ec2e dd3e
00000070: d70e 6cbf 11e4 ea3e cb95 9abe d95f a73d
00000080: 86d4 febe 84c1 7bbe 3614 8d3e 5099 f83e
00000090: 6e3f 8a3e 82c1 a03e 1bf8 0bbf cd15 8c3e
000000a0: 00f6 133f 4c85 cdbe 3c1c 9ebe 792e 9cbf
000000b0: c9fa ad3e 8d03 353e 4a44 02bf fff5 e5be
000000c0: 326c 13bf d32b 323d 4de1 50be 7bd9 04be
000000d0: 5d11 2fbe fb1d 373d 4803 fcbe 9be1 4abf
000000e0: 390c bb3d b990 543f 9788 2cbf 9e7d 353e
000000f0: 8709 e6be 4497 2cbf c595 403e becb 1c3d
00000100: 4633 043f 5ef0 04bf e079 afbe 854c 8cbe
00000110: bf5e 663e c5aa c83d e0fa c13e 38f7 ee3e
00000120: 027b f8bd 700b f23d aeef c3be cc82 0fbf
00000130: 56bf b1be 22e9 e1be 3d00 eabe e540 e1be
00000140: 4a85 87bf 6c54 3dbf 2649 1cbe 0cdf 55be
00000150: cbca 86bf c222 c8be 405e 65be ee95 463d
00000160: f011 cbbf 7345 6cbe 4cff 16be 4b61 2c3d
00000170: ec38 57bf 4a1f 0dbf ffea 20bf 5014 15be
00000180: b43b ccbe 8fe4 6ebf 8fbe 533d 72ff 773e
00000190: ef29 1aba 016f d9be 61de 65bf 7ae0 313f
000001a0: 744a c23e fb92 95be 2af8 49bf 3095 f3bc
000001b0: 331a 7fbf 0ba7 35bf eba8 823d 6f2e 903d
000001c0: 0a70 ed3d 3328 f3bf 9ecf 1dbf b8c8 87be
000001d0: aa75 3e3f 0aa2 03bf 2a91 85bf 3782 14bd
000001e0: 9cde 3a3e 3739 5b3e 7111 3cbf f9db ce3e
000001f0: 49d3 853d 35c1 0c3f 142f 373e 6d3b 91be
00000200: 3469 d33e 166b 953e f9bc 30be 57e3 aebc
00000210: 991a 6e3e 6c8d a0bf 9edf 023e 326a eabc
00000220: 4d3d 7dbe 877e bd3e 6776 023e ebd6 ab3d
00000230: a2f5 99be 575f 013f 9322 92be 1453 d1bd
00000240: 3158 15bf 860f 4abe 7285 bcbd a5e5 6fbf
00000250: 9380 aabe fe18 aabd 85bb ca3e 6e98 65bf
00000260: 504c 1fbf 3be3 c3be 8aed fcbe 3669 713e
00000270: 69d0 f13e 2fb9 9c3e 6804 3fbe 0501 fe3d
00000280: 2301 3cbe b44e 00bf 75c5 0b3d 5165 b73e
00000290: 1f5e 563e a706 03bf 2780 b2be 419b 3fbe
000002a0: 2df9 b83d aabc 40be 64e5 853d f3d7 c53e
000002b0: 91d1 f93e d59f 053d 3964 1ebf 960d 2cbf
000002c0: 52fa d0bc 74de 8a3e 979c a53d 87e6 debe
000002d0: ca43 0fbe a073 8abe 750b 443e 2c04 b83d
000002e0: 1680 a63d a93a b6bf e727 323e 1fb3 9ebe
000002f0: a6a7 79be 3a8c 303f f64c 233f db14 d9be
00000300: b57a 16bf ed30 f8be b0c3 b839 0755 e9bd
00000310: e191 d83b c90e 323d ec1b 1e3f 85de 493e
00000320: 90a8 d5be 7abc 813d 711a 013d c369 88bf
00000330: 0fc5 a3be 4989 85be 2263 5cbe 0320 a63d
00000340: 17e6 933c 4bfd 163f 8151 193f fbb8 3d3e
00000350: 783b a43e 65b7 26bd 345a ad3c b141 debd
00000360: 0daa 423e 0502 c03e 2fc5 2bbf a381 023f
00000370: ef55 a8be 71cb 803e ae77 2dbf 714d 57bf
00000380: d38e 81bd a8ad a0be d754 953d d850 b73c
00000390: 28b3 febe 17ad b6be f927 3dbf 6492 283e
000003a0: 3f31 bfbd cf9f f3bc 46ea 41bd 9a4d 913e
000003b0: e88c b4bc 2741 edbe 5f9e a83e 235e 6dbd
000003c0: 8e3f 24bd 8a7c c2bc 47c4 0ebe be68 86be
000003d0: 6fa2 49bd c614 83bd 1c54 933d cb71 bebe
000003e0: 9c28 843e a0e5 3dbf 31c2 71bf 9c64 70be
000003f0: 9fae 3d3e fe1a 09bf a4f2 c5bc 8498 8fbe
0.48841217 -0.4398568 -0.5208337 -0.18710917 0.24644782 0.26594752 0.259978 -0.8256366
-0.7172016 0.2358576 -0.9827044 -0.20711367 0.83685356 0.45679513 -0.6035554 0.50826836
-1.1073658 -0.08675875 -0.08628738 -0.40157378 -0.13163298 0.20062113 -0.19728029 -0.06428394
0.41581482 -0.42483473 0.37104732 0.4319986 -0.92210144 0.45877126 -0.30192408 0.08172578
-0.49771518 -0.24585539 0.27554482 0.48554468 0.27001518 0.31397635 -0.54675454 0.27360383
0.5779724 -0.4014076 -0.30880916 -1.2201682 0.33980396 0.17677136 -0.5088545 -0.44914243
-0.5758697 0.043498825 -0.20398445 -0.12973587 -0.17096467 0.044706326 -0.49221253 -0.79250497
0.09133191 0.8303333 -0.6739592 0.177237 -0.44929144 -0.67418313 0.18807133 0.03828024
0.5164074 -0.5192927 -0.3427267 -0.2740213 0.2249708 0.09798197 0.37886715 0.46672988
-0.12132837 0.11818588 -0.382688 -0.56058955 -0.3471629 -0.4412318 -0.45703307 -0.43994823
-1.0587552 -0.7395694 -0.15262279 -0.20885867 -1.0530638 -0.39089018 -0.22399235 0.048482828
-1.5864849 -0.23073368 -0.14745826 0.042084973 -0.8407123 -0.5512587 -0.62858576 -0.1455853
-0.398893 -0.933175 0.051695403 0.24218538 -0.00058808824 -0.42467502 -0.8979245 0.6948315
0.37947428 -0.292137 -0.78894293 -0.029734224 -0.9964935 -0.7095801 0.06379875 0.070401065
0.115936354 -1.8996643 -0.61644924 -0.26520324 0.7439829 -0.51419127 -1.0434926 -0.036256995
0.18248981 0.21408544 -0.73464113 0.404022 0.0653444 0.5498231 0.17889053 -0.2836565
0.412912 0.29183263 -0.17259587 -0.021348638 0.23252334 -1.2543159 0.12780616 -0.028615091
-0.24730416 0.37010595 0.1274048 0.08390602 -0.30070215 0.505361 -0.28542003 -0.10220924
-0.58337694 -0.19732484 -0.0920514 -0.93709785 -0.3330122 -0.08305548 0.3959619 -0.89685714
-0.6222582 -0.382593 -0.49399978 0.23575291 0.47229317 0.30610034 -0.18654025 0.12402538
-0.18359809 -0.5012009 0.034123857 0.35819486 0.20934342 -0.51182026 -0.34863397 -0.18711568
0.090319015 -0.1882197 0.065378934 0.3864132 0.487927 0.03262313 -0.6187168 -0.6720823
-0.025509987 0.27122843 0.08086508 -0.43535253 -0.13990703 -0.2704134 0.19144996 0.08985171
0.08129899 -1.4236652 0.17398034 -0.30996034 -0.24380359 0.6896397 0.6378931 -0.42398724
-0.58780986 -0.48474827 0.00035241013 -0.11393171 0.006609187 0.04347113 0.61761355 0.1971379
-0.41730165 0.06334777 0.031519357 -1.0657276 -0.3198628 -0.26081303 -0.21522191 0.081115745
0.018054051 0.58980244 0.5988999 0.18527596 0.3207662 -0.040702242 0.021161176 -0.108523734
0.19010182 0.3750154 -0.67097753 0.5097906 -0.32878062 0.25155213 -0.6776074 -0.8410254
-0.0632607 -0.3138249 0.072915725 0.022377416 -0.4974606 -0.35678932 -0.7388912 0.16462094
-0.09335565 -0.029739289 -0.04734256 0.28379518 -0.022039846 -0.4633877 0.32933328 -0.057951104
-0.040099673 -0.023741025 -0.13942061 -0.26251787 -0.049227174 -0.064004466 0.07193777 -0.37196192
0.25812232 -0.74178505 -0.9443694 -0.2347588 0.18523644 -0.5355681 -0.024163552 -0.28046048

fc3.bias f4 [128]
00000000: eb92 7d3d 0511 1dbf af11 3cbf 5fe1 b93e
00000010: ba22 ef3c bb12 67be 0aef 06bf 0df7 313f
00000020: a92e 32bf 6b5f b0be 4407 f03d f957 c13e
00000030: 4ff2 dcbd 09f6 92bd 3410 e43d 4a31 3bbf
00000040: e99a 2fbe 37a1 6f3f 2448 eebe 603c 6cbf
00000050: 953f 52be 521a 0cbf e8af cebc c2f7 1c3d
00000060: 5887 f6be 2a83 1bbf 5c24 c4bd 2cfe 27be
00000070: 9de5 c0bc a15a 6ebe 6de7 41bd 5e15 bb3e
00000080: a10d 8bbe 9ab9 f0bc 3bc8 efbe 9ffd 003d
00000090: 4807 4bbe 06b8 8b3b 4cc6 b73e a1c7 16bf
000000a0: 0cb7 04be f5fb 48bf c7bd 00be bae3 283d
000000b0: d01c a03f ae5a a0be 3185 18be c121 72be
000000c0: 93a6 95be 9fd3 2b3f ff61 1abf 93c7 e1bd
000000d0: b8d0 3dbf 5765 dc3e 264e 6fbf 1034 ad3e
000000e0: 5456 473e 4269 9ebe d568 8e3d a150 4abf
000000f0: cdb3 d2be 844e cfbd aeaf 7dbe 32f0 fd3e
00000100: e5bc 4ebe 4488 35bf 52e4 7f3e fc95 83be
00000110: 98e6 983e 82bf 9abd 5fdb 553e f3f9 12be
00000120: c275 d43e 1ecc e2be a99d c43c 9df3 b4be
00000130: b4ad dcbd 9942 583e 6b84 0abf 08c1 8fbe
00000140: f86c db3e 69b5 89bd 20ba 4dbe 999e aabe
00000150: 9223 373e 0f3a 0fbf c3df 953d 1cfa 45be
00000160: 6fe3 01bf b2b0 3ebe f986 0abf 2ccd 19bf
00000170: cace 4e3d 2698 2dbf 8264 5fbf ddc1 a73e
00000180: a884 c6be 5b0b 16bf be7f b8bd 17f6 8abc
00000190: c461 18be 6a2a 913f de8f 88be 4fc7 afbd
000001a0: 91c9 113f 3047 a03e 9702 7dbd 1d1c a23d
000001b0: d564 19bf d392 e8be 1e7c bf3b 8a4f f83d
000001c0: 0509 043f f461 2ebf 6efa 883d c04a 493c
000001d0: 3f74 23bf 55c4 163f e498 07bd 0381 06bf
000001e0: b4db 343e 5f82 11bf 51fc 61bf 603e 153f
000001f0: 5a76 913e 50c2 3e3f 0449 97bd a761 443f
0.06190769 -0.61354095 -0.73464483 0.36304757 0.029191364 -0.22565739 -0.52708495 0.69517595
-0.6960245 -0.34447798 0.11720136 0.3776243 -0.10788404 -0.07175834 0.11135903 -0.73122084
-0.17148937 0.9360537 -0.46539414 -0.92279625 -0.20532067 -0.5472766 -0.025230363 0.038322218
-0.48150134 -0.60747015 -0.095772475 -0.16405553 -0.023546988 -0.2327676 -0.047339845 0.3653974
-0.27158836 -0.029385377 -0.4683245 0.031491872 -0.19826996 0.0042638807 0.35893476 -0.5889836
-0.12960452 -0.78509456 -0.12572394 0.041232802 1.2508793 -0.31319183 -0.14894558 -0.23645689
-0.2922865 0.67119783 -0.6030578 -0.11024394 -0.74146605 0.43046066 -0.9347862 0.33828783
0.19466525 -0.3093968 0.06953589 -0.7902928 -0.41152802 -0.101223975 -0.24774048 0.49597317
-0.20189245 -0.7091105 0.24989441 -0.25700366 0.2986343 -0.075560585 0.20884465 -0.1435316
0.41496092 -0.44296354 0.02400096 -0.35342112 -0.10775319 0.21119155 -0.54108304 -0.2807696
0.42856574 -0.06724054 -0.20090532 -0.33324125 0.17884663 -0.55947965 0.0731807 -0.1933369
-0.5073766 -0.18622091 -0.541122 -0.6007869 0.05049018 -0.67810285 -0.8726274 0.32765093
-0.38773084 -0.5861108 -0.0900874 -0.016963048 -0.14881045 1.1341069 -0.26672262 -0.08582937
0.5694819 0.31304312 -0.061770048 0.079155184 -0.5991948 -0.45424518 0.0058436533 0.12124546
0.5157626 -0.68118215 0.06688391 0.012285888 -0.6384925 0.5889333 -0.033104792 -0.52540606
0.17661935 -0.56839556 -0.8827563 0.582983 0.28410608 0.7451525 -0.073869735 0.76711506

fc4.weight f4 [32, 128]
00000000: dbcc 57be 9ee3 a33c 010d 4cbe 16ba 35be
00000010: af20 923b e4eb f5bd 0d77 22be b60c d23d
00000020: 6781 d9bc 2397 973d 026b 03be 416d 5fbe
00000030: c5ab 8f3c 7dae edba d55b 0ebe 45d0 773d
00000040: c490 a9bc 6d90 0fbe df95 123e bb7d 503d
00000050: 460d ca3c 4b88 bc3d 8ff8 31bd 5b32 bcbd
00000060: 3507 683c fdd9 a23c 9a30 57be 8759 2dbc
00000070: 5cf2 0dbd 6e81 eebd 751e 6ebd 4b72 4ebd
00000080: b84b 2e3d e311 8cbe b8e4 1bbd d4c7 98bc
00000090: a80d 393e e758 f4bc 9487 33bd 0246 743c
000000a0: c507 2bbe 37cf 54be 9b01 9fbc 2037 94be
000000b0: 41cc a9be 8132 023e 76c8 f7bc f305 aabb
000000c0: b24d bc3b 32b6 d83d 76d1 99bd 179d c13d
000000d0: 63a2 febd b2a7 3abe 19da 93bb 0b19 1fbe
000000e0: a05a 25be ca26 02be a33c 2a3e ba78 ebbd
000000f0: 14f3 96bd 1787 d3bd dcd1 cfbc a24a fdbd
00000100: a4f3 d9bc c326 74bc a7ec 53bc 3de8 2cbe
00000110: 1e49 88be cb65 a9bd 3922 15bd bc49 20bd
00000120: d769 f6bd 2b4b 32ba c971 273c 394a 80be
00000130: 464b 23be 3bb7 d8be 1c79 c73d 6bad 033d
00000140: 16c4 c53d 5a3e 3abe cb49 3cbd 79a3 afbc
00000150: a182 573d f356 4ebe 7a21 86bd 08e2 4b3d
00000160: 4053 303d 3994 9e3d 9fe8 1bbe 8dd2 213d
00000170: 25d4 a3bc 7627 36be bba5 3bbe 2436 04be
00000180: 29b2 443d ee88 1c3e 7661 653d 1fc8 5d3d
00000190: aa4a 0bbe 03fb 4ebd 6f46 38be 594a 27bb
000001a0: 2aa6 c63d 8e3f 23be 3bb4 c8bc bb11 463c
000001b0: a5f8 c3bd f4fa b2bc fe67 99be bf16 cdbd
000001c0: bdcd 6dbc 7b4e 613d c1cf 89be a957 d7bc
000001d0: fb84 0dbe 0b37 8cbc 8ac4 b0bc 9cd9 b3bd
000001e0: 2dff 05be 8b2a 3cbe 5423 0dbe 66af 11be
000001f0: 0bd0 4ebe 38e5 febd 0881 b8bd ccd1 b3be
00000200: 8def 85be fe4b 2cbe 2676 79ba 8d8a c8bc
00000210: 529b 953b 4eae 19bb 8ae5 95be 3a61 bcbd
00000220: 04ea 58bd 9653 ca3d 3f43 41bc 2f6a 09be
00000230: 98f1 afbd d7cc 10be a8f1 cbbd 7b9e 7ebc
00000240: e0ab 00bc 0e6d 2dbd 30b5 2ebe fc6a f5bc
00000250: e6f9 0fbb 9f4f aebc 243d 51be 7c42 63be
00000260: 4497 4fbe 155f a13e 1efe a8bd ae05 acbd
00000270: f853 b93c 5960 263e f92b 4ebc 9c4b bdbe
00000280: 52f7 b0bd 0e94 113e cafb 733c 8492 0e3e
00000290: 59aa 443e d455 8fbe e11d 8a3d 4a33 a7be
000002a0: 9586 ac3d 2516 edbd c22a 1e3c aa73 c4be
000002b0: e1d4 b9be 255e 36be 41ff 68be 6936 82be
000002c0: 1477 643d 5080 afbb cabb c53d 34be 973e
000002d0: cc8e 62be 3164 8abe cda4 50bc 715c a63d
000002e0: 8731 42bc dc93 763e f0df 4c3e 32dd e0be
000002f0: 029a 3bbd e316 84be 084d 08be 7848 1bbc
00000300: 2919 573c fa76 73be f03b 68bd fb7f 95be
00000310: 8e55 11bf e759 9cbd 862c 4abe f811 04be
00000320: 9442 8dbd cf4d adbd f85e 30bd 21de 4bbc
00000330: 9465 c7be 5524 dbbe 3b4b 4ebe a5ad 2cbe
00000340: 85f8 993d 858c 8fbe e477 97be 5403 f6bd
00000350: 616f d5be 5fed dcbe ce76 663d c13d 69be
00000360: b861 9cbd 7395 4e3e 6b1f 8dbe 4aaa a8be
00000370: a4f9 d8be becc 663e d1e5 933d fea1 c83d
00000380: e864 933d 7439 333e bf36 1c3e 0e51 c03c
00000390: e727 41be a049 afbc ce26 49be 2b50 aa3d
000003a0: 7cf2 45bd 2dc7 2bbe 9a46 c5be fb8a 0cbe
000003b0: b5fb 2d3e bee8 533d 5ec0 f9bd 5f2a 2f3c
000003c0: ef2b 79bc 1f5c d3be a199 ccbe 0145 263d
000003d0: a425 35bd 8f4f 12be a380 02bf 8627 52be
000003e0: af2d 5e3c 290c 8b3e b7b1 08be c3a1 9fbd
000003f0: 959d a1be 27ca 40bf 5c03 04bd be64 86be
-0.2107424 0.020005997 -0.19926836 -0.17746767 0.0044594626 -0.12007883 -0.15865727 0.10256331
-0.026550962 0.07401874 -0.12833789 -0.21819021 0.01753796 -0.0018133667 -0.13902219 0.060501356
-0.020698912 -0.14019938 0.14314984 0.050901156 0.024664532 0.09205683 -0.043449935 -0.09189292
0.014161875 0.019879336 -0.21014634 -0.010580427 -0.03465496 -0.116457805 -0.058134515 -0.050401967
0.04255268 -0.27357396 -0.03805992 -0.018649973 0.18071616 -0.029827548 -0.04383047 0.014909269
-0.16702183 -0.20782171 -0.019409945 -0.28948307 -0.33163646 0.12714578 -0.030246954 -0.0051886975
0.0057465667 0.10581626 -0.07510655 0.09453791 -0.124333166 -0.18228033 -0.0045120833 -0.15536897
-0.16147852 -0.1271011 0.16624694 -0.11497636 -0.07370582 -0.10328501 -0.025368623 -0.12367751
-0.026605435 -0.01490182 -0.01293484 -0.16885467 -0.26618284 -0.082713686 -0.03640959 -0.03913282
-0.12031906 -0.0006801362 0.01022 -0.25056627 -0.15946683 -0.42327294 0.09739897 0.032147806
0.09656541 -0.18187848 -0.045968812 -0.021440255 0.05261481 -0.20150356 -0.06549354 0.049776107
0.043048143 0.07743115 -0.15225457 0.039507437 -0.01999862 -0.1778849 -0.1832494 -0.12911278
0.04802147 0.1528661 0.05600115 0.05414593 -0.13602701 -0.050532352 -0.17995618 -0.0025526492
0.09699662 -0.15942213 -0.024500003 0.012089188 -0.095689096 -0.02184818 -0.29962152 -0.10014104
-0.014514384 0.055006485 -0.26916316 -0.026286917 -0.1382026 -0.01711609 -0.021578092 -0.0878174
-0.13085623 -0.18375604 -0.13783008 -0.14227065 -0.2019655 -0.12446064 -0.09008986 -0.35121
-0.26159325 -0.16825864 -0.00095162017 -0.024480129 0.0045656348 -0.002344984 -0.29276687 -0.09198232
-0.05295755 0.09879224 -0.011795818 -0.13419412 -0.08591002 -0.1414064 -0.09958202 -0.015540714
-0.007853478 -0.04234033 -0.17061305 -0.02995824 -0.002196902 -0.0212782 -0.2043348 -0.2219333
-0.20272547 0.31517854 -0.08251594 -0.08399521 0.022623047 0.16247691 -0.012583726 -0.36971748
-0.086409226 0.14216635 0.014891574 0.13923079 0.19205607 -0.2799517 0.0674398 -0.32656318
0.08424107 -0.11576489 0.009653749 -0.38369495 -0.36295226 -0.17809351 -0.22753622 -0.25432137
0.055777624 -0.005355872 0.096549585 0.296373 -0.22124785 -0.27029565 -0.012734604 0.081231005
-0.011852629 0.24079841 0.200073 -0.4391876 -0.04580117 -0.2579871 -0.13310635 -0.009477727
0.013128557 -0.23775855 -0.056697786 -0.29199204 -0.5677117 -0.07634335 -0.19743547 -0.1289748
-0.068974644 -0.084621064 -0.04305932 -0.012443096 -0.38944685 -0.42801157 -0.20145886 -0.16863115
0.075181045 -0.28036895 -0.29583657 -0.120123535 -0.41686538 -0.4314985 0.056265645 -0.22777463
-0.07635826 0.20174198 -0.27563033 -0.3294242 -0.4237796 0.2253904 0.072215684 0.097965226
0.07196981 0.17502385 0.15255259 0.02347615 -0.18862878 -0.021397412 -0.19643709 0.08316072
-0.048326954 -0.16775198 -0.38530427 -0.13724892 0.1699055 0.051735632 -0.12194894 0.010691254
-0.0152082285 -0.4128122 -0.3996096 0.04059315 -0.04422535 -0.14288162 -0.50977534 -0.2052289
0.0135606965 0.27157715 -0.13349043 -0.077945255 -0.31565538 -0.7530846 -0.032229766 -0.26248735

fc4.bias f4 [32]
00000000: 19ff 43bf c4a0 89bf 5da9 1ebf 6c19 0ebf
00000010: 2283 a73f f81a 233e 4558 6d3f 170c c73f
00000020: 81c6 d8be e11f 5cbf 7bb9 4fbf 789d 973f
00000030: 49fb 4cbf 2852 6bbf f6de 593f 1909 4cbf
00000040: 394c 88bf 5e70 5cbf e25e 853e 563c 5fbf
00000050: e7bd 89be 5411 66bf 29c6 7c3f c9d4 08bf
00000060: 1555 b3be 8355 26bf 794c 50bf 9328 f5be
00000070: 42a5 5dbf 4b44 d63f e22e 52bf ff1f ee3f
-0.76561123 -1.0752187 -0.6197718 -0.5550754 1.3086894 0.15928257 0.92712814 1.5550565
-0.42338946 -0.85986143 -0.81142396 1.1844931 -0.8007093 -0.91922235 0.85105836 -0.7970138
-1.0648261 -0.8610896 0.26048952 -0.8720144 -0.26902696 -0.8987019 0.9873987 -0.53449684
-0.3502585 -0.6497423 -0.8136669 -0.47882518 -0.8658029 1.6739591 -0.8210279 1.8603514

Q.weight f4 [1, 32]
00000000: 12f0 89bb b735 5cbb 5834 e33b 2336 04bc
00000010: 2540 ad3c e82e 323c a4ea ba3c 438d dbbc
00000020: 37dc 16bd 7c2a f43c 985d 83bc cfbf c5bc
00000030: f4e4 ef3b f038 343d c6b0 853c 485b 92bc
00000040: 24f0 81bc 4208 8bbb 683a abbd 347a 88bc
00000050: 3463 0e3d ca56 9f3c 4e2c dfbc 4457 e23b
00000060: 9088 09bd 424d 74bc 32f0 ae3b ea66 5c3c
00000070: b85b 0b3c 31b7 bd3c f042 5d3b fba8 05bd
-0.004209527 -0.0033601352 0.00693373 -0.008069548 0.02114875 0.010875441 0.022816963 -0.026800757
-0.036831107 0.029805414 -0.01603584 -0.024139313 0.0073209945 0.043999612 0.016319644 -0.017865792
-0.015861578 -0.004242928 -0.083607495 -0.016659833 0.034762576 0.019450564 -0.027242806 0.0069073755
-0.0335775 -0.014910998 0.005338692 0.013452271 0.008505754 0.023158642 0.0033761822 -0.032631855

bn1.weight f4 [256]
00000000: 64c9 093f d710 103f 6eb6 df3e 2b07 4b3f
00000010: b600 af3e 3d17 063f f752 6c3f 457d 103f
00000020: 74bb 0c3f 23f9 ca3e 2062 aa3e e6fe 6c3f
00000030: d8be 813f c38c 813f 3a58 ca3e 7f01 853f
00000040: f27e 173e e6c2 433e 6573 a13e 4107 bd3e
00000050: ed42 003f 7a37 383f c674 843e 779d 5b3e
00000060: 44c2 1e3f dbf6 0c3f 7f38 033f c8a3 783e
00000070: e467 2f3e a119 c33e af7d 103f 4e2c b53e
00000080: 51a0 fa3f 4e83 9b3e c063 fe3e e2eb 2b3f
00000090: 5d23 c93e 8bf5 923e a5be 123f d926 073f
000000a0: 6a5b a43e 649c 263f 926e d03e 3436 383e
000000b0: 36d2 cc3e 17a4 023f cb6e 253f a320 ce3e
000000c0: f726 a63d 93b8 583e bc56 973e fbed 283f
000000d0: 89b1 ba3e 04d1 c73e 356c 993f 70a1 f53e
000000e0: 3c7c e63e f35c 653e eb04 353f b2f5 bc3e
000000f0: 7326 b13e 0213 c13e 3054 c43e 85d2 0c3f
00000100: 2284 943e 32d0 733e 6a99 5e3e 6e7b 653f
00000110: 0620 f63e 8d86 8c3e b304 d23e 8dfa 223f
00000120: b14c f53e 95b9 303f 59b9 8e3e 686a 423f
00000130: f809 a13f 78f8 b93e dfdf 1dbc faa8 853e
00000140: 95d9 763f b6ec c7ba 9ace 143e 1928 833e
00000150: 5f07 f43e 62eb d83e 962f cc3e 6d1a 1a3f
00000160: 8a91 253f 4d82 c33e b0ce 873f e927 093f
00000170: 9141 933e f928 953d 19b4 5a3e e3ae 6b3e
00000180: ca02 953e f92d 153e 1a4e 833e 84a9 793f
00000190: 5eb7 c93e 77ab 643e b654 8a3e 2dbd 393e
000001a0: f5c2 3f3f e60d a03e 682b a63e b143 273e
000001b0: 00a8 1d3f fa65 253f da7e 9d3a f8f7 843e
000001c0: 9d46 a83f 6744 b53e 8ee0 97be fa2a d53e
000001d0: cf27 663f ff01 7f3e 52fa e43e 5714 7c3e
000001e0: c4a8 823e 41f1 be3d f950 113e de8e 8c3e
000001f0: 1bfe f13e 3685 613e 4b83 753f e976 5a3e
00000200: ee2d 783f 15e8 9f3e f38e d23e a42c cf3f
00000210: b561 7b3f f584 0f3f b98e b63e 0d6e f43e
00000220: 78b6 a83e 0411 7f3f 43d9 313f 7e70 8ebb
00000230: 794d 483e 46fc 803e d238 753f 0f62 9e3e
00000240: 088a d53e e07b d63e db06 f33d 2d41 c83e
00000250: 24f4 853e a073 313e 71ba 8f3e dea2 bf3e
00000260: 0958 2f3f afdd e03e f025 833e 75d1 d53e
00000270: 875e 853e 0be0 3d3e c480 ec3e 4638 ae3e
00000280: 26d1 a53e 169c 7b3e 3aa2 4d3e 2242 d43e
00000290: edc7 393c df50 943f 273c 0b3f cc2d 043f
000002a0: e0a6 f83e 7382 1d3e 49e4 673f 4d74 753f
000002b0: c356 ec3e ad56 c83d c556 d43f b003 a33e
000002c0: 243c 173f cbbc 8a3e 0df1 d43a dfba 2f3f
000002d0: 9785 b43e c14d 783e 7840 af3e 7f0d 9f3e
000002e0: d523 8a3e 4281 eb3f 2406 a13c b9f8 613f
000002f0: 8d0c 503f 766a 413f 2999 2d3e fa18 0f3e
00000300: f337 3c3f 6790 173f 8f87 d53e 3896 623e
00000310: 0231 983f de17 553e 36fe 1a3e 10d5 8b3e
00000320: 0a03 be3e 88d7 043f fe26 e73d 6337 f23e
00000330: 3850 563e 2372 8d3f 1de8 323e ae06 ae3e
00000340: 614a 543e 8680 9d3e b480 a43e 8d29 253f
00000350: f990 88bb efb8 923e 426a ac3e e0b8 4d3f
00000360: bf68 b43e a18c 653e 8d78 053f 1463 b73e
00000370: e2ba ee3e 4f68 a93e 1d85 0f3f 24a8 433f
00000380: 3bf5 293e f79a 703e 78ff 453f f981 f23e
00000390: 9992 fd3e 76d3 083f 680d e93e 4b18 623e
000003a0: 7389 a03e 520e 6d3e e1df 513e f5e1 1f3e
000003b0: abd5 3a3e ff45 ce3e 939b 333e 2605 673e
000003c0: b756 313e ae8e 613e c989 a33e 666e f03e
000003d0: 7660 913e f443 513e 1670 fa3e 120a a43e
000003e0: 4d9a b93e 9e26 e53e 85a9 173f c706 a73e
000003f0: 137f 893e ea38 fc3e 9824 db3e d594 643e
0.5382292 0.56275696 0.4369387 0.7930781 0.3418023 0.5237921 0.92314094 0.56441146
0.5497353 0.396432 0.33277988 0.92576444 1.0136366 1.0121082 0.39520437 1.0391082
0.1479452 0.19117317 0.31533352 0.36919597 0.5010212 0.7195965 0.2587034 0.21446787
0.62015176 0.5506417 0.5125808 0.24281228 0.17129475 0.3810549 0.5644178 0.35385364
1.9580175 0.30373615 0.49685478 0.67156804 0.39284793 0.2870296 0.5732215 0.5279365
0.32100993 0.65082383 0.40709358 0.17989427 0.40004128 0.5103163 0.6462218 0.40259275
0.08112901 0.2116416 0.2955836 0.6598813 0.36463574 0.39026654 1.1986147 0.4797473
0.45016658 0.22398739 0.7071063 0.369062 0.34599647 0.37709814 0.3834548 0.5500873
0.2900706 0.23809889 0.2173821 0.89641464 0.48071307 0.27446404 0.4101921 0.6366356
0.47910073 0.69033176 0.27875784 0.75943613 1.2581167 0.3632238 -0.009635895 0.2610548
0.96425754 -0.001525304 0.14531937 0.2561653 0.47661874 0.42367083 0.39880055 0.6019657
0.646752 0.3818535 1.0609951 0.53576523 0.2876096 0.072832055 0.21357764 0.23015933
0.2910369 0.14568318 0.25645524 0.97524285 0.3939771 0.22331034 0.27017754 0.18138571
0.74906856 0.31260604 0.3245499 0.16334416 0.6158447 0.6460873 0.0012015954 0.25970435
1.314655 0.3540375 -0.2966351 0.4163435 0.89904493 0.24903105 0.4472223 0.24617134
0.25519383 0.09323359 0.14191045 0.2745275 0.4726418 0.22023472 0.9590346 0.21334423
0.96945083 0.31231752 0.41124687 1.6185498 0.98195964 0.5606225 0.35655764 0.47740212
0.32951713 0.9963534 0.6947214 -0.004346906 0.19560803 0.2519247 0.95789826 0.30934188
0.41706872 0.41891384 0.11866542 0.39112225 0.26162827 0.17329264 0.2807193 0.37428945
0.68493706 0.4391913 0.25614882 0.41761366 0.2604868 0.18542497 0.4619199 0.34027308
0.3238613 0.24571261 0.20081416 0.41456705 0.01133917 1.158718 0.5438866 0.5163238
0.48564816 0.15381794 0.9058271 0.95880586 0.46159944 0.09782157 1.658898 0.3183875
0.5907614 0.27097163 0.0016246155 0.6864452 0.3525817 0.24248411 0.34228873 0.31064984
0.26980463 1.8398821 0.019656248 0.88270146 0.8126915 0.7555307 0.16952957 0.13974372
0.7352287 0.59204715 0.41704985 0.22127616 1.1889956 0.20809886 0.15136036 0.2731099
0.37111694 0.51891375 0.11286734 0.47307882 0.20929039 1.1050457 0.17471357 0.3398947
0.20731498 0.30762118 0.32129443 0.64516526 -0.0041676727 0.28656718 0.33674818 0.8036022
0.35236165 0.22416927 0.5213707 0.35817778 0.46626955 0.33087394 0.5606249 0.7642844
0.16597454 0.23496614 0.7734294 0.47364786 0.49525908 0.53447664 0.4551804 0.2207958
0.31354865 0.23149994 0.2049556 0.1561354 0.1824557 0.40287778 0.17539816 0.22560558
0.17318235 0.22027084 0.3194106 0.46959227 0.28393906 0.20436078 0.4891364 0.32038933
0.36250535 0.44756025 0.5924304 0.32622358 0.26854762 0.49262172 0.42801356 0.223224
