checkpoints/maddpg_per/maddpg_per0_checkpoint_critic_local.pth (torch, 474855 bytes, 13 tensors)

fc1.weight f4 [256, 52]
-0.0025250427 0.6718938 -0.6286904 0.15448503 -0.027206346 -0.5760137 -0.6460951 -0.0142077925
0.053497415 0.68238986 -0.06885847 0.06485114 -0.16530395 -0.26870102 -0.061041247 0.17808576
0.15678959 0.36905047 -0.0741805 -0.61359036 -0.38255027 -0.11910359 -0.09809037 -0.6225901
0.38461912 -0.12949523 -0.025286006 -0.021412289 0.17542893 -0.4262413 -0.17354734 0.08043666
0.5513308 -0.15788782 -0.22619843 -0.20374043 0.2689763 -0.15596597 -0.14352733 -0.046429303
0.36186868 -0.13994567 -0.22244878 0.5100211 0.19754037 -0.07120602 -0.28172246 0.581925
-0.4204887 -1.0353439 -3.0577087 -0.46826997 -0.3895064 -0.038285337 -0.24575251 0.91402346
0.06003435 -0.3183732 -0.12579826 1.0694348 -0.31214705 0.3023644 0.09043303 1.1108991
0.11879551 -0.46621007 0.1212451 1.0003853 -0.2718692 0.15678352 0.33984062 -0.10485991
-0.09198029 -0.15798259 0.2458737 0.07084759 0.41847777 -0.03657244 -0.092865504 -0.73333395
-0.037896544 -0.49214295 -0.13059239 -0.773536 0.080941126 -0.32551196 -0.1090535 -0.9912232
-0.040800754 -0.416368 -0.17235966 -0.9631768 0.012708845 -0.503612 -0.10512205 -0.44194704
-0.07668417 -0.1113046 -0.06947803 -0.29069334 1.093912 -0.18350211 -0.9741694 0.91883725
-0.019633805 0.6191964 -0.2805569 0.30005756 0.008509416 -0.6064196 -0.12988034 0.2776336
0.09192783 0.54015064 -0.14278883 0.20146614 0.14289792 -0.4657066 -0.25987017 0.17224045
0.018883606 0.50668555 0.2517896 -0.13819146 0.32283688 -0.09691594 0.14007194 -0.14331493
0.00012750716 -0.48742905 -0.0062704054 -0.28641632 -0.16351652 -0.3973629 -0.1894459 -0.08550483
0.26621148 -0.28672233 0.54213935 0.4682788 -0.084195584 -0.22657861 0.5376675 0.49931785
0.47776976 -0.30931368 -0.0293457 0.0966612 -0.21619579 0.1578824 -0.21344058 -0.036513757
0.5878256 1.0866429 -0.23341309 -1.8248338 0.5814709 0.50711805 -0.14351836 -0.3177535
0.7546283 0.29404578 0.04758127 -0.4720187 0.54059273 0.3198689 -0.017711047 0.20068976
0.5840933 -0.00838578 -0.08856042 0.23231842 0.6476361 0.43407857 -0.2573792 -0.16662596
0.30474803 0.21151209 -0.31766576 -0.16191897 0.40375966 -1.4095037 0.25417805 -0.17801398
-0.6264205 0.12006672 0.25737935 -0.10045911 0.7237727 -1.6084462 0.15207697 -0.5762851
-0.4734722 0.0721667 0.050019182 -0.4057318 1.1676337 -1.4949794 -0.055491865 -0.09688693
-0.16006729 0.15047483 -0.14505841 -0.21863477 -0.9456231 -0.9827772 -0.35103375 -1.4092498
-0.28173596 0.10783684 -0.04577878 0.055524312 -0.56497425 0.030559445 -0.09841904 0.24552362
-0.2233822 -0.0050233603 -0.14842576 0.04012499 0.7103697 -0.17651804 -0.2484691 0.016817763
0.028041396 0.2133043 -0.18293987 -0.091245286 4.311379 -0.26409677 -0.1642798 -0.09793466
-0.067445636 -0.40453678 0.014808095 -0.1569534 0.509666 0.08223181 -0.028681055 0.0700653
0.13611919 -0.08764202 0.020269766 0.035292838 -0.60267955 -0.15978615 -0.059577983 -0.13047126
0.53963876 -0.26236638 -0.053669233 0.0014656752 -4.378355 -0.12669793 0.015662707 0.06500802
00000000: 307b 25bb 3b01 2c3f dbf1 20bf 5331 1e3e
00000010: d8df debc a275 13bf 7d66 25bf cdc7 68bc
00000020: 1b20 5b3d 1ab1 2e3f ab05 8dbd add0 843d
00000030: 7045 29be 2e93 89be 6306 7abd 1d5c 363e
00000040: 738d 203e 2ff4 bc3e f2eb 97bd 4214 1dbf
00000050: a1dd c3be 95ec f3bd 9be3 c8bd 1162 1fbf
00000060: ccec c43e 669a 04be 9924 cfbc d368 afbc
00000070: a4a3 333e 4d3c dabe 65b6 31be fabb a43d
00000080: 0424 0d3f 58ad 21be 90a0 67be 55a1 50be
00000090: 43b7 893e 8bb5 1fbe d4f8 12be a72c 3ebd
000000a0: da46 b93e eb4d 0fbe 9dc9 63be be90 023f
000000b0: 0648 4a3e 76d4 91bd ed3d 90be 09f9 143f
000000c0: 4b4a d7be 2686 84bf 80b1 43c0 15c1 efbe
000000d0: 626d c7be 16d1 1cbd 8ca6 7bbe 71fd 693f
000000e0: 94e6 753d d001 a3be 42d1 00be 3de3 883f
000000f0: bdd1 9fbe 82cf 9a3e f434 b93d f131 8e3f
00000100: 0f4b f33d 16b3 eebe 5a4f f83d a00c 803f
00000110: 7132 8bbe dc8b 203e 97ff ad3e cbc0 d6bd
00000120: 2a60 bcbd 30c6 21be 51c6 7b3e 8b18 913d
00000130: b842 d63e fccc 15bd 4530 bebd c6bb 3bbf
00000140: 6839 1bbd 29fa fbbe 03ba 05be 7506 46bf
00000150: 76c4 a53d 81a9 a6be 7157 dfbd cec0 7dbf
00000160: b11e 27bd 302e d5be 0d7f 30be c192 76bf
00000170: c238 503c b7ec 00bf 3b4a d7bd e246 e2be
00000180: 970c 9dbd abf3 e3bd 7f4a 8ebd c2d5 94be
00000190: 4f05 8c3f fae7 3bbe 2a63 79bf eb38 6b3f
000001a0: 13d7 a0bc a883 1e3f 27a5 8fbe 25a1 993e
000001b0: 146b 0b3c 513e 1bbf 5aff 04be fe25 8e3e
000001c0: a844 bc3d 5047 0a3f 3c37 12be 244d 4e3e
000001d0: d553 123e 1871 eebe b40d 85be cd5f 303e
000001e0: cbb1 9a3c 25b6 013f 91ea 803e 1082 0dbe
000001f0: e04a a53e dd7b c6bd 056f 0f3e 26c1 12be
00000200: 71b3 0539 4d90 f9be f977 cdbb 29a5 92be
00000210: e070 27be 2673 cbbe 1bfe 41be 281d afbd
00000220: df4c 883e 45cd 92be a5c9 0a3f 3dc2 ef3e
00000230: bc6e acbd 3904 68be 94a4 093f 97a6 ff3e
00000240: 3d9e f43e 5d5e 9ebe 6566 f0bc 4ff6 c53d
00000250: 6e62 5dbe edab 213e 2b90 5abe 738f 15bd
00000260: bd7b 163f 1d17 8b3f d703 6fbe 2794 e9bf
00000270: 47db 143f 7dd2 013f 7af6 12be 96b0 a2be
00000280: 522f 413f 2b8d 963e 94e4 423d 6fac f1be
00000290: 4964 0a3f dbc5 a33e c216 91bc 9e81 4d3e
000002a0: 2387 153f 8364 09bc 2a5f b5bd e1e4 6d3e
000002b0: 7bcb 253f 8c3f de3e 35c7 83be ff9f 2abe
000002c0: ef07 9c3e a096 583e 16a5 a2be 16ce 25be
000002d0: 96b9 ce3e 9e6a b4bf a023 823e 4c49 36be
000002e0: 185d 20bf 8ae5 f53d 3ac7 833e 82bd cdbd
000002f0: 2b49 393f 91e1 cdbf 11ba 1b3e 6c87 13bf
00000300: f36a f2be 23cc 933d eae0 4c3d 14bc cfbe
00000310: 0575 953f 7c5b bfbf 704b 63bd a86c c6bd
00000320: aee8 23be 1316 1a3e 318a 14be cbe1 5fbe
00000330: 5b14 72bf 4997 7bbf b2ba b3be 4c62 b4bf
00000340: b23f 90be 90d9 dc3d 8882 3bbd 766d 633d
00000350: 27a2 10bf cd57 fa3c ec8f c9bd 8b6a 7b3e
00000360: 4ebe 64be 009b a4bb ecfc 17be 1a5a 243d
00000370: cada 353f 25c1 34be af6e 7ebe 68c5 893c
00000380: 12b7 e53c 716c 5a3e 9754 3bbe cfde babd
00000390: d1f6 8940 b137 87be f738 28be f891 c8bd
000003a0: f020 8abd 721f cfbe a79d 723c 64b8 20be
000003b0: 7979 023f 2769 a83d 88f4 eabc 657e 8f3d
000003c0: d462 0b3e a97d b3bd c80c a63c 398f 103d
000003d0: 3549 1abf fb9e 23be 0b08 74bd 429a 05be
000003e0: c425 0a3f e354 86be 45d4 5bbd e61b c03a
000003f0: 7c1b 8cc0 1abd 01be 144f 803c ed22 853d

fc1.bias f4 [256]
-0.47235453 -0.30763638 -0.5495806 -0.3429175 -0.7417178 -0.37551525 -1.561709 -0.42146018
-0.7101082 -0.14870258 -0.6803612 -0.2910578 -3.7268155 -0.5813485 -0.2968646 -0.539075
-0.55846184 -0.1684918 -0.29229802 -0.759432 -0.43040165 -0.35013235 -0.51430804 -0.2900286
-0.61968666 -0.2664207 -0.6987542 -0.50949603 -0.40033868 -0.102354124 -0.83184624 -0.18091555
-0.25548288 0.08406917 -1.0651529 -0.64685 -0.48532078 -0.9420465 -0.48001814 -0.11958065
-0.56144816 -0.35458076 -0.10548269 -0.18844475 -0.5243121 -0.43197742 -0.8213633 -0.50214446
-0.33964384 -0.47026786 -0.51756424 -0.07994538 -0.27852234 -0.011460006 -0.09676326 0.042242244
-0.23939668 -0.63126695 -0.6146496 0.070235096 -0.58169657 -0.29031453 -0.5883498 -0.32323703
-0.27509302 -0.44782278 -0.18709916 -0.089331955 -0.3366583 -0.6867268 -0.56088483 0.046974555
-0.41249225 -0.38976112 -0.01755755 -0.62446314 -0.55186826 -0.18057913 -0.5227424 -0.2055127
-0.92951757 -0.5298272 -0.072346285 -2.5496998 -0.15954235 -0.016488172 -0.34955487 -0.64873606
-0.087685265 -0.605265 -0.56158555 -0.1414503 -1.0640254 0.12677985 0.5356714 -0.42186883
-1.124008 -0.46671647 -0.5080344 -0.8553005 -1.0331135 -0.36051044 -0.27339727 -0.13159004
-0.5401681 -0.30420232 -0.8841469 -0.40031418 -0.4421404 -1.0122077 -0.6346296 -0.61870104
-0.72467095 -0.18125862 0.2526857 -0.56513953 -0.174302 -0.52441627 -2.202608 -0.57704043
-0.5798157 -0.23102355 -0.69335747 -1.0402805 -0.3199242 -0.5800063 -0.5459302 0.111520424
-0.96615297 -0.31322837 -0.60485387 -0.40453893 -0.32438394 -0.63376 -0.387124 -1.1848738
-0.1408059 -0.6056097 -0.49028635 -0.40296298 -1.5581963 -0.40271717 -0.112634204 -0.4476436
-1.1275221 -0.26929766 -0.4856808 -0.65047556 -0.6792758 0.29293245 0.0071854237 -0.42117018
-0.27323335 -0.103054896 -1.2929267 -0.42810768 -0.72207445 -0.2602271 -0.5487026 -0.023594508
-0.22998317 -0.014706046 -0.47733906 -0.30465034 0.099666774 -0.62159437 -0.7973635 -0.12212058
-0.44913757 -0.23594593 -0.22218676 -0.64692986 -0.48808268 -0.9396562 -0.78408766 -0.09578776
-0.32874647 -0.47062087 -1.4557077 -0.3804486 -0.36249897 -0.70752096 -0.400771 -0.39884135
-0.41461018 -0.40658188 -0.06971164 -0.34620976 -0.10279944 -0.5110994 -0.106420405 -1.0120445
-0.50177234 -0.7648927 -0.16657037 -0.04186179 0.032133088 -0.46781516 -0.387792 -0.07138759
-0.31626597 -0.62662745 -0.57994795 -0.29832125 -0.32675043 -0.26111048 -0.5178075 -0.4719114
-0.23547086 -0.0023182635 -0.06966265 -0.5296441 -0.40135637 -0.1506924 -0.5971326 -0.34494686
-0.40553787 -0.28504983 -0.73888165 -0.09542518 -0.15661292 -0.48086265 -0.96471936 -0.29000652
-0.25833437 -0.58516705 -0.83689487 -0.86608684 -0.59846383 -0.6422276 -0.652603 0.122001134
-0.467239 -0.5820748 -0.4716478 -0.26466942 -0.7296367 -0.46447587 0.0016818832 -0.29513425
0.04205033 -0.119522385 -0.83890694 0.066718094 -0.75137675 -0.06887297 -0.6813592 -1.0380983
-0.28971022 -1.7574846 -0.56587404 -0.20801547 -0.020898635 -0.2592775 -0.7552216 -0.57031274
00000000: 74d8 f1be 8482 9dbe 50b1 0cbf e292 afbe
00000010: 38e1 3dbf 8943 c0be 15e6 c7bf a1c9 d7be
00000020: a7c9 35bf 7d45 18be 272c 2ebf 8705 95be
00000030: 2584 6ec0 41d3 14bf a3fe 97be d200 0abf
00000040: 5bf7 0ebf 1d89 2cbe 16a8 95be 236a 42bf
00000050: 9b5d dcbe 8c44 b3be b1a9 03bf a17e 94be
00000060: c9a3 1ebf 4b68 88be 8ee1 32bf 556e 02bf
00000070: 31f9 ccbe 0a9f d1bd e0f3 54bf ed41 39be
00000080: a7ce 82be 752c ac3d ee56 88bf f697 25bf
00000090: f77b f8be f629 71bf f0c4 f5be b3e6 f4bd
000000a0: 11bb 0fbf 9c8b b5be 4f07 d8bd a9f7 40be
000000b0: 5139 06bf 252c ddbe dd44 52bf 8a8c 00bf
000000c0: cce5 adbe f3c6 f0be 177f 04bf 67ba a3bd
000000d0: 7b9a 8ebe c0c2 3bbc d12b c6bd 3406 2d3d
000000e0: 6724 75be b69a 21bf ad59 1dbf 6bd7 8f3d
000000f0: 11ea 14bf 1ba4 94be 189e 16bf 537f a5be
00000100: fed8 8cbe 0749 e5be ec96 3fbe acf3 b6bd
00000110: 7a5e acbe 54cd 2fbf 2696 0fbf 6468 403d
00000120: 2f32 d3be c58e c7be dad4 8fbc d1dc 1fbf
00000130: 3d47 0dbf bce9 38be 72d2 05bf ec71 52be
00000140: ddf4 6dbf c1a2 07bf 4a2a 94bd 482e 23c0
00000150: 125f 23be 3412 87bc dbf8 b2be 9113 26bf
00000160: 5594 b3bd a6f2 1abf 12c4 0fbf 59d8 10be
00000170: fc31 88bf 94d2 013e c321 093f 31ff d7be
00000180: 7fdf 8fbf 76f5 eebe 8b0e 02bf f9f4 5abf
00000190: 103d 84bf d394 b8be bafa 8bbe 8abf 06be
000001a0: 7548 0abf 68c0 9bbe 7457 62bf fbf5 ccbe
000001b0: 3a60 e2be 0690 81bf 1677 22bf 3163 1ebf
000001c0: 0984 39bf dc9b 39be 0560 813e fcac 10bf
000001d0: 397c 32be 2540 06bf 88f7 0cc0 ecb8 13bf
000001e0: cd6e 14bf 7091 6cbe e07f 31bf e927 85bf
000001f0: 1bcd a3be 4b7b 14bf 15c2 0bbf d264 e43d
00000200: cd55 77bf 785f a0be b4d7 1abf ba1f cfbe
00000210: a715 a6be 183e 22bf 1e35 c6be f2a9 97bf
00000220: 6c2f 10be 3d09 1bbf d006 fbbe 2a51 cebe
00000230: fa72 c7bf f230 cebe c3ac e6bd 8b31 e5be
00000240: a552 90bf 62e1 89be 27ab f8be 9185 26bf
00000250: 05e5 2dbf 3efb 953e b473 eb3b 9ea3 d7be
00000260: 3ee5 8bbe 720e d3bd 9f7e a5bf ee30 dbbe
00000270: dfd9 38bf 7d3c 85be c677 0cbf 4549 c1bc
00000280: b580 6bbe a1f1 70bc c965 f4be 21fb 9bbe
00000290: 181e cc3d cf20 1fbf 0420 4cbf 5b1a fabd
000002a0: 5cf5 e5be cf9b 71be ed84 63be 329d 25bf
000002b0: f9e5 f9be 4f8d 70bf f8b9 48bf 602c c4bd
000002c0: 7551 a8be 38f5 f0be a154 babf 29ca c2be
000002d0: 7799 b9be 1820 35bf db31 cdbe ef34 ccbe
000002e0: c947 d4be 802b d0be fac4 8ebd 6842 b1be
000002f0: 8388 d2bd 69d7 02bf f1f2 d9bd ad8a 81bf
00000300: 2774 00bf 02d0 43bf 6c91 2abe 4577 2bbd
00000310: fc9d 033d 7885 efbe ac8c c6be a833 92bd
00000320: 9ded a1be a86a 20bf 7877 14bf 90bd 98be
00000330: d54b a7be 46b0 85be 088f 04bf 5f9e f1be
00000340: 461f 71be 02ee 17bb 4bab 8ebd c196 07bf
00000350: 957e cdbe 1c4f 1abe afdd 18bf e09c b0be
00000360: a9a2 cfbe 0df2 91be 5927 3dbf 476e c3bd
00000370: 235f 20be a133 f6be d9f7 76bf bc7b 94be
00000380: 6744 84be 82cd 15bf be3e 56bf deb7 5dbf
00000390: ed34 19bf 0769 24bf fd10 27bf bbdb f93d
000003a0: f339 efbe db02 15bf d27b f1be c082 87be
000003b0: 79c9 3abf c8cf edbe a372 dc3a d61b 97be
000003c0: f83c 2c3d 27c8 f4bd 9bc2 56bf 7fa3 883d
000003d0: 3a5a 40bf 460d 8dbd 8e6d 2ebf 68e0 84bf
000003e0: e654 94be 41f5 e0bf 1fdd 10bf 0202 55be
000003f0: 9d33 abbc 05c0 84be 3456 41bf 0400 12bf

fc2.weight f4 [256, 256]
0.47906554 -0.13714975 -0.14971305 0.17893764 0.38377628 -0.49816486 -0.04316201 0.13277015
-0.46842486 -0.45466378 0.10821347 0.028719796 -0.35519966 -0.124061756 0.053021204 -0.57310367
0.051255826 0.0019834652 0.08813689 -0.32120132 -0.17045026 0.10416256 -0.037833408 0.042972036
-0.18936731 -0.10124553 -0.08930327 0.072271794 -0.22129759 -0.059570998 -0.13063702 -0.17194898
-0.06748856 0.20785627 -0.78715676 -0.16660887 -0.19341582 -0.9340866 0.147865 0.5568822
-0.18472083 -0.013631472 0.25885215 0.064166866 -0.35349524 -0.05675491 0.021608274 0.11831047
0.16079739 0.17283855 0.11458606 -0.64606535 0.13999455 0.29121843 -0.73036325 -0.0727405
0.13985735 -0.035668686 -0.21067266 -0.012240221 0.13576646 0.30217025 0.17795968 0.09766066
0.40197852 -0.17646116 0.22561477 -0.010401916 0.08647167 -0.5544921 -0.33426824 0.2470828
-0.088553034 0.09302034 -0.09065219 -0.013231484 -0.34153268 0.14679882 -0.10736769 -0.06906121
-0.08851987 0.36787575 0.17070235 -0.58550435 0.04245593 -0.10047065 -0.24689405 -0.10845151
-0.31928745 0.38183656 -0.29009277 0.2834744 -0.41801196 0.021512514 -0.25661254 -0.37404138
-0.5721305 -0.23075686 -0.077840626 -0.205068 0.4770769 -0.03415411 -0.06853066 -0.11447633
-0.35550827 0.008605945 -0.59278816 -0.08208948 0.1287977 0.09911896 -0.11105225 0.26930383
0.2152866 -0.13733155 0.33987713 0.119554535 0.6720684 -0.69100654 -0.10462982 0.29004368
-0.11671791 0.013077796 -0.15920499 0.117566526 0.2470992 -0.48493576 0.41091642 -0.018489225
-0.54303306 0.15653455 -0.32965174 0.14108168 -0.11126747 -0.054902256 0.08860766 -0.57046616
0.2323463 -0.6137295 -0.25530645 -0.08133309 -0.3349462 0.50752985 -0.18073802 0.09315643
-0.49222535 -0.26916978 -0.120057695 -0.11830668 0.06669082 0.04317653 0.042563908 -0.3300401
-0.09682532 -0.31512603 -0.15432331 0.3509397 -0.28190082 -0.39972124 -0.5549189 0.24152803
0.15365635 -0.11056221 -0.9057174 -0.1345401 -0.28215897 -0.36457452 -0.1303269 -0.075196944
-0.27896214 -0.46578357 0.020492652 -0.084299505 -1.5241017 -0.19345424 0.15403557 0.12150286
0.0858336 -0.3236214 0.29470983 0.109459385 0.4711002 -0.0075970436 0.10456434 -0.6923129
0.1339339 0.15474975 0.15100636 0.1320725 -0.49561146 -0.13342948 0.24386398 -0.36466718
-0.27339333 -0.015562829 -0.17321885 -0.23810704 0.3294875 0.08962252 0.066599905 -0.43636978
0.24756536 -0.47000885 0.033004347 -0.3222306 0.020480864 0.5407896 -0.074351504 -0.19470307
-0.2906251 0.12208839 0.33937278 -0.1713678 -0.15624224 0.09330038 0.014191722 0.1515363
0.002674263 0.11768559 -0.75148463 0.12112302 -0.077705756 -0.29935068 0.029784005 0.10238031
-0.21583323 -0.27642307 -0.020953866 0.114692196 0.4712121 0.11577558 0.0065988707 0.40397918
0.23199533 0.35555303 -0.1220933 -0.23949443 -0.041729357 -0.14994402 -0.011081506 0.3557737
0.29779443 -0.4611117 -0.050917417 -0.21497571 0.08002024 -0.23997301 0.10351883 -0.092023544
-0.01935744 -0.21931191 0.6738687 -0.025113977 0.2525056 0.23015383 0.25090376 0.7693448
00000000: 1448 f53e fc70 0cbe 614e 19be 6e3b 373e
00000010: 537e c43e 770f ffbe a6ca 30bd e6f4 073e
00000020: 62d5 efbe b1c9 e8be 069f dd3d c745 eb3c
00000030: bbdc b5be 1714 febd c32c 593d ecb6 12bf
00000040: a1f1 513d 06fd 013b 1d81 b43d 8074 a4be
00000050: 838a 2ebe 2e53 d53d 34f7 1abd 7203 303d
00000060: 81e9 41be d159 cfbd a2e4 b6bd 3c03 943d
00000070: d69b 62be b800 74bd b6c5 05be 6513 30be
00000080: 7137 8abd 46d8 543e 1b83 49bf 849b 2abe
00000090: cc0e 46be 4d20 6fbf ec69 173e d58f 0e3f
000000a0: 7527 3dbe 8a56 5fbc 4588 843e eb69 833d
000000b0: 54fd b4be d677 68bd d603 b13c c24c f23d
000000c0: 12a8 243e 97fc 303e 19ac ea3d 8a64 25bf
000000d0: bb5a 0f3e 951a 953e 16f9 3abf f9f8 94bd
000000e0: c436 0f3e 5419 12bd 93ba 57be 358b 48bc
000000f0: 5d06 0b3e 0fb6 9a3e 103b 363e 5002 c83d
00000100: 21d0 cd3e 3cb2 34be 8f07 673e cc6c 2abc
00000110: 0f18 b13d 32f3 0dbf 3525 abbe 4603 7d3e
00000120: 4b5b b5bd 7381 be3d dba7 b9bd dec8 58bc
00000130: 5fdd aebe 6e52 163e 97e3 dbbd f76f 8dbd
00000140: e849 b5bd 365a bc3e 99cc 2e3e 9de3 15bf
00000150: 45e6 2d3d 8ec3 cdbd cbd1 7cbe d31b debd
00000160: a579 a3be 1580 c33e 0a87 94be 8e23 913e
00000170: aa05 d6be 033b b03c b862 83be 5a82 bfbe
00000180: 2577 12bf 874b 6cbe e86a 9fbd 59fd 51be
00000190: 6c43 f43e 2ee5 0bbd cd59 8cbd 9172 eabd
000001a0: 2e05 b6be f3ff 0c3c f7c0 17bf 871e a8bd
000001b0: 8be3 033e e2fe ca3d 5d6f e3bd 31e2 893e
000001c0: 1774 5c3e a4a0 0cbe 6004 ae3e 02d9 f43d
000001d0: ad0c 2c3f cee5 30bf 2948 d6bd 9b80 943e
000001e0: cd09 efbd 4144 563c a206 23be b8c6 f03d
000001f0: 9307 7d3e 8049 f8be a363 d23e b776 97bc
00000200: 3704 0bbf 984a 203e 1dc8 a8be b777 103e
00000210: 33e0 e3bd 30e1 60bd ef77 b53d 120a 12bf
00000220: 30ec 6d3e 601d 1dbf 87b7 82be f791 a6bd
00000230: 117e abbe 7aed 013f 6313 39be ccc8 be3d
00000240: f604 fcbe 9fd0 89be cfe0 f5bd c64a f2bd
00000250: 3295 883d e0d9 303d 7e57 2e3d 04fb a8be
00000260: 5a4c c6bd 3358 a1be ee06 1ebe 5eae b33e
00000270: 4e55 90be 43a8 ccbe 2a0f 0ebf 2053 773e
00000280: 1758 1d3e 716e e2bd 18dd 67bf e1c4 09be
00000290: 2477 90be 83a9 babe 6a74 05be db00 9abd
000002a0: 20d4 8ebe 2f7b eebe 35e0 a73c 38a5 acbd
000002b0: c415 c3bf de18 46be 80bb 1d3e 7ed6 f83d
000002c0: 87c9 af3d b4b1 a5be 35e4 963e 3e2c e03d
000002d0: 0c34 f13e 9ff0 f8bb d425 d63d 6b3b 31bf
000002e0: f825 093e b876 1e3e 69a1 1a3e 033e 073e
000002f0: c9c0 fdbe bda1 08be 7bb7 793e a8b5 babe
00000300: 36fa 8bbe 3cfb 7ebc 4860 31be 55d2 73be
00000310: 96b2 a83e 038c b73d 8865 883d dc6b dfbe
00000320: c681 7d3e 00a5 f0be 912f 073d 69fb a4be
00000330: 7cc7 a73c 3071 0a3f 9a45 98bd 3e60 47be
00000340: d0cc 94be 7a09 fa3d 45c2 ad3e 0a7b 2fbe
00000350: f7fd 1fbe 4514 bf3d 6584 683c 552c 1b3e
00000360: b042 2f3b 2505 f13d 4c61 40bf 590f f83d
00000370: 3224 9fbd 7e44 99be 96fd f33c c5ac d13d
00000380: 6303 5dbe 5387 8dbe 71a7 abbc bee3 ea3d
00000390: b642 f13e bf1b ed3d 573b d83b 5cd6 ce3e
000003a0: 2f90 6d3e 0c0b b63e 0d0c fabd 073e 75be
000003b0: 67ec 2abd ed8a 19be 348f 35bc f827 b63e
000003c0: 8378 983e d516 ecbe c88e 50bd 9822 5cbe
000003d0: a7e1 a33d 7cbb 75be ae01 d43d d776 bcbd
000003e0: 7e93 9ebc 4d93 60be a982 2c3f d4bb cdbc
000003f0: 6a48 813e 72ad 6b3e 7576 803e c8f3 443f

fc2.bias f4 [256]
0.05906671 -0.9990836 -0.34381482 -0.2620089 -0.2592845 -0.3665087 -0.45508242 -0.77745414
-0.036772717 -0.20022221 -0.29977515 -0.01607417 -0.5025509 -0.9143971 -0.20529813 -0.30853572
-0.2066161 -0.81318885 -0.1843254 -0.5577842 -0.5176436 -0.4113841 -0.44162548 -0.48277465
-0.23501408 -0.20277138 -0.25734106 -0.10098065 -0.23176147 -0.26850888 -0.48014182 -0.30170977
-0.7641241 -0.36441737 -0.4810742 -0.3757816 -0.35695153 -0.47105724 -0.49731258 -0.5264715
-0.27591163 -0.6281897 -0.36321968 -0.33769485 -0.3402148 -0.04115852 -0.2518264 -0.611205
-0.23022975 -0.17840713 -0.82534426 -0.48972946 -0.22489975 -0.5795083 -0.19564554 -0.49357963
-0.5796312 -0.17380899 -0.36221656 -0.30331334 -0.21906137 -0.24463005 -0.2623432 -0.23258196
-0.43847144 -0.2534252 -0.19793734 -0.23541975 -0.5787757 -0.58234817 -0.39098448 -0.49710038
-0.69077045 -0.29862103 -0.3562343 -0.036271233 -0.26456904 -0.1569568 -0.20933224 -0.14350192
-0.28864205 -0.5291826 -0.29358372 -0.23454185 -0.43050107 -0.11808905 -0.41324076 -0.43007332
-0.552581 -0.37969375 -0.09217434 -0.47634915 -0.57934386 -0.24565722 -0.22975221 -0.61764
-0.3908368 -0.31283277 -0.18796706 -0.4162632 -0.9626338 -0.2302909 -0.327988 -0.29641655
-0.58124757 -0.40995067 -0.25122666 -0.3734973 -0.4595176 -0.45993263 -0.606262 -0.1731823
0.11078495 -0.14877658 -0.3437439 -0.51776576 -0.26823762 -0.07081789 -0.26395452 -0.42634374
-0.35927978 -0.11212838 -0.3005361 -0.45634693 -0.31146654 -0.6704226 -0.59645224 -0.20490094
-0.23762734 -0.052406244 -0.37798128 -0.18324518 -0.7751276 -0.34465495 -0.3033818 -0.37348157
-0.4374491 -0.23960857 -0.35942212 -0.33538628 -0.5406924 -0.538044 -0.3255551 -0.4238485
-0.20519249 -0.18050282 -0.6908186 -0.37806508 -0.71735185 -0.26575056 -0.28403848 -0.31315765
-0.3076494 -0.23117611 -0.3530595 -0.085344955 -0.34414932 -0.7423289 -0.30076098 -0.5477597
-0.052635875 -0.1578712 -0.3489366 -0.44015 -0.4448228 -0.25941375 -0.4725049 -0.5346816
-0.2226193 -0.35913575 -0.3525426 -0.32629782 -0.27927452 -0.4381613 -1.258155 -0.07752114
-0.61753654 -0.5915683 -0.13943934 -0.4599042 -0.37114435 -0.31017768 -0.40318814 -0.26355714
-0.3135608 -0.34775442 -0.15981531 -0.23567562 -0.27090725 -0.23089556 -0.25534064 -0.5042364
-0.22799097 -0.56806797 -0.33428583 -0.16188318 -0.32035837 -0.27030784 -0.30631423 -0.36572117
-0.4164083 -0.4504325 -0.53165853 -0.11394982 -0.15680635 -0.30644438 -0.22818983 -0.22638685
-0.2726974 -0.4927049 -0.022500634 -0.3618106 -0.2714376 -0.14624093 -0.41733244 -0.9454299
-0.5056446 -0.3147878 -0.55657417 -0.36910263 -0.61594224 -0.21913187 -0.19284657 -0.4276752
-0.43826672 -0.48191446 -0.67166305 -0.37668347 -0.38232583 -0.33664268 -0.26063788 -0.16249017
-0.14960237 -0.19997136 -0.21167296 -0.1596213 -0.3037234 -0.36320573 -0.4341727 -0.39965114
-0.36938414 -0.29938918 -0.45559618 -0.5588981 -0.6718223 -0.41114232 -0.1860077 -0.48717973
-0.28671244 -0.41677663 -0.17293821 -0.28413317 -0.08128888 -0.49335375 -0.09597745 -0.4404276
00000000: efef 713d f1c3 7fbf 7f08 b0be 0826 86be
00000010: f0c0 84be 07a7 bbbe 9000 e9be 3c07 47bf
00000020: fd9e 16bd 0d07 4dbe 217c 99be faad 83bc
00000030: 2da7 00bf ee15 6abf ac39 52be 65f8 9dbe
00000040: 2c93 53be 252d 50bf ccbf 3cbe f2ca 0ebf
00000050: 4a84 04bf f0a0 d2be bc1c e2be 3d2e f7be
00000060: 88a7 70be 4da3 4fbe 35c2 83be f1ce cebd
00000070: e152 6dbe ff79 89be 26d5 f5be b479 9abe
00000080: a39d 43bf ea94 babe 5c4f f6be 7266 c0be
00000090: 5ac2 b6be 6a2e f1be c19f febe d6c6 06bf
000000a0: 4a44 8dbe 0ad1 20bf eef7 b9be 57e6 acbe
000000b0: a230 aebe d695 28bd 64ef 80be ee77 1cbf
000000c0: 59c1 6bbe 5cb0 36be c349 53bf d2bd fabe
000000d0: 1f4c 66be a85a 14bf 4e57 48be 78b6 fcbe
000000e0: b662 14bf fcfa 31be 7374 b9be e34b 9bbe
000000f0: a051 60be 4d80 7abe d951 86be f729 6ebe
00000100: 547f e0be f3c0 81be 16b0 4abe e011 71be
00000110: a52a 14bf c514 15bf 1e2f c8be f183 febe
00000120: 55d6 30bf dbe4 98be 5864 b6be 2591 14bd
00000130: 9875 87be 49b9 20be 315b 56be 2bf2 12be
00000140: e4c8 93be 8378 07bf 9b50 96be bd2b 70be
00000150: a36a dcbe acd8 f1bd 4b94 d3be 9232 dcbe
00000160: f375 0dbf 3867 c2be e6c5 bcbd 09e4 f3be
00000170: e14f 14bf 918d 7bbe 2a44 6bbe a81d 1ebf
00000180: c31b c8be 9e2b a0be 707a 40be 7320 d5be
00000190: 2b6f 76bf 61d1 6bbe 0bee a7be e9c3 97be
000001a0: a4cc 14bf 0ee5 d1be c8a0 80be 0a3b bfbe
000001b0: e445 ebbe 4a7c ebbe fd33 1bbf b356 31be
000001c0: 38e3 e23d e358 18be 33ff afbe 4c8c 04bf
000001d0: 7156 89be f808 91bd 0c25 87be ba49 dabe
000001e0: 85f3 b7be 90a3 e5bd dedf 99be 4ea6 e9be
000001f0: 8b78 9fbe d1a0 2bbf 18b1 18bf 8dd1 51be
00000200: 9554 73be eea7 56bd c386 c1be a0a4 3bbe
00000210: c36e 46bf 9d76 b0be dc54 9bbe fa38 bfbe
00000220: 54f9 dfbe f35b 75be 2d06 b8be c0b7 abbe
00000230: d16a 0abf 40bd 09bf 28af a6be ac02 d9be
00000240: fb1d 52be bbd5 38be 7dd9 30bf bf91 c1be
00000250: 5fa4 37bf 7510 88be 7e6d 91be 3356 a0be
00000260: 3984 9dbe 6eb9 6cbe 37c4 b4be 56c9 aebd
00000270: 5734 b0be 4409 3ebf 58fd 99be fb39 0cbf
00000280: b798 57bd fda8 21be d1a7 b2be 575b e1be
00000290: d0bf e3be e1d1 84be 2aec f1be e5e0 08bf
000002a0: 50f6 63be a4e0 b7be 7780 b4be 8210 a7be
000002b0: 12fd 8ebe ae56 e0be 390b a1bf 67c3 9ebd
000002c0: e016 1ebf 0571 17bf 30c9 0ebe 9078 ebbe
000002d0: a206 bebe 9ccf 9ebe ad6e cebe f6f0 86be
000002e0: 0b8b a0be de0c b2be a0a6 23be f354 71be
000002f0: 5bb4 8abe e36f 6cbe 02bc 82be a315 01bf
00000300: 7776 69be e76c 11bf 8327 abbe b4c4 25be
00000310: 0306 a4be ca65 8abe 38d5 9cbe ce3f bbbe
00000320: 7833 d5be 179f e6be c61a 08bf 865e e9bd
00000330: d891 20be 47e6 9cbe 98aa 69be f4d1 67be
00000340: fe9e 8bbe d143 fcbe 4053 b8bc 3d3f b9be
00000350: def9 8abe 2fc0 15be 99ac d5be b207 72bf
00000360: ed71 01bf de2b a1be a57b 0ebf 05fb bcbe
00000370: 64ae 1dbf 1b64 60be 9279 45be 3ef8 dabe
00000380: 7f64 e0be 7ebd f6be 1cf2 2bbf a8dc c0be
00000390: 36c0 c3be 6e5c acbe 5472 85be d363 26be
000003a0: 5d31 19be 4bc5 4cbe ccc0 58be c473 23be
000003b0: a281 9bbe 1af6 b9be e24b debe 139f ccbe
000003c0: eb1f bdbe 8a49 99be e743 e9be f213 0fbf
000003d0: 8cfc 2bbf 3f81 d2be cd78 3ebe 9f6f f9be
000003e0: f9cb 92be bf63 d5be b716 31be e779 91be
000003f0: c97a a6bd dd98 fcbe d38f c4bd ba7f e1be

fc3.weight f4 [128, 256]
-0.4755453 -0.42048162 -0.42866367 0.20324548 0.3404088 0.32500443 0.15291235 -0.034212008
-0.0061575263 0.4821508 0.024363533 0.01276236 0.36435843 -0.39290646 -0.2611489 -0.05325539
0.1456433 -0.075593695 -0.37031427 0.2351037 -0.005140839 0.35911077 -0.23765448 -0.40586263
0.059263084 0.19887121 -0.37263352 -0.20176205 -0.21346608 -0.1592053 -0.007843051 -0.37012216
0.35956058 0.23291649 -0.2240777 0.2458796 0.42278507 -0.10568551 -0.25241432 0.09403311
0.016568542 -0.11507534 -0.16497318 -0.12640621 0.072826445 -0.3462724 0.41401765 -0.51110435
-0.28415006 0.64122576 0.045597907 0.00053647615 -0.33862442 0.06502104 -0.42947054 -0.24746451
-0.33511594 -0.09253336 -0.34168175 -0.5931385 -0.12806968 0.30798468 -0.00802081 -0.7419501
-0.15622868 -0.21886328 -0.12104593 0.37451598 0.3088647 -0.0011377404 0.036743637 0.08976126
0.05173132 -0.53277516 -0.0019435324 -0.06587017 0.14287962 -0.15787227 0.39664117 0.043525733
-0.25379878 0.44652006 -0.21018708 -0.097140595 0.43171674 -0.42036945 0.55838096 0.4610747
0.05292331 0.35232294 -0.7177685 -0.5562874 0.1119662 0.3563142 -0.25667936 0.38466772
-0.72990483 0.30488086 0.019524235 0.034653503 -0.2386035 0.022955867 -0.30295485 -0.28555703
-0.83664936 -0.3572715 0.049665634 0.008124519 0.3627805 -0.08995748 -0.33116278 -0.31745318
-0.45484877 -0.720938 0.2711422 0.052266996 0.012119761 -0.29843456 -0.50231487 -0.26726875
-0.8431836 -0.6026199 -0.7101517 0.12282229 -0.18393752 0.08216834 -0.33592057 0.38069966
-0.38102224 0.18122058 -0.44899493 -0.4581564 -1.3212862 -0.4538975 0.14515053 0.022037368
0.5237991 -0.05213254 0.305526 -0.9614054 -0.0810087 -0.15083817 -0.18657552 0.16119605
0.081193544 0.19880952 0.043524075 0.32737792 -0.29423136 0.10246783 -0.24074337 0.056080334
0.03620432 0.19931869 -0.54727894 -0.31796965 -0.07925058 0.16533467 0.04436214 -0.57115304
-0.21085289 0.17321262 -0.6122022 0.1935996 0.06073123 -0.2643222 0.00023812834 -0.046794575
-0.24714501 -0.2883484 -0.23289528 -1.1063993 -0.354763 -0.28811786 -0.6514271 -0.057382856
0.0494386 -0.058398847 0.14638537 -0.15789327 0.1592005 -0.13563462 0.10960521 -0.49334374
0.07176425 0.28821608 0.20720936 -0.06740044 -0.4625472 -0.64438385 -0.13994694 -0.42128566
0.3381573 -0.13906427 -0.62183785 -0.4225135 -0.3911293 0.11654359 -0.4150469 -0.2651728
0.016435368 0.17673442 0.104843706 -0.39023775 0.10398049 0.4070895 -0.21076469 -0.0807779
-0.8548986 0.32637107 -0.6961192 -0.6399748 -0.8318546 -0.25532702 0.34457532 -0.26390016
-0.31090632 -0.6367667 -0.102063 -1.2345158 -0.3510395 -0.5946846 -0.4577993 -0.009854493
-0.11201888 -0.32688287 -0.7126132 -0.21731296 -0.22615542 0.0100349225 -0.42747882 -0.044219684
0.039397735 0.35047597 -0.06413702 -0.036791872 0.12829597 -0.08071954 0.37356785 -0.5518859
0.5193315 0.1343979 0.37459663 0.09738722 0.22353606 -0.3551355 0.24355169 0.30167443
-0.2913313 -0.45833737 -0.26554 0.12607117 -0.3798514 -0.48337132 -0.5581373 0.18399377
00000000: ac7a f3be 5e49 d7be ce79 dbbe 951f 503e
00000010: 104a ae3e fb66 a63e 0e95 1c3e e421 0cbd
00000020: 13c5 c9bb 78dc f63e 0896 c73c 3819 513c
00000030: 308d ba3e 092b c9be 4fb5 85be 5322 5abd
00000040: 8423 153e ded0 9abd d599 bdbe 06bf 703e
00000050: 7c74 a8bb 5edd b73e b25b 73be 3acd cfbe
00000060: d9bd 723d e5a4 4b3e d2c9 bebe b69a 4ebe
00000070: da96 5abe b706 23be 2480 00bc a780 bdbe
00000080: 5318 b83e a981 6e3e a074 65be ddc7 7b3e
00000090: 4977 d83e a571 d8bd 733c 81be 6e94 c03d
000000a0: c0ba 873c 9fac ebbd bbee 28be a170 01be
000000b0: 0826 953d 9e4a b1be 1ffa d33e bcd7 02bf
000000c0: 1e7c 91be 5f27 243f dfc4 3a3d 4ea2 0c3a
000000d0: 2e60 adbe c029 853d 90e3 dbbe 5667 7dbe
000000e0: 5194 abbe 2182 bdbd e9f0 aebe edd7 17bf
000000f0: b324 03be 2bb0 9d3e b769 03bc 71f0 3dbf
00000100: 69fa 1fbe b21d 60be eee6 f7bd 8fc0 bf3e
00000110: 8423 9e3e 3c20 95ba 7f80 163d c0d4 b73d
00000120: 38e4 533d f463 08bf 20be feba f1e6 86bd
00000130: 094f 123e 45a9 21be 8d14 cb3e 0a48 323d
00000140: eaf1 81be 479e e43e 483b 57be a6f1 c6bd
00000150: fa09 dd3e aa3a d7be 0ef2 0e3f fc11 ec3e
00000160: 1dc6 583d ac63 b43e adbf 37bf da68 0ebf
00000170: 894e e53d d16e b63e 7a6b 83be 2bf3 c43e
00000180: 0bdb 3abf 5819 9c3e 4af1 9f3c d5f0 0d3d
00000190: 7a54 74be f10d bc3c e61c 9bbe 8834 92be
000001a0: a72e 56bf 4aec b6be 316e 4b3d b41c 053c
000001b0: 5ebe b93e a13b b8bd 2b8e a9be 3989 a2be
000001c0: f0e1 e8be 658f 38bf 27d3 8a3e eb15 563d
000001d0: f691 463c 6acc 98be b597 00bf 73d7 88be
000001e0: e1da 57bf 4c45 1abf 80cc 35bf 418a fb3d
000001f0: 1e5a 3cbe e047 a83d c8fd abbe 11eb c23e
00000200: 5915 c3be e391 393e aae2 e5be 7a93 eabe
00000210: e81f a9bf 4165 e8be 57a2 143e b687 b43c
00000220: b317 063f ee88 55bd e76d 9c3e aa1e 76bf
00000230: e4e7 a5bd 5275 1abe a70d 3fbe 9410 253e
00000240: cd48 a63d b994 4b3e 4d46 323d 149e a73e
00000250: 7ea5 96be a7da d13d 6e85 76be 7eb4 653d
00000260: fb4a 143d 331a 4c3e 791a 0cbf ebcc a2be
00000270: 214e a2bd 7e4d 293e 13b5 353d 1637 12bf
00000280: d2e9 57be a65e 313e 49b9 1cbf f93e 463e
00000290: 4fc1 783d 3d55 87be 17b2 7939 abab 3fbd
000002a0: 9513 7dbe 67a2 93be 1a7c 6ebe 7e9e 8dbf
000002b0: 7fa3 b5be 2f84 93be edc3 26bf 490a 6bbd
000002c0: 2180 4a3d a133 6fbd 0ce6 153e c6ae 21be
000002d0: 7505 233e cde3 0abe b278 e03d 8d97 fcbe
000002e0: 23f9 923d 0f91 933e b12e 543e 3e09 8abd
000002f0: fdd2 ecbe 57f6 24bf 404e 0fbe c1b2 d7be
00000300: f422 ad3e dd66 0ebe c430 1fbf b153 d8be
00000310: 1a42 c8be 68ae ee3d 0781 d4be bbc4 87be
00000320: 77a3 863c def9 343e 4cb8 d63d 3ecd c7be
00000330: b9f3 d43d 096e d03e b3d2 57be e26e a5bd
00000340: a2da 5abf 1c1a a73e de34 32bf 63d5 23bf
00000350: 6cf4 54bf 39ba 82be 2d6c b03e ec1d 87be
00000360: 1d2f 9fbe 2403 23bf 6806 d1bd 9d04 9ebf
00000370: 73bb b3be 403d 18bf ab64 eabe bd74 21bc
00000380: 286a e5bd 315d a7be d26d 36bf 4a87 5ebe
00000390: 4995 67be 8469 243c 81de dabe b31f 35bd
000003a0: 855f 213d 9671 b33e 455a 83bd 13b3 16bd
000003b0: 0560 033e 4950 a5bd 4944 bf3e 6548 0dbf
000003c0: e9f2 043f 9a9f 093e 21cb bf3e f372 c73d
000003d0: a3e6 643e 52d4 b5be 9d65 793e 1275 9a3e
000003e0: 6029 95be 32ab eabe dcf4 87be cd18 013e
000003f0: e27b c2be 727c f7be 16e2 0ebf dd68 3c3e

fc3.bias f4 [128]
0.067837335 0.24051863 0.35462362 -0.33067474 0.15010905 -0.21747874 -0.12204361 0.9988958
-0.10200185 -0.22769609 0.25978798 -0.109129496 -0.16107593 -0.19646674 0.07855611 0.08894315
0.016776156 -0.32855242 -0.056705795 -0.11828276 -0.19881976 -0.3753138 0.22115017 -0.3446549
-0.16170461 -0.2036285 -0.14369774 0.035433456 -0.14352827 -0.068848476 0.15841196 0.06385362
-0.21537824 -0.049729325 -0.38600314 -0.45904875 0.2081792 0.100812905 -0.20165601 0.044084746
-0.37052912 -0.09129626 0.5827399 0.43674406 -0.050304152 0.08854848 -0.18630594 -0.32838312
0.013969885 0.25568652 -0.06519973 -0.23617823 -0.0028998347 0.13214329 -0.04249644 -0.21411163
-0.17267646 1.4935268 -0.18329148 -0.30789933 0.1297779 -0.18594043 -1.2926614 0.24803452
0.34050736 -0.2712188 -0.15029277 0.34170827 -0.14024289 -0.1899353 -0.099064425 -0.16727518
-0.14726679 0.15924239 0.34056377 0.060885 0.70790446 0.53086096 0.09457228 -0.3772827
0.60975987 0.56820995 -0.1847823 -0.16569483 0.09204147 -0.11868729 0.0016348461 -0.0012019662
0.0161304 0.703091 -0.1384193 0.040135715 -0.092631966 -0.5458883 -0.2031717 -0.09857612
-0.29922837 -0.1558033 -0.70798296 -0.105392955 -0.32222596 0.05132328 -0.5771002 -0.21885248
-0.041842572 -0.008159707 -0.20672424 -0.22364345 -0.12452434 -0.1952291 -0.16836996 -0.11967783
-0.20168477 -0.15262005 0.03668917 0.020934436 0.17477593 -0.18527228 0.11751015 0.6675614
-0.29768836 -0.012703688 -0.1282887 -0.07543654 -0.14096862 0.041320905 0.03659242 -0.10745238
00000000: 4dee 8a3d 844a 763e 3a91 b53e 334e a9be
00000010: 30b6 193e bfb2 5ebe 00f2 f9bd a3b7 7f3f
00000020: 59e6 d0bd 2a29 69be ee02 853e 497f dfbd
00000030: 17f1 24be 942e 49be 07e2 a03d d427 b63d
00000040: 266e 893c 0638 a8be 5644 68bd 3b3e f2bd
00000050: 6897 4bbe 2129 c0be 3175 623e 9b76 b0be
00000060: e595 25be fd83 50be 8025 13be ac22 113d
00000070: 13f9 12be 6e00 8dbd bf36 223e b0c5 823d
00000080: 1d8c 5cbe fab0 4bbd 34a2 c5be 7008 ebbe
00000090: ee2c 553e ff76 ce3d ea7e 4ebe 3592 343d
000000a0: feb5 bdbe 89f9 babd 712e 153f eb9c df3e
000000b0: ba0b 4ebd e858 b53d fcc6 3ebe d521 a8be
000000c0: f2e1 643c 58e9 823e 7087 85bd b5d8 71be
000000d0: 270b 3ebb 9250 073e bf10 2ebd 1440 5bbe
000000e0: 19d2 30be e32b bf3f c3b0 3bbe fba4 9dbe
000000f0: 7fe4 043e 2b67 3ebe ee75 a5bf c3fc 7d3e
00000100: fb56 ae3e 31dd 8abe 59e6 19be 63f4 ae3e
00000110: d59b 0fbe 667e 42be 4ae2 cabd 2f4a 2bbe
00000120: 1bcd 16be 7010 233e 605e ae3e 8d62 793d
00000130: 3a39 353f 81e6 073f 1daf c13d 332b c1be
00000140: 3919 1c3f 3576 113f 9237 3dbe e8ab 29be
00000150: 3d80 bc3d 5212 f3bd 5548 d63a 4b8b 9dba
00000160: e723 843c c6fd 333f cabd 0dbe 5965 243d
00000170: d4b5 bdbd 56bf 0bbf 3e0c 50be 47e2 c9bd
00000180: 7634 99be e68a 1fbe 5f3e 35bf 43d8 d7bd
00000190: cdfa a4be 5c38 523d d7bc 13bf dd1a 60be
000001a0: 1e63 2bbd 4bb0 05bc 85af 53be ca02 65be
000001b0: 9e06 ffbd 23ea 47be 2d69 2cbe a619 f5bd
000001c0: 7486 4ebe 6e48 1cbe 6247 163d b27e ab3c
000001d0: 76f8 323e 04b8 3dbe 29a9 f03d 4ee5 2a3f
000001e0: 9c6a 98be 2123 50bc 1d5e 03be 797e 9abd
000001f0: 145a 10be 1c40 293d efe1 153d fe0f dcbd

fc4.weight f4 [32, 128]
-0.097968414 0.009059683 -0.10296617 -0.38185883 -0.1745066 -0.11363284 -0.16656627 -0.08279894
0.061351337 -0.6362457 -0.30508795 -0.030445516 0.020330422 -0.24688596 0.03736063 -0.022426285
-0.26632276 -0.03499214 -0.050509136 -0.08587357 -0.29482532 -0.16553736 -0.110310495 -0.2376774
-0.41890383 -0.053165194 0.034131393 -0.21962674 -0.37971 -0.13048361 -0.011229154 -0.7066896
0.0005407128 -0.34832808 0.087342285 -0.24625348 0.09956283 0.04235102 0.07492835 -0.30428782
-0.26684037 -0.2407217 -0.095305234 -0.38260272 -0.14466104 -0.07845896 -0.1722121 -0.2819423
-0.010023902 -0.30802172 -0.23643637 -0.07396647 -0.3439606 -0.027045019 -0.10112022 -0.11596212
-0.0051007136 0.11074062 -0.4375329 -0.34322193 -0.07254274 0.060969327 -0.33740214 -0.075259775
-0.5662302 0.019636484 0.07184609 -0.10880401 -0.19331184 -0.12944835 0.03975813 -0.34316275
-0.18863767 -0.091884874 -0.11387189 -0.13832323 -0.16161443 -0.30133164 -0.1424342 0.020316139
-0.25744182 -0.14059846 0.11884649 -0.13990279 -0.25470066 -0.1977994 -0.21115841 -0.10097137
-0.35769793 -0.20710392 -0.044168133 -0.08637157 -0.2015022 -0.10785103 0.015242821 -0.07101186
-0.36991963 -0.21541004 -0.58557135 -0.18843961 -0.113392934 -0.18375169 -0.1113053 0.15712734
-0.2027211 0.20767635 -0.08211012 -0.06262664 -0.39351937 -0.1842308 -0.24225812 -0.15331554
-0.07015193 0.011710131 -0.1298317 -0.18985672 -0.018102547 0.10291029 -0.30973178 -0.036378022
-0.03384075 -0.14327604 -0.17390591 0.116147846 0.18496653 -0.0016708437 0.020703385 -0.17000364
-0.1973959 -0.39123237 -0.12268245 -0.08052993 -0.43916544 -0.08230465 -0.1117377 0.109795466
-0.0026904813 -0.21665376 -0.33749947 -0.0059472523 0.100694194 -0.4248251 0.04904263 -0.2058692
-0.1593928 -0.20114787 -0.09512259 0.030511428 -0.39159825 -0.016554529 -0.2912154 -0.08863448
-0.22235894 -0.14221573 -0.054747228 -0.33873487 -0.1455333 -0.11683773 -0.07381498 -0.13692951
-0.17530127 -0.042659804 -0.13574877 -0.09379236 -0.3370934 -0.17170249 -0.1506798 -0.29390082
-0.15627562 -0.3027953 -0.23516247 0.058981318 -0.04333176 -0.23167053 0.017835133 -0.31165665
-0.27204195 -0.15505596 0.044201393 -0.071047746 0.110126175 -0.16554935 -0.15855822 0.106583156
-0.13166742 -0.33337992 -0.41328508 -0.25304207 -0.2717338 -0.038594767 -0.36597613 -0.14209688
0.061252687 0.006766935 0.073814906 -0.17086281 0.09212837 -0.05418088 0.1459284 -0.10299808
0.1320176 -0.26500848 -0.1381462 -0.39147708 -0.2326879 -0.30381015 -0.20639539 -0.21960896
-0.13518614 -0.09996155 -0.0978668 -0.05326636 -0.117436714 0.15840921 -0.21279138 0.08221391
0.04156831 -0.43187904 0.06052581 -0.31120804 -0.039850503 -0.23913087 -0.042755608 0.072692685
-0.04034819 -0.29279822 -0.41692823 -0.1740894 -0.11673437 -0.61937046 -0.10767712 -0.17748138
-0.2857252 -0.1012364 -0.107192904 -0.16603912 -0.06069927 -0.133315 -0.09733525 -0.1079035
-0.09423737 -0.16196068 -0.12464058 -0.014582762 0.048458602 -0.025382435 -0.44228676 -0.32911432
-0.07964161 0.090444125 -0.18821289 0.20375271 0.05095715 0.046737842 0.06383822 -0.053714227
00000000: aaa3 c8bd 116f 143c eddf d2bd 0083 c3be
00000010: dcb1 32be 56b8 e8bd 5990 2abe 7e92 a9bd
00000020: 8a4b 7b3d 00e1 22bf 7d34 9cbe e068 f9bc
00000030: fc8b a63c accf 7cbe 7607 193d 54b7 b7bc
00000040: 755b 88be eb53 0fbd abe2 4ebd 7bde afbd
00000050: 58f3 96be a082 29be 78ea e1bd b461 73be
00000060: 907a d6be bfc3 59bd 5ccd 0b3d d5e5 60be
00000070: 5969 c2be 7f9d 05be 7cfa 37bc 9ce9 34bf
00000080: 9fbe 0d3a 0f58 b2be 83e0 b23d df29 7cbe
00000090: 99e7 cb3d 4378 2d3d 0974 993d 9dcb 9bbe
000000a0: 4d9f 88be c07f 76be 642f c3bd 81e4 c3be
000000b0: 0622 14be 17af a0bd 5e58 30be be5a 90be
000000c0: 4b3b 24bc 06b5 9dbe 601c 72be bc7b 97bd
000000d0: 9b1b b0be 848d ddbc 1e18 cfbd 8c7d edbd
000000e0: e323 a7bb facb e23d 5004 e0be c9ba afbe
000000f0: 4a91 94bd f9ba 793d f9bf acbe cc21 9abd
00000100: 76f4 10bf b1dc a03c 0b24 933d a3d4 debd
00000110: 8af3 45be 1c8e 04be 6cd9 223d 07b3 afbe
00000120: 3c2a 41be 232e bcbd aa35 e9bd 9ba4 0dbe
00000130: 417e 25be 2448 9abe 45da 11be 086e a63c
00000140: 6acf 83be 0bf9 0fbe ca65 f33d ad42 0fbe
00000150: 2068 82be ed8b 4abe e939 58be 14ca cebd
00000160: 2f24 b7be 0d13 54be a5e9 34bd 94e3 b0bd
00000170: 9856 4ebe 00e1 dcbd 06bd 793c ab6e 91bd
00000180: 1b66 bdbe 7394 5cbe 01e8 15bf 50f6 40be
00000190: 8e3a e8bd 6729 3cbe 08f4 e3bd fde5 203e
000001a0: 1f96 4fbe 1ca9 543e 5a29 a8bd 6542 80bd
000001b0: 5f7b c9be 00a7 3cbe 8312 78be c0fe 1cbe
000001c0: d1ab 8fbd d9db 3f3c 9af2 04be cd69 42be
000001d0: cb4b 94bc a1c2 d23d 2a95 9ebe 1f01 15bd
000001e0: 999c 0abd f4b6 12be 6414 32be ecde ed3d
000001f0: de67 3d3e 3600 dbba 259a a93c 6f15 2ebe
00000200: 2722 4abe 9c4f c8be f040 fbbd e0ec a4bd
00000210: 4bda e0be 578f a8bd bcd6 e4bd 72dc e03d
00000220: c952 30bb 7cda 5dbe bbcc acbe 2be1 c2bb
00000230: c238 ce3d ad82 d9be ede0 483d 60cf 52be
00000240: de37 23be b5f9 4dbe a2cf c2bd 1af3 f93c
00000250: 917f c8be 5d9d 87bc 2f1a 95be ff85 b5bd
00000260: 10b2 63be 00a1 11be a13e 60bd a86e adbe
00000270: ae06 15be 9f48 efbd 4f2c 97bd 4037 0cbe
00000280: 2d82 33be 0cbc 2ebd ba01 0bbe 3516 c0bd
00000290: 8297 acbe c7d2 2fbe ce4b 1abe 2b7a 96be
000002a0: b706 20be fc07 9bbe 6ece 70be 6596 713d
000002b0: a57c 31bd 0a3b 6dbe fc1a 923c 7691 9fbe
000002c0: 1549 8bbe fdc6 1ebe 850c 353d 7b81 91bd
000002d0: d589 e13d c585 29be 165d 22be 4548 da3d
000002e0: d3d3 06be c6b0 aabe 1a9a d3be bb8e 81be
000002f0: b120 8bbe 8c15 1ebd 3961 bbbe d881 11be
00000300: 19e4 7a3d 2abd dd3b 452c 973d a9f6 2ebe
00000310: cdad bc3d c5ec 5dbd 416e 153e a8f0 d2bd
00000320: 9f2f 073e 31af 87be 3376 0dbe af6f c8be
00000330: bd45 6ebe 018d 9bbe 5059 53be 2ce1 60be
00000340: 3c6e 0abe a4b8 ccbd 646e c8bd d42d 5abd
00000350: a982 f0bd 0636 223e fce5 59be c45f a83d
00000360: 8843 2a3d 401f ddbe e9e9 773d a956 9fbe
00000370: 483a 23bd b9de 74be 8120 2fbd e7df 943d
00000380: 2544 25bd a6e9 95be 9e77 d5be 7e44 32be
00000390: 6e12 efbd 108f 1ebf d285 dcbd aebd 35be
000003a0: 934a 92be 0855 cfbd f487 dbbd 2906 2abe
000003b0: cc9f 78bd ba83 08be b457 c7bd 83fc dcbd
000003c0: 86ff c0bd 05d9 25be 8f43 ffbd 89ec 6ebc
000003d0: 877c 463d d3ee cfbc 6973 e2be ac81 a8be
000003e0: 241b a3bd c53a b93d e1ba 40be 8da4 503e
000003f0: 72b8 503d 2e70 3f3d 9dbd 823d 7303 5cbd

fc4.bias f4 [32]
0.029092412 -0.08070607 -0.4844303 -0.47980767 -0.7735666 -0.27010092 -0.31871796 -0.469019
-0.37118244 -0.57391876 -0.5335883 0.78607136 -0.6308828 -0.46281075 0.32881588 -0.28999278
-0.4857044 1.2446074 -0.29242164 1.137174 -0.5396551 -0.6684069 -0.43077734 -0.478419
-0.020121438 -0.6061321 -0.29970402 -0.55231774 -0.55561715 -0.6685348 -0.44426417 -0.46218747
00000000: 3653 ee3c 3949 a5bd 4007 f8be 5aa9 f5be
00000010: 7608 46bf ab4a 8abe 002f a3be 4223 f0be
00000020: a00b bebe 57ec 12bf 3e99 08bf f93b 493f
00000030: 8981 21bf 88f5 ecbe 8e5a a83e ef79 94be
00000040: 3fae f8be 4c4f 9f3f 4ab8 95be eb8e 913f
00000050: d626 0abf b71c 2bbf d98e dcbe 56f3 f4be
00000060: b7d5 a4bc 792b 1bbf ce72 99be b264 0dbf
00000070: ed3c 0ebf 1925 2bbf 9876 e3be d6a3 ecbe

Q.weight f4 [1, 32]
0.028186848 0.01292774 -0.005225581 0.06528413 -0.014455802 -0.02596065 0.0027014017 -0.0044160015
-0.0056901877 0.017929804 -0.018468877 0.030580498 0.03009694 -0.003042911 0.016658684 -0.014160791
0.004211784 -0.036245894 0.016339995 0.029639991 0.015616691 0.009108719 -0.028519813 -0.021125467
0.02814245 -0.01787744 -0.036880665 -0.020322084 0.015061819 -0.004091542 0.02943528 -0.0088495435
00000000: 1be8 e63c dfce 533c 5a3b abbb b0b3 853d
00000010: 07d8 6cbc 6eab d4bc 000a 313b 1bb4 90bb
00000020: c174 babb 86e1 923c 0b4c 97bc f483 fa3c
00000030: dc8d f63c 936b 47bb cb77 883c aa02 68bc
00000040: 0103 8a3b 9376 14bd 74db 853c 91cf f23c
00000050: 26dd 7f3c bd3c 153c 62a2 e9bc 510f adbc
00000060: ff8a e63c b673 92bc 2e10 17bd 807a a6bc
00000070: d9c5 763c 5812 86bb 4222 f13c adfd 10bc

bn1.weight f4 [256]
0.29322413 0.30738583 0.085563265 0.5803216 1.7415646 0.37054816 0.61802775 1.0505987
0.42719695 0.08551766 0.4165146 0.6745111 2.054957 0.36521977 0.28027043 0.46463126
0.08888689 0.8569308 0.30754545 0.6355452 0.1613029 0.38195774 0.48299113 0.2206232
0.40047395 0.49541116 0.516565 0.21148512 0.44587502 0.65011394 0.20254043 1.0611988
0.010326077 0.7050108 0.2031533 0.47361523 0.10692585 0.97455585 0.3567223 0.6530252
0.2208269 0.3093746 0.54517347 0.4290006 0.074711844 1.0824844 0.32165742 0.37520304
0.55026096 0.61539805 0.24399929 0.6061464 0.5540405 0.32748488 0.40399936 0.39425853
0.209426 0.27011508 0.4721898 0.39704344 0.87874067 0.64141405 0.50982356 0.42247075
0.50750715 0.72148174 0.4113063 0.61148673 0.38708174 1.0104815 0.322881 0.48271033
0.18433566 0.2410231 0.6589768 0.35811037 0.13193499 0.3514285 0.7290867 0.1736506
0.6118942 0.81884515 0.45996532 0.65256214 0.47450897 0.36882237 0.19629583 0.60444295
0.28231236 0.09218122 0.28697467 0.4724767 1.0947586 0.5114423 0.67760324 0.51499283
0.1981024 0.08414 0.24968974 0.18633032 1.2521735 0.06696206 0.29543543 0.18636166
0.5996683 0.065343454 0.3721694 0.097914755 0.31985492 0.9380513 0.1337262 0.7643438
1.0528139 -0.09746082 0.99094206 0.50054055 0.62032247 0.49948755 0.3061206 0.11913324
0.43906835 0.5620144 0.15762761 1.0854921 0.36396393 1.5677961 0.1829013 0.9647202
1.1083955 0.3743695 0.3270814 0.5169842 0.1467488 0.77650476 0.3037342 0.22726491
0.25984222 0.39652255 0.35030812 0.25473043 0.7701149 0.54966956 0.5539802 0.5662517
0.74251056 0.42824912 0.29655656 0.6324716 0.20945382 0.57428473 0.27953196 0.23265104
0.60974336 0.24827158 0.532474 0.19045876 0.13348436 0.21980351 0.524677 0.56753033
0.6654705 0.69528127 0.44212288 0.23663798 0.9726292 0.59349227 0.28172153 0.6227669
0.19816549 1.4352612 0.3113913 0.5107259 0.7821894 0.88671905 0.43451452 0.503688
0.6413871 0.5954344 1.407176 0.5429127 0.46083084 0.35641572 0.37331194 0.2923639
0.5610003 0.6354776 0.4170706 0.5972829 1.1115637 0.22900836 0.7208883 0.5305385
0.40668383 0.31065282 0.5392688 0.5177637 0.36727968 0.31055883 0.31416813 1.1029785
0.4632102 1.351041 0.30487722 0.40547675 0.06469774 0.64512694 0.0034403736 0.34348255
0.24136981 0.2710676 0.78195375 0.2650898 0.13398914 0.8101778 0.4244013 0.25138298
0.22614881 0.23882183 0.86527914 0.22029935 0.33334514 0.1944135 0.11200463 0.2804055
1.148705 0.86881447 0.5842245 0.82846797 0.3034 0.1270096 0.55968654 0.48853356
0.44039673 0.16150576 0.20530963 0.50424445 0.3984513 0.7080924 0.50524896 0.3456182
0.6212522 0.40798545 0.22997968 0.92613727 0.2653205 0.94423217 0.4427302 0.18404667
0.0002850656 1.5446448 0.3124173 0.3157402 0.45936885 0.39561984 1.0568713 0.9204975
00000000: 7921 963e ad61 9d3e cb3b af3d f58f 143f
00000010: 97eb de3f 7db8 bd3e 1137 1e3f 057a 863f
00000020: 8fb9 da3e e223 af3d 6741 d53e c2ac 2c3f
00000030: 6a84 0340 16fe ba3e 9b7f 8f3e 26e4 ed3e
00000040: 540a b63d d15f 5b3f 9976 9d3e 17b3 223f
00000050: 962c 253e f78f c33e 9d4a f73e 0ceb 613e
00000060: ec0a cd3e 88a6 fd3e 9b3d 043f 8e8f 583e
00000070: bb49 e43e de6d 263f c266 4f3e 5dd5 873f
00000080: b52e 293c 967b 343f 6b07 503e b27d f23e
00000090: f1fb da3d 7e7c 793f 4ea4 b63e a92c 273f
000000a0: 7220 623e 5966 9e3e 7d90 0b3f f7a5 db3e
000000b0: 8602 993d d98e 8a3f 48b0 a43e 9d1a c03e
000000c0: e7dd 0c3f ba8a 1d3f f3da 793e 692c 1b3f
000000d0: 99d5 0d3f 19ac a73e 01d9 ce3e 41dc c93e
000000e0: c573 563e 864c 8a3e ddc2 f13e 4749 cb3e
000000f0: 26f5 603f b633 243f cc83 023f 164e d83e
00000100: fdeb 013f 07b3 383f bd96 d23e 658a 1c3f
00000110: 942f c63e 7557 813f a950 a53e cf25 f73e
00000120: 7dc2 3c3e c2ce 763e b4b2 283f 3e5a b73e
00000130: f719 073e 70ee b33e 6da5 3a3f 76d1 313e
00000140: 19a5 1c3f d69f 513f 9380 eb3e 500e 273f
00000150: d7f2 f23e 49d6 bc3e c601 493e c6bc 1a3f
00000160: 3f8b 903e 82c9 bc3d 58ee 923e 77e8 f13e
00000170: 0d21 8c3f e2ed 023f 6877 2d3f 92d6 033f
00000180: 5bdb 4a3e 9851 ac3d abae 7f3e 60cd 3e3e
00000190: 3947 a03f 6823 893d 5043 973e 97d5 3e3e
000001a0: dd83 193f cad2 853d fd8c be3e 8887 c83d
000001b0: 06c4 a33e 2124 703f 85ef 083e 09ac 433f
000001c0: 9bc2 863f 8a99 c7bd 61ae 7d3f 6d23 003f
000001d0: 74cd 1e3f d5bc ff3e d7bb 9c3e 21fc f33d
000001e0: 91cd e03e 2de0 0f3f 2269 213e 68f1 8a3f
000001f0: 7b59 ba3e 8bad c83f 7a4a 3b3e e7f7 763f
00000200: e7df 8d3f 5cad bf3e 3777 a73e 1459 043f
00000210: 5145 163e 04c9 463f 0d83 9b3e 22b8 683e
00000220: 0a0a 853e 0105 cb3e 965b b33e 076c 823e
00000230: 4026 453f 25b7 0c3f a5d1 0d3f dff5 103f
00000240: 2c15 3e3f 7843 db3e 43d6 973e a9e9 213f
00000250: 107b 563e 5304 133f d01e 8f3e 133c 6e3e
00000260: 2418 1c3f e83a 7e3e 3750 083f 9f07 433e
00000270: 20b0 083e 2c14 613e 3b51 063f ab49 113f
00000280: 465c 2a3f f4fd 313f ee5d e23e 3a51 723e
00000290: 3afe 783f 1cef 173f ce3d 903e a76d 1f3f
000002a0: e5eb 4a3e a4b6 b73f ae6e 9f3e efbe 023f
000002b0: 913d 483f 0500 633f b078 de3e b2f1 003f
000002c0: f231 243f 646e 183f 581e b43f 54fc 0a3f
000002d0: 05f2 eb3e 1f7c b63e be22 bf3e b9b0 953e
000002e0: b79d 0f3f a9ae 223f 478a d53e 88e7 183f
000002f0: b847 8e3f 2b81 6a3e 238c 383f 5fd1 073f
00000300: dd38 d03e e30d 9f3e 850d 0a3f 298c 043f
00000310: 150c bc3e 9101 9f3e a5da a03e 662e 8d3f
00000320: e329 ed3e e9ee ac3f de18 9c3e a69a cf3e
00000330: 4080 843d 0a27 253f e477 613b f2dc af3e
00000340: a629 773e 5fc9 8a3e 1f2e 483f dab9 873e
00000350: 7334 093e d067 4f3f 214b d93e 45b5 803e
00000360: 8e93 673e b68d 743e ef82 5d3f 2796 613e
00000370: 37ac aa3e 5514 473e af62 e53d 4f91 8f3e
00000380: c408 933f a06a 5e3f bd8f 153f 7a16 543f
00000390: 3f57 9b3e ce0e 023e 9e47 0f3f 1221 fa3e
000003a0: ae7b e13e c461 253e b03c 523e 2a16 013f
000003b0: cf01 cc3e 8b45 353f ff57 013f def4 b03e
000003c0: 620a 1f3f 78e3 d03e cb7f 6b3e 5517 6d3f
000003d0: 17d8 873e 33b9 713f 88ad e23e bb76 3c3e
000003e0: db74 9539 ecb6 c53f 29f5 9f3e b3a8 a13e
000003f0: 6532 eb3e af8e ca3e 8f47 873f b9a5 6b3f
