checkpoints/maddpg_per/maddpg_per1_checkpoint_actor_local.pth (torch, 166151 bytes, 10 tensors)

fc1.weight f4 [256, 24]
-0.029657591 0.7056631 -0.001601022 0.035878 0.037225116 -0.45415246 -0.24969785 0.07071755
0.19311354 0.4617188 0.11593816 -0.350118 -0.18716986 -0.39843392 0.09345283 -0.29217434
0.2111324 0.32208496 -0.072743915 -0.5724452 -0.5720373 -0.44887024 0.0041938312 -0.3984202
0.18174897 -0.08738408 0.112568855 0.7268447 -0.0050573545 -0.36816448 0.038560342 0.9016624
0.36597052 0.16445205 0.056221273 0.75123215 0.08978591 -0.24272761 0.11578793 0.7422786
0.25267604 0.13451596 -0.16802062 0.4632534 0.09390514 -0.0441541 -0.11451038 0.21796803
0.16358162 -0.03996453 -0.15775721 0.37081468 0.029146567 0.29144365 -0.033972792 0.36450475
0.19275358 0.10117964 -0.03054092 0.766313 -0.116689086 0.71916056 -0.09699718 0.7282702
0.35235977 0.26749036 -0.014837376 0.31312346 -0.23529215 0.61191297 -0.015508797 0.3693505
0.07539142 -0.18630458 0.05288559 -0.51716495 -0.44890282 -0.1818746 0.11154972 -0.5483497
0.21939556 -0.17491224 -0.06769787 0.09275288 -0.46133143 0.09459754 -0.115176484 0.13315266
0.09411876 -0.1143655 -0.18088798 0.10414067 -0.11302015 0.52339625 -0.20464182 0.2598597
-0.37417507 -0.76957905 0.053751938 0.5001166 -0.28706095 -0.39969414 -0.045784343 0.4673004
-0.1613784 -0.623274 -0.027660275 0.5452163 0.0025844453 -0.78010607 -0.051515203 0.33068517
0.13685817 -0.39212027 0.05063583 0.45126083 0.15300593 -0.8945861 0.0059116855 0.32736114
0.3903302 0.02721817 0.058262955 -0.0126441885 -0.073353626 0.0065558683 -0.13294189 -0.09491581
0.35628963 -0.117439196 -0.090796046 -0.0799176 0.06372609 -0.08198282 0.008976015 0.123962335
0.41154328 0.11153439 0.03939572 0.0036773554 0.00488377 -0.18775623 -0.06264721 0.057462953
0.4422021 0.5160539 -0.036692273 -0.08897648 -0.5757535 -0.41418213 -0.1909848 0.12395681
0.3503451 0.20687707 0.100584716 -0.28361204 -0.49330693 -0.11952165 0.0437263 -0.2533634
0.48759285 0.10388156 -0.04316013 -0.3125247 -0.42286316 0.0006809741 0.01880913 -0.07429615
-0.037024524 -0.30617705 0.0678486 0.015525135 -1.0089993 -0.54187864 -0.07449857 0.18132874
0.18626563 -0.5164991 -0.06971508 0.000105929386 -0.17986143 -0.10270395 0.09068311 0.1059658
0.42794245 -0.43404603 -0.0073380494 0.07659526 0.5622226 0.03154835 0.066406384 0.16578542
-0.020912979 -0.09193614 -0.01428346 -0.47693458 0.036145527 0.32059935 0.013719244 -0.3686219
0.07268139 -0.25209674 -0.08138476 0.16908036 0.51312315 0.18403687 -0.06190494 -0.017038288
-0.09951152 -0.07398222 0.12523645 -0.13967061 0.8097947 -0.33648443 0.1093977 -0.08639196
0.33484852 -0.47760183 0.016209405 -0.4871015 0.12358555 -0.10167627 -0.109790005 -0.299235
0.5178476 -0.39106014 -0.16574176 -0.16616195 -0.15111326 -0.060097698 -0.07499712 -0.019868974
0.7985285 -0.48977852 -0.034864385 0.23800306 -0.23483485 0.09067873 -0.057626564 0.039689273
0.2549968 0.47225735 0.12403992 0.056678347 -0.39677534 -0.31716883 -0.06205587 0.1482395
0.9481863 0.4823288 -0.1368915 -0.018013299 -0.31776607 -0.3910866 0.05933994 0.09637377
00000000: 7af4 f2bc 56a6 343f 62d9 d1ba cff4 123d
00000010: 5d79 183d ac86 e8be cbb0 7fbe 5dd4 903d
00000020: 8ebf 453e 6866 ec3e fc70 ed3d ab42 b3be
00000030: 75a9 3fbe 88ff cbbe 3364 bf3d e097 95be
00000040: 1833 583e 52e8 a43e c3fa 94bd c58b 12bf
00000050: 0971 12bf 52d2 e5be 686c 893b bcfd cbbe
00000060: 671c 3a3e 6df6 b2bd 808a e63d 7f12 3a3f
00000070: 2ab8 a5bb 0e80 bcbe 73f1 1d3d 59d3 663f
00000080: 7d60 bb3e 1e66 283e 4748 663d c050 403f
00000090: ade1 b73d 968d 78be 3922 ed3d f805 3e3f
000000a0: c15e 813e 8dbe 093e 990d 2cbe 8d2f ed3e
000000b0: 5751 c03d eeda 34bd 6b84 eabd 0333 5f3e
000000c0: f181 273e d9b1 23bd 1b8b 21be 6cdb bd3e
000000d0: c8c4 ee3c 1a38 953e 0e27 0bbd 5ea0 ba3e
000000e0: 3261 453e 4537 cf3d f430 fabc 172d 443f
000000f0: b0fa eebd e81a 383f 75a6 c6bd ea6f 3a3f
00000100: 8068 b43e 7ff4 883e 7718 73bc b851 a03e
00000110: 6df0 70be 54a6 1c3f 9c18 7ebc 821b bd3e
00000120: d166 9a3d a1c6 3ebe 8f9e 583d ec64 04bf
00000130: 97d6 e5be 563d 3abe 2e74 e43d a560 0cbf
00000140: 3ba9 603e 321c 33be 2ea5 8abd 39f5 bd3d
00000150: a233 ecbe 5bbc c13d a6e1 ebbd 2c59 083e
00000160: 56c1 c03d 7638 eabd b33a 39be b447 d53d
00000170: 1c77 e7bd 4cfd 053f a08d 51be 550c 853e
00000180: e093 bfbe 2203 45bf fe2a 5c3d a407 003f
00000190: a7f9 92be b6a4 ccbe 5d88 3bbd ff41 ef3e
000001a0: 6140 25be e38e 1fbf cd97 e2bc 4c93 0b3f
000001b0: cc5f 293b 08b5 47bf 9b01 53bd 914f a93e
000001c0: 8c24 0c3e fdc3 c8be 8467 4f3d a90b e73e
000001d0: 96ad 1c3e 9803 65bf d0b6 c13b e19b a73e
000001e0: 5cd9 c73e a4f8 de3c 23a5 6e3d 9229 4fbc
000001f0: 6d3a 96bd 9cd2 d63b eb21 08be 3863 c2bd
00000200: 986b b63e f683 f0bd 47f3 b9bd d7ab a3bd
00000210: d382 823d 9ce6 a7bd 2310 133c f7df fd3d
00000220: cdb5 d23e 246c e43d 685d 213d c9ff 703b
00000230: 0808 a03b 2b43 40be 2e4d 80bd 465e 6b3d
00000240: 5068 e23e 1c1c 043f a34a 16bd 4d39 b6bd
00000250: 9564 13bf ae0f d4be 8591 43be 11dd fd3d
00000260: 6f60 b33e 95d7 533e 5cff cd3d 9935 91be
00000270: ba92 fcbe c4c7 f4bd 591a 333d d9b8 81be
00000280: c5a5 f93e dbbf d43d adc8 30bd 3d03 a0be
00000290: 8581 d8be 6683 323a 9b15 9a3c 9428 98bd
000002a0: 07a7 17bd 3dc3 9cbe 35f4 8a3d 235d 7e3c
000002b0: e426 81bf 8fb8 0abf b592 98bd 3eae 393e
000002c0: 6bbc 3e3e 4939 04bf c8c6 8ebd 6826 de38
000002d0: 982d 38be 7356 d2bd 11b8 b93d 9904 d93d
000002e0: 461b db3e 483b debe 0574 f0bb fadd 9c3d
000002f0: d2ed 0f3f d838 013d 1200 883d a7c3 293e
00000300: b251 abbc 0449 bcbd 2c05 6abc c530 f4be
00000310: 550d 143d 9925 a43e aec6 603c 02bc bcbe
00000320: fbd9 943d d312 81be 0ead a6bd 6723 2d3e
00000330: 0a5c 033f 2974 3c3e 0990 7dbd e193 8bbc
00000340: b2cc cbbd fd83 97bd fc3d 003e d005 0fbe
00000350: b54e 4f3f b047 acbe e70b e03d 45ee b0bd
00000360: 4471 ab3e 3a88 f4be 96c9 843c 5e65 f9be
00000370: 6c1a fd3d a63b d0bd 95d9 e0bd 5435 99be
00000380: a991 043f 0939 c8be 35b8 29be 5c26 2abe
00000390: 6fbd 1abe 0129 76bd 1798 99bd 42c4 a2bc
000003a0: 5d6c 4c3f 40c4 fabe f5cd 0ebd 13b7 733e
000003b0: 8c78 70be c5b5 b93d d509 6cbd 3891 223d
000003c0: f18e 823e b7cb f13e a408 fe3d 8e27 683d
000003d0: 2326 cbbe f463 a2be 4c2e 7ebd 18cc 173e
000003e0: 56bc 723f cdf3 f63e 492d 0cbe a090 93bc
000003f0: 3cb2 a2be 813c c8be 700e 733d 9c5f c53d

fc1.bias f4 [256]
-0.38184968 0.0016613296 -0.6944523 -0.5069926 -0.2028699 -0.3004081 -0.23757847 -0.43679893
-0.279329 -0.55824316 -0.1788857 -0.65634257 -0.118660375 -0.3798384 -0.5716618 -0.52828103
-1.0611655 -0.2726223 -0.44317374 0.38400137 -0.092066325 -0.25231144 0.13989991 -0.16851267
-0.17846349 -0.5589077 -0.20776172 -0.33050966 -0.17175642 -0.7446638 -0.33805057 -0.13240871
-0.8421325 -0.64113885 -0.5477666 -0.32150146 -0.5270271 -0.559192 -0.07997363 -0.026750298
-0.9695261 -0.7173023 -0.49417138 -0.20027326 -0.0717863 -0.17068431 -0.51256996 -0.65863466
-0.2660474 -0.5398498 -0.3387925 -0.17912458 -0.29397094 -0.47014722 -0.5562943 -0.7982991
-0.41155684 -0.5402274 -1.0580775 -0.33830014 -0.3869108 -0.1630511 -0.45396245 -0.21873079
-0.07249378 -0.16397282 -0.32644153 -0.629474 -0.36948445 -0.24238181 -0.4345143 -0.070315965
-0.5584584 -0.4012377 -0.4848265 -0.50845 -0.09693649 -0.25852603 0.15525731 -0.2940988
-0.4481765 -0.39387968 -1.3153415 -0.29155576 -0.1920713 -0.365359 -0.26127246 -0.10259555
-0.46107394 -0.092015944 -0.6719125 -0.47932467 -0.37178618 -0.12575752 -0.25576004 -0.49084574
-0.01606436 -0.35413915 -0.4772285 -0.23670776 -0.38608474 -0.4224347 -0.409122 -0.05192325
-0.45522016 -0.21525922 -0.1054396 -0.28317195 -0.14599179 -0.20326106 -0.46077937 -0.404104
-0.40860942 -0.33284327 -0.104582615 -0.24756213 0.0052914666 -0.29611078 0.017192258 -0.3995142
-0.21008052 -0.6476172 -0.29962036 0.06321223 -0.6167407 -0.20539585 -0.65680945 -0.6271652
-0.45552382 -0.68098307 0.0021260774 -0.61259544 -0.66119015 -0.491022 -0.3177918 -0.33252954
-0.37630087 -0.5040562 -0.052361872 -0.31968305 -0.47082657 0.16989927 -0.39154002 -0.18190041
-0.3297793 -0.30020773 -0.5667347 -0.23901415 -0.20065431 -0.28438944 -0.499032 -0.45455194
-0.5273583 -0.38662192 -0.0035467409 -0.12639052 -0.7979977 0.13034654 0.12863745 -0.039484724
-0.62613565 -0.2564186 -0.1852098 -0.14168307 -0.3636217 0.011815946 -0.53941816 -0.17317508
-0.45224082 -0.48760322 -0.3902424 -0.09957523 -0.22662804 -0.2690611 -0.41107664 -0.48917976
-0.6429612 -0.5890237 -0.56067336 -0.27866706 -0.3491832 -0.4534258 -0.65174097 -0.5806883
-0.61996424 -0.18379149 -0.3699463 -0.2962523 -0.33984196 -0.2256255 0.16961995 -0.4399007
-0.26204154 -0.28142864 -0.28118464 -0.35190344 -0.37291127 -0.10867824 -0.4305553 -0.6407578
-0.23192634 -0.10075412 -0.19593406 -0.24456297 -0.40948886 -0.3924742 -0.1722351 -0.19768468
-0.2855022 -0.8750656 -0.14104748 -0.08565097 -0.20321502 -0.50472397 -0.3450236 -0.104045756
-0.24164316 -0.558176 -0.47738054 -0.22328986 -0.38631633 0.041041493 -0.24300282 -0.50880885
-0.37526855 -0.73108846 -0.5329867 -0.43242058 -0.52507395 -0.11634011 -0.72787344 -0.30961612
-0.6534707 -0.7235934 -0.5004613 -0.2375443 -0.39813223 0.18902026 -0.74488795 -0.21534397
-0.3508858 -0.46458697 0.0009552748 -0.47091502 -0.2773117 -0.865578 -0.59026825 -0.026260937
-0.5637776 -0.4877342 -0.04202995 -1.2965688 -0.35874647 -0.03437217 -0.031673454 -0.30020872
00000000: cd81 c3be f9c0 d93a a0c7 31bf 44ca 01bf
00000010: 21bd 4fbe 17cf 99be c547 73be 1ca4 dfbe
00000020: 3604 8fbe 06e9 0ebf d02d 37be 1106 28bf
00000030: 3604 f3bd 2e7a c2be 6d58 12bf 6d3d 07bf
00000040: 45d4 87bf 2695 8bbe abe7 e2be d49b c43e
00000050: 458d bcbd f72e 81be ec41 0f3e 968e 2cbe
00000060: 22bf 36be 9314 0fbf 7dbf 54be 9038 a9be
00000070: eae0 2fbe 49a2 3ebf f714 adbe 2696 07be
00000080: ff95 57bf ad21 24bf 6f3a 0cbf d79b a4be
00000090: 3feb 06bf 3527 0fbf 37c9 a3bd 7123 dbbc
000000a0: dd32 78bf 20a1 37bf 0804 fdbe 6f14 4dbe
000000b0: b204 93bd dec7 2ebe c937 03bf 489c 28bf
000000c0: 5d37 88be 9933 0abf 3676 adbe 6f6c 37be
000000d0: 5c83 96be 23b7 f0be 4e69 0ebf 545d 4cbf
000000e0: 94b7 d2be 584c 0abf 156f 87bf ad35 adbe
000000f0: 2c19 c6be def6 26be c46d e8be f7fa 5fbe
00000100: 9e77 94bd 7ee8 27be 5823 a7be 3525 21bf
00000110: 112d bdbe f032 78be a978 debe d101 90bd
00000120: 21f7 0ebf 076f cdbe 2e3b f8be c729 02bf
00000130: a386 c6bd 865d 84be c6fb 1e3e 1e94 96be
00000140: 6477 e5be 99aa c9be 1c5d a8bf cc46 95be
00000150: 57ae 44be 5610 bbbe 81c5 85be 9e1d d2bd
00000160: e211 ecbe db72 bcbd 7502 2cbf 0b6a f5be
00000170: c25a bebe 94c6 00be fbf2 82be 2250 fbbe
00000180: 6899 83bc ba51 b5be 4b57 f4be 8563 72be
00000190: e6ac c5be 5c49 d8be 7078 d1be 79ad 54bd
000001a0: 9e12 e9be ea6c 5cbe b8f0 d7bd eafb 90be
000001b0: df7e 15be ab23 50be 46eb ebbe b8e6 cebe
000001c0: 4135 d1be 6f6a aabe 692f d6bd ed80 7dbe
000001d0: 0a64 ad3b d59b 97be c7d6 8c3c 208d ccbe
000001e0: 591f 57be 3eca 25bf d767 99be 6a75 813d
000001f0: b8e2 1dbf 4a53 52be aa24 28bf e68d 20bf
00000200: 6b3a e9be e854 2ebf a955 0b3b 0ed3 1cbf
00000210: c243 29bf 3c67 fbbe 9bb5 a2be 5041 aabe
00000220: 82aa c0be d409 01bf 6779 56bd 7fad a3be
00000230: 2e10 f1be 13fa 2d3e ef77 c8be 1a44 3abe
00000240: d5d8 a8be d4b4 99be 8615 11bf 20c0 74be
00000250: 5378 4dbe 7e9b 91be 1f81 ffbe 08bb e8be
00000260: f400 07bf 4ff3 c5be 7070 68bb 846c 01be
00000270: 9449 4cbf 9079 053e 89b9 033e bcba 21bd
00000280: 6d4a 20bf 4c49 83be a3a7 3dbe 5e15 11be
00000290: a02c babe ab97 413c 4f17 0abf cf54 31be
000002a0: 1c8c e7be 21a7 f9be dacd c7be 19ee cbbd
000002b0: 2e11 68be 60c2 89be a378 d2be c575 fabe
000002c0: 1b99 24bf 42ca 16bf 4a88 0fbf 73ad 8ebe
000002d0: 24c8 b2be 6d27 e8be 7fd8 26bf fda7 14bf
000002e0: fab5 1ebf d633 3cbe 9a69 bdbe 62ae 97be
000002f0: c4ff adbe 5f0a 67be dab0 2d3e aa3a e1be
00000300: 4f2a 86be 6a17 90be 6ff7 8fbe b02c b4be
00000310: 3aee bebe b292 debd bf71 dcbe b408 24bf
00000320: 197e 6dbe 2d58 cebd f0a2 48be b76e 7abe
00000330: 86a8 d1be 61f2 c8be 665e 30be da6d 4abe
00000340: 582d 92be 4d04 60bf c06e 10be c769 afbd
00000350: 9917 50be 9735 01bf efa6 b0be f115 d5bd
00000360: 4e71 77be 9fe4 0ebf 396b f4be 19a6 64be
00000370: 41cb c5be 201b 283d bbd5 78be 4c41 02bf
00000380: 3323 c0be 9d28 3bbf d171 08bf 3b66 ddbe
00000390: 3f6b 06bf b943 eebd ea55 3abf 0186 9ebe
000003a0: db49 27bf 6b3d 39bf 3b1e 00bf d03e 73be
000003b0: fdd7 cbbe 878e 413e fab0 3ebf 2183 5cbe
000003c0: 4ea7 b3be 58de edbe 686b 7a3a c61b f1be
000003d0: cdfb 8dbe 8596 5dbf d21b 17bf 2d21 d7bc
000003e0: bb53 10bf 4cb8 f9be 9927 2cbd f7f5 a5bf
000003f0: 9ead b7be d5c9 0cbd 06bc 01bd f5b4 99be

fc2.weight f4 [128, 256]
-0.0666607 -0.37680605 -0.49826953 -0.17360944 0.21920715 0.0019525597 -0.06519087 0.06388559
-0.07389907 0.1427229 -0.3450324 -0.19948857 0.20984471 -0.59544486 0.443908 0.20190306
-0.10526416 0.24654095 0.29187322 0.17275174 -0.08060905 0.0073811207 -0.11264161 -0.2745452
-0.24236946 0.107258886 -0.3985703 0.17987221 0.30553278 -0.14251396 0.11053181 0.16518499
0.05178712 -0.07573573 0.15346451 0.003647276 0.13466352 0.03348094 0.083471045 -0.06659567
-0.13058423 0.23124664 -0.034410298 0.16308828 0.23819208 0.18623981 -0.035840176 -0.0045339577
0.29513887 -0.26539782 0.22458844 0.08592863 -0.1891001 -0.27047622 0.035282318 0.025640028
-0.064474426 -0.30811352 0.07345133 -0.101869635 -0.08431941 0.05971598 -0.089328215 0.18360741
0.05748227 -0.03232558 0.43392515 0.05831439 -0.6528871 0.015663598 0.41966528 0.32635194
0.023703806 -0.056647953 -0.36373731 -0.36068353 0.2817965 0.044283114 -0.41146785 -0.074055545
-0.034246497 0.035481233 -0.3037431 0.12081108 0.24445309 0.06347087 -0.08289152 -0.17300192
-0.27839407 -0.0012243845 0.017630646 -0.019282924 -0.043106783 0.057693038 0.32467312 0.5712898
0.34883928 0.076064244 0.027929656 -0.4727047 0.0116237365 -0.07322422 0.19798525 -0.029660925
0.04965584 0.047946855 -0.13778846 0.12035614 0.24719498 0.5370913 -0.17383048 0.210908
0.1420022 -0.09791382 -0.38156387 -0.18596423 0.071382776 -0.3547439 -0.039672453 -0.005556524
-0.26148537 -0.1380286 0.2891627 0.21281867 -0.20559174 0.07131736 0.3149061 -0.23542723
0.4725224 -0.040833008 0.019892082 -0.3348103 -0.24853975 -0.33854625 0.18744582 0.29631302
-0.13595134 -0.086039826 0.26570606 0.140652 -0.23789763 0.12772976 0.11687682 0.47008243
-0.16029035 0.022901552 -0.29346734 0.21968108 -0.3678313 -0.031107876 0.12775682 -0.30775866
0.056365963 -0.014786532 -0.08088869 -0.12783128 0.07013705 -0.10404231 0.04310995 0.1967987
0.34430993 -0.15648814 -0.21064079 0.09008851 -0.18128572 -0.24482831 0.102131486 -0.09199018
0.447474 0.3581261 -0.019125678 0.16840445 0.065525636 -0.040845666 -0.035851564 -0.7302895
-0.23304501 -0.51513124 0.08759014 -0.22857912 -0.15885067 -0.008497531 -0.11295325 -0.26176295
0.029895203 0.35103482 0.24317859 -0.31580222 0.20676814 -0.15286769 0.2168523 0.072383486
0.101867616 0.47818035 0.10736103 -0.62598926 0.2960546 -0.0769532 -0.06435363 -0.14284298
0.12304345 0.16853024 0.097637646 0.28876698 -0.039313156 -0.09439433 0.3762853 0.2224474
-0.044765875 -0.09900673 0.1319399 0.1502124 0.29736218 0.017916167 -0.36152932 -0.0907477
0.10112846 0.41811368 -0.08816234 0.043387704 -0.047896307 -0.083148524 0.06097961 0.33539903
-0.2320725 -0.36833918 0.172739 -0.18316932 -0.063986585 0.39657256 -0.12233923 -0.21242657
-0.292749 -0.33750454 -0.25337952 0.23010992 0.18908527 0.3325901 -0.073092155 -0.644047
-0.07734695 0.090458184 -0.003633458 0.22137754 0.13697983 -0.5939304 -0.20815663 0.40324867
0.14467788 0.2925036 0.23214935 0.03767744 -0.08094146 0.07704693 -0.07753901 0.18812348
00000000: 6885 88bd b9ec c0be 2f1d ffbe acc6 31be
00000010: d777 603e 08ed ff3a ca82 85bd 73d6 823d
00000020: 6558 97bd f425 123e 16a8 b0be bb46 4cbe
00000030: 88e1 563e 136f 18bf e947 e33e adbf 4e3e
00000040: bc94 d7bd 3b75 7c3e 6870 953e d5e5 303e
00000050: 5c16 a5bd 54dd f13b a5b0 e6bd 3091 8cbe
00000060: b32f 78be 8caa db3d 6811 ccbe 6c30 383e
00000070: cb6e 9c3e 2eef 11be 805e e23d 4126 293e
00000080: bb1e 543d 561b 9bbd cd25 1d3e 2307 6f3b
00000090: 3ce5 093e 4f23 093d def2 aa3d 5063 88bd
000000a0: dfb7 05be ebcb 6c3e d0f1 0cbd 9d00 273e
000000b0: a0e8 733e a6b5 3e3e 26cd 12bd 9891 94bb
000000c0: 711c 973e 39e2 87be 83fa 653e 59fb af3d
000000d0: 75a3 41be dc7b 8abe 3184 103d 090b d23c
000000e0: 2b0b 84bd 0ec1 9dbe a76d 963d 07a1 d0bd
000000f0: a8af acbd be98 743d b6f1 b6bd 9503 3c3e
00000100: 8772 6b3d d467 04bd 702b de3e 12db 6e3d
00000110: 9c23 27bf f250 803c 5ede d63e 9a17 a73e
00000120: 7c2e c23c af07 68bd c73b babe 83ab b8be
00000130: a147 903e 3662 353d eaab d2be 6faa 97bd
00000140: 0e46 0cbd c554 113d 3784 9bbe cd6b f73d
00000150: e951 7a3e 04fd 813d 07c3 a9bd 6a27 31be
00000160: ab89 8ebe 877b a0ba 256e 903c 39f7 9dbc
00000170: bd90 30bd 894f 6c3d 8e3b a63e 0c40 123f
00000180: 109b b23e 92c7 9b3d bccc e43c 5a06 f2be
00000190: 7c71 3e3c 94f6 95bd a5bc 4a3e 78fb f2bc
000001a0: ec63 4b3d ec63 443d 6b18 0dbe 487d f63d
000001b0: ae20 7d3e d17e 093f 9e00 32be 44f8 573e
000001c0: 0669 113e 0a87 c8bd 575c c3be 686d 3ebe
000001d0: 2231 923d fea0 b5be 957f 22bd 8013 b6bb
000001e0: 69e1 85be 5f57 0dbe 220d 943e 23ed 593e
000001f0: a486 52be d60e 923d 5f3b a13e d613 71be
00000200: 75ee f13e 8340 27bd b8f4 a23c 416c abbe
00000210: 3481 7ebe ef55 adbe ccf1 3f3e 57b6 973e
00000220: d436 0bbe a635 b0bd a00a 883e 1407 103e
00000230: 709b 73be 97cb 023e 1d5d ef3d a5ae f03e
00000240: 2723 24be 099c bb3c 5a41 96be 14f4 603e
00000250: 6254 bcbe f2d5 febc afd2 023e 8b92 9dbe
00000260: ffdf 663d 3643 72bc f8a8 a5bd 34e6 02be
00000270: 03a4 8f3d 2214 d5bd 0f94 303d 9985 493e
00000280: 6449 b03e 6d3e 20be 38b2 57be 5380 b83d
00000290: f7a2 39be 46b4 7abe 502a d13d 5965 bcbd
000002a0: 501b e53e 4e5c b73e 74ad 9cbc 3772 2c3e
000002b0: 4e32 863d c94d 27bd 17d9 12bd 41f4 3abf
000002c0: 5aa3 6ebe a4df 03bf 7662 b33d a510 6abe
000002d0: c0a9 22be 3a39 0bbc 0954 e7bd cb05 86be
000002e0: c9e6 f43c d6ba b33e cf03 793e d4b0 a1be
000002f0: 07bb 533e 5989 1cbe 880e 5e3e cb3d 943d
00000300: f89f d03d 0ed4 f43e 1ae0 db3d d540 20bf
00000310: 7894 973e a499 9dbd d6cb 83bd 6e45 12be
00000320: 34fe fb3d 3193 2c3e 3ff6 c73d 44d9 933e
00000330: d506 21bd d151 c1bd 78a8 c03e 40c9 633e
00000340: 6c5c 37bd 0ac4 cabd 411b 073e 48d1 193e
00000350: db3f 983e edc4 923c 5f1a b9be eed9 b9bd
00000360: 701c cf3d ff12 d63e 758e b4bd 4eb7 313d
00000370: eb2e 44bd c649 aabd c1c5 793d 6cb9 ab3e
00000380: 6aa4 6dbe f496 bcbe 7ee2 303e bd90 3bbe
00000390: 660b 83bd 8f0b cb3e fd8c fabd 5a86 59be
000003a0: 32e3 95be 65cd acbe f6ba 81be efa1 6b3e
000003b0: 929f 413e 4049 aa3e 57b1 95bd 44e0 24bf
000003c0: 1468 9ebd 2442 b93d 4f1f 6ebb cbb0 623e
000003d0: 7144 0c3e d30b 18bf 0327 55be 9c76 ce3e
000003e0: 7026 143e 08c3 953e 8fb8 6d3e a953 1a3d
000003f0: a3c4 a5bd c8ca 9d3d c6cc 9ebd 71a3 403e

fc2.bias f4 [128]
-0.2652762 -0.16101001 -0.2668822 -0.41242257 -0.17822102 -0.35224524 -0.0763639 -0.15569784
-0.2947703 -0.10644218 -0.17041744 -0.2720476 -0.3073284 -0.17387448 -0.16745631 -0.5164922
-0.12009832 -0.15246172 -0.19151057 -0.2721083 -0.34906715 -0.12832722 -0.29553545 -0.12467049
-0.31781116 -0.26835227 -0.16938151 -0.055623297 -0.13619617 -0.47067446 -0.20703605 -0.16918147
-0.36729196 -0.30711794 -0.27357224 -0.28709763 -0.22344941 -0.0021075571 -0.14086965 -0.357609
-0.09810567 -0.08740554 -0.253069 -0.16596843 -0.09274357 -0.12541294 -0.11426928 -0.3410664
-0.28263396 -0.0009820622 -0.024260692 -0.18678273 -0.32668805 -0.39179587 -0.18212612 -0.6892478
-0.044262495 -0.21724077 -0.13466819 -0.41640797 -0.21139969 -0.2717603 -0.41084918 -0.2810015
-0.41636512 -0.14907382 0.050326303 -0.07797028 -0.111415595 -0.20743132 -0.06385771 -0.1267628
-0.19313738 -0.17868714 -0.17683625 -0.1692748 -0.4304071 -0.23570174 -0.12911408 -0.25121823
-0.27575666 -0.026163032 -0.31020153 -0.16221155 -0.22489436 -0.39619085 -0.061905123 -0.12845905
-0.12759364 -0.12466088 -0.27281183 -0.27700627 0.0795835 -0.61790055 -0.29942703 -0.32993957
-0.18641892 -0.23095171 -0.32915592 -0.1475865 -0.4725759 -0.2513779 -0.11784034 -0.26739272
-0.19948542 -0.31708255 -0.18444464 -0.2022379 -0.24957415 -0.08167453 -0.13568473 -0.08480947
-0.25811878 -0.09039816 -0.20660593 -0.73545533 -0.2219561 -0.56549305 -0.093135245 -0.24036671
0.056519542 -0.35416064 -0.4498448 -0.4432559 -0.27408773 -0.22318143 -0.15629932 -0.38774267
00000000: 48d2 87be cfdf 24be c9a4 88be 0d29 d3be
00000010: 927f 36be 7d59 b4be ad64 9cbd 416f 1fbe
00000020: 22ec 96be 5cfe d9bd e981 2ebe d349 8bbe
00000030: 265a 9dbe 270c 32be ab79 2bbe d538 04bf
00000040: 1cf6 f5bd ed1e 1cbe 591b 44be c751 8bbe
00000050: eeb8 b2be 3668 03be 6c50 97be 3e53 ffbd
00000060: 25b8 a2be 7865 89be 5972 2dbe 41d5 63bd
00000070: 0277 0bbe 3efc f0be 4201 54be e83d 2dbe
00000080: b10d bcbe 903e 9dbe a911 8cbe 76fe 92be
00000090: eccf 64be f11e 0abb 2240 10be 8718 b7be
000000a0: a0eb c8bd ad01 b3bd 4392 81be a1f3 29be
000000b0: 57f0 bdbd 406c 00be 0306 eabd 41a0 aebe
000000c0: 66b5 90be 8ab8 80ba 5cbe c6bc f943 3fbe
000000d0: a843 a7be 7899 c8be 457f 3abe 8b72 30bf
000000e0: 974c 35bd 5d74 5ebe 75e6 09be 6d33 d5be
000000f0: 2979 58be 2b24 8bbe d35a d2be 6edf 8fbe
00000100: cf2d d5be cfa6 18be f422 4e3d e2ae 9fbd
00000110: dc2d e4bd e068 54be d5c7 82bd 1cce 01be
00000120: cec5 45be c3f9 36be 9014 35be 6056 2dbe
00000130: 525e dcbe cc5b 71be 7b36 04be ad9f 80be
00000140: fa2f 8dbe db53 d6bc bcd2 9ebe c91a 26be
00000150: b54a 66be 87d9 cabe 3a90 7dbd c58a 03be
00000160: e8a7 02be 344e ffbd fead 8bbe c4d3 8dbe
00000170: adfc a23d bb2e 1ebf 804e 99be d7ed a8be
00000180: 9ae4 3ebe 9b7e 6cbe 2087 a8be ea20 17be
00000190: 78f5 f1be 9bb4 80be 4756 f1bd b3e7 88be
000001a0: e845 4cbe a558 a2be 0edf 3cbe 7417 4fbe
000001b0: 5e90 7fbe fa44 a7bd f0f0 0abe 96b0 adbd
000001c0: 2528 84be ac22 b9bd 8190 53be cd46 3cbf
000001d0: 7648 63be 27c4 10bf b1bd bebd b122 76be
000001e0: 0981 673d 8b54 b5be 0f52 e6be 70f2 e2be
000001f0: 3a55 8cbe ac89 64be ee0c 20be 3586 c6be

fc3.weight f4 [2, 128]
0.45184073 -0.09042555 0.2769555 -0.22664358 -0.40846938 0.02325562 -0.1301226 -0.21954672
-0.49504745 -0.14230365 0.3140385 -0.29522413 -0.5320639 -0.20916739 -0.12766987 0.4566916
0.36325267 -0.045120135 0.26702026 -0.01358168 0.22152412 0.47940823 0.24138993 0.047641564
-0.06707283 0.24956569 0.042960465 -0.21242388 -0.17317899 0.4723939 0.5862629 -0.33157182
-0.5519497 -0.07786991 0.68023795 -0.50408596 -0.27519238 -0.3052109 -0.43048018 -0.031679094
-0.3127203 0.23709688 0.369141 0.31742054 0.39970967 0.41471326 0.06014321 -0.008486353
0.06800406 -0.4602815 -0.34209037 0.25030714 -0.081126206 0.40296128 -0.33479384 0.46888778
-0.3763796 0.49294585 0.49206817 0.56038725 -0.22719197 0.0440957 0.30938512 -0.04411015
-0.2677241 -0.40232378 0.05758852 0.4537939 -0.08343457 0.13880925 -0.04445713 -0.14342676
-0.12286004 -0.20849024 -0.23326619 -0.29427585 0.63122743 0.13461316 -0.35706526 -0.036839712
0.4884858 0.15767609 0.14651512 -0.1933956 0.49777016 0.8283481 0.021530792 -0.20097028
0.17161587 0.23368125 -0.33918923 -0.57991457 0.008354085 0.011495213 -0.23969471 0.14385554
-0.10367357 0.1600911 0.15433306 -0.074557036 0.26803836 0.4342543 -0.020583121 0.036034077
-0.29661757 0.21928494 -0.11095655 0.08621759 0.42746907 -0.23969388 -0.025770418 0.02898909
0.25853163 -0.07851793 0.36059192 0.44930494 0.23078486 0.60254085 -0.10109165 0.31848288
-0.03309616 0.1277084 0.36997342 0.46873158 -0.22085524 -0.3957176 -0.19073841 -0.0426994
0.08537322 -0.24745336 0.053630445 0.34310427 0.10336924 -0.5021582 -0.4916109 -0.18881588
0.70856804 -0.3562229 0.22369587 0.1575987 0.046345644 -0.28879905 -0.52010435 0.14431472
-0.11287442 -0.55379534 -0.10032567 0.17986318 0.3070664 0.16049558 0.14818563 -0.42950258
-0.3389766 -0.69030046 0.58317035 0.0035375506 0.24845089 -0.06776055 0.15371527 -0.4225657
0.017650604 -0.38887003 0.3635377 -0.25122043 -0.021195473 0.05203166 -0.022821678 0.87780744
-0.0262916 0.58198875 -0.024996942 0.13894308 0.13570943 0.038863935 0.3626265 -0.8136749
-0.59767264 -0.029442493 0.012740358 0.18968533 0.28344774 -0.27820128 -0.6796139 -0.4287158
-0.06890553 -0.015816262 -0.02115958 0.15649015 0.5249645 -0.35686532 0.8338838 0.48763466
0.14221069 -0.24874711 0.37481603 -0.09808303 0.56519645 0.44331795 0.195561 -0.1761108
-0.16216007 -0.06533865 0.21064161 0.72984964 -0.049307793 -0.26252303 -0.51453644 0.58258885
-0.07744302 -0.08404702 0.7478626 -0.3520535 0.44550642 0.16320176 0.38791457 0.14637342
0.40838093 -0.33667627 -0.15517826 -0.027239522 0.5433978 0.61827606 -0.35410088 -0.67521214
0.092316516 -0.19641069 -0.29251888 -0.07273871 0.06502268 0.22496279 0.69821405 0.94088596
-0.4956107 -0.2066394 -0.090021975 0.52385503 -0.1628345 0.44840312 -0.6326738 -0.22141016
-0.36396843 -0.56469786 0.378331 -0.34274992 0.52528566 -0.41613528 0.59354967 -0.08223772
-0.6476986 0.30180347 0.34309947 -0.113144934 0.15391086 0.0001230799 -0.34887123 -0.25663373
00000000: ab57 e73e 0831 b9bd 1ccd 8d3e 4115 68be
00000010: e622 d1be 9282 be3c dc3e 05be dbd0 60be
00000020: dc76 fdbe 0cb8 11be a7c9 a03e 9e27 97be
00000030: 5735 08bf fa2f 56be e4bb 02be 7bd3 e93e
00000040: 41fc b93e e4cf 38bd e1b6 883e b285 5ebc
00000050: 38d7 623e ff74 f53e ec2e 773e cd23 433d
00000060: 7b5d 89bd 268e 7f3e 50f7 2f3d a585 59be
00000070: d555 31be 9ddd f13e 5315 163f c8c3 a9be
00000080: 934c 0dbf 427a 9fbd 1324 2e3f c70b 01bf
00000090: 04e6 8cbe 9a44 9cbe e667 dcbe f0c1 01bd
000000a0: e01c a0be 86c9 723e 0d00 bd3e f284 a23e
000000b0: bfa6 cc3e 4c55 d43e ba58 763d 580a 0bbc
000000c0: b645 8b3d 04aa ebbe 7826 afbe 4228 803e
000000d0: 7f25 a6bd f150 ce3e 196a abbe 0f12 f03e
000000e0: d4b4 c0be 6663 fc3e 5cf0 fb3e 8a75 0f3f
000000f0: 03a5 68be b19d 343d ba67 9e3e d8ac 34bd
00000100: 2213 89be 62fd cdbe f1e1 6b3d ad57 e83e
00000110: bedf aabd 0324 0e3e ae18 36bd 77de 12be
00000120: 0b9e fbbd 777e 55be 55dd 6ebe 53ab 96be
00000130: 1f98 213f 08d8 093e 42d1 b6be 3de5 16bd
00000140: d01a fa3e d775 213e 0f08 163e 7f09 46be
00000150: bbdb fe3e 9f0e 543f 5861 b03c 27cb 4dbe
00000160: 12bc 2f3e 234a 6f3e 36aa adbe 4875 14bf
00000170: 92df 083c 6b56 3c3c 8872 75be de4e 133e
00000180: cf52 d4bd ecee 233e 7c09 1e3e 5cb1 98bd
00000190: 533c 893e 9456 de3e ef9d a8bc 7898 133d
000001a0: 42de 97be 3b8c 603e 303d e3bd d992 b03d
000001b0: 3add da3e 5072 75be 7c1c d3bc 877a ed3c
000001c0: 425e 843e 02ce a0bd 819f b83e 4c0b e63e
000001d0: de52 6c3e 1e40 1a3f 2409 cfbd 3010 a33e
000001e0: d78f 07bd fec5 023e 286d bd3e 96fd ef3e
000001f0: e027 62be 7f9b cabe ee50 43be 91e5 2ebd
00000200: 28d8 ae3d 6a64 7dbe 99ab 5b3d 5dab af3e
00000210: 41b3 d33d 718d 00bf 6db4 fbbe f358 41be
00000220: b764 353f d962 b6be 8810 653e 8e61 213e
00000230: eed4 3d3d 78dd 93be 8f25 05bf 3dc7 133e
00000240: b42a e7bd 88c5 0dbf 8b77 cdbd 0e2e 383e
00000250: cf37 9d3e f458 243e f9bd 173e c3e7 dbbe
00000260: 578e adbe 88b7 30bf a74a 153f 40d6 673b
00000270: e969 7e3e 0bc6 8abd 8967 1d3e 885a d8be
00000280: 0098 903c f919 c7be 9d21 ba3e f79f 80be
00000290: 21a2 adbc 261f 553d 87f4 babc fdb7 603f
000002a0: 7b61 d7bc 37fd 143f 63c6 ccbc 1847 0e3e
000002b0: 6af7 0a3e ca2f 1f3d 2eaa b93e 004d 50bf
000002c0: 1301 19bf 6231 f1bc efbc 503c df3c 423e
000002d0: 1020 913e 6670 8ebe 2dfb 2dbf a380 dbbe
000002e0: 581e 8dbd 1b91 81bc db56 adbc f43e 203e
000002f0: 1364 063f 0db7 b6be 6979 553f 40ab f93e
00000300: ae9f 113e 90b7 7ebe e3e7 bf3e c1df c8bd
00000310: b7b0 103f 92fa e23e 2541 483e 6456 34be
00000320: 4a0d 26be 45d0 85bd 6fb2 573e 6dd7 3a3f
00000330: f8f6 49bd 6b69 86be a9b8 03bf 8b24 153f
00000340: 729a 9ebd d820 acbd ec73 3f3f 5b40 b4be
00000350: 6b19 e43e 5d1e 273e bd9c c63e eae2 153e
00000360: 4e17 d13e d560 acbe 0de7 1ebe 6b25 dfbc
00000370: 1e1c 0b3f 5747 1e3f b64c b5be b4da 2cbf
00000380: 7110 bd3d e21f 49be 09c5 95be 08f8 94bd
00000390: 9c2a 853d a55c 663e 28be 323f e7dd 703f
000003a0: b0c0 fdbe 4799 53be 715d b8bd 5d1b 063f
000003b0: 16be 26be 1895 e53e e9f6 21bf 58b9 62be
000003c0: 125a babe 0a90 10bf 9ab4 c13e eb7c afbe
000003d0: 1f79 063f af0f d5be dff2 173f 406c a8bd
000003e0: 93cf 25bf fc85 9a3e bcaa af3e 88b8 e7bd
000003f0: cf9a 1d3e 020f 0139 409f b2be 7f65 83be

fc3.bias f4 [2]
-0.11760264 0.04049231
00000000: a7d9 f0bd 44db 253d

bn1.weight f4 [256]
1.0009209 1.0202546 1.0137057 0.7228893 1.5362717 1.1706679 0.9506559 1.3658062
0.92759216 1.0709833 1.0844077 0.8736684 0.88707525 1.0707847 1.0992813 1.284034
0.97030437 0.8910166 0.8525425 0.6426961 0.37605023 0.46032026 0.90951914 1.3250216
0.68869144 0.67635894 0.89166254 1.0958493 0.75487006 0.4367383 1.3746928 1.1627091
0.8852843 0.9908749 0.9811837 0.45412564 1.2331688 0.5948065 0.85210234 0.98658276
1.4756877 1.1686516 0.8503811 1.0772707 0.7013602 0.72997975 1.0043776 1.080382
0.953162 0.7152624 1.2293465 0.9354884 0.87145066 0.84239805 1.0492035 1.5277652
0.8910424 1.3831271 1.6113478 0.74399704 0.8731061 1.1704077 1.2378489 1.0790502
1.2870969 0.9611429 1.1444205 0.71746 1.0621839 0.52195823 1.1647398 0.841583
0.9647688 1.2484045 1.1508638 1.2735662 0.6871658 0.56428313 0.3121595 0.9972129
0.6244266 1.1442876 1.2050725 1.1051447 0.51704353 0.79128015 0.81265515 0.94882053
0.80589825 1.3403713 0.94176096 0.9323521 0.7203657 0.96529084 0.4042054 1.3209581
1.3243579 1.1172258 1.134017 1.300282 0.9790656 0.85151094 1.0975138 0.65194815
0.93130314 0.82595074 1.3503697 1.0234861 1.1268518 0.6583318 1.1303351 1.1174829
0.46763277 0.773926 0.57847 1.0427002 1.1367065 1.0203315 0.8827313 0.85785186
0.97215515 1.2451795 1.025015 0.94531095 0.86067593 0.6758647 0.934429 0.9900907
1.3189621 1.2100383 0.95948315 1.603881 1.3165574 0.73141843 1.1927937 1.2852534
1.0496516 0.45488325 1.2404808 1.2730052 0.74743843 1.2434406 1.0765399 0.85958034
0.97752166 0.95493424 0.86583424 0.8649121 0.62384224 0.8581368 0.7349067 1.2363812
0.93502796 0.95678663 0.81261593 0.6685353 0.9881158 0.6474941 0.8451793 0.78079605
1.2323314 1.3987519 0.97596276 0.75616413 0.94741184 0.63416404 0.88937175 1.1362144
1.1415036 1.180985 0.9776443 0.46431994 1.08006 0.6948394 1.3608054 0.7693331
1.0757818 1.1477649 0.6908396 1.1672772 0.78413606 1.0749344 0.7498085 1.1915655
0.6523713 1.4163502 1.0567662 1.0876321 0.5792916 0.5869197 0.97614664 1.2017502
1.1384636 1.2871469 1.0111368 1.2418216 1.0477926 0.9498228 0.95264 1.1183188
0.9178578 0.9490254 0.96588725 1.2949009 1.0324169 0.94659126 1.2255608 1.163134
1.0896802 1.2196925 1.0101128 0.91439515 0.9867345 0.83077824 1.2090938 0.95263046
1.0298369 1.3125689 0.7260204 1.032414 0.7471368 0.40604076 0.48037598 1.2723494
0.646627 1.3089688 1.1915721 0.9973437 0.86765295 0.8188915 1.287803 0.900832
1.2052648 1.4698015 1.0168374 1.2045931 1.0779876 0.33312652 0.92504346 0.91074795
0.668839 0.78364605 0.93912256 0.9874193 1.6453521 1.230656 1.0671904 0.9390656
1.3457241 1.1052446 0.9019774 2.307031 1.2877103 1.2319983 0.9781906 1.0457811
00000000: 2d1e 803f b497 823f 1cc1 813f 460f 393f
00000010: 8da4 c43f 72d8 953f 2f5e 733f bdd2 ae3f
00000020: ae76 6d3f fb15 893f dfcd 8a3f bba8 5f3f
00000030: 5d17 633f 790f 893f 40b5 8c3f 3a5b a43f
00000040: de65 783f aa19 643f 3a40 5a3f bb87 243f
00000050: a889 c03e 19af eb3e 3fd6 683f 4f9a a93f
00000060: 154e 303f dc25 2d3f ff43 643f ca44 8c3f
00000070: 2a3f 413f 2a9c df3e eff5 af3f a7d3 943f
00000080: fea1 623f faa9 7d3f db2e 7b3f 2883 e83e
00000090: 7ad8 9d3f 3d45 183f 6123 5a3f b090 7c3f
000000a0: 56e3 bc3f 6096 953f 93b2 593f 02e4 893f
000000b0: 588c 333f f4df 3a3f 728f 803f f549 8a3f
000000c0: 6d02 743f 701b 373f 3a5b 9d3f 2b7c 6f3f
000000d0: 6417 5f3f 66a7 573f 4d4c 863f cf8d c33f
000000e0: 5b1b 643f 4f0a b13f a540 ce3f 9776 3e3f
000000f0: e283 5f3f ebcf 953f d571 9e3f 511e 8a3f
00000100: 97bf a43f 760d 763f 5f7c 923f 75ab 373f
00000110: a4f5 873f 0e9f 053f 3216 953f fc71 573f
00000120: 17fb 763f b8cb 9f3f 814f 933f 3804 a33f
00000130: 19ea 2f3f dc74 103f 5fd3 9f3e 5849 7f3f
00000140: 6cda 1f3f 0478 923f d13f 9a3f 6275 8d3f
00000150: f75c 043f 5691 4a3f 2b0a 503f e7e5 723f
00000160: 594f 4e3f 4991 ab3f 3f17 713f a1ae 6e3f
00000170: e369 383f 4d1d 773f 03f4 ce3e 2815 a93f
00000180: 8f84 a93f 4101 8f3f 7827 913f a46f a63f
00000190: 0ba4 7a3f 9ffc 593f 557b 8c3f 13e6 263f
000001a0: e269 6e3f 8271 533f ead8 ac3f 9801 833f
000001b0: ae3c 903f 6f88 283f d2ae 903f ae09 8f3f
000001c0: 906d ef3e 0420 463f 9c16 143f 3377 853f
000001d0: 997f 913f 399a 823f aefa 613f 2e9c 5b3f
000001e0: 29df 783f 0b62 9f3f b133 833f e6ff 713f
000001f0: 4255 5c3f 7805 2d3f bd36 6f3f 9676 7d3f
00000200: c0d3 a83f 89e2 9a3f b0a0 753f f94b cd3f
00000210: f484 a83f 3d3e 3b3f 77ad 983f 2f83 a43f
00000220: fc5a 863f 75e6 e83e 13c8 9e3f d6f1 a23f
00000230: 2058 3f3f 1029 9f3f 0fcc 893f 750d 5c3f
00000240: dc3e 7a3f 9276 743f 50a7 5d3f e16a 5d3f
00000250: 20b4 1f3f daae 5b3f d822 3c3f bd41 9e3f
00000260: fe5d 6f3f f8ef 743f 9907 503f 2125 2b3f
00000270: 28f5 7c3f 2cc2 253f ac5d 583f 40e2 473f
00000280: 09bd 9d3f 4d0a b33f b2d8 793f f993 413f
00000290: 9589 723f 9358 223f dead 633f 796f 913f
000002a0: ca1c 923f 842a 973f e646 7a3f 58bb ed3e
000002b0: 683f 8a3f ffe0 313f df2e ae3f 04f3 443f
000002c0: 38b3 893f f6e9 923f ddda 303f 5769 953f
000002d0: 24bd 483f 7397 893f 73f3 3f3f 3885 983f
000002e0: ce01 273f f74a b53f 1d44 873f 8737 8b3f
000002f0: 744c 143f 5f40 163f bfe4 793f f3d2 993f
00000300: 2db9 913f 3bc1 a43f ee6c 813f 03f4 9e3f
00000310: 111e 863f 9627 733f 37e0 733f 1225 8f3f
00000320: bbf8 6a3f 54f3 723f 6344 773f 50bf a53f
00000330: 3d26 843f ce53 723f 2ddf 9c3f 93e1 943f
00000340: a47a 8b3f e21e 9c3f 604b 813f cd15 6a3f
00000350: a29a 7c3f e2ad 543f 96c3 9a3f 97df 733f
00000360: b2d1 833f 4202 a83f 79dc 393f 2426 843f
00000370: 5b44 3f3f 93e4 cf3e d7f3 f53e 58dc a23f
00000380: 5989 253f 4a8c a73f 6f85 983f eb51 7f3f
00000390: 811e 5e3f e0a2 513f bbd6 a43f ed9c 663f
000003a0: 1e46 9a3f 7522 bc3f ba27 823f 1b30 9a3f
000003b0: 7ffb 893f 8f8f aa3e a6cf 6c3f c726 693f
000003c0: 0839 2b3f 079d 483f 566a 703f 83c7 7c3f
000003d0: e69a d23f 2386 9d3f b299 883f 9a66 703f
000003e0: b040 ac3f a878 8d3f fee7 663f 65a6 1340
000003f0: b1d3 a43f 1fb2 9d3f b36a 7a3f 28dc 853f

bn1.bias f4 [256]
0.010555661 0.20692657 0.004676212 -0.085515946 -0.028696496 -0.054938648 -0.21593182 0.19092037
0.16690937 0.115846135 0.1810702 -0.2411982 -0.077633314 0.347254 0.14367802 -0.25403866
-0.5393315 -0.16861928 -0.0768831 0.17248365 0.23319332 0.040294435 0.36174458 0.09985945
0.52800256 0.55219805 -0.13949464 -0.11288313 -0.009167906 -0.023752464 0.24655634 0.13347626
-0.17652088 0.053639516 -0.37116545 0.04662178 0.24912588 0.20913771 0.06808603 -0.17027488
-0.038710054 0.15007085 0.10660011 0.29425132 0.09613304 0.74619436 -0.058426246 0.3433155
0.105761915 0.3707615 -0.094512455 0.22655979 0.049617775 0.03883611 -0.07487054 -0.0009007339
-0.09942273 0.10394752 0.023042815 -0.06653303 0.238468 -0.04850772 0.38874176 -0.011017164
-0.07202004 0.17384188 -0.14200622 0.021532701 0.05514587 0.20072418 0.0628327 0.13812168
0.05531025 0.16682893 0.35711342 0.14383201 0.2901653 0.2829025 0.15732527 -0.0562302
0.23746863 0.33297312 -0.12307681 0.18212382 0.27976084 0.11554327 0.0026100974 0.06636595
0.6147021 -0.03969971 0.72813964 0.7039073 0.2624836 0.0064093885 0.16579184 0.016485915
0.09434972 -0.3325639 -0.07340284 0.36949167 -0.11810283 0.27887282 -0.15463963 0.26954508
0.21123911 0.16391654 -0.09220736 0.5091391 0.061542194 0.0697531 0.2106234 0.38457015
0.30287418 0.08869778 0.1234085 0.36379838 0.22820994 0.2275549 0.2317297 0.32533267
0.5217116 0.4924566 -0.01503085 0.09153281 -0.04643758 -0.11936596 0.18912014 0.09570244
0.11614921 0.15246505 -0.01001031 0.00921352 0.14576794 -0.014758221 0.21664876 0.0047719222
0.093881495 -0.17668585 -0.1838686 0.13678926 0.18019602 0.101590835 -0.10879298 0.15033107
-0.05065412 -0.11982158 0.057148356 0.040266767 0.30536687 0.23775642 0.06910867 0.0065613696
0.2986814 -0.12300496 -0.16692206 0.21237512 0.39101937 0.24492015 -0.2771949 -0.14990726
-0.18836372 0.09795484 0.327039 0.14471787 0.053045504 0.18261558 0.1616086 -0.23016156
-0.080806345 -0.07071125 0.44616216 0.30543742 0.28495213 0.31863153 0.14507994 0.023654541
0.29230914 0.19816071 0.37659243 0.14627773 0.014704687 0.13581505 0.1732712 -0.012739224
0.0627602 0.091012634 -0.057184238 0.29023808 0.019538734 0.53442836 0.42888045 0.050001092
-0.31170407 -0.101173915 -0.2051869 0.10088123 0.22134723 0.6318706 0.6387154 0.08227036
-0.13857928 0.019454377 0.25740027 -0.20678088 -0.09982468 -0.061541717 0.15448332 -0.011840707
-0.13414837 0.090950236 -0.14949782 0.28992465 0.10149122 -0.18257941 -0.023197958 0.17376205
0.06076154 -0.24903944 -0.16141342 0.33159176 0.08943865 0.024610324 0.073901415 -0.33125988
0.0431191 -0.16691083 -0.31715196 0.07162647 0.014256818 -0.1677728 -0.007086034 0.07026647
0.2007182 0.03604664 0.0031927682 -0.11952934 0.2376614 -0.08071586 0.22829524 0.43325722
-0.3032046 0.40268412 0.34122834 0.010922024 0.20920675 0.14892915 -0.12925093 0.12493863
-0.065215535 0.39447415 0.447377 0.108477406 0.39336798 -0.03164303 0.056689892 0.16340706
00000000: a7f1 2c3c 8fe4 533e e93a 993b fc22 afbd
00000010: ea14 ebbc 5907 61bd 3b1d 5dbe a180 433e
00000020: 4aea 2a3e bd40 ed3d 776a 393e a9fc 76be
00000030: 37fe 9ebd 47cb b13e 5520 133e 5b11 82be
00000040: a111 0abf 88aa 2cbe e374 9dbd 8e9f 303e
00000050: 3bca 6e3e c70b 253d 9636 b93e 1c83 cc3d
00000060: 2d2b 073f da5c 0d3f afd7 0ebe 452f e7bd
00000070: fc34 16bc 8794 c2bc 4479 7c3e 00ae 083e
00000080: e4c1 34be 1cb5 5b3d 6609 bebe 7bf6 3e3d
00000090: db1a 7f3e 3228 563e b070 8b3d 8a5c 2ebe
000000a0: 6f8e 1ebd 2cac 193e 2951 da3d 1ca8 963e
000000b0: 66e1 c43d 9806 3f3f 5c50 6fbd 0dc7 af3e
000000c0: b499 d83d 74d4 bd3e bf8f c1bd 4aff 673e
000000d0: 023c 4b3d 9d12 1f3d ba55 99bd 3b1f 6cba
000000e0: 259e cbbd 70e2 d43d 49c4 bc3c 7842 88bd
000000f0: f530 743e 08b0 46bd 2909 c73e 5681 34bc
00000100: 3e7f 93bd 9b03 323e 146a 11be 5965 b03c
00000110: a3e0 613d a48a 4d3e 6eae 803d c56f 0d3e
00000120: 008d 623d 34d5 2a3e 92d7 b63e b348 133e
00000130: 8c90 943e 99d8 903e e019 213e a351 66bd
00000140: fa2a 733e 747b aa3e b20f fcbd ab7e 3a3e
00000150: d03c 8f3e f3a1 ec3d 2b0e 2b3b dfea 873d
00000160: 1e5d 1d3f 2a9c 22bd 5c67 3a3f 4533 343f
00000170: 4064 863e d905 d23b 56c5 293e 780d 873c
00000180: 6d3a c13d d145 aabe 3a54 96bd 032e bd3e
00000190: e6df f1bd 6bc8 8e3e da59 1ebe d001 8a3e
000001a0: 114f 583e bdd9 273e 36d7 bcbd f156 023f
000001b0: ab13 7c3d b7da 8e3d a9ad 573e 61e6 c43e
000001c0: 5312 9b3e 2fa7 b53d 98bd fc3d c843 ba3e
000001d0: deaf 693e 2704 693e 8d4a 6d3e 0192 a63e
000001e0: e48e 053f 4523 fc3e f443 76bc 8e75 bb3d
000001f0: 5535 3ebd 2476 f4bd b6a8 413e a4ff c33d
00000200: a3df ed3d cc1f 1c3e 4902 24bc 4ef4 163c
00000210: 3144 153e 77cc 71bc 2cd9 5d3e c95d 9c3b
00000220: f144 c03d 23ed 34be 0d48 3cbe 7c12 0c3e
00000230: 4e85 383e db0e d03d dbce debd 63f0 193e
00000240: b27a 4fbd 0465 f5bd 6514 6a3d c4ee 243d
00000250: 0c59 9c3e 6b76 733e d988 8d3d c200 d73b
00000260: c5ec 983e 06ea fbbd 9eed 2abe dd78 593e
00000270: b133 c83e 59cc 7a3e 7dec 8dbe 4a81 19be
00000280: 6be2 40be 8c9c c83d a871 a73e ec30 143e
00000290: 3e46 593d 94ff 3a3e ba7c 253e 79af 6bbe
000002a0: cc7d a5bd 0fd1 90bd 5e6f e43e 4b62 9c3e
000002b0: 3fe5 913e ac23 a33e d68f 143e 2bc7 c13c
000002c0: 8ba9 953e a4ea 4a3e b9d0 c03e d4c9 153e
000002d0: edeb 703c 1a13 0b3e 016e 313e 2eb8 50bc
000002e0: 6b88 803d d564 ba3d 053a 6abd 169a 943e
000002f0: b20f a03c 4cd0 083f 3896 db3e f2cd 4c3d
00000300: ad97 9fbe 4534 cfbd 841c 52be d19a ce3d
00000310: d9a8 623e 46c2 213f da82 233f 5d7d a83d
00000320: bae7 0dbe c95e 9f3c f8c9 833e 5ebe 53be
00000330: e270 ccbd 2b13 7cbd e030 1e3e 86ff 41bc
00000340: 315e 09be 1e44 ba3d f515 19be 0171 943e
00000350: a1da cf3d 19f6 3abe a509 bebc aeee 313e
00000360: 18e1 783d 3204 7fbe 8f49 25be 65c6 a93e
00000370: 9c2b b73d 979b c93c a059 973d e59a a9be
00000380: a79d 303d acea 2abe be61 a2be e6b0 923d
00000390: 6e95 693c a2cc 2bbe f631 e8bb dee7 8f3d
000003a0: 1289 4d3e a4a5 133d c33d 513b cccb f4bd
000003b0: 835d 733e 5b4e a5bd 3ac6 693e e4d3 dd3e
000003c0: a23d 9bbe 9d2c ce3e 7bb5 ae3e 4af2 323c
000003d0: 4b3a 563e e280 183e 5b5a 04be d3df ff3d
000003e0: b98f 85bd 84f8 c93e 990e e53e 6729 de3d
000003f0: 8767 c93e 1f9c 01bd a933 683d 2e54 273e

bn1.running_mean f4 [256]
1.3131219 3.8677123 4.6154623 2.7009919 1.2937516 6e-45 1.1333364 0.73152435
4.9473643 0.11729982 0.26141605 7.0819907 3.2477357 1.238966 3.215558 0.72638434
7.4453993 0.18649605 0.04505617 3.2376432 16.766779 5.141501 2.8922772 2.6744666
2.252636 5.39983 5.3853564 1.2423117 3.5912406 1.673266 1.2343216 6.3628187
0.7817366 2.0006242 0.020887155 1.488853 1.2970003 1.2272146 0.2406127 3.0650697
7.3582816 3.444672 1.3338937 2.151467 3.267194 7.4577913 5.50793 0.7197542
0.1699606 2.811903 0.3247002 0.78539103 8.459905 0.9334023 1.5977468 6.1545258
2.2952633 1.3076155 12.536757 0.08259805 1.6828024 2.3858702 1.1416024 0.23920926
3.700344 1.5143607 0.3743782 3.9320273 5.113323 4.8263054 1.3727574 2.5937612
1.729582 0.7714 0.020916704 3.3326073 3.1781733 5.2571926 6.54642 1.0708054
3.9226317 3.2542067 6.997188 0.7475314 2.0994787 4.0590363 1.2489567 1.2206252
3.5133507 6e-45 0.59702104 4.8639646 3.075257 0.21211825 9.527685 3.0779796
4.6250715 0.17097406 6e-45 6e-45 7.03742 3.0448382 1.9837551 4.6289973
6.0635962 1.3359605 2.5286694 4.1335526 0.15921848 6.896912 1.3093324 2.9440491
7.933488 10.945118 3.075724 5.1479883 2.1480343 0.24122709 0.8896926 2.1532283
3.7594817 1.1651372 1.1105884 3.1220102 0.10376275 2.3928978 1.1820126 0.3852764
12.207584 0.56813323 1.9421537 6.3584795 0.018904105 0.86342293 3.9145827 3.7047465
0.20898278 2.3396382 0.10449589 6.4828997 0.64147484 0.38059333 0.29233533 0.069140054
1.1791713 1.7845292 2.2752368 2.4122777 0.9082231 0.9322433 0.9044666 3.8993976
1.0012285 1.5460693 12.514918 1.4758766 0.6823338 1.8868883 9.0530405 3.256134
0.06841601 0.65285546 1.3226206 0.4300997 0.35111144 12.672365 0.73491037 1.6113203
0.26782647 0.045153067 2.760083 2.5604486 2.4354436 0.29114464 1.4348458 3.4969833
7.9289494 0.2952924 3.7944396 0.5931395 4.1409616 0.9608035 1.7373924 1.546113
0.82135993 0.13701151 0.34120345 0.46648616 2.3172672 2.9390311 1.8299718 12.049621
0.12749705 0.81405306 0.14696307 0.46174204 10.628473 3.4175558 1.7794334 9.538167
1.2534395 6.17771 4.3615584 0.2328905 3.1593103 1.0713297 1.043801 1.3327214
0.26167035 0.3589064 7.120051 1.6945072 0.78893477 0.051332913 6e-45 3.5407307
0.3411356 2.1745536 1.1570895 1.160738 3.0132635 3.472017 1.6912373 0.032538153
0.013393148 4.6126776 2.445618 3.1519902 1.3071364 0.51546323 1.8494209 0.4231702
0.35634732 1.7768527 6e-45 0.12437662 0.4576859 17.720129 2.6008048 2.1754117
6.4226584 3.0454278 6.0484843 0.39155903 1.2423702 4.013662 0.86182183 0.067920685
0.09564302 2.8197007 7.4275837 10.50513 0.38776755 0.7835957 6e-45 1.5112995
00000000: 6114 a83f 9988 7740 deb1 9340 0ddd 2c40
00000010: a799 a53f 0400 0000 2b11 913f 2e45 3b3f
00000020: cf50 9e40 e33a f03d 53d8 853e ab9f e240
00000030: e7da 4f40 7096 9e3f b4cb 4d40 53f4 393f
00000040: b640 ee40 d2f8 3e3e d28c 383d 8c35 4f40
00000050: 5d22 8641 2d87 a440 121b 3940 762a 2b40
00000060: 302b 1040 68cb ac40 d754 ac40 1204 9f3f
00000070: e3d6 6540 952d d63f 40fe 9d3f 369c cb40
00000080: e41f 483f 3a0a 0040 8a1b ab3c bc92 be3f
00000090: 1b04 a63f 5e15 9d3f 2d63 763e 1a2a 4440
000000a0: 0b77 eb40 8275 5c40 07bd aa3f a3b1 0940
000000b0: b519 5140 3aa6 ee40 f640 b040 d041 383f
000000c0: 270a 2e3e 38f6 3340 1b3f a63e 630f 493f
000000d0: c55b 0741 74f3 6e3f f882 cc3f e0f1 c440
000000e0: 98e5 1240 f25f a73f 8f96 4841 2b29 a93d
000000f0: 1266 d73f 19b2 1840 0720 923f 46f3 743e
00000100: 70d2 6c40 92d6 c13f 80ae bf3e 56a6 7b40
00000110: 58a0 a340 1871 9a40 84b6 af3f 2f00 2640
00000120: f162 dd3f 787a 453f 8259 ab3c 7049 5540
00000130: 3167 4b40 ec3a a840 467c d140 2710 893f
00000140: 660c 7b40 ec44 5040 f7e8 df40 385e 3f3f
00000150: dc5d 0640 a0e3 8140 d0dd 9f3f 723d 9c3f
00000160: bdda 6040 0400 0000 5fd6 183f 99a5 9b40
00000170: 03d1 4440 8735 593e 6671 1841 9efd 4440
00000180: 9600 9440 d313 2f3e 0400 0000 0400 0000
00000190: 8b32 e140 a1de 4240 b0eb fd3f bf20 9440
000001a0: fb08 c240 c100 ab3f b8d5 2140 1046 8440
000001b0: 2b0a 233e 81b3 dc40 3498 a73f 4d6b 3c40
000001c0: 22df fd40 341f 2f41 a9d8 4440 52bc a440
000001d0: 6579 0940 3c04 773e e5c2 633f 7ece 0940
000001e0: 599b 7040 3723 953f c327 8e3f 04cf 4740
000001f0: 9181 d43d 3d25 1940 304c 973f f342 c53e
00000200: 4452 4341 2e71 113f 7e98 f83f aa78 cb40
00000210: c8dc 9a3c 4909 5d3f 8688 7a40 911a 6d40
00000220: 95ff 553e a2bc 1540 f101 d63d ea73 cf40
00000230: b237 243f 21dd c23e faac 953e 4d99 8d3d
00000240: 16ef 963f 746b e43f 7b9d 1140 c262 1a40
00000250: 4f81 683f 7fa7 6e3f 208b 673f bb8f 7940
00000260: 4128 803f 99e5 c53f 1b3d 4841 86e9 bc3f
00000270: 6ead 2e3f 8e85 f13f 41d9 1041 8064 5040
00000280: b11d 8c3d 8921 273f a24b a93f 0736 dc3e
00000290: e1c4 b33e 02c2 4a41 1623 3c3f be3f ce3f
000002a0: 8d20 893e 6cf2 383d 33a5 3040 64de 2340
000002b0: 4fde 1b40 e910 953e 07a9 b73f 93ce 5f40
000002c0: f4b9 fd40 9130 973e 19d8 7240 fed7 173f
000002d0: c282 8440 38f7 753f e062 de3f 08e7 c53f
000002e0: a544 523f bf4c 0c3e 38b2 ae3e 46d7 ee3e
000002f0: 1b4e 1440 1619 3c40 843c ea3f 3fcb 4041
00000300: 968e 023e c865 503f 7d7d 163e 7469 ec3e
00000310: 3a0e 2a41 3cb9 5a40 79c4 e33f 559c 1841
00000320: b570 a03f cdaf c540 e391 8b40 d97a 6e3e
00000330: 2432 4a40 5521 893f 459b 853f 9d96 aa3f
00000340: a8f9 853e 94c2 b73e 75d7 e340 9de5 d83f
00000350: a1f7 493f 7642 523d 0400 0000 559b 6240
00000360: 53a9 ae3e e32b 0b40 821b 943f 1093 943f
00000370: 4fd9 4040 8735 5e40 777a d83f ba46 053d
00000380: ef6e 5b3c 0e9b 9340 0185 1c40 35ba 4940
00000390: 3f50 a73f 66f5 033f d3b9 ec3f c4a9 d83e
000003a0: 2873 b63e e96f e33f 0400 0000 2bb9 fe3d
000003b0: ce55 ea3e d3c2 8d41 9673 2640 f239 0b40
000003c0: 6b86 cd40 4ae8 4240 2f8d c140 6d7a c83e
000003d0: fd05 9f3f eb6f 8040 5ba0 5c3f 001a 8b3d
000003e0: 7de0 c33d fa75 3440 c4ae ed40 0315 2841
000003f0: 7889 c63e ba99 483f 0400 0000 4372 c13f
