checkpoints/maddpg_per/maddpg_per1_checkpoint_actor_target.pth (torch, 166151 bytes, 10 tensors)

fc1.weight f4 [256, 24]
00000000: 1f9a 05bd c26d 353f f4dd 8bbb f4a6 143d
00000010: f226 013d 8720 e3be 6836 81be b8ad 913d
00000020: cb19 403e 7cc4 ec3e 1178 dc3d 79b4 b6be
00000030: f0f2 44be 3966 c6be 1d6b ae3d 8b09 99be
00000040: a171 4f3e caad a43e e6b5 9fbd 859e 13bf
00000050: 62c1 13bf 79d8 e0be 6bf4 88ba 1023 cebe
00000060: 63e1 4c3e 1179 c7bd 270d f03d 734f 383f
00000070: e53e debc ccc1 b8be a9f5 303d 6910 653f
00000080: e7a1 c33e d984 1c3e af58 6e3d 49b1 403f
00000090: 8113 933d 44d5 70be d22a f13d 7966 3e3f
000000a0: 28df 883e 6cb4 fa3d 01a7 23be b679 ef3e
000000b0: 8104 a03d 2cad 1cbd e4b6 d9bd 8fc6 633e
000000c0: 4786 253e 5659 44bd 5beb 23be b093 b83e
000000d0: 5a0a e13c 56de 943e bba6 14bd a258 b53e
000000e0: ab21 3d3e 18b8 b73d 797e 24bd 3269 413f
000000f0: 74ee f0bd 0557 383f db59 dabd f7ab 373f
00000100: caea ae3e 57cd 823e 9c19 8fbc 6224 a23e
00000110: 5a1c 70be 3d06 1d3f ca99 94bc 39ee be3e
00000120: bb6f 943d d99d 3cbe c67b 613d 3ebd 06bf
00000130: 6c2c e3be 72cc 3ebe 2ce3 e83d f7b8 0ebf
00000140: 137b 5f3e 0aa7 34be 10f6 8bbd 8de5 9e3d
00000150: e1af eabe 6e57 b83d c732 edbd f0a2 f13d
00000160: 8295 cb3d cdca e0bd 5222 36be b259 c23d
00000170: 4b5e f1bd 495e 023f 4e75 4ebe 1751 803e
00000180: 88b3 bfbe e41c 43bf 0440 383d ec5a fc3e
00000190: 8205 8fbe 44a5 d0be b274 5fbd 938d eb3e
000001a0: d34b 24be bedb 1dbf ef7c cebc a758 093f
000001b0: 2292 0a3c 0291 49bf 70f4 48bd 09da a43e
000001c0: f561 113e c58a c6be e705 763d 77a3 e03e
000001d0: 8284 203e a98a 66bf 3a52 7b3c 7633 a13e
000001e0: ddd6 c73e d1f8 de3c 7da8 6e3d ca2d 4fbc
000001f0: 9337 96bd c1d6 d63b 0f22 08be 5064 c2bd
00000200: de69 b63e 0e85 f0bd 39f0 b9bd eeac a3bd
00000210: 8a84 823d fae6 a7bd e012 133c 13df fd3d
00000220: 26b4 d23e 5d6b e43d 2d5b 213d 0f02 713b
00000230: 3b0b a03b 6f41 40be 204e 80bd a260 6b3d
00000240: 5a4b e43e c021 063f b43a 29bd 8ec9 adbd
00000250: dcdd 12bf 1894 d1be 0b4e 48be 2327 033e
00000260: a00e b33e 865c 5b3e ed07 be3d 105e 8ebe
00000270: 88e6 fbbe be38 ecbd e22a 133d 79c2 7dbe
00000280: 27aa f73e 075d e53d 0e85 3dbd b654 9dbe
00000290: 0dfc d8be 137c ac3b c39e 803c 446d 8dbd
000002a0: 982d 03bd 8076 98be 9d0f 9a3d 38f0 e03c
000002b0: 7555 80bf 1767 09bf 5678 89bd fee6 453e
000002c0: a450 463e 8a13 01bf e633 82bd fd99 ed3b
000002d0: 26cb 34be ea4a cabd 024c c63d 80a7 e73d
000002e0: 9a3e df3e ec42 d4be d5fc 1cbc d612 a13d
000002f0: 3b35 0f3f befe ff3c 4268 833d 4cde 2b3e
00000300: c975 84bc f8dd aabd b56d 3dbc 4f35 f4be
00000310: 9ecf 333d 4133 9f3e c7af 863c 4dc0 bcbe
00000320: bb79 a13d fd27 79be 56a8 a1bd afb1 2c3e
00000330: 5a5c 043f 807e 363e 5c86 73bd c926 8fbc
00000340: 9571 bfbd 6062 8cbd e156 003e 2599 10be
00000350: 4080 4f3f 5b0e acbe 8c3d e03d 9614 b4bd
00000360: 285b a33e 2cda f6be 3e02 933c ee5b f5be
00000370: 4771 dd3d d235 c5bd 3c4c ddbd 992b 95be
00000380: ef0d 013f e08b cbbe 1443 32be 0dd8 33be
00000390: 6899 29be 0b0d 5abd 0cad aabd bc4d f0bc
000003a0: 5399 4a3f 3a44 ffbe cf50 f6bc 56dc 673e
000003b0: 22a5 7ebe 4a1b cf3d 9c64 58bd fa46 e63c
000003c0: 5570 823e cde5 ee3e 5a40 fc3d 8d0d 763d
000003d0: e7d3 c6be ab35 a0be a2e0 80bd d545 1b3e
000003e0: faa1 6f3f 541c f33e 40d7 1bbe 2764 3fbc
000003f0: 7ac7 9fbe 2bca c5be 3e69 343d e657 d23d
-0.032617684 0.708706 -0.0042684022 0.03629203 0.03153128 -0.44360754 -0.2523682 0.07113212
0.18759839 0.46243656 0.10765088 -0.35684565 -0.19233298 -0.38749865 0.08516524 -0.29890093
0.2025819 0.3216384 -0.07798366 -0.57663757 -0.57716954 -0.43915156 -0.0010448819 -0.40261126
0.20007853 -0.097398885 0.117212586 0.7199623 -0.0271296 -0.36085355 0.04320303 0.89478165
0.3820946 0.15285052 0.058190044 0.75270516 0.071814544 -0.23518854 0.117757455 0.7437511
0.26732755 0.12241444 -0.15981676 0.46772546 0.07813359 -0.038251087 -0.10630587 0.22243713
0.16164504 -0.04793676 -0.1600775 0.36050177 0.027470756 0.2907588 -0.03629182 0.35419184
0.18469875 0.0897066 -0.040159676 0.7555114 -0.11764231 0.7200778 -0.1066167 0.7174677
0.34163505 0.25547287 -0.017468266 0.31668383 -0.23448315 0.61337644 -0.018139739 0.37291124
0.072478734 -0.18419589 0.05504968 -0.5263251 -0.4436983 -0.18632677 0.113714546 -0.55750984
0.21824293 -0.17641845 -0.06834042 0.07758627 -0.4583731 0.09001051 -0.11581951 0.11798656
0.09940626 -0.10976181 -0.1778653 0.09489764 -0.11785563 0.5092512 -0.20161936 0.25061867
-0.3744166 -0.7621596 0.044982925 0.49288118 -0.2793389 -0.40751088 -0.05455465 0.4600645
-0.1604455 -0.61663425 -0.025206057 0.536509 0.008457692 -0.7873689 -0.04906124 0.32197598
0.14197524 -0.38777748 0.060064223 0.43874714 0.15675548 -0.9005533 0.015339429 0.31484574
0.39031115 0.027218254 0.05826615 -0.012645194 -0.07334819 0.0065563624 -0.13294242 -0.09491789
0.35627645 -0.11744128 -0.09079022 -0.07991968 0.06372936 -0.08198352 0.008976668 0.12396064
0.41153067 0.111532904 0.039393593 0.0036774909 0.0048841513 -0.18774961 -0.06264901 0.057465203
0.4458874 0.5239525 -0.04131575 -0.08485709 -0.5736978 -0.409333 -0.19561021 0.12807898
0.34972095 0.21422014 0.092788555 -0.2780614 -0.4919932 -0.1153426 0.035929568 -0.24781217
0.48372003 0.11199384 -0.04626947 -0.30728692 -0.423798 0.0052638142 0.015700703 -0.069056064
-0.032025903 -0.29777908 0.07522509 0.027458295 -1.002608 -0.5367293 -0.067124054 0.19326398
0.193667 -0.5042044 -0.06357555 0.007251023 -0.1765562 -0.0987757 0.09682466 0.11311245
0.4360245 -0.41457307 -0.009581764 0.07864921 0.559406 0.0312494 0.0641637 0.16784018
-0.016169446 -0.083431184 -0.011561801 -0.4769692 0.04389917 0.3109379 0.016441239 -0.36865464
0.07884546 -0.2433166 -0.07893436 0.16864656 0.5170342 0.17821693 -0.059454307 -0.017474549
-0.09347836 -0.06854701 0.12533142 -0.1412092 0.8105507 -0.33604702 0.10949239 -0.08792989
0.31905484 -0.48213327 0.017945405 -0.479217 0.108126216 -0.09629406 -0.10805556 -0.29134825
0.50411886 -0.39755154 -0.17408401 -0.17562886 -0.16562426 -0.053235095 -0.08333787 -0.029333942
0.79140204 -0.4985674 -0.03006783 0.22642645 -0.2486768 0.10112627 -0.052830324 0.028110016
0.25476328 0.466597 0.123169616 0.060071517 -0.38833544 -0.31290945 -0.06292845 0.15163358
0.9360653 0.4748255 -0.1521883 -0.011681593 -0.31206876 -0.38630804 0.04404568 0.102706715

fc1.bias f4 [256]
00000000: 5415 bfbe 1d2b 23bb b469 30bf 4ce4 04bf
00000010: 1a4e 56be 8ecd 99be cb7b 6fbe dbdf debe
00000020: 00e9 8fbe 2873 0cbf 997d 3abe 5b2c 25bf
00000030: 709d fcbd 5f5d c1be 22ea 0fbf d656 09bf
00000040: 0da5 87bf 0647 8ebe 7337 d8be dca9 bb3e
00000050: 2f1c c6bd a6e5 79be d972 0d3e f74f 2ebe
00000060: d543 44be 68a9 10bf f53f 53be d760 a7be
00000070: 9956 28be 7a35 3fbf 4b2d acbe 5d01 01be
00000080: 6e1d 5abf 957c 25bf b588 0abf d04c a7be
00000090: 31b4 08bf 6ca2 0ebf e1da a0bd 2e74 bbbc
000000a0: 1125 76bf 627c 34bf d0b9 fcbe 1de0 46be
000000b0: abad adbd 8017 2abe 9cab 04bf 1737 27bf
000000c0: fe14 89be dc7e 07bf 366d b0be 4476 37be
000000d0: 092c 90be ee2d e6be 15e4 0dbf b0bb 4abf
000000e0: 7478 d2be b66a 07bf b155 85bf 9e72 adbe
000000f0: 2ca7 ccbe 39ee 20be d865 e3be aaf0 63be
00000100: ca8b a7bd d90e 26be 92ef 9ebe e633 20bf
00000110: 9cb9 bbbe 2a97 86be c132 d9be 6dca 9bbd
00000120: 207a 0ebf 6b65 ccbe 579c fcbe 7aa8 01bf
00000130: f997 c3bd 5b1a 8abe 0c97 203e edf0 90be
00000140: 790c e3be 6e5d cabe abf6 a5bf d8d1 92be
00000150: c2e1 57be 4128 bdbe d186 88be ba72 dabd
00000160: 6cd3 f1be db70 bcbd 05c6 2abf 4ba9 f1be
00000170: d9bb c0be c5b9 fbbd 15ba 7fbe 8e24 fbbe
00000180: 6701 77bc cb68 babe a355 f4be a161 72be
00000190: 6c78 c5be 83ec d8be 956f d0be be6b 52bd
000001a0: 3046 ecbe d618 5abe 0b50 edbd 6139 8ebe
000001b0: f9a8 13be a040 48be 8367 ebbe 24e7 ccbe
000001c0: ca59 d2be 7680 aebe 2968 e8bd 3081 81be
000001d0: 57c4 bf3b 9e50 94be 7a8e 813c 14b7 cbbe
000001e0: 2ce9 5bbe 09db 25bf ab5a 99be aa06 743d
000001f0: b8d0 1cbf 125d 40be b184 2bbf 539f 21bf
00000200: 4a6e e2be 0960 2cbf bb62 0b3c a35b 1abf
00000210: 648f 29bf 48df febe baa4 a8be d6cb abbe
00000220: 96c0 c3be 4510 00bf 3fb5 2bbd cb24 a7be
00000230: 5c0f e7be 6f77 2c3e 4fed c4be 5950 41be
00000240: 8428 a4be 8579 9cbe f532 10bf 1e52 69be
00000250: 133c 48be c4f7 90be 105c 01bf 755e eabe
00000260: ec51 06bf 9c02 c6be 28c4 633b c431 07be
00000270: b298 4abf 6a11 083e d916 fb3d 47a7 51bd
00000280: eb10 20bf b476 81be 639e 35be a731 12be
00000290: 52df bbbe 1a17 ff3b 0962 08bf 03c4 2dbe
000002a0: bfb2 e1be 7a13 fcbe 1ca9 c8be 1f96 d5bd
000002b0: e91c 65be 0cde 86be c9ac d2be db62 fabe
000002c0: 96ae 20bf fca0 13bf ceaa 0fbf 0af9 8cbe
000002d0: a650 b4be b2bf e5be aa8e 25bf ebdd 13bf
000002e0: 495e 1ebf 758e 40be 1a16 bebe ca7c 94be
000002f0: f4f5 a8be 3a89 50be d980 2a3e d368 dabe
00000300: c007 83be 5f7d 8fbe acb1 91be 149d afbe
00000310: 9695 c8be 5555 dcbd 42ef d9be 4a71 22bf
00000320: c6e0 69be 795c d8bd b339 3ebe 3733 78be
00000330: 8e6c d0be a3e1 ccbe bfcb 28be 7314 4ebe
00000340: cf16 8fbe 8576 5dbf 72fc 08be 832b b1bd
00000350: 0def 5fbe 1957 02bf 4aa5 b0be f1ca cabd
00000360: f777 81be 322b 0ebf daed ebbe 0a27 5fbe
00000370: e1a7 c8be 0d0c 213d dc4f 7bbe cebe 01bf
00000380: 15a3 bdbe 106a 3dbf d7b1 08bf a1fe e3be
00000390: 177e 06bf a148 e3bd ff04 3abf f7b2 9dbe
000003a0: 6721 24bf fab1 39bf 531c 00bf 059d 62be
000003b0: 5e58 cdbe 918a 3d3e cd9f 3cbf b161 60be
000003c0: 517c b5be ebc6 e9be 9175 c73b 6fc4 eebe
000003d0: 6afb 8dbe a8db 5bbf 6a29 17bf e395 e0bc
000003e0: 919e 11bf 999d f3be 53e5 60bd 77b3 a4bf
000003f0: a37b b6be 7650 0dbd 6ab9 01bd 69bf 99be
-0.3732096 -0.0024897524 -0.6891129 -0.51910853 -0.20928231 -0.30039638 -0.23387067 -0.43530163
-0.28107452 -0.54863214 -0.18211974 -0.64520806 -0.12334716 -0.3776655 -0.56216633 -0.53648126
-1.0597245 -0.27788562 -0.42229804 0.3665303 -0.09673344 -0.2440401 0.13813342 -0.17022692
-0.19166501 -0.56508493 -0.20629866 -0.3269107 -0.16439284 -0.74690974 -0.33628306 -0.12598176
-0.85201156 -0.6464322 -0.5411485 -0.3267579 -0.5339995 -0.55716586 -0.07854248 -0.022882547
-0.9615031 -0.70502293 -0.49360514 -0.1942143 -0.0848039 -0.16610527 -0.51824355 -0.65318435
-0.26773828 -0.5292795 -0.3445832 -0.17916209 -0.28158596 -0.44956917 -0.5542615 -0.7919264
-0.41107523 -0.528972 -1.0416776 -0.33876508 -0.39971292 -0.15715875 -0.44413638 -0.22259775
-0.081809595 -0.16216601 -0.31042153 -0.6257919 -0.36665046 -0.26287204 -0.42421535 -0.07606969
-0.556551 -0.39921126 -0.49338028 -0.506477 -0.09550471 -0.26973233 0.1568262 -0.28308812
-0.44345453 -0.39524406 -1.2965902 -0.28675723 -0.21082214 -0.36944774 -0.26665357 -0.106664136
-0.47231615 -0.09201213 -0.66708404 -0.47199473 -0.37643316 -0.12291292 -0.24973328 -0.49051327
-0.015076018 -0.36408076 -0.47721586 -0.23670055 -0.38568437 -0.42367944 -0.4071013 -0.051372282
-0.461473 -0.21298537 -0.115875326 -0.27778152 -0.14419927 -0.19555902 -0.4597741 -0.40020096
-0.4108413 -0.34082383 -0.11347992 -0.25293875 0.005852263 -0.28967756 0.015815008 -0.39788115
-0.21475667 -0.64787346 -0.29951987 0.059576668 -0.6125598 -0.18785504 -0.66999346 -0.63133734
-0.4422477 -0.6733404 0.008507426 -0.60296077 -0.6623442 -0.49779725 -0.32938176 -0.33553952
-0.3823287 -0.50024825 -0.041920897 -0.32645258 -0.45128906 0.16842435 -0.38462302 -0.18878306
-0.3206216 -0.30561462 -0.56327754 -0.22785231 -0.19554166 -0.2831403 -0.505311 -0.4577519
-0.5246875 -0.38673866 0.003475437 -0.13202578 -0.79139245 0.13287893 0.12260217 -0.05118492
-0.62525815 -0.25285876 -0.17736201 -0.14276753 -0.36693817 0.0077847363 -0.5327459 -0.16969304
-0.44081685 -0.4923361 -0.3919152 -0.10429024 -0.2237431 -0.26341283 -0.4114745 -0.48903546
-0.62766397 -0.5766752 -0.5612 -0.27533752 -0.3521778 -0.44872814 -0.64670813 -0.57760495
-0.6186262 -0.18804343 -0.37126237 -0.29001456 -0.33000147 -0.20364848 0.16650714 -0.426581
-0.2559185 -0.28025338 -0.28455865 -0.3429953 -0.39176625 -0.10758463 -0.42565352 -0.63454115
-0.2283965 -0.10564513 -0.18576698 -0.24238287 -0.4070782 -0.40015897 -0.16483973 -0.20124988
-0.2794709 -0.8650897 -0.1337755 -0.08650877 -0.21868534 -0.5091415 -0.34501106 -0.09901989
-0.25286838 -0.5553466 -0.46079904 -0.21792236 -0.3919058 0.039318133 -0.24542183 -0.5068177
-0.37038484 -0.73989964 -0.5339636 -0.44530204 -0.5253615 -0.11097837 -0.72663873 -0.30800602
-0.6411347 -0.72537196 -0.5004322 -0.2213021 -0.4010648 0.1850989 -0.73681337 -0.21912266
-0.35446408 -0.45659575 0.006087013 -0.46634242 -0.27730876 -0.85882044 -0.5904757 -0.027415222
-0.5688258 -0.47581175 -0.0549062 -1.2867268 -0.35641202 -0.03450056 -0.031670965 -0.30028847

fc2.weight f4 [128, 256]
00000000: 5bf4 84bd 3066 bebe efa7 00bf 9bc3 33be
00000010: 70c0 5f3e c441 d5bb 619a 7abd b160 753d
00000020: f563 8abd b29a 133e fd53 adbe 4eb2 4ebe
00000030: 5c4b 533e dcfd 16bf 3406 e43e 58eb 4b3e
00000040: b503 debd b598 803e a8d8 923e 630f 363e
00000050: 14a4 a4bd bddd 443b 2454 c4bd 910b 8dbe
00000060: cae0 6abe 2641 dc3d 375f ccbe 9612 3b3e
00000070: ee49 9c3e fbc1 10be 7838 ea3d 2ee9 263e
00000080: 5003 573d 4143 87bd b268 133e 9be7 233c
00000090: ae32 103e 0f9b 0e3d 3d27 c83d 65a4 84bd
000000a0: 78c5 08be ab0d 643e 7c1a 13bd 5722 2a3e
000000b0: f88c 7b3e d520 453e 240f f2bc 4eb8 95bc
000000c0: f42b 8e3e b439 85be d8af 613e a79d be3d
000000d0: 2b80 3cbe 896c 86be 3953 c23c 9a5b d43c
000000e0: 6e4c 7bbd f680 99be ec44 903d 51aa aabd
000000f0: 3b2f afbd 65f6 543d b114 a9bd acc3 2e3e
00000100: e63f 863d c4e1 dbbc b06d dc3e 3019 673d
00000110: be39 27bf 1c62 ac3c fa2d da3e fb65 a63e
00000120: b555 9b3c 5b21 66bd 0783 b1be 303d babe
00000130: 47f2 8f3e d849 313d fda6 d0be 2356 95bd
00000140: 832b dabc 5c38 243d fa88 9dbe 6930 023e
00000150: 1da4 803e 8cea 5a3d 7a6c 95bd 0e33 29be
00000160: d5f7 89be b3e6 1dbc bac8 ec3c 8cfa 89bc
00000170: 5052 1bbd ef21 7f3d 07d9 a43e 00f5 0f3f
00000180: b9e8 ad3e dc93 a33d f775 aa3c 55f9 edbe
00000190: 2ef4 843b 3c28 8ebd eab0 4a3e 8d33 c3bc
000001a0: 76e3 5b3d 96c8 223d b68a 0fbe ce45 f43d
000001b0: f288 7c3e ad62 083f e621 30be 33b1 553e
000001c0: ee02 143e d4d2 c2bd a1fc bfbe 379c 33be
000001d0: 8f69 883d f93f bebe 37f3 06bd 8b68 07bc
000001e0: 48ce 83be c672 13be 0ca9 943e 531f 583e
000001f0: c79a 4fbe 0ce9 873d f7a3 a33e a061 66be
00000200: 6dc6 ef3e 22b6 ecbc 8638 9f3c 672d acbe
00000210: cbfa 84be d322 adbe d471 423e 9641 963e
00000220: d67e 0abe 0617 b0bd 87ef 8a3e 3ee8 143e
00000230: 00b3 62be 3d42 073e 73db fa3d 7a4e f53e
00000240: af93 25be 68f6 b83c 1ea4 91be d2f0 603e
00000250: 5b53 b3be d1c1 5bbc 8c5d 033e 5a34 98be
00000260: 31ea 7e3d 3c64 94bc 150b b0bd 08eb f3bd
00000270: 003a 963d 2580 c0bd 2d10 333d 57f0 483e
00000280: 3135 b83e efb2 29be 3f80 51be f9af be3d
00000290: 92d9 2dbe 159b 7cbe 9048 eb3d d0d8 cabd
000002a0: 8777 e63e d25b b33e 7563 3dbc 8004 2a3e
000002b0: 5ebc 8e3d aa52 17bd c0ec d9bc 7f17 3cbf
000002c0: 36cd 6ebe ba80 03bf db9d c93d a84e 6cbe
000002d0: 3a9f 32be 8fa0 89bc 89b4 e7bd 8356 85be
000002e0: f2cb 1e3d 64b4 b13e 993d 663e 9783 99be
000002f0: ce30 543e 3dd3 12be 04e8 5f3e fff0 8e3d
00000300: 4e3e c53d 4c1b f43e 2443 c73d 9fd3 1cbf
00000310: 249b 983e cc06 81bd 6001 7dbd c553 14be
00000320: 1727 033e 5456 253e fcd7 cd3d c4c3 983e
00000330: 4cef 46bd 3f0b c5bd fc9d c03e 3913 703e
00000340: fe63 40bd 5b44 c9bd dc76 0a3e 02f3 253e
00000350: bdd0 9d3e f7c6 303c f2b2 bcbe fc9f b8bd
00000360: 4a11 bd3d 5bdd d43e acb8 bfbd 3a50 643d
00000370: 5424 4fbd bc5e b0bd 026d 6a3d 6661 a63e
00000380: 0302 70be 6dd2 babe f817 2f3e 9963 3bbe
00000390: f2a7 73bd da63 cc3e 92ed e8bd ea37 54be
000003a0: 2c88 9abe ae61 acbe 81e0 7ebe 6d71 6a3e
000003b0: 14b9 423e a02d a73e 1f55 90bd 692c 22bf
000003c0: dd1b a5bd e669 b63d dfe8 66bb 4579 6a3e
000003d0: 405e 123e 14da 17bf 0aed 56be 37c0 d43e
000003e0: 8af2 063e 66a6 953e 715c 713e 5801 0a3d
000003f0: 1c90 91bd 705c 9c3d bc39 8dbd e89b 3b3e
-0.064919196 -0.37187338 -0.50256246 -0.17555086 0.21850753 -0.006508084 -0.061182383 0.059906665
-0.067573465 0.1441448 -0.3385314 -0.20185205 0.20634216 -0.5898111 0.44535983 0.19913995
-0.10840551 0.25116506 0.2868092 0.17779307 -0.08039108 0.0030039393 -0.09586361 -0.27547887
-0.22937313 0.107546136 -0.39916393 0.18268809 0.30525154 -0.14136498 0.11436552 0.16299888
0.052493393 -0.066046245 0.14395407 0.0100039495 0.14081833 0.034815844 0.09773109 -0.06476668
-0.13356578 0.22270839 -0.03591393 0.16614662 0.24565494 0.19250806 -0.029548235 -0.01827636
0.2776791 -0.26020586 0.22039735 0.093074135 -0.18408267 -0.2625468 0.023721324 0.025922585
-0.061352186 -0.29981202 0.07044396 -0.083332665 -0.0855393 0.051992793 -0.082559 0.1706683
0.065551564 -0.026841052 0.43052435 0.056420505 -0.6532248 0.021042876 0.42613202 0.3249968
0.018961767 -0.056184154 -0.34670278 -0.36374807 0.2811453 0.043283314 -0.40752402 -0.0729182
-0.026632076 0.04009281 -0.30768567 0.1271378 0.25125208 0.053446338 -0.07296081 -0.16523382
-0.26946893 -0.0096375225 0.028904308 -0.016843103 -0.037920296 0.06228822 0.3219683 0.56233215
0.33966616 0.07987186 0.020808203 -0.46479288 0.004057429 -0.06941268 0.1979405 -0.023828292
0.05368372 0.039742075 -0.14017758 0.11927377 0.24661615 0.5327557 -0.17200431 0.20868377
0.14454243 -0.095128685 -0.37497428 -0.1754006 0.06660759 -0.37158182 -0.03294679 -0.008264671
-0.25743318 -0.14399251 0.29035223 0.21105699 -0.20273887 0.06636247 0.31961033 -0.22498178
0.46831074 -0.028895441 0.019436132 -0.3362839 -0.2597259 -0.3381563 0.18988734 0.29346913
-0.13524947 -0.08598141 0.2713587 0.14541718 -0.22138596 0.13208862 0.12248888 0.47911435
-0.16169618 0.022578433 -0.28445524 0.21966866 -0.35024533 -0.013412909 0.12828654 -0.2972744
0.06223506 -0.018114202 -0.08595864 -0.11910063 0.07335281 -0.09399442 0.0437166 0.19622932
0.35978082 -0.16572164 -0.20459078 0.09310908 -0.16977528 -0.24668534 0.114884496 -0.09904635
0.45013067 0.3503099 -0.011559357 0.16603279 0.06969522 -0.03694407 -0.026602149 -0.7347335
-0.2332047 -0.51368296 0.09844562 -0.2307688 -0.17443553 -0.016800193 -0.11313731 -0.26042566
0.038768716 0.3470794 0.22484435 -0.29983208 0.20721743 -0.14338394 0.2186585 0.0697956
0.09631024 0.47677076 0.09729603 -0.6126041 0.29805863 -0.063001245 -0.06176889 -0.1448508
0.1280788 0.16146213 0.100509614 0.29836857 -0.048568055 -0.09621286 0.37620533 0.23444833
-0.04697036 -0.09827491 0.13521904 0.16205981 0.30823317 0.010789624 -0.36855274 -0.090148896
0.09231813 0.4157513 -0.09361395 0.055740573 -0.050571755 -0.08611819 0.057232864 0.32496184
-0.23438267 -0.36488667 0.17098987 -0.18299712 -0.059486337 0.3991993 -0.11373438 -0.20724455
-0.30182016 -0.33668274 -0.24890329 0.22894831 0.19015914 0.32651997 -0.070474856 -0.63349015
-0.08061955 0.08906917 -0.0035234017 0.22897823 0.14293766 -0.59317136 -0.2098886 0.41552898
0.13178459 0.29228514 0.2357042 0.033692688 -0.07107565 0.076348186 -0.068957776 0.18321192

fc2.bias f4 [128]
00000000: 4bbb 83be 58db 26be 7be7 85be a029 d6be
00000010: 81cb 36be 4adf b4be 3c3b 9dbd ed8e 1abe
00000020: 5761 97be 6fb2 e5bd b872 27be a7fa 87be
00000030: 9598 9fbe edeb 2ebe dd94 2dbe 028b 05bf
00000040: 5b89 f7bd 08bf 21be 852f 45be 8bc5 88be
00000050: 99fd b0be 96a0 08be 8ec3 98be acf6 01be
00000060: a7d3 a1be 62ad 84be 4e6a 28be 28c8 62bd
00000070: 0eab 09be b6a1 f1be 4a7f 4ebe 94bf 31be
00000080: e3be babe 94a0 9cbe 12fa 8bbe 139a 90be
00000090: 9bd3 64be e1b6 d0b9 9fbf 0dbe 05ec b7be
000000a0: ee4d cebd 098b bdbd 3f84 82be 4780 28be
000000b0: 2654 bebd 9abf febd cdfa e9bd bb8c adbe
000000c0: 3153 91be 0621 ca3b e1d6 d0bc 1b75 37be
000000d0: 2944 a4be bbfe c8be 3088 3dbe abcb 2fbf
000000e0: c123 3cbd 862a 5dbe e7d9 09be 64ba d6be
000000f0: 7197 58be ced9 8dbe 3951 d5be b382 8dbe
00000100: 87f3 cdbe b279 19be fa1c 4a3d 8e25 a5bd
00000110: c0c9 d5bd 4080 53be 7850 6cbd 8c16 05be
00000120: caac 48be 5dc8 34be 6353 35be 7868 2fbe
00000130: 6634 dbbe 2bc1 6dbe 3807 ffbd de3f 81be
00000140: f995 8abe 0352 01bd d44a 9dbe 2299 2abe
00000150: b06f 5bbe e5f1 c9be 8e76 6cbd 434a 00be
00000160: d0ea 06be 322f fbbd 534e 8dbe 523e 8cbe
00000170: 304b a63d 046e 1dbf 222c 96be 596f a7be
00000180: 3dd1 46be 5ee6 68be 91e8 a5be 31cc 1abe
00000190: b9dd efbe 566f 7cbe 7bb8 e8bd 2919 88be
000001a0: 76cb 42be e340 a0be fd3a 32be 7e29 4ebe
000001b0: 048d 87be e6b3 95bd 8bdf 0cbe 359c a4bd
000001c0: 0f9a 7ebe b2c1 c5bd 463e 4abe cec5 36bf
000001d0: 0631 63be 325a 0fbf 8d76 bbbd 8246 7cbe
000001e0: 6295 5c3d 449e b9be 9a1d e5be b4cc e2be
000001f0: fc7a 8bbe bb78 69be 38e6 20be 8f73 c3be
-0.2572883 -0.1629461 -0.26153168 -0.41828632 -0.17851068 -0.35326606 -0.07677314 -0.15093584
-0.29566452 -0.11215674 -0.16352355 -0.2655842 -0.31171098 -0.17082186 -0.16951318 -0.52165234
-0.12086745 -0.15795529 -0.19256409 -0.26713213 -0.3456848 -0.13342509 -0.29836696 -0.12691754
-0.3160679 -0.2591353 -0.16446802 -0.055366665 -0.13444158 -0.47193688 -0.20165744 -0.17358238
-0.3647376 -0.3059126 -0.27339226 -0.2824255 -0.22346346 -0.00039809107 -0.13842629 -0.35922256
-0.10073458 -0.092550345 -0.2549152 -0.16455184 -0.09293394 -0.12438889 -0.114247896 -0.3389643
-0.28383783 0.0061684875 -0.025493087 -0.17915766 -0.32083252 -0.39256844 -0.18508983 -0.6867015
-0.045932535 -0.21598253 -0.1346203 -0.4193908 -0.2115152 -0.27705234 -0.4166353 -0.27638778
-0.4022486 -0.1498783 0.04934404 -0.080638036 -0.104388714 -0.20654392 -0.05769393 -0.12996882
-0.19597164 -0.17654558 -0.17707591 -0.17129695 -0.42813414 -0.23218219 -0.12452549 -0.2524404
-0.27067545 -0.031572353 -0.30721152 -0.16659978 -0.21429324 -0.39442363 -0.05773025 -0.12528329
-0.13175511 -0.12264861 -0.2759882 -0.27391297 0.0811981 -0.61495996 -0.29330546 -0.3270214
-0.19415756 -0.22744128 -0.32403997 -0.15116955 -0.46848848 -0.24651846 -0.11363312 -0.26581696
-0.19022927 -0.31299505 -0.17405315 -0.20133016 -0.26474774 -0.073097035 -0.1375715 -0.080376066
-0.24863456 -0.09656085 -0.19750318 -0.71395576 -0.2218667 -0.55997 -0.09153471 -0.24636272
0.0538534 -0.3625356 -0.44749147 -0.442968 -0.27242267 -0.22799961 -0.15712821 -0.38174102

fc3.weight f4 [2, 128]
00000000: 89c0 e53e 5489 afbd 7901 8d3e b13c 65be
00000010: c144 d2be 10a2 d13c cb31 debd 2ba5 63be
00000020: 52d7 f4be e589 02be f868 a13e 42ac 99be
00000030: fa03 05bf 4f9b 58be 5517 09be 7697 ea3e
00000040: c4ed b83e 0c3d 2ebd b201 8c3e 44ec 67bc
00000050: d299 683e deab f03e 3d1a 703e 932e 2d3d
00000060: fb43 87bd fc08 7d3e 5974 2d3d 2c1b 63be
00000070: 10f8 3cbe aa6d f03e d394 163f fec4 a8be
00000080: 0b05 0bbf 403f acbd e421 303f 8ce5 00bf
00000090: 3b27 8fbe 5734 9cbe ce20 dcbe ea63 23bd
000000a0: a7a9 a2be 36ba 653e faf7 be3e 653f a43e
000000b0: 2d07 ce3e 1133 da3e 8138 683d ee26 27bc
000000c0: 69ef 873d 2c8b eebe 5893 aebe 2c59 7e3e
000000d0: 3aae a1bd d31f cc3e 2b27 a7be 2798 f53e
000000e0: 6613 bfbe 99c1 fc3e a038 fc3e b602 0f3f
000000f0: f9fa 5fbe 12d3 333d b8de 973e b5b6 22bd
00000100: 753e 84be 4fd5 cdbe 2220 683d e542 e93e
00000110: 6401 a8bd 4e43 093e d0f9 43bd 8ce5 0ebe
00000120: 687c f3bd ae86 4bbe 156e 75be 436d 96be
00000130: 6852 243f 6fc6 123e e2d8 b6be 215e 43bd
00000140: 6ce5 f63e c839 1f3e e1a8 143e 1a49 47be
00000150: bbc4 023f 97dc 563f a8ca c73c 3091 49be
00000160: d5e4 2a3e bd99 6e3e 75a2 aabe 89c7 13bf
00000170: 94a5 ad3b 0b39 c83c 46a8 77be 6a06 083e
00000180: 703c cfbd 68ea 2a3e cbd5 1d3e 1f5a 88bd
00000190: 8dbf 8a3e 01b7 e13e b355 f8bc 94a9 303d
000001a0: e213 94be 2540 673e 283c f0bd aeef a43d
000001b0: 1c21 dc3e bedc 75be a658 81bc a9e7 0f3d
000001c0: 8dbf 873e 0918 8fbd 1247 b93e b1d4 ea3e
000001d0: a43c 683e 243a 1d3f d109 d4bd 3f13 a13e
000001e0: fcce ecbc 2e71 f93d 012a be3e 3990 f13e
000001f0: e0cf 62be 75c2 c6be a1b4 42be ecf9 20bd
00000200: 711c ba3d 792b 7bbe 0852 3c3d 696d a93e
00000210: 5d4f d03d 1730 01bf 621f 01bf 695d 43be
00000220: 799d 323f 2dcf babe 329a 633e df54 1e3e
00000230: 7ccc 553d 9957 98be d0ae 05bf 965b 1b3e
00000240: eecf e1bd c69a 0cbf edfd e4bd d454 383e
00000250: 99a4 9f3e cea5 1d3e 0b08 133e d31c e0be
00000260: 66b4 a9be 0697 32bf eda3 143f 4d81 b53a
00000270: dd7a 813e b3b2 81bd eb58 163e c942 d6be
00000280: 73ce b93b 2b19 c8be 7cea b93e 738c 82be
00000290: 3504 98bc fdea 613d 8cb1 f1bc 994e 5f3f
000002a0: 1021 f1bc 869c 123f bca3 c2bc 1b5c 0d3e
000002b0: 0e2e 0a3e 5baf d13c 3aa1 b83e 5fa1 51bf
000002c0: c297 1abf fed7 01bd 34b1 173c 9495 463e
000002d0: 47af 923e 11b8 8cbe e927 30bf 2578 dabe
000002e0: 2628 7dbd 2af3 b8bc 94ab bdbc 90f7 1b3e
000002f0: 7935 063f d942 b5be 52cf 513f c90a fc3e
00000300: 808b 123e b959 78be 6916 c03e 0d9b cdbd
00000310: 00b6 113f 673e e53e 4a3f 4b3e 7953 30be
00000320: 9290 21be 8017 76bd 719f 543e af87 3b3f
00000330: d064 55bd 0306 84be e3f0 03bf 5dba 143f
00000340: ab38 a2bd e30d a8bd 30a7 403f 66b2 afbe
00000350: 55fb e13e 46e6 273e 7d7f c73e 2420 143e
00000360: 6112 cf3e bbbc acbe fa1d 21be 5c24 f7bc
00000370: 3d16 0c3f ba16 1e3f 8f72 b2be cc8a 2dbf
00000380: 8b6c b53d 9d64 48be c1ec 97be 2191 9cbd
00000390: 8f46 8b3d f2ef 623e 36f4 313f f18b 703f
000003a0: da6f fcbe 0d04 50be f772 b4bd 084d 083f
000003b0: 3dbc 2dbe 6c08 e73e 2b54 22bf 41c3 63be
000003c0: c933 bebe 1ff8 0cbf fa91 c83e 6b88 b6be
000003d0: 76fd 043f c8c0 d3be 3439 193f 1b14 b0bd
000003e0: 7c37 27bf 94f4 993e 6e72 ae3e 41b5 debd
000003f0: cf75 213e 8424 e9bb e8cd b1be 821d 82be
0.44873455 -0.08571115 0.27540186 -0.22386433 -0.4106808 0.025589973 -0.10849341 -0.22230975
-0.47820526 -0.12747915 0.31525397 -0.30014235 -0.5195919 -0.21152996 -0.13387807 0.4581868
0.361189 -0.042538688 0.27345043 -0.014155451 0.22714928 0.47006124 0.23447509 0.042280745
-0.06604763 0.24710459 0.042347286 -0.22178334 -0.18454003 0.46958667 0.5882084 -0.32962793
-0.5430457 -0.084105015 0.68801713 -0.5035026 -0.27959618 -0.30508682 -0.42993778 -0.039890207
-0.3177006 0.22434315 0.37298566 0.32079616 0.4023985 0.42617086 0.05669451 -0.010202153
0.06637461 -0.46590555 -0.3409679 0.24838704 -0.07894559 0.3986803 -0.3264707 0.47967646
-0.37319487 0.49366453 0.4926195 0.5586351 -0.21873082 0.043902464 0.29662108 -0.039725024
-0.258289 -0.40201804 0.05667127 0.4555885 -0.0820339 0.13404581 -0.04784566 -0.13954753
-0.11888963 -0.19875595 -0.23967774 -0.29380235 0.6418824 0.14333509 -0.35712343 -0.04769719
0.4822191 0.15549386 0.14517547 -0.1946148 0.51081437 0.83930343 0.024388626 -0.19684291
0.16688855 0.23300834 -0.3332707 -0.5772634 0.0052992795 0.024441263 -0.24185285 0.13283697
-0.101189494 0.16690981 0.15413587 -0.06657814 0.27099267 0.44084933 -0.030314302 0.043130472
-0.2892142 0.22583063 -0.11730224 0.08053528 0.4299401 -0.24009988 -0.015789341 0.035133038
0.2651333 -0.06987006 0.36187035 0.45865396 0.22679383 0.6141684 -0.10353435 0.31459996
-0.028907292 0.121797904 0.3714142 0.47180346 -0.2214961 -0.38820234 -0.19014217 -0.039300844
0.09087456 -0.24528302 0.04597667 0.33091286 0.10171387 -0.50464004 -0.5043851 -0.19078602
0.69771534 -0.36486188 0.2222679 0.15462063 0.052196965 -0.29754332 -0.5221987 0.15171656
-0.110259876 -0.54923666 -0.11181245 0.1800111 0.31180266 0.1539528 0.14358537 -0.4377199
-0.33145446 -0.69761693 0.5806263 0.0013847739 0.2528905 -0.06332912 0.14682357 -0.41847828
0.0056703626 -0.39081702 0.3631171 -0.2549778 -0.018556694 0.055155743 -0.029503606 0.87229306
-0.02943471 0.57270086 -0.023759715 0.13804667 0.13494131 0.025596311 0.36060506 -0.8188686
-0.60387814 -0.031700127 0.009258557 0.19392997 0.2864935 -0.27484182 -0.688109 -0.42669788
-0.061805867 -0.022576887 -0.023153104 0.15231156 0.5242534 -0.35402563 0.8195697 0.49226978
0.14311028 -0.24252976 0.37517098 -0.10039339 0.56918335 0.44774172 0.19848362 -0.17219342
-0.15777805 -0.060081005 0.20763947 0.7325391 -0.052098095 -0.25785837 -0.5153944 0.5809687
-0.07920965 -0.08205774 0.7525511 -0.34315795 0.44137064 0.16396436 0.38964453 0.14465386
0.4044371 -0.3373774 -0.15734091 -0.030168705 0.5472143 0.6175343 -0.34853026 -0.6778991
0.088585936 -0.19569631 -0.29672816 -0.07644869 0.06800567 0.22161844 0.6951326 0.93963534
-0.49304086 -0.20314045 -0.0881099 0.5324254 -0.16966338 0.45123613 -0.6340968 -0.22242452
-0.37148884 -0.550661 0.3917387 -0.35650954 0.5194925 -0.41358018 0.5985291 -0.08597585
-0.6531904 0.3006941 0.34071678 -0.10874415 0.15767597 -0.0071149487 -0.34727407 -0.25413138

fc3.bias f4 [2]
00000000: aad2 eebd b4dd 2f3d
-0.11661275 0.042936042

bn1.weight f4 [256]
00000000: e67a 803f d43d 833f 1da7 823f aae7 393f
00000010: 2b52 c43f ebd5 953f 7265 763f 8016 ae3f
00000020: abfe 6c3f cfcc 8a3f e3e8 8a3f 5bd1 603f
00000030: db70 643f dd57 893f 2152 8c3f bc0d a63f
00000040: 8444 783f 3587 643f a90e 5c3f 8863 253f
00000050: e31d bf3e 8f19 ea3e 53f5 693f 8604 a93f
00000060: 9a8c 2f3f 8ac6 2c3f a175 633f 72e7 8c3f
00000070: f292 423f f643 e73e 402b b03f 038b 953f
00000080: 4903 653f 26ff 7d3f 822d 793f d540 e33e
00000090: 0d60 9e3f 1b46 193f a0b1 5b3f 2886 7b3f
000000a0: fa6b bc3f be4c 953f 113d 5b3f 5ac1 893f
000000b0: 756f 363f 1532 393f 7939 813f c6fb 893f
000000c0: 290b 743f 01d6 353f b271 9d3f 34fd 6d3f
000000d0: 773e 5e3f 4bc5 553f c7f4 863f ef01 c43f
000000e0: dd8d 643f 055d b03f 1eeb cc3f 5432 3d3f
000000f0: 57e1 603f 342c 943f 0f63 9d3f d166 8a3f
00000100: 4f9d a53f 883a 763f cb66 933f 56be 383f
00000110: 55ec 883f 79ff 073f cb25 953f 9a63 563f
00000120: 2b2d 743f db3d a03f 7aad 933f 5635 a23f
00000130: 43f3 2f3f 066b 0f3f e6ef a23e cb44 803f
00000140: ec29 223f b82f 913f 4404 993f 571f 8d3f
00000150: 6c2f 043f 578d 4c3f 08c6 4d3f f9af 753f
00000160: b788 4f3f 6494 ab3f 8ddf 703f ece4 713f
00000170: db21 363f 1f33 763f 5e22 cc3e 5a5a a83f
00000180: 35d2 a93f 6e03 903f 962a 913f e073 a63f
00000190: 7aa3 7a3f 0006 5d3f e00d 8d3f dc1c 283f
000001a0: 0a27 6f3f 6c84 553f 6233 ad3f 72ce 823f
000001b0: 1d30 903f 8dca 263f dce0 903f 2fc3 8e3f
000001c0: 8c2c ed3e 6487 463f 7702 133f b6fa 853f
000001d0: 0854 933f 6daa 823f f9e2 613f 97ce 5a3f
000001e0: ce7b 793f 807a 9f3f 88ce 843f dd49 733f
000001f0: 5278 5d3f eeb3 2f3f 6cec 6f3f e370 7c3f
00000200: 6ffa a73f d3b5 9b3f ffcf 733f 9ad5 cd3f
00000210: 35f6 a63f 47aa 383f 3a18 993f 620b a53f
00000220: 5a68 863f 4b76 eb3e 0773 9f3f 6075 a33f
00000230: a242 3c3f 6556 9e3f b24f 8a3f e915 5c3f
00000240: e7c3 7c3f 5d5e 743f 6ef0 5f3f a17d 5d3f
00000250: 8e35 1d3f 47a9 573f 6410 3c3f aff1 9d3f
00000260: c632 703f e044 763f dce0 523f 3426 2e3f
00000270: f58b 7a3f bfb4 253f 8b5d 5b3f d3e6 463f
00000280: 45db 9f3f eb20 b33f ce1a 793f 6773 433f
00000290: b611 703f c8c9 203f 2ab5 643f 860e 923f
000002a0: 0dac 923f 6aab 963f 7a5c 7a3f 0b0c ef3e
000002b0: 7f22 8a3f 2654 303f 8785 ad3f bd41 473f
000002c0: aa93 893f 5616 943f 359a 2f3f 4caf 943f
000002d0: b409 483f f499 883f d74b 403f 046b 993f
000002e0: 86ea 283f b1ff b43f b5aa 883f 2a1b 8b3f
000002f0: fcb1 133f 9936 173f 3bbc 793f 11bc 983f
00000300: 41eb 923f e00f a43f b769 813f a871 9f3f
00000310: be75 853f 3fea 723f 442c 723f 4af9 8e3f
00000320: 964a 6b3f 612e 713f c15b 783f c2a8 a83f
00000330: ac60 853f 97a0 713f 7f28 9d3f 3dd3 943f
00000340: 0475 8b3f 846f 9c3f b975 813f 531b 6c3f
00000350: 9336 7d3f 8160 523f 8ec7 9a3f 5e84 723f
00000360: 95bb 843f 4ba2 a83f 5a06 3b3f a54a 843f
00000370: e7c8 3e3f 1086 d23e 6ab2 f43e e342 a23f
00000380: 0797 253f f071 a73f 66c0 9b3f c89b 7d3f
00000390: 30f9 5e3f 1b31 533f 1970 a53f 8dd9 673f
000003a0: 86c3 9a3f 7ccd bc3f b12a 823f 1033 993f
000003b0: fb32 8d3f af42 ab3e e967 6d3f 5d69 6a3f
000003c0: 906e 2b3f 1cec 493f dc4b 6f3f d46e 7e3f
000003d0: 7c91 d23f 364a 9e3f 0d49 883f c389 713f
000003e0: 80de ab3f 6595 8d3f 0d5f 663f 155e 1340
000003f0: 3194 a53f 6e2b 9d3f 5868 7a3f 466c 853f
1.0037506 1.0253243 1.0207249 0.72619116 1.5337576 1.1705908 0.96248543 1.3600616
0.9257609 1.0843753 1.0852321 0.8781945 0.89234704 1.0729939 1.0962564 1.2972941
0.96979547 0.8926881 0.8595987 0.64605 0.3732749 0.45722625 0.9138996 1.3204505
0.68573916 0.67490447 0.8885136 1.1008132 0.7600547 0.45169038 1.3763199 1.1683048
0.8945814 0.9921745 0.97335064 0.443854 1.2373062 0.598726 0.8581791 0.9825158
1.4720452 1.1664045 0.85640055 1.0762131 0.7126382 0.72342044 1.0095664 1.077996
0.9532953 0.7102967 1.2300322 0.9296448 0.86814064 0.8350417 1.054345 1.531309
0.89278966 1.3778387 1.6009252 0.7390492 0.8784384 1.157599 1.2295855 1.0812627
1.2938632 0.9618306 1.1515745 0.7216543 1.0697123 0.53124195 1.1652158 0.8374573
0.9538142 1.2518877 1.1537316 1.2672527 0.6873056 0.5602268 0.31823653 1.0020994
0.6334522 1.1342688 1.1954427 1.1025189 0.5163486 0.7990317 0.80380297 0.9597164
0.81067985 1.340466 0.9409111 0.9448993 0.7114541 0.96171755 0.3986997 1.3152573
1.3267275 1.1251047 1.1341121 1.3004112 0.97905695 0.8633728 1.1019859 0.65669036
0.93418944 0.83405185 1.3531306 1.0219252 1.1264683 0.6515282 1.1318622 1.1153315
0.4632305 0.7755034 0.57425636 1.0467136 1.1510019 1.020826 0.8823696 0.8547148
0.97454536 1.2459259 1.0375528 0.9503458 0.8651172 0.68633926 0.93720126 0.9860975
1.3123301 1.2164863 0.9523925 1.6080811 1.3043886 0.7213482 1.1960518 1.2894099
1.0500596 0.45988688 1.2456979 1.2770195 0.73539174 1.2370116 1.0805571 0.8597093
0.98736423 0.95456487 0.8747624 0.8651982 0.6140984 0.8424267 0.7346251 1.2339381
0.93827474 0.96198845 0.8237436 0.68027043 0.9786981 0.6472892 0.8568961 0.7769596
1.2488791 1.3994421 0.97306526 0.76347965 0.93777025 0.62807894 0.89338934 1.1410682
1.1458756 1.1771061 0.9779736 0.46688876 1.0791777 0.688784 1.3556374 0.77834684
1.0748188 1.1569316 0.68594676 1.1615996 0.78139806 1.0671983 0.7511572 1.1985784
0.65982854 1.4140531 1.0677096 1.0867665 0.5769346 0.59067684 0.9755284 1.1932393
1.1478044 1.2817345 1.0110387 1.245656 1.0426557 0.9488868 0.94598794 1.1169827
0.91910684 0.94211394 0.97015005 1.3176501 1.0420127 0.94385666 1.2277983 1.1626965
1.0895085 1.2221532 1.0114051 0.92229193 0.989114 0.82178503 1.2092149 0.94733226
1.0369745 1.3174528 0.73056567 1.033528 0.745253 0.41117907 0.4779237 1.2676662
0.64683574 1.3081646 1.216809 0.9906583 0.8709898 0.82496804 1.2924834 0.9056633
1.2090919 1.4750209 1.0169278 1.1968708 1.1031183 0.33449313 0.9273668 0.9156702
0.6696558 0.788759 0.9347513 0.9938786 1.6450648 1.2366397 1.0647293 0.9435083
1.3427277 1.1061217 0.89988786 2.3026173 1.293585 1.2278879 0.97815466 1.0423667

bn1.bias f4 [256]
00000000: 37ba 623c 3ab1 5a3e 85f6 e33a 8397 b4bd
00000010: 70a2 ebbc f2a3 5bbd 17ed 5abe fae1 443e
00000020: 3276 2c3e 7f81 e53d e82f 3e3e 29ed 70be
00000030: 51e3 9ebd eefe af3e 0e78 163e 17b0 80be
00000040: d99d 09bf ab08 2dbe 4afc a8bd 5db1 2f3e
00000050: b78a 723e 1e36 273d a1c5 b73e 9ac5 cc3d
00000060: 2d70 053f 5a90 0f3f 890b 0ebe d337 f2bd
00000070: ab19 97b9 ed4d fabc 2850 7f3e f9b5 0a3e
00000080: 4e57 33be 37e7 623d 8185 bbbe 9de5 0f3d
00000090: a4f8 813e 258f 503e 8ca9 8e3d 1df7 34be
000000a0: 6f51 1cbd 74c5 163e 6a71 d53d 1410 973e
000000b0: 99f7 b83d dd87 3f3f 9780 6ebd 7766 b13e
000000c0: 5929 da3d e641 be3e 7585 bdbd edcf 673e
000000d0: 2a6e 5e3d f813 133d fbcf 96bd 8d0e 8d3a
000000e0: c7b7 d0bd 75c4 d63d 509c d23c c41c 84bd
000000f0: 3412 6f3e 6d27 43bd fde3 c83e 75f4 90bc
00000100: 5cc6 8cbd e67c 333e c0b2 13be b263 bb3c
00000110: 4227 613d c460 4d3e a7b8 883d 6aac 0e3e
00000120: 23eb 7a3d c7a4 253e cbe1 b63e 07e8 113e
00000130: 7263 933e 7b80 943e e2d7 1d3e 7e91 4cbd
00000140: a772 743e e98c ab3e db2e 01be c689 383e
00000150: b81f 8f3e a1ab f83d d8e9 b43b 3614 8e3d
00000160: 4ad0 1b3f 67f7 08bd f293 393f 2fc8 333f
00000170: 87fd 853e 9b6c 393a 201b 2f3e 4330 bf3c
00000180: c06f c73d 901a aabe 9c62 9ebd f1c8 ba3e
00000190: 8bc3 edbd d983 8f3e 87d6 16be 6ddc 883e
000001a0: e060 583e c179 243e 6a1e bbbd 1223 023f
000001b0: 6758 773d ae15 933d c91c 573e e693 c63e
000001c0: cec7 9d3e 1232 c63d db1b f23d 1a77 ba3e
000001d0: f7b9 683e 36ff 663e d442 693e 299f a53e
000001e0: e55f 043f 3012 fc3e b8b7 01bc b422 bc3d
000001f0: bb58 5bbd 7955 02be c819 3f3e bfc5 c33d
00000200: 4fa1 f53d ba4b 1a3e ffe1 27bc 8aaa 213c
00000210: 7709 163e 6dac 8fbc ff06 5e3e 45f9 bc3b
00000220: aef3 c13d a538 38be 8167 3bbe b587 0e3e
00000230: e699 343e 194a c83d 2dde e0bd 14be 153e
00000240: 53d8 56bd 9167 f3bd a34c 743d ce3c 283d
00000250: 8c6d 993e 5015 6a3e 042c 8e3d 8264 8e3b
00000260: ad62 983e 8b2c fcbd 897c 2dbe 7f87 553e
00000270: fb05 cb3e fdc7 763e a10e 8cbe 7343 1bbe
00000280: 7cb0 3dbe 9632 d53d aae4 a73e cde9 113e
00000290: 874d 4d3d 9d5f 3b3e 89d7 213e a9f2 6cbe
000002a0: 693c a1bd 660c 8fbd 9b73 e33e 59a7 9e3e
000002b0: da82 913e 2117 a43e 4aeb 173e 86cd b03c
000002c0: e325 983e f863 483e 12af c23e 4091 163e
000002d0: d31d 7b3c dedf 0b3e ad18 2d3e b9a1 49bc
000002e0: 5157 7e3d 51bb b53d a764 6fbd 0972 963e
000002f0: 9da0 773c 3b1f 083f 359b d83e b20c 593d
00000300: 55d6 9ebe 09e9 cabd 0367 54be ce2a c83d
00000310: 8215 643e c788 213f a716 223f 8c2c a83d
00000320: 22b4 10be f7c4 e93c 0115 863e 93e2 50be
00000330: 5653 c4bd d0c7 61bd 4fde 213e 2237 0fbc
00000340: bda7 0abe 5c53 b73d 5b82 19be 6f03 8f3e
00000350: a1ad c83d 41e1 3dbe cea3 d5bc c0ba 2e3e
00000360: 0546 673d 643a 80be 2b0c 26be d30e a83e
00000370: a60e aa3d 7b77 b83c 9a47 8e3d e263 a7be
00000380: 9155 213d adbf 2abe 3382 9ebe 9f08 913d
00000390: 58c6 4b3c 2f3e 30be c525 25bc 8a50 873d
000003a0: f3ea 533e d786 193d 223a d13a e563 efbd
000003b0: 7cb3 713e 4e3d 96bd e349 673e 2bf2 da3e
000003c0: 7ea3 99be 2f1f cc3e 9b6d b13e 1e58 513c
000003d0: 9192 573e 2025 1b3e 331a 05be d172 043e
000003e0: db7d 84bd 88e5 c73e e1a0 e43e 0373 dc3d
000003f0: 729f c83e 4b50 f9bc 5662 413d e0db 253e
0.013838342 0.21356669 0.0017392194 -0.08817961 -0.02876398 -0.053623147 -0.21379505 0.19226828
0.16841963 0.1120634 0.18572962 -0.2352797 -0.07758201 0.34374183 0.14694235 -0.25134346
-0.5375648 -0.16897838 -0.08251245 0.17157502 0.23685728 0.040823095 0.35892966 0.09998627
0.5212429 0.5607964 -0.13871588 -0.11827054 -0.00028820088 -0.030554736 0.24932921 0.1354598
-0.17513773 0.055396285 -0.36625293 0.035131086 0.2538501 0.20367105 0.06965932 -0.17672391
-0.0381636 0.1472376 0.10422023 0.29504454 0.090316005 0.74816686 -0.0582281 0.34648487
0.10652418 0.37159652 -0.092539705 0.22637911 0.05430428 0.035907716 -0.07363888 0.0010761783
-0.10191303 0.1048669 0.025709301 -0.06450799 0.23346788 -0.04764502 0.3923644 -0.017694691
-0.068737715 0.17528114 -0.14423656 0.022874687 0.05496908 0.20056444 0.06675845 0.13932958
0.0612594 0.16176139 0.3571914 0.14248668 0.28786808 0.29004273 0.15414384 -0.04994344
0.23871861 0.33505943 -0.1261553 0.18021306 0.27953887 0.121421106 0.0055210404 0.06937449
0.608647 -0.033439066 0.7249137 0.7022733 0.2616999 0.00070733734 0.17100191 0.023338443
0.097381115 -0.3322339 -0.07733652 0.3648143 -0.116095625 0.2803028 -0.14730273 0.26730672
0.21130705 0.1606207 -0.091366604 0.50834763 0.06038704 0.071818694 0.21007074 0.38784713
0.308165 0.09677519 0.11821719 0.36418992 0.2272719 0.22558293 0.22779399 0.32347992
0.51708823 0.49232626 -0.007917337 0.091863066 -0.053551417 -0.12727918 0.18662179 0.095592014
0.11993658 0.1506795 -0.010246753 0.00986732 0.14652048 -0.017538274 0.21682356 0.00576702
0.09470306 -0.17990358 -0.18301202 0.13918956 0.17636833 0.09779758 -0.10979877 0.1462329
-0.052452397 -0.11884988 0.0596434 0.041073613 0.2996639 0.22859693 0.06941989 0.0043454776
0.29762784 -0.123131834 -0.16942038 0.20852469 0.39653 0.24099727 -0.2735491 -0.15162449
-0.18524355 0.10410039 0.32791644 0.14249344 0.050122764 0.18298192 0.15804876 -0.23139443
-0.078728504 -0.06984787 0.44424137 0.3098705 0.28420144 0.32048896 0.1483585 0.021582376
0.29716405 0.19569385 0.38024193 0.14703846 0.015326935 0.13659617 0.16903944 -0.012306624
0.06209499 0.088736184 -0.0584456 0.29383877 0.015113977 0.53172654 0.42305914 0.052990623
-0.31022897 -0.09907729 -0.20742421 0.09773789 0.2227383 0.6309933 0.63315815 0.08211622
-0.14131215 0.028536303 0.261879 -0.20398931 -0.095862076 -0.055122197 0.1580746 -0.008741172
-0.1354055 0.089514464 -0.14991133 0.27932307 0.09798742 -0.18542959 -0.026079085 0.17063427
0.05646326 -0.2504455 -0.16215579 0.3282381 0.08303575 0.02251791 0.06947251 -0.32693392
0.039388243 -0.16674681 -0.3095871 0.070817225 0.012437426 -0.17211221 -0.010079806 0.066071585
0.20695095 0.03748211 0.001596276 -0.11688975 0.23603624 -0.07335912 0.2258678 0.42762884
-0.30007547 0.3986754 0.34653935 0.012777356 0.21052004 0.15150881 -0.12998275 0.12934424
-0.064693175 0.39042306 0.4465399 0.10764124 0.39184147 -0.030433794 0.04721292 0.16197157

bn1.running_mean f4 [256]
00000000: fcd0 a33f deaf 8040 266a 9140 2171 3240
00000010: 332d a33f 0400 0000 ce4e 873f e3f5 533f
00000020: 500e 9f40 e4c7 0b3e 9352 3b3e d9e1 e140
00000030: e2b6 4340 3af5 9c3f e4ce 4240 2c43 2d3f
00000040: 2faa ee40 dcc0 143e a636 3e3d 6842 4940
00000050: bc82 8441 d05e a440 497a 3640 5af8 2440
00000060: 3372 0a40 9d3d 9f40 4f73 a840 ce3c a23f
00000070: d8e7 7a40 ec1f d43f 7fdf a13f 2594 d340
00000080: 43b4 153f 54c9 fb3f f487 eb3c 6fca c13f
00000090: b03a a33f 835b 923f d98f 8c3e 9d33 4d40
000000a0: 4b0a e940 0ab7 6340 4977 ab3f a8fc 0d40
000000b0: 2914 4540 be9a e040 655b a340 464f 323f
000000c0: f35c 293e 2c51 3540 d421 a63e ea23 623f
000000d0: f91c 0641 25c9 983f 3ec2 b23f 60ed be40
000000e0: abb8 1340 1c1e ad3f 1a6e 4441 b0a8 b03d
000000f0: e838 ce3f 4980 1d40 94b3 8e3f bd34 423e
00000100: b3af 5e40 d147 ce3f ed03 073f 528a 7840
00000110: 8f16 a840 1546 8740 6d07 d23f b648 1740
00000120: 367d df3f 49c8 403f 5511 9c3c c286 5240
00000130: 0fed 4f40 7332 9f40 a94c d340 8578 993f
00000140: 1592 7d40 7cd5 4740 2637 e540 202a 573f
00000150: 6341 f83f 3fe3 7040 f2bd 983f bf8f a93f
00000160: 4f91 5b40 0400 0000 0b15 1e3f 60d9 9940
00000170: c49f 4140 a5af 443e 34fb 1141 6727 5040
00000180: 3073 8e40 f971 3e3e 0400 0000 0400 0000
00000190: c7f5 f340 d917 3c40 ba68 0740 641a 9140
000001a0: a59b b340 c225 b53f 7568 2440 0144 8140
000001b0: b6c9 163e 7811 dc40 0364 a53f aa43 4440
000001c0: f6f2 f740 d16e 2441 73e7 4540 8ad1 9d40
000001d0: e8a6 ff3f e720 8e3e d122 693f 7c67 0f40
000001e0: dbf5 7640 5c3d 8b3f 49b4 883f 954c 4440
000001f0: fa31 f23d dbb2 2940 b1b7 633f a39f c73e
00000200: e6bd 3f41 f019 233f 6b8e fd3f c729 c740
00000210: f4e5 8d3c b85c 683f e51c 5940 f348 6340
00000220: 6b8d 4a3e 3e15 1a40 e150 163e 758a c940
00000230: 1eb0 473f a713 c63e 4af5 a23e c61b 6c3d
00000240: f1ff b43f 2f4c df3f 1102 0d40 90e2 1a40
00000250: 7ab0 823f dfce 723f 1d34 6e3f beee 7240
00000260: bcb6 803f a212 c03f faf2 4e41 0953 b43f
00000270: 8b96 203f 5b36 fb3f bf93 1041 ca7e 4c40
00000280: ac92 aa3d a100 533f 6245 b43f 977f d43e
00000290: da14 ab3e f86f 4841 e67d 423f b42e d13f
000002a0: d50c 9c3e 9776 1a3d 2734 2c40 cd8e 2640
000002b0: 7b2a 2940 a50f d03e a4f0 bf3f af21 6440
000002c0: 1152 ff40 4401 b53e 1fb0 6340 f7a9 163f
000002d0: 0b51 8140 7774 833f a414 d63f 24c6 ba3f
000002e0: e21d 503f e247 0d3e b18f a53e de45 e13e
000002f0: f7a1 1d40 4acf 4540 c61c e73f 5d76 3c41
00000300: 3a52 213e 560e 603f c7a4 ee3d ca00 153f
00000310: 8c73 2241 95da 5f40 8d49 d33f daee 1141
00000320: dfad ac3f 7c0b b940 c480 8b40 520e 703e
00000330: 01e8 5340 fe40 7d3f 6119 8f3f 1dc9 a53f
00000340: ac80 963e b397 ba3e 131d e940 a610 d63f
00000350: 433f 3b3f 83d7 2a3d 0400 0000 e54a 5f40
00000360: 7937 853e 2423 0940 d361 a33f c70a 9a3f
00000370: 5695 2a40 fd80 5040 dbd7 c03f a0c2 063d
00000380: da66 973c 3105 8540 e436 1140 97dd 3840
00000390: f6ad a13f a268 f53e 5481 ec3f cf24 ca3e
000003a0: 27a3 c13e 08c9 d53f 0400 0000 3288 333e
000003b0: c0b5 9b3e 2190 8941 b47b 2640 0553 0240
000003c0: 8e7e bd40 bc36 4640 b4c6 bd40 6016 e83e
000003d0: 53f1 a73f 229d 7940 2dd1 4a3f 4b90 8e3d
000003e0: 0e3c b23d c51a 3b40 cef0 dc40 53f6 2341
000003f0: 79bf b33e d1f7 3c3f 0400 0000 1b7a b93f
1.2798152 4.021468 4.5442076 2.7881548 1.2748169 6e-45 1.0570924 0.8279707
4.970497 0.13650471 0.18293218 7.0588193 3.0580373 1.2262337 3.0438776 0.6768062
7.4582744 0.14526695 0.046438836 3.144678 16.563835 5.136574 2.8512137 2.5776582
2.1632202 4.976271 5.2640758 1.2674806 3.9204006 1.6572242 1.264633 6.611834
0.5847818 1.9670815 0.028751351 1.5139903 1.2752285 1.1434177 0.27453497 3.2062752
7.2825065 3.5580468 1.3395778 2.218546 3.0793555 7.0188894 5.1049066 0.6965221
0.16539364 2.8330793 0.32447684 0.8833605 8.382073 1.1936384 1.3965528 5.9664764
2.3081462 1.3524814 12.27688 0.086259246 1.6111116 2.460955 1.1148553 0.1896543
3.4794738 1.6115667 0.52740365 3.8834424 5.2527537 4.227305 1.6408516 2.363813
1.7460086 0.7530561 0.019051233 3.289475 3.248844 4.9749084 6.603108 1.1989905
3.9620411 3.122405 7.162982 0.8404865 1.9394954 3.76387 1.1932967 1.3246993
3.430744 6e-45 0.6175086 4.807785 3.0253763 0.19207628 9.123829 3.252405
4.451561 0.18598165 6e-45 6e-45 7.623752 2.9389555 2.115767 4.5344715
5.6127496 1.4152148 2.5688756 4.0395513 0.14725384 6.8771324 1.2921146 3.06663
7.7484083 10.277055 3.0922515 4.9318285 1.9972811 0.27759477 0.9106875 2.2406912
3.8587558 1.08781 1.0680019 3.0671742 0.118259385 2.6515415 0.88952166 0.3898898
11.983862 0.6371145 1.9809088 6.22385 0.017321564 0.9076648 3.3923886 3.5513275
0.19780509 2.4075465 0.1467929 6.2981515 0.7800311 0.3868687 0.31827766 0.057643674
1.4140607 1.7445124 2.2032511 2.4200783 1.0210106 0.9484691 0.9304827 3.7958217
1.0055766 1.5005686 12.93432 1.408784 0.6272971 1.9625963 9.036071 3.1952386
0.08328757 0.82422835 1.4083674 0.41503593 0.33414346 12.527336 0.75973356 1.6342378
0.3047854 0.037710752 2.6906831 2.6024659 2.6432178 0.40636936 1.4995313 3.564556
7.978768 0.35352528 3.5576246 0.58853096 4.041143 1.0269917 1.6725049 1.4591718
0.812956 0.13796952 0.3233619 0.43998617 2.4630105 3.090777 1.8055656 11.778897
0.15754023 0.87521875 0.116525225 0.5820433 10.15321 3.4977162 1.6506821 9.120813
1.3490561 5.782652 4.3594685 0.23442963 3.3110354 0.98927295 1.117962 1.2952
0.29395044 0.36443862 7.284799 1.6723831 0.73143405 0.041709434 6e-45 3.4889462
0.26018885 2.1427698 1.2764229 1.2034539 2.6653647 3.2578728 1.5065874 0.032900453
0.01848166 4.1568837 2.2689753 2.8885248 1.2631214 0.4793139 1.8476968 0.39481208
0.37819788 1.6701975 6e-45 0.17532423 0.30412102 17.195375 2.6013002 2.036317
5.9216986 3.0970907 5.9305058 0.4532957 1.3120521 3.9002156 0.79225427 0.069611154
0.08702861 2.923509 6.904395 10.247638 0.3510702 0.7381564 6e-45 1.4490389
