checkpoints/maddpg_per/maddpg_per1_checkpoint_critic_target.pth (torch, 474855 bytes, 13 tensors)

fc1.weight f4 [256, 52]
-0.027217211 0.36070266 0.09133199 -0.018180816 0.02027271 0.7723434 -0.075168096 -0.09546271
0.06287487 0.11150058 -0.025063755 -0.0497984 -0.052418835 0.7368236 -0.015387703 -0.13166432
0.039606772 0.01959668 -0.053502608 0.1148911 -0.100282975 0.882041 0.030530673 0.035880934
0.07464094 0.48714396 -0.04582111 0.16924572 0.053451523 0.59463567 -0.009910251 0.0701378
-0.09254187 0.4172336 0.008016998 -0.02967859 -0.020451147 0.67368424 -0.013360308 0.08889444
-0.18606411 0.14065634 0.059330598 -0.061012674 0.009791617 0.9836561 -0.13338713 -0.02163506
5.65504 -0.15050125 3.8639736 -1.1385393 0.84359306 0.9672132 0.19958621 0.50017554
-0.2900101 -0.59777486 0.0480861 0.68258494 0.62361544 1.1984185 -0.067942195 -0.3726612
-0.32867375 -0.5021265 0.009579834 -0.3356358 0.27539518 0.8254089 0.14345789 -0.36577386
-0.2924698 -0.19761193 -0.05268524 -0.33286995 0.016007768 -0.3510948 -0.40295973 0.33414024
0.37333798 -0.74539787 -0.46817458 0.36584726 0.03334822 -0.55588406 0.2353939 -0.29373854
0.45225146 -0.5504431 0.322516 -0.25901923 -0.17117892 -0.91826147 0.0026366308 -0.8143422
0.23411557 -0.11784012 0.118026055 -0.8271789 -0.08595674 0.29025617 -1.0590444 -1.725244
0.033629626 -0.6811424 0.006615827 -0.42509082 -0.30299872 0.07475441 0.092805944 -0.29169482
0.07703489 -0.7835697 -0.031213962 -0.63143367 -0.72119385 -0.20048793 -0.06258516 -0.64191073
0.39333785 -0.9742066 -0.10927605 -1.488821 -1.0435585 0.09883414 0.024561437 -1.4801546
-0.28541195 -1.4717392 -0.06244605 0.24224156 0.21741083 0.040236905 -0.058811504 0.20089585
0.03376918 -1.548737 0.00023342758 0.099889666 0.611393 -0.0034216605 -0.028565772 0.11294816
0.38481975 -1.5415064 -0.017690971 0.51122457 1.0131472 -0.01658079 0.09318621 0.46859413
-0.58611745 -0.87534755 0.78913176 -1.7514256 1.0122892 0.2930065 0.03199208 0.7839522
-0.1287062 -0.09896244 -0.2000766 0.72509885 0.6052469 0.30609393 -0.10918169 0.49999362
0.11703068 0.2592016 -0.3018322 0.47458956 0.79569507 0.39980483 0.15479931 0.58224684
0.44808218 0.8958867 0.25097865 0.5955495 0.25115573 -1.1010792 -0.06821168 -0.44195598
0.21731952 -0.3422683 -0.1211225 -0.6989383 0.3888539 -1.2142166 0.0051741637 0.47961125
-0.066162355 0.09940835 -0.048217077 0.5365546 0.018534128 -1.1781807 -0.2331188 1.4606906
-0.4555978 0.8886539 -0.08353188 1.369065 -0.20960419 0.42127642 1.0589904 -0.20300442
1.0963145 0.22086447 -0.019851135 0.10224446 -0.60628825 0.14917883 0.00568223 0.12612861
1.0805835 0.4461386 0.1846564 0.07454014 -0.96284115 -0.006366883 -0.048415426 -0.019479742
1.1008627 0.34722447 0.038896687 0.06266584 -1.496913 -0.01701626 -0.0140039 -0.09204686
0.5011525 0.2864673 -0.020562133 0.13489321 0.44083422 -0.00015965439 -0.103997074 0.1425071
0.24066322 0.26492447 0.11081061 0.37787813 0.77150726 0.09359813 -0.079307094 0.29885957
-0.16628887 0.42820096 0.043540273 0.43650088 1.5497972 -0.14415817 -0.055461854 0.4353786
00000000: a1f6 debc 05ae b83e 440c bb3d efef 94bc
00000010: f412 a63c 4cb8 453f bbf1 99bd f481 c3bd
00000020: 8ac4 803d 6b5a e43d 8152 cdbc 68f9 4bbd
00000030: 22b5 56bd 79a0 3c3f b41c 7cbc 03d3 06be
00000040: b63a 223d 3789 a03c 8d25 5bbd 064c eb3d
00000050: 2961 cdbd 70cd 613f 761b fa3c e3f7 123d
00000060: 59dd 983d ef6a f93e ebae 3bbd c04e 2d3e
00000070: fcef 5a3d 0b3a 183f 9b5e 22bc 68a4 8f3d
00000080: 9886 bdbd a49f d53e ba59 033c 8420 f3bc
00000090: 2a89 a7bc 9276 2c3f 31e5 5abc 4a0e b63d
000000a0: 9787 3ebe 3708 103e a404 733d 6de8 79bd
000000b0: 056d 203c e3d0 7b3f a396 08be 023c b1bc
000000c0: 16f6 b440 001d 1abe 584b 7740 a8bb 91bf
000000d0: b7f5 573f 499b 773f 5460 4c3e 810b 003f
000000e0: 347c 94be c607 19bf eef5 443d e3bd 2e3f
000000f0: 43a5 1f3f c765 993f 4725 8bbd 73cd bebe
00000100: ed47 a8be 5d8b 00bf bcf4 1c3c 75d8 abbe
00000110: 9900 8d3e ff4d 533f a0e6 123e b646 bbbe
00000120: 9abe 95be c85a 4abe 7acc 57bd ee6d aabe
00000130: b922 833c b3c2 b3be bd50 cebe 6e14 ab3e
00000140: 2826 bf3e 65d2 3ebf 94b4 efbe 5550 bb3e
00000150: 2598 083d 6b4e 0ebf 190b 713e e664 96be
00000160: 818d e73e d7e9 0cbf d120 a53e 2b9e 84be
00000170: 8749 2fbe 2f13 6bbf 53cb 2c3b bb78 50bf
00000180: febb 6f3e 2956 f1bd a5b7 f13d ffc1 53bf
00000190: 160a b0bd 759c 943e c48e 87bf ccd4 dcbf
000001a0: 38bf 093d 595f 2ebf 94c9 d83b 81a5 d9be
000001b0: a622 9bbe d718 993d 0b11 be3d 0659 95be
000001c0: 78c4 9d3d 0698 48bf 6cb4 ffbc a3a5 21bf
000001d0: 29a0 38bf b54c 4dbe a62c 80bd 4354 24bf
000001e0: 9463 c93e 9b65 79bf 1fcc dfbd b091 bebf
000001f0: 5393 85bf 8e69 ca3d 1135 c93c b575 bdbf
00000200: 8421 92be f361 bcbf 6ec7 7fbd 2c0e 783e
00000210: f2a0 5e3e 74cf 243d 55e4 70bd a4b7 4d3e
00000220: 8d51 0a3d 043d c6bf 3dc4 7439 f492 cc3d
00000230: 4084 1c3f f03d 60bb c402 eabc 5d51 e73d
00000240: 1807 c53e 1550 c5bf a8ec 90bc 9ddf 023f
00000250: cfae 813f 70d4 87bc 69d8 be3d 92eb ef3e
00000260: cb0b 16bf c716 60bf 8a04 4a3f b72e e0bf
00000270: b192 813f f304 963e 210a 033d 17b1 483f
00000280: 8fcb 03be d2ac cabd e1e0 4cbe 14a0 393f
00000290: 76f1 1a3f 58b8 9c3e a69a dfbd 2aff ff3e
000002a0: c8ad ef3d 12b6 843e c089 9abe 67fd f23e
000002b0: acb2 4b3f 38b3 cc3e b683 1e3e 210e 153f
000002c0: 076b e53e d558 653f 4680 803e ef75 183f
000002d0: 7c97 803e 2af0 8cbf 91b2 8bbd 0e48 e2be
000002e0: 0289 5e3e ca3d afbe 130f f8bd 9fed 32bf
000002f0: dc17 c73e 736b 9bbf 088c a93b 9b8f f53e
00000300: 2180 87bd 9b96 cb3d 457f 45bd a45b 093f
00000310: e2d4 973c a0ce 96bf b2b6 6ebe e9f7 ba3f
00000320: 1d44 e9be d27e 633f c312 abbd 863d af3f
00000330: 7ba2 56be 8bb1 d73e ff8c 873f 64e0 4fbe
00000340: 0954 8c3f 4c2a 623e d99e a2bc 8b65 d13d
00000350: b535 1bbf 56c2 183e 0032 ba3b dc27 013e
00000360: 8f50 8a3f 476c e43e 9116 3d3e 80a8 983d
00000370: c27c 76bf 49a1 d0bb 414f 46bd fb93 9fbc
00000380: 12e9 8c3f 68c7 b13e 2252 1f3d f356 803d
00000390: d89a bfbf af65 8bbc 9d70 65bc 1083 bcbd
000003a0: 884b 003f d8ab 923e eb71 a8bc 7221 0a3e
000003b0: 06b5 e13e e668 27b9 6bfc d4bd 62ed 113e
000003c0: 6b70 763e 2ea4 873e acf0 e23d 3e79 c13e
000003d0: 8081 453f 60b0 bf3d c26b a2bd 1f04 993e
000003e0: a147 2abe 283d db3e 4957 323d 0b7d df3e
000003f0: c15f c63f 339e 13be f82b 63bd f2e9 de3e

fc1.bias f4 [256]
-0.2581088 0.014650875 -0.5422882 -0.6459309 -0.38547418 -0.35681826 -1.2777574 -0.44344407
-0.8634098 -0.32561505 -0.65450376 -0.118261024 -0.006857036 -0.64118916 -1.1226617 -0.5448212
-0.097274885 0.09744587 -0.5597251 -0.2850716 -0.47817805 -0.23503925 -0.26989174 -0.6162758
0.0032710866 -0.5263053 -0.23570392 -0.018722378 -0.19449644 -0.3714981 -0.28020015 -0.29627758
-0.31018415 -0.6217129 -0.18189582 -0.8738968 0.04560502 -0.1342374 -0.43671295 -0.22011857
-0.4246586 -0.6699497 -1.0338123 -0.3498351 -0.027873324 -0.07750291 0.20535365 -1.0662408
-0.53983337 -0.28855622 -0.22161244 -0.31076434 -0.53756636 -0.5956163 -0.36469498 -1.0674694
-0.062010862 -0.32553568 -0.2563595 -0.6758863 -0.59656024 -1.380023 -0.26619488 -0.34722102
-0.16803029 -0.51476514 -0.3736304 -0.35765055 -0.8132687 -0.37717283 -1.0953066 -0.058561005
-0.2094362 -0.47490737 -0.47809482 -0.3097853 -0.20219642 -0.00040524034 -0.53975344 -0.39615077
-1.0540787 0.022945693 -0.06899817 -0.19220084 -1.3718215 0.18133283 -0.8517714 -0.023407014
-0.19882433 -0.32308426 -0.41727865 -0.13773671 0.04493528 -0.2869611 -0.4348524 -0.2187378
-0.316086 -0.1577568 -0.4071542 0.073353566 -0.5508189 -1.1559108 -0.21673234 -0.44491813
-0.32268685 -1.0044378 -0.31968972 -0.47054863 -0.6172018 -0.057069965 -0.2551496 -0.025219645
-0.22907023 -0.20888594 -1.51957 0.03168928 -0.5452612 -0.23499702 -0.3547087 0.0053344294
-0.053924453 -0.621923 -0.15400332 -1.1459619 -0.3131378 -0.032118823 0.09799268 -0.35852662
-0.51318496 -0.22546993 -0.7429836 -0.35183558 -0.20823342 -0.37433186 -0.24546954 -0.36513406
-0.062290873 -0.56978077 -0.23374385 -0.35386112 -0.111629695 -0.23283179 -0.4495109 -0.55868524
-0.30276862 -0.20992622 -0.09850558 -0.048758768 -0.4770704 -0.31673032 -0.24193732 -0.2128781
-0.40404916 -0.43443373 0.14229503 -0.08518852 -0.64858973 -0.45305106 -0.7174616 -0.68723994
-0.25055072 -0.30787164 0.06801979 -0.5603866 -0.5258557 0.026298158 -0.19589597 -0.88751173
-0.12101089 -0.3440326 -0.1674847 -0.2652762 -0.19949931 -0.5033527 0.27852008 -1.255749
-0.3921101 -0.25036833 -0.74551123 0.11205936 -0.5712791 0.05154701 -0.4080216 -0.4652195
-0.4937732 -0.76603246 -1.7662516 -0.44534662 -0.43771964 -0.41901514 -0.23216894 -0.4026101
-0.34979117 -0.17647634 -0.1328459 0.09550897 -0.6137012 -1.2397643 -0.345326 -0.71041626
-0.44076356 -0.30233964 -0.5738352 -0.13691609 -0.40352696 -0.45864967 0.3624002 -0.64951503
-0.25733253 -0.6103381 -0.0754078 -0.60012543 -0.6164588 -0.25494948 -0.9600021 -0.5954122
-0.675544 -0.10778778 -0.50208104 -0.39091334 -0.65127593 -0.5784487 0.16054422 0.20613556
-0.39104158 -0.3377301 -0.47931162 -0.20656133 0.05500843 -0.53911465 -0.4767081 -0.07767112
-0.49717563 -0.23696083 -0.14555158 -0.07305507 -0.5723549 -0.3058636 -0.2593995 -0.40948015
-0.1050153 -0.3366176 -0.2392547 -0.30071378 -0.33409917 0.07426493 -1.0608128 -0.33969703
-0.0007057243 -0.27962315 -1.0093509 -0.14901455 0.025248619 -0.60591215 -0.7276699 -0.2514768
00000000: d626 84be 390a 703c 66d3 0abf ba5b 25bf
00000010: df5c c5be e2b0 b6be 8e8d a3bf 1a0b e3be
00000020: 6d08 5dbf 04b7 a6be 8f8d 27bf d632 f2bd
00000030: fdb0 e0bb f924 24bf 61b3 8fbf 6779 0bbf
00000040: 0e38 c7bd b391 c73d 254a 0fbf e8f4 91be
00000050: c1d3 f4be 21ae 70be 402f 8abe 40c4 1dbf
00000060: ba5f 563b f2bb 06bf 5e5c 71be ac5f 99bc
00000070: 132a 47be 0035 bebe 6576 8fbe b2b1 97be
00000080: 75d0 9ebe 9428 1fbf e642 3abe b3b7 5fbf
00000090: 54cc 3a3d 8775 09be d798 dfbe c366 61be
000000a0: da6c d9be d381 2bbf f653 84bf 961d b3be
000000b0: 9956 e4bc d8b9 9ebd 3a48 523e 947a 88bf
000000c0: 8532 0abf a4bd 93be 5fee 62be 811c 9fbe
000000d0: f39d 09bf 4f7a 18bf 4db9 babe d6a2 88bf
000000e0: 1aff 7dbd 9dac a6be 8d41 83be e206 2dbf
000000f0: 2cb8 18bf 98a4 b0bf b24a 88be f4c6 b1be
00000100: 2210 2cbe a6c7 03bf 7c4c bfbe f91d b7be
00000110: 6132 50bf cc1c c1be 0233 8cbf aadd 6fbd
00000120: 7176 56be 0f27 f3be d8c8 f4be 2e9c 9ebe
00000130: 940c 4fbe 7076 d4b9 482d 0abf 46d4 cabe
00000140: 0dec 86bf 9bf8 bb3c ea4e 8dbd 4cd0 44be
00000150: d997 afbf 50af 393e b10d 5abf 11c0 bfbc
00000160: 9b98 4bbe 4d6b a5be 8ca5 d5be da0a 0dbe
00000170: 0e0e 383d 91ec 92be f9a4 debe cdfc 5fbe
00000180: 06d6 a1be 008b 21be 8476 d0be 653a 963d
00000190: 7802 0dbf e3f4 93bf 15ef 5dbe 4fcc e3be
000001a0: 3637 a5be 6b91 80bf 5fae a3be c0eb f0be
000001b0: f000 1ebf 32c2 69bd f8a2 82be 6e99 cebc
000001c0: 6391 6abe 32e6 55be 4581 c2bf 9ecc 013d
000001d0: 3d96 0bbf 0fa3 70be 619c b5be 70cc ae3b
000001e0: e3df 5cbd 5936 1fbf 0cb3 1dbe e1ae 92bf
000001f0: 9953 a0be 078f 03bd 63b0 c83d cd90 b7be
00000200: 1760 03bf 97e1 66be 2c34 3ebf cb23 b4be
00000210: 243b 55be 6da8 bfbe 5e5c 7bbe daf2 babe
00000220: b724 7fbd 27dd 11bf 8c5a 6fbe 492d b5be
00000230: 1c9e e4bd 756b 6ebe 4b26 e6be ff05 0fbf
00000240: 7d04 9bbe e6f6 56be 4bbd c9bd 46b7 47bd
00000250: 9242 f4be 7a2a a2be 6bbe 77be b7fc 59be
00000260: 88df cebe 196e debe cab5 113e 5277 aebd
00000270: fa09 26bf 4ff6 e7be 90ab 37bf f5ee 2fbf
00000280: 2f48 80be 5aa1 9dbe f64d 8b3d 7f75 0fbf
00000290: 7b9e 06bf 3c6f d73c f498 48be f833 63bf
000002a0: 8fd4 f7bd 0a25 b0be 1c81 2bbe 48d2 87be
000002b0: 8c49 4cbe b9db 00bf 2f9a 8e3e 62bc a0bf
000002c0: a8c2 c8be 4730 80be d3d9 3ebf 617f e53d
000002d0: 593f 12bf f522 533d 35e8 d0be 4031 eebe
000002e0: d7cf fcbe b41a 44bf 8814 e2bf 7904 e4be
000002f0: ca1c e0be 2789 d6be b2bd 6dbe e922 cebe
00000300: d417 b3be 37b6 34be c108 08be 359a c33d
00000310: 861b 1dbf 99b0 9ebf 92ce b0be d7dd 35bf
00000320: c3ab e1be 43cc 9abe dde6 12bf bb33 0cbe
00000330: 169b cebe 21d4 eabe 858c b93e 9e46 26bf
00000340: 17c1 83be 1e3f 1cbf 686f 9abd d2a1 19bf
00000350: 3ed0 1dbf bd88 82be b3c2 75bf ef6c 18bf
00000360: 74f0 2cbf d7bf dcbd 6288 00bf cb25 c8be
00000370: 05ba 26bf 3715 14bf b465 243e 3315 533e
00000380: 9a36 c8be f6ea acbe 5568 f5be d084 53be
00000390: 8550 613d 6b03 0abf 1613 f4be 0912 9fbd
000003a0: ce8d febe dca5 72be 790b 15be e69d 95bd
000003b0: da85 12bf 279a 9cbe 03d0 84be 62a7 d1be
000003c0: 4312 d7bd 2459 acbe 2fff 74be 28f7 99be
000003d0: 0c0f abbe 3618 983d b7c8 87bf c5ec adbe
000003e0: 5b00 39ba c42a 8fbe 6932 81bf 4597 18be
000003f0: 31d6 ce3c 0f1d 1bbf 9348 3abf 91c1 80be

fc2.weight f4 [256, 256]
0.26424137 0.12421006 -0.00666348 0.36729762 0.21015313 0.17088452 0.3683806 -0.72628754
0.004294272 -0.1263755 -0.17982976 -0.63258076 0.085553065 0.24955371 0.7129796 0.30281898
-0.3289163 -0.07199419 -0.7269344 0.43177786 -0.23448028 -0.21410628 -0.09500697 -0.10998088
-0.1195986 0.65604484 0.11421933 -0.55119383 -0.04947964 -0.52657616 -0.33260545 0.14380282
-0.22319312 -0.4151086 0.29267865 0.12291435 0.10013075 -0.03875629 0.4006086 -0.4804947
-0.35039735 0.095930256 0.60524696 -0.085949056 -0.13541386 -0.5719367 -0.12087338 0.15528555
0.1660391 -0.5721811 0.67465276 0.0095365755 -0.25272202 -0.28570935 -0.08554085 0.3330803
-0.005891875 0.10756123 -0.48802108 0.018776176 0.22762914 0.22664273 0.31750524 -0.5919869
0.4278799 0.5111351 -0.1804804 -0.18440893 -0.017881643 -0.49601087 0.012688741 -0.13052645
-0.34714726 0.20108756 -0.25590402 0.15075852 -0.35329083 -0.021631885 0.37680888 0.19617547
-0.54324967 0.28697398 -0.21101418 0.0335692 0.17695917 -0.4038432 0.1157794 0.29863393
-0.21597959 -0.116925284 -0.19197802 -0.3025185 0.16687995 -0.5353052 0.35333097 -0.5334543
-0.044532064 -0.48916978 -0.0086781895 0.1651919 -0.19400993 0.71653575 -0.123480335 -0.30897725
0.029682687 0.08168405 0.2471462 -0.78878725 -0.2567731 0.07718153 -0.19764268 -0.33433366
0.16935939 0.10622041 0.29214364 0.027624909 -0.07312478 -0.47792596 -0.43633714 0.040141586
-0.09499407 0.14411685 0.15723868 0.41040924 -0.291149 -0.2955958 0.40846074 0.20130077
-0.16524921 0.2164858 0.21326883 -0.1251273 -0.012926228 -0.6339449 0.013283057 -0.4445254
-0.47140998 0.12024626 -0.10605286 0.10253699 0.09982744 -0.3023332 -0.3510157 0.2815373
0.21490555 0.3909036 -0.5082998 0.19039807 -0.2994678 -0.043665376 0.030896988 -0.22279914
0.1556904 0.11698423 -0.18963625 0.001834387 -0.29116192 -0.11838976 0.15212268 -0.3725792
-0.9380548 0.44750777 -0.2710804 -0.39318043 0.052933004 -0.0049907253 -0.26849282 -0.006154678
-0.3298126 -0.34634015 0.08284902 -0.30132872 0.087747365 -0.5672704 -0.23910768 0.049073417
0.22290498 0.37064576 0.11701152 -0.23909667 -0.04602036 0.1171546 0.29563418 -0.268305
-0.40296122 0.0051555303 0.47604853 0.33290032 -0.3797495 -0.35180128 -0.19261742 -0.5801162
-1.0317034 -0.55942535 -0.18582954 0.5889265 -0.2705514 0.6194562 -0.5835579 -0.17457637
0.5665016 0.016738137 -0.19987176 -0.24194904 -0.041953515 -1.0319965 -1.0801289 -1.0365373
0.3035471 0.12747549 -0.18048698 0.15100186 0.21889961 -0.35130465 0.42347702 0.43698576
-0.030974293 -0.4482699 -0.18598528 -0.2884506 0.0723719 -0.05705332 0.28810966 -0.20029019
0.23220636 0.263982 -0.5101381 0.1297657 0.27723002 -0.24866815 -0.04238262 -0.24838652
0.2238266 0.20740415 0.33632326 0.27828792 0.22203349 -0.087876216 0.12982227 0.06514634
-0.06937613 0.31969446 0.43092403 -0.56303275 0.046426345 -0.02774965 -0.35984465 0.09226721
-0.44601202 -0.12114482 0.3183807 -0.09169623 0.259796 0.27276936 0.09019544 0.3819489
00000000: a54a 873e d861 fe3d 5259 dabb 6f0e bc3e
00000010: 6232 573e 5afc 2e3e 629c bc3e fbed 39bf
00000020: f7b6 8c3b 9468 01be 4b25 38be d0f0 21bf
00000030: 7236 af3d 028b 7f3e d585 363f 170b 9b3e
00000040: b867 a8be b171 93bd 5f18 3abf fd11 dd3e
00000050: 991b 70be ad3e 5bbe 0493 c2bd a83d e1bd
00000060: 1cf0 f4bd 8ef2 273f d3eb e93d 0a1b 0dbf
00000070: 2aab 4abd b2cd 06bf 434b aabe 0c41 133e
00000080: bd8c 64be 1d89 d4be fad9 953e 85ba fb3d
00000090: 5a11 cd3d eabe 1ebd 921c cd3e 6703 f6be
000000a0: 4867 b3be 1577 c43d 77f1 1a3f 0f06 b0bd
000000b0: eea9 0abe 726a 12bf 768c f7bd 2d03 1f3e
000000c0: 2706 2a3e 767a 12bf 0bb6 2c3f 4c3f 1c3c
000000d0: c864 81be 7f48 92be 0b30 afbd 8089 aa3e
000000e0: a110 c1bb 1049 dc3d e6dd f9be 7fd0 993c
000000f0: 9d17 693e 0815 683e 0c90 a23e 748c 17bf
00000100: 1313 db3e c0d9 023f dbcf 38be b2d5 3cbe
00000110: 867c 92bc 23f5 fdbe 70e4 4f3c baa8 05be
00000120: 49bd b1be e6e9 4d3e da05 83be 7160 1a3e
00000130: 89e2 b4be 5a35 b1bc 18ed c03e 39e2 483e
00000140: 6912 0bbf 41ee 923e 1a14 58be dc7f 093d
00000150: c934 353e 89c4 cebe c01d ed3d 8ce6 983e
00000160: c129 5dbe 8676 efbd e395 44be b4e3 9abe
00000170: 94e2 2a3e c309 09bf cce7 b43e 7690 08bf
00000180: 4167 36bd 7674 fabe f72e 0ebc 1128 293e
00000190: 8aaa 46be e36e 373f 42e3 fcbd 4432 9ebe
000001a0: 1b29 f33c f849 a73d e513 7d3e f6ed 49bf
000001b0: c477 83be 5a11 9e3d d862 4abe c82d abbe
000001c0: 8c6c 2d3e 168a d93d da93 953e a24d e23c
000001d0: 72c2 95bd b6b2 f4be 9567 dfbe 816b 243d
000001e0: 408c c2bd 5e93 133e 2d03 213e 2921 d23e
000001f0: 7b11 95be 5558 97be c421 d13e ca21 4e3e
00000200: 1737 29be 74ae 5d3e 2563 5a3e 5f21 00be
00000210: 88c8 53bc 374a 22bf 2ea1 593c d598 e3be
00000220: a65c f1be ac43 f63d 3e32 d9bd eafe d13d
00000230: 5472 cc3d 6bcb 9abe 54b8 b3be a825 903e
00000240: 3310 5c3e 8424 c83e f01f 02bf b6f7 423e
00000250: d853 99be 77da 32bd ae1b fd3c 7525 64be
00000260: 4e6d 1f3e 6e95 ef3d 0130 42be d06f f03a
00000270: 2d13 95be 5576 f2bd 0cc6 1b3e b3c2 bebe
00000280: 5c24 70bf bd1f e53e 0dcb 8abe f24e c9be
00000290: 47d0 583d 3d89 a3bb e477 89be 2ead c9bb
000002a0: 32dd a8be 7f53 b1be bfac a93d c247 9abe
000002b0: e4b4 b33d a238 11bf a5d8 74be 3501 493d
000002c0: 3441 643e 48c5 bd3e bca3 ef3d c2d5 74be
000002d0: d87f 3cbd c0ee ef3d 5d5d 973e 465f 89be
000002e0: ef50 cebe b9ef a83b a2bc f33e e971 aa3e
000002f0: 876e c2be 4c1f b4be 803d 45be 7f82 14bf
00000300: db0e 84bf 8036 0fbf 194a 3ebe e3c3 163f
00000310: b785 8abe ae94 1e3f 0d64 15bf 26c4 32be
00000320: 4006 113f 6b1e 893c 2fab 4cbe 7dc1 77be
00000330: 73d7 2bbd 7618 84bf aa41 8abf 41ad 84bf
00000340: 876a 9b3e ef88 023e 94d1 38be 3ba0 1a3e
00000350: 3827 603e 34de b3be fbd1 d83e 99bc df3e
00000360: cdbd fdbc a283 e5be ed72 3ebe ccaf 93be
00000370: b837 943d beb0 69bd 1c83 933e df18 4dbe
00000380: 81c7 6d3e a628 873e 6998 02bf 4de1 043e
00000390: 18f1 8d3e dda2 7ebe 6699 2dbd 0959 7ebe
000003a0: cd32 653e c161 543e 9032 ac3e c17b 8e3e
000003b0: bf5c 633e 72f8 b3bd 21f0 043e 726b 853d
000003c0: 1315 8ebd feae a33e 13a2 dc3e ea22 10bf
000003d0: 8d29 3e3d 3c53 e3bc 8f3d b8be 97f6 bc3d
000003e0: b05b e4be c61a f8bd cc02 a33e 3ccb bbbd
000003f0: fb03 853e 6da8 8b3e 63b8 b83d ce8e c33e

fc2.bias f4 [256]
-0.3835262 -0.43267107 -0.22679152 -0.31955224 -0.35671785 -0.4612664 -0.5960169 -0.45316845
-0.30999362 -0.37186232 -0.33029512 -0.27533954 -0.3413567 -0.40849635 -0.57522726 -0.2598581
-0.51119214 -0.23668666 -0.86859256 -0.47521034 -0.5447043 -0.70617443 -0.34796527 -0.27169216
-0.14901796 -0.24325766 -0.51964515 -0.31162408 -0.3453851 -0.47189537 -0.34824923 -0.62566173
-0.16455922 -0.06711523 -0.38772687 -0.49122992 -0.6571855 -0.48573747 -0.59268475 -0.32774666
-0.4063774 -0.27107376 -0.39081204 -0.5394432 -0.38690206 -0.4402453 -0.43569896 -0.29042417
-0.21803127 -0.5036201 -0.18916972 -0.3631918 -0.16521159 -0.55157214 -0.54561967 -0.5751419
-0.43051913 -0.4908999 -0.29874253 -0.42661482 -0.14463353 -0.3957741 -0.20046477 -0.538824
-0.12943032 -0.270036 -0.30384508 -0.60804343 -0.47629827 -0.10140684 -0.477185 -0.39211687
-0.42600304 -0.24053037 -0.08629615 -0.17611107 -0.35487545 -0.40103593 -0.31829664 -0.25785705
-0.27182516 -0.33921447 -0.37210682 -0.50836974 -0.31425035 -0.25690442 -0.1840878 -0.3634678
-0.14132208 -0.37705842 -0.54316926 -0.61877054 -0.32113874 -0.43642712 -0.25005513 -0.101416014
-0.5556595 -0.46708518 -0.3767825 -0.49676776 -0.49004504 -0.33022565 -0.25122198 -0.32625753
-0.46967787 -0.40119642 -0.03474276 -0.5512776 -0.14355169 -0.13297732 -0.1449856 -0.09985027
-0.2890324 -0.4981155 -0.4247193 -0.5155534 -0.35568085 -0.13635385 -0.8544704 -0.5263477
-0.4334812 -0.30523422 -0.08711954 -0.38360816 -0.8183863 -0.31997025 -0.5441755 -0.36960346
-0.6460044 -0.37182453 -0.40729573 -0.1914946 -0.18113987 -0.45919687 -0.13677242 -0.4164116
-0.33607787 -0.27646163 -0.32299608 -0.1320942 -0.3802357 -0.5079283 -0.3100703 -0.51650363
-0.36848426 -0.3126466 -0.29698065 -0.383625 -0.5759729 -0.16097209 -0.6450354 -0.25011948
-0.1909665 -0.64411396 -0.46533364 -0.4084196 -0.4212216 -0.46055162 -0.36567676 -0.3060936
-0.1561238 -0.46542218 -0.44207633 -0.32054353 -0.5229731 -0.19580166 -0.26638186 -0.3995126
-0.19982897 -0.31900305 -0.47079787 -0.2441012 -0.43792585 -0.39097482 -0.35587493 -0.3575934
-0.33519688 -0.2613541 -0.1735713 -0.15454262 -0.19863345 -0.42904362 -0.2971101 -0.48170954
-0.31394503 -0.5190144 -0.29043853 -0.17464639 -0.23529232 -0.18623166 -0.2707499 -0.40938154
-0.32224822 -0.5538391 -0.29285496 -0.5343297 -0.1537664 -0.35069826 -0.45294452 -0.33400786
-0.07998697 -0.04655509 -0.19714037 -0.43920448 -0.40159062 -0.48489946 -0.33349442 -0.23768623
-0.38316664 -0.32838902 -0.39096707 -0.2860077 -0.20971105 -0.75282425 -0.1671196 -0.031324707
-0.31150094 -0.066667914 -0.25324398 -0.31556362 -0.20412518 -0.2783745 -0.51903224 -0.56301904
-0.2850486 -0.3354038 -0.31230298 -0.2234574 -0.4973672 -0.12639122 -0.47151285 -0.2767383
-0.31632096 -0.37848863 -0.54522365 -0.35905987 -0.30737588 -0.7806052 -0.37128332 -0.5528879
-0.29134837 -0.29630384 -0.4358359 -0.2157515 -0.17724589 -0.39092675 -0.43596593 -0.37857842
-0.19364831 -0.07769962 -0.68895346 -0.5710158 -0.16130868 -0.12777506 -0.27103794 -0.20865388
00000000: 8c5d c4be 1087 ddbe 093c 68be 5a9c a3be
00000010: b9a3 b6be 1c2b ecbe 9094 18bf b205 e8be
00000020: 7cb7 9ebe bd64 bebe 711c a9be 4ef9 8cbe
00000030: 4ec6 aebe 6f26 d1be 1842 13bf 1f0c 85be
00000040: 7ddd 02bf fd5d 72be 155c 5ebf c54e f3be
00000050: be71 0bbf d9c7 34bf 8128 b2be 3c1b 8bbe
00000060: 2a98 18be 8918 79be 7707 05bf 318d 9fbe
00000070: 51d6 b0be 459c f1be b94d b2be 5e2b 20bf
00000080: 3682 28be b673 89bd 2384 c6be 7d82 fbbe
00000090: 4f3d 28bf 95b2 f8be 30ba 17bf 69ce a7be
000000a0: b310 d0be 2eca 8abe 8418 c8be f318 0abf
000000b0: 0718 c6be d567 e1be ef13 dfbe 7ab2 94be
000000c0: 9743 5fbe 3fed 00bf b5b5 41be 47f4 b9be
000000d0: 3a2d 29be d533 0dbf bbad 0bbf 803c 13bf
000000e0: 016d dcbe 3b57 fbbe c8f4 98be 426d dabe
000000f0: d01a 14be e7a2 cabe a346 4dbe 5ff0 09bf
00000100: 6289 04be 2942 8abe 9591 9bbe bca8 1bbf
00000110: 5edd f3be 64ae cfbd 9851 f4be 8bc3 c8be
00000120: 121d dabe 984d 76be 09bc b0bd 7656 34be
00000130: 3cb2 b5be 9554 cdbe c7f7 a2be d705 84be
00000140: ab2c 8bbe 85ad adbe c984 bebe 8524 02bf
00000150: 6ce5 a0be fa88 83be 8381 3cbe 7418 babe
00000160: bcb6 10be cd0d c1be 240d 0bbf bf67 1ebf
00000170: 4c6c a4be 6073 dfbe 3a07 80be 33b3 cfbd
00000180: b33f 0ebf ca25 efbe a3e9 c0be 5858 febe
00000190: 2fe7 fabe 5613 a9be 2ba0 80be 3a0b a7be
000001a0: 9e79 f0be 9e69 cdbe 6d4e 0ebd 8720 0dbf
000001b0: 37ff 12be 352b 08be 1b77 14be 4c7e ccbd
000001c0: 0efc 93be ff08 ffbe cf74 d9be 4ffb 03bf
000001d0: cd1b b6be 58a0 0bbe 92be 5abf b9be 06bf
000001e0: 3ff1 ddbe a947 9cbe bb6b b2bd 4a68 c4be
000001f0: c481 51bf 24d3 a3be 164f 0bbf aa3c bdbe
00000200: 8b60 25bf c95f bebe 1189 d0be 2917 44be
00000210: bb7c 39be da1b ebbe 120e 0cbe e733 d5be
00000220: 6612 acbe 618c 8dbe be5f a5be b443 07be
00000230: 41ae c2be 9707 02bf 89c1 9ebe 9539 04bf
00000240: f8a9 bcbe 3713 a0be d90d 98be 7f6a c4be
00000250: f672 13bf ded5 24be 0a21 25bf a90f 80be
00000260: b98c 43be a7e4 24bf 3640 eebe 601c d1be
00000270: 5caa d7be 6ccd ebbe fc39 bbbe 4db8 9cbe
00000280: ebde 1fbe d14b eebe d457 e2be 481e a4be
00000290: 91e1 05bf 3b80 48be 3463 88be ea8c ccbe
000002a0: f79f 4cbe 5e54 a3be 6b0c f1be aaf5 79be
000002b0: d137 e0be da2d c8be 3d35 b6be 7b16 b7be
000002c0: ed9e abbe 34d0 85be adbc 31be 6c40 1ebe
000002d0: 9166 4bbe 9bab dbbe d11e 98be a2a2 f6be
000002e0: 67bd a0be 21de 04bf 5cb4 94be 81d6 32be
000002f0: 78f0 70be 83b3 3ebe bb9f 8abe 759a d1be
00000300: b8fd a4be 66c8 0dbf 16f1 95be d5c9 08bf
00000310: f074 1dbe b98e b3be 58e8 e7be 1403 abbe
00000320: 35d0 a3bd 8db0 3ebd 2adf 49be 69df e0be
00000330: 499d cdbe be44 f8be c8bf aabe 0564 73be
00000340: 6b2e c4be 9b22 a8be d62c c8be 9a6f 92be
00000350: 7ebe 56be 17b9 40bf 6721 2bbe 564e 00bd
00000360: 0d7d 9fbe 3089 88bd 32a9 81be 8e91 a1be
00000370: 3106 51be 1a87 8ebe 4cdf 04bf 0422 10bf
00000380: e4f1 91be 0cba abbe 2de6 9fbe 04d2 64be
00000390: eaa6 febe b36c 01be 226a f1be a4b0 8dbe
000003a0: d2f4 a1be 43c9 c1be c793 0bbf b2d6 b7be
000003b0: 5f60 9dbe bed5 47bf d918 bebe 108a 0dbf
000003c0: 9d2b 95be 23b5 97be e225 dfbe f6ed 5cbe
000003d0: f27f 35be 8d27 c8be ed36 dfbe 08d5 c1be
000003e0: be4b 46be fa20 9fbd 415f 30bf 172e 12bf
000003f0: 1a2e 25be 77d7 02be 7cc5 8abe 5da9 55be

fc3.weight f4 [128, 256]
-0.29614386 -0.671035 -0.23909596 -0.0016615664 -0.31624335 -0.39609152 0.0168406 -0.64972883
0.45056605 -0.16369882 0.007515308 -0.08295938 -0.2953076 -0.17140283 -0.22891277 0.005572975
-0.5337963 -0.52919847 -0.3080557 -0.2745145 0.03602815 -0.19052124 -0.22461371 -0.46507537
-0.39640284 -0.16502926 -0.281849 -0.1094039 0.19876337 -0.5342801 -0.21848351 -0.18595913
-0.26572224 -0.5753728 0.10476431 -0.43308505 -0.136936 -0.108195 0.04287737 0.008416652
0.21801685 -0.2944306 -0.2621468 -0.35742274 0.061974414 -0.5063182 -0.27432683 -0.7228647
-0.0011252579 -0.52265006 0.09450584 0.106874 -0.3496149 -1.1579142 -0.07988243 -0.044167407
-0.18085326 -0.36171556 -0.48295107 -0.3749534 -0.25467694 -0.10570289 -0.27197394 -0.47837883
0.22109896 0.05878376 -0.1093097 -0.17597754 -0.6834058 -0.39463255 0.34355575 -0.2531957
0.10251573 -0.18801929 -0.32357484 -0.022868138 -0.07580267 -0.33165944 -0.21734871 -0.31795016
0.12634727 -0.325804 -0.20883088 0.11051804 -0.37627238 -0.28962737 -0.28934005 -0.066169195
0.088386014 -0.28919053 -0.19389491 -0.5060202 -0.31347978 -0.25336134 -0.7115029 0.14118893
-0.47913367 0.28682363 -0.10560191 -0.377959 -0.077793 0.003424424 -0.56369 0.14710042
0.027262568 -0.20626679 -0.28851566 -0.90650415 0.085689984 0.016220132 -0.21123806 0.08489036
-0.008999136 -0.13781518 0.017194265 -0.09819434 -0.40862364 0.0024791732 -0.38603845 -0.5159941
-0.25237095 -0.47941238 -0.1329084 -0.46589053 -0.6108319 -0.16566579 0.35914245 -0.38938564
-0.22388996 0.10166025 -0.3849497 -0.7282387 0.48341882 0.067491956 -0.093244694 -0.24012198
-0.3965105 -0.41144392 -0.0015890949 0.064164124 -0.40774378 0.049526513 -0.55931073 -0.29744303
-0.35694993 -0.4367121 -0.30537343 -0.57390344 -0.08229645 0.17959864 -0.26805782 -0.16866097
0.01154625 -0.29432556 -0.48790795 0.08704534 0.005545997 -0.48333505 0.14415401 0.16329432
-0.07411759 -0.09616288 0.073302135 -0.02073439 -0.41135332 -0.5608897 -0.35064608 -0.8568087
0.19473094 -0.64542055 -0.26049542 0.28871557 -0.29834774 0.08136178 -0.06483694 -0.062195577
-0.6478296 0.0891032 -0.4297082 -0.26086006 -0.29199204 -0.47692558 -0.19483972 -0.55946666
-0.09291192 -0.24082823 -0.15122668 0.24833666 0.056582432 -0.30891538 0.22311534 -0.03185208
-0.18700348 -0.4374888 -0.61467797 -0.16082321 -0.3825075 -0.03191642 -0.38777792 -0.18738307
-0.21766968 0.26748383 -0.016646914 -0.043372374 -0.46339113 -0.73354626 -0.51774013 -0.1433378
-0.38371468 -0.26607257 -0.0790958 0.013999533 -0.1712687 -0.5163929 0.015524594 0.30996147
-0.5079255 -0.009426685 -0.8031531 0.23915969 -0.3056382 0.13049312 0.053408314 -0.0826657
-0.20332246 0.114409536 -0.66676366 -0.02669467 -0.19483618 -0.15543826 -0.21583888 -0.14081034
-0.34257656 -0.5500359 0.06952218 -0.6365792 -0.54428446 -0.4759641 -0.20572913 0.03545963
-0.26681566 -0.47780806 -0.33117124 -0.13996272 -0.28214702 -0.16229808 -0.16338736 0.21053836
-0.63515216 0.25780225 -0.3026614 -0.3280235 -0.5083155 0.1809779 -0.50127417 -0.31547004
00000000: 2ba0 97be f3c8 2bbf 92d5 74be ebc8 d9ba
00000010: a6ea a1be 82cc cabe 4cf5 893c a154 26bf
00000020: 98b0 e63e aaa0 27be f942 f63b 9be6 a9bd
00000030: 8f32 97be 3984 2fbe 1c68 6abe 819d b63b
00000040: e0a6 08bf 8d79 07bf 7ab9 9dbe 2a8d 8cbe
00000050: 4192 133d 0018 43be 2301 66be 5c1e eebe
00000060: 50f5 cabe 6efd 28be 834e 90be 270f e0bd
00000070: a088 4b3e 95c6 08bf 24ba 5fbe 126c 3ebe
00000080: bf0c 88be a24b 13bf ac8e d63d 53bd ddbe
00000090: f338 0cbe 5795 ddbd 2ea0 2f3d ffe5 093c
000000a0: cf3f 5f3e 9cbf 96be 1b38 86be 1d00 b7be
000000b0: e2d8 7d3d 129e 01bf 9174 8cbe a90d 39bf
000000c0: 647d 93ba 65cc 05bf 478c c13d c1e0 da3d
000000d0: b900 b3be 8836 94bf 6699 a3bd e2e8 34bd
000000e0: 9931 39be c832 b9be 5d45 f7be e4f9 bfbe
000000f0: 0465 82be c27a d8bd 2b40 8bbe 12ee f4be
00000100: c467 623e 3dc7 703d c4dd dfbd 7533 34be
00000110: aff3 2ebf 470d cabe 8ae6 af3e dea2 81be
00000120: c4f3 d13d 2188 40be 9aab a5be f655 bbbc
00000130: 6e3e 9bbd 44cf a9be a990 5ebe 5dca a2be
00000140: 2e61 013e c8cf a6be c3d7 55be 4857 e23d
00000150: c6a6 c0be 0a4a 94be 6124 94be b783 87bd
00000160: ba03 b53d c810 94be 638c 46be 8a8a 01bf
00000170: 6c80 a0be 94b8 81be 0e25 36bf d593 103e
00000180: 0251 f5be 8cda 923e d045 d8bd d883 c1be
00000190: f051 9fbd 4d6c 603b fd4d 10bf 7ea1 163e
000001a0: c055 df3c 9a37 53be 53b8 93be a810 68bf
000001b0: 3b7e af3d 15e0 843c ca4e 58be ffda ad3d
000001c0: 1d71 13bc 6c1f 0dbe fdda 8c3c 1d1a c9bd
000001d0: 1e37 d1be a079 223b d5a6 c5be 3018 04bf
000001e0: c436 81be 8a75 f5be 2419 08be 3489 eebe
000001f0: 7b5f 1cbf 4ba4 29be 85e1 b73e 8e5d c7be
00000200: 6943 65be 4033 d03d 2118 c5be da6d 3abf
00000210: ac82 f73e 3939 8a3d 13f7 bebd 89e2 75be
00000220: 6d03 cbbe c7a8 d2be 2d49 d0ba 7b68 833d
00000230: cbc3 d0be 50dc 4a3d fd2e 0fbf 744a 98be
00000240: 24c2 b6be ba98 dfbe e859 9cbe 56eb 12bf
00000250: 0b8b a8bd b5e8 373e e03e 89be 76b5 2cbe
00000260: 7c2c 3d3c d7b1 96be 12cf f9be d444 b23d
00000270: 32bb b53b b177 f7be 1c9d 133e a036 273e
00000280: f7ca 97bd 0bf1 c4bd 6e1f 963d 2bdb a9bc
00000290: e79c d2be 7896 0fbf e287 b3be d157 5bbf
000002a0: 8c67 473e 483a 25bf a85f 85be 87d2 933e
000002b0: 09c1 98be 01a1 a63d 3bc9 84bd cac0 7ebd
000002c0: 29d8 25bf bd7b b63d b702 dcbe 738f 85be
000002d0: fb7f 95be 972f f4be 1084 47be 3539 0fbf
000002e0: 9b48 bebd ad9b 76be 2bdb 1abe f74b 7e3e
000002f0: fbc2 673d 282a 9ebe 5978 643e 5477 02bd
00000300: d77d 3fbe 88fe dfbe 895b 1dbf d7ae 24be
00000310: 06d8 c3be cbba 02bd d48a c6be 59e1 3fbe
00000320: cde4 5ebe a4f3 883e 1c5f 88bc 3ba7 31bd
00000330: 9a41 edbe b0c9 3bbf 9e8a 04bf 25c7 12be
00000340: 4076 c4be aa3a 88be fbfc a1bd 4c5e 653c
00000350: 1061 2fbe 5332 04bf de5a 7e3c 45b3 9e3e
00000360: 6807 02bf 6272 1abc 719b 4dbf 47e6 743e
00000370: 9c7c 9cbe fd9f 053e adc2 5a3d a24c a9bd
00000380: c333 50be 8c4f ea3d 06b1 2abf c8ae dabc
00000390: 2383 47be 352b 1fbe de04 5dbe 9630 10be
000003a0: 3266 afbe 27cf 0cbf a561 8e3d dbf6 22bf
000003b0: 3a56 0bbf 91b1 f3be a8aa 52be 1e3e 113d
000003c0: 109c 88be 42a3 f4be 478f a9be 6352 0fbe
000003d0: 9375 90be 7831 26be 044f 27be 5e97 573e
000003e0: 5599 22bf a8fe 833e 6ff6 9abe b2f2 a7be
000003f0: f720 02bf 4552 393e 8153 00bf 4a85 a1be

fc3.bias f4 [128]
0.018838614 0.7053989 0.039699897 -0.16712391 0.0027037277 -0.066585146 -0.5470794 -0.35081875
-0.1742298 -0.086542696 -0.13993435 -0.3534629 0.037722312 -0.005129722 -0.13385862 0.23000273
-0.18765649 -0.22065069 0.08110407 -0.16425017 -0.023386227 -0.16322787 0.13852192 -0.1247454
-0.21036986 -0.26989204 0.22771004 -0.3027478 0.26331967 -0.023286821 0.23271173 -0.13270095
-0.016313847 -0.15291645 0.39371526 -0.5964791 -0.45649925 -0.26393506 -0.32687786 0.09833693
-0.14370832 0.1251988 0.04242701 -0.055388737 -0.25806284 -0.18324983 -0.17025542 -0.05242376
0.34643117 -0.28305113 0.33486816 -0.2953448 -0.111598305 0.04242065 -0.23424503 0.064752094
-0.024033206 -0.26659912 -0.08810746 0.68024063 -0.49909157 -0.08319053 0.053657915 0.21472089
-0.1432867 -0.41612068 0.2852556 -0.073525704 -0.22396079 -0.26177937 0.00021282172 -0.15623793
-0.0067249537 -0.16355047 -0.27612993 -0.36110765 -0.05168203 -0.12620702 0.013796089 -0.18195298
-0.36796394 0.11709019 0.19550005 -0.039155934 -0.27896845 -0.061864037 -0.31568733 -0.045199797
-0.152493 -0.22922008 0.1409359 -0.13750754 -0.028272076 -0.21713923 -0.39207688 0.08153637
-0.19312127 -0.28092444 0.21947418 -0.30982167 -0.26831403 -0.30546063 0.077933416 -0.15492865
-0.016837059 -0.18425572 0.23308824 -0.37810057 -0.2862872 -0.0742975 -0.036203563 0.08119154
-0.087620884 -0.3627077 0.059672114 -0.08045592 -0.085709594 -0.046688348 -0.4385773 0.054793928
-0.055287506 0.18098387 0.021347633 -0.17980297 -0.0065968283 0.18925531 -0.18714541 0.29277098
00000000: 7053 9a3c 0695 343f 5c9c 223d 8822 2bbe
00000010: 0631 313b cb5d 88bd 650d 0cbf 849e b3be
00000020: 4c69 32be 4c3d b1bd f34a 0fbe 17f9 b4be
00000030: b682 1a3d 3a17 a8bb 3c12 09be d685 6b3e
00000040: 0629 40be 41f2 61be e419 a63d 3231 28be
00000050: 7994 bfbc 3525 27be b1d8 0d3e 847a ffbd
00000060: 326b 57be 4a2f 8abe d22c 693e c201 9bbe
00000070: d6d1 863e 01c4 bebc fc4b 6e3e c2e2 07be
00000080: 9ea4 85bc 2196 1cbe 0c95 c93e dbb2 18bf
00000090: 45ba e9be 7f22 87be 895c a7be df64 c93d
000000a0: 4628 13be 1d34 003e f2c7 2d3d 4ddf 62bd
000000b0: d020 84be d8a5 3bbe 7057 2ebe 4cba 56bd
000000c0: 6d5f b13e 14ec 90be d773 ab3e 6f37 97be
000000d0: a78d e4bd 47c1 2d3d eedd 6fbe bf9c 843d
000000e0: 49e1 c4bc ae7f 88be af71 b4bd 4024 2e3f
000000f0: ee88 ffbe cc5f aabd 67c8 5b3d cbdf 5b3e
00000100: c0b9 12be c50d d5be 060d 923e a594 96bd
00000110: fa55 65be f207 86be e528 5f39 d6fc 1fbe
00000120: 005d dcbb c679 27be e760 8dbe 1ae3 b8be
00000130: 89b0 53bd 6a3c 01be fe08 623c e251 3abe
00000140: c565 bcbe fbcc ef3d 2a31 483e f961 20bd
00000150: f4d4 8ebe 2565 7dbd c5a1 a1be 6c23 39bd
00000160: 2027 1cbe abb8 6abe 8051 103e c7ce 0cbe
00000170: d79a e7bc bf59 5ebe 4dbe c8be 8afc a63d
00000180: 95c1 45be 54d5 8fbe d7bd 603e f2a0 9ebe
00000190: 7560 89be 5665 9cbe 8e9b 9f3d 9ea5 1ebe
000001a0: dfed 89bc 88ad 3cbe afae 6e3e 6696 c1be
000001b0: 3c94 92be 4a29 98bd 304a 14bd c047 a63d
000001c0: 9472 b3bd d3b4 b9be bf6a 743d 13c6 a4bd
000001d0: 8388 afbd 483c 3fbd 348d e0be 996f 603d
000001e0: 2775 62bd d653 393e 3be1 ae3c 451e 38be
000001f0: 352a d8bb 25cc 413e 0ca3 3fbe 14e6 953e

fc4.weight f4 [32, 128]
-0.21759973 -0.37815407 -0.07809192 -0.32650816 -0.024322163 -0.09661886 -0.11340613 -0.121605955
-0.20855659 0.1478159 -0.31944025 -0.1728146 0.25564575 0.0079093585 -0.6106324 -0.22257696
-0.13560213 -0.49915794 -0.26391175 -0.055475876 -0.11616079 -0.43376148 0.1322401 -0.009596146
-0.17161144 0.1733951 -0.20050193 -0.06803797 0.109387435 -0.15106869 -0.18975835 -0.17112099
-0.11149358 -0.09860448 -0.07250605 -0.073995285 -0.61568034 -0.10819271 -0.09629713 -0.3636197
-0.20828365 -0.114940204 -0.5173864 0.084148444 -0.12066156 -0.0337692 0.0844944 -0.18946539
-0.05175646 -0.5796359 -0.39596948 0.15230657 -0.15303934 0.11608248 0.008482568 -0.22062388
-0.11039236 -0.25601777 -0.18621631 -0.23851839 -0.14822173 0.08704253 -0.21822806 -0.25877282
-0.4103618 -0.49509197 -0.075044006 0.046834704 -0.20245722 0.10148317 -0.17847635 -0.26321363
-0.17993923 -0.10884562 0.13108613 -0.28041872 -0.27775547 0.08918087 -0.026593514 -0.16830333
-0.07639596 -0.3168244 -0.08993576 -0.12965623 -0.21059059 -0.27079958 -0.016265737 0.08417683
-0.15240358 -0.08765349 -0.06943786 -0.54355836 -0.23893069 -0.18563595 -0.073229074 -0.4645746
-0.40228137 -0.32600734 -0.25443986 -0.19042738 -0.10399912 -0.42158237 -0.18596691 0.05114866
-0.000426776 -0.049577806 -0.4770201 0.14436159 -0.45135465 -0.23692492 0.1344795 -0.2753886
-0.24240883 -0.30399853 -0.060710207 -0.2760607 0.09781614 0.12370998 -0.15015061 -0.38507795
-0.29642516 0.04334098 0.12641294 0.0565525 -0.014038601 -0.034128804 0.09936594 0.03139865
0.20443484 0.15091719 0.38746986 0.117148526 0.07521357 -0.046819124 0.42801273 -0.13943236
-0.004161504 0.30341133 0.3259354 0.27198127 0.33705464 -0.3322047 0.27917504 -0.16282931
-0.275056 0.24528623 -0.34465578 -0.18394974 0.09856231 0.17237958 0.14455254 0.25339457
-0.20779191 -0.35076374 0.06732093 0.041942243 -0.2014094 -0.50368315 0.39000058 0.431171
-0.3328717 -0.063676536 -0.1600887 -0.3187778 0.08985492 0.10801584 0.29268205 -0.34249026
0.31854308 0.08188354 0.14209305 -0.3570903 0.15748666 0.1733974 0.102957174 0.16060975
0.062127925 -0.30749932 -0.16738252 -0.19329429 0.0872277 0.1858133 -0.5457824 -0.09839975
0.29223683 0.54676294 0.112043284 0.15043013 0.01997803 -0.124176696 0.02220968 0.08876266
0.14235125 -0.048840754 0.13643838 0.2584967 -0.13052362 -0.567351 0.06992001 0.21010771
-0.12521483 0.124589175 -0.57476854 0.09591075 0.294485 -0.058910634 -0.0047250073 0.079122454
-0.24168782 0.15568234 -0.060742777 0.24327914 0.14829177 0.048670296 -0.3382981 -0.17262465
-0.11013217 0.00858737 0.08806994 -0.010213342 0.1851606 0.14486594 0.00042626463 0.058282953
0.3050306 0.24187312 0.10041598 0.0050167334 0.29524747 0.19839516 -0.06544512 0.5942047
-0.030482212 0.23182039 0.2252818 -0.013013399 0.25154197 0.17168212 -0.078451775 0.027563725
0.025162905 0.114914574 0.20454574 -0.3293086 -0.024520405 -0.016933925 -0.1639325 -0.14713858
-0.2840439 -0.17204209 0.1920275 0.21370775 -0.009247498 0.19816719 0.00995109 -0.27641135
00000000: 77d2 5ebe 699d c1be a8ee 9fbd 142c a7be
00000010: 463f c7bc 1ce0 c5bd 7941 e8bd 8b0c f9bd
00000020: dc8f 55be 0d5d 173e ac8d a3be 4ff6 30be
00000030: 00e4 823e 4196 013c 6852 1cbf 37eb 63be
00000040: 49db 0abe a191 ffbe 711f 87be ac3a 63bd
00000050: b5e5 edbd fc15 debe f369 073e 2739 1dbc
00000060: e9ba 2fbe 7c8e 313e 6150 4dbe 7e57 8bbd
00000070: 8506 e03d c0b1 1abe 0350 42be 573a 2fbe
00000080: bf56 e4bd 25f1 c9bd 0d7e 94bd d78a 97bd
00000090: 3a9d 1dbf 2494 ddbd 6e37 c5bd 5c2c babe
000000a0: 4f48 55be c565 ebbd 6f73 04bf 0556 ac3d
000000b0: 681d f7bd 9351 0abd 660b ad3d 3703 42be
000000c0: 95fe 53bd 0563 14bf 83bc cabe 41f6 1b3e
000000d0: 58b6 1cbe a7bc ed3d 78fa 0a3c 3aeb 61be
000000e0: 6415 e2bd c314 83be 7daf 3ebe 2a3e 74be
000000f0: 70c7 17be 5b43 b23d 2d77 5fbe df7d 84be
00000100: f11a d2be b27c fdbe acb0 99bd bfd5 3f3d
00000110: f250 4fbe 69d6 cf3d 81c2 36be f0c3 86be
00000120: fd41 38be 74ea debd 713b 063e 0b93 8fbe
00000130: f735 8ebe 76a4 b63d a4da d9bc b557 2cbe
00000140: 7c75 9cbd cf36 a2be 3d30 b8bd 9ac4 04be
00000150: 0fa5 57be 3ea6 8abe b93f 85bc e764 ac3d
00000160: af0f 1cbe ac83 b3bd 7035 8ebd a426 0bbf
00000170: 3faa 74be 5a17 3ebe 20f9 95bd b9dc edbe
00000180: d3f7 cdbe 6fea a6be f145 82be 65ff 42be
00000190: 7efd d4bd a5d9 d7be 1c6e 3ebe 4281 513d
000001a0: e8c0 dfb9 1912 4bbd fb3b f4be 86d3 133e
000001b0: f517 e7be 729c 72be feb4 093e bcff 8cbe
000001c0: 053a 78be b2a5 9bbe 44ab 78bd d457 8dbe
000001d0: d453 c83d a85b fd3d 15c1 19be f028 c5be
000001e0: 0ac5 97be 5086 313d 6572 013e 98a3 673d
000001f0: 2902 66bc a5ca 0bbd 5f80 cb3d df9b 003d
00000200: 5e57 513e 098a 1a3e 7362 c63e 91eb ef3d
00000210: 9209 9a3d 69c5 3fbd 7c24 db3e 5bc7 0ebe
00000220: 3a5d 88bb bb58 9b3e 01e1 a63e 2141 8b3e
00000230: 6d92 ac3e bc16 aabe 08f0 8e3e babc 26be
00000240: 24d4 8cbe 502c 7b3e b976 b0be 525d 3cbe
00000250: 09db c93d 4684 303e 9505 143e efbc 813e
00000260: 67c7 54be 4e97 b3be 8edf 893d a1cb 2b3d
00000270: 443e 4ebe 61f1 00bf 28ae c73e 72c2 dc3e
00000280: 296e aabe d868 82bd 4bee 23be d836 a3be
00000290: db05 b83d 6937 dd3d 6cda 953e e25a afbe
000002a0: 1418 a33e 8fb2 a73d d780 113e 8ad4 b6be
000002b0: 2f44 213e 178f 313e 36db d23d e276 243e
000002c0: da79 7e3d 8d70 9dbe 5366 2bbe f0ee 45be
000002d0: 70a4 b23d d745 3e3e 65b8 0bbf cf85 c9bd
000002e0: 11a0 953e a8f8 0b3f f376 e53d 5b0a 1a3e
000002f0: f7a8 a33c 5a50 febd 13f1 b53c 33c9 b53d
00000300: 87c4 113e 3e0d 48bd 81b6 0b3e ae59 843e
00000310: fca7 05be ea3d 11bf 3932 8f3d 7a26 573e
00000320: 5138 00be 9c28 ff3d 0824 13bf db6c c43d
00000330: bdc6 963e 474c 71bd 3cd4 9abb f40a a23d
00000340: 037d 77be 316b 1f3e 6bcd 78bd 2b1e 793e
00000350: ccd9 173e 815a 473d 6935 adbe 84c4 30be
00000360: fa8c e1bd 0ab2 0c3c 035e b43d dc55 27bc
00000370: be9a 3d3e bd57 143e 457c df39 1bba 6e3d
00000380: f92c 9c3e 96ad 773e e5a6 cd3d 6963 a43b
00000390: ad2a 973e 1a28 4b3e 1708 86bd cd1d 183f
000003a0: d5b5 f9bc 5362 6d3e 46b0 663e 2736 55bc
000003b0: 1cca 803e 70cd 2f3e 53ab a0bd 52cd e13c
000003c0: 7022 ce3c 5558 eb3d 7074 513e 239b a8be
000003d0: 04df c8bc 04b9 8abc ecdd 27be 7fab 16be
000003e0: 346e 91be cd2b 30be dba2 443e 34d6 5a3e
000003f0: d182 17bc 57ec 4a3e e609 233c ca85 8dbe

fc4.bias f4 [32]
0.33557844 -0.68124074 -0.5327406 0.4600334 -0.107869506 -0.44637513 -0.25371307 -0.5797848
0.7188472 -0.68182635 0.61178315 -0.26969054 -0.575236 -0.4547439 -0.26871318 0.6686846
0.6166754 -0.6868016 -0.6181831 0.59137887 -0.6315876 -0.6174823 -0.16338748 -0.56886834
-0.07595695 -0.51602435 0.77527976 -0.6340807 -0.45730984 -0.5391999 -0.69926095 -0.58362645
00000000: f0d0 ab3e cb65 2ebf b061 08bf 7f89 eb3e
00000010: b0ea dcbd 488b e4be aee6 81be c76c 14bf
00000020: 5f06 383f 2c8c 2ebf d29d 1c3f e114 8abe
00000030: ab42 13bf 31d4 e8be c694 89be ea2e 2b3f
00000040: 70de 1d3f 3bd2 2fbf 3f41 1ebf 9b64 173f
00000050: baaf 21bf 5213 1ebf 0c4f 27be 5ba1 11bf
00000060: 518f 9bbd 2c1a 04bf bc78 463f 1d53 22bf
00000070: 8424 eabe 0109 0abf c402 33bf 8b68 15bf

Q.weight f4 [1, 32]
0.030005056 0.0163784 -0.011157397 0.018336631 0.066768385 -0.02006742 0.057158045 0.029724644
-0.030830812 -0.0095841205 0.02433357 -0.016429223 -0.0075987712 0.018247135 -0.03598811 0.037293117
0.022894 -0.01971828 -0.0821092 0.019890497 -0.014010449 0.0005355767 -0.021190483 0.014631131
0.0027197688 -0.016548082 -0.021934537 -0.03263609 0.014383823 -0.015047323 -0.019592486 -0.01709563
00000000: 2acd f53c ff2b 863c 84cd 36bc b436 963c
00000010: ddbd 883d 6e64 a4bc 8e1e 6a3d 1981 f33c
00000020: e690 fcbc b706 1dbc 3257 c73c 9496 86bc
00000030: 1dff f8bb 047b 953c 4568 13bd abc0 183d
00000040: 338c bb3c 3b88 a1bc de28 a8bd 65f1 a23c
00000050: 158c 65bc f265 0c3a aa97 adbc 69b7 6f3c
00000060: 263e 323b d88f 87bc 0fb0 b3bc 6cad 05bd
00000070: 20aa 6b3c 0c89 76bc 6c80 a0bc 220c 8cbc

bn1.weight f4 [256]
1.2766976 0.2421028 0.86776406 0.13566183 1.1353562 0.41102588 0.7790335 0.2876935
0.073884174 0.38076866 0.4133019 0.30986458 0.46563894 0.36491555 1.251394 0.5221443
0.52754325 0.21499282 0.35302284 0.63684505 0.26489896 0.3128232 0.58013195 0.18420665
0.26580244 0.63232964 0.3133446 0.48829907 0.7660605 0.50481236 0.1261766 0.18041667
1.1279206 0.12602328 0.09409367 0.3891612 0.32087252 0.07585723 0.2794827 0.48624048
0.28476626 0.2566956 0.6591363 0.0059761526 0.7938613 0.5171983 0.41414362 0.43478918
0.8197105 0.27938235 0.65455407 0.47566277 0.43926403 0.30366665 0.11407161 0.54908955
0.6157185 0.32787442 0.18416588 0.32100832 0.31673846 1.7313128 -0.08285779 0.20523642
0.29019 0.39750198 0.24643292 1.0811254 1.0404757 0.20674029 0.11009302 0.5119336
0.076533854 0.32295018 0.31381416 0.39918217 0.24421299 0.44471747 0.21972114 0.9653517
0.46818593 0.4260964 0.45437944 -0.18244639 1.4676361 0.48932245 0.24772006 0.38842833
0.47086054 0.3485603 0.26318336 0.5121271 0.5525676 0.20236418 0.46463722 0.2011745
0.61409885 0.27420756 0.65227157 0.7422332 0.34373024 0.68763965 0.5998329 0.3313283
0.2783284 0.36715817 0.30155513 0.36986443 0.29398748 0.59333885 0.1591563 0.7610064
0.97056603 0.35662088 0.4650591 0.12056469 0.027981773 0.13908327 0.6269449 0.4273329
0.51881176 1.5087422 1.185816 0.6338147 0.31248632 0.02878672 0.7979894 1.3225067
0.27271 0.41801226 0.35824332 0.5149051 0.5027511 0.32896 0.021282736 0.6149415
0.1721089 0.1537646 0.4439958 0.12125254 0.23109166 0.6104979 0.17141934 0.5029533
0.06479511 0.2893065 0.34993115 0.16217394 0.31377327 0.2517518 0.37548694 0.2398455
0.49869078 0.0026143312 0.44457224 0.14091277 0.33520657 0.2063538 0.2576355 0.22731505
0.3960003 1.1197557 0.4080546 0.20622538 0.77919406 0.58486384 0.06680543 0.64261496
0.5706893 0.078139596 0.649907 0.1339185 1.1529019 0.18959925 0.5612942 1.3888172
0.40695566 0.6204988 0.17901227 0.29259688 1.0566483 0.7392176 0.21673876 0.112864085
0.09093764 0.018431766 0.88910204 0.48548818 0.8809527 0.6421302 0.5273602 0.26984128
0.32345527 0.22208159 0.19367231 0.46402335 0.033474647 0.82471526 0.6707778 0.52606237
1.2652229 0.23952587 0.08937054 0.33524606 0.18394521 0.12410688 0.7592485 0.29921395
0.70248276 0.20296673 0.5852521 0.19097143 0.5870899 0.35499066 0.4422481 0.050757535
0.3352609 0.53210664 0.12639447 0.27643675 0.21491142 0.64102757 0.17168559 0.41553062
0.24563101 0.7496468 0.32257012 0.00403106 0.5427894 0.59422946 0.27759463 0.101549655
0.45615146 0.30404094 0.24299818 0.6965707 0.58227146 0.15673278 0.19980884 0.12291715
0.09524932 0.48559928 0.2990177 0.21814856 0.2963336 0.04901353 0.43857735 0.24848112
0.25776342 0.50465155 0.7757462 0.21939783 0.57164854 0.40283543 0.55897975 0.5637132
00000000: d46a a33f cce9 773e c925 5e3f efea 0a3e
00000010: 5a53 913f fc71 d23e bd6e 473f 904c 933e
00000020: 9650 973d 1cf4 c23e 4e9c d33e 92a6 9e3e
00000030: 3a68 ee3e 36d6 ba3e ae2d a03f 40ab 053f
00000040: 130d 073f 1427 5c3e 69bf b43e 4708 233f
00000050: d6a0 873e 5d2a a03e 8783 143f aba0 3c3e
00000060: 4217 883e 5be0 213f b46e a03e 5602 fa3e
00000070: 8a1c 443f 623b 013f 7034 013e 26bf 383e
00000080: b45f 903f 3f0c 013e 2fb4 c03d 2340 c73e
00000090: 6749 a43e 095b 9b3d 5b18 8f3e 83f4 f83e
000000a0: e2cc 913e 9b6d 833e 28bd 283f 9ad3 c33b
000000b0: 7f3a 4b3f 1c67 043f a20a d43e b09c de3e
000000c0: 8cd8 513f 340b 8f3e db90 273f 128a f33e
000000d0: 37e7 e03e 327a 9b3e 609e e93d 2291 0c3f
000000e0: ba9f 1d3f 28df a73e fb95 3c3e 345b a43e
000000f0: 8b2b a23e a89b dd3f 58b1 a9bd 7f29 523e
00000100: c993 943e 6185 cb3e e958 7c3e 5162 8a3f
00000110: 4f2e 853f bab3 533e 7378 e13d 150e 033f
00000120: c8bd 9c3d ba59 a53e 40ac a03e 9b61 cc3e
00000130: f812 7a3e 02b2 e33e 94fe 603e 4a21 773f
00000140: 11b6 ef3e 4f29 da3e 6ca4 e83e 3ad3 3abe
00000150: 80db bb3f 7988 fa3e 54aa 7d3e 14e0 c63e
00000160: a214 f13e 7f76 b23e f8bf 863e c31a 033f
00000170: 1275 0d3f 8e38 4f3e eee4 ed3e b000 4e3e
00000180: 9535 1d3f ef64 8c3e 45fb 263f ff02 3e3f
00000190: 69fd af3e 2709 303f a68e 193f dda3 a93e
000001a0: 0f81 8e3e 28fc bb3e 6f65 9a3e df5e bd3e
000001b0: 8785 963e 0ee5 173f def9 223e 51d1 423f
000001c0: 0477 783f 0397 b63e 3a1c ee3e 9fea f63d
000001d0: 083a e53c d86b 0e3e 767f 203f 61cb da3e
000001e0: d9d0 043f 771e c13f d2c8 973f ae41 223f
000001f0: 35fe 9f3e 21d2 eb3c 0949 4c3f e647 a93f
00000200: a5a0 8b3e b405 d63e ab6b b73e d2d0 033f
00000210: 4cb4 003f 726d a83e 2259 ae3c ce6c 1d3f
00000220: 513d 303e 7874 1d3e 6b53 e33e 4053 f83d
00000230: 4ba3 6c3e 9749 1c3f 8d88 2f3e 8cc1 003f
00000240: 4cb3 843d fb1f 943e 2d2a b33e ed10 263e
00000250: e4a6 a03e 9de5 803e d33f c03e 0f9a 753e
00000260: 6654 ff3e 3355 2b3b f99e e33e 704b 103e
00000270: 32a0 ab3e 694e 533e cde8 833e 47c5 683e
00000280: 8dc0 ca3e 2854 8f3f 88ec d03e bf2c 533e
00000290: 4379 473f a3b9 153f 49d1 883d 6a82 243f
000002a0: b218 123f a707 a03d 4e60 263f ee21 093e
000002b0: 4a92 933f 4e26 423e fab0 0f3f c3c4 b13f
000002c0: 7e5c d03e 02d9 1e3f fe4e 373e 42cf 953e
000002d0: 4040 873f 5d3d 3d3f c4f0 5d3e 4925 e73d
000002e0: 833d ba3d 37fe 963c 319c 633f e891 f83e
000002f0: 1e86 613f a562 243f 1401 073f a328 8a3e
00000300: ee9b a53e 5b69 633e 0952 463e 7894 ed3e
00000310: b61c 093d 8a20 533f 18b8 2b3f 06ac 063f
00000320: d3f2 a13f 4546 753e e707 b73d 5fa5 ab3e
00000330: 225c 3c3e bf2b fe3d 1c5e 423f 9232 993e
00000340: e9d5 333f 83d6 4f3e 15d3 153f 048e 433e
00000350: 864b 163f 56c1 b53e 586e e23e 22e7 4f3d
00000360: 51a7 ab3e 2438 083f 8d6d 013e 1e89 8d3e
00000370: bd11 5c3e 621a 243f 59ce 2f3e 6ec0 d43e
00000380: b286 7b3e dae8 3f3f e927 a53e fb16 843b
00000390: 3ff4 0a3f 6c1f 183f e220 8e3e 44f9 cf3d
000003a0: af8c e93e 41ab 9b3e 84d4 783e 7552 323f
000003b0: be0f 153f 8f7e 203e b09a 4c3e fdbb fb3d
000003c0: 1312 c33d 78a0 f83e d918 993e 5662 5f3e
000003d0: 0ab9 973e 69c2 483d 368d e03e d671 7e3e
000003e0: 91f9 833e d830 013f 4e97 463f d3a9 603e
000003f0: 8f57 123f 7240 ce3e 4c19 0f3f 824f 103f
