checkpoints/maddpg_per/maddpg_per1_checkpoint_critic_local.pth (torch, 474855 bytes, 13 tensors)

fc1.weight f4 [256, 52]
-0.027710358 0.35931867 0.088898174 -0.022357143 0.012627857 0.77770585 -0.0775997 -0.0996381
0.059086856 0.10804323 -0.026483728 -0.044755407 -0.058670893 0.7445682 -0.016807796 -0.12662026
0.0329304 0.0044684913 -0.05461965 0.10197168 -0.10464303 0.89351696 0.029412594 0.022962555
0.08438137 0.4766327 -0.042149965 0.16153854 0.06109549 0.6000012 -0.006239565 0.06243216
-0.08634436 0.40463102 0.012834655 -0.030640388 -0.014198105 0.68142974 -0.008542384 0.08793111
-0.18360199 0.12671159 0.06309852 -0.062719055 0.014152787 0.9951302 -0.12961663 -0.023341937
5.67266 -0.14737527 3.8774176 -1.1425976 0.84858054 0.99039197 0.20473367 0.49629426
-0.29137948 -0.5941651 0.053235788 0.6787023 0.624363 1.2181052 -0.073971346 -0.37691048
-0.3290544 -0.4971499 0.0035497067 -0.3398856 0.26259285 0.8361009 0.12564339 -0.3986522
-0.29376712 -0.18598822 -0.07049711 -0.36574876 0.01060623 -0.36746857 -0.40860632 0.32873785
0.37470624 -0.7417864 -0.4738198 0.36044458 0.026599593 -0.5712993 0.22634459 -0.2912903
0.45263007 -0.54546493 0.31346503 -0.25657138 -0.18599017 -0.93464047 -0.016196882 -0.81826216
0.23541348 -0.1062173 0.09919097 -0.8310974 -0.087516375 0.26485223 -1.0624638 -1.7318162
0.024596298 -0.703871 0.006928014 -0.43133804 -0.30537578 0.07984741 0.093117125 -0.29794356
0.06827181 -0.80347556 -0.033701986 -0.63209814 -0.7240239 -0.19625638 -0.06507291 -0.6425726
0.38564348 -0.9915928 -0.1076881 -1.4956121 -1.047125 0.103640325 0.026147634 -1.4869477
-0.27674502 -1.468988 -0.057686996 0.23836014 0.21978953 0.04533039 -0.05405251 0.19701517
0.039436392 -1.5521699 0.00011087808 0.09781787 0.61422455 0.0008072042 -0.028687958 0.11087638
0.3869195 -1.5457846 -0.01961113 0.5125171 1.0167137 -0.011773159 0.09126466 0.46988803
-0.5846249 -0.87985355 0.8032833 -1.7423166 1.0221782 0.30280077 0.037791274 0.7804375
-0.12528834 -0.09384773 -0.19427466 0.72158426 0.6161611 0.31633586 -0.099462904 0.49764162
0.120012864 0.26582634 -0.29211137 0.47223827 0.81086504 0.40858695 0.16645198 0.597685
0.44995797 0.9055702 0.2626298 0.6109883 0.2515678 -1.094794 -0.0735653 -0.42608884
0.21390055 -0.33715066 -0.1264756 -0.6830674 0.3857412 -1.2044302 0.0020804743 0.4786636
-0.06914513 0.106035076 -0.05131001 0.53560513 0.007963623 -1.1689442 -0.2463565 1.4598165
-0.45747322 0.89833736 -0.0967713 1.368195 -0.2049468 0.4316072 1.0437299 -0.21502319
1.0968168 0.20801547 -0.013920716 0.105698355 -0.60854566 0.14792226 0.011612338 0.12958233
1.0803069 0.43233413 0.18388194 0.0707347 -0.96657705 -0.007275594 -0.04918695 -0.023283986
1.0987192 0.32260358 0.039729513 0.05963382 -1.5052577 -0.014390588 -0.013170508 -0.095076986
0.5124051 0.30113384 -0.020454897 0.13354008 0.44309407 -0.0014142704 -0.1038888 0.14115378
0.23980477 0.2767869 0.101742096 0.37258318 0.7752458 0.09268822 -0.08837321 0.29356524
-0.1722212 0.4283285 0.043212257 0.4249043 1.5581446 -0.14153057 -0.055788565 0.42378226
00000000: d500 e3bc 9ef8 b73e 3f10 b63d 5426 b7bc
00000010: 12e5 4e3c bb17 473f 97ec 9ebd 0f0f ccbd
00000020: 0f05 723d c545 dd3d 67f4 d8bc 7251 37bd
00000030: e450 70bd 069c 3e3f 81b0 89bc bea8 01be
00000040: 07e2 063d 6c6c 923b dbb8 5fbd 87d6 d03d
00000050: 164f d6bd 87bd 643f aef2 f03c f81b bc3c
00000060: 24d0 ac3d 3409 f43e 71a5 2cbd 5c6a 253e
00000070: 443f 7a3d ae99 193f 4475 ccbb ddb8 7f3d
00000080: 50d5 b0bd cc2b cf3e 7248 523c 8d01 fbbc
00000090: 2b9f 68bc 2e72 2e3f 5bf5 0bbc 3a15 b43d
000000a0: 2902 3cbe afc0 013e cc39 813d d972 80bd
000000b0: 17e1 673c dac0 7e3f 39ba 04be 9737 bfbc
000000c0: 6e86 b540 8be9 16be 9c27 7840 a340 92bf
000000d0: 933c 593f 548a 7d3f b4a5 513e 481a fe3e
000000e0: b12f 95be 341b 18bf c50d 5a3d 6fbf 2d3f
000000f0: 41d6 1f3f dfea 9b3f 4a7e 97bd 69fa c0be
00000100: d179 a8be 6f8a febe 32a2 683b 7c05 aebe
00000110: 9272 863e b50a 563f a9a8 003e 241c ccbe
00000120: a568 96be b273 3ebe ca60 90bd 6c43 bbbe
00000130: c1c5 2d3c d724 bcbe d934 d1be 5450 a83e
00000140: 7fd9 bf3e b7e5 3dbf 8298 f2be 318c b83e
00000150: 64e7 d93c ac40 12bf e0c6 673e 0124 95be
00000160: 21bf e73e 97a3 0bbf 7d7e a03e 535d 83be
00000170: 3574 3ebe 9944 6fbf 53af 84bc a179 51bf
00000180: 3b10 713e 7588 d9bd a324 cb3d cdc2 54bf
00000190: c93b b3bd b69a 873e d0fe 87bf 27ac ddbf
000001a0: 2d7e c93c e430 34bf 6504 e33b 57d8 dcbe
000001b0: 375a 9cbe 0a87 a33d 31b4 be3d 0f8c 98be
000001c0: 17d2 8b3d 93b0 4dbf 180b 0abd 2fd1 21bf
000001d0: a159 39bf 6ff7 48be f244 85bd a37f 24bf
000001e0: 1073 c53e 07d9 7dbf 948b dcbd 3870 bfbf
000001f0: 3108 86bf 6141 d43d 9033 d63c 4d54 bebf
00000200: 86b1 8dbe cc07 bcbf 3349 6cbd ae14 743e
00000210: 8210 613e 5cac 393d 2a66 5dbd 58be 493e
00000220: 0e88 213d 81ad c6bf 3787 e838 bc54 c83d
00000230: d23d 1d3f 8f9a 533a 0203 ebbc 2813 e33d
00000240: 501a c63e 45dc c5bf 85a7 a0bc 5234 033f
00000250: ad23 823f 35e4 40bc f7e8 ba3d 2a95 f03e
00000260: faa9 15bf 153e 61bf f9a3 4d3f 3b04 dfbf
00000270: bcd6 823f b408 9b3e 06cb 1a3d c1ca 473f
00000280: 964b 00be 3d33 c0bd f0ef 46be bfb9 383f
00000290: bcbc 1d3f c6f6 a13e 35b3 cbbd e2ca fe3e
000002a0: 4ec9 f53d 641a 883e 9f8f 95be 37c9 f13e
000002b0: da94 4f3f 4f32 d13e 6372 2a3e e201 193f
000002c0: e460 e63e 73d3 673f 6a77 863e bb69 1c3f
000002d0: 7fcd 803e 3622 8cbf 67a9 96bd 5128 dabe
000002e0: bf08 5b3e 039f acbe d282 01be 81dd 2ebf
000002f0: df7f c53e c52a 9abf 9158 083b 6513 f53e
00000300: f69b 8dbd eb28 d93d 722a 52bd 6b1d 093f
00000310: db79 023c f79f 95bf e144 7cbe 44db ba3f
00000320: ee39 eabe 70f9 653f 0830 c6bd 0421 af3f
00000330: 93dd 51be 9efb dc3e f198 853f 0a2f 5cbe
00000340: 7e64 8c3f 0202 553e b713 64bc 6178 d83d
00000350: a6c9 1bbf ef78 173e ad41 3e3c 3bb1 043e
00000360: 7f47 8a3f e65a dd3e 8c4b 3c3e 5bdd 903d
00000370: 9871 77bf 1b68 eebb 4178 49bd 0fbe bebc
00000380: d5a2 8c3f 4c2c a53e 6abb 223d 9842 743d
00000390: 49ac c0bf 80c6 6bbc 1dc9 57bc b9b7 c2bd
000003a0: fb2c 033f 372e 9a3e 0791 a7bc bbbe 083e
000003b0: 3add e23e 0a5f b9ba a7c3 d4bd 9e8a 103e
000003c0: 628f 753e 03b7 8d3e 295e d03d 39c3 be3e
000003d0: 8276 463f 52d3 bd3d 03fd b4bd 2f4e 963e
000003e0: c15a 30be e04d db3e 56ff 303d 0e8d d93e
000003f0: 4871 c73f 64ed 10be 8d82 64bd fdf9 d83e

fc1.bias f4 [256]
-0.2596127 0.019417427 -0.5391857 -0.6414555 -0.38351858 -0.3584222 -1.2779849 -0.44787404
-0.8633792 -0.311062 -0.6676016 -0.11988165 -0.0056680036 -0.64535344 -1.1275692 -0.5416612
-0.09236113 0.10112123 -0.56825286 -0.2919745 -0.48219615 -0.24126439 -0.2767801 -0.6107102
0.012257047 -0.5206145 -0.23624937 -0.014103915 -0.20041063 -0.36665368 -0.2669926 -0.30212906
-0.31842524 -0.62416047 -0.17063417 -0.8779439 0.045162685 -0.1331664 -0.44613615 -0.20776698
-0.43074495 -0.67099017 -1.0366893 -0.35086718 -0.031504817 -0.07235151 0.20037489 -1.079493
-0.53950894 -0.29319522 -0.22673388 -0.30565742 -0.53491145 -0.6084517 -0.37178516 -1.0671177
-0.06646849 -0.3143073 -0.2606535 -0.6868398 -0.5909876 -1.3917613 -0.27839825 -0.3586424
-0.15780449 -0.50802433 -0.36373627 -0.35386378 -0.815263 -0.39266428 -1.1122704 -0.057383012
-0.20638302 -0.45587125 -0.48107934 -0.3023495 -0.20639057 0.014490817 -0.5415524 -0.399884
-1.0642533 0.0010428265 -0.057971425 -0.19369955 -1.3959179 0.18952696 -0.86679554 -0.02286627
-0.20886077 -0.32192093 -0.4094069 -0.1333914 0.04115338 -0.28699157 -0.43725032 -0.20579423
-0.31857497 -0.16814363 -0.4105142 0.0721099 -0.546174 -1.1629189 -0.22818099 -0.45613176
-0.32155773 -1.0094767 -0.32359895 -0.48841396 -0.6336738 -0.0632171 -0.25399074 -0.017132744
-0.23691225 -0.21506795 -1.5333763 0.031040868 -0.54330754 -0.24767831 -0.3643568 0.007671381
-0.0495918 -0.6309966 -0.14179389 -1.1497546 -0.31389406 -0.03796111 0.09786144 -0.35940546
-0.52261794 -0.22313026 -0.73798007 -0.34496123 -0.20633194 -0.36595267 -0.24844773 -0.3794145
-0.052866478 -0.56977093 -0.2286391 -0.34805655 -0.11506929 -0.22894181 -0.45524976 -0.54838824
-0.2785697 -0.22120184 -0.09870229 -0.044889074 -0.47543466 -0.33414727 -0.24108599 -0.21083851
-0.40476587 -0.43602252 0.1360189 -0.08130315 -0.6501448 -0.46056423 -0.7062413 -0.69042975
-0.25544494 -0.30364537 0.06858223 -0.5621455 -0.5270193 0.025571246 -0.20062234 -0.88841146
-0.12106553 -0.3414954 -0.16583283 -0.26151964 -0.20214877 -0.4991844 0.2953939 -1.2542202
-0.39714804 -0.24814805 -0.7361196 0.10612713 -0.5693656 0.054560713 -0.4262988 -0.485686
-0.49529743 -0.76729095 -1.7580404 -0.44740215 -0.4406039 -0.40818873 -0.23123664 -0.392311
-0.3484295 -0.1768367 -0.11821413 0.09389032 -0.60916144 -1.2451035 -0.32958943 -0.7092166
-0.44305912 -0.28699246 -0.57761973 -0.14219572 -0.41262513 -0.46124935 0.36017844 -0.6617804
-0.25645992 -0.61603034 -0.08168342 -0.6144819 -0.6248975 -0.24984896 -0.96272343 -0.60414946
-0.67239994 -0.08931666 -0.50523347 -0.38989237 -0.64557385 -0.58169407 0.14626233 0.20812295
-0.37821463 -0.33451682 -0.48008236 -0.2070657 0.051292837 -0.54026854 -0.48718968 -0.08433385
-0.5007037 -0.22095937 -0.14895009 -0.07312514 -0.5719734 -0.31422448 -0.25986055 -0.40837717
-0.104614705 -0.33599168 -0.25499317 -0.2866914 -0.31662464 0.074784435 -1.0402266 -0.34512353
-0.0076989713 -0.28782836 -1.0151683 -0.15146033 0.027764278 -0.61770433 -0.7400781 -0.25230974
00000000: f5eb 84be 4c11 9f3c 1308 0abf 6d36 24bf
00000010: 8c5c c4be 1d83 b7be 0295 a3bf bf4f e5be
00000020: 6b06 5dbf 8543 9fbe f0e7 2abf 8384 f5bd
00000030: a9ba b9bb e235 25bf 3054 90bf 4faa 0abf
00000040: d527 bdbd a618 cf3d 0579 11bf af7d 95be
00000050: 6ae2 f6be 030e 77be 1fb6 8dbe 8157 1cbf
00000060: c8d1 483c fe46 05bf 5beb 71be 1b14 67bc
00000070: 7238 4dbe 08ba bbbe 41b3 88be a9b0 9abe
00000080: a208 a3be fbc8 1fbf b9ba 2ebe eec0 60bf
00000090: 82fc 383d c65c 08be f56b e4be dec0 54be
000000a0: 9a8a dcbe 03c6 2bbf 3cb2 84bf dda4 b3be
000000b0: 320b 01bd 072d 94bd 132f 4d3e d42c 8abf
000000c0: 421d 0abf af1d 96be ed2c 68be 217f 9cbe
000000d0: f5ef 08bf 7ec3 1bbf a05a bebe 5097 88bf
000000e0: a220 88bd e3ec a0be 6074 85be bcd4 2fbf
000000f0: f74a 17bf 3c25 b2bf 378a 8ebe fa9f b7be
00000100: 8097 21be e20d 02bf a43b babe a22d b5be
00000110: 13b5 50bf 4b0b c9be e05e 8ebf 730a 6bbd
00000120: 1256 53be f567 e9be 0850 f6be 8ecd 9abe
00000130: 0d58 53be e46a 6d3c 2ea3 0abf 98bd ccbe
00000140: 7439 88bf 73af 883a 7273 6dbd 2d59 46be
00000150: 70ad b2bf 5b13 423e 50e6 5dbf 0b52 bbbc
00000160: 99df 55be d2d2 a4be c89d d1be c197 08be
00000170: 7290 283d 8ff0 92be 46df dfbe b9bb 52be
00000180: 421c a3be d82d 2cbe eb2e d2be 5bae 933d
00000190: 0fd2 0bbf 87da 94bf 47a8 69be 1a8a e9be
000001a0: 37a3 a4be 8836 81bf c3ae a5be 6511 fabe
000001b0: 7238 22bf f877 81bd 130b 82be f859 8cbc
000001c0: 2099 72be c63a 5cbe ad45 c4bf 6b49 fe3c
000001d0: 3416 0bbf 629f 7dbe f98c babe 3560 fb3b
000001e0: c520 4bbd fe88 21bf 6b32 11be 292b 93bf
000001f0: b9b6 a0be 1c7d 1bbd 946b c83d fe03 b8be
00000200: 4aca 05bf 427c 64be 43ec 3cbf c29e b0be
00000210: ae48 53be 265e bbbe 1569 7ebe 9e42 c2be
00000220: 858a 58bd 82dc 11bf 5e20 6abe 7834 b2be
00000230: 73a9 ebbd b96f 6abe 7f16 e9be 2c63 0cbf
00000240: b0a0 8ebe bc82 62be 6d24 cabd 9bdd 37bd
00000250: 2c6c f3be 5a15 abbe 3fdf 76be 0de6 57be
00000260: 793d cfbe 583e dfbe 8a48 0b3e 4482 a6bd
00000270: e46f 26bf 13cf ebbe 3bcc 34bf 01c0 30bf
00000280: aec9 82be 6877 9bbe d774 8c3d c4e8 0fbf
00000290: bdea 06bf ca7a d13c f16f 4dbe ef6e 63bf
000002a0: 34f1 f7bd 7cd8 aebe 15d0 29be e7e5 85be
000002b0: 1600 4fbe 1995 ffbe df3d 973e 4a8a a0bf
000002c0: fd56 cbbe 861a 7ebe 5672 3cbf 2e59 d93d
000002d0: f2c1 11bf 0e7b 5f3d d643 dabe d6ab f8be
000002e0: a097 fdbe 2e6d 44bf 7807 e1bf e511 e5be
000002f0: d696 e1be 1dfe d0be 4cc9 6cbe fddc c8be
00000300: 5a65 b2be ae14 35be 401a f2bd 9149 c03d
00000310: 01f2 1bbf 8d5f 9fbf f2bf a8be 388f 35bf
00000320: a5d8 e2be adf0 92be e3de 13bf c19b 11be
00000330: 9a43 d3be e028 ecbe 4f69 b83e 716a 29bf
00000340: b74e 83be 2ab4 1dbf a349 a7bd b04e 1dbf
00000350: 48f9 1fbf 68d8 7fbe 0b75 76bf 8aa9 1abf
00000360: 6722 2cbf a7eb b6bd fb56 01bf f99f c7be
00000370: 5444 25bf e7e9 14bf cbc5 153e 2f1e 553e
00000380: 59a5 c1be ca45 abbe 5bcd f5be 0809 54be
00000390: 7018 523d 0a4f 0abf ed70 f9be 3ab7 acbd
000003a0: 1e2e 00bf 2c43 62be 5f86 18be a2c2 95bd
000003b0: d96c 12bf 08e2 a0be 710c 85be d016 d1be
000003c0: 3c40 d6bd 1a07 acbe 778e 82be 37c9 92be
000003d0: a01c a2be 9528 993d 2526 85bf 08b4 b0be
000003e0: a747 fcbb 3d5e 93be 09f1 81bf 6b18 1bbe
000003f0: e971 e33c df21 1ebf c275 3dbf be2e 81be

fc2.weight f4 [256, 256]
0.23318808 0.13256739 0.0021878218 0.36621103 0.2181524 0.16832545 0.35747397 -0.73217183
0.0041944366 -0.13294433 -0.16341475 -0.6320921 0.08134264 0.25192708 0.7193608 0.28285864
-0.33467373 -0.07931254 -0.7259044 0.4267691 -0.23231056 -0.21553655 -0.08826761 -0.116233334
-0.10816549 0.6716819 0.1100095 -0.5459007 -0.046367906 -0.5354918 -0.3199068 0.12892672
-0.20437378 -0.41819012 0.30758548 0.13495745 0.098188 -0.041627333 0.40923446 -0.49490145
-0.37156442 0.106808566 0.6386809 -0.09987614 -0.13298023 -0.584319 -0.12129219 0.16838232
0.17448519 -0.5747535 0.6847155 -0.002183372 -0.23893093 -0.2884759 -0.07076156 0.3464301
0.020566154 0.14965034 -0.47831702 0.042254608 0.22805229 0.24808143 0.32875142 -0.5994858
0.44029936 0.50049865 -0.17624545 -0.18325359 -0.0041520204 -0.496858 0.0075877984 -0.15575397
-0.33575204 0.17811415 -0.24070889 0.15719573 -0.3520865 -0.016411763 0.3595448 0.20455676
-0.52409065 0.28108442 -0.19552034 0.050898902 0.18406944 -0.41333407 0.12747397 0.3139093
-0.22200789 -0.1201382 -0.19585972 -0.30712122 0.18445478 -0.51727587 0.36052406 -0.55951893
-0.02557687 -0.4804771 0.006757224 0.16399936 -0.18434292 0.71957153 -0.10121677 -0.31473458
0.044906013 0.08692785 0.24236137 -0.8038107 -0.27147073 0.06642534 -0.17953362 -0.33671826
0.17786083 0.09862533 0.2936771 0.026836764 -0.07770485 -0.4839764 -0.45013893 0.048449755
-0.09854924 0.13916731 0.17550318 0.4337446 -0.29200634 -0.27590147 0.40578705 0.2080307
-0.1450477 0.21519367 0.20283882 -0.12479279 -0.009428651 -0.642539 0.005782566 -0.4416974
-0.46211824 0.110850155 -0.107681096 0.10015156 0.09849828 -0.3081284 -0.34671333 0.2875577
0.20426519 0.37769565 -0.49472263 0.19426218 -0.25977427 -0.029493337 0.014431588 -0.22797078
0.17922424 0.10937183 -0.17860319 -0.012116278 -0.2799685 -0.07971305 0.14835842 -0.35883412
-0.95535094 0.45642498 -0.2749836 -0.3972643 0.07122644 -0.011051472 -0.27532217 0.0136870695
-0.33214167 -0.3539918 0.08182348 -0.3034609 0.09158702 -0.56271106 -0.23594177 0.05986181
0.24514659 0.37800318 0.11329714 -0.24896908 -0.029959213 0.112559855 0.29666018 -0.2694806
-0.40200236 0.022466699 0.47432646 0.3412285 -0.38256043 -0.35285714 -0.16877936 -0.5723486
-1.0540009 -0.5717337 -0.17681855 0.59159493 -0.25048 0.6155734 -0.5849989 -0.1747034
0.5744096 -0.0064583234 -0.1775931 -0.25059643 -0.009465893 -1.0256124 -1.0670702 -1.0340449
0.32206213 0.15793616 -0.19340326 0.18823192 0.22198418 -0.3418521 0.4451191 0.42262697
-0.032463524 -0.43138948 -0.1823398 -0.29261136 0.068593174 -0.05704202 0.27742684 -0.18864001
0.2382975 0.2508698 -0.49486408 0.121585205 0.281682 -0.25982484 -0.050832853 -0.24931982
0.2106152 0.19960444 0.34929794 0.28097615 0.23756309 -0.072214104 0.12374792 0.104158536
-0.06956867 0.3263309 0.41724944 -0.560967 0.05358971 -0.040007956 -0.36972558 0.07558572
-0.45869878 -0.0959192 0.3138248 -0.09584435 0.2716757 0.28808933 0.110938616 0.40218636
00000000: dbc8 6e3e bfbf 073e 8f61 0f3b 0380 bb3e
00000010: 5863 5f3e 825d 2c3e d406 b73e 9d6f 3bbf
00000020: 7c71 893b 8f22 08be 3256 27be cad0 21bf
00000030: f896 a63d 96fc 803e 0828 383f d9d2 903e
00000040: 5b5a abbe 9d6e a2bd dfd4 39bf 7b81 da3e
00000050: d2e2 6dbe 9db5 5cbe a6c5 b4bd be0b eebd
00000060: de85 ddbd 58f3 2b3f a94c e13d 26c0 0bbf
00000070: 46ec 3dbd fe15 09bf d3ca a3be 5e05 043e
00000080: 5c47 51be 041d d6be d87b 9d3e 4932 0a3e
00000090: ca16 c93d 6c81 2abd 2e87 d13e b963 fdbe
000000a0: b13d bebe 73be da3d 9780 233f dd8b ccbd
000000b0: f82b 08be ee95 15bf 0a68 f8bd 6a6c 2c3e
000000c0: 3fac 323e 0c23 13bf 8449 2f3f e716 0fbb
000000d0: 4faa 74be 1db3 93be 70eb 90bd 495f b13e
000000e0: 5a7a a83c f03d 193e f8e5 f4be 2b13 2d3d
000000f0: 8a86 693e 0f09 7e3e 1b52 a83e e777 19bf
00000100: eb6e e13e ae20 003f b079 34be d4a6 3bbe
00000110: ac0d 88bb 2c64 febe 11a3 f83b f87d 1fbe
00000120: b1e7 abbe 8e63 363e 647c 76be ebf7 203e
00000130: af44 b4be f671 86bc 4216 b83e 5477 513e
00000140: ce2a 06bf 4cea 8f3e 7c36 48be 5e7b 503d
00000150: b37c 3c3e 86a0 d3be 8988 023e b8b8 a03e
00000160: 0956 63be 040b f6bd 738f 48be fe3e 9dbe
00000170: b7e1 3c3e 316c 04bf 9c96 b83e a23c 0fbf
00000180: 9686 d1bc 1801 f6be b46b dd3b 73ef 273e
00000190: 64c4 3cbe d735 383f bd4a cfbd e424 a1be
000001a0: 5eef 373d 3b07 b23d 942d 783e 8ac6 4dbf
000001b0: 36fe 8abe 020a 883d a9d7 37be 5666 acbe
000001c0: 2621 363e 14fc c93d d85c 963e c6d8 db3c
000001d0: b823 9fbd c1cb f7be 9c78 e6be 4073 463d
000001e0: 2fd4 c9bd e081 0e3e 1bb7 333e c613 de3e
000001f0: db81 95be f542 8dbe 52c3 cf3e 0006 553e
00000200: 6287 14be bb5b 5c3e fbb4 4f3e 5d93 ffbd
00000210: a17a 1abc 707d 24bf ae7b bd3b 2926 e2be
00000220: c39a ecbe 6805 e33d e887 dcbd 431c cd3d
00000230: 77b9 c93d 01c3 9dbe 6984 b1be c33a 933e
00000240: e52a 513e 5361 c13e 494c fdbe aaec 463e
00000250: 2201 85be 039c f1bc 7872 6c3c 2c71 69be
00000260: 8f86 373e 57fe df3d c1e3 36be 5a83 46bc
00000270: 0858 8fbe 9840 a3bd 45eb 173e 1bb9 b7be
00000280: e191 74bf 89b0 e93e a7ca 8cbe 3a66 cbbe
00000290: 2bdf 913d 3c11 35bc 07f7 8cbe bb3f 603c
000002a0: 790e aabe 6a3e b5be 1293 a73d 3a5f 9bbe
000002b0: fa91 bb3d d50d 10bf b89a 71be a831 753d
000002c0: b507 7b3e a289 c13e 5508 e83d c0f1 7ebe
000002d0: 066d f5bc c885 e63d d8e3 973e 5cf9 89be
000002e0: 41d3 cdbe 150c b83c ebda f23e 80b5 ae3e
000002f0: f6de c3be b1a9 b4be 7fd4 2cbe 7085 12bf
00000300: 80e9 86bf 245d 12bf ec0f 35be c472 173f
00000310: ea3e 80be 3896 1d3f 7dc2 15bf 73e5 32be
00000320: 820c 133f 58a0 d3bb f7da 35be 2d4e 80be
00000330: d516 1bbc 4447 83bf c295 88bf 955b 84bf
00000340: 54e5 a43e 04ba 213e 810b 46be debf 403e
00000350: d24f 633e 3d07 afbe a7e6 e33e 9062 d83e
00000360: 79f8 04bd 15df dcbe 49b7 3abe 28d1 95be
00000370: 947a 8c3d e5a4 69bd e40a 8e3e d92a 41be
00000380: 4304 743e 0272 803e d35e fdbe aa01 f93d
00000390: a038 903e c307 85be 1c36 50bd b24d 7fbe
000003a0: 83ab 573e 1b65 4c3e 2ed7 b23e 1bdc 8f3e
000003b0: bd43 733e fde4 93bd 8d6f fd3d 1251 d53d
000003c0: 057a 8ebd d814 a73e b8a1 d53e 899b 0fbf
000003d0: e280 5b3d 62df 23bd ac4c bdbe b0cc 9a3d
000003e0: 91da eabe 4971 c4bd a5ad a03e 0b4a c4bd
000003f0: 1419 8b3e 7280 933e c933 e33d 5feb cd3e

fc2.bias f4 [256]
-0.3846584 -0.4331568 -0.21480596 -0.31295654 -0.35097936 -0.4781883 -0.5938019 -0.457032
-0.3057114 -0.3759357 -0.3202755 -0.26938793 -0.33896175 -0.39490116 -0.5724455 -0.24193636
-0.50929505 -0.24166611 -0.8776901 -0.47877878 -0.5494585 -0.6939424 -0.34830123 -0.2751828
-0.15239003 -0.24115656 -0.5063042 -0.31392103 -0.35120645 -0.48874846 -0.34900418 -0.6279993
-0.15876806 -0.06822356 -0.38646257 -0.49752432 -0.650682 -0.48083392 -0.60577786 -0.32855335
-0.4014585 -0.26894563 -0.39553395 -0.5497751 -0.38300988 -0.43959802 -0.4288814 -0.30136016
-0.22941816 -0.50549173 -0.18631734 -0.37102848 -0.16484343 -0.5514522 -0.5365178 -0.56940776
-0.43251994 -0.4911047 -0.301887 -0.42737868 -0.13680878 -0.39875355 -0.20430896 -0.54122066
-0.1102076 -0.27016422 -0.32944125 -0.6055905 -0.4692316 -0.09788573 -0.47532576 -0.39676562
-0.4256532 -0.22917938 -0.09367123 -0.17961729 -0.36135033 -0.40713984 -0.31871185 -0.26680776
-0.28674334 -0.3428725 -0.3617326 -0.51296943 -0.31702623 -0.263907 -0.16633062 -0.36183324
-0.14410596 -0.3733909 -0.5477351 -0.6158532 -0.32142416 -0.43724677 -0.24982965 -0.11760424
-0.55847466 -0.46634778 -0.37751308 -0.49230206 -0.4982025 -0.33012795 -0.23442265 -0.33422115
-0.47035173 -0.40500253 -0.041371223 -0.54424626 -0.1448842 -0.1381188 -0.14193718 -0.107772715
-0.3160234 -0.5041883 -0.42505893 -0.5273808 -0.36925673 -0.13842823 -0.87253016 -0.52060544
-0.43500805 -0.3094688 -0.089718565 -0.3802928 -0.8288492 -0.31743506 -0.5380091 -0.3809139
-0.6352408 -0.3737291 -0.4009208 -0.19336586 -0.16930905 -0.458806 -0.13320148 -0.417608
-0.32705003 -0.2768853 -0.32059586 -0.14084616 -0.39085624 -0.511915 -0.32129654 -0.5214861
-0.38176143 -0.31189725 -0.2907907 -0.3891913 -0.59044397 -0.15847898 -0.6343227 -0.25203148
-0.1951887 -0.6537249 -0.4689182 -0.41270885 -0.42564887 -0.46173465 -0.3601592 -0.2988685
-0.16169734 -0.45772946 -0.4505272 -0.31926826 -0.52707577 -0.19812784 -0.26646718 -0.40144908
-0.19897991 -0.31725025 -0.46771383 -0.24157065 -0.44207576 -0.3921949 -0.368954 -0.35915038
-0.33004686 -0.25486112 -0.17075449 -0.16038194 -0.1877547 -0.4349119 -0.30127275 -0.49183595
-0.32211065 -0.52060914 -0.2783566 -0.19195358 -0.24497318 -0.18434747 -0.26343668 -0.40484697
-0.31577563 -0.56437546 -0.28827226 -0.53010416 -0.15162091 -0.36473402 -0.4517912 -0.3351812
-0.08101228 -0.059287675 -0.20198834 -0.4484848 -0.4014364 -0.48913312 -0.32853007 -0.23650801
-0.3822696 -0.32533437 -0.3939194 -0.28580633 -0.2046243 -0.75694114 -0.16268042 -0.03168639
-0.30543503 -0.06284883 -0.24959107 -0.3042695 -0.20188393 -0.27052858 -0.52614325 -0.56521827
-0.2828334 -0.3451985 -0.30923218 -0.22122636 -0.49751952 -0.1287062 -0.4705655 -0.27926955
-0.3227863 -0.37923518 -0.55462164 -0.36340442 -0.29585728 -0.77237535 -0.3736604 -0.5519054
-0.29100198 -0.28051457 -0.4333785 -0.20396377 -0.1848007 -0.39211068 -0.43907282 -0.3866443
-0.19934084 -0.077917725 -0.69781697 -0.58386725 -0.16490266 -0.1342642 -0.26103115 -0.21062332
00000000: f2f1 c4be bac6 ddbe 18f6 5bbe d73b a0be
00000010: 91b3 b3be 19d5 f4be 6703 18bf 1900 eabe
00000020: 3486 9cbe a57a c0be 26fb a3be 37ed 89be
00000030: 658c adbe 7c30 cabe ca8b 12bf 2abe 77be
00000040: 2961 02bf 5277 77be 4cb0 60bf 7e22 f5be
00000050: 50a9 0cbf 36a6 31bf 8a54 b2be c3e4 8cbe
00000060: 220c 1cbe bff1 76be 279d 01bf 42ba a0be
00000070: 55d1 b3be 3d3d fabe adb0 b2be 90c4 20bf
00000080: 1894 22be cbb8 8bbd 6cde c5be 82bb febe
00000090: 1893 26bf dd2f f6be 4214 1bbf 2538 a8be
000000a0: f88b cdbe 3eb3 89be 6d83 cabe 10be 0cbf
000000b0: df19 c4be fe12 e1be 5896 dbbe e14b 9abe
000000c0: 98ec 6abe e867 01bf f9c9 3ebe 72f7 bdbe
000000d0: b7cc 28be f92b 0dbf 3b59 09bf b5c4 11bf
000000e0: 4173 ddbe 1372 fbbe ef90 9abe 61d1 dabe
000000f0: 9a17 0cbe 6d29 ccbe 5e36 51be 708d 0abf
00000100: 86b4 e1bd f752 8abe 86ac a8be fb07 1bbf
00000110: 203f f0be 5078 c8bd e65d f3be dd24 cbbe
00000120: 37ef d9be 00ae 6abe b4d6 bfbd 98ed 37be
00000130: e902 b9be a274 d0be 332e a3be 079b 88be
00000140: 06d0 92be fc8c afbe 0435 b9be f751 03bf
00000150: 4351 a2be d11e 87be 9352 2abe 3542 b9be
00000160: 8390 13be 182d bfbe 5e38 0cbf 8ea8 1dbf
00000170: b591 a4be cfde dfbe 58d3 7fbe 7eda f0bd
00000180: 32f8 0ebf 23c5 eebe 6549 c1be 040f fcbe
00000190: 6614 ffbe 8806 a9be 7e0c 70be 091f abbe
000001a0: f1d1 f0be 7e5c cfbe df74 29bd b953 0bbf
000001b0: 865c 14be 046f 0dbe fb57 11be f1b7 dcbd
000001c0: d2cd a1be 7c12 01bf 53a1 d9be 6e02 07bf
000001d0: 380f bdbe 21c0 0dbe 235e 5fbf 6646 05bf
000001e0: 60b9 debe b272 9ebe 5ebe b7bd bdb5 c2be
000001f0: 762f 54bf d986 a2be f7ba 09bf 2607 c3be
00000200: 249f 22bf 6c59 bfbe 7e45 cdbe b301 46be
00000210: 5a5f 2dbe 9fe8 eabe f865 08be b7d0 d5be
00000220: 1a73 a7be e9c3 8dbe 2425 a4be fa39 10be
00000230: 4f1e c8be dd0c 03bf fb80 a4be 1d80 05bf
00000240: 3c76 c3be ffb0 9fbe 85e2 94be 1544 c7be
00000250: 5627 17bf 5048 22be f962 22bf 450a 81be
00000260: 8cdf 47be 845a 27bf 0c16 f0be 934e d3be
00000270: a6ee d9be 7c68 ecbe c966 b8be 4b05 99be
00000280: fd93 25be 845b eabe 80ab e6be 2177 a3be
00000290: 70ee 06bf 06e2 4abe 636e 88be bc8a cdbe
000002a0: 64c1 4bbe a06e a2be 3078 efbe 4c5e 77be
000002b0: c157 e2be c5cd c8be 8ae7 bcbe 8fe2 b7be
000002c0: e7fb a8be 287d 82be 44da 2ebe 2a3b 24be
000002d0: c542 40be c6ac debe 6c40 9abe ecd1 fbbe
000002e0: b0eb a4be a446 05bf c284 8ebe 7b8f 44be
000002f0: 40da 7abe 95c5 3cbe 2ce1 86be 1a48 cfbe
00000300: 58ad a1be e97a 10bf 6c98 93be e8b4 07bf
00000310: 8342 1bbe 6bbe babe 2d51 e7be df9c abbe
00000320: c4e9 a5bd a2d7 72bd 08d6 4ebe cd9f e5be
00000330: 1289 cdbe a86f fabe 1835 a8be 282f 72be
00000340: d7b8 c3be 3a92 a6be ceaf c9be 3555 92be
00000350: 0889 51be e5c6 41bf b295 26be 97c9 01bd
00000360: fb61 9cbe e3b6 80bd cd94 7fbe 36c9 9bbe
00000370: a9ba 4ebe b982 8abe 53b1 06bf 25b2 10bf
00000380: 8acf 90be dcbd b0be ae53 9ebe 2a89 62be
00000390: e1ba febe 8fcb 03be f6ed f0be 6bfc 8ebe
000003a0: 3f44 a5be 1d2b c2be affb 0dbf 2510 babe
000003b0: 9b7a 97be 64ba 45bf 6a50 bfbe ac49 0dbf
000003c0: 36fe 94be 9b9f 8fbe c9e3 ddbe e1db 50be
000003d0: 653c 3dbe bbc2 c8be 27ce e0be 3ef6 c5be
000003e0: 0120 4cbe 5493 9fbd 22a4 32bf 5378 15bf
000003f0: 3edc 28be 8e7c 09be e0a5 85be a4ad 57be

fc3.weight f4 [128, 256]
-0.31744036 -0.67037666 -0.25435552 -0.015690925 -0.3262442 -0.38411492 0.0040166797 -0.64972395
0.46640396 -0.1637066 -0.0015415305 -0.09686481 -0.30054128 -0.17140985 -0.24828397 -0.0005362128
-0.53384256 -0.5291212 -0.30805278 -0.32109874 0.032177635 -0.19051616 -0.24984191 -0.45742327
-0.44466934 -0.14984739 -0.29383606 -0.15324515 0.21482043 -0.5262205 -0.2635315 -0.17366698
-0.2415003 -0.57521546 0.07375939 -0.40616998 -0.13693614 -0.108195044 0.041567653 0.03103845
0.23387143 -0.2887151 -0.27873483 -0.31538445 0.04723963 -0.50633645 -0.22196916 -0.72288084
-0.027113276 -0.5226498 0.0749039 0.10744357 -0.35715094 -1.131759 -0.07988024 -0.042809766
-0.21307167 -0.3791979 -0.48092166 -0.37505132 -0.22386831 -0.14556439 -0.25579464 -0.49159497
0.23389351 0.07094047 -0.10936665 -0.17598924 -0.6833599 -0.39464185 0.37191966 -0.2570456
0.103481576 -0.18846318 -0.31557596 -0.04742234 -0.07672535 -0.33168188 -0.20812781 -0.31791827
0.12941992 -0.33726364 -0.22766097 0.13057351 -0.37620902 -0.27336875 -0.27286986 -0.019033695
0.07022534 -0.28917372 -0.1990452 -0.5060479 -0.31349367 -0.2866831 -0.7152974 0.14013118
-0.4794317 0.25353387 -0.13286771 -0.39545217 -0.035550654 0.01873366 -0.5667897 0.13391876
0.027252216 -0.2064245 -0.26001292 -0.94879717 0.06368624 -0.00812189 -0.15007308 0.10178487
-0.042576686 -0.13782711 0.03064601 -0.10858518 -0.35421064 -0.011221712 -0.39583513 -0.52656776
-0.25123042 -0.4709839 -0.11390126 -0.44787744 -0.6122434 -0.16565941 0.33043668 -0.35858816
-0.22563358 0.10008449 -0.38502583 -0.73393124 0.49439186 0.06749206 -0.13460867 -0.23945647
-0.38307682 -0.41170052 -0.0041229785 0.038655262 -0.40674376 0.049527645 -0.5450458 -0.29732794
-0.37596864 -0.4789741 -0.30539304 -0.56632525 -0.082298845 0.17653783 -0.27074385 -0.16866262
-0.014264096 -0.2553929 -0.50880975 0.055734567 0.039875608 -0.4937064 0.13572748 0.14933261
-0.07425899 -0.06284687 0.06448172 -0.05623176 -0.45841116 -0.58150405 -0.3332753 -0.85688037
0.19123578 -0.6645644 -0.27380434 0.25164196 -0.29824895 0.09043026 -0.06724776 -0.067685425
-0.65483063 0.123063035 -0.42948538 -0.2669747 -0.29201385 -0.4833778 -0.17926659 -0.54301804
-0.09929167 -0.2408333 -0.1601899 0.23614553 0.07814658 -0.3701215 0.20021205 -0.067376085
-0.1993407 -0.43747333 -0.61416215 -0.18254793 -0.37138808 -0.03312231 -0.38777828 -0.21417649
-0.2844058 0.2836967 0.031257402 -0.05799278 -0.46251017 -0.70070094 -0.517808 -0.14919259
-0.39506817 -0.26616424 -0.08266258 0.006946578 -0.17127846 -0.5268518 0.061047744 0.30474025
-0.525354 0.016836315 -0.8031326 0.21691497 -0.30610964 0.10083805 0.05341085 -0.10833896
-0.20343357 0.14791544 -0.70193374 0.012351169 -0.18979797 -0.17611845 -0.17588179 -0.1437185
-0.33690062 -0.5515414 0.074008375 -0.6347854 -0.52644503 -0.4759459 -0.20140573 0.035458878
-0.28828016 -0.46158087 -0.33327752 -0.16475943 -0.298491 -0.16228658 -0.1633831 0.21125792
-0.6032471 0.26379648 -0.30267337 -0.3280434 -0.53647625 0.17062765 -0.5221619 -0.31444636
00000000: 8b87 a2be ce9d 2bbf e33a 82be 418a 80bc
00000010: 7b09 a7be b6aa c4be 5a9e 833b 4f54 26bf
00000020: 80cc ee3e b4a2 27be 2e0d caba 0f61 c6bd
00000030: 8ce0 99be 1086 2fbe 273e 7ebe a290 0cba
00000040: e8a9 08bf 7d74 07bf 18b9 9dbe 0e67 a4be
00000050: b2cc 033d ab16 43be 8fd6 7fbe 6233 eabe
00000060: b3ab e3be 9871 19be ae71 96be 4cec 1cbe
00000070: e3f9 5b3e 63b6 06bf 9aed 86be c2d5 31be
00000080: db4b 77be 5241 13bf 2a0f 973d 83f5 cfbe
00000090: fd38 0cbe 5d95 ddbd d842 2a3d 5944 fe3c
000000a0: fe7b 6f3e 77d2 93be 55b6 8ebe 127a a1be
000000b0: 587e 413d 449f 01bf e24b 63be b80e 39bf
000000c0: a91c debc 61cc 05bf 3767 993d 600b dc3d
000000d0: 7ddc b6be 7bdd 90bf 4098 a3bd 4b59 2fbd
000000e0: 762f 5abe 3a26 c2be 5d3b f6be ba06 c0be
000000f0: bc3d 65be d50e 15be 84f7 82be 56b2 fbbe
00000100: c881 6f3e 3d49 913d 9ffb dfbd 8636 34be
00000110: adf0 2ebf 7f0e cabe 416c be3e 7b9b 83be
00000120: 26ee d33d 7efc 40be 2c93 a1be ed3d 42bd
00000130: 2e22 9dbd 35d2 a9be 751f 55be 2fc6 a2be
00000140: a886 043e d2ad acbe f51f 69be 10b5 053e
00000150: 789e c0be fdf6 8bbe 99b5 8bbe 8dec 9bbc
00000160: 4ed2 8f3d 940e 94be 81d2 4bbe 5b8c 01bf
00000170: 3e82 a0be 21c8 92be bb1d 37bf 8c7e 0f3e
00000180: 1278 f5be 31cf 813e 790e 08be b578 cabe
00000190: 909d 11bd 5577 993c 2119 11bf 0022 093e
000001a0: 0a40 df3c f260 53be 6a20 85be 5fe4 72bf
000001b0: ee6d 823d ad11 05bc c2ac 19be 9674 d03d
000001c0: e464 2ebd 8d22 0dbe 570d fb3c e861 debd
000001d0: 195b b5be 46db 37bc e7aa cabe 25cd 06bf
000001e0: 46a1 80be cd24 f1be 1045 e9bd 3150 e5be
000001f0: fcbb 1cbf 9fa2 29be ff2e a93e de98 b7be
00000200: 7d0c 67be 19f9 cc3d 1b22 c5be ebe2 3bbf
00000210: ee20 fd3e 4739 8a3d dbd6 09be 1434 75be
00000220: a522 c4be 69ca d2be 0d1a 87bb fb54 1e3d
00000230: b840 d0be 80dd 4a3d 1f88 0bbf 5e3b 98be
00000240: f67e c0be 183c f5be 7a5c 9cbe b1fa 10bf
00000250: 4c8c a8bd 55c6 343e f09e 8abe e5b5 2cbe
00000260: f4b3 69bc dcc2 82be 5b41 02bf ee49 643d
00000270: 9b54 233d 16c7 fcbe 25fc 0a3e a6ea 183e
00000280: 1915 98bd dcb5 80bd fe0e 843d 4653 66bd
00000290: deb4 eabe 73dd 14bf 0fa3 aabe 835c 5bbf
000002a0: 50d3 433e e420 2abf 1530 8cbe 37d7 803e
000002b0: 16b4 98be 8033 b93d 32b9 89bd a89e 8abd
000002c0: fba2 27bf 7908 fc3d 82e5 dbbe e8b0 88be
000002d0: d782 95be 4c7d f7be a991 37be 3b03 0bbf
000002e0: 6e59 cbbd 019d 76be d208 24be 22d0 713e
000002f0: 500b a03d 9180 bdbe 6304 4d3e 79fc 89bd
00000300: f81f 4cbe 81fc dfbe bb39 1dbf d8ed 3abe
00000310: 9426 bebe 42ab 07bd e08a c6be 1551 5bbe
00000320: a39d 91be b240 913e c307 003d d689 6dbd
00000330: 22ce ecbe 2361 33bf 118f 04bf f1c5 18be
00000340: 6046 cabe ae46 88be 004b a9bd 1fa0 e33b
00000350: 9f63 2fbe c2df 06bf 330d 7a3d ea06 9c3e
00000360: 9a7d 06bf 50ec 893c 199a 4dbf f51e 5e3e
00000370: 67ba 9cbe 2e84 ce3d 56c5 5a3d d1e0 ddbd
00000380: e450 50be 2577 173e eeb1 33bf 8f5c 4a3c
00000390: 665a 42be 6558 34be 5b1a 34be f12a 13be
000003a0: 3d7e acbe d131 0dbf b491 973d 4c81 22bf
000003b0: 1ac5 06bf 2eaf f3be 4e3d 4ebe 543d 113d
000003c0: 7599 93be 5454 ecbe 5aa3 aabe b2b6 28be
000003d0: d0d3 98be 742e 26be e64d 27be ff53 583e
000003e0: 676e 1abf 5510 873e 01f8 9abe 4ef5 a7be
000003f0: 8256 09bf 04b9 2e3e 67ac 05bf 1dff a0be

fc3.bias f4 [128]
0.022691684 0.70393354 0.032713316 -0.1715996 0.001087688 -0.07849061 -0.5682077 -0.34721252
-0.18742695 -0.09007597 -0.13200603 -0.34652075 0.029025333 -0.0040863557 -0.14095151 0.23822008
-0.18496148 -0.21685334 0.08207177 -0.16425225 -0.016477555 -0.17222603 0.14278474 -0.122054674
-0.21037512 -0.2969318 0.22180928 -0.31858447 0.25840545 -0.01778801 0.22236201 -0.1401789
-0.004200756 -0.16548422 0.39073265 -0.59391326 -0.4642616 -0.24666253 -0.33050227 0.07824946
-0.14656425 0.124820076 0.041284263 -0.042765643 -0.26087013 -0.18865903 -0.17025879 -0.06041325
0.34348822 -0.27882197 0.33880854 -0.29542094 -0.117113866 0.03402005 -0.23865995 0.06348504
-0.024523107 -0.27910197 -0.08968284 0.66974527 -0.51318747 -0.083193935 0.045862496 0.22627588
-0.13806051 -0.41500586 0.27963138 -0.059082158 -0.21381187 -0.26344308 -0.023299502 -0.1691857
-0.0062243165 -0.15441607 -0.27089798 -0.34338593 -0.051537447 -0.12620752 0.01825407 -0.18195744
-0.36084396 0.12571377 0.20190264 -0.046537947 -0.28975525 -0.066148974 -0.31101918 -0.03732206
-0.15250035 -0.22922452 0.13689627 -0.14071386 -0.030362213 -0.22136685 -0.39200976 0.05862306
-0.18855716 -0.27666208 0.22307159 -0.3174488 -0.27773693 -0.31486246 0.08040282 -0.15476477
-0.0047776937 -0.19011304 0.23370673 -0.38758615 -0.28752914 -0.06790122 -0.030937389 0.084530346
-0.0788782 -0.37309113 0.062466778 -0.075338766 -0.09029511 -0.048132244 -0.44173017 0.044990152
-0.047360245 0.17492749 0.035295688 -0.17818157 -0.0056357007 0.18945825 -0.18700495 0.2878982
00000000: e9e3 b93c fd34 343f 66fe 053d ceb7 2fbe
00000010: c190 8e3a afbf a0bd 0f76 11bf d7c5 b1be
00000020: daec 3fbe c079 b8bd 972c 07be 2b6b b1be
00000030: 89c6 ed3c d6e6 85bb 9855 10be f7ef 733e
00000040: 8b66 3dbe cd0e 5ebe 3f15 a83d be31 28be
00000050: f0fb 86bc 055c 30be 2a36 123e cdf7 f9bd
00000060: 936c 57be 7207 98be f921 633e 811d a3be
00000070: b84d 843e 29b8 91bc deb2 633e 0f8b 0fbe
00000080: 7fa6 89bb b274 29be 1c0e c83e b30a 18bf
00000090: b2b3 edbe 1a95 7cbe 9837 a9be 4141 a03d
000000a0: f014 16be aba1 ff3d b019 293d 072b 2fbd
000000b0: c590 85be d52f 41be 5258 2ebe e273 77bd
000000c0: b0dd af3e c1c1 8ebe 5078 ad3e 6a41 97be
000000d0: 65d9 efbd 9c58 0b3d 4663 74be 7204 823d
000000e0: afe4 c8bc 74e6 8ebe a3ab b7bd 6d74 2b3f
000000f0: 4160 03bf 9561 aabd 50da 3b3d ddb4 673e
00000100: bc5f 0dbe a67b d4be d82b 8f3e 2200 72bd
00000110: 80f1 5abe 03e2 86be 99de bebc 043f 2dbe
00000120: 5af5 cbbb 3f1f 1ebe 24b3 8abe 48d0 afbe
00000130: ee18 53bd 8b3c 01be 8f89 953c 0d53 3abe
00000140: 8ac0 b8be 1cbb 003e 91bf 4e3e 939e 3ebd
00000150: cd5a 94be 1d79 87bd e83d 9fbe 04df 18bd
00000160: 0d29 1cbe d5b9 6abe 892e 0c3e 4b17 10be
00000170: 2dba f8bc fead 62be 81b5 c8be bc1e 703d
00000180: 2115 41be a7a6 8dbe e16c 643e a688 a2be
00000190: 8933 8ebe a735 a1be 3caa a43d a87a 1ebe
000001a0: 338e 9cbb feac 42be d150 6f3e b171 c6be
000001b0: 0537 93be cb0f 8bbd 6870 fdbc 3f1e ad3d
000001c0: e58a a1bd cd05 bfbe 2add 7f3d 364b 9abd
000001d0: a5ec b8bd 5126 45bd 752a e2be 9847 383d
000001e0: d1fc 41bd 3120 333e 3692 103d 3b75 36be
000001f0: afab b8bb 5801 423e 3a7e 3fbe 6567 933e

fc4.weight f4 [32, 128]
-0.205662 -0.40115428 -0.09126921 -0.35195997 -0.010671368 -0.08701937 -0.11555153 -0.12993166
-0.19835442 0.1640493 -0.3027894 -0.13692075 0.2666588 0.007908903 -0.6266984 -0.22325
-0.12837116 -0.51231927 -0.25716737 -0.055477757 -0.11210622 -0.4267282 0.12346032 -0.024336096
-0.17161533 0.16192469 -0.20320307 -0.08968801 0.11519671 -0.16319571 -0.1746222 -0.17118783
-0.107041426 -0.08102755 -0.080778904 -0.08818157 -0.5856418 -0.12062855 -0.11812849 -0.3737603
-0.20827131 -0.106959715 -0.52656823 0.089821085 -0.11438221 -0.013581061 0.0844914 -0.18026151
-0.060666837 -0.58379066 -0.387243 0.10039094 -0.15079007 0.11113347 -0.0032481204 -0.19165023
-0.1243602 -0.25671536 -0.16802923 -0.19673061 -0.15004197 0.08704716 -0.21458507 -0.3001568
-0.44208953 -0.4895343 -0.08087973 0.055775683 -0.2141856 0.09993336 -0.16625665 -0.24802911
-0.18920827 -0.116870075 0.119288296 -0.2862493 -0.27671736 0.08917384 -0.029922143 -0.16829586
-0.06481886 -0.35230717 -0.09671223 -0.1351848 -0.2016956 -0.25408635 -0.02491102 0.08343614
-0.15239051 -0.087653026 -0.052544955 -0.5376745 -0.23237626 -0.19698748 -0.047169603 -0.4582926
-0.39631638 -0.32634208 -0.3097009 -0.21212243 -0.09022473 -0.42870605 -0.18522 0.034664515
-0.007371657 -0.040354934 -0.48712984 0.14388926 -0.4521695 -0.22214629 0.1287503 -0.26708746
-0.2545049 -0.31592688 -0.06040611 -0.28077185 0.08672261 0.108442105 -0.13965859 -0.35533512
-0.31289178 0.043774053 0.1273938 0.05655311 -0.025895476 -0.038629446 0.09935876 0.035595942
0.20399511 0.15751453 0.3940526 0.10940254 0.051496048 -0.02509083 0.4218726 -0.10547795
-0.004606002 0.3082139 0.33110747 0.28717673 0.31878483 -0.33055007 0.28006166 -0.15133534
-0.26702538 0.25525966 -0.36504897 -0.18394697 0.09628512 0.16797757 0.12647876 0.24607797
-0.20778058 -0.38753974 0.055670265 0.01692573 -0.21590522 -0.5220709 0.39565063 0.43133274
-0.30035517 -0.065439865 -0.16044736 -0.32148024 0.06740838 0.16806905 0.2978254 -0.3505163
0.2989846 0.075370565 0.138643 -0.36293462 0.16438225 0.18413869 0.10296023 0.15908894
0.063315384 -0.29636475 -0.17333925 -0.17494518 0.08727531 0.17692047 -0.54221666 -0.10676648
0.2991695 0.5750349 0.10926187 0.15087986 0.020068247 -0.12417022 0.03457804 0.10975217
0.14494294 -0.05062648 0.13975626 0.24858008 -0.13030934 -0.5962612 0.0569803 0.21488562
-0.14989711 0.11989662 -0.5840778 0.08602765 0.29554242 -0.058908492 -0.019616826 0.07911633
-0.26316988 0.15576968 -0.04973486 0.24622849 0.120669305 0.044316605 -0.34220266 -0.17080441
-0.11012742 0.008587153 0.09157798 -0.022680365 0.18014339 0.14912017 0.019722557 0.08625317
0.28294456 0.21785845 0.109047696 0.005564515 0.28403786 0.19193554 -0.08428444 0.5849936
-0.018965697 0.23339283 0.23951289 -0.033018164 0.24294814 0.18970308 -0.08010916 0.021934656
0.028771508 0.12620392 0.19905956 -0.3320975 -0.045136467 -0.022818662 -0.12302493 -0.13950245
-0.27521086 -0.1649889 0.19315962 0.21369281 -0.0029352135 0.2056536 -0.0046492415 -0.2576309
00000000: 0f99 52be 1864 cdbe 5aeb babd 1934 b4be
00000010: f6d6 2ebc 3637 b2bd 48a6 ecbd ce0c 05be
00000020: 6c1d 4bbe 8afc 273e 3607 9bbe f434 0cbe
00000030: 8187 883e 5894 013c 4e6f 20bf a69b 64be
00000040: bb73 03be 5b27 03bf 71ab 83be a53c 63bd
00000050: f297 e5bd 1e7c dabe c4d8 fc3d 7e5c c7bc
00000060: eebb 2fbe 96cf 253e 7714 50be 59ae b7bd
00000070: 41ec eb3d c71c 27be 29d0 32be dd4b 2fbe
00000080: 8938 dbbd c6f1 a5bd 696f a5bd 8a98 b4bd
00000090: 9fec 15bf 1a0c f7bd 5aed f1bd 835d bfbe
000000a0: 1345 55be b20d dbbd 2dcd 06bf 1ef4 b73d
000000b0: 3841 eabd 1983 5ebc d409 ad3d 7996 38be
000000c0: ca7d 78bd 4e73 15bf b744 c6be c499 cd3d
000000d0: b668 1abe f299 e33d 6bde 54bb f53f 44be
000000e0: 8fb0 febd 3270 83be db0f 2cbe c073 49be
000000f0: 9aa4 19be c845 b23d 30bc 5bbe 27ae 99be
00000100: 8f59 e2be 3da4 fabe 46a4 a5bd 0b75 643d
00000110: 7853 5bbe dda9 cc3d 2f3f 2abe 58fb 7dbe
00000120: d0bf 41be 9459 efbd 6c4d f43d 458f 92be
00000130: e6ad 8dbe c6a0 b63d 481f f5bc c055 2cbe
00000140: c0bf 84bd 9b61 b4be 1011 c6bd e26d 0abe
00000150: 4b89 4ebe 9b17 82be 3212 ccbc 91e0 aa3d
00000160: 420c 1cbe 6e83 b3bd 6139 57bd 09a5 09bf
00000170: 0bf4 6dbe 16b7 49be ea34 41bd 54a5 eabe
00000180: fbe9 cabe 4f16 a7be 1e91 9ebe 9f36 59be
00000190: bec7 b8bd 5c7f dbbe 50aa 3dbe 61fc 0d3d
000001a0: f18d f1bb 374b 25bd 1569 f9be b557 133e
000001b0: c382 e7be 517a 63be 1ed7 033e b0bf 88be
000001c0: 774e 82be 2bc1 a1be 666c 77bd 54c1 8fbe
000001d0: a09b b13d e516 de3d a902 0fbe 7cee b5be
000001e0: 5a33 a0be 6c4c 333d 8573 023e 3ca4 673d
000001f0: c022 d4bc e939 1ebd 9b7c cb3d 0dcd 113d
00000200: 18e4 503e 7d4b 213e 43c1 c93e 700e e03d
00000210: 85ed 523d 498b cdbc afff d73e d304 d8bd
00000220: f2ed 96bb 36ce 9d3e eb86 a93e d408 933e
00000230: c437 a33e dc3d a9be 3e64 8f3e a7f7 1abe
00000240: 8db7 88be 65b1 823e b3e7 babe 985c 3cbe
00000250: 2231 c53d 5002 2c3e a683 013e ddfb 7b3e
00000260: 6fc4 54be 9c6b c6be 8106 643d d4a7 8a3c
00000270: 4216 5dbe 70a6 05bf b892 ca3e a5d7 dc3e
00000280: 27c8 99be 5605 86bd 504c 24be 0f99 a4be
00000290: 680d 8a3d 4b1a 2c3e 927c 983e df76 b3be
000002a0: 8214 993e e25b 9a3d 6ef8 0d3e 91d2 b9be
000002b0: d253 283e da8e 3c3e d0dc d23d 36e8 223e
000002c0: 7fab 813d 1fbd 97be d87f 31be d424 33be
000002d0: 66bd b23d a42a 353e b6ce 0abf 62a8 dabd
000002e0: bf2c 993e 7d35 133f b0c4 df3d 4080 1a3e
000002f0: 2a66 a43c f54c febd b4a1 0d3d bfc5 e03d
00000300: ec6b 143e b65d 4fbd 441c 0f3e c78b 7e3e
00000310: d06f 05be 93a4 18bf 2d64 693d fa0a 5c3e
00000320: a17e 19be 5c8c f53d 1f86 15bf 442f b03d
00000330: 5651 973e 084a 71bd 77b3 a0bc be07 a23d
00000340: 34be 86be 1682 1f3e c8b6 4bbd 5223 7c3e
00000350: 7821 f73d 5485 353d 3035 afbe 5ae7 2ebe
00000360: 7c8a e1bd 21b1 0c3c 3c8d bb3d 2ccc b9bc
00000370: 8277 383e f5b2 183e 3391 a13c 81a5 b03d
00000380: 1cde 903e 4916 5f3e 6654 df3d 8956 b63b
00000390: 696d 913e c08a 443e 529d acbd 24c2 153f
000003a0: f35d 9bbc 88fe 6e3e de42 753e 0e3e 07bd
000003b0: 66c7 783e 8641 423e 4510 a4bd 4fb0 b33c
000003c0: 3ab2 eb3c 9a3b 013e 45d6 4b3e af08 aabe
000003d0: 04e1 38bd 34ee babc 7ff4 fbbd bbd9 0ebe
000003e0: 70e8 8cbe daf2 28be a3cb 453e 4ad2 5a3e
000003f0: b65c 40bb db96 523e aa58 98bb 33e8 83be

fc4.bias f4 [32]
0.34840104 -0.68920517 -0.5506567 0.46107632 -0.116443396 -0.4628543 -0.233766 -0.5812112
0.7216108 -0.6861553 0.6092583 -0.275875 -0.58615565 -0.4537551 -0.2699339 0.6668264
0.62085307 -0.6836906 -0.64047325 0.5907534 -0.63373137 -0.6175084 -0.17378627 -0.5735318
-0.08046776 -0.5081806 0.78310376 -0.62671256 -0.47001782 -0.53878486 -0.699252 -0.58367366
00000000: 9f61 b23e c06f 30bf d6f7 0cbf 3212 ec3e
00000010: e079 eebd 3dfb ecbe 5b60 6fbe 42ca 14bf
00000020: 7cbb 383f e0a7 2fbf 5af8 1b3f 7d3f 8dbe
00000030: 4c0e 16bf 9752 e8be c734 8abe 23b5 2a3f
00000040: 3af0 1e3f 5906 2fbf 0ef6 23bf 9d3b 173f
00000050: 383c 22bf 0815 1ebf 07f5 31be fbd2 12bf
00000060: 48cc a4bd 2018 02bf 7d79 483f 3c70 20bf
00000070: 2da6 f0be ceed 09bf 2e02 33bf a36b 15bf

Q.weight f4 [1, 32]
0.029478552 0.015209551 0.009601528 0.018240511 0.068664484 -0.021288598 0.07233537 0.025463203
-0.028877944 -0.014263677 0.026361052 -0.01755443 0.0005678729 0.017892448 -0.039277148 0.036743145
0.022628892 -0.017835446 -0.066628896 0.01812829 -0.007777707 0.00054281787 -0.02873975 0.019490499
0.015256438 -0.019141432 -0.021693368 -0.031690102 0.013747757 -0.009823254 -0.019592552 -0.017094111
00000000: 017d f13c 7b31 793c ba4f 1d3c 206d 953c
00000010: f79f 8c3d 6d65 aebc 9124 943d 3598 d03c
00000020: 7091 ecbc 33b2 69bc 22f3 d73c 4fce 8fbc
00000030: 4edd 143a 2f93 923c 13e1 20bd fb7f 163d
00000040: 3a60 b93c a41b 92bc bb74 88bd c881 943c
00000050: 23dc febb e44b 0e3a a06f ebbc 8aaa 9f3c
00000060: 24f6 793c 7ece 9cbc 4ab6 b1bc 7bcd 01bd
00000070: 463e 613c b7f1 20bc 8f80 a0bc f308 8cbc

bn1.weight f4 [256]
1.2803369 0.24688828 0.87382317 0.1286722 1.1367319 0.4158486 0.7849192 0.27572638
0.0642997 0.3773373 0.41014034 0.31802812 0.47096574 0.35875985 1.2501204 0.5248639
0.50229514 0.20660646 0.3407431 0.6409916 0.26514053 0.31628117 0.58110625 0.17720078
0.27079207 0.64180124 0.30880812 0.4821985 0.75948304 0.50342005 0.12606364 0.18049504
1.12074 0.12072618 0.10376984 0.38990462 0.3124337 0.06523022 0.27650094 0.4905713
0.2826455 0.26628685 0.65877163 0.013308916 0.7810301 0.50481254 0.41919982 0.43609494
0.81982154 0.26416832 0.6548942 0.47791702 0.4319148 0.30973434 0.10780982 0.552419
0.6187919 0.3288769 0.18042552 0.32949373 0.31864762 1.7308697 -0.08551506 0.20489159
0.28333157 0.40007156 0.2428465 1.0792491 1.0461087 0.20033759 0.11093079 0.52755916
0.071697384 0.30784172 0.3027202 0.41177505 0.24902257 0.43159366 0.21029025 0.9661746
0.4651158 0.42507163 0.462009 -0.19222729 1.467637 0.4857904 0.26874968 0.3832382
0.46955523 0.35043463 0.251189 0.5029132 0.55823815 0.19679439 0.46493044 0.19646956
0.6241533 0.2842457 0.6552653 0.7388061 0.3389797 0.6884211 0.6124322 0.3325388
0.28559414 0.37291294 0.30228573 0.37920728 0.27822614 0.5928422 0.15254746 0.75902843
0.97186947 0.35680833 0.47785774 0.118842885 0.029136017 0.1281297 0.6389521 0.43595582
0.50544107 1.5089222 1.1947719 0.6264971 0.3101679 0.025659509 0.7975972 1.3249493
0.26240507 0.42978117 0.35451815 0.51152706 0.50294244 0.3319598 0.033032402 0.61363494
0.18060526 0.1527621 0.44236434 0.123115905 0.24680616 0.60793066 0.17334348 0.50903666
0.06604597 0.29124004 0.3355905 0.16230999 0.32712275 0.25723505 0.35598773 0.24597451
0.50468075 0.009634224 0.4465044 0.13568512 0.3258732 0.20054756 0.26531264 0.23092721
0.39347342 1.116624 0.40314975 0.19139773 0.7730533 0.5797981 0.0483316 0.6347963
0.56447136 0.055844728 0.6364064 0.13804835 1.1537077 0.19296128 0.5654627 1.3897854
0.40469372 0.6215152 0.18199323 0.29228088 1.0712098 0.74084723 0.22369528 0.112644665
0.08541971 0.017578721 0.8873714 0.48601237 0.88439065 0.6428972 0.52183425 0.26928872
0.32858518 0.21409275 0.19569197 0.46743023 0.035995416 0.8284188 0.67150354 0.5199689
1.2670391 0.24442269 0.08381737 0.34572655 0.17779046 0.13024606 0.76436716 0.30324212
0.70416087 0.1935833 0.578907 0.17357247 0.5824939 0.35217646 0.4446236 0.027704997
0.3399148 0.52883726 0.129404 0.26543283 0.23489909 0.64234215 0.16514792 0.40802744
0.25071213 0.745859 0.32646596 0.011926134 0.5488679 0.57632715 0.27110296 0.10855264
0.468671 0.30720717 0.24945635 0.6977007 0.57825404 0.15236796 0.18999462 0.13078131
0.09621619 0.475876 0.29290468 0.21536973 0.29731965 0.05160878 0.42975587 0.23391707
0.26934695 0.48634714 0.7829875 0.21216635 0.5627043 0.40575814 0.55738443 0.5647533
00000000: 14e2 a33f 48d0 7c3e e0b2 5f3f a5c2 033e
00000010: 6e80 913f 1cea d43e 77f0 483f 022c 8d3e
00000020: 90af 833d 5b32 c13e eafd d13e 95d4 a23e
00000030: 6c22 f13e 5faf b73e f203 a03f 7b5d 063f
00000040: 6a96 003f a590 533e e175 ae3e 0718 243f
00000050: 80c0 873e 9bef a13e 61c3 143f 1f74 353e
00000060: 42a5 8a3e 164d 243f 191c 9e3e b9e2 f63e
00000070: 7b6d 423f 23e0 003f d416 013e b1d3 383e
00000080: 6974 8f3f 4a3f f73d 4885 d43d 94a1 c73e
00000090: 4ff7 9f3e 6c97 853d 8891 8d3e 292c fb3e
000000a0: e9b6 903e c056 883e 42a5 283f a40d 5a3c
000000b0: 97f1 473f 653b 013f 5ca1 d63e d647 df3e
000000c0: d3df 513f 1241 873e 25a7 273f 8ab1 f43e
000000d0: f023 dd3e 8095 9e3e 65cb dc3d 556b 0d3f
000000e0: 2569 1e3f 8e62 a83e 78c1 383e 67b3 a83e
000000f0: c825 a33e 238d dd3f 8522 afbd 1acf 513e
00000100: d610 913e 2ed6 cc3e c1ac 783e d624 8a3f
00000110: e4e6 853f 4c25 4d3e af2f e33d 1e0e 073f
00000120: 14d6 923d 6e9d 9d3e 24fe 9a3e 2ed4 d23e
00000130: c6ff 7e3e d8f9 dc3e 5456 573e 3857 773f
00000140: a823 ee3e fda2 d93e 728c ec3e 3bd7 44be
00000150: 87db bb3f 85b9 f83e 8f99 893e cc37 c43e
00000160: 8b69 f03e 2b6c b33e d89b 803e ebbe 003f
00000170: b2e8 0e3f 7884 493e 5d0b ee3e 512f 493e
00000180: 83c8 1f3f a788 913e 77bf 273f 6622 3d3f
00000190: bf8e ad3e 5d3c 303f 5bc8 1c3f 8742 aa3e
000001a0: 6539 923e 72ee be3e 32c5 9a3e 7527 c23e
000001b0: a873 8e3e 82c4 173f 6735 1c3e b04f 423f
000001c0: 70cc 783f 95af b63e c5a9 f43e e663 f33d
000001d0: a8ae ee3c 6f34 033e 5d92 233f 9a35 df3e
000001e0: 9664 013f 5d24 c13f 49ee 983f 1d62 203f
000001f0: 54ce 9e3e e433 d23c 552f 4c3f f097 a93f
00000200: f559 863e 470c dc3e 6783 b53e 70f3 023f
00000210: d6c0 003f a3f6 a93e fc4c 073d 2e17 1d3f
00000220: 96f0 383e ab6d 1c3e 947d e23e 3124 fc3d
00000230: c1ba 7c3e 58a1 1b3f f480 313e 3a50 023f
00000240: 1c43 873d 6a1d 953e 85d2 ab3e 9734 263e
00000250: a27c a73e 50b4 833e 0644 b63e bee0 7b3e
00000260: c232 013f ddd8 1d3c 3a9c e43e 0af1 0a3e
00000270: dad8 a63e 575c 4d3e 0fd7 873e 2f78 6c3e
00000280: 5975 c93e 89ed 8e3f a569 ce3e c4fd 433e
00000290: d2e6 453f a66d 143f 5bf7 453d 0382 223f
000002a0: 3281 103f 71bd 643d 88eb 223f 8c5c 0d3e
000002b0: b2ac 933f a497 453e 2ac2 103f 7de4 b13f
000002c0: 0434 cf3e 9f1b 1f3f 6f5c 3a3e d7a5 953e
000002d0: 671d 893f 2aa8 3d3f 6010 653e 3fb2 e63d
000002e0: 87f0 ae3d 4001 903c c62a 633f 9dd6 f83e
000002f0: 6d67 623f e994 243f ee96 053f 36e0 893e
00000300: 513c a83e 213b 5b3e 7a63 483e 0453 ef3e
00000310: ee6f 133d 4113 543f a8e7 2b3f af1c 053f
00000320: 562e a23f f149 7a3e 71a8 ab3d 1203 b13e
00000330: b40e 363e 395f 053e 91ad 433f 8d42 9b3e
00000340: e343 343f b33a 463e 4033 143f fbbc 313e
00000350: 521e 153f 7950 b43e b4a5 e33e 97f5 e23c
00000360: 5009 ae3e e161 073f 7b82 043e d0e6 873e
00000370: 6389 703e 8970 243f 891c 293e f9e8 d03e
00000380: 575d 803e 9ef0 3e3f 8c26 a73e d565 433c
00000390: 9b82 0c3f 2d8a 133f 02ce 8a3e d950 de3d
000003a0: a5f5 ef3e 424a 9d3e 7c71 7f3e 839c 323f
000003b0: 7508 143f 5906 1c3e f38d 423e 89eb 053e
000003c0: fe0c c53d 05a6 f33e 9af7 953e e289 5c3e
000003d0: 483a 983e ba63 533d f608 dc3e f587 6f3e
000003e0: d8e7 893e 7e02 f93e de71 483f 2342 593e
000003f0: 640d 103f 88bf cf3e bfb0 0e3f ac93 103f
