checkpoints/maddpg_per/maddpg_per0_checkpoint_critic_target.pth (torch, 474855 bytes, 13 tensors)

fc1.weight f4 [256, 52]
000000 02 ef bc ba ad af 2f 3f 44 46 20 bf 0e 72 1f 3e
       -0.0014414492 0.68627435 -0.62607217 0.15570852
000010 a0 86 b5 bc e0 1d 12 bf e8 ba 24 bf 1f c4 54 bc
       -0.02215892 -0.57076836 -0.64347696 -0.012986212
000020 18 43 50 3d 25 e1 30 3f c7 43 89 bd c8 03 82 3d
       0.050845236 0.69093543 -0.067023806 0.063483775
000030 2e 9c 25 be d1 d5 84 be 6d 82 72 bd 0a f6 34 3e
       -0.16172859 -0.2594438 -0.059206415 0.17671981
000040 29 0c 1c 3e a9 6f bf 3e 5a e5 95 bd da 9e 1f bf
       0.15239014 0.37389877 -0.07319136 -0.62351763
000050 44 03 c2 be 6f f5 e1 bd 3e dd c6 bd ac ec 21 bf
       -0.37893116 -0.11033141 -0.09710167 -0.6325176
000060 5c a1 c6 3e f3 68 fa bd 32 c0 a8 bc e1 d3 04 bc
       0.38794982 -0.12227049 -0.020599458 -0.0081071565
000070 0d 79 2e 3e ae 8c d7 be 5a ea 2c be 69 fc bf 3d
       0.17038365 -0.42099518 -0.16886273 0.09374315
000080 83 03 0c 3f 18 df 13 be 12 17 72 be f5 9b 4a be
       0.5469286 -0.14440572 -0.23641613 -0.19786055
000090 ce e2 87 3e 4c 3a 16 be 11 6f 1d be 51 15 26 bd
       0.26540226 -0.14670676 -0.153744 -0.040547673
0000a0 e1 cd b7 3e 80 bf fb bd de 7a 5d be b5 75 02 3f
       0.3589926 -0.12292385 -0.21628901 0.50960857
0000b0 a0 92 46 3e 16 ba 7f bd a0 16 8d be 25 de 14 3f
       0.1939187 -0.062433325 -0.27556324 0.58151466
0000c0 49 44 c9 be ca fc 82 bf 54 44 43 c0 4b 59 e8 be
       -0.3930991 -1.0233395 -3.0510454 -0.45380625
0000d0 d4 06 cb be 1b 7b 38 bd 4f d0 74 be a6 c4 6c 3f
       -0.39653647 -0.045039278 -0.23907588 0.9248756
0000e0 e0 ea 6a 3d 64 c8 9b be 25 f5 f3 bd e2 46 8a 3f
       0.0573529 -0.30426323 -0.11911992 1.0802882
0000f0 d7 57 a3 be 91 65 98 3e 05 1f db 3d 25 f8 8e 3f
       -0.31902954 0.2976499 0.10699276 1.1169478
000100 e0 50 ed 3d 85 e2 e7 be b7 1c 0d 3e d2 d2 80 3f
       0.11587691 -0.45290008 0.13780485 1.0064337
000110 7a d1 8d be d0 ec 1f 3e 59 7c b4 3e a0 62 a7 bd
       -0.2769888 0.1561768 0.3525112 -0.08173108
000120 b8 03 c2 bd 27 fb 17 be c6 5f 84 3e e9 77 c0 3d
       -0.094733655 -0.14841901 0.2585432 0.09397871
000130 63 06 cf 3e b0 7b 0c bd 74 42 95 bd 53 07 3c bf
       0.4043456 -0.034297645 -0.072880656 -0.73448676
000140 61 3d 10 bd 1f c1 f4 be 7a 86 e2 bd 12 52 46 bf
       -0.035214785 -0.4780359 -0.110608056 -0.7746898
000150 3a 6f 93 3d 3f 1c a4 be 2f 40 d4 bd 75 65 79 bf
       0.07198949 -0.320528 -0.103638045 -0.97420436
000160 40 29 1b bd 84 5d ce be 89 f3 2a be 5a 37 72 bf
       -0.037881136 -0.40305722 -0.16694464 -0.9461571
000170 3f 6a cf 3b e2 1a fd be 93 a1 cc bd 4e 5b e0 be
       0.006329804 -0.49434572 -0.09991755 -0.4381966
000180 24 6a 97 bd 2e 5d d0 bd 95 a1 83 bd fb e9 92 be
       -0.073932916 -0.101740226 -0.06427304 -0.28694138
000190 78 8c 8b 3f c0 37 47 be 2e 36 7b bf 14 aa 68 3f
       1.0902243 -0.1945486 -0.98129547 0.9088452
0001a0 26 6e b7 bc b3 69 1e 3f 26 7a 93 be 33 24 99 3e
       -0.02239139 0.61880034 -0.2880413 0.2991043
0001b0 82 fe 0b 3c ae d8 1b bf 88 a8 0c be 04 a9 8d 3e
       0.008544566 -0.608775 -0.13736165 0.2766801
0001c0 26 4d be 3d b0 f2 09 3f ec a9 f2 bd f8 2d 48 3e
       0.09292059 0.53885937 -0.11848816 0.19548786
0001d0 45 db 10 3e 68 18 f0 be 8f 39 71 be 8f 40 2a 3e
       0.14146145 -0.4689362 -0.23557113 0.1662619
0001e0 34 5c b9 3c 06 ea 00 3f 1b 95 85 3e 62 7f 16 be
       0.022626974 0.5035709 0.2609032 -0.1469703
0001f0 14 bb a3 3e 5b b9 d0 bd d0 c3 18 3e 71 be 1b be
       0.31978667 -0.10191604 0.14918447 -0.15209366
000200 79 94 11 3c df f6 fa be c4 a4 97 bc 69 d3 8f be
       0.008885496 -0.49016473 -0.018511184 -0.2809098
000210 98 7a 27 be 7c a7 cc be b2 87 4e be dc d4 a3 bd
       -0.1635536 -0.3997153 -0.20168951 -0.07999584
000220 5a bc 87 3e f4 45 94 be f8 a2 06 3f 66 15 f3 3e
       0.26510888 -0.2895962 0.5259242 0.47477263
000230 04 7d a9 bd 0c 52 6b be ea 7d 05 3f f4 7c 01 3f
       -0.08275798 -0.22980517 0.52145255 0.5058129
000240 a8 55 eb 3e 28 46 9d be 92 bf 49 bd c9 57 f7 3d
       0.45963788 -0.30717587 -0.04925496 0.120772906
000250 6b 42 5a be 03 8e 1c 3e e4 f3 6e be b0 39 4b bc
       -0.21314399 0.15288548 -0.23335224 -0.0124038905
000260 2c e3 19 3f 7c a6 8d 3f 01 84 7c be cd 37 e6 bf
       0.6011226 1.1066432 -0.2465973 -1.7985779
000270 c2 60 17 3f 3f e3 02 3f db ac 11 be e8 7d 9f be
       0.59132016 0.51128 -0.14226095 -0.31150746
000280 0e ce 42 3f 65 b4 8f 3e 7d 0d 48 3d 15 7a ee be
       0.76095665 0.28067318 0.04884099 -0.46577516
000290 f2 dd 0c 3f b6 14 a6 3e 57 39 b3 bc b3 7a 45 3e
       0.5502616 0.32437676 -0.021877928 0.19285087
0002a0 34 6b 16 3f 24 b1 ae bc 54 e8 bd bd 03 de 65 3e
       0.5875733 -0.021324702 -0.09272829 0.22447972
0002b0 a8 0c 28 3f 17 2d df 3e d1 20 84 be 77 09 30 be
       0.6564431 0.43589088 -0.25806287 -0.1719111
0002c0 9e b4 9b 3e 69 09 4c 3e d9 fe a2 be 81 37 2b be
       0.30411237 0.19925465 -0.31835058 -0.16720392
0002d0 f8 08 ca 3e 41 c8 b2 bf 86 54 73 3e 41 a3 47 be
       0.39459968 -1.3967363 0.23762712 -0.1949587
0002e0 b1 fb 21 bf 52 81 da 3d c7 9b 76 3e de 70 f0 bd
       -0.63274676 0.10669197 0.24082862 -0.11740278
0002f0 54 d0 37 3f 79 64 cc bf 35 35 12 3e 23 8c 13 bf
       0.7180226 -1.5968162 0.1427811 -0.57635707
000300 ad 32 f4 be e1 99 72 3d 76 cc 26 3d 56 c5 cf be
       -0.47694913 0.05922878 0.040722333 -0.40580243
000310 41 0e 96 3f f9 e6 bd bf ec d6 5c bd ea ef b5 bd
       1.17231 -1.4836112 -0.053915903 -0.088836506
000320 83 41 23 be a4 88 0d 3e 67 ed 12 be db a3 57 be
       -0.1594296 0.13821656 -0.14348374 -0.210586
000330 74 b2 6d bf 4c 68 7e bf 17 ee b4 be a4 36 b6 bf
       -0.9285042 -0.99377894 -0.35337898 -1.4235425
000340 1f f3 8f be d6 65 dd 3d b2 e9 3c bd c1 56 5d 3d
       -0.28115174 0.10810439 -0.046121307 0.054037813
000350 c5 6c 11 bf 5d dc 00 3d db 43 ca bd 7c e5 79 3e
       -0.56806594 0.031460155 -0.09876224 0.24403948
000360 e3 b2 64 be 38 1e 89 bb 48 cf 18 be ce d5 38 3d
       -0.22333865 -0.0041845106 -0.14922822 0.045125775
000370 d4 69 34 3f 59 49 34 be 57 41 7f be 03 bc b2 3c
       0.7047398 -0.17606105 -0.24927269 0.021818167
000380 d1 b2 df 3c 5a c1 5b 3e bf 3a 3f be 44 4a bf bd
       0.027306946 0.21460477 -0.18674754 -0.09340337
000390 a3 75 89 40 57 62 87 be f6 1e 2c be 6f fd cc bd
       4.29561 -0.26442215 -0.16808686 -0.10009276
0003a0 da ad 7f bd c8 f0 d0 be 61 7f 4d 3c e8 4e 19 be
       -0.062421657 -0.40808702 0.0125425765 -0.14971507
0003b0 07 44 03 3f bf 41 aa 3d b8 84 fd bc da 52 9e 3d
       0.51275676 0.08313321 -0.030947074 0.077306464
0003c0 71 02 0a 3e 4b 38 b4 bd f1 b3 8d 3c 83 7e 2a 3d
       0.13477494 -0.087997995 0.017297717 0.041624557
0003d0 27 d8 18 bf 20 27 23 be bd 1a 80 bd f3 3d fe bd
       -0.5970482 -0.15932894 -0.062551 -0.124141596
0003e0 3d 38 07 3f 66 e5 85 be 9d 10 63 bd a8 e9 dc 3b
       0.5282019 -0.2615158 -0.055435766 0.006741721
0003f0 56 9a 8b c0 45 12 02 be c6 b0 63 3c 93 f1 8f 3d
       -4.36259 -0.12702282 0.013897127 0.070284985

fc1.bias f4 [256]
000000 b4 7c ee be 47 95 94 be 6a 48 0c bf 56 b7 b4 be
       -0.46579516 -0.2902014 -0.54797995 -0.35296124
000010 00 06 3d bf ec 70 c6 be 26 69 c5 bf d8 82 d7 be
       -0.7383728 -0.38758028 -1.5422714 -0.42092013
000020 6b e9 35 bf 35 cf 1a be 50 5f 2c bf 7e 26 96 be
       -0.7105929 -0.15118106 -0.67332935 -0.29326242
000030 30 61 6d c0 8e a3 15 bf 06 08 9d be e1 6a 07 bf
       -3.7090569 -0.5845269 -0.30670184 -0.5289746
000040 de 75 0c bf 43 14 2e be f1 14 9b be 86 67 43 bf
       -0.5486735 -0.16999917 -0.30289415 -0.7632984
000050 ff cf dc be b1 46 b2 be b0 4f 04 bf d8 b9 91 be
       -0.43127438 -0.34819558 -0.51684093 -0.284621
000060 85 9b 1d bf 26 0a 8d be bc dc 31 bf bb 9c 04 bf
       -0.6156543 -0.27546805 -0.6947744 -0.5180165
000070 6b 02 c6 be 30 8c d9 bd bf 89 50 bf 09 b2 3d be
       -0.3867372 -0.10622442 -0.81460184 -0.18524946
000080 7f b3 82 be 84 3e cf 3d 6a 37 86 bf 3d 05 25 bf
       -0.2552757 0.10119346 -1.0485661 -0.6446112
000090 e5 14 f6 be c3 21 70 bf 09 17 f3 be 0c df 05 be
       -0.48062816 -0.93801516 -0.47478512 -0.13073367
0000a0 8f 05 0f bf cc de bb be 00 cc ef bd c8 45 41 be
       -0.55867857 -0.36693418 -0.11708832 -0.18874276
0000b0 2d af 03 bf e6 65 d9 be 8c 45 50 bf 2f b8 00 bf
       -0.5143917 -0.42460555 -0.8135612 -0.5028104
0000c0 8a 54 af be 53 8f ea be fe 14 02 bf 38 04 a4 bd
       -0.34244186 -0.45812473 -0.5081328 -0.08008617
0000d0 4a c5 8b be e9 b1 a0 39 9e d3 b4 bd 86 6e 08 3d
       -0.27298957 0.00030650132 -0.08829425 0.03330853
0000e0 0d 17 76 be b1 2c 23 bf 39 fe 1b bf 6c ce 8c 3d
       -0.2403223 -0.6374007 -0.6093479 0.06875309
0000f0 e8 37 14 bf 08 77 90 be 87 03 18 bf a3 86 a5 be
       -0.57897806 -0.28215814 -0.5938038 -0.32329282
000100 3e 9e 8c be 7e 66 e7 be 8d 00 3e be 31 cf a1 bd
       -0.2746448 -0.45195383 -0.18554898 -0.07900847
000110 1a 69 af be cb 2a 30 bf 89 59 0e bf 6b e5 7f 3d
       -0.34259874 -0.68815297 -0.5560537 0.06247465
000120 48 c3 d1 be a1 14 c6 be f5 0f d5 bc 25 79 22 bf
       -0.409693 -0.38687614 -0.026008585 -0.634661
000130 9d a5 07 bf 9f 91 36 be 44 f2 07 bf 79 80 50 be
       -0.5298708 -0.17828988 -0.53104043 -0.20361508
000140 fd 5e 6e bf 2a be 08 bf f2 86 9a bd 86 97 21 c0
       -0.9311369 -0.5341517 -0.0754527 -2.5248733
000150 4f 5e 24 be e6 de 4d bc 9d 6a b4 be 26 a2 27 bf
       -0.16051601 -0.01256535 -0.3523759 -0.65481794
000160 c1 a0 bb bd dc e5 18 bf 3e dd 0d bf 62 6d 13 be
       -0.09161521 -0.5972574 -0.55415714 -0.14397195
000170 42 7a 87 bf 3e 91 ff 3d ae 4b 08 3f cf 82 d4 be
       -1.0584185 0.124788746 0.5324048 -0.4150605
000180 86 af 8d bf f8 2b f0 be a1 d3 00 bf 63 22 5a bf
       -1.106919 -0.46908545 -0.5032292 -0.8520872
000190 31 3a 85 bf 89 f2 b7 be 05 d6 8a be 55 2c 08 be
       -1.0408384 -0.35927227 -0.2711641 -0.13298161
0001a0 c3 e3 0d bf 8f 0d 92 be 4c 9f 5f bf 09 7c cb be
       -0.5542566 -0.2852597 -0.8735244 -0.3974307
0001b0 64 a5 e4 be a1 73 81 bf 71 21 20 bf 9f 27 1e bf
       -0.44657433 -1.0113412 -0.6255103 -0.61779207
0001c0 15 16 3a bf 1e 4d 3a be 95 9d 81 3e e4 f8 0f bf
       -0.72689945 -0.1819348 0.25315538 -0.5623915
0001d0 23 36 2c be 5f 91 04 bf d9 c8 0c c0 13 b0 12 bf
       -0.16817527 -0.5178432 -2.1997588 -0.5729992
0001e0 46 10 13 bf 3d 6f 62 be eb 07 2e bf 96 70 84 bf
       -0.57446706 -0.22112747 -0.6798083 -1.0346859
0001f0 f9 bb a2 be e1 0a 13 bf 9b ef 09 bf b6 b7 dd 3d
       -0.31784037 -0.57438475 -0.53881234 0.10826056
000200 a0 c8 77 bf 3e 7e a0 be 98 29 1d bf 73 e9 d2 be
       -0.96790504 -0.31346315 -0.6139159 -0.41193733
000210 43 7f a4 be 12 05 22 bf a9 db c5 be 49 0b 97 bf
       -0.32128343 -0.63288987 -0.3864415 -1.1800319
000220 a0 19 02 be 26 0f 1c bf bf 1a fe be 61 31 cf be
       -0.12705088 -0.60960615 -0.4962978 -0.4046736
000230 0c 0f c7 bf 77 6a d0 be ab 67 ea bd ed c8 e3 be
       -1.5551467 -0.40706226 -0.11445554 -0.44489232
000240 37 c6 8f bf d7 eb 89 be fc f9 f6 be 41 e6 27 bf
       -1.1232365 -0.26937744 -0.48237598 -0.65585715
000250 af 79 2c bf d6 45 94 3e dd fe ef bb 4c 57 dd be
       -0.67373174 0.2895953 -0.0073240832 -0.43230665
000260 e0 54 8e be eb 25 f1 bd bb ba a3 bf 59 b5 db be
       -0.2779913 -0.117748104 -1.2791361 -0.42911795
000270 22 d3 37 bf 6f ab 80 be 52 0a 0c bf 5a 8b c0 bc
       -0.7180654 -0.25130793 -0.5470325 -0.023503948
000280 dc ae 74 be 47 b6 87 bc e8 c5 f4 be f9 42 99 be
       -0.23894829 -0.016566409 -0.4780724 -0.2993391
000290 81 08 dd 3d 0a 50 1d bf c1 1e 4c bf 44 18 04 be
       0.107926376 -0.61450255 -0.79734427 -0.12899882
0002a0 df 85 e8 be fa 00 70 be 34 97 52 be f1 7c 25 bf
       -0.45414636 -0.23437873 -0.20565492 -0.6464377
0002b0 32 e4 f7 be 43 fd 70 bf 3f 31 47 bf ef 81 c0 bd
       -0.48416287 -0.94136447 -0.7780952 -0.09399783
0002c0 02 55 a0 be fb c2 f1 be 3c 2a ba bf e8 d8 c1 be
       -0.31314856 -0.4721907 -1.4544139 -0.378608
0002d0 ae dc ba be 17 02 36 bf c3 b8 ca be 65 26 c6 be
       -0.3649649 -0.7109694 -0.39594087 -0.38701168
0002e0 19 90 d2 be 91 75 cf be e9 ed 87 bd 6f 18 b4 be
       -0.41125563 -0.40519384 -0.06637175 -0.3517489
0002f0 48 cf ca bd d4 e5 04 bf 85 64 c2 bd f1 1c 81 bf
       -0.09902817 -0.5191319 -0.09491829 -1.0086957
000300 23 7b ff be 50 71 42 bf 6b 66 27 be a7 d3 12 bd
       -0.49898633 -0.7595415 -0.16347663 -0.03584638
000310 1d e3 17 3d 5f 4f ee be 49 ac cc be 39 fe 92 bd
       0.037081826 -0.4654493 -0.39975193 -0.071773954
000320 89 36 a2 be 8c a7 1f bf 3b 48 14 bf d1 ba 98 be
       -0.31682232 -0.6236503 -0.57922715 -0.2983003
000330 fa 66 aa be 7d 9a 83 be 75 9b 04 bf 99 85 f7 be
       -0.3328169 -0.25703803 -0.5179971 -0.48344114
000340 a8 09 79 be 80 0f 01 bc 7a 42 9b bd 69 61 05 bf
       -0.2432009 -0.007877231 -0.07581039 -0.5210176
000350 e7 c8 c9 be 01 46 1d be 53 95 16 bf c6 9a b4 be
       -0.3941109 -0.15358736 -0.588216 -0.35274333
000360 8c b0 d4 be 9d c0 91 be e8 8f 3c bf 1d d8 cd bd
       -0.41540945 -0.28467265 -0.73657084 -0.10050986
000370 ed b6 24 be 0b 08 fa be 4f 25 75 bf d2 61 91 be
       -0.16085406 -0.4883426 -0.95760053 -0.28394943
000380 c2 7c 8a be f7 c5 13 bf 44 fb 54 bf ee 95 5c bf
       -0.27048308 -0.57723945 -0.831959 -0.86166275
000390 4c f1 17 bf 1d 42 24 bf 4a b2 25 bf 32 15 02 3e
       -0.59352565 -0.6416338 -0.6472517 0.12703398
0003a0 77 f7 f4 be ee a4 14 bf 5f 46 f0 be e3 4e 89 be
       -0.4784505 -0.5806416 -0.4692869 -0.26817998
0003b0 07 37 3d bf 47 b6 e9 be e9 40 7f bb 2a be 93 be
       -0.7391209 -0.4564688 -0.0038948602 -0.2885602
0003c0 a4 4a 09 3d 05 5c fc bd ce 0d 57 bf 9a 6a 82 3d
       0.03351845 -0.12322239 -0.8400544 0.06367989
0003d0 68 60 3d bf 80 c7 8a bd 93 4b 2e bf 89 55 84 bf
       -0.7397523 -0.06776333 -0.6808407 -1.0338603
0003e0 0c 46 94 be 6e 8d e1 bf 79 ed 10 bf f5 b0 48 be
       -0.28959692 -1.7621286 -0.56612355 -0.19598754
0003f0 ec 75 b0 bc c7 62 83 be d4 57 40 bf 36 5e 11 bf
       -0.021540605 -0.256613 -0.75134015 -0.5678438

fc2.weight f4 [256, 256]
000000 2c e1 f7 3e 9b 04 1b be 13 71 0c be c8 7b 37 3e
       0.4841398 -0.15138476 -0.1371501 0.17918313
000010 d4 e9 c6 3e 53 25 ff be c5 34 10 bd e8 ba de 3d
       0.38850272 -0.49833164 -0.035206575 0.10875493
000020 1c 74 e8 be f0 5f df be 73 61 d7 3d e2 e8 05 3d
       -0.45401084 -0.43627882 0.10516634 0.032692797
000030 74 2b b6 be 63 d3 00 be 67 77 7f 3d e3 62 15 bf
       -0.35580027 -0.12580638 0.06236973 -0.58354014
000040 75 e2 17 3d d9 14 68 bc e7 f4 af 3d 96 ce a3 be
       0.0370812 -0.014165127 0.08591633 -0.3199355
000050 20 eb 41 be 41 5a c7 3d c1 23 31 bd 51 54 24 3d
       -0.1893735 0.097340114 -0.04324699 0.040119473
000060 38 74 41 be f6 72 d4 bd e5 c0 bb bd ff 6b 68 3d
       -0.1889199 -0.103734896 -0.09167651 0.056743618
000070 3b b6 59 be fb 84 ad bd 14 ba e9 bd ad b6 27 be
       -0.21260922 -0.0847263 -0.11412445 -0.16378279
000080 1c fc 8e bd a7 71 53 3e 8d 2b 47 bf 65 ed 31 be
       -0.0698168 0.20648824 -0.7780083 -0.17375715
000090 93 0d 6c be f5 43 69 bf ad 17 22 3e 9d 51 0c 3f
       -0.23052053 -0.9111932 0.15829344 0.5481203
0000a0 3c 75 3c be 33 71 d2 bb 52 74 84 3e d8 cc 9d 3d
       -0.18404096 -0.006422186 0.25869995 0.077050865
0000b0 44 46 c1 be b5 da 7e bd 4c ae 9c bc d7 fe e8 3d
       -0.3774892 -0.062220294 -0.01912608 0.11376732
0000c0 5a f5 1f 3e 8f f9 3f 3e cb 66 df 3d c0 0f 23 bf
       0.15620938 0.18747543 0.10908278 -0.6369591
0000d0 0f 8f 14 3e eb a6 90 3e d2 16 34 bf 0d 5f aa bd
       0.14507698 0.28252348 -0.7034732 -0.08318911
0000e0 fb 63 1d 3e fe 5e 33 bd b4 62 58 be 7c 82 61 bc
       0.15370171 -0.043791763 -0.21131402 -0.01376402
0000f0 e3 ef fc 3d f7 c8 98 3e 8a a5 2b 3e 9d c5 c4 3d
       0.12350442 0.29840824 0.16762367 0.09608004
000100 be 3e d3 3e 59 dd 21 be 26 3f 72 3e bb 7f b8 bc
       0.41258806 -0.15807094 0.23656902 -0.022521844
000110 d1 53 bd 3d 26 6a 0d bf 3e 4a b3 be 30 31 7e 3e
       0.09244502 -0.55240095 -0.3501758 0.24823451
000120 29 51 a4 bd d7 fc cb 3d c4 c9 cf bd e6 d4 bc bc
       -0.080232926 0.09960335 -0.101459056 -0.023050737
000130 9e 61 b5 be 89 66 15 3e c4 b7 dd bd 7f 42 6a bd
       -0.35426039 0.14589895 -0.10826066 -0.057192322
000140 ae 4e 9e bd d1 95 bc 3e 95 51 21 3e d7 d4 13 bf
       -0.07729851 0.3683305 0.15753777 -0.5774664
000150 4d 9a e6 3c 46 82 b5 bd 17 19 77 be 27 ec fc bd
       0.028149748 -0.08862738 -0.24130665 -0.1234973
000160 7b fc 98 be d0 5f bb 3e d2 1f 91 be 55 27 93 3e
       -0.29880127 0.36596537 -0.2834459 0.28740945
000170 06 ed d4 be 1c 72 13 3d 15 b0 80 be 95 6f bf be
       -0.41587085 0.035997495 -0.2513434 -0.37389818
000180 c6 f1 0f bf e4 41 70 be 2b 84 94 bd b8 e7 48 be
       -0.5622829 -0.23462635 -0.072517715 -0.19619644
000190 b6 32 f9 3e 60 3d 12 bd 89 42 85 bd 7f 4a fb bd
       0.48671502 -0.035703063 -0.06506831 -0.122700684
0001a0 c6 bc b7 be 95 fb 06 3c df 4b 17 bf 2d 19 b3 bd
       -0.3588621 0.008238693 -0.59100145 -0.08745036
0001b0 bf 8b e4 3d 42 21 ca 3d de fa e3 bd 6e f2 88 3e
       0.11159467 0.09869625 -0.111318335 0.2674746
0001c0 f0 63 58 3e 72 2d 0f be f9 8e ac 3e fe e0 dd 3d
       0.21131873 -0.1398218 0.3370283 0.108339295
0001d0 3e b2 29 3f c4 08 2c bf 44 de bc bd e6 cf 92 3e
       0.662876 -0.67200875 -0.09222081 0.2867424
0001e0 9a e0 f4 bd 0a d7 c8 3c ec a1 0c be 9a c5 f5 3d
       -0.11956902 0.024516601 -0.13733643 0.1200058
0001f0 d2 89 5f 3e 2b f4 fd be 02 a7 c6 3e 6d a5 1f bd
       0.21829918 -0.49600348 0.38799292 -0.03897612
000200 c5 38 0d bf 13 98 20 3e a4 80 ae be 90 21 0c 3e
       -0.5516475 0.15683012 -0.3408252 0.13684678
000210 35 26 03 be 09 44 32 bd 23 a3 93 3d 39 71 11 bf
       -0.12807544 -0.043521915 0.0720885 -0.5681339
000220 30 b6 54 3e b0 69 1e bf d4 09 84 be b9 4f b7 bd
       0.20772624 -0.61880016 -0.25788748 -0.08950753
000230 e4 28 ae be aa dc f8 3e 8f d6 47 be 3a 7b cd 3d
       -0.34015572 0.48605853 -0.19515441 0.10033269
000240 bc 1a fc be 06 ff 88 be de 96 13 be 07 42 e1 bd
       -0.49239147 -0.26757067 -0.1441302 -0.10998922
000250 35 09 7c 3d 5a 7c 4b 3d 97 f4 0e 3d f8 f8 b6 be
       0.061532218 0.049679138 0.034901228 -0.35736823
000260 75 55 f6 bd 4c 03 9e be 5e 35 14 be 24 63 b0 3e
       -0.120280184 -0.3086189 -0.14473483 0.34450638
000270 df 70 91 be af 40 ce be d2 b0 11 bf 52 e0 75 3e
       -0.28406426 -0.40283725 -0.5691043 0.24011353
000280 7a 80 11 3e c9 7a d9 bd 6f 37 68 bf 50 54 18 be
       0.14209166 -0.106191225 -0.90709585 -0.14875913
000290 a2 57 8d be 1c 88 ba be 93 a1 0d be 7e 10 a0 bd
       -0.2760592 -0.36431968 -0.13831167 -0.07815646
0002a0 5c 0e 93 be 57 58 ea be 63 cc 50 3c 29 84 a1 bd
       -0.28721893 -0.45770523 0.012744042 -0.07886536
0002b0 e3 cb c4 bf 57 67 4d be 67 93 1f 3e ef a5 ec 3d
       -1.5374721 -0.20058952 0.15583573 0.11555087
0002c0 7a 7e 9d 3d 10 32 aa be 70 df 99 3e 0a b6 f3 3d
       0.07690139 -0.3324132 0.30053282 0.118999556
0002d0 aa 1e e9 3e ed 35 6a bc b5 9c ec 3d 8e 8f 2f bf
       0.45531207 -0.0142950835 0.11553327 -0.6857842
0002e0 80 c5 0e 3e 82 0a 11 3e 3b 64 0b 3e 08 28 f6 3d
       0.13942528 0.14164165 0.13612454 0.12019354
0002f0 68 04 f6 be 5d 89 04 be 5c 4d 76 3e 0e 88 b3 be
       -0.48050237 -0.12943025 0.24052948 -0.3506474
000300 15 69 81 be 71 82 e7 bc 4d b1 29 be 8e 69 82 be
       -0.25275484 -0.028260441 -0.16571541 -0.25471157
000310 16 20 b0 3e 4c 23 de 3d 85 a0 54 3d fb f6 dd be
       0.3439948 0.10846576 0.051910896 -0.43352494
000320 5a 3d 81 3e 26 a8 e4 be 80 b4 1a 3d a4 42 a7 be
       0.2524212 -0.44659537 0.037769794 -0.3266803
000330 3f 07 7b 3b 52 54 0d 3f ae 76 7c bd 95 f2 54 be
       0.003830388 0.5520679 -0.06163662 -0.20795663
000340 b2 03 8e be d2 f3 09 3e 64 3a ae 3e fc e0 36 be
       -0.27737194 0.13471916 0.34028924 -0.17859262
000350 e3 fa 20 be cc 24 9f 3d ef ac c4 3c 14 d5 15 3e
       -0.15720706 0.0777069 0.024008242 0.14632064
000360 85 21 4d bc 7d 47 e0 3d 26 0c 3c bf ac 1d f4 3d
       -0.012520199 0.10951135 -0.7345604 0.11919722
000370 f2 eb 97 bd b6 0f 9b be fa f4 fc 3c 6f e8 c7 3d
       -0.0741805 -0.30285424 0.030878533 0.0976113
000380 46 2a 69 be f9 f0 94 be 68 2f 01 bd a2 fd 03 3e
       -0.22770032 -0.29090098 -0.03153935 0.12889722
000390 99 8f f4 3e bd ab dc 3d ce 60 b2 3c 38 b2 d3 3e
       0.47765806 0.10774944 0.021774676 0.41346908
0003a0 ea 38 68 3e 58 8f ad 3e 77 e9 07 be 53 90 73 be
       0.22677961 0.33898425 -0.13272654 -0.23785524
0003b0 3f 2a 53 bd bf 27 0f be 01 e9 d4 bc df 6a b3 3e
       -0.05155396 -0.13980006 -0.025990011 0.35042474
0003c0 92 7a 95 3e 85 39 eb be 74 3a 4b bd e1 f3 5f be
       0.29195076 -0.4594232 -0.049616292 -0.21870376
0003d0 c1 cc 87 3d e1 4f 85 be 01 24 e2 3d 0f 26 98 bd
       0.066308506 -0.26037505 0.110420235 -0.07429134
0003e0 e3 a2 ce bc 18 9b 6a be 7a 75 2c 3f ab e8 99 bc
       -0.025224155 -0.22910726 0.67366755 -0.018787703
0003f0 5e 51 77 3e b1 b7 67 3e 73 72 84 3e b6 5b 41 3f
       0.24152133 0.22628666 0.25868568 0.75530565

fc2.bias f4 [256]
000000 ff 2c 52 3d e5 e2 7e bf 44 4b ae be 0d 93 88 be
       0.051312443 -0.99564964 -0.34041798 -0.2667469
000010 ea b4 86 be 8a 37 bb be bf 65 e3 be 66 88 46 bf
       -0.263099 -0.3656581 -0.44413564 -0.7755188
000020 87 e3 35 bd 34 b3 43 be 82 bc 9a be 85 58 4e bc
       -0.04440644 -0.1911133 -0.30221945 -0.012594347
000030 35 81 00 bf 1d 32 68 bf eb a4 49 be 84 5c 9c be
       -0.50197154 -0.90701467 -0.19691817 -0.30539334
000040 dc bc 44 be dc d1 4c bf e3 9c 46 be eb 3d 0f bf
       -0.19212669 -0.8000772 -0.19395785 -0.55953854
000050 9b bc 03 bf c4 8b d2 be 8a a4 e3 be a5 5b f9 be
       -0.51459664 -0.41122258 -0.4446147 -0.48702732
000060 b6 cf 6f be f0 5f 46 be 55 e7 81 be 0d af d2 bd
       -0.23419079 -0.19372535 -0.25371805 -0.102872945
000070 74 af 6d be 61 9a 86 be bd c3 f0 be 30 f4 9c be
       -0.23211461 -0.26289657 -0.47024336 -0.3065505
000080 8f f4 3f bf 4b 4f ba be 97 74 f6 be db a9 c1 be
       -0.7498254 -0.3638862 -0.48135826 -0.37824902
000090 67 6f ba be 9e 5e f1 be 60 19 f5 be 6c 3b 07 bf
       -0.36413118 -0.471425 -0.47870922 -0.52825046
0000a0 bb 02 8c be c9 2f 22 bf 59 4c bc be 97 21 ae be
       -0.27345833 -0.63354164 -0.36777 -0.34010002
0000b0 36 77 af be 70 64 17 bd 23 21 7f be 47 87 1b bf
       -0.34270638 -0.03696102 -0.24914984 -0.6075329
0000c0 f5 7f 6f be a4 93 32 be 44 19 51 bf f2 20 fa be
       -0.23388655 -0.17439133 -0.8167918 -0.4885326
0000d0 e9 ec 6a be 87 b6 12 bf 23 a2 41 be d5 f3 fe be
       -0.22941937 -0.57309765 -0.18909506 -0.49795404
0000e0 7b f0 12 bf 1f 3b 31 be 4c 8f bb be 01 03 9d be
       -0.57398194 -0.17307709 -0.36632764 -0.30666354
0000f0 0b b9 53 be 3e 7b 7d be 1d 3e 81 be 75 b0 64 be
       -0.20676057 -0.24754044 -0.252427 -0.22332938
000100 ce 74 dc be 66 d9 84 be 48 26 52 be 98 4a 65 be
       -0.43057865 -0.25947112 -0.20522416 -0.22391737
000110 f9 20 11 bf f5 7b 13 bf 63 1d c4 be 7d b2 fc be
       -0.5669094 -0.5761102 -0.3830367 -0.49354926
000120 78 66 34 bf 64 fd 96 be 7d 89 b9 be 6b 0e 10 bd
       -0.70468855 -0.29490197 -0.36237708 -0.03517
000130 6d 43 85 be 5b 9d 1e be 7d e6 54 be 69 0d 08 be
       -0.26028004 -0.15489714 -0.2079105 -0.13286366
000140 54 3c 93 be d1 bb 08 bf f7 36 95 be 8d 3f 6f be
       -0.28756964 -0.53411585 -0.29143497 -0.23364086
000150 bb bf d9 be 08 9f ea bd 2b 98 d4 be 64 fb de be
       -0.4252909 -0.11456114 -0.41522345 -0.4355117
000160 ad e7 0d bf 60 53 c3 be 67 7f cd bd 72 d2 f4 be
       -0.55431634 -0.38149548 -0.10034066 -0.47816807
000170 5f de 11 bf 2c 8b 79 be 73 85 68 be 6c 63 19 bf
       -0.56979936 -0.24369496 -0.22707157 -0.5991733
000180 28 49 cb be 0b 0f a1 be 39 a0 4d be ce 6e d3 be
       -0.3970425 -0.3145679 -0.20080651 -0.41295475
000190 16 99 75 bf 51 1a 6e be a8 1c a8 be f3 14 9a be
       -0.95936716 -0.23252226 -0.32834363 -0.30094108
0001a0 dd 9e 17 bf d5 9e d3 be e3 26 86 be 5c aa be be
       -0.5922678 -0.41332117 -0.26201543 -0.3723935
0001b0 37 4a e8 be 13 90 ec be 3b 05 1d bf 92 08 3b be
       -0.4536912 -0.4620367 -0.61336106 -0.18264988
0001c0 8a ee d8 3d 6b fc 1b be 9a 1c ae be 3a 55 01 bf
       0.10592373 -0.15233009 -0.34006196 -0.5052067
0001d0 28 ce 8a be 3c 8c 88 bd e7 f8 85 be bc 9e da be
       -0.2711041 -0.066673726 -0.2616646 -0.4269923
0001e0 de f5 bd be a4 c2 f2 bd 2e 42 9a be 72 22 e7 be
       -0.37101644 -0.11853531 -0.30128616 -0.45143467
0001f0 df 4d 9c be 79 2a 2a bf 36 b4 17 bf d4 4b 58 be
       -0.3052816 -0.6647106 -0.59259355 -0.21122676
000200 42 59 70 be 0f 40 66 bd 65 e5 bf be aa 54 36 be
       -0.23471549 -0.056213435 -0.37479702 -0.17805734
000210 5c ec 44 bf 85 c5 ab be 5b 21 98 be 3e 84 c0 be
       -0.76923156 -0.33549133 -0.29712948 -0.37600893
000220 9e ba e7 be 96 e3 70 be 72 8f bc be 36 01 b0 be
       -0.45259565 -0.23524317 -0.3682819 -0.34375924
000230 0a f4 05 bf 7c 7c 08 bf e1 25 ab be 22 0b dd be
       -0.523255 -0.5331495 -0.33427337 -0.43172556
000240 1e 07 4f be b1 84 3b be fe 27 31 bf f1 da c1 be
       -0.20217559 -0.18312337 -0.6920165 -0.37862352
000250 6a d9 35 bf e8 fa 85 be 87 22 8d be 9e 2a a5 be
       -0.7103487 -0.2616799 -0.27565405 -0.32259077
000260 27 00 9e be 03 9d 69 be ac a8 ae be 2a 03 ba bd
       -0.3085949 -0.22813801 -0.3411306 -0.09082635
000270 96 0a ae be e0 07 3e bf 2f e6 98 be a8 b6 09 bf
       -0.3399245 -0.74230766 -0.29863116 -0.53794336
000280 60 89 53 bd 7d 0c 23 be 58 68 b2 be 7d 8d e1 be
       -0.051644683 -0.15922733 -0.34845233 -0.4405326
000290 3c cc e0 be 22 71 85 be cc 1a f2 be 27 66 09 bf
       -0.43905818 -0.26062876 -0.4728607 -0.536715
0002a0 0d 80 75 be a1 40 b8 be 35 9c b5 be 13 4a a8 be
       -0.23974629 -0.35986808 -0.3547074 -0.32869014
0002b0 a9 90 8e be e7 2a dd be cf f1 a1 bf 49 28 9e bd
       -0.27844742 -0.43196794 -1.2651919 -0.077225275
0002c0 df 9c 20 bf bb 7a 16 bf f7 88 13 be 66 73 ea be
       -0.62739366 -0.5878102 -0.14407717 -0.45791167
0002d0 be 87 bd be 72 be a1 be 34 7f cc be 44 9d 89 be
       -0.37017626 -0.3159061 -0.39940798 -0.26877797
0002e0 1b 91 a0 be 75 1f b0 be fc 12 23 be 94 5d 76 be
       -0.31360707 -0.34399 -0.1592521 -0.24059135
0002f0 3a 82 86 be 87 68 6e be 98 2c 89 be b8 6d fc be
       -0.2627123 -0.23282062 -0.26791835 -0.4930246
000300 68 a7 6b be 44 11 13 bf 72 71 a7 be 6a b3 3b be
       -0.23013079 -0.5744822 -0.3270374 -0.1833016
000310 92 55 a1 be 78 e4 8d be a1 d2 9a be f2 4a ba be
       -0.31510597 -0.2771337 -0.30238822 -0.36385304
000320 76 1a ce be c2 54 e5 be 4c 4b 06 bf 27 79 dc bd
       -0.40254563 -0.44791228 -0.52458644 -0.107652955
000330 2e b7 1c be 3c 92 9a be 39 f9 6b be 90 17 6b be
       -0.15304253 -0.30189693 -0.2304429 -0.22958207
000340 c7 9d 89 be d0 0c fa be 06 0d 9c bc 49 34 b7 be
       -0.26878187 -0.488379 -0.019049179 -0.35782078
000350 94 f1 88 be e3 3d 0f be 79 f6 d6 be 20 a4 70 bf
       -0.2674681 -0.13988452 -0.4198492 -0.94000435
000360 47 dc 02 bf b7 3b 9f be b7 6e 0c bf ce 34 be be
       -0.51117367 -0.31100246 -0.5485644 -0.37149662
000370 f9 d2 1d bf 8b d1 5f be da bf 46 be 17 60 de be
       -0.61650044 -0.21857278 -0.19409123 -0.43432686
000380 6c d2 e1 be 25 2f ee be c1 95 2b bf ff 27 c0 be
       -0.44105852 -0.46520343 -0.6702538 -0.37530515
000390 ef 49 c4 be c9 eb a8 be 1b 1d 8b be 58 f8 20 be
       -0.38337657 -0.3299239 -0.27170643 -0.15719736
0003a0 f6 c5 21 be 83 06 5e be 5f 2f 58 be 82 0c 26 be
       -0.15798172 -0.21682172 -0.2111182 -0.16215709
0003b0 7b c0 a3 be 0a 23 b7 be 1f 21 d8 be cf 3e cd be
       -0.31982788 -0.3576892 -0.4221277 -0.40086982
0003c0 aa e1 bc be 33 a7 96 be 79 69 e6 be 56 84 0e bf
       -0.36890918 -0.29424438 -0.45002344 -0.5567068
0003d0 3b ec 2b bf 46 7b d2 be 55 35 3d be d3 bf f0 be
       -0.67157334 -0.41109675 -0.18477376 -0.4702135
0003e0 3e d8 92 be 68 03 d9 be 58 9e 30 be 6c 1f 8f be
       -0.28680605 -0.4238541 -0.17247903 -0.2795366
0003f0 31 cd a7 bd 4e 15 fd be d7 9c b2 bd 2c c1 e5 be
       -0.08193434 -0.49430317 -0.08721321 -0.4487394

fc3.weight f4 [128, 256]
000000 f1 d9 f6 be ba 9f da be 32 02 db be a7 d1 4e 3e
       -0.4821315 -0.42699987 -0.42775112 0.20197164
000010 20 e8 b6 3e 8c bc 9d 3e 4a 63 27 3e 41 65 e9 bb
       0.35723972 0.30807912 0.1634647 -0.007122666
000020 98 48 20 bd 37 ba ef 3e 5f f2 16 3c 09 90 f9 3c
       -0.03913173 0.46821758 0.009213059 0.03046419
000030 4b 35 b9 3e 0c 6d c8 be 8e 21 84 be f7 35 75 bd
       0.36173472 -0.39145696 -0.2580685 -0.059865918
000040 e8 69 0f 3e a2 04 ea bd d4 6b ad be 21 c0 68 3e
       0.14005244 -0.11426665 -0.3387133 0.22729541
000050 de df cd bb 06 c0 b3 3e 61 2d 6f be 14 3c ce be
       -0.0062827906 0.3510744 -0.23357154 -0.4028021
000060 81 75 e6 3c 33 ec 49 3e c7 dc bb be f5 a5 3f be
       0.028132202 0.19719009 -0.36691877 -0.18715651
000070 3b a0 5b be e9 a0 03 be e9 e4 3f 3b 1b 76 b1 be
       -0.21447842 -0.12854351 0.0029280728 -0.3466042
000080 7c 53 c6 3e 27 b5 77 3e fc 79 6b be cd b8 70 3e
       0.3873557 0.24190198 -0.22995752 0.23507996
000090 f2 8e d9 3e 08 0e be bd a3 9c 65 be a6 bb dd 3d
       0.4249187 -0.0928002 -0.22423033 0.10826807
0000a0 97 11 e6 3c 28 e9 09 be c5 83 33 be df 34 0b be
       0.02808456 -0.13467848 -0.17530735 -0.13594387
0000b0 f8 b4 23 3d 7b 76 a6 be 0f c5 d4 3e ca bf 02 bf
       0.039967507 -0.32512268 0.41556594 -0.51073897
0000c0 07 6c 99 be 67 35 21 3f d6 31 01 3d ae a6 e8 3b
       -0.2996523 0.6297211 0.031541668 0.007099948
0000d0 c7 e7 b2 be ea 37 6b 3d 1c be d3 be 24 dd 94 be
       -0.34942457 0.05742637 -0.4135598 -0.29074967
0000e0 42 17 b0 be 4a 13 b3 bd c8 ce a9 be cc 92 17 bf
       -0.34392744 -0.087439135 -0.33165574 -0.5920837
0000f0 ed 23 e1 bd 47 62 8b 3e 53 27 df 3b 1a 2f 3c bf
       -0.109931804 0.27223417 0.0068101077 -0.7350937
000100 0e fd 23 be 10 24 61 be ce 04 dc bd f2 f9 c2 3e
       -0.16014501 -0.21986413 -0.10743104 0.38081318
000110 f5 bc ab 3e 85 05 9d bb e6 05 c2 3c 5f 75 d4 3d
       0.335426 -0.0047919177 0.023684453 0.10373949
000120 e9 5f c7 39 3e fd 05 bf 03 08 01 3d 4c b5 c4 bd
       0.00038027696 -0.5233954 0.03150178 -0.09604892
000130 2d 7e 03 3e b2 07 f6 bd 6a 7d c2 3e 90 ef 83 3c
       0.12841101 -0.120131865 0.37986308 0.016105443
000140 00 91 8a be ae 3d f1 3e 9a 1a 37 be 01 83 dd bd
       -0.2706375 0.4711737 -0.17881241 -0.10816003
000150 ca c3 e6 3e b5 8d e2 be 7c 4f 10 3f 6b 8f d1 3e
       0.4507125 -0.4424874 0.56371284 0.40929732
000160 ec 0d f4 3c be 88 aa 3e 06 d2 32 bf 9b 8d 11 bf
       0.029791795 0.3330745 -0.6985172 -0.568567
000170 77 d0 e9 3d 5a 84 b8 3e 1b af 8d be df c6 ca 3e
       0.11416715 0.36038476 -0.27672657 0.39604852
000180 de 30 2f bf 47 f6 a2 3e a0 ad 8a 3c 11 79 59 3d
       -0.6843394 0.3182852 0.016928494 0.053093974
000190 95 d4 62 be 07 c8 6e 3c 51 93 97 be 52 44 99 be
       -0.22151406 0.014574057 -0.2960458 -0.29934937
0001a0 49 3d 59 bf 84 17 b6 be 95 ef 45 3d 1d 39 33 bc
       -0.8485914 -0.35564816 0.048324186 -0.01093891
0001b0 b5 83 b9 3e 54 a8 a6 bd 41 63 b6 be 68 3c 9a be
       0.36233297 -0.08137575 -0.356226 -0.3012421
0001c0 54 2b ef be b8 35 38 bf cd d7 88 3e bb d9 5f 3d
       -0.46712744 -0.7195697 0.26727143 0.054651003
0001d0 95 a1 b5 3c c1 08 9d be fa a1 00 bf 25 ff 85 be
       0.022171775 -0.3067074 -0.50247157 -0.26171222
0001e0 ae 0b 5c bf 03 90 18 bf b7 c8 2d bf 74 77 f1 3d
       -0.8595532 -0.59594744 -0.6788439 0.11790362
0001f0 b0 a5 1d be b8 cf 64 3d 94 34 a9 be 67 08 c1 3e
       -0.15395236 0.05586216 -0.33047926 0.37701723
000200 ca 75 b9 be 19 0f 45 3e 11 9f f1 be 0c 7e e9 be
       -0.36222678 0.1924404 -0.4719167 -0.4560398
000210 8c 7c a8 bf 63 45 ee be e7 53 10 3e 35 59 bf bb
       -1.3163009 -0.46537313 0.14094506 -0.0058394917
000220 a6 f3 fd 3e 5c c8 0f bd 0f e5 8d 3e 70 ed 74 bf
       0.49599952 -0.035103187 0.2771382 -0.956748
000230 d4 8c 9b bd 2e d0 1e be a7 bc 2f be 7b 7c 25 3e
       -0.0759522 -0.15509102 -0.17161809 0.16160767
000240 38 78 b9 3d 73 63 3e 3e 36 81 08 3d 68 ea b2 3e
       0.09056133 0.18592624 0.03332635 0.34944463
000250 a3 6e 90 be c5 97 cb 3d c4 74 6b be 54 85 32 3d
       -0.2820941 0.09941057 -0.22993761 0.043584183
000260 d6 bb e5 3c 41 41 52 3e fd 67 0b bf 1d f0 ad be
       0.028043669 0.20532705 -0.5445555 -0.33972254
000270 8c 02 56 bd 66 57 34 3e 15 98 0f 3d e0 17 16 bf
       -0.052248523 0.17611465 0.035057146 -0.5863018
000280 84 bd 48 be 70 fa 2f 3e 21 a9 15 bf bb 42 33 3e
       -0.19603544 0.17185378 -0.58461195 0.17505924
000290 99 ae 52 3d 0c cf 89 be 99 e5 cd bc cf 82 44 bd
       0.05143604 -0.26915777 -0.025133895 -0.04797631
0002a0 b1 02 68 be 63 e2 97 be ea 92 6c be fc 75 8b bf
       -0.22657277 -0.29664907 -0.23102918 -1.0895381
0002b0 ea 59 9e be 70 4a 88 be b7 22 26 bf 81 75 e9 bc
       -0.30927974 -0.2661929 -0.6489672 -0.028498413
0002c0 aa eb 4a 3d 1f 90 8d bd c9 7b 06 3e 51 62 14 be
       0.049541153 -0.069122545 0.13133158 -0.1449063
0002d0 12 8c 40 3e 4e 20 19 be 61 8d d7 3d 53 21 f2 be
       0.18803433 -0.1495373 0.10525013 -0.4729105
0002e0 70 fb 42 3d b6 55 89 3e 9e 9f 3b 3e de 39 53 bd
       0.04760307 0.26823205 0.18322608 -0.05156886
0002f0 f2 15 e9 be 80 88 1e bf f2 c0 24 be 6f 2f d3 be
       -0.45524555 -0.6192703 -0.16089228 -0.41247126
000300 54 5f ac 3e cb 7f e0 bd 9a 09 21 bf a5 cb da be
       0.3366648 -0.109618746 -0.62905276 -0.42733493
000310 44 9b c3 be 3a e6 e2 3d 0b 0a e0 be fe 8d 85 be
       -0.38204396 0.110790685 -0.43757662 -0.26084894
000320 f2 f0 02 bd d9 90 3e 3e c6 6c f2 3d 24 ea d8 be
       -0.031968065 0.18609942 0.11837153 -0.42366135
000330 61 93 e0 3d bf bb cc 3e 49 8a 6a be 7d ae 9f bd
       0.1096561 0.3998699 -0.22904314 -0.07796953
000340 d4 c8 56 bf 5a 49 a7 3e d3 59 2f bf e4 ea 24 bf
       -0.8390019 0.3267315 -0.68496436 -0.64420915
000350 36 e0 59 bf 96 99 89 be cc ed ad 3e c8 87 92 be
       -0.85107744 -0.2687499 0.33970487 -0.28619218
000360 8e ef a1 be 39 40 23 bf 60 81 c1 bd 30 70 9b bf
       -0.31628078 -0.6376987 -0.094485044 -1.2143612
000370 58 91 bb be f0 01 18 bf 09 ee e0 be de b8 15 bc
       -0.36634326 -0.59377956 -0.43931606 -0.009138314
000380 35 70 d2 bd f9 ec ae be 3f 11 38 bf d6 15 5e be
       -0.10275308 -0.3416517 -0.71901315 -0.21688017
000390 e6 a9 85 be ec 19 a2 3b bd b3 d9 be d8 cf a0 bb
       -0.26106185 0.004946938 -0.42519942 -0.0049075894
0003a0 dd 09 8f 3c ac ef b3 3e 23 ce 3f bd 50 46 60 bd
       0.017460758 0.35143793 -0.046827447 -0.054754555
0003b0 bc 76 03 3e 7f f4 80 bd 9f 43 c2 3e 46 e6 11 bf
       0.12838262 -0.06296634 0.37942216 -0.56991994
0003c0 c5 d8 03 3f ba c1 f1 3d cb a5 bc 3e d0 16 bb 3d
       0.5150264 0.118045285 0.3684524 0.091352105
0003d0 bb dd 6d 3e 97 9b b1 be bb 4c 81 3e 4c a3 8f 3e
       0.23229115 -0.34689018 0.25253853 0.28054273
0003e0 0b 66 93 be 9d a9 f3 be 02 26 90 be a8 95 df 3d
       -0.2878879 -0.47590342 -0.28153998 0.109172165
0003f0 9a 95 b9 be 1b db ef be 24 cb 0c bf af ff 3d 3e
       -0.3624695 -0.46846852 -0.5499747 0.18554567

fc3.bias f4 [128]
000000 83 aa 80 3d 14 d2 82 3e 20 7b af 3e 81 cb a7 be
       0.062825225 0.25550902 0.34273624 -0.3277245
000010 31 28 12 3e 87 df 6d be 3f ef f9 bd 6d 16 7c 3f
       0.14273144 -0.232298 -0.12203836 0.9847172
000020 40 2d c4 bd 26 b1 73 be aa 32 87 3e c1 d1 d9 bd
       -0.09578943 -0.23798046 0.2640584 -0.106357105
000030 28 f1 24 be 09 37 4c be 5a 3b 93 3d 1b 5a b3 3d
       -0.16107619 -0.19942869 0.07189055 0.08757421
000040 b2 d6 a5 3c 8d 12 ac be 95 d5 51 bd 5a 17 fc bd
       0.020243976 -0.33607903 -0.05122908 -0.123091415
000050 ab aa 4a be 1c f7 bf be 6e df 69 3e 8e d1 ac be
       -0.19791667 -0.37493217 0.22839138 -0.33753628
000060 24 2e 1a be 56 95 52 be 81 22 13 be bc 81 1a 3d
       -0.15056664 -0.2056478 -0.14368631 0.03772138
000070 d8 f0 12 be bd 76 7e bd ce d4 1f 3e 7b 0c 57 3d
       -0.14349687 -0.062124956 0.15608522 0.052502137
000080 2d ab 57 be f4 9a 23 bd f7 03 c7 be b9 bd f0 be
       -0.21061392 -0.039942697 -0.38870212 -0.47019747
000090 08 97 4c 3e d9 ef c9 3d 03 7e 4e be ea 9e 2b 3d
       0.19979489 0.098602004 -0.20165257 0.0418996
0000a0 26 70 c2 be 13 96 b2 bd dc db 11 3f ad b4 e2 3e
       -0.37976187 -0.08720031 0.56976104 0.4427847
0000b0 e8 af 2c bd 27 3c c7 3d 16 bf 3f be 16 e3 a8 be
       -0.042159945 0.0972827 -0.18725237 -0.32985753
0000c0 cc 6f 82 3c 38 1e 79 3e 2b 04 92 bd 2a b1 70 be
       0.01592245 0.24327934 -0.07129701 -0.23505083
0000d0 b3 3b 06 3c 5a ab fe 3d e7 ac 66 bd 25 6e 60 be
       0.008192944 0.124350265 -0.056317236 -0.21917017
0000e0 42 d0 30 be 94 79 bf 3f 04 b4 3b be 7b fe 9b be
       -0.17266944 1.4958978 -0.1833039 -0.3046759
0000f0 22 09 ee 3d d2 49 3e be 9c 0b a6 bf 06 3a 7f 3e
       0.11622836 -0.18582848 -1.2972293 0.24924478
000100 46 2c a9 3e b0 bd 8a be fe e4 19 be 32 0b ac 3e
       0.3304159 -0.27097845 -0.1502876 0.3360229
000110 11 c9 10 be b8 a5 3c be d7 58 d5 bd bb d7 2c be
       -0.14139201 -0.18422592 -0.104173355 -0.1687917
000120 71 85 0c be 7b 13 23 3e f4 6e ac 3e a9 27 44 3d
       -0.13722779 0.159254 0.336784 0.047889385
000130 55 d4 36 3f 03 97 07 3f bb d5 ae 3d 08 7f c5 be
       0.7141774 0.529648 0.085368596 -0.3857348
000140 93 cc 1a 3f 14 51 0e 3f 14 38 3d be 21 6f 1d be
       0.60468405 0.55592465 -0.18478423 -0.15374424
000150 b0 7a a5 3d cf 74 06 be ed 2f e2 3b 6f c8 26 bb
       0.080800414 -0.13130496 0.006902686 -0.0025449058
000160 d9 8a a9 3c 8e cd 31 3f 8d 40 13 be 84 3e 63 3d
       0.02069609 0.69454277 -0.14380093 0.05547954
000170 15 b5 bd bd f0 94 08 bf 74 0c 50 be 31 a4 d6 bd
       -0.09263054 -0.5335226 -0.2031725 -0.10480536
000180 20 93 95 be 5a e4 28 be b8 83 34 bf 8a 41 c1 bd
       -0.2921381 -0.16493359 -0.70513487 -0.09436329
000190 74 06 a5 be 6a c2 49 3d 1a c2 12 bf 60 72 6c be
       -0.32231486 0.049257673 -0.57327425 -0.23090506
0001a0 04 91 57 bd 6b e7 8e 3a 67 75 4d be f4 9d 64 be
       -0.052628532 0.0010902708 -0.20064317 -0.2232588
0001b0 7c 8d fc bd 7e ff 42 be 01 ac 2f be e6 89 c7 bd
       -0.123316735 -0.19042775 -0.17155458 -0.09743099
0001c0 81 c5 47 be b8 f6 14 be d9 64 17 3d cd b3 fb 3c
       -0.19508936 -0.1454724 0.03696141 0.030725384
0001d0 1d dc 36 3e 15 b5 3d be 32 32 dc 3d fd f4 27 3f
       0.17857404 -0.18526109 0.107517615 0.656082
0001e0 ea c9 97 be 71 62 25 bb c8 3d f9 bd 57 7d 9a bd
       -0.29646236 -0.0025235678 -0.12169987 -0.07543438
0001f0 70 58 00 be b2 cd f2 3c 8c 18 41 3d d9 50 de bd
       -0.12533736 0.029639099 0.04714255 -0.10855264

fc4.weight f4 [32, 128]
000000 e5 a5 c8 bd b3 5a 4c 3c a8 77 d7 bd 81 eb c2 be
       -0.09797267 0.012472796 -0.105208695 -0.380703
000010 07 24 20 be 98 af ee bd 93 92 2a be a8 9b a8 bd
       -0.15638743 -0.116545856 -0.16657476 -0.08232814
000020 d0 4e 7b 3d bf 98 23 bf 93 09 9b be 54 c0 19 bd
       0.06135446 -0.6390495 -0.30280742 -0.037536934
000030 38 8f a6 3c 84 cc 81 be 4f a9 7d 3c e8 b5 b7 bc
       0.020331964 -0.25351346 0.015482261 -0.022425607
000040 64 2e 84 be 86 07 3b bd 32 26 48 bd 11 de af bd
       -0.25816643 -0.04566147 -0.04886455 -0.08587278
000050 f0 35 a2 be b5 48 2f be a2 ee e1 bd 18 3a 6a be
       -0.31681776 -0.1711758 -0.11031844 -0.22873724
000060 01 79 d6 be c3 c4 59 bd 79 cf 0b 3d 4d 43 60 be
       -0.41889194 -0.053166162 0.03413341 -0.21900673
000070 64 64 c2 be 19 d2 06 be 82 5e 9f bc c8 16 34 bf
       -0.37967217 -0.13166083 -0.019454245 -0.7034726
000080 93 bf 0d 3a ca 5a b2 be 82 e3 b2 3d 91 29 7c be
       0.000540727 -0.34834892 0.087348 -0.24625231
000090 23 5b ce 3d 86 22 1b 3d 9d 77 99 3d cc 92 98 be
       0.10075977 0.03787472 0.074935175 -0.29799497
0000a0 10 9f 88 be b8 fb 76 be 97 05 de bd 09 04 c4 be
       -0.26683855 -0.2411946 -0.1084091 -0.3828433
0000b0 50 24 14 be 95 f9 9b bd 29 57 30 be 1b aa 94 be
       -0.14466977 -0.07615963 -0.17220749 -0.2903603
0000c0 76 3d 24 bc f0 b0 9c be f8 88 75 be b3 7f 97 bd
       -0.010024419 -0.30603743 -0.2397803 -0.073974036
0000d0 37 cf af be f4 c4 cc bc 6b 21 cf bd b5 7b ed bd
       -0.3433778 -0.024996258 -0.10113796 -0.11595861
0000e0 aa 23 a7 bb b9 11 d7 3d bd ec df be 22 d4 af be
       -0.005100687 0.10501427 -0.43735304 -0.34341532
0000f0 b4 61 8f bd 76 bc 79 3d 6a 9a bd be 97 fe 9e bd
       -0.07001057 0.060970746 -0.3703187 -0.07763403
000100 ce f7 10 bf b2 1e de 3c 68 26 93 3d 6d de 10 be
       -0.5662812 0.027114246 0.0718506 -0.14147349
000110 c6 15 4a be 14 8c 04 be fd d9 22 3d 9c b6 b0 be
       -0.19734868 -0.1294406 0.03975867 -0.3451432
000120 4a 9f 38 be 85 75 da bd 40 2d e8 bd 52 3a f7 bd
       -0.18029514 -0.10666946 -0.11336756 -0.120716706
000130 37 26 21 be 04 7d 96 be 60 da 11 be 76 26 e9 3c
       -0.15737234 -0.29392254 -0.1424346 0.028460722
000140 73 89 84 be 0e 9b 0a be 59 67 f3 3d 1c d8 29 be
       -0.25886115 -0.13535711 0.118849464 -0.16586345
000150 59 84 83 be 47 8a 4a be b9 71 49 be 1e 82 cb bd
       -0.2568691 -0.19779311 -0.19672288 -0.09936927
000160 77 21 b7 be fb fb 53 be 25 e7 34 bd 8a 80 b7 bd
       -0.3576772 -0.20701592 -0.04416575 -0.08960064
000170 f3 56 4e be a7 e1 dc bd 5e c0 79 3c e1 54 91 bd
       -0.20150356 -0.10785227 0.015243618 -0.070962675
000180 0c 63 bd be 85 29 59 be 91 d8 15 bf 97 b0 3d be
       -0.3698963 -0.21207245 -0.5853358 -0.18524395
000190 08 38 e8 bd d4 a5 3b be b2 d8 e3 bd 3e f4 21 3e
       -0.11338812 -0.18324977 -0.11125316 0.15815827
0001a0 5c 93 4f be bd 99 58 3e 78 90 85 bd 69 42 80 bd
       -0.20271057 0.21152397 -0.06521696 -0.06262667
0001b0 aa f4 c9 be 8c a7 3c be ae 12 78 be 1a fb 1c be
       -0.39444476 -0.18423289 -0.24225876 -0.15330163
0001c0 ad af 8f bd 6f c5 59 3c a5 f1 04 be 39 68 42 be
       -0.07015929 0.013291701 -0.12982805 -0.1898507
0001d0 02 6d 7a bc de bf d2 3d 98 8f 9e be ca ce 19 bd
       -0.015284779 0.10290502 -0.30968928 -0.037550725
0001e0 db 82 05 bd 1e 71 05 be 52 22 35 be 5d dd ed 3d
       -0.032595497 -0.13031432 -0.17688873 0.11614487
0001f0 be d5 3a 3e 2c 01 db ba b5 cb ec 3c c5 bf 24 be
       0.18245599 -0.0016708723 0.028905729 -0.1608878
000200 cf 20 4a be f6 4f c8 be 30 3f fb bd 27 f1 a4 bd
       -0.19739078 -0.39123505 -0.122679114 -0.08053809
000210 4a d9 e0 be f3 8e a8 bd d6 d4 e4 bd a8 a7 d7 3d
       -0.43915778 -0.082303904 -0.11173408 0.10530025
000220 41 53 30 bb a7 db 5d be e6 cc ac be 38 e5 c2 bb
       -0.0026905092 -0.21665822 -0.33750075 -0.005947735
000230 b2 37 ce 3d 5c 82 d9 be 9a 4b 41 3d 7e cf 52 be
       0.10069217 -0.4248227 0.04719124 -0.20586964
000240 be 37 23 be 32 f9 4d be b0 d1 c2 bd 0e f7 f9 3c
       -0.15939233 -0.20114592 -0.09512651 0.030513313
000250 c5 cc c7 be b8 6a a8 bc 51 1e 95 be 4d 87 b5 bd
       -0.39023414 -0.0205587 -0.29124692 -0.08863697
000260 dd af 63 be ae a3 11 be f1 40 60 bd 0f 6d ad be
       -0.22235055 -0.14222595 -0.054749433 -0.33872268
000270 e2 06 15 be a6 48 ef bd c4 29 97 bd f2 38 0c be
       -0.14553407 -0.116837785 -0.07381013 -0.13693598
000280 c4 7f 33 be 3a d2 2e bd 59 04 0b be 77 16 c0 bd
       -0.17529207 -0.042680956 -0.13575877 -0.09379285
000290 36 96 ac be 59 d2 2f be 8f 4a 1a be fb 79 96 be
       -0.33708352 -0.17170085 -0.15067504 -0.2938994
0002a0 6c 03 20 be 67 10 9d be db 26 75 be 27 8a 79 3d
       -0.15626305 -0.30676576 -0.23940603 0.060922768
0002b0 22 7c 31 bd df 19 75 be e0 18 92 3c 3b 8e 9f be
       -0.043331273 -0.2393565 0.017834127 -0.311632
0002c0 c2 46 8b be 02 c7 1e be 34 0e 35 3d 87 80 91 bd
       -0.2720242 -0.15505603 0.044203 -0.07104593
0002d0 13 89 e1 3d 0c 85 29 be fd 5c 22 be 94 49 da 3d
       0.11012473 -0.1655466 -0.15855785 0.10658565
0002e0 1e d2 06 be ce 89 a8 be 9f 9a d3 be 72 8e 81 be
       -0.13166091 -0.32917637 -0.41328904 -0.2530399
0002f0 b2 1f 8b be 52 13 1e bd 27 e7 bd be 6e 84 11 be
       -0.2717262 -0.038592644 -0.37090418 -0.14210674
000300 4d 50 78 3d 4f c0 dd 3b ab 2d 97 3d 97 f7 2e be
       0.060623456 0.0067673097 0.07381757 -0.17086636
000310 74 ab bc 3d 48 eb 5d bd 73 6c 15 3e be ee d2 bd
       0.092123896 -0.05417946 0.14592151 -0.10299443
000320 c6 33 07 3e df ac 87 be 5c 75 0d be 36 6f c8 be
       0.13203344 -0.26499078 -0.138143 -0.39147347
000330 24 0e 66 be 39 95 a3 be 37 58 53 be 01 e5 60 be
       -0.22466332 -0.31949785 -0.2063912 -0.21962358
000340 98 bd 0d be c8 bc cc bd 35 6f c8 bd ad 46 35 bd
       -0.13841856 -0.09996945 -0.09786836 -0.044256855
000350 27 81 f0 bd ed 35 22 3e 04 e4 59 be fa 63 a8 3d
       -0.11743384 0.15840884 -0.21278387 0.08222194
000360 73 44 2a 3d 3f 1c dd be 9d eb 77 3d f8 d3 9b be
       0.041569185 -0.43185613 0.060527433 -0.30435157
000370 be 37 23 bd 5b de 74 be a8 1e 2f bd b9 e3 94 3d
       -0.03984808 -0.23912947 -0.042753845 0.07269997
000380 0b 05 51 bd 73 e9 95 be 24 45 d4 be 5b 43 32 be
       -0.0510302 -0.2927967 -0.41459 -0.17408507
000390 f6 11 ef bd d7 aa 1e bf e7 83 dc bd e5 c1 35 be
       -0.11673348 -0.6197943 -0.10767346 -0.17749746
0003a0 a7 4b 92 be db 54 cf bd e5 89 db bd db 09 2a be
       -0.28573343 -0.10123607 -0.10719661 -0.16605322
0003b0 4e 9f 78 bd b8 83 08 be dc 59 c7 bd ff fc dc bd
       -0.0606988 -0.13331497 -0.09733936 -0.10790443
0003c0 ef fc c0 bd a0 d7 25 be 8c 42 ff bd 59 dc 6e bc
       -0.09423243 -0.16195536 -0.12463865 -0.014578902
0003d0 1b 7f 46 3d 1b f1 cf bc 74 73 e2 be e6 62 ac be
       0.04846106 -0.025383523 -0.4422871 -0.33669204
0003e0 ef 7f a7 bd 88 3c b9 3d 87 ba 40 be cd a4 50 3e
       -0.08178698 0.090447485 -0.18821155 0.20375367
0003f0 3c bc 50 3d 7e 6e 3f 3d 22 bf 82 3d fe 02 5c bd
       0.050960764 0.046736233 0.06384112 -0.05371379

fc4.bias f4 [32]
000000 28 89 20 3d 69 db ae bd 18 8b f6 be e2 02 f7 be
       0.039193302 -0.08537943 -0.48152995 -0.48244387
000010 1e 3a 47 bf f2 53 94 be 06 2c a3 be 0f 0f f0 be
       -0.77823055 -0.28970295 -0.31869525 -0.4688649
000020 05 0b be be d0 eb 12 bf 40 97 08 bf 9a 37 48 3f
       -0.37117782 -0.5739107 -0.5335579 0.7820984
000030 19 74 21 bf 1f 87 ea be 52 73 a6 3e d3 bf 97 be
       -0.63067776 -0.45806214 0.32509857 -0.29638538
000040 ec 73 f8 be 86 98 9e 3f ed e6 92 be ab a4 90 3f
       -0.4852594 1.2390296 -0.28691807 1.1300253
000050 b4 18 0a bf b3 08 2b bf e3 f9 d4 be 7b 5b f0 be
       -0.53943944 -0.6681015 -0.41596898 -0.46944794
000060 eb 1e 19 bd a0 ce 1e bf de 79 97 be d4 61 0d bf
       -0.037383 -0.62034035 -0.29585165 -0.552274
000070 13 39 0e bf 1d 23 2b bf 44 75 e3 be 5e 8b ec be
       -0.5555584 -0.66850454 -0.44425404 -0.4620008

Q.weight f4 [1, 32]
000000 55 2f 0f 3d d6 86 81 3c ec 05 15 bc 36 2c 80 3d
       0.03495725 0.015811365 -0.00909565 0.062584326
000010 53 55 6f bc 20 26 ce bc ea 8f 31 3b 55 18 8f bb
       -0.014607745 -0.025164664 0.0027093836 -0.0043669143
000020 c7 7d ba bb 18 e0 92 3c 1f 47 97 bc e3 2d f6 3c
       -0.0056912634 0.017929122 -0.01846653 0.030051177
000030 10 e3 e9 3c 24 9d 12 bc 3f 24 7f 3c 42 ea 82 bc
       0.028550655 -0.008948598 0.015572607 -0.015980843
000040 ee 9c 56 3b 71 a5 15 bd e9 68 96 3c 0b b6 f0 3c
       0.0032747346 -0.03653473 0.018360572 0.02938368
000050 13 d3 80 3c 46 77 16 3c a8 24 f4 bc 38 53 09 bc
       0.015725648 0.00918371 -0.029802635 -0.008381657
000060 5f 3d c2 3c 64 6c b0 bc 46 b3 15 bd c9 77 a6 bc
       0.023710905 -0.02153606 -0.03654792 -0.02032079
000070 04 49 77 3c 3c 11 86 bb b2 25 f1 3c d2 2e 15 bc
       0.015093092 -0.00409141 0.02943692 -0.009105401
