checkpoints/maddpg_per/maddpg_per0_checkpoint_actor_local.pth (torch, 166151 bytes, 10 tensors)

fc1.weight f4 [256, 24]
000000 69 01 8c 3e 4c c5 01 be dd 16 4b 3e e3 e9 82 bd
       0.27344826 -0.12672919 0.1983294 -0.063922666
000010 a2 40 95 3e f7 bf cf be bd d5 ad 3d 38 13 3b 3d
       0.29150873 -0.40576145 0.08488033 0.045672625
000020 0a 01 15 3e 86 9e 7c 3d a5 19 44 be 4c 2a 79 be
       0.14551178 0.061674617 -0.19150408 -0.24332541
000030 4d 27 5c 3e 6f 75 01 bf 0e 5b 9e bd de 1b d5 bd
       0.21499367 -0.50569814 -0.07732211 -0.10405706
000040 0c b9 82 3e 84 62 0d 3e f2 c7 c1 bd 06 04 ca 3e
       0.25531805 0.13807112 -0.09461965 0.39456195
000050 d6 30 fc 3c 1b 92 0f bf de 3a b1 bd ff 94 cf 3e
       0.030785006 -0.56082314 -0.08653806 0.40543362
000060 37 e2 7e be c6 8e e7 3e 88 cd 08 3e 33 59 84 3e
       -0.24890982 0.45226115 0.13359654 0.25849304
000070 5a 59 f7 bd 6e 06 e7 be 49 ee 60 3e 30 82 20 3e
       -0.12077589 -0.45122093 0.21965899 0.15674663
000080 a0 d1 a1 3d 6e be d3 3e 58 b4 25 3d 5b 51 5f 3d
       0.07901311 0.41356224 0.040455192 0.054520946
000090 16 d5 d8 bd 66 fb ff be 10 13 7f 3e d8 40 c8 b8
       -0.10587518 -0.4999649 0.24909616 -9.548821e-05
0000a0 33 25 61 3e 3a 8a d4 3e 83 34 2f 3e 0d 1e 32 be
       0.21986847 0.41511708 0.17109875 -0.17394276
0000b0 e7 f7 c3 3b b6 e6 f2 be 77 71 d7 3e 51 e4 f7 3c
       0.00598048 -0.47441643 0.42078754 0.030260237
0000c0 6e db 70 3e 31 a4 49 bf fe 49 1a be 02 3e 5f be
       0.23521206 -0.7876616 -0.15067288 -0.21800998
0000d0 5b 70 56 3e fc b9 8a 3d 99 04 8d bd 71 a5 b6 be
       0.20941298 0.06773755 -0.068856426 -0.35673097
0000e0 01 47 44 3e cf 5c 13 bf 94 56 1f be 50 a4 02 bf
       0.19167711 -0.5756349 -0.1556037 -0.5103197
0000f0 5e aa 91 3d 77 17 6b bd 1e e7 30 be 92 28 be be
       0.07112573 -0.057395425 -0.17275664 -0.37140328
000100 0f c9 32 3e 49 1c 11 bf 31 ff 40 3e 1c 1d cb 3e
       0.1745951 -0.56683785 0.18847348 0.39670646
000110 0f ae 2b bd 7f af 98 3c 5c 84 23 3e 26 c9 68 3e
       -0.041914042 0.01863837 0.1596846 0.22732982
000120 1c 3b b7 bb 04 a7 a4 be 7a 95 07 be 84 2a 30 be
       -0.005591763 -0.32158673 -0.13240615 -0.17203718
000130 e7 3f 83 bf 0f 8f 78 3d b8 4d 4c be c7 e6 03 be
       -1.0253876 0.060683306 -0.19951522 -0.12881003
000140 78 a7 61 3e 61 9f 92 bc 54 16 ec 3d 61 ae e3 3c
       0.2203654 -0.017898263 0.11527696 0.027793111
000150 0b 9e 0a bf f3 d0 ac 3b 92 0e 8d bc b2 e7 9c bd
       -0.54147404 0.005273932 -0.017218862 -0.0766138
000160 70 b2 12 3e 11 43 da bd 5f c4 cb bd ef 83 c7 3e
       0.14325881 -0.10657323 -0.09949564 0.38967845
000170 77 6b 6b be 1e df fd 3d e8 ea d2 3c fa 9c d3 3e
       -0.22990213 0.12396072 0.025746778 0.413307
000180 c1 bf 41 3f 97 aa fc 3e eb e8 21 3d c1 bc 5a be
       0.7568322 0.493489 0.03952877 -0.21361066
000190 36 b8 b0 3e 98 01 ba be 4c a9 1f 3e 12 a8 a6 bd
       0.34515542 -0.3632934 0.15591925 -0.081375256
0001a0 84 ac 10 3f d7 0b 3a 3e 02 3f b7 bb 84 65 d0 be
       0.5651324 0.18168579 -0.005592228 -0.4070245
0001b0 e0 6f 98 3e c4 ce b5 be 58 39 21 3d 36 55 86 be
       0.29772854 -0.35509312 0.039361328 -0.26236886
0001c0 55 42 69 3e ea 98 29 bd a4 50 36 be 3d f7 92 be
       0.2277921 -0.041405596 -0.178042 -0.28704253
0001d0 c5 b5 a5 3e c0 f0 6f 3d 21 5f c4 bd 29 8c 3e be
       0.32365242 0.058579206 -0.09588457 -0.18608154
0001e0 24 96 d0 3e 83 b4 c3 be df d2 92 bd 78 e2 77 3e
       0.40739548 -0.38223657 -0.07169127 0.24207485
0001f0 d4 dd 87 3d 4e 9e 1b be 6d b9 17 3c 63 56 8e 3e
       0.06634107 -0.15197107 0.009260518 0.27800283
000200 88 af 1e 3f 12 13 9f be df 93 fa 3c 38 ae 44 be
       0.6198659 -0.31069237 0.030588089 -0.19207084
000210 49 fb 40 3e ac 21 ba 3d 5d 63 91 bd f8 2c f4 bd
       0.18845858 0.09088454 -0.0709903 -0.119226396
000220 04 6a c8 3e f1 f6 02 be 18 34 a7 bd 71 70 bf bd
       0.39143384 -0.12789513 -0.08164233 -0.09347618
000230 3e b7 59 be 28 69 21 3e e4 0b b2 3c f6 77 be bd
       -0.21261308 0.1576277 0.021734186 -0.093002245
000240 b8 f7 48 3e 77 43 31 be 67 59 93 bd 2a 0b e2 3e
       0.19625747 -0.17310892 -0.071947865 0.44149143
000250 05 f4 61 3e 29 ec 8d bd fd 8e a3 3c 9c f5 28 3f
       0.22065742 -0.069298096 0.019965643 0.6599977
000260 80 92 dd 3e 0a f2 32 3e 97 91 54 3d 79 94 aa 3e
       0.43275833 0.17475143 0.051896658 0.333164
000270 77 c2 78 bd 27 77 82 3d d8 43 0b be 36 11 9c 3e
       -0.06073233 0.06370383 -0.13600099 0.3048188
000280 c3 7c c6 3e 48 9b 83 3e 71 64 34 3e 8e d3 a3 3e
       0.3876706 0.25704408 0.1761644 0.3199734
000290 ec 93 b5 bd 88 1f df 3e 17 fc 46 3e 20 32 78 3e
       -0.088661045 0.43578744 0.19432102 0.24237871
0002a0 66 86 71 3e d5 2a 1c bf 1d 65 cd bc 94 9e 39 3e
       0.23586425 -0.61002856 -0.025072629 0.18126899
0002b0 b5 84 d2 3e 9b 19 a0 3d ea e8 f7 bd aa 5f 82 3e
       0.41116872 0.07817384 -0.12104972 0.2546361
0002c0 db a2 53 3e 7a 27 cc be 29 38 44 bd 46 54 da 3e
       0.20667593 -0.39873868 -0.04790512 0.4264242
0002d0 97 c2 e0 3e 75 3a d8 3d cb 27 be bc 8c 86 fe 3e
       0.4389846 0.10558025 -0.023212334 0.49712026
0002e0 02 29 34 3e 95 ac c9 be 67 72 04 3d 04 f8 20 3f
       0.17593768 -0.39389482 0.032335665 0.6287844
0002f0 46 8b de 3e 22 ab c9 3c c5 a0 32 bb ef 41 18 3f
       0.43465632 0.024617735 -0.002725647 0.59475607
000300 a1 6d 79 3e 9e 2b 00 3f c3 d6 23 be bd 77 7f 3e
       0.24358226 0.50066555 -0.15999894 0.2494802
000310 56 b7 50 be 31 9a 00 bf 21 5b a3 bc f9 33 97 3b
       -0.20382437 -0.5023528 -0.019940915 0.00461435
000320 7f a6 0e 3e a9 6f f3 3e cd 83 cb bd bd eb ec bd
       0.139307 0.47546127 -0.099372484 -0.11568401
000330 62 90 d1 3d 7a c7 61 be b9 7a b6 bd 98 e8 f0 bd
       0.10232617 -0.2204875 -0.08910126 -0.11763114
000340 0f ce 3c 3e 6c 1e e9 3e 5a 41 87 be c1 60 19 3e
       0.1843798 0.45531023 -0.26417047 0.14978315
000350 18 9c 38 3e a0 29 ac be 73 7e 5a be a7 4d 88 3d
       0.18028295 -0.33625507 -0.21337299 0.06655436
000360 ac 9c de bd ae f9 11 bf 1d 2e 23 3e 80 16 e0 3e
       -0.108697265 -0.57021606 0.1593556 0.43767166
000370 8b 0d 23 3d 90 d2 9b be d0 b9 aa 3d 98 05 4e 3e
       0.039807837 -0.30434084 0.08336222 0.20119321
000380 ff 34 19 3e 44 5a 4d be 18 6e 8a 3b d7 b9 26 3f
       0.14961623 -0.20053965 0.00422455 0.6512732
000390 b6 e1 1f 3b bb 1c 15 be c5 4a 89 be e6 95 40 3f
       0.0024396009 -0.14561741 -0.26814857 0.75228727
0003a0 05 b4 97 bd 63 ef 8d be a7 f8 0c 3d fc ce 44 3f
       -0.07407383 -0.277217 0.03441682 0.76878333
0003b0 b8 67 8d be a6 33 02 3a c0 d2 94 3d e8 49 30 3f
       -0.27618194 0.00049668027 0.0726676 0.6886277
0003c0 21 0e 2c 3f 61 e0 3e 3e a0 85 06 3e 22 32 d2 bd
       0.6720906 0.18640281 0.13136911 -0.10263468
0003d0 a7 23 ce 3d e4 18 a4 be d1 48 28 3d 3f 50 91 bb
       0.10065394 -0.3205024 0.041085068 -0.004434615
0003e0 56 5c 00 3f 77 14 11 3e 90 56 e8 bd ca fe 83 bd
       0.50140893 0.14167963 -0.113446355 -0.064450815
0003f0 b6 e6 07 3e b3 95 8f be 32 38 9d 3c 59 6b 73 bb
       0.13271603 -0.280439 0.019191835 -0.0037142842

fc1.bias f4 [256]
000000 8f 4d e3 be e1 f3 32 3e 06 10 96 be 16 2d a3 be
       -0.4439511 0.17475845 -0.293091 -0.31870335
000010 fe d4 a8 be 68 31 f0 be 32 46 09 bf a0 3c f2 be
       -0.32975 -0.46912694 -0.53622735 -0.47311878
000020 7e 45 f8 be 46 e8 a8 be f4 e8 c2 be af 69 ea be
       -0.48490518 -0.3298971 -0.38068354 -0.45783755
000030 f9 25 8b be 81 ba f3 be f5 a0 9a be f2 d2 0f bf
       -0.27177408 -0.4760323 -0.30200925 -0.5618125
000040 ca 4a 01 bf 6f 99 86 be 2f 1e 2f bf 37 94 22 bf
       -0.50504744 -0.26288936 -0.6840543 -0.6350741
000050 37 a2 44 bf 74 4b e0 be 3b b0 d3 be 69 b7 02 bf
       -0.7681002 -0.43807566 -0.4134539 -0.5106111
000060 92 a2 76 be ef 99 2d bf 4e 06 c2 be cc b7 92 be
       -0.24085453 -0.6781301 -0.37895435 -0.2865585
000070 3d e0 08 bf 6b f9 92 bd c4 85 66 be 67 85 e4 be
       -0.5346716 -0.07176479 -0.22511965 -0.44633028
000080 44 2a 86 3d da 55 cc 3d c3 83 85 be da 35 01 be
       0.0655103 0.099773124 -0.2607709 -0.12618199
000090 09 24 84 be b3 a4 f2 be 63 7b 5a bf 65 f5 57 bf
       -0.25808743 -0.4739128 -0.85344523 -0.8435882
0000a0 3e 24 7a be b0 f0 19 bf 0c 5e 35 bd c8 2d 9e bd
       -0.24427888 -0.60132885 -0.044279143 -0.07723576
0000b0 26 1e f1 bd 82 7b 20 be 53 7f 9a be 30 99 01 bf
       -0.117733285 -0.15672114 -0.30175266 -0.5062437
0000c0 3e 2f 5a be b2 54 0f bf 2c 88 1e 3e 0c 7b 10 bf
       -0.21307084 -0.5598861 0.15481633 -0.56437755
0000d0 4b d9 b3 be c0 b4 42 be f1 a2 bc be 9b 9d c2 be
       -0.3512672 -0.19014263 -0.36843064 -0.38010868
0000e0 0e cc 13 bf 08 c3 e7 bd a0 18 0a bf 93 c4 57 bf
       -0.5773324 -0.11316496 -0.53943825 -0.84284323
0000f0 42 5b db be 22 bf 8c bd d1 18 79 be 5f 7f f8 be
       -0.42843062 -0.06872393 -0.24325873 -0.48534676
000100 fa 7c 9a be a7 e5 28 be 1c 2e 67 be c7 cb d8 be
       -0.30173475 -0.16493855 -0.22576183 -0.4234297
000110 dd 92 d3 be e4 b4 fc be b4 37 e8 be 77 f7 32 be
       -0.41322985 -0.4935676 -0.45354998 -0.17477213
000120 0d 54 09 be a7 fd c3 be 85 c4 a2 be 2c a1 19 bf
       -0.13410969 -0.3827946 -0.31790558 -0.60011554
000130 6e 02 f7 bd 8b b0 09 be af b2 8d bc f2 54 21 be
       -0.1206101 -0.13446252 -0.017297117 -0.1575506
000140 e9 32 04 be 90 89 e1 be 1b 55 5c bf b2 7d 6a be
       -0.12910046 -0.44050264 -0.8606736 -0.22899511
000150 81 98 2e bf 51 32 3b bf 8d e1 98 be 2f 20 01 be
       -0.6820145 -0.7312365 -0.29859582 -0.12609933
000160 c8 b0 d0 be b3 30 73 be 00 9f 3d bf 74 92 a4 be
       -0.40759873 -0.23749046 -0.7407074 -0.32142985
000170 dd 11 a6 be 99 a0 12 bf 77 e8 c9 bd 6f 53 08 bf
       -0.32435504 -0.572763 -0.09858792 -0.5325231
000180 66 4a be be af 1a e5 be eb ab d8 be 0f c0 0d bf
       -0.37166137 -0.4474692 -0.42318663 -0.55371183
000190 e2 82 32 bf d2 9e 98 be af 02 02 be ea 98 0d bf
       -0.6973096 -0.2980867 -0.12696336 -0.55311453
0001a0 5e fc 82 be 4d 1d 48 be 4a 24 87 be 62 56 e0 be
       -0.25583166 -0.19542427 -0.26394874 -0.43815905
0001b0 34 44 cd be 43 85 9a be fe 89 9e be 66 af c0 be
       -0.40091097 -0.30179796 -0.30964655 -0.37633818
0001c0 46 8d c2 be 05 10 cd be 4e 64 09 bf cc 3e 93 be
       -0.37998408 -0.40051284 -0.5366868 -0.28758848
0001d0 3e 82 0f be 98 fc 06 bf b1 2f 16 bf 23 50 f9 be
       -0.14014527 -0.5272918 -0.5866652 -0.48693952
0001e0 99 de 6d be 45 4a fa be 66 03 5d bf 35 b3 82 bd
       -0.23229446 -0.48884788 -0.8633331 -0.06381837
0001f0 3d 93 9c be 4c 14 17 3e 87 d4 c2 3d b7 e8 bb be
       -0.30581084 0.14753836 0.095131926 -0.36700985
000200 1a 17 80 be 6c ef 7b be 62 1f 0f bf 09 fa b0 be
       -0.25017625 -0.24603051 -0.5590726 -0.34565762
000210 fb 85 1a be 21 fc e6 be 1f c2 4f bf 98 2a 37 bf
       -0.15090172 -0.45114234 -0.8115558 -0.7154937
000220 6e bc 09 bd 58 53 c4 be 70 d4 e6 bb c7 ae 43 bd
       -0.033626966 -0.38344836 -0.0070443675 -0.047774103
000230 3c 77 f6 be db da 9f be 56 a1 7c bd 6b d0 9d be
       -0.48137844 -0.3122166 -0.0616773 -0.30823073
000240 29 8e 31 bf 63 c6 a7 be ee 6e e6 be c2 77 29 bf
       -0.69357544 -0.32768545 -0.45006508 -0.6619836
000250 5b 06 07 bf 60 be cb be cf 94 cc be d0 86 97 be
       -0.5274407 -0.39793682 -0.39957282 -0.2959504
000260 29 b5 4b be 8b 7b ff be 98 7e d2 be 15 35 39 be
       -0.19893326 -0.49898943 -0.41112208 -0.18086655
000270 34 39 16 bf 91 5d 1f 3d 9f be 19 bf c0 78 02 bf
       -0.58681035 0.03890759 -0.6005649 -0.509655
000280 59 0f b2 bd 85 6d 0f bf 3a 78 72 be e1 14 6b be
       -0.086943336 -0.5602649 -0.23678675 -0.22957183
000290 50 19 ca be 22 a8 9c be 72 93 97 3e ea ca 28 bf
       -0.39472437 -0.30597025 0.2960468 -0.6593462
0002a0 1a 9f 68 be 78 50 6f 3a 07 5c e5 be d5 fd eb be
       -0.22716942 0.0009129117 -0.44796774 -0.46092096
0002b0 af 12 e4 be ed c1 15 be ee aa c0 be 67 19 34 be
       -0.44545504 -0.14624758 -0.3763041 -0.17587815
0002c0 c7 6f ca be 18 45 91 be 95 c5 b5 be c1 a8 ec bd
       -0.39538404 -0.28373027 -0.35502306 -0.11555625
0002d0 93 67 55 be e5 cd 29 be 34 a2 d2 be 31 39 d1 bc
       -0.20840292 -0.16582449 -0.41139376 -0.025539966
0002e0 ba 6f d6 bd b0 bb 78 be e9 70 19 be b7 de 2a be
       -0.10470529 -0.24290347 -0.14984478 -0.16686521
0002f0 ae 90 47 bd 07 81 38 bf 14 d9 bb be 7f 77 22 be
       -0.04872196 -0.7207188 -0.36689055 -0.15865897
000300 d6 81 01 bf 73 97 be bd 9b b7 1c bf b5 d2 16 be
       -0.5058874 -0.093062304 -0.6121766 -0.14728816
000310 25 31 dd be d3 b6 01 bf fc b2 0a bf 77 b4 29 be
       -0.43201557 -0.5066959 -0.5417936 -0.16572748
000320 6d 7d e5 be 32 d3 bf be 8b 99 f4 bd a5 3a 01 bf
       -0.44822255 -0.37465817 -0.119433485 -0.5048011
000330 21 fc 5f bd 60 4e fd be 3e 7f 50 be 34 6a b1 be
       -0.05468381 -0.49473858 -0.20361039 -0.3465134
000340 35 70 ed be cf fa dc be 87 8d b1 be 56 e0 a8 be
       -0.4637467 -0.43160102 -0.3467829 -0.32983655
000350 70 05 b7 be ac 34 a4 be fb 33 26 be d4 a0 c0 be
       -0.35746336 -0.32071435 -0.16230766 -0.37622702
000360 d0 0d ad be 13 10 e2 3a 5c f4 ab bd be 24 62 be
       -0.337996 0.0017247222 -0.08396217 -0.22084329
000370 63 88 f9 bd b8 6d c8 be 63 ef eb be ba 0c c0 be
       -0.12184217 -0.3914621 -0.46081075 -0.3750971
000380 d2 74 8e be 7f 35 bb be f6 4c 9d be fc 0e 94 be
       -0.27823502 -0.36564252 -0.3072278 -0.28917682
000390 0e 31 fb bd 9f a9 dc be ee bb 51 be 49 ba 2a bf
       -0.12265216 -0.4309816 -0.20481846 -0.666905
0003a0 e1 ff 1c bf 80 9b 49 bf bc 6a 27 bf 7b 23 c9 be
       -0.6132794 -0.787529 -0.6539724 -0.39284882
0003b0 22 ca bc be 10 39 9c be db e9 b3 be e5 f0 f4 bd
       -0.36872965 -0.30512285 -0.35139355 -0.119600095
0003c0 f3 0d e3 be 74 56 c4 be d7 23 26 bf 18 cc b5 be
       -0.4434658 -0.38347208 -0.6489844 -0.35507274
0003d0 88 79 12 bf 25 ba 1d be ac 21 99 be dc 1c b3 be
       -0.5721669 -0.1540304 -0.29908502 -0.34982955
0003e0 67 0e 10 bf 7f 57 86 bd 8c 9f c7 be 5f 8b 09 bf
       -0.56271976 -0.06559657 -0.38988912 -0.5372829
0003f0 c4 d8 34 bf 89 7c 1e bf 42 04 ce be 61 60 a0 be
       -0.7064326 -0.61908776 -0.40237623 -0.3132353

fc2.weight f4 [128, 256]
000000 29 11 31 be fb da be 3d 93 47 bb 3a 2f 39 23 be
       -0.17291702 0.09319111 0.0014288299 -0.15939783
000010 f5 7f 7a 3e 27 73 81 bd 30 a4 1a be a1 e7 ee 3d
       0.24462874 -0.06320792 -0.15101695 0.116652735
000020 b1 38 ca 3d 89 02 78 3d 49 8c 10 bc 4c 83 c5 bd
       0.09874094 0.060549293 -0.008822509 -0.096441835
000030 68 76 d4 be b1 d1 91 be 42 b7 8b 3e 80 e9 0b 3e
       -0.41496587 -0.28480294 0.27288252 0.13663292
000040 6b eb 7c bc c2 e8 96 3d e4 8d e2 3d 96 88 6e bc
       -0.015436987 0.07368614 0.1106222 -0.014558932
000050 b0 53 c1 b9 f7 4f b6 bd 7a 05 1c be 37 63 42 3e
       -0.0003687418 -0.08901971 -0.15236464 0.1898316
000060 01 19 20 3e c0 92 ca bd c8 ee ab 3c 63 5f c6 be
       0.15634538 -0.098912716 0.020987883 -0.3874465
000070 51 37 f4 bc c3 0e 09 3f 08 ed 05 bf 35 28 79 3e
       -0.029811533 0.5353815 -0.52314806 0.24331744
000080 77 4a 87 bd 79 11 ba 3d d1 8a d6 be 12 30 20 3e
       -0.06606 0.09085364 -0.41902784 0.15643337
000090 f0 78 14 be 17 5d c7 bd 02 3e 78 be ae 20 44 3e
       -0.14499259 -0.09734552 -0.24242404 0.19153091
0000a0 b5 5c 51 3e 93 e1 14 3e 6e 4c 7a 3e 9e a2 df bd
       0.20445521 0.14539175 0.24443218 -0.10919689
0000b0 07 1c ae 3b cb c6 62 bd 33 5e b0 3d 4d f9 7a 3e
       0.0053133997 -0.055365365 0.08611717 0.24509163
0000c0 40 a2 da 3e 1c 7f 38 3e 86 7d 48 be 59 40 6c 3e
       0.42701912 0.18017238 -0.19579133 0.23071422
0000d0 9e 83 05 3e 76 be 11 3e 2d ba c8 be d7 4b b2 bd
       0.13038489 0.14232811 -0.3920454 -0.087058716
0000e0 b6 a6 bc 3c 9b 7b 1f 3f 76 be 96 bc 9b 84 8b 3d
       0.023028713 0.6229798 -0.018401366 0.06812402
0000f0 4a 97 10 bf 4c 78 03 3d fb 52 97 be ed fb 18 be
       -0.5648085 0.032097146 -0.29555497 -0.14939852
000100 a9 83 dc bd 4d 11 25 3e 5c 15 0d 3e 16 b3 05 3e
       -0.107673 0.16119881 0.13777679 0.13056597
000110 04 70 48 be 3a 8d 1d bd 83 77 81 3e 54 8e 8d 3e
       -0.1957398 -0.038464762 0.25286493 0.2764765
000120 67 ab b4 3c 91 6e 85 be 8e f7 56 be b7 45 51 bc
       0.022054387 -0.26060918 -0.20992872 -0.012772969
000130 3a cb e4 3d 38 6a 75 be 96 7c ba 3e a8 78 be 3c
       0.11171575 -0.239663 0.36423177 0.023250893
000140 63 a5 11 be 62 92 d3 3d d1 96 7a be 35 7e ab be
       -0.14223246 0.10330655 -0.24471594 -0.33494726
000150 c1 30 b1 bd 5d 6b 34 3e b5 89 33 3e 61 3f 58 3e
       -0.08651877 0.17619081 0.17533 0.21117927
000160 88 0c 32 be 48 7c d8 bb 3a 4f 32 be e6 d6 12 3e
       -0.17387593 -0.0066066124 -0.17413035 0.1433979
000170 1f 93 61 3d 1a 23 74 3e cd d0 92 3e 28 9e 31 3d
       0.055071946 0.23841515 0.28674927 0.04336372
000180 de 07 44 bd 58 c9 87 3e 02 f9 3c 3e a1 e6 45 3d
       -0.047859065 0.265208 0.18454364 0.048315648
000190 0b 44 0c bf 43 1c 8c be c8 96 82 bd 8e f5 b8 bd
       -0.54791325 -0.27365312 -0.063764155 -0.09031211
0001a0 a5 32 11 be 8b 02 12 be 8b f2 ea 3d c1 a2 ca 3e
       -0.14179476 -0.14258783 0.11472043 0.39577296
0001b0 63 c9 d1 3e 8c 6b 0a 3e d5 c8 f6 bd 8b e3 d8 bb
       0.40973958 0.13517588 -0.120500244 -0.006618922
0001c0 78 b4 e0 3c 37 6d d1 3d e3 37 46 be 24 99 fb ba
       0.027429804 0.10225909 -0.19357257 -0.001919542
0001d0 6b 69 b3 bd ab e4 95 3e 2b 7d 05 be 87 cd 34 bd
       -0.08760341 0.29276022 -0.13036029 -0.04414132
0001e0 39 74 98 3e ad a9 d6 3d 03 cb e1 3d 94 d4 98 bd
       0.2977617 0.10481582 0.110250495 -0.07462421
0001f0 81 1b 59 3e 08 7c 49 be 6a 15 80 be 06 1b 66 3e
       0.21201898 -0.1967622 -0.25016338 0.22471246
000200 33 6c dc be c0 ca c6 3d 80 33 ae 3d 98 4c 17 be
       -0.430513 0.0970664 0.085059166 -0.14775312
000210 e4 ae c6 3d 0f 2a 12 be 14 a6 6d 3e d7 e9 28 3e
       0.097013265 -0.14273857 0.23207885 0.16495453
000220 93 29 dd 3d ea 44 64 bd d7 56 e0 be c6 21 ca bc
       0.10798945 -0.055729784 -0.43816254 -0.024674308
000230 45 eb e2 3d 48 79 16 be 30 fc 40 3d 9e 45 aa 3c
       0.1108003 -0.14694703 0.047115505 0.02078515
000240 93 68 17 be 78 d1 31 3d 70 25 9a 3c ba 90 60 3e
       -0.14785986 0.043412656 0.01881668 0.21930209
000250 c4 8f 9c 3e ac 73 25 3e 48 87 44 be 1a d1 df 3d
       0.30578434 0.16157407 -0.1919223 0.10928555
000260 6e ff 83 bd f5 9e 8d be b5 18 6b bd 1e 37 1a be
       -0.06445204 -0.27660337 -0.05739661 -0.15060088
000270 40 73 2a 3d 58 83 0d bf b1 9d 26 3e d5 7a 14 3e
       0.041613817 -0.5527854 0.16271092 0.14499982
000280 8d 88 a2 3e 9b d1 f9 be 4d d5 e3 3d 2d 12 85 3e
       0.31744805 -0.4879273 0.11124668 0.2599043
000290 5f bf 7b 3d ac c6 04 3f fc 3a 69 3e 54 3e 04 bd
       0.061461803 0.5186565 0.22776407 -0.032286003
0002a0 41 e6 f9 3d 54 2b 71 be 1a bf 39 be 1d 85 44 be
       0.122021206 -0.23551685 -0.18139306 -0.19191404
0002b0 08 ff c6 bd b4 9f 71 3e 56 5b c6 3e a5 92 d3 be
       -0.09716612 0.23596078 0.3874156 -0.41322818
0002c0 ad d5 b8 bd da 03 4a be c9 9b 82 3d d5 54 07 bf
       -0.090251304 -0.19728032 0.0637737 -0.5286382
0002d0 aa 8b 83 3d 38 18 12 be 0c ef bc 3e d6 31 35 be
       0.06423123 -0.14267051 0.36901128 -0.17694792
0002e0 be 9e 01 be 32 3a b0 be 13 10 17 3e c1 cd da 3e
       -0.12658212 -0.344194 0.14752226 0.42735103
0002f0 0f 8f 1d 3b 1d 25 3e be 42 db 28 be c4 95 9d be
       0.0024041568 -0.18568845 -0.1648989 -0.30778325
000300 33 16 be bd 0e 3e 11 be df 00 a6 bd f7 ea a8 be
       -0.09281578 -0.14183828 -0.08105635 -0.32991764
000310 32 67 54 be 90 58 b0 be 27 b5 5c 3d 69 97 bd 3e
       -0.20742491 -0.34442568 0.053883698 0.3702958
000320 a9 de 29 bd 73 bc 0e bd 63 13 09 3d 3b 41 4b 3e
       -0.04147211 -0.034847688 0.033465754 0.19849102
000330 dc 6c 87 3e 3c 82 19 3d bc 94 09 bb ce 60 0a be
       0.2645024 0.037477717 -0.0020993194 -0.1351349
000340 45 bd 7d 3d ba 8f 90 3e 4a e0 d0 3c f7 da e5 3c
       0.06194808 0.28234655 0.025497574 0.028058512
000350 a3 30 f9 bd 5e d0 98 be eb da 04 be 07 29 ca bd
       -0.1216748 -0.29846472 -0.12974136 -0.098711066
000360 f9 fc 88 3d 97 79 6b bd 7f 4d 94 be a4 23 0a 3e
       0.06688876 -0.057489004 -0.28965375 0.13490158
000370 05 82 cb 3d dc 7b 66 3e 65 d8 ba bd e8 3a 6e 3e
       0.09936909 0.22508186 -0.09123305 0.23264658
000380 f9 02 b3 3e e4 f9 91 3d 0d bd fa bd 1b 93 b1 3c
       0.34963205 0.07127741 -0.1224309 0.02167659
000390 93 37 91 3d 72 94 ec 3d de e1 fe be f7 5a 91 3e
       0.07090678 0.11551751 -0.49781698 0.28389713
0003a0 8f 3f 10 be d9 b3 75 bd bc 3c 9c bd 69 73 5f 3d
       -0.14086746 -0.05998597 -0.07628772 0.054553423
0003b0 26 f7 45 bd ce 3a 90 3d 2b b6 d4 bd 95 f0 72 3d
       -0.048331402 0.07042466 -0.10386308 0.05931147
0003c0 b6 70 51 3d 44 41 04 3e a7 a3 b8 bd 5c 1f 74 bd
       0.05113288 0.12915522 -0.09015589 -0.05960022
0003d0 0b 5a aa be 26 37 35 3e 94 09 9f 3d 99 86 e9 be
       -0.33271822 0.17696819 0.07765499 -0.45610502
0003e0 55 f2 92 3d 8d 20 1a 3e b2 6f f7 3d be ae 2c be
       0.071751274 0.1505148 0.12081851 -0.16863534
0003f0 f9 c1 8b bc f5 2e 6b bd 7a 87 53 3e 20 4c a9 bb
       -0.017060267 -0.05741783 0.20657149 -0.0051665455

fc2.bias f4 [128]
000000 ae 22 64 be d9 14 36 be df c2 00 be c9 75 3e be
       -0.22278854 -0.1778139 -0.12574337 -0.18599619
000010 1f 55 1f be c7 9b 94 be 93 6d c7 be a8 e8 ee bd
       -0.15559815 -0.290251 -0.38950786 -0.116654694
000020 c3 ce a3 be 43 10 5f be 24 a4 9d be 52 57 ca bd
       -0.31993684 -0.21783547 -0.30789292 -0.09879936
000030 f4 73 8f be 59 40 ec be 00 0f 0d be 7d ff 48 be
       -0.28018153 -0.46142843 -0.13775253 -0.19628711
000040 b1 f5 4b bd bb ec 5e be 1e a4 e9 bd 33 44 9d bd
       -0.049794856 -0.21769993 -0.11408256 -0.076790236
000050 44 06 30 be 70 b5 80 be 21 d0 5a be ba a0 aa 3c
       -0.1718989 -0.25138426 -0.21368457 0.020828594
000060 a6 44 86 be 72 dd c8 be d6 f5 f4 bd 1e ce 09 be
       -0.2622425 -0.3923145 -0.11960952 -0.13457534
000070 5b cd bb be 50 9a 68 be 29 e6 a2 be 6b f0 20 bc
       -0.3668011 -0.22715116 -0.31816223 -0.009822945
000080 d0 89 8a be aa 63 26 be 16 fe 9e be 99 af 4d be
       -0.27058268 -0.16248956 -0.31053227 -0.20086516
000090 95 5a 6b be d5 eb a7 be 6f bf 29 be 52 71 a5 be
       -0.22983773 -0.32797113 -0.16576932 -0.3231302
0000a0 96 51 b0 be ab 1c d7 3b 60 b5 56 3d e9 ee a8 be
       -0.34437245 0.006564697 0.052419066 -0.32994774
0000b0 dc b2 53 be 2f be da bd 35 a2 0d be 5f 71 51 be
       -0.20673698 -0.10680806 -0.13831408 -0.20453404
0000c0 56 4f 5b be a5 40 1c be b5 13 93 bd 97 40 5c bd
       -0.21416983 -0.15259035 -0.07181493 -0.053772535
0000d0 ce 04 7d bd c2 90 b6 be 73 e8 cc be 6b d3 88 be
       -0.06177216 -0.35657316 -0.40021095 -0.267238
0000e0 7d c2 6e be 87 e3 85 be 7b fd 70 be f4 c5 b2 be
       -0.23316379 -0.26150152 -0.23534195 -0.3491665
0000f0 48 70 51 be 98 3d f2 bd 29 94 76 be e2 b2 da be
       -0.20452988 -0.11828154 -0.24079956 -0.42714602
000100 76 f4 5e be 6d 5d 70 be 7e e5 42 3d 69 ff 9f bd
       -0.21772942 -0.23473139 0.047582142 -0.078123875
000110 86 3e 22 bf df 4d b4 be 88 54 3b be 7d 07 fc be
       -0.63376653 -0.3521566 -0.18293965 -0.49224463
000120 9e 13 34 bd 06 d8 c9 be 6e e8 bb be 2b 6d 96 be
       -0.04396402 -0.39422625 -0.36700767 -0.29380164
000130 7a a4 c8 bd b8 28 b3 be 3a 7c ba bd bb bf ba be
       -0.097969964 -0.34992003 -0.091057256 -0.36474404
000140 19 11 0c be 2e 7b 71 be 28 b0 b8 bd a4 4c 44 be
       -0.13678397 -0.23582146 -0.09017974 -0.19169861
000150 f3 26 9c be 36 4f 09 bc eb 45 49 be e2 15 04 bf
       -0.30498466 -0.008380702 -0.19655578 -0.5159589
000160 3f 12 9f bd 96 16 78 be 84 ec 50 be 17 69 7b be
       -0.07767152 -0.24227366 -0.20402724 -0.24551807
000170 f9 2f 85 be be fe d3 be 1d bf 0c be 79 46 ba be
       -0.26013163 -0.4140529 -0.13744779 -0.3638189
000180 8f bb 5c be 65 a7 a3 be 69 b9 5d be ae 72 aa bd
       -0.21555923 -0.3196365 -0.2165276 -0.08322655
000190 2a 27 2c be b8 ac ee be a5 75 d4 bd 72 17 d0 3b
       -0.16811815 -0.4661615 -0.103740014 0.006350451
0001a0 82 f1 c6 bc 84 12 9a be e7 98 cf be f4 4b 9f be
       -0.024285082 -0.3009225 -0.40546343 -0.31112635
0001b0 ab a0 31 be eb 51 5a be 25 9f f1 3c 5e 37 b0 be
       -0.17346446 -0.21320312 0.029494831 -0.34417242
0001c0 47 27 d1 be 09 f9 c4 bd 3e 87 21 be c5 5a 4c be
       -0.4085028 -0.09617812 -0.15774247 -0.19956501
0001d0 41 30 32 be e5 7b 9c be 23 c3 3d be 5e 62 d3 be
       -0.1740122 -0.30563274 -0.1853147 -0.41285986
0001e0 d7 58 93 be 04 9d b3 be 50 e9 eb bd eb d3 0f be
       -0.28778717 -0.3508073 -0.1151911 -0.14045684
0001f0 c2 fd bf bd a4 bc ca 3c 68 92 09 bf 9d 5a 12 bf
       -0.09374572 0.024748154 -0.53739023 -0.57169515

fc3.weight f4 [2, 128]
000000 0b d9 12 be 4e 22 72 bd ed 99 34 bf 21 a3 c4 be
       -0.14340608 -0.059114747 -0.7054737 -0.38405707
000010 bc e3 ad 3e fa 66 ce 3e 0d d7 cc 3e a8 48 de 3e
       0.3396281 0.4031294 0.4000782 0.43414807
000020 8a 34 80 3e 1b 65 8e 3e a1 b5 7c bd 9a 1b c3 bd
       0.25040084 0.27811512 -0.061696652 -0.09526749
000030 93 41 a8 be bc 51 f4 3e fe f5 90 be 20 5c 76 be
       -0.3286253 0.47718608 -0.28312677 -0.2405858
000040 38 e2 af be ab d1 82 3d c5 92 85 be be d0 0c 3c
       -0.3435228 0.06387647 -0.2608854 0.00859469
000050 fa 7a 84 3d ed fb 36 be 5d 7b 5a 3e 45 8a f8 bd
       0.064687684 -0.1786954 0.21336122 -0.12135748
000060 1c 47 80 3e 53 6a ff bd b9 1a d7 be 3e 5b 7c 3e
       0.25054252 -0.124714516 -0.42012575 0.24644181
000070 25 1d 4f be 36 66 c7 3e 81 16 0b 3e 77 49 5b bd
       -0.20225962 0.38945168 0.13582803 -0.05353686
000080 73 0e 5b 3e 38 e7 07 3f bb f2 1e 3e 7e 50 6d 3e
       0.2139223 0.53087187 0.15522282 0.23175237
000090 d9 9c 86 3e b5 be c5 3e 0a 53 a0 be 21 fa 89 be
       0.2629154 0.3862206 -0.31313354 -0.26948646
0000a0 02 04 70 be 84 21 f2 bc 8a 02 c5 be 48 b9 15 3e
       -0.23439029 -0.029556997 -0.384785 0.1462146
0000b0 5b f4 aa 3e 58 d1 95 bc 0f d5 b7 3e 8f b7 a7 bc
       0.33389553 -0.0182883 0.35904738 -0.02047327
0000c0 d0 15 f8 be 01 7d cb bd 86 9f 8f 3e 13 f5 58 be
       -0.48454142 -0.09935952 0.28051394 -0.21187238
0000d0 47 1e 28 bc 34 a5 79 be a3 00 cc be 56 83 99 3e
       -0.010261125 -0.24379426 -0.39844236 0.29983014
0000e0 f2 1d b7 be fd 99 1b 3f 17 51 46 3e 54 ae a7 bd
       -0.35765034 0.6078184 0.19366871 -0.08187547
0000f0 ec dc ee 3d 89 db 31 be 10 d7 b7 be f7 1f 6f be
       0.11663231 -0.17368902 -0.35906267 -0.23352037
000100 50 26 0b 3f cd 65 33 3d 18 09 e2 3e b0 5a 05 3e
       0.54355335 0.043798257 0.44147563 0.13022876
000110 eb 94 d2 3d e5 d0 25 be a9 33 a7 bc e7 1a 6a be
       0.1028231 -0.16192968 -0.020410376 -0.22861825
000120 2b 99 27 be 20 f8 a5 be 3a 55 97 3e d3 54 da be
       -0.16367023 -0.32415867 0.2955721 -0.4264284
000130 51 9d 72 3c 2f 31 0e be 99 dc b4 3c 71 96 2f 3f
       0.014808015 -0.1388595 0.022077845 0.6858893
000140 57 4a 76 3e 1f 49 7c be 60 2f b5 3e 0f 14 09 3f
       0.24051796 -0.24637268 0.35387707 0.5354623
000150 0d 2e 34 3e 05 95 b2 bd c0 6c 3b bc 46 88 f4 3e
       0.17595692 -0.087198295 -0.011439502 0.47760218
000160 14 3b 1a bd ac c8 c3 3d dd f8 2d be 3a 10 1b 3e
       -0.037653998 0.095597595 -0.16989465 0.15142909
000170 52 b3 0f bf ad 6c 5f be 63 72 1b 3f c3 b9 d3 3e
       -0.56132996 -0.218188 0.60721415 0.41352662
000180 e5 6a 42 be 46 03 29 3e 57 fd 75 3e de 1a 6c be
       -0.1898609 0.16505155 0.24022423 -0.23057124
000190 7e 2f 87 be 1d 76 22 bc 78 f3 ad 3e ee 6b 25 3e
       -0.2640342 -0.009915856 0.33974814 0.16154453
0001a0 81 7f 13 3f 28 98 5c be 25 e0 aa be ba 65 42 3e
       0.5761643 -0.21542418 -0.33374134 0.18984118
0001b0 4f fa ca be b5 86 88 be 80 b7 1f 3e f7 92 cb 3c
       -0.39644095 -0.26665273 0.15597343 0.024850352
0001c0 98 7d 46 3e b6 35 86 be 86 a0 07 bf fa 33 cb 3e
       0.19383848 -0.26212853 -0.52979314 0.39688092
0001d0 1f d9 46 be a2 f4 ae be b0 2b 05 3f a6 86 79 3e
       -0.19418763 -0.34171015 0.52019787 0.2436777
0001e0 69 22 20 3e f3 67 81 be 2b 6e f3 bd 41 1f 18 3e
       0.15638126 -0.2527462 -0.11886247 0.14855672
0001f0 1d a2 37 bd af bf 58 bd d2 33 cf bd 1d ba 5f be
       -0.044832338 -0.05291718 -0.10117306 -0.2184834
000200 f2 12 e1 be 62 af eb be ee 15 05 bf 12 96 ff bd
       -0.43959767 -0.46032244 -0.5198659 -0.124797955
000210 4e c8 6f 3f b2 6b 74 3e 04 3d 0e 3e 0b 70 4f 3f
       0.93665016 0.23869208 0.13890463 0.8103034
000220 70 e9 18 be f9 c2 8f be b3 9b ec be a6 3f e2 be
       -0.149328 -0.2807844 -0.4621254 -0.44189185
000230 1e 5e 96 be 16 ab d2 bd 8c 77 d5 3d 61 18 ac 3d
       -0.2936868 -0.10286538 0.104231924 0.084030874
000240 8e 34 15 bc 0e 11 dc be 6d 4e 97 be 56 12 fc be
       -0.009106768 -0.42981762 -0.29552022 -0.4923274
000250 09 41 fb be a8 be 99 3e 9c 22 22 bf ef 6f 2f 3f
       -0.49073055 0.30028272 -0.6333406 0.6853017
000260 bb 30 38 3c b9 d1 32 be ec 7c 7a 3d 87 99 e3 3c
       0.011242087 -0.17462815 0.06115429 0.027783168
000270 31 86 1c be ba 78 3e 3c d1 96 a2 3e ab 10 49 3f
       -0.15285565 0.011625463 0.3175569 0.7854106
000280 b9 49 26 3f dc 0f cd 3b b2 12 de be 5b fb 74 3e
       0.6495624 0.006257994 -0.43373638 0.2392401
000290 3a 56 5f 3e b2 a8 76 3e 8c f8 5a 3d f0 ab 8e be
       0.21810237 0.2408779 0.05345969 -0.27865553
0002a0 0a ea eb be d9 f8 8d 3e c4 5b bd 3e aa 8e 06 bf
       -0.46076995 0.27728918 0.36984074 -0.5256144
0002b0 38 dd 8b 3e c3 64 b3 be e8 8c 28 3f c8 6d 1f 3f
       0.27317214 -0.35037813 0.65840006 0.6227689
0002c0 55 e1 cc bd 8b 5c cc 3e e1 0e be be 98 0b ca be
       -0.10003916 0.39914355 -0.37120727 -0.3946197
0002d0 f6 66 2a 3e 15 32 09 bf 98 e8 5e 3e cc ff 32 be
       0.16640839 -0.53592044 0.21768415 -0.17480391
0002e0 44 38 8a be 14 42 ad 3e 9c 0c ac 3e 8e f0 f2 3e
       -0.26996052 0.33839476 0.3360337 0.47449154
0002f0 bb 96 dd 3e 07 91 0d bf 0a 6b c4 3e 14 b6 e0 be
       0.4327906 -0.5529942 0.38362914 -0.43888915
000300 7a 01 9f 3e c0 8c 1c 3f 0a c1 6a 3e 69 6a 91 be
       0.31055814 0.6115227 0.22925201 -0.28401497
000310 0a 75 13 3f 31 d7 d4 3c 1b e8 a9 be f2 28 f9 bd
       0.5760046 0.025981518 -0.33184895 -0.12166013
000320 f0 26 bc bd 7a 29 96 3d c6 84 1e 3f cf 97 81 bd
       -0.09187114 0.0733213 0.61921346 -0.06327783
000330 9c 29 b0 3e 98 78 34 3f c9 c7 17 3f 2d 85 fa bd
       0.34406745 0.7049651 0.5928922 -0.122324325
000340 1a fa 6e 3d 13 c2 9b 3d 00 df 00 3f 9e 8a c9 be
       0.058343984 0.07605376 0.5034027 -0.3936357
000350 5b 0c 1a 3f fe 02 34 3f 9c 99 12 3f 8c 39 bb 3e
       0.601751 0.70317066 0.5726564 0.36567342
000360 bd 75 1b bf 60 29 0b bf ba 97 e9 3e a7 90 3f 3e
       -0.6072653 -0.5436001 0.4562357 0.18707524
000370 11 8c 1f bd f8 69 04 be 4c 63 db 3e f0 7c eb 3d
       -0.038951937 -0.12931049 0.42849195 0.11498439
000380 be 41 c2 be b0 4f 3a be db 0b 11 be 0b 62 03 bf
       -0.37940782 -0.18194461 -0.14164679 -0.51321477
000390 f3 85 48 bc ca b8 30 3f aa 4d aa 3e b9 63 97 3e
       -0.012238967 0.69031966 0.33262378 0.2956827
0003a0 dc b9 84 be 0d 1f 40 3e 56 f7 d1 bd ca 81 bb be
       -0.2592305 0.18761845 -0.10252254 -0.3662246
0003b0 ae 4c 2e be ff 13 19 bf 7f d0 ae 3d 62 08 1e 3f
       -0.17021438 -0.59796137 0.08535861 0.6173154
0003c0 91 f1 a0 be ef 91 30 be 5e ee b4 bd a3 0a 2a 3f
       -0.314343 -0.17243169 -0.088345274 0.6642248
0003d0 f4 18 56 be a3 8c 64 be 32 a6 3b 3e 26 55 31 3b
       -0.20907956 -0.22319274 0.18325117 0.002705881
0003e0 a3 44 17 3f 3e 36 f5 3d 13 b9 09 3f 4d 28 77 be
       0.59089106 0.119732365 0.53798026 -0.24136467
0003f0 de 6c 87 3e 52 05 3a 3e 39 9d f9 be 9a bf c9 be
       0.26450247 0.18166092 -0.48752764 -0.39403993

fc3.bias f4 [2]
000000 05 6d 84 bd 97 8b 47 3d
       -0.06466106 0.048717108

bn1.weight f4 [256]
000000 7f c6 5d 3f 68 62 9e 3f 1e 89 75 3f 88 d6 84 3f
       0.86631006 1.2373781 0.9591235 1.037797
000010 6e b3 1a 3f 01 28 8f 3f 4c cf 67 3f 79 f0 8b 3f
       0.6043004 1.1184083 0.90550685 1.0932761
000020 d5 dd 78 3f cf 0b 7c 3f da f8 4b 3f 68 c8 c1 3f
       0.9721349 0.9845552 0.7967659 1.5139284
000030 98 ca 9c 3f e4 50 76 3f 76 89 d3 3f f6 96 5b 3f
       1.2249327 0.9621718 1.6526325 0.85777223
000040 03 91 82 3f 3f 6d af 3f d1 82 7d 3f 4d db 51 3f
       1.0200504 1.3705214 0.99027735 0.8197525
000050 bf 30 aa 3f 21 36 77 3f 11 7a 7f 3f da 30 99 3f
       1.3296126 0.9656697 0.99795634 1.1968033
000060 21 31 e4 3e ae 62 8d 3f d9 d6 bb 3f d6 de 55 3f
       0.44568732 1.104574 1.4674941 0.83543146
000070 31 6b a6 3f 19 91 91 3f 3d 6b 9f 3f ae d7 60 3f
       1.3001462 1.1372405 1.2454602 0.878291
000080 c3 04 95 3f 78 b2 75 3f 2d bc 9e 3f 5b 7d 88 3f
       1.1642078 0.95975447 1.2401177 1.0663255
000090 1d d7 91 3f 06 b4 9d 3f 37 36 c6 3f 37 69 98 3f
       1.1393772 1.2320564 1.5485295 1.1907109
0000a0 03 42 6f 3f 4d c4 03 3f 46 b8 84 3f 09 be 12 3f
       0.934601 0.51471406 1.0368736 0.5732122
0000b0 33 0e 43 3f 43 e9 8a 3f fc 80 50 3f a6 8f b3 3f
       0.7619354 1.0852436 0.81446815 1.4028213
0000c0 e9 3f a5 3f b6 fb 93 3f e5 01 83 3f 6b e7 99 3f
       1.2910129 1.1561191 1.0234953 1.2023748
0000d0 60 49 7d 3f 81 9c ba 3f 93 23 a4 3f 2e e3 7e 3f
       0.98940086 1.4579011 1.2823356 0.995654
0000e0 6c f4 03 3f 5a 87 aa 3f 18 3f 99 3f 57 f4 55 3f
       0.51544833 1.3322556 1.197238 0.8357596
0000f0 37 f1 83 3f 3a 4e 9d 3f 03 a7 77 3f 83 85 81 3f
       1.0307988 1.2289498 0.96739215 1.011887
000100 33 92 ae 3f f6 47 aa 3f 50 5c 2a 3f 9a b2 80 3f
       1.3638366 1.3303211 0.6654711 1.0054505
000110 bc d7 72 3f 39 3e 75 3f bb bd 78 3f 0e 0a 8e 3f
       0.94860435 0.9579807 0.97164506 1.1096818
000120 53 1b bd 3f 79 e4 78 3f 76 8d 2a 3f 1f 54 6d 3f
       1.4773964 0.9722362 0.666221 0.92706484
000130 24 f1 ac 3f 52 8f 7d 3f fe 25 ae 3f 8f b9 91 3f
       1.351109 0.99046814 1.3605344 1.1384753
000140 86 91 75 3f 72 58 72 3f 2c 7f b9 3f 29 31 7c 3f
       0.95925176 0.94666207 1.4491935 0.9851251
000150 b1 f6 7f 3f 08 44 31 3f cb 5a 3a 3f ca 75 96 3f
       0.99985796 0.6924443 0.7279479 1.1754696
000160 d0 00 51 3f 26 1e 7f 3f 62 de ab 3f 35 57 90 3f
       0.81641865 0.9965538 1.3427241 1.1276613
000170 05 75 5e 3f a3 ec a5 3f 8a f9 88 3f 7f e4 79 3f
       0.8689731 1.2962841 1.0701153 0.9761428
000180 af cf 48 3f cb df 52 3f cf 58 a9 3f 20 60 ae 3f
       0.784419 0.8237273 1.3230227 1.3623085
000190 3a b4 a0 3f ac f9 8d 3f 2c 42 80 3f 85 b8 91 3f
       1.2555001 1.1091819 1.0020194 1.1384436
0001a0 42 2a 93 3f 33 79 a5 3f 33 9a 35 3f 6e c3 96 3f
       1.1497271 1.2927612 0.70938414 1.177839
0001b0 b9 5a 4b 3f ae 68 ac 3f bd b3 46 3f 44 4e 93 3f
       0.79435307 1.3469446 0.7761801 1.150826
0001c0 06 62 c6 3f 85 1b 54 3f a3 84 7c 3f 1b cb 8e 3f
       1.5498664 0.8285449 0.9863989 1.1155733
0001d0 0b 59 92 3f d1 6c 9f 3f 5c cb 9f 3f d5 89 89 3f
       1.1433424 1.2455083 1.2483935 1.0745188
0001e0 6b 00 24 3f dd 30 52 3f 4b f9 8f 3f 9c 20 66 3f
       0.6406314 0.8210581 1.1247953 0.8989351
0001f0 94 93 9e 3f 97 bf a3 3f 26 88 53 3f 5b 43 93 3f
       1.2388787 1.2792844 0.8262962 1.150493
000200 37 d2 a3 3f c3 92 a7 3f dd 9d 9b 3f 9b f2 74 3f
       1.2798527 1.3091663 1.2157551 0.95682687
000210 50 24 79 3f dc 5b 67 3f da e4 d2 3f a1 8e 86 3f
       0.97321033 0.9037454 1.647609 1.0512277
000220 76 f6 8d 3f 4a e4 a8 3f 69 1a 1a 3f 7f 98 56 3f
       1.1090839 1.3194668 0.6019655 0.8382644
000230 2e cf 79 3f fa 3e 88 3f e8 94 10 3f 16 a1 90 3f
       0.97581756 1.0644219 0.5647721 1.129916
000240 8a 7c 90 3f 08 4a 11 3f 46 bf bd 3f 37 89 5f 3f
       1.1288006 0.5675359 1.4823997 0.8731875
000250 79 c6 8d 3f dd 24 c0 3f 37 cc 6b 3f 09 9f 63 3f
       1.1076194 1.501125 0.9210848 0.88914543
000260 0b 4d a4 3f a7 f3 93 3f 3a 4f 4e 3f f7 1c 91 3f
       1.2836012 1.1558732 0.8058964 1.1336964
000270 c3 32 9b 3f db 22 80 3f 05 e1 94 3f 91 36 47 3f
       1.2124866 1.0010637 1.163117 0.77817637
000280 3f dc 22 3f ee a9 92 3f a8 fa 52 3f be df b0 3f
       0.6361732 1.1458108 0.8241372 1.3818281
000290 d8 0f 57 3f 8e 1e a6 3f f6 65 37 3f 0a 13 05 40
       0.8400855 1.2978075 0.71639955 2.079287
0002a0 95 6a 2b 3f 50 c1 8e 3f de 4e 74 3f 4a b1 9a 3f
       0.66959506 1.1152744 0.9543284 1.2085354
0002b0 11 20 8e 3f d3 70 be 3f 17 5b a0 3f 89 7c 97 3f
       1.1103536 1.4878181 1.2527798 1.183488
0002c0 aa b9 95 3f e0 f4 7b 3f d7 34 ba 3f 7b 3b 63 3f
       1.1697285 0.98420525 1.4547375 0.88762635
0002d0 5e cb 46 3f f7 6a 86 3f 11 2d 8f 3f 50 d7 60 3f
       0.77654064 1.0501393 1.1185628 0.8782854
0002e0 11 8b a8 3f de 30 a4 3f bb 50 98 3f 76 20 8b 3f
       1.316744 1.2827413 1.1899637 1.0869281
0002f0 b9 7c 7b 3f 3f 08 84 3f 4e d3 82 3f 96 e3 a6 3f
       0.98237187 1.0315017 1.0220735 1.3038204
000300 a0 fc 95 3f 06 17 5c 3f 96 6b 6e 3f b6 c5 8f 3f
       1.171772 0.8597263 0.93132913 1.1232212
000310 4a 22 bf 3f 25 46 8f 3f e7 0f 5a 3f 89 41 3a 3f
       1.4932339 1.1193281 0.85180515 0.7275625
000320 fe 84 91 3f 0d 7c 5e 3f 6a 95 5a 3f 71 83 9a 3f
       1.1368711 0.86908036 0.8538424 1.2071363
000330 9d 33 5e 3f 95 1f 57 3f b5 89 aa 3f 93 15 90 3f
       0.86797506 0.84032565 1.3323275 1.1256584
000340 50 a0 41 3f 85 a4 af 3f bf 1b 67 3f c9 9e 91 3f
       0.7563524 1.3722082 0.9027671 1.1376582
000350 e4 67 68 3f 9f 59 95 3f 73 61 ab 3f c4 b3 b6 3f
       0.90783525 1.1667975 1.3389114 1.427361
000360 d4 30 80 3f 44 87 a4 3f 3c a3 60 3f fc 7f a5 3f
       1.0014901 1.285378 0.87749076 1.2929683
000370 03 d7 8a 3f 2c 52 33 3f bb 09 3b 3f b3 2a 1b 3f
       1.0846866 0.7004726 0.7306172 0.6061203
000380 d1 f6 4f 3f df 8b 19 3f 32 27 96 3f bd 40 8c 3f
       0.81235987 0.5997905 1.1730711 1.0957257
000390 32 39 9c 3f b8 f7 ab 3f e3 39 af 3f b8 3e c3 3f
       1.2204955 1.3434973 1.3689541 1.5253515
0003a0 82 94 d0 3f 02 fc 35 3f 34 21 8f 3f 91 d2 83 3f
       1.6295321 0.7108766 1.1182008 1.0298635
0003b0 e7 df 9d 3f d0 bd 77 3f e9 27 77 3f 17 74 8e 3f
       1.2333955 0.96774006 0.96545273 1.1129178
0003c0 a4 3b 88 3f 7d 04 93 3f 00 38 bb 3f 51 67 7e 3f
       1.0643201 1.1485745 1.4626465 0.993764
0003d0 61 93 82 3f 75 c5 70 3f 84 c0 9c 3e 6e 2e 5c 3f
       1.0201226 0.94051296 0.30615628 0.86008346
0003e0 ab d1 a7 3f 77 bf 9f 3f e1 be a7 3f c5 3f 89 3f
       1.311086 1.2480305 1.3105127 1.0722586
0003f0 e0 e5 42 3f ea 2f 34 3f b0 78 7a 3f dc e3 8c 3f
       0.7613201 0.7038561 0.97840405 1.1007037

bn1.bias f4 [256]
000000 33 25 d3 bd 29 92 ea bc f2 ee b9 3e 03 f7 5c 3d
       -0.103098296 -0.028634148 0.36315113 0.053946506
000010 c2 91 d0 be f0 5f ad ba c5 0b 55 3e d7 75 6b be
       -0.40736204 -0.0013227444 0.20805271 -0.22994171
000020 a6 68 15 3e 1e 90 a5 3e d1 5b 2b bd 75 d8 d9 3d
       0.14590701 0.32336515 -0.04183561 0.10636989
000030 9d 86 7d 3c 8d 81 ec 3d 4d 96 32 3d 3d 78 ba 3d
       0.015473989 0.11548147 0.04360037 0.09104965
000040 c8 21 2f 3d 4b af fb 3d 74 7a fc bc e7 e8 57 3e
       0.042756826 0.12289294 -0.030820109 0.21084939
000050 8b 50 f1 bd 63 30 da 3e f7 59 48 3d 62 d5 ed bc
       -0.117829405 0.4261504 0.048913922 -0.029032413
000060 eb e8 95 bb 7d be f8 3d 40 b4 79 3d 1b b2 76 3e
       -0.004574885 0.12145708 0.060962915 0.2409138
000070 d3 b5 31 bd ee 25 57 3b 5d 02 04 bd 87 2a 29 be
       -0.04338629 0.0032829004 -0.032228816 -0.16520129
000080 ee 76 80 3e 25 e5 09 3e a9 13 cc bd ac 2c 55 3e
       0.25090736 0.13466318 -0.099646874 0.20817822
000090 8f 10 72 bc 56 26 3c 3c 2e df e6 3d f5 03 cb 3c
       -0.014774456 0.011483749 0.11273037 0.02478216
0000a0 2b 25 16 3e ab 06 55 3d 26 85 10 3e fe 0c 74 3e
       0.14662616 0.052008312 0.14113292 0.23833081
0000b0 26 6f 34 be 11 66 32 be 65 1c a9 bd 37 a7 54 be
       -0.17620525 -0.17421748 -0.08257369 -0.20766912
0000c0 3e 69 6a 3d 1b 61 8d 3e 2f de 63 be cd f6 c9 bc
       0.057229273 0.27613148 -0.22252725 -0.024653817
0000d0 d5 3c 9e bd 8a dc 32 3e 47 0b 0f 3e 0b 7f e8 3e
       -0.077264465 0.17466941 0.13969146 0.45409426
0000e0 ef cc 22 be 5a 9b 66 bd 5a 1d 33 bc 1f 48 87 3b
       -0.15898488 -0.0563005 -0.010932291 0.0041284706
0000f0 51 06 65 3c f7 2d da bd 32 dc 04 3e 05 38 47 bd
       0.013978557 -0.10653298 0.12974623 -0.04863741
000100 db 11 24 be f9 f5 d4 bc ad c6 59 be 88 9f 0f 3e
       -0.16022436 -0.025996195 -0.21267195 0.140257
000110 53 99 fa bc 89 e8 57 be a1 95 98 3d ad 3b 80 3d
       -0.030590689 -0.21084799 0.074504144 0.06261382
000120 09 35 30 3e e3 c6 66 3e db 97 7b bc 2e 17 25 3f
       0.17207731 0.22536807 -0.015356029 0.64488494
000130 08 49 8b 3e d6 b6 b5 bd 98 3f c2 bd 3d 85 41 bc
       0.27204156 -0.08872764 -0.09484786 -0.011811552
000140 de 03 7a be 49 76 95 bd e2 b8 37 3e 02 c1 62 bd
       -0.24415538 -0.07297952 0.17941621 -0.055359848
000150 6b 9d 99 3c 56 2c 32 3e 5f e8 1c be 1b db f8 ba
       0.01875182 0.17399725 -0.15323018 -0.0018986197
000160 c9 c6 d5 3e 0b b1 59 3d 81 9e 76 3e e7 89 99 3c
       0.41753224 0.053147357 0.24083902 0.018742515
000170 30 e3 2a 3d 87 55 c9 3d f8 0a 8d 3e a3 2c ca 3d
       0.04172057 0.09830766 0.2754743 0.09871795
000180 4a d1 99 3e 07 97 f3 3d 71 32 4c be 8b f1 b1 3e
       0.30042487 0.118940406 -0.19941117 0.34754595
000190 53 9f 9a 3d 3c 86 cb 3e f4 21 07 bd c3 02 db 3e
       0.0754992 0.3975085 -0.032991365 0.42775545
0001a0 49 48 03 bc 15 13 ce 3d 2c 2c ae be 5e 8f 89 bd
       -0.00801284 0.10062233 -0.34018075 -0.06716798
0001b0 f4 30 c5 bd d2 75 8e 3e fc 63 03 be f5 2f c1 3d
       -0.09628478 0.27824265 -0.1283111 0.09432975
0001c0 5f 79 a9 3e 07 8f f5 3c b3 32 8b 3d 92 fc 67 3c
       0.3310041 0.029975427 0.067967795 0.014159339
0001d0 f2 bd d8 bd d0 c6 cb 3d 19 e5 e8 3e 43 92 0a 3e
       -0.10583104 0.0995003 0.45487288 0.13532357
0001e0 6b 18 68 3e 32 2e 7e 3e e7 38 d9 3d e1 83 86 3d
       0.22665565 0.2482231 0.106065564 0.06568123
0001f0 d1 2f a8 3d 71 5d 54 bc a5 f2 b8 3d a8 2e 87 3c
       0.08212245 -0.012961731 0.09030656 0.01650174
000200 ba b9 45 3c bf 84 f5 3c 24 12 2e 3e b3 c9 c2 3d
       0.012068206 0.029970525 0.16999108 0.09511127
000210 64 76 a0 3c dd 97 99 be e2 a7 45 3e f9 2c 61 3e
       0.019587703 -0.29998675 0.19302323 0.21989812
000220 ee 02 9d 3e 04 c9 64 be c6 ae 6d 3e c3 fa 88 be
       0.30666298 -0.22342306 0.23211202 -0.26753816
000230 f3 62 8a 3e 43 38 21 bd 21 cd 20 be 15 eb 78 3c
       0.27028617 -0.039360296 -0.1570325 0.015192767
000240 c2 4a a4 3d ee 6c 45 bd b2 64 7c 3e 9b 98 58 be
       0.080220714 -0.048199587 0.24647787 -0.21151964
000250 b2 7c d6 bc 18 b3 d7 bc 74 85 d0 3e 91 7c 0b 3e
       -0.026182506 -0.026330516 0.40726817 0.13621737
000260 7f 31 1e 3e 5b 79 16 3e 95 16 12 3f 4b bc 32 bd
       0.15448569 0.14694731 0.5706571 -0.0436366
000270 8d ef 69 3e 1d 38 8a 3e 57 e7 20 3e a0 17 82 bd
       0.22845288 0.26995936 0.15713249 -0.06352162
000280 75 7d 48 3e 5e 13 54 3e 61 bb 22 3e 38 cf 8d bd
       0.19579108 0.20710513 0.15891792 -0.069242895
000290 a2 29 06 3f b7 a9 25 bd c3 a0 b8 be ab 80 1d be
       0.52407277 -0.040445056 -0.3606015 -0.15381114
0002a0 26 00 e6 3e bd 79 02 3e eb 51 e1 3d 5e 77 9a bd
       0.44921988 0.12741752 0.11001953 -0.07542299
0002b0 d5 c0 e7 3d 89 2e d8 3d 5d 6a 60 3d cb f3 90 3e
       0.11316077 0.10555751 0.054788936 0.28311
0002c0 0c 77 00 3e 9d 4d 64 3d 59 c7 48 3d c3 08 38 3e
       0.12545413 0.05573808 0.049018238 0.17972092
0002d0 df 6f 42 be 43 f1 f5 bd 82 c3 04 3d 8c fb 25 3d
       -0.18987988 -0.12008908 0.032413013 0.040523097
0002e0 08 ea 95 be 97 56 d7 3e a6 46 64 3d fa d3 bc bd
       -0.29280114 0.4205825 0.055731438 -0.09220119
0002f0 8d e9 7e 3d 91 cd c1 3e 3a d9 17 3d 53 38 d5 3e
       0.06223445 0.37852147 0.037072398 0.41644534
000300 f5 e6 af 3e 27 e6 2c 3e f3 01 8e 3e d5 9a e2 bc
       0.34355894 0.16884671 0.27735862 -0.02766172
000310 68 5f 90 3e 46 ad eb 3d a0 d8 7b 3e e3 5a 7e 3e
       0.2819779 0.11507659 0.24594355 0.24839358
000320 ba bb 7b bc ca fd 7d 3d 2e 00 45 be b6 80 89 bd
       -0.015364582 0.06200961 -0.1923835 -0.06714003
000330 dd f0 24 3d 80 7a af 3d c2 46 a4 3e ad 5d a2 3e
       0.040268768 0.08568287 0.32085234 0.31712094
000340 02 99 87 3d a7 1c 21 3e 74 04 01 3e 25 e3 06 be
       0.06620981 0.15733586 0.12599355 -0.13172586
000350 7a 28 dc 3d 67 b4 a9 bd 82 d9 09 bd be 21 87 3e
       0.10749908 -0.08286362 -0.033654697 0.2639293
000360 36 f6 b0 3e 8f 71 28 be 24 bd 14 bd b6 eb 01 3e
       0.34562844 -0.16449569 -0.03631319 0.12687573
000370 7c c9 d7 39 d3 21 3e be c7 8b 5f 3e 40 dd 0c 3e
       0.00041158113 -0.1856759 0.21830665 0.13756275
000380 48 41 8a bc 9e c7 43 3e 5f 29 10 bc 91 17 8b 3e
       -0.016876832 0.19119117 -0.008798926 0.27166417
000390 30 c8 4b 3e 9a d4 00 be c6 dc 28 3d 83 22 04 bd
       0.19900584 -0.12581101 0.04122617 -0.032259475
0003a0 2f cb db 3d 70 bb 7b be ed 6a 0e bc 36 07 98 be
       0.107321136 -0.2458322 -0.008692485 -0.29693002
0003b0 12 ae 9e bd 37 ba d2 bb 91 83 68 3d e4 cd af bb
       -0.07748045 -0.00643089 0.056766097 -0.0053651202
0003c0 b8 dc 0b bc 05 46 de 3d d7 14 42 3e 2f 5a 9c 3d
       -0.00853651 0.10853199 0.18953262 0.07634389
0003d0 91 1b ad 3e b7 3b 28 be d9 94 80 3d e8 a4 84 3e
       0.33810094 -0.1642903 0.062783904 0.25907063
0003e0 82 31 06 3e 85 bc 4d be bc 45 98 be e8 e8 39 3e
       0.13104823 -0.20091446 -0.29740703 0.18155253
0003f0 57 8e d7 3d e2 31 41 3d d7 9c a3 3e b8 dd 92 be
       0.10525196 0.047166713 0.31955597 -0.28684783
