checkpoints/maddpg_per/maddpg_per0_checkpoint_actor_target.pth (torch, 166151 bytes, 10 tensors)

fc1.weight f4 [256, 24]
00000000: 87ec 913e 3a8d ecbd c06e 483e 3b08 40bd
00000010: d39f 923e 1671 cebe a784 a83d 1870 803d
00000020: 1fc9 1c3e 4fde 9b3d 9d67 48be 6b52 7bbe
00000030: 1cf0 523e 1df2 01bf 3bf6 a6bd 366b d9bd
00000040: e46e 883e 81dd 193e 8429 adbd 8540 c43e
00000050: fecb 9f3c 52a6 10bf 689c 9cbd 89d1 c93e
00000060: 94e9 7ebe 2b32 e93e 549c ff3d 152a 893e
00000070: 09c8 fcbd 382b eabe 35ef 573e a023 2a3e
00000080: 45a0 a73d 40c0 d83e d977 383d bdea 8a3d
00000090: 3c35 e1bd bf7c 02bf 50e2 813e 127d 583c
000000a0: 2e19 653e 51e1 d93e 21bb 243e e053 34be
000000b0: b320 fc39 6d2e f9be 3835 d23e 8b3b e63c
000000c0: 59a4 7e3e 95e3 48bf 9b7b 0dbe be22 52be
000000d0: 094c 503e 6ce9 5b3d b2ce 66bd 1f18 b0be
000000e0: fa5b 4b3e e738 14bf 472a 26be 4b12 01bf
000000f0: 4fc4 5d3d ee08 84bd dcba 37be 7f04 bbbe
00000100: 2827 3a3e 882f 11bf 7460 413e 4f55 ca3e
00000110: 7981 6ebd 57d7 5d3c 84e5 233e f738 673e
00000120: 82f7 1cbb a9c5 a7be 20bc 0fbe c572 26be
00000130: b0be 80bf ed57 783d ac74 54be bb5d f4bd
00000140: bcfa 663e eada 8fbc d4c8 eb3d c2c4 183d
00000150: b259 06bf 0761 c93a 4948 8ebc 8e71 89bd
00000160: 5d3c 133e e81f d5bd 5609 eabd c0ed cd3e
00000170: 10f9 63be 8f92 f63d b6b4 333c cd06 da3e
00000180: 8807 403f ce51 003f aecb 333d 9d15 60be
00000190: ad7f b13e 4a57 b7be 5b22 243e e658 b1bd
000001a0: dfae 0e3f 3ed5 3b3e ccae b1ba ca59 d4be
000001b0: 7dc5 993e e928 b3be 5594 323d 3b49 8abe
000001c0: beb0 683e 8399 31bd acc6 2fbe 1fbb 97be
000001d0: d221 a73e 9d1a 803d 9b4a b7bd 8e13 48be
000001e0: 2c95 d03e 42b4 c3be 5fd4 92bd e6df 773e
000001f0: bfdb 873d 689e 1bbe 65b6 173c 0554 8e3e
00000200: 92af 1e3f 3b11 9fbe 3797 fa3c 29b2 44be
00000210: 07f9 403e 0123 ba3d 4761 91bd 922e f4bd
00000220: 6667 c83e baf9 02be 3137 a7bd 6572 bfbd
00000230: 0bb9 59be cc6a 213e c308 b23c 4c7c bebd
00000240: e82f 423e 1fd6 31be 61be 8ebd c824 e43e
00000250: 32f7 5e3e 199d 7dbd 16fd b53c 9402 2a3f
00000260: 40fa da3e 768c 343e 1899 823d 5bb0 ab3e
00000270: 8dbd 76bd a679 913d af38 febd fb2c 9d3e
00000280: 45de c23e d93e 853e cf48 373e 06cd a83e
00000290: 09aa b1bd 9f84 e23e 7be0 493e 6512 813e
000002a0: 1e4d 713e 8bb9 1bbf d6e0 e3bc 5bf4 383e
000002b0: 0ecb d13e 17b8 a23d 5e88 fdbd be0a 823e
000002c0: 63ee 553e 0709 ccbe 8027 42bd 3a30 d33e
000002d0: 4ff4 df3e 65bc d13d a805 babc a962 f73e
000002e0: e9d7 363e 5347 c9be 1d31 e83c fa20 223f
000002f0: c764 de3e f88b 9c3c da22 dcbb d96a 193f
00000300: 4a94 783e ea9f 013f 7ead 1fbe 5c1e 793e
00000310: adc4 4bbe b64a 00bf ee0c 82bc 9a44 d0ba
00000320: 3d90 0b3e 47ef f23e 3727 cdbd d16f fcbd
00000330: 711d d83d 4596 5abe f01d b8bd 6236 00be
00000340: 7ad3 383e 10e7 e73e ef18 88be 6a92 1a3e
00000350: a8a5 3d3e 50a1 a7be 8f2d 5cbe 5db0 8a3d
00000360: 03dd dabd 5175 11bf 3355 283e dc48 e23e
00000370: b3b4 4f3d c9db 91be 4107 b53d 7b69 523e
00000380: fca4 173e 0628 48be 1045 d33b dbcc 283f
00000390: 5064 843c ec7c fdbd f627 88be f2a8 423f
000003a0: 0399 98bd 9307 8bbe 48fe 4d3d 433a 413f
000003b0: b55f 85be 8da1 c43c ec55 b53d 14b5 2c3f
000003c0: d1bf 2a3f 44d3 453e 9944 043e 530d cdbd
000003d0: 354d d43d c4d6 a3be 9143 1f3d 34e3 fbba
000003e0: 7cb0 ff3e e406 1a3e c386 eebd c062 87bd
000003f0: 5292 0e3e 5b5a 90be 4d7b 843c dfed afbb
0.2850077 -0.11550374 0.19573498 -0.04688285 0.2863756 -0.40320653 0.082284264 0.0627138
0.15311097 0.076107614 -0.19570775 -0.24543159 0.20599407 -0.5076006 -0.081524335 -0.10616152
0.26647103 0.15025903 -0.08455184 0.38330474 0.01950645 -0.56503785 -0.076470196 0.39417675
-0.2489379 0.45546088 0.12480989 0.2678992 -0.12342841 -0.45736098 0.21087344 0.16615152
0.08184866 0.42334175 0.04503617 0.06783054 -0.10996482 -0.509716 0.25367975 0.013213413
0.22372887 0.42554715 0.16087009 -0.17610121 0.00048089548 -0.48668233 0.41056228 0.028104564
0.24867381 -0.7847226 -0.13816683 -0.20521066 0.20341505 0.053689405 -0.056349464 -0.34393403
0.19859305 -0.57899326 -0.16227065 -0.5041854 0.054142293 -0.06447016 -0.17942375 -0.36526868
0.18179 -0.5671315 0.1888445 0.3951821 -0.058228943 0.013540111 0.16005522 0.22580324
-0.0023951237 -0.3276799 -0.14036608 -0.16254719 -1.0058193 0.060630728 -0.20747632 -0.1193194
0.22556585 -0.017560441 0.11512914 0.037297018 -0.52480614 0.0015363999 -0.017368453 -0.06711112
0.14378496 -0.10406476 -0.11427562 0.4022045 -0.22262979 0.120396726 0.010968378 0.42583314
0.7501149 0.50124824 0.043895416 -0.21883245 0.3466772 -0.35808784 0.1602873 -0.08659534
0.5573558 0.18343064 -0.0013556122 -0.41474754 0.30033484 -0.3499215 0.04359849 -0.27008995
0.22723672 -0.04335929 -0.17165631 -0.2963495 0.3264299 0.06255076 -0.08949777 -0.1953871
0.4073881 -0.38223463 -0.07169413 0.24206504 0.0663371 -0.15197146 0.009259795 0.27798477
0.6198665 -0.31067833 0.030589683 -0.19208588 0.18844996 0.09088708 -0.07098632 -0.11922945
0.39141387 -0.12790576 -0.08164824 -0.09347991 -0.21261995 0.15763396 0.021732694 -0.093010515
0.18963587 -0.17366837 -0.06969906 0.44559312 0.21773985 -0.061917398 0.022215407 0.66410184
0.4276905 0.17631707 0.063768566 0.33532986 -0.060239363 0.07103281 -0.12413155 0.3069838
0.38060203 0.2602451 0.17898868 0.3296892 -0.0867501 0.44241807 0.19714539 0.25209346
0.23564574 -0.6082999 -0.027817171 0.18061964 0.4097523 0.079452686 -0.123795256 0.2539882
0.20891719 -0.39850637 -0.04740095 0.4124773 0.4374108 0.102410115 -0.022707775 0.4831746
0.178558 -0.3931223 0.028343732 0.6333157 0.43436262 0.019109711 -0.006718022 0.5992866
0.24275318 0.50634634 -0.15593526 0.24327987 -0.19899245 -0.50114 -0.015875306 -0.0015889585
0.13629241 0.4744818 -0.10017245 -0.12326015 0.105524905 -0.21346386 -0.08990085 -0.12520745
0.18049422 0.45293474 -0.26581523 0.15094915 0.18520224 -0.3274026 -0.21501754 0.0677192
-0.10686686 -0.56819636 0.16438751 0.44196212 0.050709438 -0.28487995 0.08839274 0.2054805
0.1480903 -0.19546518 0.006447442 0.65937585 0.016161114 -0.123773426 -0.26592988 0.7603904
-0.0745106 -0.27154216 0.05029133 0.75479525 -0.2604958 0.024002815 0.08854279 0.67463803
0.6669894 0.19318873 0.12916793 -0.10012307 0.103662886 -0.3199979 0.038882796 -0.0019217492
0.49939334 0.15041691 -0.116467975 -0.06610632 0.13923004 -0.28193936 0.016172076 -0.0053689326

fc1.bias f4 [256]
00000000: b842 e3be 97ca 293e 4739 98be 7745 a6be
00000010: 4448 a6be 1f2f f0be 2e30 07bf c015 f4be
00000020: f0d9 f4be bd63 a1be 4777 c5be 6958 eabe
00000030: 4f68 8ebe fe43 f2be a4c2 97be fa1e 0dbf
00000040: 913e ffbe 9407 84be 1f21 2dbf d7a4 1ebf
00000050: a69a 41bf 7529 debe 449b debe 0322 02bf
00000060: 1f7e 6cbe 097e 2abf 4897 c1be e90a 8dbe
00000070: 624e 09bf 82db 86bd 47ee 63be 36a5 e6be
00000080: 7fc8 563d c898 c73d 7046 85be 24a7 f6bd
00000090: 4077 81be b291 f5be 5215 59bf 3477 58bf
000000a0: 94a8 73be 9910 17bf 370a 27bd 5c80 b0bd
000000b0: 50df c5bd f0e2 1dbe 9caf 99be d218 03bf
000000c0: 756e 5abe 91ed 0fbf 1472 123e ce7a 10bf
000000d0: 2216 aebe 11b2 41be efdc bcbe 019b c2be
000000e0: 8103 13bf 17ef e3bd 136f 08bf 071f 56bf
000000f0: e642 d8be c9e4 b1bd a1bc 79be eaf0 f2be
00000100: e9c0 9ebe e3e4 28be cc92 65be 110b e2be
00000110: a4b2 d4be 9e94 f9be 4966 e3be b05b 32be
00000120: ecf5 01be 9960 c7be 1a40 a2be 28b6 19bf
00000130: f835 07be 3fa8 12be f439 6abc 9242 1bbe
00000140: fc32 00be 4d5b e2be 8afa 5ebf 5c36 59be
00000150: 22dd 2fbf 02f5 3abf 2078 93be 86ed fdbd
00000160: a285 d2be 861d 66be 52f3 3fbf ca70 98be
00000170: aee5 a6be 56c5 12bf 7878 cdbd 5d43 07bf
00000180: 1365 bcbe 164b e3be a868 d3be 5e3a 0ebf
00000190: 8cc7 33bf f23f 98be f437 08be 3128 0cbf
000001a0: 8895 84be 6352 42be e009 87be e455 dabe
000001b0: 5a9a c9be 8a24 99be d1d5 9abe 140b c3be
000001c0: cc1e c1be eb3d d0be fe86 09bf a9f8 92be
000001d0: a9de fbbd 0d80 04bf aad3 16bf 0df8 fabe
000001e0: 4173 74be 8755 f5be a49d 5bbf c0e2 8dbd
000001f0: 8be6 9cbe ac5c 1b3e 1ad4 c23d d60c bbbe
00000200: 9c47 76be f532 7cbe d4f6 0dbf e79a b3be
00000210: 799b 19be ba8a e8be 13ce 51bf 4a47 35bf
00000220: c514 09bd 470a c5be 57c0 afbb 3e93 27bd
00000230: bf53 fabe 8e78 9ebe d3e5 5ebd ead0 9dbe
00000240: 9b5f 31bf bca0 a2be 7799 e7be 95c1 25bf
00000250: d1a2 03bf 4660 cebe bf72 c9be b9be 93be
00000260: c199 46be 3c79 ffbe 520a d1be 8c7e 33be
00000270: e4dd 14bf 3fea 2f3d 32ea 1abf dd56 05bf
00000280: 07ea 91bd 782b 11bf a055 6abe 13aa 5fbe
00000290: d8f5 c2be 84fd 9abe e7a9 923e 9a7f 28bf
000002a0: 7262 69be 60ce 1139 dfca e7be 1188 edbe
000002b0: 8a0c e1be 270f 17be f649 c3be 50c9 31be
000002c0: d7ac d1be 22b2 92be 457b b8be ede5 f5bd
000002d0: 9167 55be d854 32be 4787 cbbe 704e babc
000002e0: 8a5a d7bd efdb 7bbe 94ad 19be 44cd 2abe
000002f0: 86b9 94bd e69a 38bf cfac bcbe 3f6d 2ebe
00000300: c29f 02bf 7e1a b9bd 87cf 19bf bdf8 15be
00000310: ab2a debe 1bfb febe 93a9 0abf 2f55 27be
00000320: 3335 e3be 2823 c2be f355 f2bd d9ab 00bf
00000330: ae4b 73bd 494c f7be 2df2 4fbe 1cc4 b7be
00000340: 0cff e6be e5c1 debe 8905 b1be d8d9 acbe
00000350: 3fb0 b6be 093e a1be 3dba 26be 2bc9 c2be
00000360: 1e6e aebe b560 653c 87e2 bcbd ac87 69be
00000370: c785 f9bd 717d cbbe 5c4a e9be e1e7 c0be
00000380: 6a17 8ebe 7645 b9be 85fb 9dbe e10c 94be
00000390: 5c2c 06be d420 dcbe 55cf 4fbe 9400 2cbf
000003a0: d9d2 1abf ff9b 49bf 5a3b 24bf e622 c9be
000003b0: 0f28 babe 93b6 9abe 618f b0be 7b8e ecbd
000003c0: 6683 e1be 6bb2 bfbe 1bfa 26bf 472b afbe
000003d0: 68cd 11bf 5d72 23be a1a5 90be 8c09 aebe
000003e0: 1343 11bf 6ea1 a2bd 839c ccbe 3567 09bf
000003f0: d3f7 34bf eeff 1dbf ede9 d1be e8a7 a1be
-0.4438684 0.16581188 -0.297312 -0.32474872 -0.3247701 -0.4691095 -0.5280789 -0.47672844
-0.47822523 -0.31521407 -0.38567564 -0.45770577 -0.27813956 -0.473175 -0.29640687 -0.5512539
-0.49852422 -0.25787032 -0.67628664 -0.61970276 -0.756266 -0.43391004 -0.43477833 -0.5083315
-0.23094986 -0.66598564 -0.3781073 -0.27547386 -0.5363523 -0.065848365 -0.22258864 -0.4504792
0.0524373 0.097459376 -0.26030302 -0.12043598 -0.25286293 -0.4796272 -0.8479816 -0.8455689
-0.23794776 -0.590097 -0.040781226 -0.086182326 -0.09661734 -0.15418601 -0.30016792 -0.5120975
-0.21331199 -0.5622187 0.1430133 -0.56437385 -0.3400126 -0.18915583 -0.3688731 -0.38008884
-0.5742722 -0.11129587 -0.53294486 -0.83641094 -0.4223854 -0.086862154 -0.24388362 -0.47449428
-0.31006554 -0.16493563 -0.2241928 -0.44149068 -0.41542542 -0.48746198 -0.44413975 -0.17417789
-0.12691468 -0.38940886 -0.3168953 -0.60043573 -0.13204181 -0.14321993 -0.014296044 -0.15162113
-0.12519449 -0.44210282 -0.8710104 -0.21212143 -0.68696797 -0.730301 -0.28802586 -0.123988196
-0.4111758 -0.224722 -0.7498065 -0.2977355 -0.32597107 -0.5733236 -0.10032743 -0.52837163
-0.36795864 -0.44393224 -0.41290784 -0.5555781 -0.7022636 -0.29736286 -0.13302594 -0.5474883
-0.25895333 -0.1897674 -0.26374722 -0.42643654 -0.39375573 -0.2991069 -0.30241254 -0.3809439
-0.3771881 -0.4067224 -0.53721607 -0.28705338 -0.122983284 -0.5175789 -0.58916724 -0.49017373
-0.23872091 -0.47916815 -0.85787416 -0.06928015 -0.3064464 0.1517207 0.095131114 -0.3653323
-0.24050754 -0.24628814 -0.55454755 -0.3507912 -0.15000714 -0.4541834 -0.8195507 -0.70811903
-0.033467073 -0.38484403 -0.005363505 -0.040911905 -0.48892018 -0.3095135 -0.054418396 -0.3082345
-0.6928651 -0.31763256 -0.45234272 -0.6474851 -0.51420313 -0.40307826 -0.39345357 -0.28856447
-0.1939459 -0.49897182 -0.40828186 -0.17528743 -0.5815108 0.042948004 -0.60513604 -0.5208567
-0.07124715 -0.56706953 -0.22884226 -0.21842222 -0.3807819 -0.30271542 0.2864525 -0.65819705
-0.2279146 0.00013905158 -0.45271966 -0.46392873 -0.4395488 -0.14751874 -0.38142365 -0.17361951
-0.4095218 -0.2865153 -0.36031547 -0.120067455 -0.20840289 -0.17415178 -0.39751646 -0.02274248
-0.10515316 -0.24595617 -0.15007621 -0.16679865 -0.07261948 -0.72111356 -0.36850592 -0.17033862
-0.5102502 -0.09038256 -0.60082287 -0.14645667 -0.43391928 -0.49800953 -0.54165 -0.16341089
-0.44376525 -0.37917447 -0.118328 -0.5026222 -0.059398346 -0.48300388 -0.20307226 -0.35891807
-0.4511646 -0.43507305 -0.34574535 -0.33759952 -0.3568134 -0.31492642 -0.16281982 -0.38044104
-0.34068388 0.0140001075 -0.09222894 -0.22805661 -0.12183719 -0.39744142 -0.45564544 -0.3767691
-0.2775224 -0.36185807 -0.30855957 -0.28916076 -0.1310286 -0.42993796 -0.20293935 -0.6718838
-0.6047798 -0.78753656 -0.64153063 -0.39284438 -0.36358687 -0.30217418 -0.3448439 -0.115506135
-0.44045562 -0.3744081 -0.6522538 -0.34212705 -0.5695405 -0.15961595 -0.28251365 -0.3399166
-0.5674297 -0.079409465 -0.3996316 -0.53673106 -0.7069065 -0.6171864 -0.40998784 -0.31573415

fc2.weight f4 [128, 256]
00000000: c1cb 31be ee45 b63d b598 d03b 5e4e 1fbe
00000010: f5dc 793e 87fa 81bd a715 1ebe 06d6 ef3d
00000020: 8cf4 b23d 2f8e 9d3d e959 1fbc 93ff bfbd
00000030: 8ec6 d3be 51f1 88be 023b 863e eb83 053e
00000040: 122b 61bc f02b 933d 3146 d83d 680f b8bc
00000050: 9bfe be3a b0ba babd abb1 1fbe a6e5 463e
00000060: 52a4 273e 171f c6bd 6a8f 733c ee68 c2be
00000070: 92f1 02bd 0fa2 063f c7b2 05bf 6e8f 793e
00000080: 3da4 89bd bce3 bd3d f599 d5be ef96 203e
00000090: 3142 24be c8cc cfbd 3b92 77be 5de7 473e
000000a0: 2ad0 563e f5ff 173e 9203 753e 13c3 f2bd
000000b0: b3cd 8ebb 93a8 72bd feb0 b43d 0b34 803e
000000c0: c3a4 d83e 3d8c 3e3e 43d8 4abe aaf1 6f3e
000000d0: 230f 0a3e 55a5 0d3e beb2 ccbe 442c b6bd
000000e0: 28b6 d13c c1de 1e3f 1ad5 15bd f237 943d
000000f0: 04a6 0ebf f057 ce3c 356c 94be 8e49 1dbe
00000100: eba0 c6bd b7bd 293e 46d6 0c3e 8044 f83d
00000110: e0b2 52be 8f9b 10bd 500d 803e 2e75 903e
00000120: 7c5d a93c 3553 88be c69f 58be fd83 80bc
00000130: ea1c e93d 1682 71be c952 b83e d668 8a3c
00000140: ac8a 10be 2030 b63d b952 77be daa1 a7be
00000150: 6846 aabd 72d0 313e 4296 353e c1de 5d3e
00000160: 768c 3abe d393 4dbc 5634 38be 8f80 193e
00000170: 7b4a 3c3d cd1c 773e 13a5 913e b6cf 643d
00000180: 40d2 3bbd bb73 7f3e ca0c 3b3e 31f9 3c3d
00000190: a8a0 0dbf 5417 93be 5923 84bd 88d4 c9bd
000001a0: a473 18be 29b0 1fbe ed24 ee3d f04a cb3e
000001b0: 8016 cc3e 2a51 093e 91c0 fabd 1646 b7bb
000001c0: 5937 a33c 14a8 d73d 1f20 51be 503f 5f3b
000001d0: 3f5d b9bd b575 913e 6fc6 08be b2a9 45bd
000001e0: bca7 953e a62f cd3d a2f2 e63d c4d9 a1bd
000001f0: 4faf 5e3e 5b58 47be cbd7 75be ec34 5a3e
00000200: a62a ddbe e2c1 c33d bca1 c73d cf96 1cbe
00000210: 712d 983d ad22 0cbe 508d 613e 9af3 213e
00000220: 3b1d de3d 93c1 56bd bc08 e4be 9fed aebc
00000230: 848f da3d 9ae0 0ebe d946 713d 7c10 c03c
00000240: aca7 17be db0a 183d c538 013c d8f2 613e
00000250: b9be 9c3e 09c4 223e 119e 41be 4b26 da3d
00000260: bca0 77bd d269 8ebe 159e 75bd 73f2 19be
00000270: 5830 1f3d 37a0 0dbf dca5 353e b543 113e
00000280: bc8f 9f3e ef48 febe d7fb fb3d f46c 833e
00000290: 259c 873d ebae 043f 441a 6e3e 21a2 08bd
000002a0: f678 e73d 0041 75be 9202 32be 5194 43be
000002b0: 59a0 c4bd 383c 703e b992 c53e c22c d3be
000002c0: 41ee cabd e750 50be 16bc 5f3d ae6d 07bf
000002d0: d2bb 873d c447 0fbe b9e8 b63e ef3e 33be
000002e0: fa69 03be e45f aebe 1a82 1e3e a832 d53e
000002f0: be76 6f3b 886e 46be 0698 24be fafe 9ebe
00000300: fc5e bcbd 1c20 15be 163d aabd 5a19 a8be
00000310: 3060 47be 5cfe aabe 415d 763d 4d43 bd3e
00000320: a2a6 19bd 23ee 10bd e354 0d3d 2a29 483e
00000330: a9b0 873e 5baa 063d 440e 05bc 3930 08be
00000340: bc6a 713d b6c4 8e3e c10f 6b3c 01d9 083d
00000350: 4beb 0abe afa0 98be 2983 0cbe e64b d7bd
00000360: 7cf9 9b3d 5218 71bd 6d8b 94be 7429 083e
00000370: 4753 ca3d 2940 6a3e ae4f b2bd 80dd 683e
00000380: afbe ad3e 12cf a03d 0a4b 04be c468 a13c
00000390: 4125 953d 642b eb3d 43a0 00bf 24b6 943e
000003a0: 9c81 15be 20ab 6dbd 38fe 8fbd cf7b 673d
000003b0: b87b 23bd 926b 643d a399 bebd 15a8 673d
000003c0: 6241 623d 8e5f 073e 5ede e2bd d833 56bd
000003d0: 675e b1be 44c4 2d3e cf2e 973d 9c67 e9be
000003e0: b1ea 823d 6e8f 163e 7845 f43d e8ae 28be
000003f0: 2d00 81bc 1235 77bd 545a 513e da87 aebb
-0.17362882 0.08900057 0.0063658603 -0.15557238 0.24400695 -0.063466124 -0.15437947 0.117107436
0.0873805 0.07693135 -0.009726026 -0.09374919 -0.41362423 -0.2674661 0.26216894 0.13038604
-0.013743179 0.07186115 0.10560263 -0.022468284 0.0014571728 -0.09117639 -0.15595119 0.19423541
0.16371277 -0.09673899 0.014865736 -0.3797068 -0.03196866 0.5259103 -0.5222592 0.2437112
-0.06720779 0.092719525 -0.41719022 0.15682577 -0.16040875 -0.10146481 -0.24176876 0.19521852
0.20977846 0.14843734 0.23927143 -0.11853614 -0.0043580174 -0.059242796 0.08822821 0.25039706
0.42313203 0.18608184 -0.1980906 0.23432031 0.13482337 0.138326 -0.3998012 -0.08895162
0.025599554 0.62058645 -0.036580183 0.07237233 -0.5572207 0.025188416 -0.28988805 -0.1536009
-0.096986614 0.16576277 0.13753614 0.1212244 -0.20576048 -0.035304602 0.25010157 0.282144
0.02067446 -0.26625982 -0.21154699 -0.015687937 0.11382468 -0.2358478 0.3600066 0.016895693
-0.14115399 0.08895898 -0.2415265 -0.3274067 -0.0831421 0.17364672 0.177331 0.21667005
-0.18217644 -0.012547451 -0.17988715 0.14990447 0.045969468 0.2413208 0.28446254 0.05586215
-0.045854807 0.24946491 0.18266597 0.046136085 -0.55323267 -0.28728735 -0.064520545 -0.0985499
-0.14887863 -0.15594544 0.11628137 0.3970561 0.39860916 0.13409868 -0.122437604 -0.0055930717
0.019923853 0.10530105 -0.2042241 0.0034064837 -0.090509884 0.28410116 -0.13356946 -0.048257537
0.29229534 0.10018854 0.11276747 -0.079028636 0.21746562 -0.19467299 -0.240081 0.2130925
-0.431966 0.095584646 0.09747645 -0.15291904 0.07430542 -0.13685103 0.22026563 0.15815583
0.10845419 -0.0524307 -0.44537914 -0.021353541 0.10671905 -0.13952866 0.058905456 0.02344536
-0.14810055 0.037119728 0.00788707 0.22065294 0.3061426 0.15895094 -0.18907954 0.10651835
-0.060456023 -0.2781511 -0.059965212 -0.15033893 0.038864464 -0.55322593 0.17739052 0.14185984
0.31164348 -0.4966502 0.12303894 0.25669062 0.06621579 0.51829404 0.23252207 -0.033357743
0.11302368 -0.23950577 -0.17383793 -0.19099547 -0.096008964 0.23460472 0.38588503 -0.41245085
-0.099087246 -0.20343362 0.054622732 -0.5290173 0.06627621 -0.1399222 0.35724428 -0.17504476
-0.12833396 -0.34057534 0.15479317 0.4164021 0.0036539282 -0.19378102 -0.16073617 -0.31053907
-0.09197804 -0.1456303 -0.083124325 -0.32831842 -0.19470286 -0.33397186 0.060147528 0.3696541
-0.03751243 -0.035383355 0.034504782 0.19546953 0.26501969 0.032877307 -0.008121077 -0.13299645
0.05893968 0.27884454 0.014347018 0.033410076 -0.1356632 -0.29810092 -0.13721909 -0.10512523
0.07615945 -0.058861084 -0.29012623 0.13297063 0.09879165 0.22876038 -0.08706604 0.22740746
0.33934543 0.078519955 -0.1291925 0.019703276 0.07282496 0.114828855 -0.5024454 0.29045212
-0.14600223 -0.058024526 -0.0703091 0.056514557 -0.03991291 0.05576665 -0.09306648 0.05655678
0.055238135 0.13220045 -0.110775694 -0.052295536 -0.34642336 0.169694 0.07381975 -0.4558686
0.0639242 0.14703152 0.119273126 -0.16472971 -0.015747154 -0.060353346 0.20444614 -0.0053262534

fc2.bias f4 [128]
00000000: bf1e 66be d203 3abe 888f ffbd e5af 39be
00000010: 346c 23be e4cd 96be 1cb9 c2be 22d6 ecbd
00000020: 5a28 95be 2819 5dbe 36fc 9dbe 821c c9bd
00000030: cf65 91be c371 e6be 7977 19be d841 47be
00000040: 63c2 31bd 0790 59be 78c6 e4bd 3ca9 a6bd
00000050: 9a9d 2fbe 8e5a 7fbe f99d 55be 6feb 8d3c
00000060: 1362 84be aa57 cabe f3ac f0bd 79d8 07be
00000070: 4556 bbbe f75b 64be e01f 9ebe 6fd9 18bc
00000080: f810 88be dbfb 14be 2530 9dbe 5f69 4abe
00000090: ae14 5dbe 79a4 a1be bec5 22be 4419 a6be
000000a0: b0c0 adbe 21a6 85bb 3ad8 463d c8de a7be
000000b0: fb2b 54be 26ae e6bd 774b 0abe be11 4ebe
000000c0: 59ba 55be 86db 0fbe 70f9 9abd a920 7ebd
000000d0: e596 82bd 69bf b7be bca8 cebe 16b1 84be
000000e0: 68b8 6bbe 4b09 7fbe 08a1 76be ff5d b3be
000000f0: 1905 51be 3d9c f8bd 28f4 72be 2efa d9be
00000100: faeb 54be 2c22 6cbe 3b0a 3a3d 4010 a4bd
00000110: 9769 23bf 13ae b0be 229b 3bbe fb00 f9be
00000120: b3cf 2cbd 7404 c9be 5e1a bcbe 8b9d 9cbe
00000130: 6fc3 bdbd c02d aebe 75ea babd 5037 b0be
00000140: 344d 07be abb2 70be 5283 c2bd 37b1 44be
00000150: b845 9bbe 296c 5cbc e71c 4cbe b5c4 02bf
00000160: 4fdc 9cbd 7d18 70be c9ea 51be b3f9 6dbe
00000170: 41b7 87be 4450 d9be c2ee 11be f62b b5be
00000180: c78b 64be b1d8 9cbe 1203 60be 3ecc a5bd
00000190: e5ab 38be 157c f0be f4be c4bd 0f1a 953b
000001a0: 7791 a9bc 5132 9cbe 52fb cebe 77a7 99be
000001b0: fa6d 32be f740 5cbe bf3e 033d 31b9 b0be
000001c0: b867 cabe d5d7 e0bd c49d 21be df5f 44be
000001d0: b2f5 34be 2bdf 9fbe 378b 30be cb07 d2be
000001e0: 32b2 90be 86af b5be 0d89 e2bd 196b febd
000001f0: e84b b5bd cb06 b03c aed9 09bf 02b6 14bf
-0.22472666 -0.1816552 -0.12478548 -0.18133505 -0.15959245 -0.29453957 -0.38031852 -0.1156428
-0.29132348 -0.21591628 -0.30856484 -0.098198906 -0.28397986 -0.45008668 -0.14986981 -0.19458711
-0.043398272 -0.21246348 -0.111706674 -0.08137748 -0.17149964 -0.24936888 -0.20861043 0.017324178
-0.25856075 -0.39520007 -0.117517374 -0.13266172 -0.36589256 -0.22300707 -0.30883694 -0.009329184
-0.26575446 -0.145492 -0.30700794 -0.19766758 -0.2158992 -0.31570795 -0.15895745 -0.3244115
-0.3393607 -0.004078642 0.048546053 -0.32787156 -0.20719902 -0.11263685 -0.1350535 -0.20123956
-0.20871867 -0.14048585 -0.07567108 -0.062042866 -0.06376437 -0.35888222 -0.4036311 -0.25916356
-0.23019564 -0.24905889 -0.24084866 -0.3503265 -0.20412101 -0.12139175 -0.2372595 -0.42573684
-0.20793143 -0.2305991 0.045419913 -0.08010912 -0.6383299 -0.34507808 -0.18320897 -0.4863356
-0.042190265 -0.3926121 -0.36738867 -0.30588946 -0.092657916 -0.3401928 -0.091267504 -0.344172
-0.13213044 -0.23505656 -0.094977036 -0.19208227 -0.3032663 -0.013453522 -0.199329 -0.510814
-0.07659208 -0.23446842 -0.2049972 -0.23239784 -0.26507 -0.4244405 -0.14251235 -0.35385102
-0.22318946 -0.30634072 -0.21876171 -0.08095597 -0.18034323 -0.46969667 -0.09606734 0.0045502256
-0.020699246 -0.30507138 -0.40426117 -0.30010578 -0.17424765 -0.21509157 0.03204226 -0.3451629
-0.39532256 -0.10978667 -0.15782839 -0.19177197 -0.1767185 -0.3122495 -0.17240606 -0.4102157
-0.28260952 -0.35485476 -0.110612966 -0.12422771 -0.088523686 0.021487614 -0.5384778 -0.5809022

fc3.weight f4 [2, 128]
00000000: 0c49 09be 8ee4 76bd 7e0b 36bf 5005 c0be
00000010: 19b0 b43e 04a7 cb3e b427 cf3e fea7 e03e
00000020: c214 843e 213a 903e db8e 76bd 2290 c9bd
00000030: a717 abbe 6435 f63e 7360 8dbe 185b 70be
00000040: 0ec2 aebe 33f2 863d 8e11 88be c12b 443b
00000050: 45f6 803d 3dde 3dbe 292c 5b3e 1d61 f2bd
00000060: d8fb 7c3e e024 f6bd 86b3 cabe a519 7a3e
00000070: 1d26 45be 3a4f cc3e a9cd 0c3e a3a9 67bd
00000080: 2a0c 5e3e e861 0a3f 67f7 283e 5674 693e
00000090: b640 853e 01be c63e c229 9ebe 4f68 91be
000000a0: e246 64be a57f 04bd 93dd c5be 5941 163e
000000b0: ec0b a73e 1deb f3bc 591c ad3e 59b9 bcbc
000000c0: 0b67 fabe 59dd c8bd 354e 973e 2b7c 54be
000000d0: 6093 8dbc 8406 75be f491 bebe 06a2 9e3e
000000e0: 7f33 b6be 140e 1d3f 0200 4f3e faa8 abbd
000000f0: 7eb3 e13d c0c8 29be 346a b8be 8346 71be
00000100: b935 0c3f 194c 1b3d c3e7 dd3e 6503 003e
00000110: 5938 cc3d 0c8e 23be bc33 f7bc e32b 6dbe
00000120: c55a 2dbe aae8 a9be 27e4 963e 6ea2 cebe
00000130: 1c26 42b9 19a6 0fbe c0c4 ab3c 0b70 323f
00000140: b445 7e3e 1d48 75be 55c5 b53e dd0d 053f
00000150: 99d6 403e fd94 c0bd e75c 02bc abd9 f23e
00000160: 63ad 27bd d08c c23d 3f8c 32be c73f 1d3e
00000170: 0cf6 0ebf 5b8c 60be 846d 1e3f 8fc6 d13e
00000180: 07ca 40be 5f98 303e ead4 763e b585 73be
00000190: e65d 86be 9388 fdbb ce3e b23e 08c1 2e3e
000001a0: ab24 123f 3256 58be ff9a abbe 658c 443e
000001b0: aee7 c7be b16d 85be 574d 1f3e c5f7 173d
000001c0: 3eac 4b3e 6caa 75be 9c66 09bf aa3c cd3e
000001d0: 4afc 49be ff2a aabe 6ee2 063f a651 7e3e
000001e0: c41b 273e 1aed 7cbe 4495 e3bd 96d7 1d3e
000001f0: 9af2 41bd bba0 57bd 7e4a c5bd d48c 5dbe
00000200: 51d2 e2be a708 e8be d0e4 04bf 3205 02be
00000210: a754 6e3f 2f7f 763e 384a 0f3e a2ed 4c3f
00000220: da2e 1abe 547f 89be 3ba1 eebe 7045 e1be
00000230: 4b46 93be 2dbe dfbd c644 d23d 67b8 933d
00000240: f204 83bc 5443 dbbe a18d 97be 3304 f4be
00000250: eb2c f7be f1d0 933e 0bff 23bf e0de 2c3f
00000260: c8ac 1e3c 334e 29be 37ae 803d c06c e33c
00000270: 16ec 1fbe 6376 653c b9be a03e 0577 4a3f
00000280: ed49 283f d8bf 7f3b 4d3f ddbe 7b66 773e
00000290: d632 663e 2463 723e d306 703d 3847 90be
000002a0: 30d9 efbe ad05 8e3e dad1 be3e d23e 05bf
000002b0: 1dd9 963e 8c92 b0be e043 273f 0e7c 1e3f
000002c0: a441 c7bd 1369 cd3e b08a c0be 47a2 c9be
000002d0: 255e 1c3e b14d 0abf 8c34 603e 237d 35be
000002e0: 1866 8abe cfe8 ae3e 2873 b13e ebaf ee3e
000002f0: f539 db3e 6b5e 0bbf 1014 c43e f406 dbbe
00000300: 73cd a23e d975 1d3f 4112 6b3e b24f 93be
00000310: d218 153f ae87 d63c 4fce a5be 722a ffbd
00000320: 69fd cbbd a728 933d a35b 1f3f fa83 82bd
00000330: 55aa ab3e f089 323f e028 193f 2e48 05be
00000340: 5145 733d e5d9 8c3d 5887 ff3e 27ff c3be
00000350: 7fdd 1b3f e21b 323f 2d60 143f 34ab b93e
00000360: e647 19bf fa63 08bf 6726 ea3e 9810 493e
00000370: bdda 09bd 46ca 09be 347b d63e 6a6b f33d
00000380: c38b c3be 56ac 35be b826 13be 5373 03bf
00000390: bfb8 cabc 5378 2d3f 9807 a73e e6ba 963e
000003a0: 0b7d 7fbe 12a4 333e 3eed d5bd 2164 bbbe
000003b0: dd92 2ebe 14d7 19bf 2fc7 9f3d 4927 1e3f
000003c0: 3f34 9fbe d0a4 33be f29c b1bd 955f 2c3f
000003d0: f62a 59be ee35 69be 8adf 3e3e db6a f3ba
000003e0: b1e1 1b3f 3b96 ed3d b8c2 0a3f 7bb0 7dbe
000003f0: ffdc 823e 48db 393e 8e98 f1be a2f1 ccbe
-0.13406771 -0.06027656 -0.71111286 -0.37504053 0.35290602 0.3977586 0.4045998 0.43878168
0.25797087 0.2816935 -0.06019483 -0.09841944 -0.33416483 0.4808761 -0.27612647 -0.2347225
-0.34132427 0.065891646 -0.26575893 0.0029933306 0.06296972 -0.18541808 0.21403565 -0.11834929
0.24705446 -0.12018752 -0.3959009 0.24423845 -0.1925282 0.39904195 0.13750328 -0.056558263
0.21684328 0.54055643 0.16500627 0.22798285 0.26025933 0.38816836 -0.30891234 -0.28399894
-0.22292665 -0.032348294 -0.3864561 0.14673366 0.32626283 -0.029775197 0.3381069 -0.0230376
-0.4890674 -0.09807844 0.29551855 -0.20750491 -0.017282188 -0.23928267 -0.37220728 0.3098299
-0.35586163 0.61349607 0.20214847 -0.08381839 0.110205635 -0.16580486 -0.36018527 -0.23562054
0.54769474 0.03791437 0.43340883 0.12501295 0.09971685 -0.15972155 -0.030176036 -0.23161273
-0.16929157 -0.3318532 0.2947094 -0.403583 -0.00018515479 -0.14028205 0.020967841 0.69702214
0.24831277 -0.2395329 0.35502115 0.5197428 0.18831863 -0.09403417 -0.00795672 0.47431692
-0.04093684 0.09499514 -0.17436312 0.1535636 -0.5584419 -0.21928541 0.6188586 0.409718
-0.18827067 0.17245625 0.24104658 -0.23781474 -0.26243514 -0.007737228 0.3481354 0.17065823
0.570872 -0.21126631 -0.3351669 0.19194181 -0.39043945 -0.2606025 0.15556847 0.037101526
0.19889924 -0.23990792 -0.53672194 0.40085346 -0.19725147 -0.33235928 0.52689254 0.24835834
0.16319185 -0.24699822 -0.111124545 0.15414271 -0.047350504 -0.05264352 -0.09633349 -0.21635753
-0.44301084 -0.453191 -0.5191164 -0.12697294 0.9309792 0.24071954 0.13993156 0.800501
-0.15056935 -0.26854956 -0.46607384 -0.4399829 -0.28764567 -0.10924945 0.10267024 0.07212906
-0.015993569 -0.42824805 -0.29600242 -0.47659454 -0.48276457 0.28870347 -0.6406104 0.6752758
0.009684749 -0.16533737 0.06283229 0.027761817 -0.15617403 0.014005276 0.3139551 0.7908786
0.657378 0.003902426 -0.43212357 0.24160187 0.2248033 0.23670632 0.058600258 -0.28179336
-0.46845388 0.27738705 0.3726948 -0.5204898 0.2946252 -0.34486806 0.65337944 0.6190804
-0.09729317 0.40119228 -0.3760581 -0.3938162 0.15270288 -0.540248 0.21895045 -0.17723517
-0.27031016 0.34161994 0.3465817 0.4661859 0.42817655 -0.54440945 0.38296556 -0.42778742
0.3179737 0.61507946 0.22956182 -0.2877174 0.58241 0.026187744 -0.32383963 -0.12459268
-0.099604435 0.07185488 0.622492 -0.06372829 0.3352839 0.69741726 0.59827995 -0.13015816
0.059392277 0.068774976 0.49907947 -0.38280603 0.6088485 0.69573796 0.5795925 0.3626343
-0.59875333 -0.5327755 0.45732424 0.19635236 -0.03365587 -0.13456067 0.41890872 0.11885722
-0.38192567 -0.17741522 -0.14370239 -0.51347846 -0.024746297 0.67761725 0.3262298 0.29439467
-0.24950044 0.17543057 -0.10445641 -0.3659983 -0.17048211 -0.6009381 0.07801663 0.61778694
-0.31094548 -0.1754334 -0.08672513 0.67333347 -0.21207795 -0.22774479 0.18639961 -0.0018571274
0.6089125 0.1160092 0.5420337 -0.24774353 0.25559232 0.18150055 -0.47186702 -0.400281

fc3.bias f4 [2]
00000000: 6bfe 8bbd 3b8d 4d3d
-0.06835636 0.050183516

bn1.weight f4 [256]
00000000: 0f7a 5d3f 6c60 9e3f ad71 763f 6c00 853f
00000010: bcb3 183f dc2a 8f3f 85f0 683f e637 8c3f
00000020: 8acd 783f db58 7b3f bf05 4e3f c23d c03f
00000030: ceef 9c3f b5b9 753f 7ef4 d13f 9014 5d3f
00000040: 3018 823f 16e6 af3f e339 7d3f e495 543f
00000050: 039a a83f 666c 7b3f 9fbe 7b3f 9d29 9b3f
00000060: def4 e03e 9405 8d3f 4d43 bc3f cfa3 543f
00000070: 9cc5 a53f dfb2 913f 67fe 9f3f ca50 613f
00000080: e21d 933f e5a6 763f 35ce 9e3f b8da 883f
00000090: ae82 913f 1693 9d3f 4a54 c63f 42ad 983f
000000a0: dbd1 6e3f fc52 013f f0b6 843f 3843 0f3f
000000b0: 22f1 423f 9de5 8a3f 05bf 523f 2551 b63f
000000c0: 7050 a43f f80b 963f 9834 833f e5e8 993f
000000d0: d071 7d3f 2a23 bb3f 8135 a43f cbe4 7e3f
000000e0: 6351 053f 8a76 aa3f c8e7 993f 7369 583f
000000f0: d9cb 833f fd7e 9c3f d2f4 783f d23c 823f
00000100: 1edc ae3f 434c aa3f c38e 2c3f 7709 803f
00000110: a4e3 6f3f 621d 753f 1cb2 793f c105 8e3f
00000120: 2cdb bd3f e1c1 773f d5d5 2a3f 3e6c 6c3f
00000130: ff83 ad3f 6abc 7e3f 9813 ae3f 3037 923f
00000140: cd48 773f 7d60 713f 2d01 bb3f f1ae 7a3f
00000150: c1e9 803f 5e67 313f c0d4 3a3f 8494 973f
00000160: ad2d 503f 41d7 7d3f be8f ad3f f65c 903f
00000170: 59fd 5f3f 779e a63f 6286 883f cdd2 7a3f
00000180: 0401 483f f6cd 513f 37d6 a93f 4e6e af3f
00000190: 5860 a13f 397e 8c3f fc62 813f 5542 923f
000001a0: 744f 933f de59 a63f d449 303f 8b18 963f
000001b0: ebd7 4b3f 9fa2 ac3f df73 493f 3740 933f
000001c0: 3864 c53f b25a 563f 9328 7b3f c458 8e3f
000001d0: d3ba 933f a8f6 9e3f a0a0 9f3f 19ac 873f
000001e0: 6dcd 233f 7e30 503f 1213 903f 78e9 673f
000001f0: b71e 9e3f 24d8 a23f ff87 533f 08f9 923f
00000200: 333d a23f f194 a53f 17d0 9b3f c08d 773f
00000210: 783d 7b3f 154b 673f 575d d43f d167 833f
00000220: 7784 8d3f 61ac a83f 2c04 1d3f 3f57 593f
00000230: ffa8 783f ceee 873f 7f48 103f f79d 903f
00000240: 551c 923f eaf5 123f 40c3 be3f fe5f 633f
00000250: 0bdc 8b3f 5f9e be3f 61ed 6d3f d748 633f
00000260: 186e a43f 89f1 933f b7cc 4d3f 8962 913f
00000270: 5042 9b3f 0730 803f ecb7 943f 0f43 423f
00000280: 0979 213f 2e07 933f e3d2 543f 12f9 ae3f
00000290: 60ab 563f ba25 a73f b50c 393f 5e1f 0540
000002a0: 0bcb 293f d5aa 8e3f 429f 743f d7e9 9a3f
000002b0: 83e8 903f 0729 bf3f 786b a13f a399 973f
000002c0: 4abe 943f 4a96 7c3f 070a ba3f efde 643f
000002d0: 3bcd 463f 4579 863f 0829 903f a183 613f
000002e0: 4e4b a93f a43b a43f 6836 983f 79ad 8b3f
000002f0: a579 7a3f c80b 843f cd90 833f 7248 a63f
00000300: 3f7e 963f 4fb4 5c3f 691c 6f3f 95a0 8f3f
00000310: 293d be3f 92ef 8f3f 6f45 5c3f 4a5c 3a3f
00000320: ad71 913f 0ed3 5e3f bcaa 5d3f c7f2 9b3f
00000330: 2993 5f3f 5894 573f f1cc aa3f edec 8e3f
00000340: ce2b 423f 0402 af3f 3cd4 673f f1cc 903f
00000350: 84a1 683f 3b8f 953f 86a7 ab3f a0c7 b63f
00000360: 68ad 803f f70d a43f d23b 623f a9b4 a53f
00000370: 7ad5 8a3f 5402 343f 171d 3a3f 6dcd 1a3f
00000380: 8997 4e3f a4ff 133f 5310 973f aa44 8c3f
00000390: af9f 9a3f 12b4 ab3f 0b73 b03f e780 c23f
000003a0: c2be cf3f 6500 363f 5960 903f 94d0 833f
000003b0: e957 9e3f 8221 793f 8c2c 773f c5d0 8d3f
000003c0: 34d0 883f ef1a 933f 0438 bd3f fb84 7e3f
000003d0: 1acf 833f 48c6 6f3f 8cef 973e 921a 593f
000003e0: 5236 a93f 62b0 9e3f a0fd a63f 8e3d 893f
000003f0: f6f2 413f b02d 343f 14df 7d3f 6391 8d3f
0.8651437 1.2373176 0.96267205 1.0390754 0.5964925 1.1184955 0.90992004 1.0954559
0.9718863 0.9818246 0.8047752 1.5018847 1.2260683 0.9598649 1.6402738 0.863595
1.0163631 1.3742092 0.98916453 0.83041215 1.3172001 0.9821228 0.9833774 1.2122074
0.4393682 1.1017327 1.4708039 0.8306245 1.295093 1.1382712 1.2499512 0.880139
1.1493495 0.9634841 1.2406679 1.0691748 1.1368005 1.2310512 1.5494473 1.1927874
0.93288964 0.5051725 1.0368328 0.5596194 0.7614919 1.0851322 0.8232272 1.4243513
1.2837048 1.1722403 1.0250425 1.2024199 0.9900179 1.4620106 1.2828828 0.9956786
0.5207731 1.3317425 1.2023859 0.845359 1.0296584 1.2226254 0.97248566 1.0174811
1.3660924 1.3304523 0.6740534 1.0002888 0.9370673 0.9574796 0.975374 1.1095506
1.4832511 0.9678021 0.6673253 0.92352664 1.3555907 0.9950625 1.359973 1.1423092
0.9659546 0.94287854 1.4609734 0.9792319 1.0071336 0.6929835 0.7298088 1.1842198
0.81319696 0.99156576 1.3559492 1.127837 0.8749595 1.301711 1.066601 0.97977906
0.7812655 0.81954896 1.3268498 1.3705537 1.2607527 1.097602 1.0108333 1.1426493
1.1508622 1.2996175 0.6886265 1.172624 0.7962634 1.3487128 0.7869243 1.1503972
1.5421209 0.8373214 0.98108786 1.1120839 1.1541389 1.2419024 1.2470894 1.0599395
0.6398533 0.81323993 1.125582 0.9059062 1.2353123 1.2722211 0.8262939 1.1482248
1.2674927 1.2936078 1.2172879 0.9670067 0.9814067 0.9034894 1.6590985 1.0266057
1.105605 1.3177606 0.6133449 0.8489875 0.9713287 1.0619752 0.5636062 1.1298207
1.1414896 0.57406485 1.4903336 0.8881835 1.0926527 1.4892081 0.92940336 0.8878302
1.2846098 1.1558086 0.80390495 1.1358196 1.2129612 1.0014657 1.1618629 0.75883573
0.6307531 1.1486566 0.8313429 1.366976 0.8385525 1.3058388 0.72285014 2.0800395
0.66325444 1.1145884 0.9555551 1.2102612 1.1320957 1.4934396 1.2610922 1.1843761
1.1620572 0.9866682 1.453431 0.8940267 0.77656907 1.0505759 1.1262522 0.88091475
1.3226106 1.2830701 1.1891603 1.0912315 0.97841865 1.0316095 1.0278565 1.2990859
1.1757277 0.8621263 0.93402725 1.1220881 1.4862415 1.1244986 0.8604345 0.7279707
1.1362816 0.87040794 0.86588645 1.2183465 0.87333924 0.8421073 1.3343793 1.1166054
0.7584809 1.367249 0.9055822 1.1312543 0.90871453 1.1684335 1.3410499 1.4279671
1.0052919 1.2816762 0.8837253 1.2945758 1.0846398 0.7031605 0.7270064 0.60469705
0.80699974 0.5781195 1.1801857 1.0958455 1.2079982 1.3414328 1.3785108 1.5195588
1.623009 0.7109435 1.1279403 1.0298028 1.2370578 0.97316754 0.9655235 1.1079336
1.0688539 1.1492594 1.478272 0.9942166 1.0297577 0.9366193 0.29674947 0.8480617
1.3219702 1.2397578 1.304615 1.072191 0.75761354 0.70382214 0.99168515 1.1059994

bn1.bias f4 [256]
00000000: b7c3 cabd 0129 babc bfbd b43e ee67 673d
00000010: 3c6c ccbe b9ce 8bbb eacf 503e d46c 5ebe
00000020: e618 143e 1bab a53e 1d82 3abd f90a dc3d
00000030: 0625 6a3c ad26 e83d 6be2 483d d5c7 bb3d
00000040: b399 493d 1e04 013e c472 a3bc 0034 513e
00000050: 99cc dbbd a71f d43e 6015 583d 7f69 d1bc
00000060: 6ca2 0dba c0ec f53d e517 8d3d b54e 763e
00000070: 4c6a 0fbd b8c5 d83a f073 e5bc 2ffb 23be
00000080: ebc7 783e 7503 073e a674 bcbd dceb 563e
00000090: 00ec bfbc 09f8 9b3c 44be df3d bb2e de3c
000000a0: 82e5 1a3e 5945 3e3d 73db 103e e587 693e
000000b0: 8b2c 2bbe 42a6 2abe 2706 acbd 5094 55be
000000c0: 4b8d 7a3d c13f 883e df50 5fbe e0e2 c9bc
000000d0: 7ee3 90bd ef96 2d3e b429 083e 6719 e13e
000000e0: 32ec 1cbe ed57 4dbd 1a5e 2bbc bebe 5d3c
000000f0: b147 943c 5b2f d6bd d720 013e 359e 45bd
00000100: 1293 1ebe 5000 84bc 594d 5abe 3306 0a3e
00000110: 397d 00bd fb24 4ebe eeba a83d 8a35 8a3d
00000120: 02da 2f3e 5c65 653e 577a 8abc 3f7b 233f
00000130: a344 8b3e 0776 aebd e287 b2bd 892b c1bb
00000140: 4e2a 74be d9c4 95bd 6b00 373e 7e4f 5abd
00000150: 74f3 983c 1487 363e 0122 1ebe cbe1 1bbb
00000160: c78b d33e c996 593d da02 6d3e b112 9d3c
00000170: 09ce 323d 99d4 c03d d0f8 893e 33e3 c33d
00000180: 04f9 943e ec8a ef3d f63d 49be f242 ac3e
00000190: 3d07 8b3d ab06 c93e ddc0 e6bc 8629 d63e
000001a0: c21d 80bb 8137 b93d 470b a7be 2ea2 84bd
000001b0: 4a8a c1bd a424 8a3e 29fc 00be 05f1 bb3d
000001c0: 8eca a43e 32a6 f13c 6a6b 9f3d fb93 3a3c
000001d0: d630 d7bd 7574 d03d ede1 e83e 1548 0e3e
000001e0: ca07 623e ffb3 7c3e 53d5 d93d 608c 833d
000001f0: 069c 9b3d f69b 0bbc 7652 ba3d a36d 883c
00000200: 560a a83c 3ec8 1a3d d4bd 2d3e 8fdb b33d
00000210: 07a9 b53c 7bff 95be da8f 3b3e 106d 693e
00000220: a8ed 9b3e 8993 59be acf4 603e 9f31 89be
00000230: 821a 883e d89e e3bc 9711 15be ac2b 023c
00000240: d657 a73d 39f3 3bbd 93b0 743e b657 50be
00000250: cedd 9ebc 85e6 8abc 3333 ca3e 7a7a 063e
00000260: 3d5f 1a3e 7d6d 043e ae0f 103f 4eed 24bd
00000270: 5cfc 623e 3c34 873e e7a2 1b3e 51ac 62bd
00000280: 9328 473e 4a14 493e db9e 1d3e 33f7 6abd
00000290: c332 043f fcce 16bd ec72 b7be 55f3 16be
000002a0: 48a3 e23e fca4 043e 6f9b ed3d cfd6 89bd
000002b0: 30e9 f13d e8d0 db3d 44f1 5f3d f616 8e3e
000002c0: 5067 043e 3eb1 5f3d de86 4f3d e3ba 2f3e
000002d0: 7e07 38be e326 e8bd e9f6 283d 3c19 1f3d
000002e0: 1efc 92be 6ffd d43e 4c89 613d 61d2 bfbd
000002f0: c528 7b3d 3586 be3e ac02 0a3d 68be d13e
00000300: c726 ad3e aa00 2d3e c4c0 8c3e 3a86 a2bc
00000310: 3175 8e3e 6e53 fc3d 7405 803e c998 763e
00000320: 29b5 02bc aa82 7d3d f91a 3dbe 2748 8fbd
00000330: 8107 413d b987 c23d 5b5e a53e e615 a03e
00000340: 8417 733d f44f 233e 1b5b f53d 2dee fdbd
00000350: bb57 d53d d5d2 a0bd 92d0 e0bc d64d 863e
00000360: e2f9 ae3e 52f7 20be 5616 2cbd c49f 003e
00000370: 2222 c63a cac1 2dbe 57c4 5f3e bc6f 0c3e
00000380: a18a 2abc 23ea 3a3e 7c8a 57bb b473 833e
00000390: ab36 493e 8510 f2bd 0891 3c3d 0bf3 ecbc
000003a0: 564c d33d 02d8 6bbe 9b62 07bc 4baa 91be
000003b0: 61b5 92bd c702 76bb e223 5a3d c1e3 e73a
000003c0: 66fe 08bc 10db d93d 9703 3c3e 9fff 963d
000003d0: 24cd a73e 0563 1bbe 4b06 783d 6f2c 823e
000003e0: 2f53 f93d 97cf 47be ca65 91be 8f45 3a3e
000003f0: 4077 dc3d 1009 413d f2c0 9d3e 5f34 8ebe
-0.09900611 -0.02272463 0.35301015 0.0564956 -0.39926326 -0.0042665866 0.20391813 -0.21721202
0.14462623 0.32357106 -0.045534242 0.1074428 0.014291054 0.11335502 0.049044054 0.09168974
0.049218845 0.12599227 -0.019952185 0.20429993 -0.10732383 0.414304 0.05275476 -0.025563
-0.0005402926 0.12008047 0.06889323 0.24053462 -0.035013482 0.0016538417 -0.028009385 -0.16013788
0.24295013 0.13184913 -0.092019364 0.2098841 -0.023427963 0.01903917 0.10924962 0.027121892
0.15126613 0.046452854 0.14146213 0.22805746 -0.1671621 -0.16664985 -0.08399611 -0.20857358
0.061169904 0.2661114 -0.21808194 -0.024644315 -0.07074641 0.16952108 0.13297158 0.43964693
-0.15324476 -0.05013268 -0.010459447 0.013534246 0.018100591 -0.10458251 0.12610184 -0.04824658
-0.1548579 -0.01611343 -0.21318568 0.13478927 -0.03136942 -0.20131294 0.08238779 0.06748493
0.17173007 0.22401947 -0.01690404 0.63859934 0.27200803 -0.08518606 -0.08717324 -0.0058950824
-0.23844263 -0.07312936 0.17871253 -0.053298466 0.018670775 0.17824966 -0.15442659 -0.0023785706
0.4131758 0.053122316 0.23145619 0.019173952 0.04365352 0.0941555 0.2694764 0.09564819
0.29096234 0.11696419 -0.19652542 0.33644825 0.0678849 0.392629 -0.028168136 0.41828555
-0.0039097974 0.0904379 -0.3262579 -0.06476246 -0.09450205 0.2698108 -0.12596191 0.0917683
0.32185787 0.029498193 0.077841595 0.01138782 -0.105073616 0.101784624 0.45484868 0.13894685
0.22073284 0.24678038 0.106363915 0.06423259 0.075981185 -0.008521071 0.090977594 0.016653841
0.020512741 0.037788622 0.16966945 0.08782112 0.022175325 -0.2929648 0.18316594 0.2279551
0.30454755 -0.21247686 0.21968335 -0.2679567 0.26582724 -0.027785704 -0.14557491 0.0079449825
0.0817105 -0.045886252 0.23895483 -0.20345959 -0.019392874 -0.016955623 0.39492187 0.13132659
0.15075393 0.12932391 0.56273925 -0.040265374 0.2216658 0.2640704 0.15198861 -0.055340115
0.19449072 0.19636646 0.1539263 -0.057364654 0.51639956 -0.03681849 -0.35829866 -0.14741261
0.442652 0.12953562 0.11601912 -0.067304246 0.11812055 0.10733205 0.05467345 0.27751893
0.12930036 0.05461239 0.05066573 0.17161135 -0.17971608 -0.11335542 0.041251097 0.038842425
-0.28707975 0.41599604 0.055062577 -0.093662985 0.061318178 0.37211767 0.033693954 0.4096558
0.33818647 0.16894785 0.27490819 -0.019839395 0.27823785 0.123206005 0.2500416 0.2408172
-0.007977762 0.06189219 -0.1846732 -0.06996184 0.047126297 0.09498543 0.3229855 0.31266707
0.059348598 0.15948468 0.119802676 -0.12398944 0.10417124 -0.07852713 -0.027443204 0.2623126
0.3417502 -0.15719345 -0.04201349 0.12560946 0.0015116374 -0.16968456 0.21852241 0.13714498
-0.010409028 0.18253379 -0.003288894 0.25674212 0.1964976 -0.11819557 0.04603675 -0.028924486
0.10317294 -0.23031619 -0.0082632555 -0.28450236 -0.071635015 -0.0037538277 0.053256877 0.0017691777
-0.008361435 0.10637486 0.18360744 0.073729746 0.32773697 -0.15174492 0.060552876 0.25424525
0.12174069 -0.19512783 -0.2839797 0.18190597 0.10764933 0.047127783 0.30811268 -0.2777433

bn1.running_mean f4 [256]
00000000: 512a 213f 417e 2541 d470 c93f 5357 5c40
00000010: 1902 a53f 0400 0000 45f9 6340 0370 2240
00000020: 6dc6 833f 0cb4 b340 575e 0a3f 5675 9b3f
00000030: b044 b140 1a12 4a3e 9fdc 943d 77b0 4b3f
00000040: ef96 e83e fc92 f53f 404d a23f d1e4 903f
00000050: df34 833d 268d 0341 e746 173d 199f 0a40
00000060: 703c c140 7da0 6d3f a3aa 0540 efd5 8c3f
00000070: 28e4 683f 85d2 4540 70a6 fc3f 6868 7940
00000080: 55c0 bb40 9799 8540 51e4 b13e eadf fb3f
00000090: 2db4 6541 ee8a 0f3f 480e 833f 070c 793c
000000a0: 2c4f b93e 242f ac3f ce65 cc3f da8e 0640
000000b0: 89e5 2a40 b573 9e3f df66 5141 c4fb 4540
000000c0: 49f8 0540 89b1 3441 25e4 9e40 0400 0000
000000d0: 0722 dd3d d208 bc3e 87a8 2a40 0400 0000
000000e0: 24c8 4f3c 2926 0640 265d 8e3d ae2a 983b
000000f0: 4842 423f a97a 943f 98f0 263f df2d 453f
00000100: b060 723f 0400 0000 6057 5e41 d19b 833e
00000110: 8226 f73f 91e8 113d 5ef6 3e40 6cff ed3e
00000120: 358e 073f a6da 2b40 25d1 b840 7c39 8940
00000130: b82e c240 ae0f e03f 13f8 203e 0bdb 023f
00000140: 326f 2940 58ac d73f a172 1c40 ed58 ee3d
00000150: cbd9 133d cc8d 1239 4661 b440 0574 af3f
00000160: 7ffa 1440 4756 5740 b9ff 1941 961c 9d3c
00000170: 3c3a 453e 1d45 f23e cd6b 5e40 c20e 5440
00000180: 2972 d240 7fa7 d33e 2acb ce3d 4431 2b41
00000190: b54b 8a41 8e74 af3f 74d7 9c3f 3cc8 5840
000001a0: 3842 243e 6fe2 4540 d849 d73d 3438 783d
000001b0: a30e 803f 1a57 6f40 55bb fa40 d47e 013e
000001c0: 76b5 1c40 d717 7c40 ab1e e43d c373 4a3f
000001d0: 0891 813e 6d38 5140 31ad 933f f96f d43d
000001e0: 8023 d440 028b 5b3e 4896 6b40 7a7b 113f
000001f0: 4b51 0b3f 3e97 1b40 51ea 2341 aae9 883f
00000200: 8cf8 443f 0703 083f f9cf 4b40 20ba d340
00000210: 4fdd 4b3f 8494 923e 4aa0 dd40 09ab aa3e
00000220: 00fe 0040 68a8 483f 8cfc 5840 caa9 2a40
00000230: 771b 0b3e 7d1c 793f bc0b 9a40 0400 0000
00000240: 998e 123e c038 2740 2d99 7c41 53cd e93f
00000250: 478d 553f eb81 453e 4883 a440 fb69 1241
00000260: f5c8 573f 0400 0000 5c0a 1b41 7eda 943d
00000270: 39e0 f63f 44b0 fe3f 8bf0 ce3e bc79 e63d
00000280: 2c20 a33f 518b 5741 d3a8 a53e 500d 143e
00000290: 54f9 ab40 3f20 2f40 4fa9 1541 3104 2440
000002a0: 1f2d bd3f d962 fc3f f806 fd3d 6d41 1240
000002b0: a00a d83f e1b2 2840 9b09 533f 49c5 1140
000002c0: 689e f13e 8df6 6b40 8bfc 853f daa7 3941
000002d0: 0400 0000 4c5e 0c40 93a6 a93e ccef 9540
000002e0: 9e36 0f3f 0c62 8f40 694f a13f b884 c03f
000002f0: 881d 3940 f5d7 6140 e146 843c 22c5 ed3f
00000300: 1ea1 1d40 0270 4440 460f bb3c f421 a83f
00000310: 4b13 1e3f 7732 453f 18db 8440 1ac4 1641
00000320: 3bf6 a73c dbe1 6240 ca3e 463e 8e25 c13f
00000330: 7600 8440 c3e6 df3f 7bb9 0240 e1f8 8a3f
00000340: 2f03 0a3f 82f7 4340 e713 d43e 4655 843e
00000350: 98f1 1a3f 6280 753f e5c1 0b3f 0b3e fc3f
00000360: e149 a340 cb9b 953f 709b bd40 3ec3 0040
00000370: 0400 0000 2042 ad3e cb42 753f d3b6 5940
00000380: 88c3 8b3e 12b0 8b3f c7db bc3f 0400 0000
00000390: c764 393e 8495 1a3d 38e8 563f aa2d 2940
000003a0: 036e 1240 0400 0000 6fbf 453d 0400 0000
000003b0: 4630 af3f ea21 073f 7d66 df3e 65bf a43f
000003c0: 1ff7 0f3f beec ba3f 3104 bd3f d628 1a40
000003d0: 970f 4d41 63cd b73f ebad 1041 5f9c 8240
000003e0: 393e 0441 743c 813f 9369 a43e bf59 383f
000003f0: 1748 763f 3891 fa3d da97 2141 776b 313e
0.62955195 10.343324 1.5737557 3.4428298 1.2891265 6e-45 3.5620892 2.5380867
1.029493 5.6157284 0.540502 1.2145183 5.5396347 0.19733468 0.07268643 0.7956614
0.45427653 1.9185481 1.2679825 1.1319829 0.06406569 8.22196 0.036932852 2.1659606
6.0386276 0.9282301 2.0885398 1.1002787 0.9097314 3.090974 1.9738293 3.8969975
5.867228 4.1749988 0.34744504 1.9677708 14.356488 0.56071365 1.0238733 0.015200621
0.36193216 1.3451886 1.5968568 2.102469 2.6702597 1.2379061 13.087615 3.0934916
2.0932791 11.293344 4.9653497 6e-45 0.10797506 0.3672548 2.666536 6e-45
0.012681995 2.096079 0.069513604 0.0046437597 0.7588239 1.1599933 0.65210867 0.7702312
0.94678783 6e-45 13.896332 0.25704816 1.9308627 0.035622183 2.983787 0.46483934
0.52951366 2.6852202 5.7755303 4.288267 6.068203 1.7504785 0.15719633 0.51115483
2.6474118 1.684947 2.4444964 0.11638055 0.036096375 0.00013976468 5.636874 1.3707281
2.327789 3.364641 9.624932 0.01917867 0.19260496 0.47318354 3.4753296 3.3134007
6.5764356 0.41338727 0.10097344 10.699528 17.286966 1.3707445 1.2253251 3.3872213
0.16040885 3.0919454 0.105121315 0.060600474 1.0004467 3.7396913 7.8353677 0.12646037
2.4485755 3.938955 0.11138662 0.7908289 0.25305963 3.269069 1.1537229 0.103729196
6.6293335 0.21439746 3.6810474 0.56829035 0.5442092 2.431106 10.244706 1.0696309
0.7694175 0.5312962 3.1845686 6.6164703 0.79634565 0.28628933 6.9258165 0.33333614
2.015503 0.7838197 3.3904142 2.666613 0.13584696 0.97309095 4.8139324 6e-45
0.14312209 2.6128387 15.787396 1.8265785 0.834187 0.19287841 5.1410255 9.150874
0.8429101 6e-45 9.690029 0.072682366 1.9287177 1.9897542 0.40417895 0.11253688
1.2744193 13.471513 0.32355365 0.14458203 5.3741856 2.7363431 9.353835 2.5627558
1.4779395 1.9717666 0.12354845 2.2852433 1.6878242 2.635918 0.8243653 2.2776663
0.47191167 3.6869233 1.0467695 11.603479 6e-45 2.1932554 0.331349 4.685522
0.55942714 4.4807186 1.2602359 1.5040503 2.8924274 3.528806 0.016147079 1.8575785
2.4629588 3.0693364 0.022834431 1.3135362 0.6174819 0.7703013 4.151745 9.422876
0.020503154 3.5450351 0.1935989 1.5089586 4.1250563 1.7492298 2.0425708 1.0857202
0.5391111 3.0619817 0.41421434 0.25846308 0.6052489 0.9589902 0.54592735 1.9706434
5.1027684 1.1688169 5.9252243 2.0119166 6e-45 0.33839512 0.95805043 3.4017837
0.27297616 1.0913107 1.4754571 6e-45 0.1810485 0.037740245 0.8394809 2.643412
2.2879646 6e-45 0.04827827 6e-45 1.3686607 0.52786124 0.4363288 1.2870909
0.5623645 1.4603498 1.4766904 2.4087424 12.816306 1.4359554 9.04246 4.0815883
8.265191 1.0096574 0.32111797 0.7201194 0.9620375 0.122347295 10.099573 0.17326151
