checkpoints/mad4pg/mad4pg_per1_checkpoint_critic_target.pth (torch, 481447 bytes, 14 tensors)

fc1.weight f4 [256, 52]
00000000: cae0 fabd 8e3e 73bd e138 163d fb97 6fbc
00000010: 59ef 5dbe 5a46 84bd 4c2d f8bb 3592 61bd
00000020: 826b 4ebd bbf0 96bd 8329 973d b681 173d
00000030: 0bf5 1bbe 9b8c 47bc 6c0b 81bd 8677 31bc
00000040: d428 203d 6949 1d3d 69a9 b4bc a23c 823d
00000050: d14b 323e 9a0b fd3e 7f17 e53c b807 55b9
00000060: a75d 63bd 634b 6a3d 7d87 9a3d 418f 03bd
00000070: 43b3 8d3e dcff 6abe dce8 7bbd 21a7 e23c
00000080: ad6b 79bd fab4 8f3e 75c3 9cbd 5da6 03bd
00000090: ad0f 8fbd c445 33be 193d a83d ba36 353e
000000a0: 5b3b b73c cc5f 1b3e 0834 8ebd 00b9 05be
000000b0: 6950 a7be 5ca9 ae3e 6527 823d 55bd 16bd
000000c0: 97ea 1fbd 28c7 42be b9f6 39bf 3a1f 9bbe
000000d0: 9f6d e63d 668f 11be 7b83 86bd 54ad 4c3e
000000e0: 087b 093e 9963 c4bd 8354 ec3b b7b0 f83d
000000f0: 9665 33bd 54ff e1bd 633c ac3d 8372 03bc
00000100: 0d3b a93d f0ff ed3d aab8 b5bd ddc4 0b3e
00000110: 8e76 52bc 9200 8ebe 3a1c cd3d 08bb 31be
00000120: 342a 7b3d 3e5a 033f a560 d9bd 281e febd
00000130: 1db7 383e 5e9d 783d 4c78 7ebd 8f1f 85bd
00000140: 27f3 03be 0af9 0cbe a558 3e3d 6c69 c0bd
00000150: 0733 71bd 99a5 9f3c 6e39 a4bd f134 57bd
00000160: df33 31be 14dc 1f3c 80cd a93d 807b 97bd
00000170: bfdc 28bc 726e debd 9d5e d93d 646c 9fbd
00000180: 4745 d93d fb9d de3e c528 e3bd f60a 46be
00000190: dcc3 2f3f 3687 cebe 4f3a cbbe 842e 1c3f
000001a0: 6106 3d3e 70d5 383d 7341 1bbd 5a46 d6bd
000001b0: 5c17 e2bc 40da a2be 91c9 513d 5b55 e03d
000001c0: 0cd2 0b3e f6bb 233e b445 a43d 0791 05be
000001d0: cd1d 91be 8157 a6bc 3562 acbd 3c41 bf3d
000001e0: f36e 0a3c fd09 0c3e d6f5 a4bd 3828 193e
000001f0: 2f36 b4be a54c a7bd 5f56 af3d 2953 f13c
00000200: dc88 853c 80d4 93be 8dbb 43bc 1f9b 2abd
00000210: 86ba 003e 32c9 acbe 08d8 783d 2a21 9d3a
00000220: abb0 94be 933a 7dbe 4476 5c3c f262 4b3d
00000230: 2c2d 483e 90e8 12be 8a15 613d e9b4 bcbd
00000240: c4cc 7cbe e325 fbbd 7cc8 bb3d ac8c bfbd
00000250: aa4f 843e 8033 1cbe 80cc 87bd ea7e f23d
00000260: 0f98 ee3b 8115 343f ba69 a2be aaff 36be
00000270: 2405 833d a219 293c 55b4 7dbd 2db3 6abd
00000280: 04dd 25be 2551 ca3e 267a 903d 5b5d 00be
00000290: 0fab b33d 3cf5 d1bd 9fce e7bd c75d b0bc
000002a0: c008 95bd 29a4 763d 3d37 dd3d e9cb 013e
000002b0: 3e36 283d 6652 6b3d 2933 c83c 231c cc3d
000002c0: 8fdc ba3e 32f6 e7bc 2d9d c2bc 611d 08bd
000002d0: 99ce dabc c762 9cbe b424 debc 9b16 df3c
000002e0: be7b b13e 8ea8 373e 7d72 f43c 53f8 d8bc
000002f0: f972 80bb b220 ddbe 82f1 bc3d 7591 01bd
00000300: eb4b a33c c1b9 653e d9aa b2bd 3282 1fba
00000310: 8602 63bd ebd3 d2be fe84 9a3d 4477 0ebe
00000320: bfd4 adbe 6fef 1bbd d000 7bbd cf41 dabc
00000330: 05a5 1fbd 9ee0 ab3e c041 efbe fd61 3abe
00000340: 67a1 e53d 67c2 c6bd 5ffd d5bd 6f50 443d
00000350: 8009 263d 8c71 2ebc e0e1 dfbb fab7 ce3c
00000360: 732e 80bd b03d 86bd b22f 923d 8f45 7fbe
00000370: 17d3 8f3c c033 073e 8604 77bd f628 30be
00000380: d175 103e d96a 5fbe 26a8 00be 8cb1 93be
00000390: 445a 9c3e 9fe2 433e a7c2 d63d 23ca 24be
000003a0: 5857 c13d cc9f 91be 1fc6 b3bd 0524 a9bd
000003b0: d849 8c3d ebde 3e3e dad7 393d 0622 ffbd
000003c0: 7750 883d 1851 4cbd aae7 2b3e 20cd 703e
000003d0: 09e7 22be ce20 843e 26b4 b2bd 0ef3 8d3e
000003e0: 2ae8 ab3d f8b3 46bd b968 24bb 08b7 2d3e
000003f0: 1fd2 04be 9ca9 04bd b913 d5bd 35c9 823d
-0.12249906 -0.05938583 0.036675338 -0.014623637 -0.21673335 -0.06458731 -0.007573759 -0.055071075
-0.050395496 -0.073701344 0.073809646 0.036988936 -0.15230195 -0.012179519 -0.06301007 -0.010831719
0.039101437 0.038400088 -0.022053437 0.06359221 0.17411734 0.49422914 0.027965305 -0.00020316138
-0.055509236 0.0572008 0.075453736 -0.03211904 0.27675828 -0.22949165 -0.06150137 0.027667584
-0.060893703 0.28067762 -0.07654468 -0.03214108 -0.06985412 -0.17507082 0.082147785 0.17696658
0.02236717 0.15173262 -0.06943518 -0.13058853 -0.32678536 0.34113586 0.0635517 -0.036801655
-0.03904208 -0.19021285 -0.72642094 -0.3029726 0.11251377 -0.14214858 -0.06568047 0.19987994
0.13425839 -0.09589309 0.007212223 0.12143081 -0.04379805 -0.11035028 0.08409955 -0.008022907
0.08263216 0.11621082 -0.088731125 0.13649316 -0.012845648 -0.2773481 0.100151494 -0.17356503
0.061319545 0.51309574 -0.106141366 -0.124080956 0.18038602 0.060696952 -0.062126443 -0.0650016
-0.12885724 -0.13766876 0.046471257 -0.093951076 -0.058886554 0.019488143 -0.08018766 -0.052540723
-0.17304944 0.009757061 0.08291149 -0.07396603 -0.010306536 -0.108609095 0.10613749 -0.07784346
0.10608917 0.43479905 -0.110917605 -0.19340119 0.6865823 -0.40337533 -0.39692923 0.6100848
0.18459465 0.045125425 -0.037904214 -0.10462637 -0.02759903 -0.31807137 0.05121762 0.1095378
0.13654345 0.1598967 0.08021107 -0.13043605 -0.2834305 -0.020305397 -0.08417169 0.09338614
0.008449304 0.13675685 -0.08054702 0.14956748 -0.3519759 -0.08168916 0.08561396 0.0294586
0.016300611 -0.28873062 -0.011946571 -0.04165184 0.12571153 -0.3374725 0.0607529 0.0011988033
-0.29041037 -0.24729376 0.013455931 0.04965491 0.19548482 -0.14346528 0.054952182 -0.092141934
-0.24687487 -0.12263086 0.09169099 -0.09353003 0.2584203 -0.1525402 -0.06630802 0.11840613
0.0072813104 0.7034531 -0.31721288 -0.17870966 0.06397465 0.010321053 -0.061939556 -0.05729978
-0.16197592 0.39515033 0.07054548 -0.12535612 0.08772861 -0.10251853 -0.11318707 -0.021529092
-0.072770596 0.06021515 0.108015515 0.12675442 0.041067354 0.05745163 0.024438458 0.09966304
0.36496398 -0.028315637 -0.023756588 -0.033231143 -0.026709842 -0.3054411 -0.02711711 0.027232459
0.3466472 0.17935392 0.029839749 -0.026485598 -0.003919956 -0.43189007 0.092257515 -0.03163286
0.019933661 0.2243414 -0.08723993 -0.0006084769 -0.05542233 -0.41177306 0.075448975 -0.13912684
-0.33951375 -0.03807014 -0.06128007 -0.026642708 -0.038975734 0.33569807 -0.4672985 -0.18201442
0.11212426 -0.09705048 -0.10448717 0.04792827 0.040536404 -0.010647189 -0.0068323463 0.025234211
-0.062588595 -0.06554735 0.071380034 -0.24928878 0.01755671 0.13203335 -0.06030705 -0.17203125
0.14107443 -0.21818103 -0.12564144 -0.28846395 0.30537617 0.19129418 0.10486346 -0.16092734
0.094404876 -0.28442228 -0.08778023 -0.08258823 0.06850022 0.18639724 0.045371868 -0.12457661
0.066559725 -0.049882025 0.16787592 0.23515749 -0.15908445 0.25806278 -0.08725767 0.277245
0.08393891 -0.048511475 -0.0025086834 0.16964352 -0.1297078 -0.032388315 -0.104041524 0.063860334

fc1.bias f4 [256]
00000000: f339 9cbe 8c69 d3be 0270 04bc 1df4 76be
00000010: ef22 02be 33b3 b1bd c64c 893d 97a3 0bbe
00000020: a345 27bf b6ed 96bd a27d ab3c 36e3 8ebd
00000030: 0155 053c e912 25be b50e 76be e3c7 bcbe
00000040: 3c16 83bd 38b4 ea3d 1a40 3cbd 32a2 03bf
00000050: 5e05 023d 4146 2a3d 58e1 6f3d 50c7 babd
00000060: 13f4 a6bb 9e7c 083b f17a a23d 2877 97bb
00000070: 36ff 253e 0c6d 03be a71c 303e 1a08 e8be
00000080: 263c 23bc 2a24 463c 87d9 39be 81f3 0bbe
00000090: cf34 1dbf c309 d2be 2c32 20be db8e c03c
000000a0: cc2e cebd 6913 c5bc 352b 813d c6e0 293d
000000b0: 2fb2 1dbe e1d6 48bd 827a 6fbe a3e5 1dbe
000000c0: 3b6c 99be b33d 55be 59e0 3dbd 05d2 93be
000000d0: 21aa f4bd 8b9a a63b 1453 c3bd e965 2abe
000000e0: d9b3 193c 5908 0bbe 1c3e 88bc 5d1b ffbd
000000f0: 6de4 d4bd fdc4 eebd 6ce8 fa3d ed59 54bc
00000100: 64b4 2cbe 1a9a 95be c081 6a3d e5ff 96b9
00000110: baac 9b3c 2dd2 88be 22e3 7c3d be30 1a3b
00000120: 318a 88bd 527b 8fbd 9017 a23d 207f c73b
00000130: b021 8cbd e719 dbbd 97da 2abd 0e67 56bd
00000140: d622 0dbe b7fc 87be 8e97 5ebc 5f11 cc3c
00000150: da8c 3abd fd8a 0fbe 5228 433d b584 3d3b
00000160: 12c6 6abe 19ba 9ebe f581 a6be c5d5 19be
00000170: 6884 68be b0f0 01bd adb3 7bbc a74b 3fbe
00000180: ecec fabd 9bca 6bbe b257 f5bd 6e67 123c
00000190: f026 2c3d 58e2 bfbd 5f7f 80bd 7252 8bbd
000001a0: 3075 6cbd 65db 09be 1a63 04be ad1a 4dbd
000001b0: ad53 2dbd 3863 a23c 7401 ba3d 8d0e 9dbe
000001c0: 14ce cabc 8442 b5bd 2027 0abe 233d fc3d
000001d0: 8786 073d bc5e a3bd b083 68be 2f04 24bd
000001e0: d375 343d 4aa5 533d 6595 47be 5893 d9bd
000001f0: f669 bc3d 1431 ac3c 785f f1bd afd2 71be
00000200: 0d13 a6bd 9458 21bc 1ca6 28be 8ed2 89be
00000210: e318 eebc 4e74 fbbc 6639 053e e898 88bd
00000220: bdaf a33c fe6b cfbd 9bf5 ffbd f3bf 44be
00000230: ff13 92bd 4ba4 13be c8b2 c3bd f21e c33c
00000240: bc57 543d ca2f fc3d 3bd2 35bd 533e 4cbe
00000250: 412d bcbd ce42 afbe b1e0 95be e6e3 c0bc
00000260: d1c7 4e3c 220c a4bc 8ac4 e2bd f72d 68be
00000270: 0c7a 32be 0bbf dfbd 4852 d2bc 9a01 ccbd
00000280: 07c9 07be a00d 33bd 5352 b5bd 0c8d eebd
00000290: d908 96bd f405 9ebe 7b3e 973c af80 3ebd
000002a0: d71e 1abe deda 87be 9e3e 83bd fe75 91be
000002b0: 5f81 213b 9ab7 cebe cec3 cdbc 1200 43bd
000002c0: 7d1a 69be 0ebb 43bd 1f6d 0fbe e0a4 eebd
000002d0: 65db b43c 1f36 293e 0ede 22be 8e83 81bd
000002e0: 6fb7 f1bc 593c 7bbd de2a f2bc 535e 96be
000002f0: 3229 20be bb92 75be 6cce 1dbd f954 efbd
00000300: 6348 ffbd cb29 cbbd a13b 3dbe 0406 e1bb
00000310: c081 7bbe ca0f bfbe 96f0 23ba ec19 bcbd
00000320: 374a 293e 3b01 193e 6a3e e4bd f1ca bdbd
00000330: b7c8 f6bd 5588 613c 8424 24bd 7699 05be
00000340: 490d 7e3d 6ae8 89bc 4428 25bc f1bc 9dbd
00000350: 5b3b 40be fe5f 62be 30ce 13be e803 8dbd
00000360: 1c8c 1ebd 8b5b 34bc d5d3 d8bd dbae 1ebd
00000370: d57b f8bd 959c df3d e32e 393d 9df7 50bc
00000380: 7eb2 b0be b004 693d e9f4 55be 9e6e 8ebe
00000390: 3286 acbd 79b4 8bbd ed6a 44be 6985 bf3c
000003a0: b50d fa3d 7229 65be 8222 b93d c6da e4bc
000003b0: 7596 2dbd 9b3c 06be 82a5 08be 575e 783c
000003c0: b7e1 66bd 9aa1 aabd 21f4 36be 4b2b 25be
000003d0: 193f c6bc 8e68 333d 2517 90bc c396 c43d
000003e0: 0403 c6bd 2f38 59bc 5b8a 4cbe e0ea 16be
000003f0: 6c3c babe ffc2 9dbd b767 a6be 8140 6fbe
-0.30512962 -0.41291463 -0.008083345 -0.2411656 -0.12708639 -0.08676758 0.067040965 -0.13636623
-0.6534063 -0.073695585 0.02093393 -0.06976931 0.008137942 -0.16120495 -0.24029048 -0.3687125
-0.06400725 0.11460155 -0.04595957 -0.51419365 0.0317434 0.041570906 0.058564514 -0.09120047
-0.005095014 0.002082623 0.079336055 -0.004622359 0.16210636 -0.12834567 0.1719843 -0.4531868
-0.009963071 0.012093583 -0.18149386 -0.13667108 -0.61408705 -0.41023073 -0.15644139 0.023505619
-0.100675195 -0.024057107 0.06307069 0.041474126 -0.15400003 -0.04903305 -0.23386577 -0.1541963
-0.29965386 -0.20824318 -0.046356533 -0.2887117 -0.11946512 0.005084341 -0.0953733 -0.16640438
0.009381258 -0.13577403 -0.016631179 -0.12456391 -0.10395131 -0.11658666 0.12251362 -0.012960893
-0.16865689 -0.29219133 0.057252645 -0.00028800886 0.01900326 -0.2672285 0.06174005 0.0023527588
-0.06666983 -0.07005943 0.079146504 0.0060881525 -0.06842363 -0.106983 -0.04171237 -0.052344374
-0.1378282 -0.26559994 -0.013585938 0.024910627 -0.045544483 -0.14017864 0.047645874 0.002891821
-0.2292712 -0.31001356 -0.32521024 -0.15022953 -0.22706759 -0.031723678 -0.015362662 -0.18681203
-0.122522205 -0.23026507 -0.11979617 0.008935792 0.04202932 -0.093693435 -0.06274294 -0.068028346
-0.057728946 -0.13462599 -0.12928429 -0.050074268 -0.042316128 0.019822702 0.090823084 -0.30675164
-0.024756469 -0.088505775 -0.13491488 0.123163484 0.03308728 -0.079770535 -0.22706485 -0.040043052
0.04405768 0.051671304 -0.19490583 -0.10623807 0.09199898 0.021019496 -0.11785787 -0.23615526
-0.081091024 -0.009847779 -0.16469616 -0.26918453 -0.029064601 -0.030695107 0.13010177 -0.066697896
0.01998126 -0.1012802 -0.124980174 -0.19213848 -0.0713272 -0.14418142 -0.09555584 0.023818467
0.051841483 0.123138025 -0.044389945 -0.1994565 -0.09188319 -0.34230655 -0.29272988 -0.02354617
0.012620882 -0.020025317 -0.11072643 -0.22673784 -0.1742937 -0.109251104 -0.025674 -0.09961243
-0.1326028 -0.043714166 -0.08853593 -0.11647996 -0.07325906 -0.30863917 0.01846241 -0.04650944
-0.15050827 -0.2653417 -0.06408428 -0.28410333 0.0024643762 -0.40374452 -0.025117781 -0.04760749
-0.2276401 -0.04778581 -0.1400647 -0.11652541 0.022077272 0.16524552 -0.1590502 -0.0632392
-0.029506413 -0.06133685 -0.029561456 -0.2936884 -0.15640715 -0.23981754 -0.038526937 -0.11686129
-0.124649785 -0.09920081 -0.18479778 -0.006867172 -0.24561214 -0.37316734 -0.00062538066 -0.09184632
0.16532217 0.14941876 -0.11144717 -0.092672236 -0.12050002 0.013765414 -0.040073887 -0.13046822
0.06202439 -0.016834456 -0.010080401 -0.07702053 -0.18772642 -0.2210693 -0.14434123 -0.06885511
-0.038707837 -0.011008154 -0.10587279 -0.038740974 -0.12132994 0.109185375 0.04521073 -0.012754348
-0.3451118 0.056889236 -0.20894207 -0.2781877 -0.08424033 -0.06821532 -0.19181414 0.023379045
0.12209646 -0.22379091 0.09039785 -0.02793635 -0.042379815 -0.13109057 -0.13344386 0.015159211
-0.056367602 -0.08331604 -0.17866565 -0.16129796 -0.02420001 0.043800883 -0.017589161 0.09599068
-0.09668544 -0.013258024 -0.19974653 -0.14738035 -0.36374223 -0.07703208 -0.32501003 -0.2336445

fc2.weight f4 [256, 256]
00000000: 3eaf 4abd 1251 f1b9 e956 3dbc a321 02be
00000010: 6294 b2bd 64a0 773c 2542 0cbb 8e1b c73d
00000020: 2e39 16bd 25ed afbd be94 d13c 3c4d 8b3d
00000030: 4f24 dd3c 1da3 d2bd 1585 c13c bbd6 403e
00000040: 823c 60bd 8035 43bd f9f5 42be 2340 6bbe
00000050: 3502 82bd 6b10 ba3d 478e 32bd e76e ad3b
00000060: 525d d93d 537a 9f3d 80ad 9d3c 1845 8f3d
00000070: 315b ef3b 1233 1c3d f0d4 f13c 8452 95bd
00000080: c7e2 f7bc 2b41 6a3d 6f7d 5cbd 1570 5c3d
00000090: 6c1a c93c c13c 17bd 2a57 923c b4ea c43d
000000a0: d516 be3d c407 29be 1c27 08be c3bf 973c
000000b0: 82f6 c8bd b36f 8f3d 06bc 46bd 1975 483d
000000c0: 9e66 3c3d 4eef 1b3c 32e9 89bd 04ce 483d
000000d0: 7a1d 09bb 120b 023e 7515 b63b a30a 44bd
000000e0: 3590 493d 9850 50bc 626d 043d 6959 eb3d
000000f0: 1839 ea3d e96c 1e3c e56e 703d ae33 0fbd
00000100: 16b8 2abd 15e1 4f3c 9897 40bd 4887 4ebd
00000110: a36d 4fbe b2a3 453d e319 7e3d 11bb 183d
00000120: 7acb aa3d 8047 1e3d 4641 133e e56d 443c
00000130: 993f 0dbd def9 ce3d 0117 b63d 2a2e 963d
00000140: e876 7c3d 1fd6 d8bc d1cd b63d e1e1 fc3d
00000150: b02b 323b 0bc4 4c3c d4a8 9eba 3af5 a63d
00000160: f011 ffbd 8974 0ebd e5be d23b cc75 8cbd
00000170: d5ee 913c 0b4f 283d fba0 ec3d 2a1d 26bd
00000180: 66da 08be 3609 a03d 001f 9a3d d75c fe3b
00000190: e459 1d3e 778c 30be 73a5 e53d e058 b63d
000001a0: 71f6 06bd f547 1dbe 62b6 953d 975b 363d
000001b0: e4f9 603c a43a e33d 5cbf cebd 52b2 193d
000001c0: af9f e9bd 53ea 09bd 2320 4a3d abea cb3d
000001d0: d011 7abd a0c5 46bc bcf5 573d 0057 ef3d
000001e0: f5bd f73c a53a 90bd cbd8 b53c b74e f039
000001f0: c8db da3d 1f87 1c3d 8e63 a53d a233 833c
00000200: db77 10bb 02c7 863b 4680 073e 64d9 3c3d
00000210: 129a e83d ddd1 283e 37d2 6a3d 7e8f 4e3e
00000220: 5fe3 5abe a05a a4bc dc21 c2bd fe66 243e
00000230: 774a 46bc 42f5 e03d 1394 ec3d 7b88 033d
00000240: 11ec 54bd 74ac 193d ffa2 34bd a50c 6c3d
00000250: 69bf 1abe 407a 9d3d 5740 12bd 4863 58be
00000260: 227b debd 87cc 74bc 015e 03be a358 47bd
00000270: de33 18be 820d a73d 93c6 a63d c8fc bfbd
00000280: d6b3 333d b49b 933d c3a6 76bd 7cb5 28bc
00000290: 15cf 7abc f17d 2e3d 42dd 15bc cda0 913d
000002a0: 50ec 2f3d 9bb5 a53c 1bfb 693c 3d1b e83c
000002b0: f51f 633d c408 5d3d e6bf 52bc a15f 0bbd
000002c0: 320e 57bd c725 15bd e2e3 d0bc 1368 a9bd
000002d0: a9d6 043d be7f 803d 49ac 10bb b417 003e
000002e0: 7b5f 473d e3af 15be 7744 75be b42b a33d
000002f0: 6cf1 3abe b7cc 353d ae8c 9b3c 9c66 2bbe
00000300: af05 063d f50e 323e c03a 863c 1cb1 dc3d
00000310: 9b8d 013e 7b8a 0ebd 2a0d d6bd 76c2 84bc
00000320: 3d42 9abc 89d4 30bd a5ef 233c 4b38 32be
00000330: 18ca 66bc 080a 903d 837a 14bd 3044 6f3d
00000340: d3ce a73d e1d8 c6bc 32b4 5d3e 5a12 ce3c
00000350: a696 ee3c 2d30 013e baa3 903d 8d62 b73c
00000360: e54a d33d 2a5b 9ebd 1b8e ae3d 408a 7a3e
00000370: 5f8f e53d 0638 0f3e db0f bdbc b8ab 403d
00000380: cfb1 303d 9ea8 373d 8278 203e af54 8fbd
00000390: 36ef e13d bb08 333d f181 fabd 8eea 2bbe
000003a0: 8719 7ebd d451 61be e96d f3bb af39 6a3d
000003b0: 3dea 323c 68d5 7c3d 8fc3 643d 6918 923d
000003c0: 9dab 7ebd e639 94bc 661f 89bd 4b78 f23c
000003d0: 5f43 5fbd f455 50be a6e9 d33d db47 603d
000003e0: c9ff 5f3d 8696 0c3d e310 3ebc 999a 223e
000003f0: ca9c 8fbd 7a4c adbd f57a 293e 24ba 4ebc
-0.04948353 -0.00046027504 -0.0115563655 -0.12708144 -0.08719708 0.015113924 -0.002140173 0.097220525
-0.036675625 -0.085901536 0.025583621 0.06801841 0.026994852 -0.10285018 0.023623029 0.18831913
-0.054745205 -0.047658443 -0.19039144 -0.22973685 -0.06348077 0.09085163 -0.043592717 0.0052927616
0.106135026 0.07787003 0.01924777 0.069956005 0.007304572 0.038134642 0.029520482 -0.07291129
-0.030259503 0.057191055 -0.05383056 0.053817827 0.024548732 -0.036923174 0.017863829 0.096150786
0.092816986 -0.16506869 -0.13296169 0.018524056 -0.09812643 0.07003727 -0.048519157 0.048939798
0.0459963 0.009517504 -0.067339316 0.049024597 -0.002092211 0.12699535 0.005556757 -0.047861706
0.049209792 -0.012714528 0.032330878 0.11491663 0.11436671 0.009669521 0.058699507 -0.034961395
-0.041679464 0.012687941 -0.04701957 -0.050421983 -0.20256667 0.048251815 0.062036406 0.037287775
0.08339591 0.038642406 0.14380369 0.0119890915 -0.03448448 0.10106252 0.088911064 0.07333024
0.061636835 -0.026469288 0.08925975 0.123477705 0.0027186684 0.012497912 -0.0012104758 0.08152242
-0.12454593 -0.034779105 0.006431448 -0.068584055 0.01781408 0.041091006 0.11554142 -0.040555157
-0.13364562 0.07814257 0.07525444 0.007762532 0.15366322 -0.17241083 0.112131976 0.0890367
-0.03294987 -0.1535948 0.073101774 0.04452094 0.013731454 0.11095169 -0.10095093 0.037523575
-0.1140741 -0.033670735 0.049347054 0.09956869 -0.061052144 -0.012132078 0.052724585 0.11686516
0.030241946 -0.070424356 0.022198102 0.00045835014 0.10686451 0.0382148 0.08075629 0.016015831
-0.0022044096 0.004113079 0.13232526 0.046105757 0.113575116 0.16486306 0.057329383 0.20171925
-0.21375798 -0.020062745 -0.094791144 0.16054913 -0.012102715 0.10984279 0.115516804 0.03211258
-0.051982943 0.03751798 -0.044100758 0.057629246 -0.1511208 0.07689333 -0.03570589 -0.21131623
-0.108633295 -0.014941341 -0.12828828 -0.048668515 -0.14863536 0.08156873 0.08143344 -0.09374386
0.043872677 0.072074324 -0.06021763 -0.0102971755 -0.015308161 0.042600576 -0.00914699 0.071107484
0.042949975 0.020228198 0.01428106 0.0283333 0.0554504 0.053963438 -0.012863135 -0.034026746
-0.052503772 -0.03641298 -0.025499288 -0.08271804 0.03243128 0.06274365 -0.0022075346 0.12509042
0.04867504 -0.14617877 -0.23951899 0.0796732 -0.18256158 0.044384684 0.01898798 -0.16738361
0.032720264 0.17388518 0.016385436 0.107759684 0.12651674 -0.034800034 -0.104517296 -0.016206007
-0.018830413 -0.04317144 0.010005866 -0.17404287 -0.014086269 0.07033163 -0.03624965 0.058414638
0.081937455 -0.024273338 0.2165077 0.025155235 0.02912457 0.12616034 0.07062478 0.02238586
0.103170194 -0.07732232 0.08523198 0.244668 0.112089865 0.13986215 -0.02307885 0.047038764
0.04313832 0.04483854 0.1567097 -0.06998574 0.11031954 0.043709498 -0.122318156 -0.16788694
-0.062036064 -0.22003871 -0.007428874 0.057183918 0.010920105 0.061726958 0.05585056 0.07133562
-0.062175382 -0.018094014 -0.06695442 0.029598376 -0.05450761 -0.20345289 0.10347299 0.054756027
0.054687295 0.034323238 -0.011600706 0.15879287 -0.07012327 -0.08461852 0.1655081 -0.012617622

fc2.bias f4 [256]
00000000: 2873 d2bd 2ac1 8c3d 28d1 91bd a023 48be
00000010: 3571 0fbe 16ef 0dbd 79bc 0bbe 7f65 9cbd
00000020: 3b2e 53be a965 9ebd 74a6 b3be 5a16 ffbd
00000030: dc53 28bd 260e 44bd 1e3b d8bd 52ff 0fbe
00000040: e754 a7bd 8b73 5fbe 6cd8 aebd cfc7 3fbe
00000050: 31a3 1fbe dcfd 49be 50f8 76bd 58a6 08be
00000060: ab0d f9bd 42f7 3bbd bfc2 94bd d401 80bd
00000070: 3880 b83b cbdc e4bd 1680 18be 6e91 23be
00000080: 7256 6bbe 448a 80bd d40e c8bd 5681 82bd
00000090: 8f4b 32be 0ff7 3fbe d9fc 80be 73ff 48be
000000a0: d94a 7bbd c9c4 7ebd 8739 3cbe 1314 30be
000000b0: 5019 03be 8dda 35be 51dc 5fbe e43e aabc
000000c0: de9e 3dbe 6ad8 d6bb 9ec1 49be c2b9 76bd
000000d0: 11c3 9ebd 479f f4bd 8468 8abd 9479 b5bc
000000e0: 92e0 163d 88a7 3abe 2a61 27be d641 cebc
000000f0: 159f 3cbe faa1 ebbd afbb b8bd 58e7 e3bd
00000100: a37f e6bd 7661 45bd 02ae 763c 14aa bdbd
00000110: cdcd 93bd 85a3 59be aa50 65be 8234 4ebd
00000120: 19b7 46be cdb0 5ebd ae6d 5abc 4378 15be
00000130: 183a 2abd d2bf 35be 3509 8c3c d1b8 79be
00000140: ce8c f5bd a84f 04be 9557 00be 46c9 dbbd
00000150: 8da1 0cbe 21e1 62be 65ee 89bd 4b01 d6bd
00000160: dfcb 49be 44eb 46be 1955 05be 13b1 87bd
00000170: 7124 02bc aca3 4bbe 36f0 cbbd fb65 48be
00000180: db91 f2bd dc36 8c3d 9a9c 4cbe d955 e4bd
00000190: 43c8 b8bd 9410 ea3c 65f7 8fbe 0a20 c6bd
000001a0: d50c 2bbe a981 26bd ed7e b5bc 8e6e a1bb
000001b0: ff3b 35be f3f3 cabe 81f7 5dbd e3b4 efbd
000001c0: 18ec 80bc e175 743c 60d0 54be 92b0 8bbd
000001d0: f861 95bd fe0b 19be bc99 06be e563 a9be
000001e0: 47f7 d53c 2d98 a1bc 53c5 28be c6c6 95be
000001f0: 44db 40bd 5536 91bd 5291 02be 33b7 58bb
00000200: 0985 e0bd 6ee5 4ebe 4aed 07be ef9a 60bc
00000210: 36d3 43bc 93bc c2bd ffb4 0cbd e992 3cbe
00000220: 6dba 67bd 27cd 86be 6e67 57bc 4fea 3cbe
00000230: eab9 2b3d fa4c bdbd e42a 9bbd ea73 73bd
00000240: fe9d 83bd 967f a0be 632b 29be c5f4 06bb
00000250: cae4 86bd 80b2 89bd e32f 1bbc a820 d4bd
00000260: 1953 2bbd 2ba0 99bd 5871 dbbd 9148 10be
00000270: 5ade 28be b1ad 40be 02d6 c33c 9bd1 b4bd
00000280: ea24 81bd 096c 8cbd c27c 9dbd f62a 0ebe
00000290: 50ab dfbd b322 61be ef0a 17be 6345 4abe
000002a0: 1e0e 8cbd 5294 21be e188 c6bd 5583 b0bd
000002b0: 4f16 bebd 9dc2 b9bd 5a7a f4bd 9733 13bd
000002c0: 2e6c e0bc 29f4 12be 1a34 a3bd 747b 25be
000002d0: a155 9c3c 3d5d 56be dc68 4cbe 12b4 1cbe
000002e0: 4ba4 3cbe 12fd 22be 4f0b f5bd a056 d6bd
000002f0: 047e 4fbd 1419 9fbd 8108 87be abb8 3fbe
00000300: f640 2fbe 170c 04be a5b9 3abe 1434 453c
00000310: 03f0 15be e49f 59be 99bb e4bd 8fa8 ad3d
00000320: 2cca 53be 16a8 5bbe be29 40be 77e2 3ebe
00000330: dcfc 3bbe 0481 1b3c dc6a 0abe 62f2 5cbe
00000340: ca5e 3cbe 318f b4bd 731d f23c 2713 07bd
00000350: fe79 36be 9b63 e3bd 7802 2fbe 9ed4 4dbc
00000360: 791d 48be 1db7 1ebe 96d8 15be 517b b1bd
00000370: f534 26be e68b ebbc c633 44be 317e f6bd
00000380: ddae e9bb d767 07be f3c4 07bd 798b edbd
00000390: d74f 19be b25d 36be 8489 e9bd ace1 56bd
000003a0: 7bf6 82be 8eb3 d9bd feda 2cbd b7a9 95be
000003b0: 826d c0bd 06e6 1ebe f64f 0cbe 399c c2bd
000003c0: 41e8 e73c e002 4cbe 87bc c0bd 9e3a 55be
000003d0: 832c 9cbc 5d09 f8bd 957c 7bbc b5f4 2fbe
000003e0: cfd5 5fbd 0ab1 44be 9c9b 3dbe 3afa 37be
000003f0: f06b 98be adfe 09be 4013 21be f23d 02be
-0.102758706 0.068727806 -0.071199715 -0.1954484 -0.14008029 -0.03465184 -0.13646115 -0.07636546
-0.20623104 -0.07734234 -0.3508793 -0.12455435 -0.0410956 -0.047865056 -0.10558151 -0.1406224
-0.08170491 -0.2182142 -0.08537373 -0.18728565 -0.15589596 -0.19725746 -0.060295403 -0.13344705
-0.1216081 -0.0458901 -0.07263707 -0.06250349 0.0056305192 -0.111749254 -0.14892611 -0.15973446
-0.22982195 -0.06276372 -0.09768453 -0.06372325 -0.17411636 -0.18746589 -0.25192907 -0.19628696
-0.061350677 -0.062199388 -0.1838132 -0.17195158 -0.12802625 -0.17759152 -0.21861388 -0.020781942
-0.18517634 -0.0065565603 -0.19702765 -0.060235746 -0.0775205 -0.11944442 -0.06758216 -0.0221527
0.03683526 -0.1822797 -0.16345659 -0.025177877 -0.1842006 -0.11505504 -0.09020173 -0.1112811
-0.112548135 -0.04818865 0.015056135 -0.092609555 -0.07216988 -0.21253784 -0.22394052 -0.050343044
-0.19405784 -0.05436783 -0.013331814 -0.14596657 -0.04155931 -0.17748955 0.017094234 -0.24386908
-0.11989747 -0.12921011 -0.1253341 -0.10731749 -0.13733502 -0.22156192 -0.06734923 -0.10449465
-0.19706677 -0.19425684 -0.13020743 -0.06625571 -0.007943259 -0.19886655 -0.09957926 -0.19570152
-0.11844226 0.06846401 -0.19981614 -0.11149187 -0.09022572 0.028572358 -0.28118435 -0.0967408
-0.16704114 -0.040650997 -0.02215525 -0.004926509 -0.17698668 -0.39639243 -0.054191116 -0.11704423
-0.015737578 0.014920683 -0.20782614 -0.068207875 -0.07294077 -0.14945981 -0.13144583 -0.33084026
0.026118888 -0.019725883 -0.16481523 -0.29253215 -0.047084108 -0.07090441 -0.12750748 -0.003306818
-0.109628744 -0.20204708 -0.13274112 -0.013708814 -0.011952212 -0.09508624 -0.0343523 -0.18415417
-0.056574274 -0.26328394 -0.013147218 -0.18448757 0.04192535 -0.09243198 -0.0757654 -0.059436716
-0.06426619 -0.3134734 -0.16520457 -0.0020592671 -0.06586607 -0.06723499 -0.009471866 -0.10357791
-0.041827295 -0.07501253 -0.10714978 -0.14090182 -0.1649107 -0.18816258 0.023905758 -0.088290416
-0.06305869 -0.068565436 -0.07689811 -0.13883576 -0.10921347 -0.21985893 -0.14750265 -0.19753031
-0.0683863 -0.15779236 -0.09694076 -0.086187996 -0.09281599 -0.09070323 -0.11937399 -0.03593787
-0.027395334 -0.14350952 -0.07968922 -0.16160375 0.0190838 -0.20934005 -0.19961876 -0.15303066
-0.18422048 -0.15916851 -0.119650476 -0.10465741 -0.050657287 -0.07768455 -0.26373675 -0.18722789
-0.17114624 -0.12895237 -0.1823488 0.012036342 -0.14642338 -0.212524 -0.11168594 0.084794156
-0.20682591 -0.21450838 -0.18765923 -0.18641077 -0.18358177 0.009491209 -0.13517326 -0.21576837
-0.18395534 -0.08816374 0.029555058 -0.03297725 -0.17819974 -0.111029826 -0.17090786 -0.012562899
-0.19542493 -0.1549954 -0.14633402 -0.08666099 -0.16231139 -0.028753232 -0.19160375 -0.12035788
-0.007131441 -0.13223206 -0.03314681 -0.11598868 -0.14971863 -0.1780918 -0.11403182 -0.05246131
-0.25578675 -0.106299505 -0.042201035 -0.29231045 -0.09395887 -0.15517434 -0.13702378 -0.09502453
0.02830899 -0.19922972 -0.09410959 -0.20823142 -0.019064194 -0.12111161 -0.015349527 -0.17183192
-0.054647263 -0.1920816 -0.18516392 -0.17966548 -0.2976985 -0.13476057 -0.1573 -0.12718943

fc3.weight f4 [128, 256]
00000000: eabe 8b3d 286b 05be 5b2c 1ebe 57a5 c63d
00000010: 94a2 063d eb4c 40be 7215 1bbe dd43 4bbc
00000020: e758 823c ed37 5abd 34d3 debc 4a21 00be
00000030: d768 5fbe 3a4c 07bd ef2b 74bd 4e2b 033c
00000040: 3d01 91be bbf4 093e c13b 56be f514 73be
00000050: 3b45 043e e79a 8f3c ec18 5d3d 18cd 4ebd
00000060: 3d86 b63c 3335 b1bc bcf7 8abe 9910 e9bd
00000070: 4653 38be 050a 383d 8053 753d eb93 28bd
00000080: f0f9 34be c318 863c 7e19 113e e245 cd3d
00000090: dc03 273d 9c1f ce3d 38a0 223e 6d1d f2bc
000000a0: 13e8 78bd cbf3 3fbe 5ec1 103d 3a41 093e
000000b0: 0c34 c0bc 4e8b 003e 636a 653d 0b8e d63d
000000c0: 4be6 9e3c e435 4fbe 03ef 263e 3d63 df3d
000000d0: 0ce7 d4bb 6f4f 1ebe 0d8e 0fbd 85f1 71bd
000000e0: 47ec 8abd c32e 88bd 88e8 39bd 1a3a 3dbe
000000f0: a530 dc3c 4799 49be 9f84 e63d e720 813d
00000100: 3db1 b03d 1714 643e 98d9 a43d 54c3 a5bd
00000110: adb5 57bd adf2 9bbd 83c7 2a3d d2e6 423e
00000120: 7805 183d 35b1 bfbd 76c1 c03c ef2d b7be
00000130: f104 cb3d c1d4 743b 36fa a5bd 798c 493b
00000140: 7795 c3bd 5b1d c4bd 3e18 443e 9e1d 7bbe
00000150: a848 943d 1e13 b7bc 8f71 1d3d 64f0 42bd
00000160: b2c7 273e 27a2 b13d 9955 80be 5e81 9f3d
00000170: 8407 b33d 6f1d f53d 2ca1 e83c 808b 113e
00000180: 6a87 a8bc 10ab 23be ac50 c1be ff27 59bd
00000190: e64c cfbc e9bc a5bd 9f48 12be 0cc8 b33d
000001a0: a39c f4bd b063 833d 596a c8bd df42 cf3d
000001b0: 37e6 773e 41bd a03d 0747 63be cc39 82bd
000001c0: 0b55 c43d ab66 ccbc 02b2 84bd 198b bd3d
000001d0: d8d1 aebd e130 a5be c92f 0cbe 1e88 6cbd
000001e0: d790 883b 57ab 2fbe 32af 36bd 11cb 62be
000001f0: 42bc 823c c7e8 903d 1555 c2bc f7fe a6bd
00000200: 688e 533d df7c 2dbe dd91 fbbc 042d 37bd
00000210: e375 343d 9fd3 adbe 9777 d43d da03 ccbd
00000220: c4c6 4abe 8501 86bc 163c 8dbd 567b 64bd
00000230: 8293 ad3d d39e 27be e177 033e ce73 bbbb
00000240: 004e 213d 0b0c 79be 6ecc 71bd e5e7 61be
00000250: b89a 81bd a124 1a3d 788b 2ebe a0d9 e13d
00000260: 173d de3d 72cb e0bd 0d0b 4c3e 0355 40bd
00000270: 12d3 313e 0d5a 95bd 6c39 583e d387 d93d
00000280: 8f2c a1bd cbbe c2bd dacc 44be c46c 033e
00000290: 2fa1 7ebe 747f febc f3f3 1d3e 602a 15be
000002a0: 1c93 a3bc c88d 30be 94f0 bfbe 8110 23be
000002b0: 3a80 823c db3d 4cbd 0b4c 3f3d 63e6 993a
000002c0: 9bf7 983d 23c5 413d ff56 1f3e b3ba cc3d
000002d0: 241f a63c 15f7 b2bc ea4e 643b afda 8dbd
000002e0: f961 e9bc c593 90bd e4c2 c93d 416e 99be
000002f0: f827 4d3e 6a8f 143e 0b7e 823d e5f5 b4bd
00000300: 5d8e 453e 6aff 30be fa64 31be b76f f23b
00000310: c90b 14be fc7a 973d fd7e b3bd 8255 47be
00000320: 3ffa 003e 2516 02bd 2a46 733e 8fa8 42be
00000330: 1e77 f9bc 499a 1ebe 267b f23d 5d9f 433d
00000340: 972a 483c 64ea eb3d 2c76 1d3e 5acf 563c
00000350: bc06 0b3e f47b 4fbe d1f7 ccbd 54b7 313e
00000360: 6187 77bd df77 b3bb 54b5 77be dd15 0d3e
00000370: 83b6 ac3d ab7c 463d 6733 6f3d 6809 f53b
00000380: 5e6d 633d e080 0bbe 587d 63bd 00a0 0d3d
00000390: e874 f3bc f62a 1bbe 5d5e 3c3d 1b11 78be
000003a0: eae0 4dbe a7ab 383e 3cf0 c73d 0b9b 583c
000003b0: 8f3b 91bd 7a0e bdbd 9c8e 3fbd 8c68 833d
000003c0: 5c56 f6bc de5a 0dbe 4f15 983c 4f7d 13bd
000003d0: 2d0a 193e e9a5 b4bd ae35 f8bd 605d 17be
000003e0: 2bb2 3fbe ed8a 1abd 8199 053e 66cc d3bc
000003f0: 260b 32be 83c8 abbe 4130 8c3d c6e9 5c3b
0.06823523 -0.13029158 -0.15446608 0.09699505 0.03286989 -0.18779342 -0.151449 -0.012406317
0.015911533 -0.05327599 -0.027200319 -0.12512699 -0.21817337 -0.03303168 -0.05961221 0.00800593
-0.28321257 0.13472264 -0.20921232 -0.23738463 0.12917034 0.017529918 0.053978845 -0.05048856
0.022280807 -0.021631813 -0.2714213 -0.11380119 -0.18000516 0.04493143 0.059894085 -0.04115669
-0.17673469 0.01636923 0.14169881 0.10023095 0.040775165 0.10064623 0.15881431 -0.029555047
-0.0607682 -0.18745343 0.03534066 0.13403788 -0.023462318 0.1255314 0.05600966 0.10476311
0.019396922 -0.20235401 0.16302113 0.109076 -0.0064972695 -0.15459989 -0.03504758 -0.05906822
-0.067833476 -0.06649544 -0.045387775 -0.18479195 0.026878664 -0.19687377 0.11255764 0.06305104
0.086275555 0.22273289 0.08049315 -0.080938965 -0.052663494 -0.07614646 0.041694175 0.19033363
0.03711459 -0.093599714 0.02352975 -0.35777232 0.09913052 0.0037358257 -0.081043646 0.0030753894
-0.095499925 -0.095759116 0.19149873 -0.24523017 0.072404206 -0.022347983 0.038438376 -0.047592536
0.16384771 0.08673506 -0.25065306 0.07788347 0.08741668 0.11968505 0.028397165 0.14213371
-0.020572383 -0.15983224 -0.3775686 -0.05301666 -0.025305223 -0.080926724 -0.14285515 0.0877839
-0.119439386 0.06415498 -0.09785909 0.101201765 0.24208914 0.07848597 -0.22195064 -0.0635868
0.09586533 -0.0249513 -0.06479265 0.092550464 -0.08536118 -0.32263854 -0.13690104 -0.057747
0.004167657 -0.17155205 -0.044600673 -0.22147776 0.015958909 0.07075649 -0.02372221 -0.081540994
0.05164948 -0.16942166 -0.030709201 -0.044720665 0.044057738 -0.33950517 0.103743725 -0.09961672
-0.19802386 -0.016358146 -0.06896226 -0.055781685 0.084754005 -0.1636918 0.12838699 -0.005720592
0.039381027 -0.24321 -0.05903285 -0.22061117 -0.063283384 0.03763259 -0.1704539 0.11027837
0.10851496 -0.10976304 0.1992609 -0.046956073 0.17365673 -0.072925664 0.21115655 0.106216095
-0.07869827 -0.09509047 -0.1921877 0.1283446 -0.24866174 -0.031066634 0.1542509 -0.14566946
-0.019967608 -0.17241585 -0.37488234 -0.15924264 0.015930284 -0.049863677 0.04670338 0.0011741634
0.07469102 0.047307145 0.1556053 0.099965475 0.02027852 -0.021846334 0.0034837076 -0.06926476
-0.0284891 -0.07059435 0.098516256 -0.2996693 0.20034778 0.14507833 0.06371697 -0.08835963
0.19292589 -0.17284933 -0.17323676 0.0073985714 -0.1445762 0.07396504 -0.087644555 -0.19466212
0.12595461 -0.0317594 0.23757234 -0.19009613 -0.030452307 -0.15488543 0.11839895 0.047759403
0.012217185 0.11519316 0.1537711 0.01311096 0.13576788 -0.20262128 -0.10008205 0.1735509
-0.06043184 -0.005476936 -0.24190265 0.13777871 0.08433249 0.048458736 0.05839863 0.007477928
0.055524223 -0.1362338 -0.05553946 0.034576416 -0.029718831 -0.15153107 0.04598843 -0.24225275
-0.20105329 0.1803423 0.09762618 0.013220559 -0.07091438 -0.09231277 -0.046766862 0.06416425
-0.030070476 -0.13804194 0.018564848 -0.036008175 0.14945288 -0.08820707 -0.121196136 -0.14781713
-0.1872031 -0.037730146 0.13046838 -0.0258543 -0.17387065 -0.33551416 0.06845141 0.0033708676

fc3.bias f4 [128]
00000000: 30a0 fdbd 5422 963b 10ea edbc e130 8f3c
00000010: ca66 c7bc 9f04 de3d 55d3 9e3d 94f5 733c
00000020: 8065 163e 50d6 4bbd 8b4c 7cbd 13ba f53c
00000030: 98b6 983d 9d4d 54bd aaa9 053c 155e cb3c
00000040: 98f0 853d 754f a1bd 0ff4 eabd fd1b 74bc
00000050: b99f c73d f650 97bc 1131 a83c ae2c 10bd
00000060: 13f5 75be b8ac 843e 1239 e6bc 3904 9c3c
00000070: a9b0 9d3e 952b 91bd 0a3d 9e3c f603 92bd
00000080: 00de c23d c6ba 893c bc19 b03d 77ce edbc
00000090: ef78 52b9 bca1 303e b085 233e e1d6 fa3d
000000a0: dfe6 d0b9 b9b7 253d a430 40bd f2ff b23d
000000b0: 5eaf 8f3c 1599 333d 48b7 43bc 7643 8e3e
000000c0: 85fd 6d3c 1cb8 a33c 332c 36bc 1bdb e1bc
000000d0: 76a3 ef3d 9725 723e 4d86 44bd aa14 d8bc
000000e0: e876 59bc b5af fb3d b6f1 943d ada4 073d
000000f0: d93c aa3e d588 3a3e 326b 4fbc 5c76 003e
00000100: 51e8 bebd d822 debc 5364 9c3d 5dbe 7e3d
00000110: a6e5 b9bd b214 cc3e bd58 a3bc 0fcd 0d3c
00000120: 47c9 bdbd df87 9dbc dc4f 1ebd 9dbe 063e
00000130: b0ba 913d 4a2c 9ebb 24c0 c8bc b1f9 0bbe
00000140: 383d f8bd 0b54 abbd 65b5 023d 569b fdbc
00000150: 67e2 573d a287 fcbd 1b04 b3bb d957 b33d
00000160: 71a9 17bd e57b 97bd efca 3ebc 5a46 d73b
00000170: c039 77bd a64d 403c 4b8b 2cbc e363 a9bd
00000180: 367c 013d 49f1 04bd 3cc9 693d ef13 9dbd
00000190: a8e9 a23d b1c4 1e3c a03a 773c 3f40 12be
000001a0: ec26 b0bd 83da bfbd 6b08 07bd f1df e7bc
000001b0: 7dbb 273d 000a 90bd 1ead cf3d b2b8 25bd
000001c0: 9fcf 9dbd 9a36 5cbd 6c5e 39bd be27 8fbd
000001d0: d4f8 ab3c 37f9 7a3d e955 72bd e695 0d3c
000001e0: fcd7 8b3d 9222 c7bd 086a 823d 98f4 9fbb
000001f0: 0f16 0f3d 707c 4fbd 4a79 aebd 73c3 04be
-0.12384069 0.004581729 -0.029042274 0.017479362 -0.024341006 0.10840725 0.07755152 0.014890093
0.14687157 -0.04976493 -0.061596435 0.029995954 0.07456702 -0.05183183 0.008158127 0.024825135
0.0654003 -0.07876483 -0.11472332 -0.014899251 0.097472616 -0.018471222 0.02053121 -0.03519886
-0.2401927 0.25913024 -0.028103385 0.019044982 0.30798844 -0.07088391 0.019316215 -0.07129662
0.095149994 0.016812693 0.085986584 -0.029029114 -0.00020072212 0.17249197 0.15968966 0.12248016
-0.00039844864 0.040458415 -0.046921387 0.08740224 0.017539676 0.043847162 -0.011945553 0.27785844
0.014525776 0.019985251 -0.011118936 -0.027570298 0.117010996 0.23647152 -0.04797964 -0.02637704
-0.013272978 0.12289373 0.07272665 0.03311603 0.33249548 0.1821626 -0.012659835 0.1254515
-0.093216546 -0.027116224 0.07636323 0.062193263 -0.09077005 0.3985954 -0.019939775 0.008654847
-0.09266906 -0.019229827 -0.03865038 0.1315865 0.07115686 -0.004827057 -0.024505682 -0.13669468
-0.121210515 -0.08365639 0.031911273 -0.030957859 0.05270615 -0.123305574 -0.005463136 0.0875699
-0.037026826 -0.07396678 -0.011645063 0.006569666 -0.06035781 0.011737263 -0.010531257 -0.08271005
0.031612597 -0.03245667 0.057076678 -0.07669818 0.07954723 0.00969045 0.015089661 -0.1428232
-0.08601174 -0.0936785 -0.032967012 -0.028305026 0.040950287 -0.07033157 0.10140441 -0.040459342
-0.07705616 -0.05376301 -0.045256063 -0.06990002 0.020992674 0.061272826 -0.05916396 0.008641696
0.06828305 -0.09723391 0.0636788 -0.004881453 0.034933146 -0.050655782 -0.08519228 -0.12965183

fc4.weight f4 [32, 128]
00000000: 27f7 23bd f99d d73d 2c50 2abe 60d4 12be
00000010: b0f3 aebd 05fa 47be 2801 143e 0dfc aa3d
00000020: 6c19 8ebd d0b3 b8bc 1ad6 e93d 1411 d9bd
00000030: 0ba3 ebbd b41a da3c 045f 853d 6d31 d1bd
00000040: 9f28 4abe a282 d7bc df92 6fbd 57a6 53be
00000050: a31b 45bd 2790 913d d041 afbd cf5a f9bc
00000060: 5933 43be cd82 e4bd 0d07 a2bd 3c6c b3bd
00000070: ab1c a13c 0f94 91bd ce7a 103e fed5 78bc
00000080: dbca 02be b60c 873d e45b 2abd fb1a d8bd
00000090: 3253 94bd 5b86 03be 1a0e c4bd fd06 063e
000000a0: 53e0 bb3d 595a a73d e28e 8c3d 176e 093e
000000b0: 0166 0b3e 06b4 1a3d a0dd 24be cb65 29be
000000c0: 77d0 923c 6618 f9bc 2f7d d43d 6540 e43c
000000d0: f3a6 6bbe da17 7dbe 2a35 44be 5a86 033e
000000e0: 0814 a73d b700 893d 5878 e9bd fa00 80bd
000000f0: ef8a 37be e4ab c73c cf58 24be 18e2 e7bc
00000100: 3b95 ec3b dc2c e43d 9d34 48bd 9a1f e1bd
00000110: 5240 01be 04d7 8dbe 2ab8 43be bc88 c73d
00000120: 03d2 15be 9753 4a3d fd06 063e cd26 493d
00000130: c35e cebd b66d 1a3b d103 563d 5bde f4bd
00000140: bd43 a1bd f5dd be3c 21b4 8b3c 5b7b 0cbe
00000150: 7fa5 123e 75e2 8f3d b22a 02be 1394 58be
00000160: 0b24 96bd 2a80 e9bc c474 3c3e a1c6 2fbe
00000170: a61f b63c e95e 94bc 248e f5bd abc1 8cbd
00000180: 4a56 61bd 7e23 9a3d 89c4 30bd e7c6 ad3d
00000190: ca7e f3bd 6cb4 d03d 1516 d1bd d3d9 15be
000001a0: e2c3 43be 2298 1e3e b955 1e3e fd89 05bd
000001b0: 29f6 1cbe 3f5f aebd 230f 203e c34b 03be
000001c0: a813 38bb e627 413c d7d1 08bd 2e9f c03d
000001d0: 48b8 7b3c 0271 823d f5a5 e4bd 7654 19bd
000001e0: 3f86 123e 488f c23d effc 40be 58ea 723d
000001f0: 430d 03be b657 2c3e 5596 e43d 3121 39bd
00000200: d759 bebd 6b95 acbd 77b3 153d 142e ba3d
00000210: f664 c6be a03e b7bd 350d ce3d bd44 ef3d
00000220: 1376 f5be 5190 9e3d d54d 77be 5499 97bc
00000230: 69c5 93bd 812f 013e 93dd a23d efea 5ebe
00000240: 8247 1abe af2b 09be 50b3 0cbe 6d28 d3bd
00000250: ea4c 3d3e ceb2 99be 590f 123e 768e c8bd
00000260: d51a 7abd 10d6 833d e2c3 ea3d dd42 80be
00000270: 9634 823d 6eca 7fbe f3e8 01be 86c3 77be
00000280: 85ce 8a3d b3ff 5cbe 0b88 9f3d 5cc9 90bd
00000290: 34a6 f03d 3ef8 973a c1e2 ee3d 7d85 3c3e
000002a0: 16ed 923e 1a8e 243e 9623 b6be 1b02 003e
000002b0: f937 063e e1d4 b13c a753 38be ce58 c53d
000002c0: 0533 97bd 5601 02bf 2e31 4d3c 3d55 3ebd
000002d0: f4e1 a43c 4826 b5bc a2e9 c3be cb1e 92be
000002e0: 06c1 563d d13f 013e 81c5 63be 705a 1abf
000002f0: c072 953d fe68 813d 0b39 d3bd a0ad c6bc
00000300: c6d8 04be f8fe b43d 0e91 153e 1150 913d
00000310: aa0e 023e c3e6 193d 3b35 493e 5724 30be
00000320: f816 bbbc a819 873d 68f7 4abe b9b6 53bb
00000330: e950 233e 245b 9ebe 27f7 98be 4d54 3abe
00000340: 1156 0abf dbe0 6dbd f388 683e 85f1 bebd
00000350: a7ee cabb 5dbb 6cbd 2c15 bcbe a3b5 cb3d
00000360: 8a25 e9bd e4bb 89bd 2441 a3be a7fb 87bd
00000370: 615e 853e 78e0 06bd e0ab 80be 88b2 74be
00000380: 9492 98bd 1099 dbbd 30e5 a63d 9295 d73d
00000390: 9cd5 fd3d 0feb 3e3e 7cf2 36be 3687 61bd
000003a0: 1922 1bbe 82ef f0bb 121d 87bb e3bf 30be
000003b0: 8f04 a0be 43ec 883e bd03 05bd 0e7b 0c3d
000003c0: 1cde 73be 80e2 4cbb d9f7 773c 1e79 c5be
000003d0: 6560 5cbc 447c 083e 013f a7bd 896a edbd
000003e0: eb49 853e e152 5f3d 80c4 bb3d 874b f43d
000003f0: 0ffa 19be f1d7 d03d 3ea6 19be 78da 583e
-0.040030625 0.10528178 -0.16632146 -0.14338827 -0.085425735 -0.19528969 0.14453566 0.08348856
-0.069384426 -0.022546679 0.1141779 -0.105989605 -0.11505707 0.026624061 0.065122634 -0.10214505
-0.19742058 -0.026307408 -0.058489677 -0.20668922 -0.04812206 0.07107573 -0.085574746 -0.030438809
-0.19062556 -0.11157761 -0.07911501 -0.087608784 0.01966699 -0.07108318 0.14109346 -0.015187738
-0.12772696 0.06594221 -0.04159154 -0.10552021 -0.07242431 -0.12844221 -0.09573002 0.13088603
0.09173646 0.08171529 0.0686319 0.13420902 0.1361313 0.03776934 -0.16100168 -0.16542737
0.01792167 -0.030407142 0.103754394 0.027862737 -0.23012905 -0.2471613 -0.19160905 0.1284422
0.081581175 0.066895895 -0.11399907 -0.06250186 -0.17924093 0.024373956 -0.16049503 -0.028306052
0.007219938 0.11141369 -0.0488783 -0.10992356 -0.12622193 -0.27703106 -0.19113222 0.09742877
-0.14630894 0.049396124 0.13088603 0.04910927 -0.10076668 0.0023563928 0.052249733 -0.119564734
-0.07874248 0.023299197 0.017053666 -0.13718931 0.14320944 0.07025615 -0.127116 -0.21150236
-0.073310934 -0.028503496 0.18403918 -0.17165615 0.022231888 -0.018111663 -0.11990002 -0.06872877
-0.055013932 0.07526301 -0.04315618 0.08485203 -0.118894175 0.10190663 -0.1020929 -0.14633875
-0.19117692 0.15487722 0.15462388 -0.0326023 -0.15328278 -0.085142605 0.15630774 -0.1282187
-0.0028087888 0.011789298 -0.033403244 0.09405361 0.01536376 0.06369211 -0.11164466 -0.037434064
0.14309023 0.09499985 -0.18846487 0.05930552 -0.12798028 0.16830334 0.11161486 -0.04519767
-0.09294479 -0.08426937 0.036548104 0.0909082 -0.38748902 -0.08947492 0.10061113 0.11683033
-0.47941646 0.0774237 -0.24150784 -0.01850573 -0.072153874 0.12615778 0.07952418 -0.21769308
-0.1506634 -0.1339557 -0.13740277 -0.10310445 0.18486372 -0.3001923 0.14263667 -0.09792797
-0.061060745 0.064373136 0.11463143 -0.25051013 0.06357686 -0.24979565 -0.1268652 -0.2419568
0.06777672 -0.21581917 0.0778962 -0.07069656 0.11750451 0.0011594368 0.116643436 0.18410297
0.28696507 0.16069832 -0.35574025 0.12500803 0.1310729 0.021707954 -0.18000661 0.09636079
-0.07382778 -0.5078329 0.012523932 -0.04646801 0.020127274 -0.02211298 -0.38264185 -0.28539118
0.052430175 0.12622 -0.2224331 -0.60294247 0.072972775 0.06318854 -0.103136145 -0.024252713
-0.12973318 0.08837694 0.14606115 0.070953496 0.12700906 0.037573587 0.19649212 -0.17201363
-0.0228381 0.065966904 -0.1982094 -0.0032304956 0.15948834 -0.3092891 -0.29876062 -0.1819622
-0.54037577 -0.058075767 0.22708492 -0.0932341 -0.0061930004 -0.05779587 -0.36734903 0.09946754
-0.11384113 -0.067252904 -0.31885636 -0.06639796 0.26048568 -0.032928914 -0.2513113 -0.2389623
-0.074498326 -0.10722554 0.08149183 0.10526575 0.123942584 0.18644355 -0.17865938 -0.055060588
-0.15149726 -0.0073527703 -0.0041233385 -0.17260699 -0.31253478 0.26742753 -0.03247427 0.03429704
-0.23815197 -0.0031262934 0.015134775 -0.38568968 -0.013450717 0.13328654 -0.08166314 -0.115925856
0.26032957 0.0545224 0.09168339 0.11928468 -0.15036796 0.101974376 -0.15004823 0.21177089

fc4.bias f4 [32]
00000000: 339d 32be 7e29 d33d 93e3 cebd 2792 66be
00000010: 88fa 043e 1a19 3bbe e711 53be 7f66 a9bc
00000020: e5c3 e53d 0532 22be 2f8a 5a3e 29a0 80bd
00000030: 4b27 29be bfae a4bd ce53 2cbe 1195 dfbd
00000040: 81e4 b9bd b89b 4bbe 9db6 083e 4957 68bd
00000050: 62e4 81bd f998 5fbd de4d 49be 220a 28be
00000060: cc1a 1f3e 7dbc 89be 4cee 133d 55a7 dabd
00000070: 4049 a13e fc3b 3dbe f146 dfbd 3254 4e3e
-0.17442779 0.103106484 -0.10102 -0.2251669 0.12986195 -0.18271294 -0.20612298 -0.020678757
0.112190045 -0.15839393 0.21341775 -0.06280548 -0.16518895 -0.08041143 -0.16828844 -0.10917104
-0.09076787 -0.1988362 0.13350911 -0.056723867 -0.06342389 -0.054589245 -0.1965861 -0.16410115
0.15537566 -0.26901618 0.03611593 -0.10676447 0.31501198 -0.18479913 -0.10902203 0.20149305

Q.weight f4 [51, 32]
00000000: 460d 4abe 8e2c d733 9394 7fbd db30 0ebd
00000010: 0680 2cb4 ebed 583d d546 ee3d 61b9 9636
00000020: 1be2 43b3 7db3 e53c 3658 eab3 c5b6 06bd
00000030: 93bf 8dbc a6fd c93d 8798 543e 4d5a 523b
00000040: 2488 763d 589a d5bc cd10 a934 3b93 17bd
00000050: 4048 39be 9503 adbd cbef f5bc 401b 56be
00000060: f11a 7bb4 5fe7 5d3d cdd9 3235 64cc 053c
00000070: 81ea 3134 ca20 833d f111 283d 0705 ebb3
00000080: edec 51be 8c52 5333 4e09 2ebe bbd7 96be
00000090: 36a1 f9b3 4a00 45be dc91 21be 1a31 aa36
000000a0: a797 2134 6710 25be e19d afb3 71c8 303e
000000b0: ff5b 1b3e 146a 18bd 34c9 8ebd a304 503e
000000c0: 4368 173e ff77 883d 6bb3 2ab5 efcf 5d3d
000000d0: 632a 763d a26f 8cbd 37fc 373d 32d5 0c3d
000000e0: cadc 55b4 8e1d b73c f19b 18b5 2023 f23d
000000f0: ddc0 ca33 edbf 6e3d 607a 4c3e 87db 0eb4
00000100: f321 173e 42b6 7f33 c0da 803e e649 2dbc
00000110: 83b5 c1b2 0559 06be 5efe d2bd 9c38 ddb6
00000120: 959e 4535 ce69 9abd 2441 2234 6a93 6b3e
00000130: 830a 17be ee1e ad3d 1809 4cbd 060a b73a
00000140: 929e a8bd d047 2e3d efbc 14b5 c03d 69bd
00000150: 7deb bfbd 7936 1ebe d06a e8bb d251 9e3d
00000160: d8c7 1ab4 6019 393e ea2d 5eb4 2148 81bd
00000170: bee1 d1b0 0b3a 843e 8a7e 033e a625 9cb3
00000180: 4a61 d8bd 3722 ca31 d68e 373e 3430 21be
00000190: 688f 3534 6782 2e3d 2c68 6d3e bb46 cab6
000001a0: fbb9 0235 4860 0abe 2c50 4234 49d7 0bbe
000001b0: 44a7 beba cdf2 98bd 7cbf e3bd 08c4 893e
000001c0: b1af 563e c51d 19bd c5a8 8db4 c70d 71be
000001d0: 7a3d eb3d dea1 90bc 14dc 213e 1173 f33b
000001e0: 5230 5c33 d466 053d 1310 7ab5 f92b 4e3e
000001f0: ab5d 8fb3 dbed 3c3e 968d f93d be15 2632
00000200: 2736 cbbd a0d2 bbb2 678f fabd 342c 773e
00000210: 3ac1 be33 8680 113e 69bb d6bd 1105 2037
00000220: 0f8e 2935 ffc7 a5bd 441a bd34 25a9 5b3d
00000230: 5c4d a2bd 5e6e 873d e855 f2bd a376 593e
00000240: ebda 8dbb add8 48be d218 3534 a548 6fbd
00000250: de47 cabc 4ed1 d3bd 0809 30be cd5e 23be
00000260: 6457 3d34 9193 31bd 12e7 59b3 1372 6c3e
00000270: 6b7a 1fb4 8941 313e 1d55 863d e04e 8d33
00000280: 2681 70bc 8a19 8233 d0dc 713e c208 32bd
00000290: 4213 7233 d6d9 5cbe 2962 27bc 1d16 8837
000002a0: 685e f4b2 87ee 703e 2572 9834 ba5a 963d
000002b0: b436 c7bd 526e 323e acde c73c f395 f53d
000002c0: 1d28 233e 957b 35be 1321 c3b5 55e4 2c3e
000002d0: 4247 323e 0cb1 053e 23a8 8dbd 08c4 893e
000002e0: 7879 1032 fbf6 16be ddf3 cb35 77d6 11bd
000002f0: 91d2 0cb3 11d8 b03d cb1c 593d acb0 5a33
00000300: 60f7 ccbd 0878 6534 3b0b a0bd e8ee 5f3c
00000310: 94e8 b7b3 f54f c83d e8d2 f2bd 2620 13b6
00000320: 8458 8cb4 7815 393e be6a 2db4 da38 e2bd
00000330: 15f2 8f3e a27c 58bc 3b5b 3d3e 422b 45be
00000340: 908e 393e 4313 09be f8f2 c235 5225 62be
00000350: a387 cf3c c8cd c2bc 0825 9d3e 4d31 193e
00000360: 657f 83b4 2e49 24be 735d 3035 a635 24be
00000370: aadf 4a34 705e fbbc 9ac3 45bd 672e 8eb3
00000380: 1b29 aabd ee46 b032 9da0 523e 56d3 b63d
00000390: 93f9 35b2 363c 66be 9d66 a3be ca9f 2636
000003a0: 576d 3e34 f001 b9bd 8468 d6b3 71e4 9d3d
000003b0: 0b85 293d 49bb 9ebd 8b51 a03d 79d5 0a3e
000003c0: 49ea 563a 0c20 6cbc 241f 8cb5 6b91 163e
000003d0: 4ff8 373e 5ea8 b6bd 2410 6e3e f89c 893d
000003e0: cec4 ae33 d0f8 5e3c af60 5d35 0ece 40bd
000003f0: 4c97 bf32 f194 27be ae6b 37bd ff72 ce33
-0.19731626 1.0019822e-07 -0.06239755 -0.03471456 -1.6065323e-07 0.05296127 0.11634604 4.4919293e-06
-4.5607617e-08 0.028039688 -1.09125196e-07 -0.032889146 -0.017303264 0.09862833 0.2076131 0.003209728
0.060188428 -0.026074573 3.1490927e-07 -0.037005644 -0.18093967 -0.08447949 -0.030021569 -0.20908833
-2.3385998e-07 0.05417573 6.662711e-07 0.008166406 1.6569722e-07 0.064027384 0.041032735 -1.0943955e-07
-0.20500536 4.920234e-08 -0.16995737 -0.29461464 -1.162429e-07 -0.19238392 -0.15778297 5.072111e-06
1.5049464e-07 -0.16119538 -8.1777905e-08 0.17263962 0.15171812 -0.03721054 -0.0697197 0.20314269
0.14785866 0.066635124 -6.359102e-07 0.05415338 0.060099017 -0.0685723 0.044918265 0.034383006
-1.9917493e-07 0.02235296 -5.6851337e-07 0.11823106 9.4414396e-08 0.058288503 0.19968557 -1.3304644e-07
0.14759044 5.9537577e-08 0.25166893 -0.010576701 -2.2550699e-08 -0.13119896 -0.10302423 -6.5929034e-06
7.3618986e-07 -0.07539712 1.5111124e-07 0.23005453 -0.14750104 0.08453165 -0.04981336 0.0013964779
-0.0823337 0.042548954 -5.540923e-07 -0.056943655 -0.09371088 -0.15450467 -0.007092811 0.0773045
-1.441507e-07 0.18076086 -2.0692065e-07 -0.063125856 -1.5270911e-09 0.25825533 0.1284124 -7.271164e-08
-0.105654314 5.8828635e-09 0.17925581 -0.15741044 1.690911e-07 0.04260483 0.2318427 -6.0283032e-06
4.869941e-07 -0.13513291 1.8096824e-07 -0.13656344 -0.0014545699 -0.074681856 -0.11120507 0.26907372
0.20965458 -0.037381906 -2.6386093e-07 -0.23540412 0.11486335 -0.01765531 0.1580661 0.0074294885
5.126669e-08 0.032568768 -9.315565e-07 0.20133962 -6.6759945e-08 0.1845011 0.121852085 9.667415e-09
-0.09922438 -2.1865446e-08 -0.12234383 0.24137956 8.882712e-08 0.14209184 -0.104849644 9.537923e-06
6.316413e-07 -0.08094787 3.5223104e-07 0.053628106 -0.079249114 0.06612848 -0.118327916 0.21236663
-0.0043290756 -0.19613905 1.6865968e-07 -0.05841889 -0.024692472 -0.10342656 -0.17190945 -0.15954132
1.7633789e-07 -0.04335362 -5.0734407e-08 0.23090391 -1.4852564e-07 0.17310156 0.06559203 6.5801714e-08
-0.014679229 6.058242e-08 0.2361939 -0.043465383 5.636253e-08 -0.21567473 -0.010216274 1.622276e-05
-2.844827e-08 0.23528491 2.8395257e-07 0.073415235 -0.09727231 0.17424896 0.02439817 0.11991491
0.15933271 -0.17722924 -1.4538258e-06 0.16883977 0.17409995 0.1305582 -0.06916835 0.26907372
8.409522e-09 -0.14742653 1.5195652e-06 -0.03560492 -3.27878e-08 0.086349614 0.053005975 5.0917762e-08
-0.100081205 2.1370954e-07 -0.07814642 0.0136677995 -8.563907e-08 0.097808756 -0.118566334 -2.192342e-06
-2.6141436e-07 0.18074596 -1.6150713e-07 -0.11046 0.2811438 -0.0132133085 0.18491833 -0.19254783
0.1812079 -0.13386254 1.452484e-06 -0.22084549 0.025333231 -0.023779765 0.30692315 0.14960213
-2.4493343e-07 -0.16043541 6.5701096e-07 -0.1603609 1.8894085e-07 -0.03068468 -0.048282243 -6.620831e-08
-0.083086215 2.0521352e-08 0.20569082 0.08927028 -1.0592333e-08 -0.22483906 -0.31914225 2.4828937e-06
1.7734907e-07 -0.09033573 -9.984163e-08 0.07709587 0.041386645 -0.077505656 0.07828053 0.13557996
0.00081983634 -0.014411937 -1.0439876e-06 0.1470391 0.17965816 -0.08918832 0.23248345 0.067193925
8.138305e-08 0.013609126 8.246961e-07 -0.04707151 2.2304128e-08 -0.1636541 -0.044780426 9.61354e-08

Q.bias f4 [51]
00000000: 8fc7 2632 bfa6 0f33 d717 3d32 8601 1cb2
00000010: 4841 c2b2 60e1 f4b2 83d0 36b2 37b6 2fb2
00000020: 78ca a2b2 b0ad 4eb2 0e3f f431 5181 3033
00000030: 4a8d 8033 b500 8933 de70 b933 fdcc a033
00000040: 7707 ad33 e5fc e833 be9c d933 88fb ca33
00000050: fca5 7c33 3907 f7b2 2159 32b4 ed23 98b4
00000060: 2c5f ddbc 2aad 1a3f 4bde a23e b917 8a3d
00000070: e505 b03b b315 5d3a c77f 4a39 03fb 8638
00000080: 1a00 7b37 bf4b 5a36 85c7 3d35 a112 d133
00000090: 2491 d932 d82c 0332 79ca 2031 ea2e 2033
000000a0: 32dd ff32 093e 6932 cfc3 ebb2 94e8 6db2
000000b0: 810d b3b2 7e81 e631 81b7 9432 2e54 8431
000000c0: e1f6 75b1 6029 97b2 66b6 41b2
9.707846e-09 3.3446437e-08 1.10066685e-08 -9.0807415e-09 -2.2614259e-08 -2.8507827e-08 -1.0641204e-08 -1.02277715e-08
-1.8951354e-08 -1.203027e-08 7.108503e-09 4.1095806e-08 5.986165e-08 6.379688e-08 8.635264e-08 7.487868e-08
8.057298e-08 1.0849343e-07 1.0133361e-07 9.452111e-08 5.8824284e-08 -2.8757869e-08 -1.6609967e-07 -2.8338346e-07
-0.02702292 0.6042048 0.3181022 0.06742806 0.0053717964 0.00084337144 0.00019311822 6.4363725e-05
1.49607895e-05 3.2528621e-06 7.0698326e-07 9.7357095e-08 2.5328127e-08 7.6354e-09 2.3398157e-09 3.729557e-08
2.9786495e-08 1.357649e-08 -2.7446644e-08 -1.3848098e-08 -2.0844483e-08 6.7086026e-09 1.7312916e-08 3.8512757e-09
-3.5792527e-09 -1.7597529e-08 -1.1275551e-08
