checkpoints/mad4pg/mad4pg_per1_checkpoint_actor_target.pth (torch, 166151 bytes, 10 tensors)

fc1.weight f4 [256, 24]
-0.18005261 -0.10337346 0.12488095 0.07547569 -0.18367545 0.8239951 -0.0398831 0.05668031
-0.1345141 -0.20203426 -0.053859945 -0.16997872 -0.013754338 1.0931094 0.10575516 -0.15799089
-0.21124212 -0.20892452 0.11099079 0.03126282 -0.086658016 1.228733 -0.072994776 -0.08248642
-0.13398498 0.34810308 0.088950716 0.25487384 -0.50577873 0.09125271 0.086145885 0.06278323
0.10272292 0.30201176 -0.15592685 0.3752952 -0.2691168 -0.2516673 -0.06433572 0.5283522
0.03359995 0.013534793 0.22277422 -0.28975004 -0.1330703 -0.31845042 0.08216881 -0.019474367
0.20357706 0.29935324 -0.122461304 -0.20663331 0.11155424 -0.24425697 -0.08714094 -0.038295124
0.2717446 0.19653939 -0.099788494 -0.53194684 0.33260468 -0.11237724 -0.086702116 -0.47529894
0.23897143 0.044492487 -0.013173746 -0.3371381 0.42044488 -0.34407994 -0.14629768 -0.25063366
0.6862028 -0.17293186 -0.009355715 -0.5220894 0.20995344 -0.049423955 0.074765205 -0.669306
0.4065293 -0.16252865 0.035988238 -0.23841113 -0.10199136 -0.112196095 -0.10021785 -0.062675536
0.7077746 -0.029932152 0.010927676 0.10021011 -0.12939273 -0.16393839 -0.06899915 0.039909866
0.020899288 -0.059237216 -0.037124604 0.46621522 0.3994076 -0.39939493 -0.09466442 0.37427315
0.0060034194 -0.067680255 -0.021001922 0.22843322 0.49868464 -0.031002617 0.052015983 0.26479927
0.06993772 -0.08772623 0.05517131 0.22921035 0.5130543 0.189356 -0.049102496 0.03452723
0.3840201 0.08549711 -0.1714747 0.2904895 0.1592302 -0.364223 -0.0144105395 0.19466716
0.21874422 0.31509003 -0.071935415 0.03258473 0.4304 -0.40401316 -0.05317744 0.20675497
0.3606402 0.2395565 0.07956923 -0.0509556 0.13193159 -0.52090365 -0.13092695 -0.036703918
0.09606973 0.33749935 -0.2017988 -0.311303 -0.02636326 0.116128534 -0.015482119 -0.5813839
-0.008263251 0.20910986 -0.03074856 -0.20849557 -0.05675777 0.37734044 -0.11567194 -0.0931615
-0.14453623 0.14306648 -0.17047334 -0.15052128 -0.10588649 0.16561268 -0.20621203 -0.111084364
-0.005103253 -0.52251446 -0.011759043 -0.17433737 -0.04938211 -0.17259431 -0.03712675 -0.14105816
0.02867274 -0.20477922 -0.32876438 -0.05169455 -0.2958369 -0.01680051 -0.14132501 0.039985504
0.23274215 -0.2778979 -0.32622716 -0.062238213 -0.14189392 -0.07734993 -0.21929578 -0.09304365
-0.042823263 -0.3792024 -0.02991373 0.23928025 -0.29139823 -0.44456568 0.12044889 0.27712926
-0.28012305 -0.43388295 -0.15952785 0.067228176 0.020815287 -0.25768948 -0.14272624 0.21675968
-0.03388103 -0.504185 -0.003188351 0.58568364 0.36760554 -0.23121142 -0.1759576 0.49959174
0.6344409 -0.14922626 0.02953481 -0.09035794 0.13300478 -0.57475615 0.06577445 -0.117589094
0.62124854 -0.1821872 0.057431594 0.041891687 0.05884818 -0.26142412 -0.013278541 0.040846873
0.59043664 -0.0663767 -0.016316466 -0.02893443 -0.17524174 0.5496787 -0.017916339 -0.1180451
0.5308424 0.85004556 0.0037551345 0.093389586 -0.12798434 -0.27870986 0.08990947 0.1273611
0.12872757 1.0236351 -0.029271966 -0.0526331 0.15448551 -0.37215218 -0.11785888 0.08917871
00000000: b65f 38be 77b5 d3bd 95c1 ff3d 0093 9a3d
00000010: 6b15 3cbe 58f1 523f 765c 23bd 9d29 683d
00000020: 10be 09be 12e2 4ebe 3f9c 5cbd e70e 2ebe
00000030: e059 61bc 02eb 8b3f 2996 d83d 5dc8 21be
00000040: db4f 58be 4ff0 55be 244f e33d 710d 003d
00000050: c279 b1bd 1f47 9d3f 497e 95bd a4ee a8bd
00000060: 5c33 09be 913a b23e cb2b b63d d37e 823e
00000070: b77a 01bf b3e2 ba3d 416d b03d 7e94 803d
00000080: 6560 d23d 49a1 9a3e 4aab 1fbe b126 c03e
00000090: adc9 89be 89da 80be 72c2 83bd 1742 073f
000000a0: 1aa0 093d 09c1 5d3c ed1e 643e 1e5a 94be
000000b0: 9543 08be ef0b a3be 1f48 a83d b588 9fbc
000000c0: 8176 503e d444 993e fecc fabd af97 53be
000000d0: 8d76 e43d 801e 7abe f376 b2bd 59db 1cbd
000000e0: 1c22 8b3e 9f41 493e e95d ccbd ab2d 08bf
000000f0: 294b aa3e 0a26 e6bd e190 b1bd 625a f3be
00000100: edb4 743e c13d 363d b2d6 57bc 5d9d acbe
00000110: 8d44 d73e 3f2b b0be 0fcf 15be 0e53 80be
00000120: fdaa 2f3f 0d15 31be b648 19bc a7a7 05bf
00000130: 09fe 563e c670 4abd 801e 993d a357 2bbf
00000140: 9c24 d03e e96d 26be 6768 133d 0c22 74be
00000150: d9e0 d0bd 11c7 e5bd 043f cdbd 085c 80bd
00000160: b730 353f 4634 f5bc ff09 333c f53a cd3d
00000170: 877f 04be 77df 27be 6d4f 8dbd 8778 233d
00000180: fc34 ab3c b9a2 72bd f80f 18bd c3b3 ee3e
00000190: 277f cc3e 7e7d ccbe 6bdf c1bd bba0 bf3e
000001a0: 55b8 c43b f29b 8abd 390c acbc 66ea 693e
000001b0: 9853 ff3e 33f9 fdbc b60e 553d c593 873e
000001c0: 823b 8f3d cfa9 b3bd 50fb 613d 1eb6 6a3e
000001d0: 8757 033f 8ae6 413e b31f 49bd 6d6c 0d3d
000001e0: 489e c43e 1c19 af3d 1097 2fbe 0abb 943e
000001f0: 3e0d 233e 707b babe 2f1a 6cbc d456 473e
00000200: 7cfe 5f3e 7b53 a13e e052 93bd 9177 053d
00000210: 645d dc3e d0da cebe 96d0 59bd 93b7 533e
00000220: d5a5 b83e 4d4e 753e 31f5 a23d d2b6 50bd
00000230: 1319 073e f159 05bf b711 06be d956 16bd
00000240: 35c0 c43d b7cc ac3e 58a4 4ebe 1b63 9fbe
00000250: c3f7 d7bc ccd4 ed3d b7a8 7dbc 93d5 14bf
00000260: 9662 07bc e520 563e 67e4 fbbc dd7f 55be
00000270: d67a 68bd c432 c13e 69e5 ecbd 75cb bebd
00000280: 4e01 14be 0580 123e 9090 2ebe 4022 1abe
00000290: 04db d8bd 5f96 293e 3f29 53be 3380 e3bd
000002a0: 3039 a7bb 82c3 05bf 00a9 40bc 7f85 32be
000002b0: e544 4abd 90bc 30be 3812 18bd 8d71 10be
000002c0: 18e3 ea3c a5b1 51be ce53 a8be aabd 53bd
000002d0: ef77 97be 39a1 89bc 81b7 10be d7c7 233d
000002e0: f553 6e3e a248 8ebe 3f07 a7be 7fed 7ebd
000002f0: a44c 11be a469 9ebd 138f 60be ab8d bebd
00000300: 7267 2fbd d126 c2be a40d f5bc e205 753e
00000310: 2632 95be 1d9e e3be e8ad f63d e3e3 8d3e
00000320: 4a6c 8fbe e825 debe 455b 23be edae 893d
00000330: d284 aa3c e0ef 83be d426 12be 40f6 5d3e
00000340: d6c6 0abd 4512 01bf a7f3 50bb 5def 153f
00000350: cb36 bc3e b0c2 6cbe 3b2e 34be 7dca ff3e
00000360: b86a 223f c5ce 18be fcf2 f13c 950d b9bd
00000370: 6832 083e 3823 13bf c1b4 863d 8dd2 f0bd
00000380: 250a 1f3f 488f 3abe 643d 6b3d 9e96 2b3d
00000390: ca0a 713d 62d9 85be 3d8e 59bc 0d4f 273d
000003a0: db26 173f 82f0 87bd 1caa 85bc e607 edbc
000003b0: 9272 33be beb7 0c3f 49c5 92bc a1c1 f1bd
000003c0: 4ae5 073f 969c 593f b418 763b 0a43 bf3d
000003d0: 540e 03be 0fb3 8ebe 7522 b83d f36a 023e
000003e0: 29d1 033e 7a06 833f c3cb efbc ce95 57bd
000003f0: 7331 1e3e bb8a bebe ff5f f1bd 54a3 b63d

fc1.bias f4 [256]
-0.17600417 -0.15913601 -0.15698336 -0.5141689 -0.10502647 -0.108051054 -0.25575927 -0.3277913
-0.43606433 -0.4414421 -0.18013643 -0.24542533 0.1759387 -0.24364783 -0.30733693 -0.3841802
-0.19380975 -0.38963243 -0.20390336 -0.25026166 -0.06255895 -0.67930305 -0.260484 -0.36952296
0.07586586 -0.35700473 -0.33057392 -0.5267436 -0.39980963 -0.10580938 -0.17202891 -0.08541296
-0.38053775 -0.2585929 -0.20594375 -0.20016816 -0.5085407 -0.16057332 -0.56491745 -0.010225436
-0.45166948 -0.27988747 -0.27186 -0.63547707 -0.19333223 -0.35382137 -0.0029891587 -0.21976759
-0.23450713 -0.037175104 -0.32777497 0.19538039 -0.0636771 -0.23982333 -0.12635696 -0.41245985
-0.16440473 -0.17281541 -0.39667746 -0.44112465 -0.34244308 -0.18098699 0.021515276 -0.14043587
-0.31933138 -0.38505468 -0.6349184 -0.21626551 -0.42297724 -0.36379048 -0.15633994 -0.3902143
-0.18760985 -0.030998366 -0.15933032 -0.11797073 -0.18618158 -0.21917213 -0.3216098 -0.30358195
-0.3677034 -0.245385 -0.09152655 0.08270802 -0.35353252 -0.27722153 -0.2586338 -0.18481952
-0.5750419 0.10415764 -0.40811676 -0.09990748 -0.36350957 -0.22663194 -0.4829164 -0.06356914
-0.079938196 -0.11256207 -0.24783917 -0.23316889 -0.3887143 -0.18044281 -0.38139564 -0.15944745
0.042392205 -0.10819877 -0.50250334 0.019375611 -0.13321193 -0.060704987 -0.50363034 -0.011831151
-0.14430863 -0.28755146 -0.14091592 -0.17949298 -0.3172532 -0.18931311 0.03824224 -0.11893624
-0.25174135 -0.24974537 -0.16593115 -0.17496754 -0.4352921 -0.008214593 -0.054952465 -0.34429938
-0.42878667 -0.54945195 -0.0014619674 -0.082978845 -0.18988764 -0.07366669 -0.19259495 -0.32566065
-0.40616506 -0.4318631 -0.13489884 -0.035173837 -0.095223986 -0.31608024 -0.38231504 -0.124615446
-0.021816095 0.09062655 -0.71610355 -0.17028797 0.027172184 -0.09166206 -0.088192835 -0.2095014
-0.6794366 -0.42825088 -0.28955784 -0.41162008 -0.5151324 -0.30253804 -0.009237387 -0.102825634
0.10448085 -0.10635278 -0.18641801 -0.14801276 -0.09883403 -0.2160755 -0.003187114 -0.13928841
-0.09549423 -0.24966301 -0.05308024 -0.012910466 -0.07351211 0.08486512 -0.13745427 -0.41450948
-0.17751674 -0.47788268 -0.15158413 -0.03203125 -0.41383618 -0.07154865 -0.0978616 0.028050106
-0.45387322 -0.42106375 -0.20143723 0.059200402 -0.09318104 -0.35916734 -0.23820986 -0.4068106
-0.5579528 -0.16601193 -0.046127748 -0.3470317 -0.3000834 -0.25443172 -0.40578455 -0.3954473
-0.33233264 -0.1797507 -0.10017782 -0.06712911 -0.42580616 -0.41962126 0.091835774 -0.11714717
-0.43528077 -0.21568634 0.042384915 -0.6292399 -0.32615188 0.025667926 -0.3022844 -0.2021988
-0.47684065 -0.33530238 0.07941746 -0.14997742 -0.044888876 -0.36840814 -0.37581134 -0.055028263
-0.6519635 -0.22393222 -0.031062922 -0.25029233 0.043947533 0.055691417 -0.21631987 -0.20183869
-0.23177132 -0.3603067 -0.5748787 -0.44654885 -0.48889688 -0.024914948 0.13218413 -0.06909748
-0.37956062 -0.29723257 -0.2006271 -0.057603836 -0.046971396 -0.3471045 0.008924556 -0.09169093
-0.53279334 -0.24074525 -0.2927364 0.010029827 0.025009299 -0.47382605 -0.14286564 -0.0020834564
00000000: 703a 34be 8df4 22be 3fc0 20be 93a0 03bf
00000010: 1e18 d7bd df49 ddbd e1f2 82be 43d4 a7be
00000020: d343 dfbe b304 e2be af75 38be c750 7bbe
00000030: 4629 343e d17e 79be 445b 9dbe 44b3 c4be
00000040: 1076 46be e77d c7be 0bcc 50be 4c22 80be
00000050: e81e 80bd cee6 2dbf 295e 85be 1d32 bdbe
00000060: 8f5f 9b3d 53c9 b6be fc40 a9be abd8 06bf
00000070: d9b3 ccbe 97b2 d8bd 5928 30be fdec aebd
00000080: d8d5 c2be 4a66 84be ebe2 52be e2f8 4cbe
00000090: b92f 02bf 556d 24be 6e9e 10bf 9688 27bc
000000a0: 3941 e7be 694d 8fbe 3c31 8bbe a0ae 22bf
000000b0: e2f8 45be 1328 b5be c3e5 43bb c10a 61be
000000c0: a322 70be ec44 18bd 1fd2 a7be cc11 483e
000000d0: 2469 82bd 3f94 75be b863 01be f02d d3be
000000e0: b759 28be 86f6 30be 4f19 cbbe 17db e1be
000000f0: b354 afbe a754 39be ce40 b03c 6cce 0fbe
00000100: 677f a3be e325 c5be 038a 22bf b574 5dbe
00000110: 7990 d8be bf42 babe 9417 20be 2bca c7be
00000120: cc1c 40be 49f0 fdbc 7d27 23be a39a f1bd
00000130: 62a6 3ebe a96e 60be 0aaa a4be 186f 9bbe
00000140: 9f43 bcbe 3546 7bbe 4672 bbbd d362 a93d
00000150: 3702 b5be fbef 8dbe a66b 84be 5441 3dbe
00000160: f235 13bf 9a50 d53d aef4 d0be 4b9c ccbd
00000170: ed1d babe 3412 68be d240 f7be 8a30 82bd
00000180: a3b6 a3bd f186 e6bd 8dc9 7dbe d3c3 6ebe
00000190: 9005 c7be 00c6 38be 4a46 c3be 3146 23be
000001a0: 73a3 2d3d 5197 ddbd 0fa4 00bf 9ab9 9e3c
000001b0: b568 08be cba5 78bd ebed 00bf 72d7 41bc
000001c0: a4c5 13be f239 93be 434c 10be 02cd 37be
000001d0: 036f a2be 4cdb 41be e5a3 1c3d d894 f3bd
000001e0: 3ee4 80be 40bd 7fbe dbe9 29be b12a 33be
000001f0: 9bde debe 8096 06bc d615 61bd 0248 b0be
00000200: ed89 dbbe e2a8 0cbf 7c9f bfba d0f0 a9bd
00000210: e871 42be 90de 96bd 9c37 45be febc a6be
00000220: def4 cfbe 291d ddbe ec22 0abe 7112 10bd
00000230: cb04 c3bd 45d5 a1be ccbe c3be 6236 ffbd
00000240: abb7 b2bc 6a9a b93d 9052 37bf f85f 2ebe
00000250: 3398 de3c 51b9 bbbd 729e b4bd 8987 56be
00000260: 8fef 2dbf b343 dbbe ed40 94be debf d2be
00000270: b8df 03bf 44e6 9abe 6958 17bc 3f96 d2bd
00000280: 0efa d53d 7ccf d9bd 5de4 3ebe a890 17be
00000290: 7f69 cabd e542 5dbe e6de 50bb 9fa1 0ebe
000002a0: 7b92 c3bd a9a7 7fbe aa6a 59bd 6b86 53bc
000002b0: 848d 96bd c4cd ad3d d0c0 0cbe 963a d4be
000002c0: f3c6 35be 0aad f4be df38 1bbe 3333 03bd
000002d0: 56e2 d3be 1988 92bd aa6b c8bd 56c9 e53c
000002e0: 1262 e8be ab95 d7be 9045 4ebe 1f7c 723d
000002f0: b3d5 bebd c8e4 b7be 49ed 73be 7b49 d0be
00000300: ffd5 0ebf 08ff 29be 73f0 3cbd 24ae b1be
00000310: 88a4 99be e044 82be fec2 cfbe 1278 cabe
00000320: 8127 aabe 9110 38be 072a cdbd fd7a 89bd
00000330: 4403 dabe 99d8 d6be 6514 bc3d dbea efbd
00000340: 1fdd debe e1dc 5cbe ce9b 2d3d de15 21bf
00000350: 61fd a6be 8b45 d23c 05c5 9abe 340d 4fbe
00000360: 7524 f4be c1ac abbe 9fa5 a23d ae93 19be
00000370: 66dd 37bd fe9f bcbe 586a c0be 5165 61bd
00000380: 14e7 26bf 7d4e 65be ab77 febc 5126 80be
00000390: 5402 343d af1c 643d f582 5dbe cdae 4ebe
000003a0: 7655 6dbe 1f7a b8be 402b 13bf 0da2 e4be
000003b0: b150 fabe 6f1a ccbc 475b 073e fb82 8dbd
000003c0: c555 c2be de2e 98be 3171 4dbe 00f2 6bbd
000003d0: 1465 40bd aeb7 b1be 4d38 123c 74c8 bbbd
000003e0: 2565 08bf ec85 76be 8ce1 95be 2554 243c
000003f0: 4de0 cc3c 5499 f2be 5f4b 12be 998a 08bb

fc2.weight f4 [128, 256]
0.45860264 0.09568083 0.034894723 0.2821711 0.1494009 -0.017928692 0.10552418 -0.04820069
0.37148649 -0.15737739 -0.22545293 0.22612628 -0.15608118 -0.068498604 -0.35512558 -0.08552045
-0.06701857 -0.18085329 -0.042938568 -0.4381072 0.09941159 0.3274951 -0.024108581 0.18707725
-0.042096097 0.038931765 -0.2811901 0.20789535 0.37444204 -0.01237615 0.26994112 0.091477394
0.29099536 0.15412882 -0.07216433 -0.38425103 -0.032729954 -0.051492978 -0.164155 0.2257674
0.17666693 0.003504536 0.2210839 0.35377333 -0.06758652 0.37362096 -0.108794965 -0.12568857
-0.05529872 0.047648165 -0.1823406 0.13300902 -0.14215423 -0.25330743 0.12840666 0.27340966
0.31318462 -0.11142814 -0.0051095737 0.10061988 -0.03910173 -0.14811732 -0.2329698 -0.08462027
0.046948936 0.14016531 0.43588403 -0.19895004 -0.14252113 0.103187926 -0.29519987 0.11555235
0.105420254 0.040604915 0.020350365 0.24317913 -0.13132967 0.103205286 -0.19927308 0.17105056
0.19508629 -0.23394465 0.16741781 -0.3293587 -0.114452794 -0.06839631 0.37216622 -0.23587714
-0.6943274 -0.18194085 -0.1600347 0.028942244 -0.20901005 -0.1510047 -0.078414336 0.06760261
-0.36572218 -0.28910083 -0.17044532 -0.14203605 -0.10014738 -0.2714558 -0.03194579 -0.31566736
-0.3995406 -0.44967985 0.27914283 0.25786895 -0.07839556 -0.1918999 -0.042434685 -0.25355452
-0.12070103 -0.027011355 -0.37309852 -0.15998338 -0.029707612 -0.35258985 0.00014769085 0.025618736
-0.30522892 -0.08874229 -0.27602592 0.16394775 -0.05210349 -0.09338224 -0.15876023 -0.17163907
0.14342402 -0.23412669 -0.2514359 0.29572093 0.630793 -0.21504033 -0.040940832 -0.30978763
-0.005835371 0.015138329 0.03791516 -0.24260907 0.17517152 -0.3305837 0.2507076 -0.22346891
0.106612176 0.039990723 -0.59881085 -0.049590662 -0.20571607 -0.13421313 0.17893162 -0.05901152
-0.3385737 0.26840982 -0.03910261 0.060344737 -0.28735995 -0.3626129 0.02703105 0.35438836
0.26128545 -0.26459846 0.078132614 -0.070835814 -0.064428836 0.1190355 0.10439195 -0.011374801
-0.1908194 0.055713877 0.02533093 -0.17360781 -0.124541186 -0.24578317 0.17802861 0.09985783
-0.07753264 0.22452097 0.08526018 -0.29800388 0.031618513 0.03557744 -0.022445455 0.11635841
0.338882 0.12055493 0.21761921 0.02258954 -0.0461169 -0.008569194 -0.21030137 0.11420815
-0.16240406 0.15027362 0.23625867 -0.03571818 -0.037316564 -0.2288847 0.2682729 -0.051557373
0.09881732 0.17271803 -0.2779467 -0.29629734 0.05712206 0.0046948506 -0.23350826 -0.029454248
0.071975864 -0.36329508 -0.09338731 0.096693814 -0.0836061 -0.10706599 -0.02878001 -0.009025154
-0.065352306 -0.23066941 -0.16643459 -0.39136824 0.1283099 0.00018121899 -0.13519861 -0.038237333
0.23689906 0.23440512 -0.51179296 -0.05381086 -0.32457247 -0.2293771 0.20763871 -0.08104679
-0.13172892 0.19638479 -0.27301103 0.1620825 0.4316761 -0.07185219 0.19501658 -0.35361034
0.046726625 -0.1413372 0.12702775 -0.11169642 0.07093416 -0.18158896 0.00033506297 -0.047206532
0.27143374 0.086708985 0.11492411 0.0021132252 0.1949167 0.10988917 -0.13158284 -0.18603438
00000000: f7cd ea3e 50f4 c33d c5ed 0e3d bb78 903e
00000010: 8dfc 183e 31df 92bc 101d d83d 166e 45bd
00000020: 7a33 be3e 8a27 21be 22dd 66be a68d 673e
00000030: bfd3 1fbe ff48 8cbd 05d3 b5be 5825 afbd
00000040: 0841 89bd 9b31 39be 5ae0 2fbd 964f e0be
00000050: 4e98 cb3d 70ad a73e 5c7f c5bc 2e91 3f3e
00000060: f56c 2cbd ea76 1f3d 26f8 8fbe 85e2 543e
00000070: deb6 bf3e 56c5 4abc b935 8a3e 8058 bb3d
00000080: 58fd 943e f2d3 1d3e e4ca 93bd 8dbc c4be
00000090: d80f 06bd 4dea 52bd 4018 28be 922f 673e
000000a0: 2de8 343e 5cac 653b d163 623e c721 b53e
000000b0: cd6a 8abd 3f4b bf3e e5cf debd 81b4 00be
000000c0: e980 62bd b92a 433d 7fb7 3abe 8433 083e
000000d0: e190 11be 83b1 81be 097d 033e 5afc 8b3e
000000e0: bc59 a03e 7034 e4bd 366e a7bb cc11 ce3d
000000f0: 2329 20bd 11ac 17be a38f 6ebe 644d adbd
00000100: 874d 403d 7f87 0f3e 312c df3e 8fb9 4bbe
00000110: 0ff1 11be 3154 d33d 7024 97be b6a6 ec3d
00000120: 93e6 d73d 5751 263d cfb5 a63c f303 793e
00000130: 497b 06be 4b5d d33d 3e0e 4cbe e127 2f3e
00000140: b3c4 473e 308f 6fbe 936f 2b3e b4a1 a8be
00000150: 3a66 eabd 5d13 8cbd 928c be3e c789 71be
00000160: 71bf 31bf b44e 3abe 23e0 23be 4918 ed3c
00000170: bb06 56be faa0 1abe b297 a0bd 3d73 8a3d
00000180: f03f bbbe 0605 94be 3889 2ebe e671 11be
00000190: 121a cdbd 41fc 8abe 97d9 02bd 279f a1be
000001a0: 9690 ccbe 703c e6be cfeb 8e3e 6607 843e
000001b0: da8d a0bd 6881 44be fecf 2dbd e6d1 81be
000001c0: 1a32 f7bd eb46 ddbc c506 bfbe afd2 23be
000001d0: 615d f3bc a886 b4be 76dd 1a39 62de d13c
000001e0: f746 9cbe 85be b5bd 4553 8dbe ebe1 273e
000001f0: 786a 55bd 303f bfbd 0b92 22be 27c2 2fbe
00000200: bfdd 123e e8be 6fbe 35bc 80be bc68 973e
00000210: a67b 213f 8833 5cbe 93b1 27bd 7c9c 9ebe
00000220: a436 bfbb c106 783c ed4c 1b3d 836e 78be
00000230: 2a60 333e 4442 a9be bf5c 803e 09d5 64be
00000240: 7c57 da3d 50cd 233d ab4b 19bf 941f 4bbd
00000250: 3ca7 52be 2b6f 09be da39 373e 10b6 71bd
00000260: 8859 adbe 036d 893e 0f2a 20bd 0b2c 773d
00000270: d820 93be 66a8 b9be 3870 dd3c 6472 b53e
00000280: 35c7 853e 7379 87be fe03 a03d 5e12 91bd
00000290: 44f3 83bd e2c8 f33d 72cb d53d 605d 3abc
000002a0: 2966 43be 3c34 643d cf82 cf3c 3fc6 31be
000002b0: 730f ffbd 95ae 7bbe 224d 363e 4382 cc3d
000002c0: 6fc9 9ebd d3e8 653e e49c ae3d f793 98be
000002d0: 6a82 013d a6b9 113d 88df b7bc 514d ee3d
000002e0: f181 ad3e 81e5 f63d 92d7 5e3e b30d b93c
000002f0: 13e5 3cbd ce65 0cbc 3e59 57be f6e5 e93d
00000300: 404d 26be 54e1 193e cbed 713e 3a4d 12bd
00000310: 41d9 18bd c060 6abe 115b 893e d32d 53bd
00000320: bc60 ca3d ffdc 303e 084f 8ebe 49b4 97be
00000330: d2f8 693d 43d7 993b ca1c 6fbe 094a f1bc
00000340: 1568 933d d001 babe d941 bfbd 6807 c63d
00000350: ad39 abbd 6a45 dbbd 0ec4 ebbc 3dde 13bc
00000360: 6ed7 85bd 9a34 6cbe d46d 2abe 6b61 c8be
00000370: ac63 033e 9a05 3e39 8171 0abe c09e 1cbd
00000380: ab95 723e e507 703e dd04 03bf c768 5cbd
00000390: 5d2e a6be d5e1 6abe 3e9f 543e dcfb a5bd
000003a0: f2e3 06be 1819 493e 1ac8 8bbe f4f8 253e
000003b0: a604 dd3e 3e27 93bd 6db2 473e 6a0c b5be
000003c0: 6b64 3f3d b3ba 10be 9013 023e 18c1 e4bd
000003d0: ee45 913d 75f2 39be 64ab af39 a35b 41bd
000003e0: 5df9 8a3e 7b94 b13d 555d eb3d 097e 0a3b
000003f0: 3e98 473e 930d e13d a7bd 06be cc7f 3ebe

fc2.bias f4 [128]
-0.13917373 -0.11036353 -0.20644625 -0.19107904 0.03743688 -0.19986399 -0.05931389 -0.07467582
0.008121159 -0.18879427 0.06260201 -0.0983996 -0.09373508 -0.020563532 -0.25834343 -0.14005782
-0.032471742 -0.1685558 -0.26065803 -0.16374373 -0.26855567 0.015611534 -0.27967128 -0.12137746
-0.29771802 -0.07494409 -0.16118054 -0.121653594 -0.19938417 -0.10001804 -0.024814647 -0.01705028
-0.025627123 -0.117759295 -0.21107201 -0.04111519 -0.15087578 -0.009760752 -0.38783705 -0.5290809
-0.07814495 -0.16980745 -0.21602878 -0.3125679 -0.12984295 0.08347197 -0.025213962 -0.15119027
-0.16945426 -0.095046684 -0.0022323765 -0.1251663 -0.48909152 -0.25595844 -0.28880224 -0.17404608
-0.14874506 -0.15609872 -0.17019784 -0.18756878 -0.23402849 -0.4077234 -0.015697008 -0.04886363
0.017889988 -0.57098806 -0.15123829 -0.46198818 -0.2717809 -0.14614509 -0.017922912 -0.2823693
-0.014802573 -0.042919263 -0.05208153 -0.06597536 -0.25671622 -0.054494984 -0.25795308 0.019728718
-0.14155808 -0.06235241 -0.22518034 -0.01156882 -0.080983154 -0.047003105 -0.14629096 -0.09230522
-0.05601772 -0.17816728 -0.22446638 -0.15869018 -0.09393393 0.032592334 -0.024703555 -0.06297286
-0.1141865 -0.056678537 0.037616212 -0.24835695 -0.17453893 -0.23764102 -0.13828124 -0.15971228
-0.36296165 -0.067306034 -0.102626435 -0.02812356 -0.18124522 -0.3232002 -0.17674308 -0.23882927
-0.18093994 -0.19228241 0.019880995 -0.07002223 -0.1400116 -0.15706947 -0.02313992 -0.2714787
-0.26062468 -0.35488793 -0.090290174 -0.15380196 -0.26390156 -0.06837994 -0.16676514 -0.22107325
00000000: 8f83 0ebe 4606 e2bd a566 53be 39aa 43be
00000010: 6a57 193d 25a9 4cbe 1ff3 72bd a3ef 98bd
00000020: 9c0e 053c 4953 41be 7c35 803d bb85 c9bd
00000030: 2df8 bfbd da74 a8bc 9745 84be 516b 0fbe
00000040: 1701 05bd e499 2cbe f874 85be 70ac 27be
00000050: 2180 89be 85c7 7f3c 1331 8fbe bf94 f8bd
00000060: 7f6e 98be 497c 99bd 830c 25be 8525 f9bd
00000070: 5d2b 4cbe 42d6 ccbd 1648 cbbc 07ad 8bbc
00000080: f9ef d1bc c92b f1bd 4323 58be 6768 28bd
00000090: 2e7f 1abe 90eb 1fbc 9492 c6be d971 07bf
000000a0: 760a a0bd 01e2 2dbe a636 5dbe e608 a0be
000000b0: 8df5 04be 5af3 aa3d 838d cebc 9fd1 1abe
000000c0: 6b85 2dbe d6a7 c2bd 104d 12bb 982b 00be
000000d0: 346a fabe fc0c 83be e3dd 93be 2339 32be
000000e0: a050 18be 58d8 1fbe 5848 2ebe 0812 40be
000000f0: 2aa5 6fbe 1fc1 d0be 0397 80bc 3b25 48bd
00000100: 068e 923c 462c 12bf 36de 1abe b789 ecbe
00000110: de26 8bbe 0fa7 15be 12d3 92bc b592 90be
00000120: 7e86 72bc 1ccc 2fbd 7153 55bd 171e 87bd
00000130: 4f70 83be 2236 5fbd 6d12 84be 1f9e a13c
00000140: 9af4 10be 3e65 7fbd ad95 66be 268b 3dbc
00000150: 7fda a5bd 5486 40bd 4ccd 15be 850a bdbd
00000160: d672 65bd 7c71 36be 84da 65be ae7f 22be
00000170: 6f60 c0bd 8a7f 053d 1c5f cabc eaf7 80bd
00000180: 9dda e9bd c127 68bd 7513 1a3d 4951 7ebe
00000190: 55ba 32be 2b58 73be 9999 0dbe 9e8b 23be
000001a0: 1cd6 b9be bfd7 89bd cf2d d2bd 6163 e6bc
000001b0: 5998 39be 7f7a a5be 23fc 34be a98f 74be
000001c0: 5248 39be aee5 44be 78dd a23c d167 8fbd
000001d0: 335f 0fbe d2d6 20be ee8f bdbc 42ff 8abe
000001e0: 9970 85be dfb3 b5be 0eea b8bd 437e 1dbe
000001f0: 1b1e 87be c80a 8cbd 7bc4 2abe 0761 62be

fc3.weight f4 [2, 128]
0.36085674 -0.45373037 -0.8548803 -0.35732618 0.21986184 0.62402266 -0.056702223 -0.343325
-6.56453e-05 0.21351743 -0.34131038 -0.51410687 0.110315114 -0.5110498 0.10369442 0.37416855
0.4712446 0.29148746 -0.52344507 -0.34774077 -0.05699436 0.5962092 0.41660106 0.16630024
0.4505084 0.19946893 0.083513275 0.19972968 -0.3651616 0.3229236 -0.24642383 0.21758524
-0.056669522 0.81506544 0.22607718 -0.5445073 0.5308335 -0.20823047 0.34400132 -0.60662574
-0.014349499 -0.2713872 -0.15080647 0.5442514 0.67305136 -0.13967445 0.09459466 0.23100232
0.34411868 0.26383498 0.3014793 -0.3836967 0.80626845 0.5443245 0.09592402 0.3944308
0.40045747 -0.25643393 0.037194856 -0.15755725 -0.47001463 0.18296924 -0.3539333 -0.21489356
-0.14056115 0.40294683 -0.18539561 0.360598 0.015978223 -0.21923874 -0.06530332 -0.25212237
0.11536015 -0.36493286 -0.38270628 -0.08994728 -0.43721285 -0.08081224 -0.32282275 -0.008727647
0.17562322 -0.6477155 0.04448068 -0.43419406 0.2605799 -0.14823242 -0.43622997 -0.16924036
-0.40014753 0.37766105 0.6063215 0.42233336 -0.43639684 0.21479641 -0.36770704 -0.25340798
0.37435904 -0.42086437 -0.0934233 0.46981892 -0.32792395 0.29297847 -0.4361477 0.34934932
0.46393314 0.24313393 0.042338476 -0.2331125 -0.3994822 0.23519187 0.09589097 0.2831428
-0.07151247 -0.05460531 0.20541763 -0.38626865 0.29808888 -0.2916345 -0.45479077 -0.3451197
0.47210485 -0.90928596 0.2165224 0.13761581 0.27533168 -0.23814778 -0.37653646 0.0037497291
0.52941066 0.030847222 -0.35468522 -0.1837715 0.68863094 -0.21483693 -0.6056336 0.21151674
-0.83467364 0.5693017 -0.13485073 0.33631623 -0.06449991 -0.049252283 -0.6059663 -0.43575507
-0.31579417 0.5097217 0.4485458 -0.06107436 0.51239485 -0.39059758 -0.3751393 -0.17360674
-0.10976675 0.064551525 0.19742791 -0.6095033 -0.4257179 0.33016527 -0.026905257 -0.4528125
0.6172599 0.081308804 0.4400538 0.3020619 0.2782692 -0.6957818 0.51009953 0.029456405
0.49961853 -0.42167136 0.08227003 -0.30506143 0.55064076 0.57579654 -0.487648 -0.7125052
0.52526885 -0.55578786 -0.3543169 0.44761172 0.07821351 0.07786002 0.46731827 -0.15453914
-0.1563114 0.16632825 0.59107983 -0.6480339 -0.1768117 0.65331787 0.38117066 -0.56108475
0.40910074 -0.35638306 0.04782004 -0.60737175 -0.88658726 -0.7986717 0.5098689 -1.0654044
-0.6202521 0.25526193 -0.23488136 -0.27520424 -0.33792096 0.2935135 0.24162576 -0.54925424
0.46523675 0.52197576 -0.36817902 -0.17249659 0.002591486 -0.37073085 0.60114545 -0.77897775
-0.06280726 -0.16267315 -0.10590703 0.54641956 -0.32441542 0.46303472 -0.033829298 -0.60609394
-0.17799181 0.20006078 0.6708922 -0.94439554 0.505888 0.28800693 -0.46091223 0.49675727
0.6277529 0.6563747 -0.5706686 -0.02136232 0.22664633 -0.33828363 0.38186097 0.20184642
-0.46062407 -0.6265555 0.48721534 -0.49133936 0.07427082 -0.18335095 0.022985023 -0.71065336
0.052657135 0.10134318 0.13114904 -0.4319865 0.5977926 -0.1389729 0.6421588 -0.958816
00000000: 37c2 b83e 594f e8be 6fd9 5abf 75f3 b6be
00000010: 7623 613e f3bf 1f3f 9740 68bd 4bc8 afbe
00000020: 0dab 89b8 50a4 5a3e 3cc0 aebe 829c 03bf
00000030: e4ec e13d 29d4 02bf bd5d d43d 0593 bf3e
00000040: f946 f13e d83d 953e 7f00 06bf 140b b2be
00000050: eb72 69bd 2ba1 183f bc4c d53e 9c4a 2a3e
00000060: 09a9 e63e 9541 4c3e 0209 ab3d f085 4c3e
00000070: 76f6 babe 3e56 a53e 8756 7cbe aace 5e3e
00000080: 4d1e 68bd 21a8 503f c780 673e d564 0bbf
00000090: b4e4 073f 5e3a 55be f120 b03e d34b 1bbf
000000a0: 291a 6bbc 43f3 8abe 036d 1abe 0f54 0b3f
000000b0: 184d 2c3f d206 0fbe d8ba c13d df8b 6c3e
000000c0: 5330 b03e 6115 873e 7f5b 9a3e e573 c4be
000000d0: 9c67 4e3f da58 0b3f d073 c43d d5f2 c93e
000000e0: c308 cd3e 4f4b 83be a259 183d b056 21be
000000f0: c2a5 f0be 4a5c 3b3e bf36 b5be 0f0d 5cbe
00000100: 43ef 0fbe 0c4f ce3e 59d8 3dbe 4da0 b83e
00000110: c3e4 823c 1f80 60be bfbd 85bd 2f16 81be
00000120: f141 ec3d 7bd8 babe 14f2 c3be 4836 b8bd
00000130: 5dda dfbe e380 a5bd 0649 a5be 68fe 0ebc
00000140: 93d6 333e afd0 25bf 6031 363d af4e debe
00000150: bb6a 853e 3dca 17be 8959 dfbe 584d 2dbe
00000160: 23e0 ccbe ca5c c13e e337 1b3f 143c d83e
00000170: 686f dfbe 97f3 5b3e 1944 bcbe b1be 81be
00000180: fdab bf3e 897b d7be b754 bfbd 1b8c f03e
00000190: a6e5 a7be 4601 963e c04e dfbe eadd b23e
000001a0: a588 ed3e 1af8 783e 1c6b 2d3d 0bb5 6ebe
000001b0: ee88 ccbe 23d6 703e 7c62 c43d 18f8 903e
000001c0: 2175 92bd d1a9 5fbd 0059 523e 01c5 c5be
000001d0: 1b9f 983e 1e51 95be 56da e8be 88b3 b0be
000001e0: bab7 f13e f7c6 68bf 0cb8 5d3e 29eb 0c3e
000001f0: 46f8 8c3e 03dd 73be 63c9 c0be 04be 753b
00000200: 7587 073f 50b3 fc3c 4d99 b5be 992e 3cbe
00000210: 1e4a 303f 36fe 5bbe ce0a 1bbf d897 583e
00000220: 2cad 55bf c2bd 113f 4f16 0abe a431 ac3e
00000230: 8718 84bd c3bc 49bd 9c20 1bbf 4a1b dfbe
00000240: c6af a1be 1f7d 023f cca7 e53e 1c29 7abd
00000250: 4f2c 033f 68fc c7be 4212 c0be f7c5 31be
00000260: 64cd e0bd 9733 843d 8b2a 4a3e 6908 1cbf
00000270: b2f7 d9be 6c0b a93e 6a68 dcbc 0ad7 e7be
00000280: bf04 1e3f 3b85 a63d bb4e e13e dba7 9a3e
00000290: 4d79 8e3e c21e 32bf e295 023f 8f4e f13c
000002a0: 00ce ff3e 4fe5 d7be 317d a83d 0331 9cbe
000002b0: cbf6 0c3f 6767 133f 00ad f9be be66 36bf
000002c0: 0578 063f 1d48 0ebf 0669 b5be 5d2d e53e
000002d0: 682e a03d 1375 9f3d 5744 ef3e 823f 1ebe
000002e0: 1810 20be f451 2a3e 0251 173f 8de5 25bf
000002f0: 200e 35be d73f 273f cd28 c33e 40a3 0fbf
00000300: a775 d13e d777 b6be f2de 433d b77c 1bbf
00000310: 62f7 62bf c075 4cbf c586 023f 2c5f 88bf
00000320: d7c8 1ebf b1b1 823e bd84 70be 92e7 8cbe
00000330: fa03 adbe 6747 963e be6c 773e ed9b 0cbf
00000340: 8333 ee3e 34a0 053f f681 bcbe f2a2 30be
00000350: ecd5 293b 6fd0 bdbe abe4 193f 166b 47bf
00000360: 18a1 80bd ca93 26be c9e5 d8bd 27e2 0b3f
00000370: c719 a6be e312 ed3e 9790 0abd f928 1bbf
00000380: 7c43 36be bcdc 4c3e 97bf 2b3f e8c3 71bf
00000390: e081 013f a575 933e b0fc ebbe f856 fe3e
000003a0: 6ab4 203f 2c08 283f 5617 12bf 0800 afbc
000003b0: fa15 683e 8333 adbe 4883 c33e d4b0 4e3e
000003c0: ebd6 ebbe f165 20bf 4a74 f93e d590 fbbe
000003d0: 4d1b 983d 5ac0 3bbe 164b bc3c 61ed 35bf
000003e0: 02af 573d 038d cf3d ef4b 063e 562d ddbe
000003f0: f008 193f e94e 0ebe 8564 243f f774 75bf

fc3.bias f4 [2]
-0.1292869 0.11863146
00000000: c963 04be 0df5 f23d

bn1.weight f4 [256]
1.6474235 0.77075326 1.0373203 1.2622249 0.9148925 1.2329268 0.56684643 0.6587703
1.3226336 1.2301279 1.0513655 1.3096286 1.4109169 0.911467 1.0971277 1.6437204
1.5155652 1.1396201 1.3156947 1.5675524 0.953695 1.5203393 0.9871753 1.2974985
1.2339207 1.2587578 1.3845423 1.695918 1.1434188 0.9758394 0.5045595 1.0175544
1.2095797 1.1143701 1.1023443 1.2733984 0.96968794 0.51347464 1.2917745 1.1143847
1.0039719 0.6623361 1.010056 1.6567924 0.9228929 1.3761171 0.64524096 1.0384439
1.1479174 1.1447237 1.0940068 1.0178303 1.5139018 0.8963412 1.1346347 1.4418764
1.1515115 0.6823306 1.2645919 1.0435083 1.1095976 0.8595503 1.329691 0.9503738
0.902922 1.449672 1.0492984 1.4093192 1.1817508 1.1170242 1.1422687 1.1424863
1.3926468 0.9746146 0.9454311 0.8711337 1.1306535 0.48577914 1.0098189 1.1789811
0.96286345 0.94351727 0.99648476 0.8123322 0.9241455 0.7352908 1.5827103 1.0699453
1.41897 1.235829 1.2352641 0.93192625 1.4498264 1.3535687 1.2398175 0.9411045
0.75832075 0.9592409 0.77236325 1.2748617 1.1088965 1.4988543 1.4553425 0.99643797
0.92362463 0.6766063 1.1307012 0.82295376 1.3866487 1.332683 1.2694688 1.0662112
1.168776 1.1765152 0.9772939 1.2185453 1.4503417 1.3696834 0.85983545 1.1424766
0.61104167 0.7478162 0.6221924 1.1416075 0.954841 1.1575767 1.2180287 1.1335263
1.5802299 1.0347716 0.7031221 1.3968384 1.6358714 1.1797885 0.9150096 1.0938598
1.0392339 1.2679023 1.0001218 1.4047806 1.0346237 1.1163034 1.2071887 1.2139817
0.7240463 1.0361437 1.4816766 1.0809789 1.1540152 0.80228937 1.0941663 1.0538964
1.4898012 1.6776956 0.74877256 1.0669966 1.2785906 1.5357126 1.576043 1.2163545
1.4844419 0.9462604 1.4393619 1.3690736 1.109478 0.86302215 1.3312383 0.968318
1.213979 1.4128155 1.1398402 0.5651729 0.9766645 0.6095577 1.2899898 1.0440793
0.997603 1.6417243 0.7253177 1.1336638 1.1355115 1.114571 0.8789183 0.5202603
1.2806891 1.3820735 1.1154331 1.2317849 0.82039744 1.3079215 1.1523831 1.2693369
0.5662534 0.8271893 1.1248308 0.8934383 1.1300032 1.396471 1.5425003 1.0455424
1.1722355 1.3539952 0.7206674 1.0330489 1.3143588 1.2478684 1.1305584 1.0947874
0.5480249 0.8619018 0.9750032 1.3584596 1.3651766 1.1318833 1.2098548 0.9169879
1.3703635 0.8408582 0.8352723 1.037316 1.4863832 0.8770264 1.1673423 1.2315316
1.9613423 1.2982491 1.415691 1.2344166 0.6503492 0.43381083 1.2648883 1.1356754
0.8534418 1.3288827 1.2135403 1.170829 1.2339854 0.7722918 0.8455966 1.1799372
1.2909014 1.411259 1.0383805 1.1204973 1.4084338 0.79162246 1.1273048 1.0036634
1.0048687 1.074929 0.9248221 1.0842887 0.9488056 0.95409024 0.9778062 1.3328673
00000000: c6de d23f 1650 453f e9c6 843f 9690 a13f
00000010: 6536 6a3f 8cd0 9d3f d91c 113f 2ca5 283f
00000020: 0f4c a93f d574 9d3f 2593 863f e9a1 a73f
00000030: ed98 b43f e755 693f ae6e 8c3f 6e65 d23f
00000040: 0afe c13f 12df 913f af68 a83f 8fa5 c83f
00000050: 5b25 743f 7a9a c23f 85b7 7c3f 6e14 a63f
00000060: 1df1 9d3f fa1e a13f af38 b13f d713 d93f
00000070: 8c5b 923f 9cd0 793f d02a 013f 393f 823f
00000080: 82d3 9a3f aea3 8e3f 9e19 8d3f b8fe a23f
00000090: 783d 783f 1373 033f de58 a53f 28a4 8e3f
000000a0: 2782 803f dc8e 293f 8449 813f c611 d43f
000000b0: b642 6c3f 9b24 b03f 832e 253f bbeb 843f
000000c0: f5ee 923f 4e86 923f 6a08 8c3f 4348 823f
000000d0: 89c7 c13f 9e76 653f b63b 913f 688f b83f
000000e0: bb64 933f 38ad 2e3f 26de a13f ae91 853f
000000f0: 4b07 8e3f 7d0b 5c3f 5133 aa3f b34b 733f
00000100: e525 673f da8e b93f 694f 863f 9264 b43f
00000110: 9c43 973f a6fa 8e3f dc35 923f fe3c 923f
00000120: 4042 b23f 5880 793f c607 723f 9e02 5f3f
00000130: 41b9 903f 0bb8 f83e bf41 813f dae8 963f
00000140: 387e 763f 598a 713f a019 7f3f 01f5 4f3f
00000150: cd94 6c3f 053c 3c3f 4096 ca3f f8f3 883f
00000160: cfa0 b53f a52f 9e3f 221d 9e3f b892 6e3f
00000170: e993 b93f bd41 ad3f 57b2 9e3f 39ec 703f
00000180: 4f21 423f d090 753f 99b9 453f ab2e a33f
00000190: 52f0 8d3f 75da bf3f aa48 ba3f 8f16 7f3f
000001a0: aa72 6c3f 1236 2d3f d1ba 903f 19ad 523f
000001b0: b47d b13f 5b95 aa3f f47d a23f 9c79 883f
000001c0: 749a 953f 0d98 963f ef2f 7a3f 4bf9 9b3f
000001d0: cca4 b93f c951 af3f 2d1e 5c3f ac3c 923f
000001e0: 3a6d 1c3f e270 3f3f 0048 1f3f 3220 923f
000001f0: 7670 743f 792b 943f 5de8 9b3f 6417 913f
00000200: f944 ca3f 6573 843f cfff 333f 9acb b23f
00000210: 3c64 d13f 4f03 973f 123e 6a3f 9903 8c3f
00000220: 9e05 853f 9f4a a23f fe03 803f dacf b33f
00000230: 8d6e 843f 08e3 8e3f 2985 9a3f c163 9b3f
00000240: 195b 393f 5ba0 843f 94a7 bd3f 845d 8a3f
00000250: c5b6 933f d662 4d3f a40d 8c3f 14e6 863f
00000260: ceb1 be3f bbbe d63f 8faf 3f3f 5893 883f
00000270: dba8 a33f 3b92 c43f c7bb c93f 81b1 9b3f
00000280: 3102 be3f 1f3e 723f 033d b83f ce3d af3f
00000290: 6003 8e3f 05ef 5c3f 0466 aa3f b0e3 773f
000002a0: aa63 9b3f 23d7 b43f 49e6 913f 2caf 103f
000002b0: af06 7a3f f90b 1c3f 631e a53f 64a4 853f
000002c0: e962 7f3f 0624 d23f 6cae 393f e51b 913f
000002d0: 7158 913f 43aa 8e3f ca00 613f c72f 053f
000002e0: 9fed a33f c9e7 b03f 83c6 8e3f 21ab 9d3f
000002f0: 9105 523f f969 a73f 4a81 933f a279 a23f
00000300: fcf5 103f aec2 533f 75fa 8f3f 5fb8 643f
00000310: f2a3 903f 90bf b23f a670 c53f 55d4 853f
00000320: d00b 963f b74f ad3f a97d 383f f23a 843f
00000330: e93c a83f 27ba 9f3f 23b6 903f fe21 8c3f
00000340: 5c4b 0c3f 99a5 5c3f cf99 793f 01e2 ad3f
00000350: 1bbe ae3f 8de1 903f 86dc 9a3f b8bf 6a3f
00000360: 1268 af3f 7c42 573f 68d4 553f c5c6 843f
00000370: ce41 be3f cd84 603f 796b 953f d4a2 9d3f
00000380: 440d fb3f 072d a63f 5d35 b53f 5d01 9e3f
00000390: 497d 263f 741c de3e dce7 a13f d05d 913f
000003a0: 297b 5a3f d418 aa3f 4a55 9b3f badd 953f
000003b0: 3cf3 9d3f eab4 453f 0579 583f 2f08 973f
000003c0: 423c a53f 23a4 b43f a7e9 843f 756c 8f3f
000003d0: 8f47 b43f c5a7 4a3f 864b 903f 0b78 803f
000003e0: 8a9f 803f 4697 893f 24c1 6c3f f9c9 8a3f
000003f0: ece4 723f 423f 743f 8251 7a3f 659b aa3f

bn1.bias f4 [256]
-0.3199053 -0.036788255 -0.039735414 0.31038046 0.3856342 0.22677872 0.023489762 0.033642597
0.035939317 0.18978956 0.08545284 0.081975564 0.2976666 -0.03499622 0.22538276 -0.08469648
0.45305383 0.018016528 0.09801647 0.13205375 -0.30048636 -0.087393835 0.065818496 0.17902961
0.14213821 0.27358484 0.00468084 -0.37411696 -0.09780717 0.25301477 0.14534958 -0.037999187
0.08859362 0.10408287 0.22403024 0.065372095 -0.022671962 0.07674102 0.33130863 0.08990197
-0.07082377 0.07454487 -0.066580914 -0.3008699 -0.048464336 0.07422962 0.10163701 0.21256319
0.062308505 -0.018096467 0.14391077 0.005304383 0.0674617 0.13028347 0.20391482 -0.12990808
-0.009965369 0.10863465 0.22935133 -0.22773862 -0.07436483 0.15140006 0.04426351 0.121066354
0.09200029 0.057816703 -0.1901989 0.3377944 0.22186303 0.1967643 0.0113639375 0.33133525
0.1444524 -0.2412791 0.26508087 -0.16053331 -0.07207663 -0.11993587 -0.16100125 -0.17705724
-0.0128815 0.064867236 0.10478458 0.6452069 0.15334035 0.15035668 -0.21449256 0.029736634
0.21835418 0.38276076 -0.16411959 -0.0016050207 0.042568214 0.30627054 0.16950709 -0.073153704
0.13793436 0.1079273 0.24390692 0.15401335 0.18057275 0.13230638 -0.21848747 0.09775986
0.16242293 0.23561192 -0.103757925 -0.20039341 0.029577993 0.12020655 0.15354872 0.41769388
0.084545806 0.014466988 0.21031272 0.06792251 0.055504598 0.2449085 0.4189978 0.17973995
0.16709928 0.12273253 -0.024887152 0.20485075 0.044212557 -0.1653463 0.073749475 0.10436039
0.18171701 0.14378875 0.41848692 -0.09170222 -0.26127088 -0.08442669 -0.0032916663 0.31438425
0.2226998 0.14315319 0.06795481 -0.11252001 -0.17761521 0.23645207 0.14431652 0.014719345
0.19689378 -0.012770304 0.13984591 0.18189725 0.2791276 0.2258982 0.09608821 0.30338928
0.113320276 0.012917094 -0.058309067 0.099668965 0.24604766 0.28591767 0.35706526 -0.16450858
0.18027501 0.2838432 0.2842235 0.24530432 -0.01442509 0.18645096 0.1697731 -0.12067115
0.19091418 0.29178676 0.032442223 0.15095353 0.063910484 0.07138244 0.22840296 -0.086317465
-0.056640834 -0.1712085 0.16526681 0.2306026 0.061742358 0.18911201 0.09638644 -0.088293225
0.25977606 0.048031446 -0.0053015254 0.18298319 -0.011956983 0.15084752 0.0939122 -0.12643577
-0.3003377 0.08972398 0.09704737 0.077234596 0.19615409 0.24270216 -0.17173359 0.29146168
-0.063797146 -0.019942105 0.09071931 0.11307404 0.05599445 0.117773496 0.15611526 0.29024345
-0.15984431 0.1562963 -0.081038624 0.12229435 0.07977777 0.05926126 0.32473695 -0.045372754
0.048505288 0.11606907 0.13388301 0.10146079 0.2508816 0.16481036 -0.0062383558 -0.008023821
-0.0066287336 0.19949357 0.21152668 0.07937551 0.0278818 0.13867487 0.094247565 -0.12354225
0.26941678 0.15230308 -0.017420197 0.09969146 -0.13628164 0.2740361 -0.014785307 0.18867464
0.09606437 0.019986318 0.07864007 -0.002913665 0.018236985 0.07654443 0.13602278 0.24996015
0.028732039 0.13596335 0.11791716 -0.007618805 0.36063457 -0.028295875 0.12786287 0.12590739
00000000: a1ca a3be 48af 16bd 9ac1 22bd 30ea 9e3e
00000010: d971 c53e ae38 683e 9a6d c03c d2cc 093d
00000020: 1b35 133d 3258 423e e601 af3d cee2 a73d
00000030: c267 983e 3258 0fbd bdca 663e 5975 adbd
00000040: acf6 e73e 6697 933c dcbc c83d 1939 073e
00000050: 59d9 99be 8afb b2bd d9cb 863d 8a53 373e
00000060: ae8c 113e 5013 8c3e bb61 993b 428c bfbe
00000070: 204f c8bd 278b 813e 85d6 143e 09a5 1bbd
00000080: 9270 b53d 6629 d53d 2f68 653e cee1 853d
00000090: 8dba b9bc 652a 9d3d 49a1 a93e 861e b83d
000000a0: 0d0c 91bd fbaa 983d 935b 88bd 9f0b 9abe
000000b0: 8a82 46bd b305 983d 1127 d03d 2aaa 593e
000000c0: 3437 7f3d 0b3f 94bc 585d 133e 64d0 ad3b
000000d0: 5c29 8a3d 0869 053e 0ccf 503e a006 05be
000000e0: c945 23bc d87b de3d 13db 6a3e 5034 69be
000000f0: 974c 98bd 9e08 1b3e a74d 353d a3f1 f73d
00000100: a66a bc3d 35d1 6c3d 80c3 42be 63f3 ac3e
00000110: 1030 633e 957c 493e cf2f 3a3c c6a4 a93e
00000120: 54eb 133e de11 77be aeb8 873e d862 24be
00000130: ea9c 93bd f0a0 f5bd 83dd 24be 7e4e 35be
00000140: ed0c 53bc 1dd9 843d 4c99 d63d 482c 253f
00000150: 4105 1d3e 1af7 193e f0a3 5bbe 3e9a f33c
00000160: 3d98 5f3e 38f9 c33e f70e 28be 8f5f d2ba
00000170: 025c 2e3d 7ecf 9c3e 4493 2d3e 9cd1 95bd
00000180: aa3e 0d3e fd08 dd3d bcc2 793e adb5 1d3e
00000190: 10e8 383e 537b 073e 2ebb 5fbe 5236 c83d
000001a0: 3252 263e 4044 713e 097f d4bd ee33 4dbe
000001b0: 8c4d f23c da2e f63d e03b 1d3e f9db d53e
000001c0: 5a26 ad3d f206 6d3c 385c 573e f51a 8b3d
000001d0: ca58 633d 4bc9 7a3e e186 d63e c00d 383e
000001e0: 131c 2b3e 315b fb3d 24e0 cbbc 65c4 513e
000001f0: 3a18 353d 8a50 29be f709 973d e6ba d53d
00000200: 0614 3a3e 5c3d 133e eb43 d63e 60ce bbbd
00000210: 4cc5 85be e7e7 acbd ffb8 57bb f9f6 a03e
00000220: 6b0b 643e c096 123e e42b 8b3d e470 e6bd
00000230: c3e0 35be 7e20 723e b6c7 133e 6829 713c
00000240: 869e 493e 8a3a 51bc c433 0f3e 4643 3a3e
00000250: d0e9 8e3e dc51 673e e5c9 c43d d755 9b3e
00000260: 7614 e83d 38a2 533c 7dd5 6ebd 3e1f cc3d
00000270: ebf3 7b3e cd63 923e 42d1 b63e f074 28be
00000280: 039a 383e e553 913e be85 913e 0e31 7b3e
00000290: 3657 6cbc 00ed 3e3e 00d9 2d3e 7022 f7bd
000002a0: 027f 433e 1365 953e 23e2 043d 9093 1a3e
000002b0: 80e3 823d f530 923d 77e2 693e 36c7 b0bd
000002c0: 3800 68bd 4851 2fbe b43b 293e 1723 6c3e
000002d0: 8ee5 7c3d 94a6 413e 4166 c53d 14d3 b4bd
000002e0: 5e01 853e 9fbc 443d 6bb8 adbb f25f 3b3e
000002f0: 39e7 43bc c677 1a3e 0a55 c03d 6178 01be
00000300: ddc5 99be 35c1 b73d c6c0 c63d 2c2d 9e3d
00000310: 9edc 483e ea86 783e eeda 2fbe 773a 953e
00000320: 14a8 82bd a05d a3bc 0ccb b93d 5d93 e73d
00000330: 705a 653d 3b33 f13d aedc 1f3e ca9a 943e
00000340: 3aae 23be 230c 203e 94f7 a5bd 7675 fa3d
00000350: 8762 a33d efbb 723d ec43 a63e c8d8 39bd
00000360: 7bad 463d 9fb5 ed3d a118 093e adca cf3d
00000370: 8e73 803e 0cc4 283e 1f6b ccbb 5876 03bc
00000380: d935 d9bb 0b48 4c3e 739a 583e a18f a23d
00000390: 5f68 e43c c900 0e3e de04 c13d b803 fdbd
000003a0: fff0 893e 57f5 1b3e cdb4 8ebc 092b cc3d
000003b0: 6a8d 0bbe 764e 8c3e 133e 72bc ed33 413e
000003c0: 65bd c43d 59ba a33c 0c0e a13d 30f3 3ebb
000003d0: bb65 953c 53c3 9c3d 8e49 0b3e 8ef5 7f3e
000003e0: 745f eb3c fa39 0b3e 8d7e f13d 2ba7 f9bb
000003f0: 18a5 b83e c0cc e7bc 7cee 023e deed 003e

bn1.running_mean f4 [256]
16.192404 4.1279635 0.514348 0.49045724 2.32855 0.09749057 3.4196045 3.380881
2.9770157 0.3498445 0.053675443 4.034058 0.6664014 4.588338 3.440855 0.7725755
1.0163127 0.13366611 0.2918353 0.45095307 12.473585 2.9826303 0.037125684 0.28701812
2.1989038 0.22263858 0.17522152 2.7631457 2.6709557 1.5501239 7.625144 10.211057
1.9857423 5.1855874 1.4632798 0.9938317 0.8365397 4.6428714 0.21102594 0.9919158
1.4749837 3.892631 1.6797866 4.805356 1.9071628 0.5685947 1.7849177 1.6314542
0.23079422 1.3692112 0.6464419 7.6736274 0.96012825 3.1237774 0.52699256 1.7535633
1.4274609 4.5871267 0.24590616 1.292927 0.35853535 1.1332241 1.2843997 0.8726017
3.2828631 1.9291359 5.8366294 0.6860238 0.31642097 0.12953961 1.373098 2.7328386
3.4659963 1.4261137 2.4032123 5.956511 0.90527266 8.012038 0.52716804 2.4577196
2.4393225 7.2962055 1.8244014 5.3755136 1.1463443 4.049592 4.235027 4.438964
0.15449412 3.116655 2.9259415 1.6064085 0.16071449 2.0725 1.308345 5.0114636
3.545383 4.0175323 0.48774576 2.096725 0.44568318 1.1946951 2.8334155 2.0142093
1.4289078 11.185867 0.22903141 7.068506 0.72242796 2.0036511 0.9740347 0.3760754
0.31474343 0.095991746 8.905032 1.9852823 0.6346311 0.7117341 0.9853001 0.9988209
2.5859838 2.2730699 3.7014916 0.23713434 0.28778607 3.5786848 3.1373167 2.243698
0.37065902 1.9078846 7.124047 2.6904867 16.343046 1.1001573 1.5116816 1.3213995
5.206266 1.4812539 0.036707293 3.8561842 11.929839 0.55191207 5.2390018 1.1982335
0.54997045 4.6289234 0.8101262 0.0750334 0.61577815 0.7786699 0.6249884 0.9131405
0.7531489 1.4658195 2.869459 6e-45 0.43066475 0.7142378 0.29572192 4.7487483
0.44985056 3.394004 0.849122 0.4410024 2.2838511 1.0733093 0.109881744 5.135307
0.72711986 0.54367346 0.06759286 2.8674796 6e-45 16.567495 4.2363195 2.0632598
0.5603619 1.1739409 2.1891005 1.3864863 0.61111647 0.73210114 0.5586787 13.626096
0.90846175 3.4421718 3.6954975 2.9563231 0.863894 6e-45 0.23341261 1.8126312
5.734831 0.98621273 1.273329 0.055381767 0.4627133 3.0928802 1.9042474 0.18614164
0.2578562 0.5277344 9.72832 1.1335374 6e-45 1.1293586 2.3803492 2.434271
6.5630603 4.5905547 5.409098 0.8720565 0.19035679 6.133325 0.7092645 1.9024454
0.025129598 2.4186387 7.943797 0.12182523 0.08407474 0.9897509 1.118059 3.468963
1.0482248 2.8151333 0.7418745 0.58285934 6.5079417 14.877043 4.9747 1.5614644
4.14432 0.43614417 0.3738013 6e-45 10.654117 3.379328 4.427173 4.2758303
3.6622992 2.9341242 0.07450512 0.026052926 1.7070253 4.602378 1.0134902 2.2852468
0.46255258 7.0042152 7.2883005 0.5663985 3.3566427 0.04796441 0.8599643 0.16621786
00000000: 0b8a 8141 4718 8440 4fac 033f 361d fb3e
00000010: f706 1540 23a9 c73d cdda 5a40 5b60 5840
00000020: 6d87 3e40 d11e b33e c8da 5b3d 0117 8140
00000030: 4899 2a3f aad3 9240 f836 5c40 82c7 453f
00000040: 8916 823f c5df 083e 706b 953e 52e3 e63e
00000050: ce93 4741 6ae3 3e40 1a11 183d 0af4 923e
00000060: d7ba 0c40 5efb 633e 456d 333e 61d7 3040
00000070: f0f0 2a40 766a c63f 2e01 f440 7d60 2341
00000080: ce2c fe3f 55f0 a540 c14c bb3f c16b 7e3f
00000090: 7727 563f 6792 9440 2f17 583e 32ee 7d3f
000000a0: 44cc bc3f de20 7940 3f03 d73f 7ac5 9940
000000b0: e91d f43f 6c8f 113f 2f78 e43f 7ed3 d03f
000000c0: 5255 6c3e 5042 af3f 377d 253f 5b8e f540
000000d0: f7ca 753f f8eb 4740 fce8 063f c374 e03f
000000e0: 0ab7 b63f bec9 9240 d3ce 7b3e a27e a53f
000000f0: f291 b73e 7d0d 913f 3667 a43f d362 5f3f
00000100: 6e1a 5240 eded f63f abc5 ba40 419f 2f3f
00000110: ee01 a23e 08a6 043e adc1 af3f d4e6 2e40
00000120: e2d2 5d40 e58a b63f 3bce 1940 bd9b be40
00000130: f3bf 673f 4f31 0041 7cf4 063f 474b 1d40
00000140: dc1d 1c40 847a e940 fc85 e93f 3504 ac40
00000150: 69bb 923f 4296 8140 5785 8740 fe0b 8e40
00000160: b533 1e3e 4777 4740 a042 3b40 cb9e cd3f
00000170: 5792 243e d7a3 0440 d977 a73f e95d a040
00000180: 8ee7 6240 a08f 8040 d0b9 f93e be30 0640
00000190: 9630 e43e c5eb 983f ae56 3540 cee8 0040
000001a0: 73e6 b63f 50f9 3241 3687 6a3e 3331 e240
000001b0: 0af1 383f d23b 0040 575a 793f f48c c03e
000001c0: 0d26 a13e 5297 c43d 037b 0e41 bb1d fe3f
000001d0: 2f77 223f 3534 363f a13c 7c3f bab2 7f3f
000001e0: c280 2540 fa79 1140 3de5 6c40 58d3 723e
000001f0: b258 933e 2c09 6540 ccc9 4840 bf98 0f40
00000200: 05c7 bd3e 9035 f43f 31f8 e340 ef30 2c40
00000210: 8fbe 8241 f4d1 8c3f c87e c13f 9e23 a93f
00000220: bb99 a640 ba99 bd3f 635a 163d b9cb 7640
00000230: 9fe0 3e41 1c4a 0d3f e7a5 a740 b75f 993f
00000240: ddca 0c3f 2420 9440 6e64 4f3f 1cab 993d
00000250: a3a3 1d3f e956 473f 3dff 1f3f 93c3 693f
00000260: 5ece 403f f99f bb3f 37a5 3740 0400 0000
00000270: 1780 dc3e 4ad8 363f dd68 973e bff5 9740
00000280: d052 e63e 5d37 5940 0f60 593f 11cb e13e
00000290: 9e2a 1240 3362 893f ae09 e13d 6f54 a440
000002a0: 8724 3a3f 2f2e 0b3f 206e 8a3d c984 3740
000002b0: 0400 0000 3b8a 8441 ee8f 8740 730c 0440
000002c0: e173 0f3f b243 963f 391a 0c40 6278 b13f
000002d0: 2172 1c3f fb6a 3b3f 9105 0f3f 7d04 5a41
000002e0: f390 683f 8b4c 5c40 0883 6c40 6634 3d40
000002f0: 2828 5d3f 0400 0000 b703 6f3e 4d04 e83f
00000300: bc83 b740 7078 7c3f 72fc a23f fed7 623d
00000310: c2e8 ec3e c0f1 4540 61be f33f ea9b 3e3e
00000320: ba05 843e 9a19 073f 33a7 1b41 c117 913f
00000330: 0400 0000 d38e 903f a457 1840 19cb 1b40
00000340: 9704 d240 d3e5 9240 5517 ad40 183f 5f3f
00000350: e4ec 423e 3344 c440 5c92 353f 5583 f33f
00000360: 96dc cd3c faca 1a40 9633 fe40 827f f93d
00000370: 612f ac3d 5160 7d3f 8f1c 8f3f 7d03 5e40
00000380: 3b2c 863f 252b 3440 7deb 3d3f 4536 153f
00000390: 0f41 d040 5e08 6e41 be30 9f40 11de c73f
000003a0: 459e 8440 4a4e df3e e262 bf3e 0400 0000
000003b0: 4377 2a41 e946 5840 67ab 8d40 9ad3 8840
000003c0: 1c63 6a40 b1c8 3b40 2496 983d f26c d53c
000003d0: ce7f da3f ae46 9340 0cba 813f 7c41 1240
000003e0: b1d3 ec3e 8822 e040 c239 e940 7eff 103f
000003f0: 3cd3 5640 5476 443d 9f26 5c3f 0435 2a3e
