checkpoints/mad4pg/mad4pg_per1_checkpoint_critic_local.pth (torch, 481447 bytes, 14 tensors)

fc1.weight f4 [256, 52]
-0.12316169 -0.058784787 0.036518734 -0.015068357 -0.21714169 -0.06457996 -0.007729777 -0.0555153
-0.05075897 -0.07270574 0.07432506 0.03680683 -0.15256776 -0.012136519 -0.06249297 -0.01101322
0.03948173 0.039937686 -0.021847306 0.063279524 0.17412245 0.49568713 0.028170766 -0.0005148713
-0.056157228 0.05639924 0.07575955 -0.033288036 0.27716497 -0.22948216 -0.061193906 0.026497804
-0.061211485 0.27992108 -0.07568865 -0.032584373 -0.06958549 -0.17502578 0.083001755 0.17652053
0.022744682 0.1517134 -0.069752544 -0.13032956 -0.32678956 0.34259546 0.06323253 -0.036543984
-0.039737806 -0.1911223 -0.7259784 -0.3039213 0.11252013 -0.14186813 -0.06621018 0.20132947
0.13418315 -0.09604947 0.006681587 0.122881606 -0.044014685 -0.10955305 0.083727755 -0.005792222
0.082999155 0.116151325 -0.08910085 0.13872221 -0.012241462 -0.27584276 0.10014684 -0.17230889
0.061657883 0.5136231 -0.1061431 -0.12282581 0.17882995 0.062031057 -0.06356978 -0.063167214
-0.12878187 -0.13782449 0.045026485 -0.09211607 -0.06019994 0.020956306 -0.080843836 -0.051310144
-0.17341544 0.009698956 0.08225348 -0.072735175 -0.011371728 -0.10668261 0.105688736 -0.07718881
0.10574867 0.43532735 -0.111363366 -0.19274525 0.6885874 -0.40639186 -0.39891875 0.6124725
0.18337508 0.047888536 -0.040152356 -0.10523502 -0.03172938 -0.31811023 0.048968293 0.10892649
0.13558945 0.16235092 0.0786356 -0.13022822 -0.2872017 -0.02015107 -0.08574511 0.093591034
0.007835213 0.1381849 -0.08039782 0.14678337 -0.3546591 -0.08136943 0.08576101 0.02667596
0.0173432 -0.28738204 -0.013131657 -0.044968873 0.12984058 -0.33751115 0.05956683 -0.002118816
-0.28925738 -0.24656227 0.013358134 0.04739993 0.19925724 -0.14330928 0.05485382 -0.09439518
-0.24627103 -0.122590184 0.090240195 -0.09600028 0.26110512 -0.15221985 -0.067756765 0.11593314
0.0034371049 0.7048166 -0.31553575 -0.17628643 0.061311968 0.012829398 -0.062193364 -0.0554808
-0.16273648 0.39514896 0.070289925 -0.12353614 0.0863905 -0.09968715 -0.113574505 -0.021689657
-0.07266433 0.059647523 0.107625164 0.12659204 0.0405544 0.060872126 0.023757527 0.100024894
0.36628947 -0.029114328 -0.024436926 -0.032867618 -0.02886355 -0.3055582 -0.027438153 0.026800971
0.3474054 0.179355 0.029517958 -0.02691643 -0.0051111975 -0.4320362 0.0915681 -0.033159755
0.019828135 0.22377151 -0.08792688 -0.0021357785 -0.055384565 -0.41167688 0.07600421 -0.1398952
-0.34084022 -0.038868736 -0.06072303 -0.027412446 -0.04264355 0.33684292 -0.46671277 -0.17907268
0.10837599 -0.10465795 -0.10923912 0.047388736 0.037586994 -0.008877028 -0.011585704 0.024694957
-0.065800324 -0.07156753 0.070108645 -0.24921793 0.013702817 0.13329001 -0.06157672 -0.17196149
0.13789715 -0.22225972 -0.1272671 -0.28456143 0.30163205 0.19259022 0.10323489 -0.157026
0.097611405 -0.29103854 -0.08629996 -0.083589286 0.071448356 0.18816526 0.04685042 -0.12557724
0.06937985 -0.05490935 0.16720274 0.23729381 -0.15522893 0.25931722 -0.0879279 0.27938062
0.08737249 -0.052621864 -0.00021004427 0.17347908 -0.12596633 -0.031088904 -0.10174163 0.06769732
00000000: 323c fcbd 51c8 70bd ab94 153d 45e1 76bc
00000010: 645a 5ebe 8042 84bd 124a fdbb 0364 63bd
00000020: a3e8 4fbd bfe6 94bd bd37 983d c2c2 163d
00000030: b93a 1cbe 40d8 46bc a1f8 7fbd cb70 34bc
00000040: 98b7 213d b395 233d 1ff9 b2bc b298 813d
00000050: 284d 323e b4ca fd3e 61c6 e63c 6ef8 06ba
00000060: 1f05 66bd e402 673d d327 9b3d 0959 08bd
00000070: 91e8 8d3e 5ffd 6abe 76a6 7abd ec11 d93c
00000080: e5b8 7abd d151 8f3e a702 9bbd 3177 05bd
00000090: d682 8ebd f539 33be d3fc a93d ccc1 343e
000000a0: 0e53 ba3c c25a 1b3e 6cda 8ebd 1d75 05be
000000b0: f650 a7be ac68 af3e 0f80 813d 25af 15bd
000000c0: 1cc4 22bd 90b5 43be b8d9 39bf 939b 9bbe
000000d0: f470 e63d e145 11be 3499 87bd 5029 4e3e
000000e0: 4f67 093e 96b5 c4bd 37f1 da3b 5aa9 fb3d
000000f0: be48 34bd 595d e0bd 7579 ab3d aecc bdbb
00000100: 76fb a93d bfe0 ed3d 827a b6bd 320d 0e3e
00000110: 6a90 48bc 433b 8dbe c919 cd3d be71 30be
00000120: fa8c 7c3d ce7c 033f 8e61 d9bd 198c fbbd
00000130: 331f 373e 4714 7e3d df30 82bd d05d 81bd
00000140: 65df 03be dd21 0dbe b16d 383d 5aa7 bcbd
00000150: 3694 76bd 8fac ab3c 7491 a5bd 962a 52bd
00000160: d193 31be 5fe8 1e3c 8374 a83d 2ef6 94bd
00000170: 7c50 3abc 6a7c dabd 5673 d83d 2b15 9ebd
00000180: c292 d83d 3ae3 de3e 7a12 e4bd 035f 45be
00000190: 4447 303f 9812 d0be 143f ccbe ffca 1c3f
000001a0: adc6 3b3e c526 443d cc76 24bd 7585 d7bd
000001b0: abf6 01bd 58df a2be fa92 483d da14 df3d
000001c0: f6d7 0a3e 523f 263e b40b a13d 8c5a 05be
000001d0: 1a0c 93be db13 a5bc 229b afbd a8ac bf3d
000001e0: 445f 003c 5880 0d3e 9da7 a4bd 614e 163e
000001f0: e195 b5be 04a5 a6bd 78a3 af3d 8b87 da3c
00000200: 5413 8e3c bd23 93be 2926 57bc 4831 38bd
00000210: eef4 043e 43ce acbe 59fc 733d d5db 0abb
00000220: 8b19 94be d27a 7cbe 13dc 5a3c 6e26 423d
00000230: 170a 4c3e abbf 12be 66ae 603d 4352 c1bd
00000240: 792e 7cbe 9010 fbbd dacf b83d cb9b c4bd
00000250: 92af 853e 85df 1bbe 0fc4 8abd 5b6e ed3d
00000260: 0d41 613b dc6e 343f e78d a1be 6e84 34be
00000270: 4222 7b3d 6532 523c 78be 7ebd d63f 63bd
00000280: 64a4 26be f750 ca3e 2af4 8f3d 8400 fdbd
00000290: 81ed b03d c728 ccbd c099 e8bd 82ae b1bc
000002a0: 09d1 94bd f650 743d 956a dc3d 58a1 013e
000002b0: 5f1c 263d 0d55 793d 259f c23c dad9 cc3d
000002c0: 4b8a bb3e 2c81 eebc f32f c8bc 32a0 06bd
000002d0: 4073 ecbc 2072 9cbe fac5 e0bc b68d db3c
000002e0: 1fdf b13e d6a8 373e a5cf f13c d87f dcbc
000002f0: d57b a7bb d933 ddbe 0e88 bb3d 86d2 07bd
00000300: 9d6e a23c 5c24 653e 0213 b4bd 6bf8 0bbb
00000310: edda 62bd 50c7 d2be 18a8 9b3d b040 0fbe
00000320: 9c82 aebe d334 1fbd b6b8 78bd 1190 e0bc
00000330: 01ab 2ebd ad76 ac3e faf4 eebe d45e 37be
00000340: 3bf4 dd3d e856 d6bd c2b8 dfbd b11a 423d
00000350: d2f4 193d f470 11bc f7d1 3dbc 144d ca3c
00000360: 52c2 86bd ff91 92bd 1f95 8f3d fc32 7fbe
00000370: c881 603c 2d7d 083e df37 7cbd ac16 30be
00000380: e934 0d3e 0d98 63be 4f52 02be 09b2 91be
00000390: 846f 9a3e 5f36 453e d06c d33d 6ccb 20be
000003a0: 7de8 c73d 0103 95be 09be b0bd dc30 abbd
000003b0: 8453 923d 65ae 403e 3ae6 3f3d 5297 00be
000003c0: 0617 8e3d a0e8 60bd 3237 2b3e 26fd 723e
000003d0: 55f4 1ebe 3ac5 843e 8b13 b4bd fa0a 8f3e
000003e0: 59f0 b23d 068a 57bd 543f 5cb9 80a4 313e
000003f0: 51fd 00be 28ae febc ea5d d0bd e4a4 8a3d

fc1.bias f4 [256]
-0.30773523 -0.4142433 -0.008239402 -0.2441479 -0.12736902 -0.08709001 0.06932351 -0.137083
-0.6528994 -0.072017446 0.020631026 -0.06830504 0.009035838 -0.16140711 -0.24076019 -0.3686415
-0.06484895 0.115121506 -0.04676949 -0.5189336 0.031159697 0.043927956 0.06058339 -0.09493407
-0.0035150067 0.00046250704 0.08141284 -0.0065655313 0.16349928 -0.12658212 0.16976666 -0.45351282
-0.009876907 0.012267479 -0.17959267 -0.13907556 -0.6166744 -0.42077953 -0.15407273 0.02292306
-0.10058071 -0.02173753 0.062653765 0.041722722 -0.15483698 -0.049168877 -0.23403476 -0.15330745
-0.30148605 -0.20847848 -0.048112344 -0.29056397 -0.11969623 0.008087322 -0.09509633 -0.16684927
0.010323854 -0.13369456 -0.015723603 -0.1258548 -0.103834815 -0.116655216 0.122457676 -0.013735047
-0.16804072 -0.29200485 0.05883695 -0.0031616667 0.018698074 -0.26824892 0.061776575 0.0018160249
-0.06587763 -0.07099885 0.07943376 0.007127235 -0.06963737 -0.10756176 -0.043892086 -0.05600694
-0.13810939 -0.26849568 -0.01433325 0.024505788 -0.045566473 -0.14088981 0.048710115 -0.00035569278
-0.22991085 -0.3109434 -0.326275 -0.15149474 -0.22664934 -0.033404734 -0.017396776 -0.18690014
-0.12388425 -0.2309203 -0.11863705 0.010518665 0.04187724 -0.09589644 -0.06326628 -0.06903756
-0.057750583 -0.135113 -0.12875132 -0.049876105 -0.041831203 0.019168131 0.09017333 -0.30684152
-0.024433691 -0.089350045 -0.13662206 0.12200446 0.033182133 -0.077093296 -0.22601886 -0.03870095
0.04384122 0.05177464 -0.19558701 -0.10974756 0.09188309 0.019673035 -0.117641404 -0.23582959
-0.08068227 -0.010917247 -0.16562186 -0.26762804 -0.028386317 -0.030772477 0.13107462 -0.065723434
0.018203503 -0.102418065 -0.12460761 -0.19437626 -0.06903863 -0.14080791 -0.09683103 0.024208566
0.0527284 0.12326365 -0.044209395 -0.19825889 -0.0918851 -0.34132057 -0.29292807 -0.024334008
0.012952653 -0.018708324 -0.11164748 -0.2289788 -0.17651886 -0.109575085 -0.02673172 -0.09862178
-0.13386275 -0.043706715 -0.09127487 -0.11613059 -0.07242621 -0.30909693 0.017465126 -0.044970028
-0.15146172 -0.26703808 -0.06360194 -0.2859411 0.0043925964 -0.40338495 -0.024601247 -0.048560213
-0.22816578 -0.05138368 -0.1411274 -0.11640267 0.021358829 0.16766737 -0.15864232 -0.063072935
-0.03195827 -0.06122121 -0.030269578 -0.29371485 -0.15713486 -0.24053887 -0.03859781 -0.117918506
-0.12582353 -0.098181486 -0.18800056 -0.0057535684 -0.24488837 -0.37785566 -0.0014246628 -0.092155576
0.16435382 0.14817522 -0.10932948 -0.094544165 -0.12040775 0.013972763 -0.03414485 -0.13051364
0.06293794 -0.016007282 -0.011053005 -0.07754725 -0.18765332 -0.22036529 -0.14145264 -0.068392396
-0.0352697 -0.012926162 -0.10591344 -0.038312685 -0.12141275 0.11167574 0.04314365 -0.0127566
-0.345967 0.060243692 -0.2091217 -0.28015336 -0.08313441 -0.0678482 -0.19157752 0.023656351
0.12458927 -0.22491188 0.0906578 -0.026941428 -0.043783233 -0.12962317 -0.13231502 0.017531622
-0.056739867 -0.083850496 -0.17751284 -0.16292095 -0.024379062 0.04403906 -0.01847359 0.09480837
-0.09492476 -0.011409703 -0.2000856 -0.14538625 -0.36508596 -0.07702671 -0.3245551 -0.2322538
00000000: 798f 9dbe b317 d4be 8ffe 06bc e801 7abe
00000010: 066d 02be 3f5c b2bd 7cf9 8d3d 7c5f 0cbe
00000020: 6a24 27bf e27d 93bd 6602 a93c 83e3 8bbd
00000030: 0d0b 143c e847 25be d789 76be 94be bcbe
00000040: 87cf 84bd d3c4 eb3d 5d91 3fbd d5d8 04bf
00000050: 9f42 ff3c cded 333d 4a26 783d cb6c c2bd
00000060: 075c 66bb a57c f239 c6bb a63d ab23 d7bb
00000070: 5b6c 273e be9e 01be 50d7 2d3e d532 e8be
00000080: c0d2 21bc 89fd 483c 24e7 37be d369 0ebe
00000090: 60de 1dbf 6a70 d7be 3ec5 1dbe 24c9 bb3c
000000a0: 42fd cdbd e812 b2bc 9e50 803d 72e5 2a3d
000000b0: 968d 1ebe 4e65 49bd cfa6 6fbe a1fc 1cbe
000000c0: 615c 9abe 627b 55be 7311 45bd cdc4 94be
000000d0: 4c23 f5bd b080 043c ddc1 c2bd 89da 2abe
000000e0: 6225 293c 3ae7 08be c9ce 80bc 15e0 00be
000000f0: 59a7 d4bd eee8 eebd 17cb fa3d f608 61bc
00000100: de12 2cbe a981 95be 04ff 703d f733 4fbb
00000110: b42c 993c ec57 89be 6f09 7d3d af07 ee3a
00000120: daea 86bd d867 91bd 2bae a23d 958b e93b
00000130: 0a9e 8ebd 5749 dcbd 30c8 33bd 8867 65bd
00000140: 8c6c 0dbe 4478 89be 02d6 6abc 5dc0 c83c
00000150: e9a3 3abd 6b45 10be 4284 473d 477c bab9
00000160: c06d 6bbe f933 9fbe 840d a7be 7021 1bbe
00000170: c416 68be 67d3 08bd af83 8ebc c062 3fbe
00000180: 07b7 fdbd 5f76 6cbe fbf7 f2bd 7b56 2c3c
00000190: 7887 2b3d 5a65 c4bd c091 81bd 9063 8dbd
000001a0: e08b 6cbd 105b 0abe 63d7 03be e34a 4cbd
000001b0: 3257 2bbd 7c06 9d3c cbac b83d 551a 9dbe
000001c0: 2a29 c8bc 28fd b6bd a7e6 0bbe 79dd f93d
000001d0: fde9 073d 17e3 9dbd 7d71 67be e384 1ebd
000001e0: da92 333d a511 543d f647 48be 54c3 e0bd
000001f0: 342d bc3d 5829 a13c faed f0bd 507d 71be
00000200: bf3c a5bd 41de 32bc c798 29be 8b06 89be
00000210: 6c8a e8bc 9016 fcbc 6d38 063e 029a 86bd
00000220: 831f 953c 90c0 d1bd 4632 ffbd 920a 47be
00000230: 2064 8dbd f32f 10be 594f c6bd 0b51 c63c
00000240: bcf9 573d a771 fc3d e914 35bd 6104 4bbe
00000250: 412e bcbd 92c1 aebe abfa 95be 1d58 c7bc
00000260: 5d37 543c 3342 99bc 6fa7 e4bd 6b79 6abe
00000270: 5cc1 34be e768 e0bd 7bfc dabc 37fa c9bd
00000280: 5113 09be d005 33bd 52ee babd e0d5 edbd
00000290: 3154 94bd f441 9ebe 0613 8f3c 7e32 38bd
000002a0: c818 1bbe 37b9 88be bc41 82bd df66 92be
000002b0: c5ef 8f3b 7988 cebe 8e88 c9bc 13e7 46bd
000002c0: 4aa4 69be b277 52bd b383 10be 8664 eebd
000002d0: b6f8 ae3c ffb0 2b3e 2273 22be 622c 81bd
000002e0: ade6 02bd 17c3 7abd e8f7 f7bc cb61 96be
000002f0: f6e7 20be d24f 76be bd18 1ebd 427f f1bd
00000300: e2d7 00be 6013 c9bd 3883 40be 6e88 bcbb
00000310: 04c4 7abe 4c76 c1be c0bb baba 10bc bcbd
00000320: 5e4c 283e 3fbb 173e 22e8 dfbd 5fa0 c1bd
00000330: 5798 f6bd 04ee 643c 78db 0bbd 5ea5 05be
00000340: 9be5 803d b421 83bc aa17 35bc 18d1 9ebd
00000350: 3128 40be 70a7 61be f6d8 10be 5011 8cbd
00000360: f676 10bd 41c8 53bc 25e9 d8bd c3ed 1cbd
00000370: 3fa7 f8bd 40b6 e43d 65b7 303d 0f01 51bc
00000380: 9622 b1be 17c2 763d 0024 56be 4370 8fbe
00000390: 6042 aabd fff3 8abd e62c 44be f7ca c13c
000003a0: a928 ff3d 4d4f 66be ccaa b93d 45b4 dcbc
000003b0: 0c56 33bd f0bb 04be 977d 07be 7a9e 8f3c
000003c0: 1068 68bd cfb9 abbd edc5 35be c0d4 26be
000003d0: 99b6 c7bc 4d62 343d ed55 97bc e42a c23d
000003e0: ea67 c2bd c3ef 3abc 3de3 4cbe 22e0 14be
000003f0: 8cec babe 2ec0 9dbd 162c a6be f1d3 6dbe

fc2.weight f4 [256, 256]
-0.048719537 -0.0018316534 -0.010461441 -0.12534095 -0.090272434 0.011494842 -0.0048804427 0.096562356
-0.037858617 -0.084721625 0.025727743 0.06695159 0.029040359 -0.10299892 0.024606258 0.18900211
-0.055350292 -0.04525549 -0.19388981 -0.22553469 -0.06594054 0.090047896 -0.041598104 0.008924087
0.10241403 0.083861694 0.015428165 0.069828495 0.0037722662 0.037159633 0.030099967 -0.07040702
-0.035889056 0.05505086 -0.05648219 0.05563325 0.021747245 -0.036477838 0.018729348 0.096342936
0.09590216 -0.16838063 -0.13908438 0.022987261 -0.09590583 0.069482855 -0.051527698 0.051456623
0.04845349 0.014144884 -0.06648863 0.047406532 -0.0005173746 0.12869929 0.012585195 -0.044080146
0.04430133 -0.012898691 0.03146085 0.11562839 0.113164194 0.006519395 0.059748914 -0.036973953
-0.045017738 0.013321482 -0.04474523 -0.048547864 -0.20086326 0.05062026 0.06187788 0.043063644
0.08386268 0.04006992 0.1407988 0.012608477 -0.037420288 0.10517611 0.093922004 0.07255198
0.064624116 -0.028785052 0.08844616 0.12816583 0.004103734 0.010596879 -0.00041492766 0.07859928
-0.12510134 -0.032858238 0.006027422 -0.06999808 0.017408168 0.042043146 0.116079815 -0.040854007
-0.129622 0.07862983 0.07615814 0.009219187 0.15352659 -0.16931292 0.1125148 0.08641588
-0.032051526 -0.14732294 0.07810359 0.047525164 0.0096296 0.10741912 -0.10445027 0.04176575
-0.11070219 -0.032322805 0.050700627 0.09884658 -0.058797542 -0.009681683 0.05302825 0.11826231
0.03239439 -0.06796448 0.025093874 0.0053777825 0.10777189 0.043087456 0.08393902 0.016331086
6.554866e-05 0.0055260113 0.13357754 0.04506405 0.115540035 0.16472495 0.060307205 0.20609333
-0.21425575 -0.016767045 -0.09385237 0.16398977 -0.011848597 0.10541362 0.11463698 0.0338431
-0.05493688 0.03827364 -0.04728304 0.056287125 -0.15562972 0.07567893 -0.036073867 -0.20566726
-0.10873074 -0.011489485 -0.1284162 -0.045246102 -0.14787097 0.085475735 0.08061442 -0.088296324
0.044541378 0.07044858 -0.061989088 -0.0084515745 -0.013218695 0.041478414 -0.0065690996 0.07558559
0.04213594 0.023203965 0.012209606 0.029270219 0.055026565 0.05375783 -0.011206277 -0.036123913
-0.048485007 -0.033620615 -0.025029242 -0.08260367 0.033445776 0.059565272 -0.0019520532 0.12560427
0.05313864 -0.14491023 -0.23854372 0.07864081 -0.1848821 0.045066472 0.016954187 -0.16784701
0.03033086 0.17500977 0.01934022 0.10704695 0.12429489 -0.032824434 -0.106223814 -0.016464474
-0.01937164 -0.04049084 0.009838094 -0.17082039 -0.013743678 0.06629644 -0.034322124 0.055858273
0.08176823 -0.019068703 0.21569045 0.022433156 0.03246798 0.12422115 0.070791535 0.02666121
0.108772345 -0.07569836 0.08736916 0.250624 0.11177557 0.14220059 -0.022366103 0.046457537
0.04246477 0.04237576 0.15716475 -0.06849521 0.110164 0.04221117 -0.12348047 -0.17086674
-0.06422273 -0.21794632 -0.004794435 0.059992373 0.012174812 0.064652845 0.056143302 0.073025905
-0.061911307 -0.019099561 -0.06928645 0.03173423 -0.05652301 -0.20387775 0.10511992 0.053827967
0.055207048 0.034510545 -0.016030703 0.16242965 -0.07139462 -0.08468022 0.16730095 -0.009606092
00000000: 238e 47bd 1714 f0ba 7766 2bbc 6159 00be
00000010: c1e0 b8bd dd54 3c3c 1fec 9fbb 7cc2 c53d
00000020: a311 1bbd 8882 adbd fdc2 d23c ea1d 893d
00000030: 0ce6 ed3c 19f1 d2bd 1093 c93c c589 413e
00000040: fdb6 62bd d25d 39bd 0d8b 46be 91f2 66be
00000050: d50b 87bd 086b b83d c662 2abd 5536 123c
00000060: 72be d13d aebf ab3d 6ac6 7c3c 3e02 8f3d
00000070: 2038 773b b334 183d 3594 f63c 8e31 90bd
00000080: 6700 13bd 037d 613d de59 67bd b1df 633d
00000090: 4727 b23c c969 15bd 4a6e 993c 724f c53d
000000a0: 5a68 c43d f96b 2cbe 236c 0ebe c84f bc3c
000000b0: 476a c4bd 074d 8e3d b50e 53bd 2ec4 523d
000000c0: 2b77 463d f2bf 673c 312b 88bd 5a2d 423d
000000d0: 6ca0 07ba bfc9 033e 2232 4e3c 628d 34bd
000000e0: 5075 353d 0855 53bc 18dd 003d 94ce ec3d
000000f0: a1c2 e73d a6a0 d53b 47bb 743d 0072 17bd
00000100: 8564 38bd 5842 5a3c c646 37bd 20da 46bd
00000110: 19af 4dbe 3157 4f3d a973 7d3d 8163 303d
00000120: 32c0 ab3d 5b20 243d 902d 103e c993 4e3c
00000130: 0446 19bd 9366 d73d 2e5a c03d 2296 943d
00000140: a659 843d a1ce ebbc 4323 b53d e73d 033e
00000150: 9e78 863b 889e 2d3c a68a d9b9 a9f8 a03d
00000160: 911a 00be 5c96 06bd ae81 c53b 275b 8fbd
00000170: 939b 8e3c 6f35 2c3d 41bb ed3d 8856 27bd
00000180: a1bb 04be ad08 a13d cdf8 9b3d 130c 173c
00000190: 1336 1d3e 5e60 2dbe 296e e63d cffa b03d
000001a0: 7648 03bd d3db 16be c6f4 9f3d bfa9 423d
000001b0: 78c5 1d3c 8efe db3d 06ea d5bd 9012 2b3d
000001c0: d4b7 e2bd eb64 04bd 76ab 4f3d 1370 ca3d
000001d0: b1d5 70bd ec9f 1ebc 2634 593d 8333 f23d
000001e0: fbaf 043d f630 8bbd ab91 cd3c 1c38 b03b
000001f0: 82b7 dc3d 797c 303d 39e8 ab3d c5c8 853c
00000200: 2b77 8938 8b13 b53b 8dc8 083e 1595 383d
00000210: 41a0 ec3d a8ad 283e b004 773d 210a 533e
00000220: dc65 5bbe 0b5b 89bc ac35 c0bd efec 273e
00000230: 9e20 42bc 19e3 d73d cbc6 ea3d 109f 0a3d
00000240: 7e05 61bd d2c4 1c3d dcab 41bd 548d 663d
00000250: 665d 1fbe 8efd 9a3d 31c2 13bd 709a 52be
00000260: 39ae debd 653e 3cbc 897f 03be fa53 39bd
00000270: 7d6b 17be e70d af3d 2c19 a53d b4d4 b4bd
00000280: 0571 363d 5847 903d 45e8 7dbd 7978 0abc
00000290: 3a93 58bc 45e5 293d 9a41 d7bb 9ecc 9a3d
000002a0: bc96 2c3d 3e16 be3c cd0a 483c 19c8 ef3c
000002b0: 8963 613d 2c31 5c3d 889a 37bc abf6 13bd
000002c0: 3798 46bd c5b5 09bd 200a cdbc 1d2c a9bd
000002d0: 70fe 083d b7fa 733d 09dc ffba 689e 003e
000002e0: e7a7 593d 5963 14be ce44 74be 6f0e a13d
000002f0: bc51 3dbe 9f97 383d 82e3 8a3c 16e0 2bbe
00000300: 6c78 f83c c335 333e 626f 9e3c 6e3b db3d
00000310: 528e fe3d ea72 06bd df8b d9bd 81e0 86bc
00000320: 46b1 9ebc b9d9 25bd f52f 213c 8aeb 2ebe
00000330: 2a2d 61bc 6ec6 873d 5b95 0cbd a5cb 643d
00000340: 1a76 a73d f835 9cbc f5dd 5c3e bdc5 b73c
00000350: 25fd 043d a967 fe3d 27fb 903d 9c68 da3c
00000360: 09c4 de3d be07 9bbd 9aee b23d ca51 803e
00000370: 97ea e43d 089d 113e 1e39 b7bc 424a 3e3d
00000380: 8aef 2d3d 3492 2d3d ccef 203e 3747 8cbd
00000390: aa9d e13d 9fe5 2c3d 54e3 fcbd b1f7 2ebe
000003a0: 3587 83bd 522d 5fbe a31a 9dbb 90ba 753d
000003b0: dd78 473c b668 843d 85f6 653d 9b8e 953d
000003c0: b696 7dbd af76 9cbc 0ee6 8dbd c1fb 013d
000003d0: ac84 67bd 54c5 50be 1d49 d73d b77a 5c3d
000003e0: c920 623d ee5a 0d3d d252 83bc f553 263e
000003f0: 5837 92bd d36c adbd f150 2b3e df62 1dbc

fc2.bias f4 [256]
-0.10312905 0.068471946 -0.07138971 -0.19767141 -0.1406073 -0.033306357 -0.13630755 -0.07707249
-0.20581046 -0.07796225 -0.35304862 -0.12488034 -0.043305654 -0.048598506 -0.10436333 -0.14316973
-0.08234365 -0.220907 -0.08656371 -0.1899515 -0.15684742 -0.19528303 -0.060923435 -0.13245408
-0.12111173 -0.045128625 -0.072588086 -0.06267465 0.0038051207 -0.11104588 -0.14796835 -0.16267659
-0.22967102 -0.06209852 -0.09928373 -0.06194411 -0.17224881 -0.18590215 -0.24972889 -0.19973461
-0.06258814 -0.062991165 -0.18508802 -0.17221077 -0.12990542 -0.17896634 -0.21758822 -0.018945282
-0.18696614 -0.0077726613 -0.1985396 -0.062382936 -0.075504534 -0.119545676 -0.0683643 -0.01909405
0.03767596 -0.18264592 -0.16355756 -0.026757097 -0.18450448 -0.1147891 -0.09026132 -0.113502055
-0.112418786 -0.05149502 0.012823246 -0.092643745 -0.07247871 -0.21310677 -0.2244492 -0.051815744
-0.19491202 -0.054301582 -0.013612833 -0.14843729 -0.041227415 -0.17830497 0.017171144 -0.24364755
-0.121405356 -0.12793373 -0.125075 -0.108184375 -0.137964 -0.22176827 -0.065415025 -0.102225505
-0.19757374 -0.19534883 -0.13057174 -0.06662881 -0.0069761435 -0.20112617 -0.09698772 -0.19523744
-0.11937373 0.068358906 -0.19823673 -0.112992994 -0.090693206 0.027931584 -0.27956945 -0.09671188
-0.16591766 -0.039728742 -0.022878703 -0.00495645 -0.17547566 -0.39832103 -0.05468085 -0.11596047
-0.017214524 0.015177592 -0.20644191 -0.07092509 -0.075210385 -0.14978191 -0.13296816 -0.33105063
0.027397674 -0.019262554 -0.16445239 -0.29087773 -0.047169536 -0.071517274 -0.12838067 -0.003253306
-0.10862765 -0.20174251 -0.13146143 -0.013431662 -0.011954915 -0.093633994 -0.034100063 -0.18593435
-0.05648688 -0.262385 -0.0129158385 -0.18495944 0.04084218 -0.09144115 -0.07590615 -0.057950705
-0.06575342 -0.3143592 -0.16547988 -0.00083305495 -0.0649868 -0.06681012 -0.008873647 -0.104119964
-0.042505775 -0.07654467 -0.10651794 -0.1428449 -0.16158733 -0.19029006 0.024943585 -0.08826573
-0.06293458 -0.06968512 -0.07969466 -0.13903269 -0.10841088 -0.22087637 -0.1486218 -0.19655691
-0.067137375 -0.16178595 -0.096326485 -0.08612844 -0.09380406 -0.08944929 -0.11894427 -0.03506069
-0.02618384 -0.14522217 -0.08170119 -0.16394757 0.017715946 -0.2077327 -0.19947416 -0.1538752
-0.18423177 -0.15918542 -0.11900576 -0.10291888 -0.051700205 -0.07775697 -0.26494992 -0.1865912
-0.17024074 -0.13045941 -0.18478897 0.012041056 -0.14690386 -0.21305951 -0.11302735 0.08597757
-0.20667158 -0.21093911 -0.1862949 -0.18626793 -0.18248779 0.010462717 -0.13409509 -0.21501982
-0.18438476 -0.088409364 0.03004344 -0.033665847 -0.17748733 -0.11315356 -0.17332537 -0.01232228
-0.19470973 -0.15492074 -0.1485883 -0.08556447 -0.16117372 -0.028975032 -0.19256122 -0.11865109
-0.0076710875 -0.13130884 -0.03419976 -0.11651725 -0.15154551 -0.17941357 -0.11140043 -0.052799445
-0.25437886 -0.106901616 -0.04254383 -0.2953064 -0.09378965 -0.15691611 -0.13959467 -0.0946918
0.029807068 -0.19969267 -0.09263854 -0.20812558 -0.018563477 -0.12045858 -0.014986736 -0.17352496
-0.055852167 -0.19130222 -0.18527913 -0.17999066 -0.2974939 -0.13427454 -0.1575928 -0.12845407
00000000: 5335 d3bd 053b 8c3d c534 92bd 606a 4abe
00000010: 5cfb 0fbe 3f6c 08bd 3594 0bbe 2ed8 9dbd
00000020: fabf 52be acaa 9fbd cac2 b4be 44c1 ffbd
00000030: 4561 31bd 3a0f 47bd 71bc d5bd 169b 12be
00000040: caa3 a8bd 7235 62be 5048 b1bd a582 42be
00000050: 9c9c 20be 46f8 47be da8a 79bd 0ba2 07be
00000060: 6d09 f8bd cbd8 38bd 10a9 94bd 915b 80bd
00000070: 555f 793b 066c e3bd 0485 17be b194 26be
00000080: e12e 6bbe 055b 7ebd 4555 cbbd 1bb9 7dbd
00000090: fe61 30be 225d 3ebe eeb8 7fbe 3b87 4cbe
000000a0: 362e 80bd 8301 81bd b787 3dbe 0558 30be
000000b0: ed05 05be f442 37be 72cf 5ebe 2333 9bbc
000000c0: 0d74 3fbe cfb1 febb f74d 4bbe 4085 7fbd
000000d0: 1fa2 9abd 5dd4 f4bd 9502 8cbd 206b 9cbc
000000e0: 1c52 1a3d 8807 3bbe a27b 27be b331 dbbc
000000f0: beee 3cbe 8c16 ebbd edda b8bd c473 e8bd
00000100: d23b e6bd 71ec 52bd 9818 523c 01bc bdbd
00000110: b86f 94bd a938 5abe 03d6 65be bf3c 54bd
00000120: 0497 47be 566b 5ebd 5c08 5fbc f2ff 17be
00000130: 14de 28bd 9495 36be 80aa 8c3c be7e 79be
00000140: 5fa3 f8bd 0f01 03be a913 00be c58f ddbd
00000150: 6f46 0dbe 3917 63be 50f8 85bd 9b5b d1bd
00000160: c550 4abe 8609 48be 99b4 05be af74 88bd
00000170: 2298 e4bb 05f4 4dbe 7fa1 c6bd 53ec 47be
00000180: 377a f4bd c1ff 8b3d 92fe 4abe df68 e7bd
00000190: 5cbd b9bd c7d0 e43c ba23 8fbe e110 c6bd
000001a0: 52e6 29be 9bba 22bd 1e6c bbbc b769 a2bb
000001b0: e4af 33be bcf0 cbbe 07f9 5fbd af7c edbd
000001c0: 7905 8dbc 6fab 783c 8265 53be 2c41 91bd
000001d0: e707 9abd 6e60 19be ce28 08be 787f a9be
000001e0: 1671 e03c 81cc 9dbc 3566 28be eded 94be
000001f0: d834 41bd a677 92bd 3976 03be 6b35 55bb
00000200: 2c78 debd 9795 4ebe d39d 06be 7910 5cbc
00000210: 8cde 43bc 2ec3 bfbd 82ac 0bbd 9365 3ebe
00000220: c95e 67bd 5457 86be f49c 53bc 0266 3dbe
00000230: 214a 273d 7f45 bbbd af74 9bbd b85d 6dbd
00000240: bba9 86bd b0f3 a0be 8f73 29be 5f61 5aba
00000250: cd17 85bd bfd3 88bd c662 11bc d93c d5bd
00000260: 891a 2ebd 74c3 9cbd 1426 dabd ef45 12be
00000270: 2677 25be 66db 42be 7d56 cc3c aac4 b4bd
00000280: d8e3 80bd 12b7 8ebd f436 a3bd 965e 0ebe
00000290: 8606 debd 6a2d 62be 5030 18be 3746 49be
000002a0: 527f 89bd 37ab 25be d246 c5bd 1c64 b0bd
000002b0: 581c c0bd 3031 b7bd 0e99 f3bd cc9b 0fbd
000002c0: 7e7f d6bc 1fb5 14be f452 a7bd dfe1 27be
000002d0: 0821 913c e2b7 54be f442 4cbe 7691 1dbe
000002e0: 41a7 3cbe 8101 23be 4bb9 f3bd 22c7 d2bd
000002f0: 98c3 53bd 0c3f 9fbd 84a7 87be c311 3fbe
00000300: 9753 2ebe 2797 05be 5239 3dbe d947 453c
00000310: f76d 16be 462c 5abe e27a e7bd 0215 b03d
00000320: b7a1 53be 6c00 58be 17c4 3ebe 05bd 3ebe
00000330: 14de 3abe d16b 2b3c 3950 09be 282e 5cbe
00000340: 5ccf 3cbe f80f b5bd a91d f63c 33e5 09bd
00000350: 3dbf 35be 0ebd e7bd 357c 31be 63e3 49bc
00000360: fd61 47be 8ba3 1ebe 8827 18be 6d3c afbd
00000370: b90a 25be 0c5d edbc c52e 45be 58ff f2bd
00000380: bf5d fbbb d375 06be 0c15 0cbd 99a0 eebd
00000390: bf2e 1bbe 31b8 37be e925 e4bd 3b44 58bd
000003a0: f23d 82be 3cef dabd 7042 2ebd 6732 97be
000003b0: ca14 c0bd 9eae 20be e8f1 0ebe c6ed c1bd
000003c0: f42d f43c 3c7c 4cbe 46b9 bdbd df1e 55be
000003d0: 6f12 98bc fdb2 f6bd ed8a 75bc 87b0 31be
000003e0: 3ec5 64bd bbe4 43be d0b9 3dbe 794f 38be
000003f0: 1f51 98be 447f 09be 0260 21be 7789 03be

fc3.weight f4 [128, 256]
0.070187844 -0.12965058 -0.15210137 0.09277182 0.031308573 -0.18905716 -0.15524086 -0.013396473
0.017502079 -0.055984702 -0.027402809 -0.12218553 -0.21586312 -0.032533593 -0.05682284 0.009420182
-0.28481582 0.13631412 -0.20661512 -0.23492731 0.13040707 0.015855365 0.056172527 -0.048668474
0.02731938 -0.020600209 -0.27256548 -0.11310373 -0.17780663 0.043642815 0.06180414 -0.040489607
-0.1759885 0.017088607 0.1385643 0.093808666 0.041126765 0.10021773 0.1630314 -0.031055087
-0.05897094 -0.1909077 0.033742346 0.13478118 -0.0220239 0.12419815 0.054617975 0.103634104
0.017791174 -0.20597357 0.16338988 0.10833045 -0.005359314 -0.15513548 -0.035386097 -0.059173625
-0.06737966 -0.06659661 -0.048939854 -0.18540494 0.030705668 -0.19574228 0.114901096 0.06207634
0.08837526 0.22295344 0.081997335 -0.07971109 -0.05246539 -0.07598002 0.044567954 0.18893644
0.038415328 -0.092875466 0.023673704 -0.3569002 0.09780065 0.004154953 -0.081135325 0.0040613706
-0.09906984 -0.09402942 0.19244568 -0.24590412 0.07885728 -0.02241924 0.04097488 -0.04647109
0.16443232 0.08621999 -0.25342005 0.078869104 0.08719585 0.12373619 0.027478565 0.14571421
-0.020549722 -0.15969782 -0.3843061 -0.058707066 -0.027283212 -0.07984113 -0.1426699 0.08708414
-0.11930786 0.063535854 -0.09795509 0.10106663 0.2436345 0.07769209 -0.2218907 -0.06428044
0.0984627 -0.027013723 -0.06336438 0.090345085 -0.085618764 -0.32248807 -0.13778569 -0.058224488
0.008418122 -0.17123677 -0.048515365 -0.22026844 0.016672768 0.07129954 -0.025838051 -0.08176178
0.054080766 -0.16671613 -0.030129572 -0.044174746 0.04220711 -0.33862865 0.106352374 -0.096839145
-0.19735448 -0.016104925 -0.068499304 -0.053540155 0.08783994 -0.16964668 0.13020228 -0.0067578503
0.03872766 -0.24520561 -0.05975526 -0.22411534 -0.061950855 0.0285372 -0.17194442 0.11222177
0.12043335 -0.11023165 0.19740883 -0.04411608 0.18063262 -0.07021312 0.20781374 0.10236598
-0.08184866 -0.09083767 -0.19746691 0.12946631 -0.2529639 -0.036225446 0.15389343 -0.14503895
-0.02155359 -0.16917083 -0.38047454 -0.16021758 0.015772216 -0.04857007 0.046611417 0.00073441386
0.07175093 0.04771656 0.15771094 0.09945143 0.020938987 -0.022748454 0.005676122 -0.06726188
-0.025464362 -0.072607934 0.09749797 -0.3038569 0.2062084 0.14433329 0.06334778 -0.08786886
0.19591966 -0.17320126 -0.17431821 0.0072154016 -0.14490768 0.070321985 -0.0840852 -0.19406854
0.12553175 -0.029087976 0.23427573 -0.19110726 -0.027720654 -0.15514815 0.120377935 0.052564885
0.0138589945 0.11619217 0.1545669 0.012442203 0.13704175 -0.20407939 -0.09825918 0.17318918
-0.06665823 -0.003996362 -0.24338156 0.14200793 0.0831259 0.05124607 0.058249477 0.008658153
0.05473124 -0.13569799 -0.0551934 0.03783724 -0.028707342 -0.15448053 0.04863652 -0.23670945
-0.19951008 0.18016376 0.098933615 0.013863753 -0.06950507 -0.093040645 -0.0467094 0.06507922
-0.02814418 -0.1404494 0.01915288 -0.032684337 0.15082364 -0.08704443 -0.12620896 -0.14698468
-0.18940933 -0.03543889 0.12877664 -0.025285568 -0.16777675 -0.33626452 0.07567314 0.006739271
00000000: a5be 8f3d 1fc3 04be 76c0 1bbe 27ff bd3d
00000010: 6b3d 003d 3398 41be 76f7 1ebe e17c 5bbc
00000020: 8560 8f3c 3750 65bd db7b e0bc 683c fabd
00000030: 390b 5dbe f241 05bd 11bf 68bd 1b57 1a3c
00000040: 61d3 91be ee95 0b3e ea92 53be c990 70be
00000050: 6e89 053e 1ce3 813c 2a15 663d 9858 47bd
00000060: e4cc df3c c5c1 a8bc b48d 8bbe eea2 e7bd
00000070: f112 36be cfc2 323d 5726 7d3d 6ed8 25bd
00000080: 5436 34be 68fd 8b3c cde3 0d3e c21e c03d
00000090: 8a74 283d f43e cd3d b4f1 263e 3d67 febc
000000a0: 838b 71bd 4f7d 43be 6a35 0a3d 1404 0a3e
000000b0: 776b b4bc 9a5b fe3d 19b7 5f3d 1e3e d43d
000000c0: ccbe 913c bcea 52be ad4f 273e 5bdc dd3d
000000d0: 2f9d afbb d6db 1ebe 03f1 10bd 0b60 72bd
000000e0: 59fe 89bd ce63 88bd 2875 48bd cbda 3dbe
000000f0: 748a fb3c aa70 48be 4451 eb3d c343 7e3d
00000100: 17fe b43d e84d 643e 38ee a73d 913f a3bd
00000110: f3e5 56bd 6a9b 9bbd e38c 363d 8e78 413e
00000120: 6459 1d3d 7e35 bebd 5bef c13c 9fbb b6be
00000130: b54b c83d 4626 883b 472a a6bd 3f15 853b
00000140: 21e5 cabd 7f92 c0bd 7b10 453e 4ace 7bbe
00000150: ed7f a13d 8ea8 b7bc 47d5 273d 7858 3ebd
00000160: f260 283e 1b94 b03d 46c0 81be 2086 a13d
00000170: bd93 b23d 6669 fd3d ba1a e13c 1b36 153e
00000180: e457 a8bc d387 23be c5c3 c4be d276 70bd
00000190: 0b81 dfbc bf83 a3bd 0f18 12be 2b59 b23d
000001a0: ae57 f4bd 161f 823d ae9c c8bd 05fc ce3d
000001b0: 537b 793e 081d 9f3d 5137 63be 77a5 83bd
000001c0: d0a6 c93d e24b ddbc 2fc5 81bd d806 b93d
000001d0: e458 afbd 281d a5be b117 0dbe cd7c 6ebd
000001e0: 2aec 093c b158 2fbe 0cb8 46bd 0d8e 61be
000001f0: 5495 883c 7e05 923d 52aa d3bc b872 a7bd
00000200: cb83 5d3d a2b7 2abe 4bd2 f6bc 94f0 34bd
00000210: 5de1 2c3d bc60 adbe 46cf d93d 9a53 c6bd
00000220: 4b17 4abe 7aee 83bc 5d49 8cbd ec4c 5bbd
00000230: 6de5 b33d dcb7 2dbe bf53 053e f570 ddbb
00000240: e5a0 1e3d 2e17 7bbe eec1 74bd 7e7e 65be
00000250: 2ec0 7dbd d9c6 e93c 3312 30be 87d4 e53d
00000260: c3a5 f63d 22c1 e1bd 8a25 4a3e 10b3 34bd
00000270: c2f7 383e e5cb 8fbd 20cd 543e 41a5 d13d
00000280: 45a0 a7bd 1a09 babd c434 4abe d192 043e
00000290: 7c84 81be 2261 14bd 3d96 1d3e 1785 14be
000002a0: 2891 b0bc 1e3b 2dbe 8fcd c2be 1410 24be
000002b0: bc34 813c 69f1 46bd 9deb 3e3d ae85 403a
000002c0: 27f2 923d 7172 433d fa7e 213e 31ad cb3d
000002d0: 3d88 ab3c f75a babc c3fe b93b 99c0 89bd
000002e0: a39a d0bc 78b3 94bd 04ad c73d 2293 9bbe
000002f0: 4b28 533e 1bcc 133e 7bbc 813d 97f4 b3bd
00000300: 2a9f 483e ac5b 31be 7980 32be 2d6f ec3b
00000310: ae62 14be f904 903d dd34 acbd e7b9 46be
00000320: 658b 003e e849 eebc fae5 6f3e 9fb1 43be
00000330: 6d16 e3bc 28df 1ebe b588 f63d 474e 573d
00000340: d610 633c 29f6 ed3d c946 1e3e 62da 4b3c
00000350: ac54 0c3e 30fa 50be 1c3c c9bd 8158 313e
00000360: 1c84 88bd eaf3 82bb 0439 79be 876a 113e
00000370: e93d aa3d 66e7 513d 0197 6e3d edda 0d3c
00000380: dd2d 603d 6af4 0abe 7912 62bd 39fb 1a3d
00000390: a92b ebbc 2530 1ebe 1637 473d f663 72be
000003a0: 5f4c 4cbe d97c 383e b59d ca3d cb24 633c
000003b0: ad58 8ebd 188c bebd 5b52 3fbd 4148 853d
000003c0: a08e e6bc f8d1 0fbe 80e6 9c3c 03e0 05bd
000003d0: 8371 1a3e 5a44 b2bd ec3c 01be 2783 16be
000003e0: 85f4 41be 5f28 11bd 06de 033e ae23 cfbc
000003f0: abcd 2bbe dd2a acbe 85fa 9a3d 1ad5 dc3b

fc3.bias f4 [128]
-0.12349759 0.0045105624 -0.028933981 0.017003445 -0.023821391 0.10923035 0.07717026 0.013548646
0.1470137 -0.049767103 -0.0610943 0.03019694 0.07550566 -0.05251711 0.0074629146 0.024080558
0.06489373 -0.07876467 -0.115584396 -0.0146347955 0.0971989 -0.017268753 0.020453224 -0.035198446
-0.24012202 0.26042333 -0.028800568 0.020602593 0.30942813 -0.07028992 0.019120233 -0.07055164
0.09477767 0.015227622 0.08455957 -0.02892294 0.00040943685 0.17306703 0.15962125 0.12341196
-3.4744808e-05 0.040027216 -0.04845147 0.08853451 0.018827384 0.044078704 -0.011703158 0.2796005
0.014711481 0.01845032 -0.011114148 -0.027570095 0.11490904 0.23831058 -0.048769914 -0.026877087
-0.0143654505 0.123728335 0.072823144 0.032593794 0.33160225 0.1816608 -0.010251484 0.12533583
-0.0931545 -0.026926145 0.07751822 0.060127728 -0.091105685 0.39872885 -0.021415662 0.009143732
-0.0942096 -0.018643703 -0.038767718 0.13158563 0.07119659 -0.004576781 -0.02458994 -0.13811408
-0.12064928 -0.08304841 0.032819863 -0.030698588 0.053425215 -0.12159957 -0.0042883586 0.085784785
-0.039142594 -0.07665995 -0.011349225 0.007027895 -0.06222115 0.014124593 -0.011345761 -0.082508385
0.03177621 -0.031841997 0.05492708 -0.07693196 0.07946278 0.010240507 0.017174514 -0.14261064
-0.08635491 -0.0923438 -0.030623693 -0.028035231 0.04084507 -0.070207454 0.10137771 -0.04233794
-0.07732933 -0.054021813 -0.04615807 -0.07040843 0.020938266 0.06196819 -0.059163578 0.0077842325
0.06728255 -0.096032545 0.06474489 -0.006334908 0.036474776 -0.050761778 -0.08458887 -0.13021012
00000000: 4eec fcbd 57cd 933b f506 edbc cf4a 8b3c
00000010: 1425 c3bc 29b4 df3d 710b 9e3d 24fb 5d3c
00000020: c28a 163e 97d8 4bbd 043e 7abd 935f f73c
00000030: b6a2 9a3d 2e1c 57bd 778b f43b 9744 c53c
00000040: 01e7 843d 5f4f a1bd 83b7 ecbd c8c6 6fbc
00000050: 3810 c73d 3377 8dbc 858d a73c 3f2c 10bd
00000060: 8ce2 75be 3556 853e 2bef ebbc c5c6 a83c
00000070: 5d6d 9e3e 29f4 8fbd 09a2 9c3c 617d 90bd
00000080: cc1a c23d 477d 793c 912d ad3d cdef ecbc
00000090: afa9 d639 7c38 313e c173 233e 69bf fc3d
000000a0: f4ba 11b8 94f3 233d 0c75 46bd 9551 b53d
000000b0: e33b 9a3c df8b 343d 9abe 3fbc cc27 8f3e
000000c0: 6c08 713c 2025 973c 1e18 36bc aeda e1bc
000000d0: 6e55 eb3d b007 743e f6c2 47bd 562d dcbc
000000e0: 115d 6bbc 4865 fd3d 4d24 953d 1281 053d
000000f0: c5c7 a93e 4a05 3a3e d7f5 27bc 0958 003e
00000100: c9c7 bebd 3894 dcbc dfc1 9e3d 7e48 763d
00000110: 9e95 babd 3026 cc3e e66f afbc 97cf 153c
00000120: f6f0 c0bd aeba 98bc e6ca 1ebd 62be 063e
00000130: 85cf 913d d2f8 95bb d870 c9bc c76d 0dbe
00000140: f816 f7bd 4915 aabd 1f6e 063d 9b7b fbbc
00000150: 66d4 5a3d 3209 f9bd 5c85 8cbb efaf af3d
00000160: fc53 20bd e4ff 9cbd 1af2 39bc 424a e63b
00000170: 9bdb 7ebd d66a 673c 92e3 39bc 28fa a8bd
00000180: c527 023d c16c 02bd 38fb 603d 818e 9dbd
00000190: 62bd a23d cdc7 273c 91b1 8c3c 8608 12be
000001a0: d8da b0bd bf1e bdbd 8ade fabc 24aa e5bc
000001b0: 294d 273d edc8 8fbd 1e9f cf3d 8c6a 2dbd
000001c0: d75e 9ebd fa45 5dbd 3f10 3dbd 4c32 90bd
000001d0: ba86 ab3c 5bd2 7d3d 8255 72bd e012 ff3b
000001e0: 6fcb 893d b6ac c4bd f898 843d 0f95 cfbb
000001f0: 9366 153d 95eb 4fbd ee3c adbd cd55 05be

fc4.weight f4 [32, 128]
-0.040030137 0.10527305 -0.16633011 -0.14339589 -0.085428245 -0.19528902 0.14451939 0.08349226
-0.069388084 -0.022547249 0.11418197 -0.10599295 -0.11505566 0.026622172 0.06511665 -0.10214987
-0.19741885 -0.026308266 -0.058491487 -0.20669115 -0.04812358 0.07107807 -0.08558087 -0.03043882
-0.19063365 -0.11157761 -0.07911517 -0.08761358 0.01966499 -0.07108415 0.1411044 -0.015188064
-0.12772678 0.06594236 -0.04159249 -0.10552246 -0.072430715 -0.12845366 -0.09573554 0.13087474
0.091735415 0.081710756 0.06863098 0.13420601 0.1361174 0.037767977 -0.16100983 -0.16543624
0.017919788 -0.03040664 0.103750825 0.027862787 -0.23013486 -0.24716988 -0.19161223 0.12843685
0.0815757 0.06689457 -0.11399641 -0.06249869 -0.1792496 0.02437191 -0.16050409 -0.028306115
0.0072198096 0.1114081 -0.048879933 -0.109923266 -0.12623195 -0.2770408 -0.19113408 0.097427174
-0.14631175 0.049397763 0.13087149 0.049106304 -0.10076754 0.0023563053 0.05225003 -0.119569294
-0.07874556 0.023298409 0.017053112 -0.13719857 0.1432017 0.07025004 -0.12712006 -0.21150476
-0.073315606 -0.02850329 0.18405072 -0.17165838 0.022232225 -0.018109994 -0.11989924 -0.06873279
-0.055010308 0.07525565 -0.04315349 0.08485175 -0.11889564 0.101904094 -0.102097526 -0.1463444
-0.191181 0.15487961 0.1546155 -0.032602325 -0.15328829 -0.085139394 0.15629458 -0.12822327
-0.0028088824 0.011788527 -0.033400364 0.09404697 0.015363104 0.063685566 -0.111648634 -0.03743592
0.14308257 0.094994515 -0.18846388 0.059302747 -0.12798752 0.1683081 0.11161838 -0.045200426
-0.09557934 -0.08838563 0.034380063 0.09378821 -0.3894315 -0.089457296 0.09980148 0.11682746
-0.48002166 0.07741593 -0.23750496 -0.019192297 -0.07135148 0.1252589 0.07891906 -0.21566966
-0.15110226 -0.13394806 -0.13771905 -0.103894405 0.18760884 -0.29950035 0.14285482 -0.097933486
-0.061048407 0.06529016 0.115153715 -0.25137043 0.06377613 -0.250525 -0.12483322 -0.2494804
0.067585394 -0.206629 0.07912228 -0.07156105 0.12380245 -0.00036388205 0.117102325 0.1841141
0.2881567 0.16212434 -0.35699177 0.124667965 0.1288069 0.022367159 -0.17897655 0.0961034
-0.07152917 -0.50431 0.012680816 -0.04646881 0.019951165 -0.021311162 -0.38090733 -0.28478256
0.052741677 0.124880575 -0.21292947 -0.6038996 0.07227867 0.06278773 -0.10491452 -0.024892448
-0.12822865 0.087809265 0.1455002 0.0710632 0.12839003 0.036901467 0.19511174 -0.17279303
-0.022485431 0.06503124 -0.19707397 -0.0027326827 0.15887676 -0.3136888 -0.2997311 -0.17774925
-0.54237616 -0.0554088 0.22519043 -0.09592107 -0.0070127654 -0.060193352 -0.366003 0.10058766
-0.117990516 -0.06942657 -0.3207371 -0.06768065 0.25772646 -0.03115158 -0.25273392 -0.23882622
-0.070972934 -0.106958106 0.082196325 0.1050539 0.12584724 0.1894143 -0.18013237 -0.054903936
-0.15593417 -0.0066563445 -0.0036019501 -0.16948727 -0.31153685 0.26984543 -0.032691665 0.03315064
-0.23976564 -0.0032178627 0.01482284 -0.3845895 -0.013779611 0.13437654 -0.08165668 -0.12126414
0.2623172 0.050341852 0.09243074 0.12036406 -0.15184115 0.10186224 -0.15286706 0.21084684
00000000: a4f6 23bd 6699 d73d 7152 2abe 5fd6 12be
00000010: 01f5 aebd d8f9 47be e4fc 133e fdfd aa3d
00000020: 571b 8ebd 02b5 b8bc 3dd8 e93d d512 d9bd
00000030: 4da2 ebbd be16 da3c e15b 853d f333 d1bd
00000040: 2b28 4abe 6f84 d7bc c594 6fbd d8a6 53be
00000050: 3b1d 45bd 6191 913d 0645 afbd d55a f9bc
00000060: 7835 43be cd82 e4bd 2207 a2bd c06e b3bd
00000070: 7918 a13c 9194 91bd ac7d 103e 5cd7 78bc
00000080: cfca 02be ca0c 873d e35c 2abd 291c d8bd
00000090: 8e56 94bd 5b89 03be ff10 c4bd 0704 063e
000000a0: c7df bb3d f857 a73d 668e 8c3d 4d6d 093e
000000b0: 5c62 0b3e 98b2 1a3d c3df 24be 1e68 29be
000000c0: 85cc 923c 5917 f9bc 507b d43d 8040 e43c
000000d0: 79a8 6bbe 1a1a 7dbe ff35 44be f384 033e
000000e0: 2911 a73d 0500 893d f376 e9bd a0fe 7fbd
000000f0: 358d 37be 9aa7 c73c 2f5b 24be 3ae2 e7bc
00000100: 2794 ec3b ee29 e43d 5336 48bd 731f e1bd
00000110: f342 01be 4bd8 8dbe a7b8 43be e687 c73d
00000120: bfd2 15be 4f55 4a3d 2d03 063e b123 493d
00000130: 365f cebd 3e6c 1a3b 2104 563d bfe0 f4bd
00000140: 5a45 a1bd 4edc be3c f8b2 8b3c c87d 0cbe
00000150: 77a3 123e 41df 8f3d c32b 02be b494 58be
00000160: 7e26 96bd bb7f e9bc cb77 3c3e 37c7 2fbe
00000170: 5b20 b63c 695b 94bc bc8d f5bd c7c3 8cbd
00000180: 7d52 61bd a21f 9a3d b7c1 30bd c1c6 ad3d
00000190: 8f7f f3bd 18b3 d03d 8218 d1bd 4edb 15be
000001a0: f4c4 43be c398 1e3e 8753 1e3e 048a 05bd
000001b0: 9bf7 1cbe 905d aebd b00b 203e f64c 03be
000001c0: 3a15 38bb aa24 413c d2ce 08bd b39b c03d
000001d0: 87b5 7b3c 946d 823d 0aa8 e4bd 6856 19bd
000001e0: 3d84 123e 7c8c c23d adfc 40be 70e7 723d
000001f0: 290f 03be f558 2c3e 2d98 e43d 1524 39bd
00000200: 1abf c3bd 8603 b5bd 1cd2 0c3d 0814 c03d
00000210: 9163 c7be 6335 b7bd b864 cc3d 3c43 ef3d
00000220: 66c5 f5be 3e8c 9e3d 8034 73be 2a39 9dbc
00000230: ba20 92bd de43 003e 51a0 a13d 82d8 5cbe
00000240: 8dba 1abe ae29 09be 3906 0dbe 97c6 d4bd
00000250: 881c 403e 1c58 99be 8948 123e 5a91 c8bd
00000260: e50d 7abd d9b6 853d b6d5 eb3d a0b3 80be
00000270: 0f9d 823d d044 80be 8fa8 ffbd ca77 7fbe
00000280: 366a 8a3d 8d96 53be dd0a a23d 9a8e 92bd
00000290: 248c fd3d 6cc7 beb9 58d3 ef3d 6888 3c3e
000002a0: 4689 933e ec03 263e a0c7 b6be eb51 ff3d
000002b0: f5e5 033e 553b b73c a145 37be dcd1 c43d
000002c0: e37d 92bd 761a 01bf 33c3 4f3c 1456 3ebd
000002d0: a070 a33c bf94 aebc 4906 c3be 05cf 91be
000002e0: a807 583d 63c1 ff3d 2f0a 5abe 2a99 1abf
000002f0: d706 943d da96 803d 6ddd d6bd 3feb cbbc
00000300: 5f4e 03be 58d5 b33d 01fe 143e 9589 913d
00000310: ad78 033e fe25 173d 5fcb 473e a8f0 30be
00000320: 5e33 b8bc 192f 853d c2cd 49be cf16 33bb
00000330: 97b0 223e d29b a0be 5b76 99be e603 36be
00000340: 2ad9 0abf 56f4 62bd 5298 663e 4472 c4bd
00000350: 57cb e5bb 4e8d 76bd bf64 bbbe e700 ce3d
00000360: 03a5 f1bd 842f 8ebd a737 a4be 279c 8abd
00000370: b9f4 833e 9931 ffbc 5766 81be dc8e 74be
00000380: 425a 91bd da0c dbbd 8c56 a83d 8026 d73d
00000390: 19de 003e d2f5 413e 9f74 38be f3e2 60bd
000003a0: 35ad 1fbe 771d dabb b20e 6cbb 128e 2dbe
000003b0: c281 9fbe 2e29 8a3e b2e7 05bd f7c8 073d
000003c0: 2085 75be c7e2 52bb 7fdb 723c eae8 c4be
000003d0: e1c3 61bc 019a 093e 9e3b a7bd 5559 f8bd
000003e0: 714e 863e 4233 4e3d 544c bd3d 6f81 f63d
000003f0: 3f7c 1bbe 269d d03d 2f89 1cbe 3ce8 573e

fc4.bias f4 [32]
-0.17443155 0.10365608 -0.10102138 -0.22517467 0.12991709 -0.18272369 -0.20612358 -0.020288961
0.11232778 -0.15840454 0.21481171 -0.06281143 -0.16519925 -0.08041335 -0.16828673 -0.10917017
-0.090768576 -0.19884762 0.13430636 -0.056724988 -0.06342808 -0.05459134 -0.19659087 -0.16410777
0.15537494 -0.26894832 0.03721911 -0.106765494 0.3158113 -0.18480706 -0.10902073 0.20198697
00000000: 2f9e 32be a449 d43d 4ce4 cebd 3094 66be
00000010: fc08 053e eb1b 3bbe 0f12 53be 0935 a6bc
00000020: 1b0c e63d cd34 22be 9af7 5b3e 47a3 80bd
00000030: fe29 29be c1af a4bd 5b53 2cbe 9c94 dfbd
00000040: e0e4 b9bd b69e 4bbe 9b87 093e 7658 68bd
00000050: 95e6 81bd 2b9b 5fbd 1e4f 49be de0b 28be
00000060: 9c1a 1f3e 98b3 89be 1173 183d dea7 dabd
00000070: 05b2 a13e 103e 3dbe 4346 dfbd acd5 4e3e

Q.weight f4 [51, 32]
-0.1973114 1.2442159e-08 -0.062394742 -0.03471362 1.977777e-08 0.05295892 0.11634193 5.451038e-06
-9.266731e-09 0.028037611 -4.0540357e-08 -0.03288704 -0.017301733 0.09862257 0.20760997 0.003209532
0.06018535 -0.026072487 4.0985405e-08 -0.037002 -0.18093066 -0.08447151 -0.03001966 -0.20908016
-6.4549663e-09 0.05417417 2.9189284e-08 0.008165407 -1.1291489e-08 0.06402551 0.041029524 -3.1893627e-08
-0.20499906 2.1103494e-06 -0.16994737 -0.29458433 -9.099907e-07 -0.19237873 -0.15777303 -4.346766e-06
2.921421e-06 -0.16118161 2.0269158e-06 0.17263655 0.15171534 -0.03720652 -0.06971472 0.20313719
0.14784811 0.06662722 -1.5843202e-06 0.054149304 0.060096405 -0.0685663 0.044915423 0.034382414
3.01331e-06 0.022352003 7.671381e-07 0.11822364 7.656588e-07 0.05828435 0.19967033 1.9106783e-06
0.14758533 -5.4089423e-07 0.25164607 -0.010576275 -9.242091e-07 -0.13118905 -0.10301964 -8.631341e-06
4.3256287e-07 -0.07539525 1.5797094e-06 0.23003863 -0.14749628 0.08452523 -0.049810015 0.0013963776
-0.08233104 0.042551212 -1.842251e-06 -0.056940917 -0.09370865 -0.15450028 -0.0070923576 0.07730811
6.0288315e-08 0.18075529 -1.2583182e-06 -0.063121654 4.832514e-07 0.25824282 0.12840585 1.183169e-06
-0.10564563 -1.7906545e-07 0.1792492 -0.15740404 -6.8622953e-06 0.042603955 0.23182961 -5.548096e-06
8.163552e-06 -0.13512978 1.7584089e-05 -0.13655509 -0.001454446 -0.074680775 -0.11120287 0.26906937
0.20964168 -0.037379313 -3.33029e-05 -0.23539396 0.114860296 -0.017653989 0.15804961 0.0074292943
8.221624e-06 0.03256747 -2.9068402e-05 0.20132297 2.2977649e-07 0.18448743 0.12184666 1.4529338e-05
-0.099216945 -1.6928464e-06 -0.122341044 0.24136588 -1.235918e-05 0.14208218 -0.104845114 3.2061736e-05
1.4256048e-05 -0.080944 2.9558907e-05 0.053626083 -0.07924457 0.06612034 -0.11832535 0.21235402
-0.004328996 -0.1961221 -2.0128506e-05 -0.058417853 -0.024692023 -0.103419006 -0.17189911 -0.15953486
1.37993065e-05 -0.043351177 -1.4173404e-05 0.23089764 8.528419e-06 0.17308505 0.065586254 2.1816124e-05
-0.014678613 -1.3202491e-08 0.23618041 -0.043463998 -2.752216e-07 -0.2156606 -0.010215725 2.181958e-05
-1.8874605e-06 0.23527695 4.0484727e-07 0.07341344 -0.09726366 0.17424035 0.02439776 0.11990677
0.15931733 -0.17722492 1.0080814e-06 0.16882561 0.17408876 0.13054688 -0.06916472 0.26906925
8.1691496e-08 -0.14741479 -2.415349e-06 -0.035602007 -1.8709385e-07 0.08634791 0.05300303 -4.385046e-07
-0.10007272 7.629707e-07 -0.07814046 0.013667109 -1.4818808e-06 0.097805835 -0.118564405 -6.988425e-06
8.030599e-06 0.18074127 -2.424774e-06 -0.110457756 0.28112406 -0.013212536 0.18490174 -0.19253065
0.1811945 -0.1338539 -4.7366866e-06 -0.22083202 0.025331916 -0.023779279 0.30690536 0.14959462
1.0156662e-06 -0.16042936 3.1751597e-06 -0.1603509 -4.61063e-06 -0.030684015 -0.048281528 -4.3737923e-06
-0.08308321 1.0508341e-05 0.20568486 0.089266196 1.5597308e-06 -0.22482622 -0.31912845 2.0071852e-06
-2.6927852e-05 -0.09033075 1.0671211e-05 0.07708809 0.041383147 -0.07749973 0.07827383 0.13557386
0.00081979623 -0.014412521 1.8401059e-05 0.1470287 0.17964312 -0.08918406 0.2324727 0.06719074
-7.718143e-06 0.013608192 2.4625284e-05 -0.0470681 1.4189884e-05 -0.1636456 -0.044778876 1.937013e-05
00000000: 000c 4abe 32c1 5532 a191 7fbd de2f 0ebd
00000010: c7e3 a932 74eb 583d ae44 ee3d 0fe8 b636
00000020: 8433 1fb2 22af e53c 981e 2eb3 90b4 06bd
00000030: 5dbc 8dbc a1fa c93d b597 543e 0357 523b
00000040: ea84 763d f895 d5bc ee07 3033 698f 17bd
00000050: e345 39be 66ff acbd caeb f5bc 1c19 56be
00000060: 7cca ddb1 bce5 5d3d eabb fa32 33c8 053c
00000070: 7efc 41b2 ce1f 833d 930e 283d 6afb 08b3
00000080: 46eb 51be 879f 0d36 af06 2ebe c2d3 96be
00000090: 1646 74b5 eefe 44be 418f 21be 70da 91b6
000000a0: a10d 4436 cb0c 25be 2606 0836 a3c7 303e
000000b0: 445b 1b3e dd65 18bd 97c6 8ebd 3203 503e
000000c0: 7f65 173e da73 883d d4a4 d4b5 a9cb 5d3d
000000d0: a627 763d 7d6c 8cbd 3cf9 373d 93d4 0c3d
000000e0: 4638 4a36 8c1b b73c 54ed 4d35 3c1f f23d
000000f0: ac87 4d35 92bb 6e3d 6176 4c3e 3439 0036
00000100: 9c20 173e f831 11b5 c1d7 803e 1d48 2dbc
00000110: 2a17 78b5 6c56 06be f6fb d2bd 54cf 10b7
00000120: fd3a e834 d368 9abd 6706 d435 3f8f 6b3e
00000130: 4409 17be 901b ad3d 9605 4cbd a806 b73a
00000140: 2d9d a8bd 2e4a 2e3d 4343 f7b5 e13a 69bd
00000150: 52ea bfbd 5235 1ebe 0267 e8bb b753 9e3d
00000160: da77 8133 ea17 393e 7ce3 a8b5 ed45 81bd
00000170: c9b8 0135 6738 843e d37c 033e 61cd 9e35
00000180: bc5c d8bd 2345 40b4 1a8d 373e 862e 21be
00000190: ab42 e6b6 7c81 2e3d be64 6d3e c829 bab6
000001a0: 30f6 0837 765f 0abe 8b81 9337 19d5 0bbe
000001b0: 1ca3 beba 3cf2 98bd 55be e3bd 76c3 893e
000001c0: 4fac 563e 0d1b 19bd b7ae 0bb8 1d0b 71be
000001d0: e03b eb3d 199f 90bc c2d7 213e 7071 f33b
000001e0: 9bef 0937 7865 053d ebd7 f3b7 9c27 4e3e
000001f0: 7bb8 7634 46ea 3c3e be8a f93d 08c3 7337
00000200: 4132 cbbd c235 e3b5 f18d fabd 9e28 773e
00000210: 465a 4fb7 fe7d 113e 09b9 d6bd 077a 0638
00000220: 432d 6f37 f8c5 a5bd 45f5 f737 06a7 5b3d
00000230: fa4a a2bd 1a6a 873d 9054 f2bd 5573 593e
00000240: 40da 8dbb 3bd4 48be a3d9 a8b7 8f47 6fbd
00000250: ed46 cabc 58cd d3bd 5206 30be 1b5d 23be
00000260: 9283 6737 0191 31bd 4fca 6db7 6e70 6c3e
00000270: 4815 0f37 353d 313e 1652 863d c501 b737
00000280: 917e 70bc 2bd1 62b2 47d9 713e 4e07 32bd
00000290: 2bc2 93b4 22d6 5cbe db5f 27bc 3109 b737
000002a0: a654 fdb5 71ec 703e c959 d934 c959 963d
000002b0: 2b32 c7bd 106c 323e d0dd c73c ae91 f53d
000002c0: 1524 233e 737a 35be 6a4d 8735 9fe0 2c3e
000002d0: 5344 323e 15ae 053e 3ca6 8dbd 72c3 893e
000002e0: 606e af33 e7f3 16be 6117 22b6 69d3 11bd
000002f0: f7e3 48b4 2cd7 b03d b519 593d 9d6b ebb4
00000300: edf2 ccbd f3ce 4c35 1b08 a0bd 03ec 5f3c
00000310: 09e5 c6b5 6d4e c83d e5d1 f2bd 1d7e eab6
00000320: 29bb 0637 3d14 393e 4db9 22b6 ad37 e2bd
00000330: 7eef 8f3e 6579 58bc e256 3d3e c126 45be
00000340: 0d8b 393e ff10 09be d4ef 9eb6 ca21 62be
00000350: e184 cf3c c3cc c2bc b322 9d3e 552f 193e
00000360: 0652 8835 9847 24be d414 5536 0733 24be
00000370: 03b5 9ab6 0b5d fbbc dac2 45bd 97c2 92b6
00000380: 8827 aabd fb4c 3037 0d9f 523e 32d1 b63d
00000390: f157 d135 d838 66be ce64 a3be 2eb3 0636
000003a0: 1fe3 e1b7 54ff b8bd 8108 3337 5ce0 9d3d
000003b0: 6081 293d 2eb8 9ebd 084e a03d e0d3 0a3e
000003c0: 98e7 563a 7f22 6cbc f95b 9a37 b18e 163e
000003d0: 5ef4 373e 22a6 b6bd 530d 6e3e 4c9b 893d
000003e0: 2c7d 01b7 e5f4 5e3c 6592 ce37 7bca 40bd
000003f0: 1611 6e37 b692 27be 0e6a 37bd 0a7d a237

Q.bias f4 [51]
-9.410805e-09 1.5248487e-06 3.6907159e-07 4.9865093e-06 9.9780555e-06 -2.7171262e-07 1.4467556e-06 1.26890345e-05
2.926217e-08 -6.6891204e-07 -5.3036265e-06 -4.175412e-06 -9.165035e-06 3.3831577e-06 1.9767968e-07 1.4447595e-07
-1.6916685e-07 4.218525e-06 2.5254723e-08 9.7705215e-06 2.30905e-08 -1.802797e-07 -1.42635445e-05 -1.8422415e-06
-0.026860112 0.6050133 0.31771427 0.06724606 0.0054082684 0.0006453126 0.00018020195 0.00017562862
4.382722e-05 1.47385e-05 -1.4993189e-05 2.035137e-06 -8.555932e-06 1.288099e-07 -3.983882e-07 1.7593239e-07
-1.5459918e-07 -7.814605e-07 1.4590823e-06 -2.4816748e-06 3.4843757e-07 8.647593e-07 -2.2180407e-07 1.667967e-07
2.7005662e-08 -7.736118e-06 8.443953e-09
00000000: 28ad 21b2 67a9 cc35 d024 c634 ca51 a736
00000010: 6c67 2737 e6df 91b4 252e c235 fde2 5437
00000020: 315c fb32 498f 33b5 cef5 b1b6 841a 8cb6
00000030: 87c3 19b7 350a 6336 c741 5434 3f21 1b34
00000040: 3ba4 35b4 db8c 8d36 b9ef d832 12ec 2337
00000050: 8c58 c632 e892 41b4 754d 6fb7 f042 f7b5
00000060: bd09 dcbc 27e2 1a3f 72ab a23e 4db8 893d
00000070: d837 b13b 322a 293a 98f4 3c39 f328 3839
00000080: 1fd3 3738 6045 7737 428b 7bb7 6393 0836
00000090: 738b 0fb7 ff4e 0a34 0fe2 d5b4 ede7 3c34
000000a0: e6ff 25b4 8fc5 51b5 b0d5 c335 d98a 26b6
000000b0: e510 bb34 ce21 6835 0a29 6eb4 ba18 3334
000000c0: 14fa e732 60ca 01b7 e610 1132
