checkpoints/mad4pg/mad4pg_per0_checkpoint_actor_target.pth (torch, 166151 bytes, 10 tensors)

fc1.weight f4 [256, 24]
0.19821306 0.10224016 -0.03313702 -0.48829812 0.31558204 -0.645564 -0.07186644 -0.4725506
0.0044006663 0.0665321 0.03224144 -0.35624382 0.30726913 -0.41868183 -0.14126182 -0.31327027
0.2625674 -0.25454444 0.02110948 -0.050512727 0.21247484 0.22755985 -0.05937525 -0.11748763
-0.2447975 -0.34487557 -0.13792214 0.014008261 0.033960547 -1.016203 -0.15129358 -0.18490511
0.15208352 -0.35217565 -0.09274234 -0.016813882 -0.16160518 -0.5843839 0.10984726 -0.15926959
-0.0021719434 -0.32544932 -0.016555905 0.06937013 -0.51805466 -0.29371345 -0.025889155 -0.072464444
0.29097116 -0.08415272 0.0071910024 0.6630698 0.29888985 -0.30729416 -0.10643855 0.76319605
0.08452902 -0.08993159 0.07905793 0.25522706 -0.2307771 -0.12323639 0.08185151 0.19733095
0.104164734 -0.29169872 -0.00690642 0.008197271 -0.6835902 0.13472584 -0.14199936 0.02547842
0.0986937 0.17652744 -0.065574795 -0.58743274 -0.19105434 -0.27440315 -0.07673269 -0.6632912
0.0979352 -0.23145907 -0.051189106 -0.33014253 -0.015482348 -0.19732293 0.054795373 -0.28910053
0.01784567 0.050659325 -0.13662705 -0.11848556 0.07267998 -0.6724302 -0.036522992 0.15586767
0.26111642 0.13310634 0.06621789 -0.005549124 0.09251878 -0.29622397 -0.093017966 0.12332733
0.27229244 0.16647045 0.026026143 -0.08830169 -0.008458845 -0.32814267 -0.061998945 0.029542865
0.29118735 0.104849644 -0.11089214 0.03512063 -0.09691467 -0.19148983 0.088592276 -0.084300674
0.015714107 0.4055217 -0.110145934 0.20328781 -0.1157724 -0.3144598 0.020691788 0.17864786
0.057682257 0.13653503 0.006327013 0.06393555 0.1079459 -0.30025685 0.0076251402 -0.1267316
0.27441356 0.03295773 0.28666565 -0.3776432 0.1373006 -0.56087536 0.190556 -0.31508607
0.47621313 -0.36525947 -0.086903766 -0.053678203 0.08875708 0.14600845 -0.20003383 -0.10037344
0.43141657 -0.2539053 0.06333209 -0.15378736 0.018381326 0.16107275 0.011560488 -0.33667603
0.41545936 -0.12950931 0.11397442 0.2698625 -0.14160605 -0.020644814 0.024419954 0.337469
0.3180694 0.08424108 -0.09690723 0.09652723 -0.013812157 -0.071932554 0.057010714 0.04811088
0.26207012 0.080791414 -0.038045015 0.042906582 0.14841002 0.091237254 0.003998918 -0.11030354
0.26919296 0.040295124 0.041394096 0.009596005 -0.08649118 0.13675717 -0.06129858 0.03607431
0.28415555 0.28690428 -0.13513878 0.24322768 0.22026464 -0.3242449 -0.040959623 0.36678728
0.23267151 0.27892673 0.06457597 0.18344788 0.0092142355 -0.33431807 -0.18029922 0.27594236
0.27278462 0.42643648 0.033529997 0.40620825 -0.5572756 -0.27802247 -0.03708358 0.22797535
0.13969815 0.12829028 -0.089994565 0.48040727 -0.39748934 -0.51243204 0.16435121 0.36147416
-0.017707512 -0.063876554 -0.11123949 0.47645518 -0.43604362 -0.35374516 0.09625292 0.62729335
0.0423057 0.015836718 0.097654134 0.367976 -0.27001444 -0.14973241 -0.07511028 0.5009617
0.11945753 -0.1083486 0.37860733 0.026579373 0.26721695 0.15480319 0.37546146 0.11993468
-0.09892168 -0.16823411 -0.12860377 0.015983682 0.34757912 0.2764038 -0.049591556 -0.047793895
00000000: 5df8 4a3e 4a63 d13d afba 07bd 3602 fabe
00000010: f893 a13e af43 25bf b62e 93bd 27f2 f1be
00000020: 7733 903b fb41 883d 9a0f 043d 9765 b6be
00000030: 6152 9d3e 775d d6be f0a6 10be f664 a0be
00000040: 3c6f 863e a653 82be caed ac3c 6fe6 4ebd
00000050: 0193 593e 7305 693e 7633 73bd 5b9d f0bd
00000060: 32ac 7abe 8893 b0be 763b 0dbe e882 653c
00000070: 371a 0b3d f112 82bf b4ec 1abe c457 3dbe
00000080: c8bb 1b3e 5e50 b4be b2ef bdbd 44bd 89bc
00000090: d47b 25be 2f9a 15bf 9af7 e03d 9117 23be
000000a0: 2a57 0ebb 4ba1 a6be 40a0 87bc ed11 8e3d
000000b0: 3b9f 04bf 9c61 96be 7e15 d4bc 3d68 94bd
000000c0: 2cfa 943e 4358 acbd 80a2 eb3b f1be 293f
000000d0: 1708 993e a955 9dbe 74fc d9bd d160 433f
000000e0: 8d1d ad3d 0e2e b8bd 20e9 a13d 1fad 823e
000000f0: d550 6cbe 5c63 fcbd c4a1 a73d 2011 4a3e
00000100: 5254 d53d 8959 95be 404f e2bb d94d 063c
00000110: c4ff 2ebf 92f5 093e 4868 11be 1fb8 d03c
00000120: ec1f ca3d 9cc3 343e 144c 86bd fe61 16bf
00000130: c0a3 43be 927e 8cbe 0726 9dbd 74cd 29bf
00000140: 4092 c83d 9b03 6dbe abab 51bd 7108 a9be
00000150: ada9 7dbc 060f 4abe 1d71 603d fc04 94be
00000160: 1531 923c 2780 4f3d f6e7 0bbe 8fa8 f2bd
00000170: 3ed9 943d 6324 2cbf 2299 15bd c69b 1f3e
00000180: 0db1 853e 074d 083e 3f9d 873d 6dd5 b5bb
00000190: 7c7a bd3d abaa 97be 3480 bebd 0a93 fc3d
000001a0: ea69 8b3e 3b77 2a3e c734 d53c 84d7 b4bd
000001b0: f896 0abc 5102 a8be 9bf2 7dbd e103 f23c
000001c0: 8216 953e 69bb d63d 6b1b e3bd a6da 0f3d
000001d0: 337b c6bd e915 44be de6f b53d d5a5 acbd
000001e0: dfba 803c 8aa0 cf3e 3194 e1bd ae2a 503e
000001f0: 141a edbd e000 a1be d381 a93c 77ef 363e
00000200: 3b44 6c3d d7cf 0b3e d552 cf3b a4f0 823d
00000210: bd12 dd3d 44bb 99be 50dc f93b eec5 01be
00000220: ef7f 8c3e affe 063d d7c5 923e 735a c1be
00000230: 8798 0c3e 8795 0fbf 1d21 433e f652 a1be
00000240: 35d2 f33e 4a03 bbbe 9afa b1bd addd 5bbd
00000250: 46c6 b53d 3d83 153e abd5 4cbe 9790 cdbd
00000260: a2e2 dc3e e0ff 81be 41b4 813d 6f7a 1dbe
00000270: 6f94 963c 41f0 243e 3368 3d3c cd60 acbe
00000280: 17b7 d43e 179e 04be 6c6b e93d 6b2b 8a3e
00000290: 2d01 11be 501f a9bc 5b0c c83c bdc8 ac3e
000002a0: fed9 a23e 9686 ac3d 4c77 c6bd 12b0 c53d
000002b0: 634c 62bc 6051 93bd 1184 693d ea0f 453d
000002c0: 0e2e 863e f875 a53d 17d5 1bbd d0be 2f3d
000002d0: ccf8 173e 99da ba3d 5b09 833b d3e6 e1bd
000002e0: a9d3 893e 800c 253d db8c 293d 9038 1d3c
000002f0: 4a22 b1bd 120a 0c3e 3814 7bbd a8c2 133d
00000300: d67c 913e 1ee5 923e d261 0abe ad10 793e
00000310: 0e8d 613e 6d03 a6be 47c5 27bd 8bcb bb3e
00000320: 7141 6e3e 7ccf 8e3e 6840 843d c3d9 3b3e
00000330: 4ef7 163c bd2b abbe 5ca0 38be 5148 8d3e
00000340: 6daa 8b3e e255 da3e c056 093d 87fa cf3e
00000350: 9da9 0ebf f658 8ebe f4e4 17bd 5f72 693e
00000360: 080d 0f3e 875e 033e 124f b8bd f1f7 f53e
00000370: b983 cbbe bf2e 03bf af4b 283e 2413 b93e
00000380: 580f 91bc b6d1 82bd 88d1 e3bd eff1 f33e
00000390: 1c41 dfbe 161e b5be 4020 c53d 4c96 203f
000003a0: be48 2d3d 01bc 813c e4fe c73d 5a67 bc3e
000003b0: 553f 8abe 7453 19be 6bd3 99bd 073f 003f
000003c0: 26a6 f43d dfe5 ddbd d2d8 c13e fcbc d93c
000003d0: a9d0 883e ba84 1e3e 7c3c c03e 50a0 f53d
000003e0: 7397 cabd 9045 2cbe b5b0 03be 36f0 823c
000003f0: e4f5 b13e cd84 8d3e 8420 4bbd 88c3 43bd

fc1.bias f4 [256]
-0.2527003 -0.38038975 -0.46700355 0.010113759 -0.35875008 0.16833055 -0.36348936 -0.10847813
-0.14263198 -0.5512857 -0.11570913 0.016427804 -0.47575134 -0.19726115 -0.24571496 0.19735819
-0.58347064 -0.5171293 -0.060836397 -0.04266069 -0.2892458 -0.33319765 -0.28814003 -0.37405095
-0.048855595 0.053425737 -0.3585671 -0.45638376 -0.3152253 -0.026204202 0.00422809 -0.20300572
-0.04960095 -0.08279823 0.049501017 -0.013360193 -0.43403172 -0.27696854 -0.3846719 -0.22974437
-0.039532166 -0.045642886 -0.41616994 -0.35922694 -0.22239664 -0.2133908 -0.37095964 -0.5454013
-0.004647191 -0.05879785 -0.38991943 -0.14096043 -0.0934932 -0.011803784 -0.43102443 -0.3510691
-0.4225432 -0.20891656 -0.4235031 -0.57378453 -0.440035 -0.29163572 -0.33168817 -0.61944354
-0.14671087 -0.44378662 -0.111852996 -0.5264295 -0.20135272 -0.25782862 -0.17407477 -0.23534238
-0.31064293 -0.44824776 -0.20255528 -0.47969672 -0.14898919 -0.20633027 -0.29187354 -0.2999635
-0.5213933 -0.31329083 -0.056543697 -0.0404155 0.1044381 -0.49929804 -0.059616376 -0.2738269
0.1313313 -0.07241747 -0.12409196 -0.11567125 -0.15513666 0.097873114 -0.13099866 -0.36197737
-0.087455235 -0.24465549 -0.40058464 -0.09683788 -0.034945294 -0.37473318 -0.10396772 -0.5210817
-0.24293329 -0.008849383 -0.54258907 -0.051102526 -0.46401656 -0.14828163 0.09553713 -0.29485112
-0.15858988 -0.07756989 -0.44802374 -0.2694448 -0.0303368 -0.62637067 -0.3792769 -0.24000421
-0.32953453 -0.62356204 -0.372467 -0.13225865 -0.12549567 -0.49587053 -0.011001693 -0.5532043
-0.022415463 0.030581338 -0.06612575 -0.3846223 -0.17802057 0.21568142 -0.3626367 0.03182138
-0.34883097 -0.38416058 -0.11361658 -0.24578491 -0.43277305 -0.24873462 -0.37177905 -0.30195105
-0.14522944 -0.28839475 -0.60705644 -0.15517919 -0.32134348 -0.08624568 -0.36348802 -0.19700809
-0.026843743 -0.5315257 -0.25668892 -0.30306366 -0.28486538 -0.10909801 -0.055834472 -0.03916736
0.029357947 -0.26904958 -0.65022296 -0.38801634 -0.13290118 0.17446023 -0.1116909 -0.3012452
-0.22263946 -0.29802978 -0.06224526 -0.27760857 -0.41562805 0.15207356 -0.6785845 -0.2164667
0.022615023 -0.7593289 0.08774505 -0.2244763 -0.3521719 0.07718877 -0.26158616 0.20973887
-0.01729924 -0.16323808 -0.7031508 0.082625486 -0.2815561 0.030240523 -0.19191682 -0.50380415
-0.44098902 -0.026355134 -0.3317046 -0.021097932 -0.17395096 0.18474188 0.12695903 -0.29046914
-0.010974026 0.014157862 -0.44810873 -0.437527 -0.3915012 -0.30360496 -0.36833963 0.037808783
-0.38934952 -0.49501356 -0.30865642 -0.36215213 -0.30748072 -0.30596304 -0.30217108 0.054360192
-0.3900206 -0.16684046 -0.24991122 -0.26773456 -0.16533521 -0.52005446 -0.29273066 -0.45149368
-0.2157198 -0.5551348 -0.24785747 -0.41590047 -0.72405285 -0.42073968 -0.017472107 -0.23098713
-0.027698219 -0.19275704 -0.18069384 0.02451344 -0.010183744 -0.5811726 -0.10680578 -0.46633968
-0.25013298 -0.06825861 -0.11326749 -0.19171534 0.083799206 -0.18431598 -0.13926722 -0.34886026
-0.30561212 -0.3667753 -0.27267838 -0.47437817 -0.3276875 -0.04653558 -0.31316465 -0.17770208
00000000: ef61 81be 72c2 c2be 171b efbe 2eb4 253c
00000010: 17ae b7be d85e 2c3e 471b babe c829 debd
00000020: 1e0e 12be 0f21 0dbf e9f8 ecbd 9a93 863c
00000030: ae95 f3be d4fe 49be b49c 7bbe 4418 4a3e
00000040: 555e 15bf 9662 04bf 962f 79bd fabc 2ebd
00000050: 0718 94be e298 aabe 1787 93be 9b83 bfbe
00000060: ce1c 48bd f2d4 5a3d 1b96 b7be 22ab e9be
00000070: 3665 a1be 32aa d6bc ca8b 8a3b bbe0 4fbe
00000080: 5e2a 4bbd 1e92 a9bd 94c1 4a3d b6e4 5abc
00000090: 6839 debe d2ce 8dbe b7f3 c4be 1c42 6bbe
000000a0: 7bec 21bd 09f4 3abd 3a14 d5be 98ec b7be
000000b0: f2bb 63be 1e83 5abe 6cee bdbe 6b9f 0bbf
000000c0: 7747 98bb 04d6 70bd 85a3 c7be ee57 10be
000000d0: 5d79 bfbd a964 41bc 3caf dcbe 54bf b3be
000000e0: 9557 d8be 39ee 55be 66d5 d8be 8be3 12bf
000000f0: 444c e1be 4751 95be 08d3 a9be da93 1ebf
00000100: 603b 16be 0038 e3be 2f13 e5bd 15c4 06bf
00000110: 682f 4ebe 1d02 84be a840 32be 98fd 70be
00000120: 970c 9fbe bb80 e5be a76a 4fbe cf9a f5be
00000130: 9f90 18be 3e48 53be 7370 95be d194 99be
00000140: 087a 05bf a867 a0be 5d9a 67bd b98a 25bd
00000150: a4e3 d53d fea3 ffbe 4d30 74bd 0a33 8cbe
00000160: b67b 063e 9c4f 94bd ed23 febd 0ce5 ecbd
00000170: 25dc 1ebe b371 c83d 8324 06be 1955 b9be
00000180: bb1b b3bd f886 7abe 6e19 cdbe f052 c6bd
00000190: cc22 0fbd 07dd bfbe 07ed d4bd 9c65 05bf
000001a0: 81c3 78be 01fd 10bc 1ee7 0abf e250 51bd
000001b0: 9493 edbe 24d7 17be f9a8 c33d baf6 96be
000001c0: 6365 22be f6dc 9ebd 5e63 e5be abf4 89be
000001d0: e184 f8bc d459 20bf 9530 c2be aac3 75be
000001e0: c0b8 a8be c3a1 1fbf ffb3 bebe d06e 07be
000001f0: f081 00be bee2 fdbe 7240 34bc cc9e 0dbf
00000200: a2a0 b7bc b785 fa3c f06c 87bd 37ed c4be
00000210: 064b 36be 97db 5c3e 84ab b9be 2357 023d
00000220: f999 b2be b2b0 c4be cfaf e8bd 0aaf 7bbe
00000230: 6e94 ddbe 4ab4 7ebe d359 bebe 5499 9abe
00000240: 07b7 14be 7aa8 93be 0d68 1bbf 4be7 1ebe
00000250: 2287 a4be 93a1 b0bd 1a1b babe 7dbc 49be
00000260: 69e7 dbbc 1112 08bf bb6c 83be 292b 9bbe
00000270: e0d9 91be c76e dfbd b0b2 64bd f46d 20bd
00000280: 1480 f03c dec0 89be 0375 26bf 14aa c6be
00000290: 3f17 08be b4a5 323e 33be e4bd d03c 9abe
000002a0: 99fb 63be 5c97 98be e3f4 7ebd b622 8ebe
000002b0: 33cd d4be 2cb9 1b3e b7b7 2dbf 72a9 5dbe
000002c0: 2443 b93c 6163 42bf adb3 b33d 1ddd 65be
000002d0: e04f b4be 2515 9e3d 9fee 85be c9c5 563e
000002e0: 23b7 8dbc e227 27be b101 34bf 8d37 a93d
000002f0: 1f28 90be f9ba f73c d885 44be 4ff9 00bf
00000300: 50c9 e1be b9e6 d7bc 2fd5 a9be 92d5 acbc
00000310: 3320 32be fa2c 3d3e 8c01 023e 5fb8 94be
00000320: 67cc 33bc 61f6 673c 826e e5be 8a03 e0be
00000330: d872 c8be 1c72 9bbe 0397 bcbe 62dd 1a3d
00000340: d258 c7be 6b72 fdbe 3708 9ebe 016c b9be
00000350: 1d6e 9dbe 30a7 9cbe 2bb6 9abe cba8 5e3d
00000360: c8b0 c7be 3ad8 2abe bae8 7fbe 8114 89be
00000370: a24d 29be 4a22 05bf cbe0 95be 2e2a e7be
00000380: a7e5 5cbe 501d 0ebf 59ce 7dbe e8f0 d4be
00000390: 875b 39bf 316b d7be aa21 8fbc e487 6cbe
000003a0: 60e7 e2bc 1a62 45be ce07 39be 69d0 c83c
000003b0: b8d9 26bc bac7 14bf fdbc dabd 13c4 eebe
000003c0: 6e11 80be 2ccb 8bbd c9f8 e7bd 0751 44be
000003d0: eb9e ab3d 54bd 3cbe 119c 0ebe d09d b2be
000003e0: 3179 9cbe f9c9 bbbe 809c 8bbe b2e1 f2be
000003f0: a8c6 a7be 189c 3ebd 1e57 a0be 89f7 35be

fc2.weight f4 [128, 256]
0.36600164 0.16410111 0.04245339 -0.13942969 -0.24923937 0.025258934 -0.44783592 -0.095258854
-0.15889451 -0.2196148 0.018853555 0.013193617 -0.06804329 -0.5197525 -0.21727148 0.12930244
-0.092525855 -0.39027974 0.040828746 0.062148485 0.36500233 0.29213408 0.1208837 0.079373084
0.023404121 -0.08209078 -0.077387445 -0.03630373 -0.26883584 0.2769976 0.14232706 0.12435985
-0.06804051 0.079880945 -0.040004544 0.056184255 0.15958142 0.25692835 0.35310695 -0.10418696
-0.14814945 0.2860076 0.34308004 -0.2789931 -0.05609788 0.05163678 -0.085632294 -0.424176
-0.17654362 0.3326928 0.2210221 -0.17074604 -0.28450844 -0.3600683 0.22979666 0.36909178
0.27387613 0.24216631 0.1568439 0.19489339 0.18723261 0.14965007 0.20449518 0.06363496
-0.09850543 -0.04260306 -0.40067223 0.09556618 -0.02871479 -0.2247102 0.2165502 -0.34337294
0.3367071 -0.03891016 0.24221109 0.24819617 0.049702857 0.1364229 -0.16775186 -0.08929097
0.3858718 -0.20282276 0.08058876 -0.080185354 -0.0434048 -0.33970043 0.33595458 0.45840356
0.15068093 0.21529484 0.13015679 -0.20100299 0.33604243 0.14266525 0.3919993 -0.25280306
0.010059889 -0.09192547 -0.038278613 0.27851647 0.049134955 0.2511998 0.2870006 0.21392292
-0.6876762 0.10750775 -0.024202077 -0.049733967 0.2919081 0.14392728 -0.31348988 0.08676883
-0.060948193 0.32819816 0.2602674 -0.12842849 0.048255585 0.21071579 -0.020571645 -0.06101833
0.25649184 0.04544363 -0.32258567 -0.38302237 0.18016502 0.28384274 0.06518942 0.13964227
-0.045163248 -0.13024671 0.10265632 0.26004192 0.03756675 0.25880015 0.072607435 0.2905026
-0.11949581 0.012978071 0.07663662 0.32348064 -0.10742512 0.013633616 0.21941993 0.2026373
-0.19529054 0.07312551 0.09401902 0.098616034 -0.29936242 -0.017177358 0.20177025 0.20636182
-0.03554225 -0.159958 -0.6548249 -0.14239584 0.32307065 0.28038317 0.35474035 0.15411916
0.36120555 0.20920861 0.03650934 0.1253136 0.052740395 -0.070213035 0.2863245 -0.0894823
0.07338285 -0.15460318 0.036344472 0.1057538 0.016060788 -0.08144332 0.2544801 -0.06553669
-0.06828963 0.33375403 -0.09706316 -0.49728924 0.053535026 -0.09980409 0.036024258 0.018147133
0.2352196 0.15607919 -0.07990245 0.12412005 0.03857923 0.22331712 0.17511481 0.3586904
-0.03191673 0.40540394 0.31824028 0.17810655 -0.23462299 -0.038587745 0.15759987 0.22182424
0.37356427 -0.11739975 -0.087835774 0.05765597 0.14742851 -0.11469197 -0.09375629 0.26184413
-0.17330109 0.30780733 0.20591074 0.26682502 0.10479948 0.181768 0.40294865 -0.11204802
-0.12930445 -0.22643426 0.68409413 0.10378482 0.43977398 0.18811378 -0.16448875 -0.0644261
-0.015080375 0.3410416 -0.3861586 0.060981896 0.4367157 0.32136956 0.07268214 0.1412005
-0.326753 -0.45997298 -0.016734457 -0.056475144 0.25550854 0.15012018 0.06296078 0.20801967
0.21251109 0.0788342 -0.022156056 0.16613835 0.40909576 0.008209295 0.028694803 0.11625566
0.2816973 0.1844671 0.14525871 0.25042725 0.32061845 0.25829342 0.3770238 0.31915376
00000000: 9164 bb3e 1f0a 283e 9be3 2d3d a8c6 0ebe
00000010: 9b38 7fbe d3eb ce3c c04a e5be 1317 c3bd
00000020: 3eb5 22be b4e2 60be c572 9a3c 0a2a 583c
00000030: 485a 8bbd 800e 05bf 6a7c 5ebe dc67 043e
00000040: 327e bdbd bfd2 c7be 0b3c 273d 698f 7e3d
00000050: 96e1 ba3e 9992 953e e091 f73d 5b8e a23d
00000060: 00ba bf3c 361f a8bd 4f7d 9ebd 38b3 14bd
00000070: daa4 89be a1d2 8d3e 2fbe 113e 61b0 fe3d
00000080: d358 8bbd 9f98 a33d cedb 23bd 7621 663d
00000090: 5069 233e 1d8c 833e 6fca b43e f95f d5bd
000000a0: 7db4 17be 976f 923e 30a8 af3e 2fd8 8ebe
000000b0: e4c6 65bd 1781 533d fc5f afbd 992d d9be
000000c0: dac7 34be b656 aa3e 9e53 623e 0dd8 2ebe
000000d0: 17ab 91be df5a b8be d14f 6b3e 99f9 bc3e
000000e0: 7e39 8c3e 72fa 773e b09b 203e 2292 473e
000000f0: e8b9 3f3e de3d 193e 2f67 513e 0c53 823d
00000100: 37bd c9bd 8c80 2ebd e924 cdbe 34b8 c33d
00000110: 473b ebbc 6e1a 66be 56bf 5d3e 94ce afbe
00000120: df64 ac3e 4360 1fbd 2f06 783e 2327 7e3e
00000130: 3995 4b3d 72b2 0b3e 25c7 2bbe 2fde b6bd
00000140: fd90 c53e c5b0 4fbe b80b a53d 3838 a4bd
00000150: 3bc9 31bd 37ed adbe 3d02 ac3e dfb3 ea3e
00000160: 1a4c 1a3e 4076 5c3e d247 053e bad3 4dbe
00000170: c10d ac3e d716 123e 22b4 c83e 676f 81be
00000180: 3cd2 243c 6c43 bcbd 09ca 1cbd b699 8e3e
00000190: bc41 493d 439d 803e bef1 923e 9c0e 5b3e
000001a0: 8c0b 30bf 062d dc3d 6f43 c6bc d8b5 4bbd
000001b0: fa74 953e ac61 133e bf81 a0be dbb3 b13d
000001c0: d0a4 79bd 9709 a83e c541 853e c282 03be
000001d0: a6a7 453d e1c5 573e de85 a8bc 5bee 79bd
000001e0: e652 833e 1a23 3a3d f329 a5be 821b c4be
000001f0: 2e7d 383e d653 913e 0882 853d 62fe 0e3e
00000200: 19fd 38bd 655f 05be 7a3d d23d 3724 853e
00000210: 98df 193d 7481 843e 35b3 943d c2bc 943e
00000220: 38ba f4bd faa1 543c a9f3 9c3d 419f a53e
00000230: b401 dcbd 885f 5f3c 9eaf 603e 2780 4f3e
00000240: 3efa 47be d4c2 953d 0b8d c03d 34f7 c93d
00000250: 0846 99be 88b7 8cbc dc9c 4e3e 8350 533e
00000260: c094 11bd 08cc 23be 9ba2 27bf 37d0 11be
00000270: 8469 a53e 628e 8f3e 87a0 b53e 6ad1 1d3e
00000280: efef b83e c83a 563e d18a 153d 3552 003e
00000290: 5006 583d dacb 8fbd 2099 923e 7f42 b7bd
000002a0: bf49 963d 4c50 1ebe f1dd 143d 7395 d83d
000002b0: ea91 833c c1cb a6bd 374b 823e 1a38 86bd
000002c0: 6fdb 8bbd cfe1 aa3e 0dc9 c6bd b29c febe
000002d0: 8b47 5b3d 1666 ccbd 2c8e 133d 4ca9 943c
000002e0: 68dd 703e 39d3 1f3e e5a3 a3bd a732 fe3d
000002f0: 4105 1e3d 3ead 643e 4c51 333e 45a6 b73e
00000300: 1ebb 02bd 1b91 cf3e 64f0 a23e 9061 363e
00000310: 0241 70be 2f0e 1ebd dc61 213e e525 633e
00000320: d143 bf3e 486f f0bd 3ee3 b3bd ab28 6c3d
00000330: 80f7 163e a0e3 eabd 4c03 c0bd 6f10 863e
00000340: d775 31be ec98 9d3e 44da 523e 4a9d 883e
00000350: 1ca1 d63d 6421 3a3e 494f ce3e 6f79 e5bd
00000360: 6368 04be 62de 67be cb20 2f3f 238d d43d
00000370: 0e2a e13e e6a0 403e bd6f 28be d5f1 83bd
00000380: ad13 77bc 019d ae3e 94b6 c5be 27c8 793d
00000390: 3399 df3e 8d8a a43e 60da 943d dd96 103e
000003a0: 2b4c a7be 9481 ebbe b316 89bc 7b52 67bd
000003b0: 04d2 823e 1bb9 193e 95f1 803d 1c03 553e
000003c0: 829c 593e d373 a13d 9e80 b5bc 2c20 2a3e
000003d0: 0075 d13e 4780 063c 5d11 eb3c 7317 ee3d
000003e0: a13a 903e f2e4 3c3e b3be 143e 0038 803e
000003f0: 1a28 a43e 093f 843e 4309 c13e 1f68 a33e

fc2.bias f4 [128]
-0.4509341 0.05212107 -0.07746572 -0.08969254 -0.23311603 -0.19234005 -0.1133356 -0.3824634
-0.2839357 0.0664373 -0.12651193 -0.39698786 -0.006611103 -0.3337988 -0.23333444 -0.2159934
-0.14309722 -0.075217515 -0.34088528 -0.21774615 -0.218225 -0.18424183 -0.10296138 -0.1073508
-0.072668925 -0.3606088 -0.17327648 -0.07322384 -0.0388475 -0.16482852 -0.29525068 -0.12449206
-0.018249277 -0.19658525 -0.072052754 -0.36326557 -0.20028952 -0.13441081 -0.15546903 -0.1558437
-0.035197083 -0.22434495 0.061781503 0.00134366 -0.3333655 -0.00808645 -0.15285788 -0.25063345
-0.29942167 -0.087096065 -0.058232658 -0.286985 -0.26535973 0.0827613 -0.079932 0.006897937
-0.08701354 0.05455197 -0.05008181 -0.19278966 -0.3958727 -0.12205751 0.07969766 -0.23975803
-0.14648992 -0.109272055 -0.04055909 -0.44661984 -0.0053680306 -0.11007266 -0.022086598 -0.25184324
-0.1580404 -0.2027146 -0.07916601 -0.21044809 -0.15860364 -0.011126175 -0.005007433 -0.21005717
-0.2322324 -0.03431523 -0.14570792 -0.04632954 -0.15739174 -0.10686136 -0.38373163 -0.31443313
-0.19547366 0.00033831192 -0.09809268 0.122986406 -0.09026597 0.04004007 -0.17947873 -0.16629587
-0.26856264 -0.24146907 -0.07046838 -0.26031026 -0.112330996 -0.07912628 -0.21455032 -0.18625882
-0.222517 -0.23198527 -0.18964157 -0.025236238 -0.16836612 -0.3378159 -0.065501496 -0.21799015
-0.15132888 -0.29147235 0.108116604 -0.22902744 -0.1391057 -0.19502583 0.0066637974 -0.13276882
-0.1389228 -0.13464156 -0.16517675 -0.13513765 -0.14478503 -0.13451265 -0.25894928 -0.13884522
00000000: d6e0 e6be e77c 553d 59a6 9ebd b9b0 b7bd
00000010: f8b5 6ebe caf4 44be 7f1c e8bd 3ed2 c3be
00000020: 0560 91be 4710 883d 588c 01be fe41 cbbe
00000030: f4a1 d8bb ade7 aabe 39ef 6ebe 602d 5dbe
00000040: 1488 12be a40b 9abd 8488 aebe d9f8 5ebe
00000050: 6076 5fbe e4a9 3cbe 6add d2bd bcda dbbd
00000060: 72d3 94bd b7a1 b8be 646f 31be 61f6 95bd
00000070: 8e1e 1fbd cfc8 28be 192b 97be b1f5 febd
00000080: 827f 95bc a54d 49be 6590 93bd f2fd b9be
00000090: b218 4dbe fda2 09be 4633 1fbe 7e95 1fbe
000000a0: d12a 10bd afba 65be 9a0e 7d3d c01d b03a
000000b0: e2ae aabe 087d 04bc c786 1cbe 0753 80be
000000c0: cc4d 99be 6c5f b2bd 5e85 6ebd b3ef 92be
000000d0: 3bdd 87be c27e a93d 63b3 a3bd 1708 e23b
000000e0: 2834 b2bd e371 5f3d 9622 4dbd a76a 45be
000000f0: d4af cabe 4af9 f9bd 8738 a33d 2183 75be
00000100: 7401 16be 07ca dfbd 4a21 26bd 5bab e4be
00000110: 4ee6 afbb c66d e1bd f4ee b4bc 99f1 80be
00000120: 58d5 21be 6b94 4fbe ca21 a2bd b47f 57be
00000130: fe68 22be 8f4a 36bc 6415 a4bb 3a19 57be
00000140: 55ce 6dbe 208e 0cbd 7534 15be 0bc4 3dbd
00000150: 4d2b 21be 21da dabd 7978 c4be 61fd a0be
00000160: 3f2a 48be 755f b139 d1e4 c8bd 4ce0 fb3d
00000170: 5ddd b8bd 0e01 243d 46c9 37be 7749 2abe
00000180: 0b81 89be ab43 77be ba51 90bd 6347 85be
00000190: cb0d e6bd f60c a2bd 14b3 5bbe a2ba 3ebe
000001a0: 7fdb 63be 8c8d 6dbe 6631 42be 3abc cebc
000001b0: 2b68 2cbe 35f6 acbe a625 86bd cf38 5fbe
000001c0: f5f5 1abe dd3b 95be 3d6c dd3d 2b86 6abe
000001d0: ba71 0ebe dab4 47be fc5b da3b 8df4 07be
000001e0: c741 0ebe 7adf 09be 1824 29be 8661 0abe
000001f0: 8742 14be afbd 09be 0095 84be 712d 0ebe

fc3.weight f4 [2, 128]
0.81054384 0.2885286 0.4791893 -0.1672931 -0.08134333 0.46138752 0.27102435 0.3780477
0.15046577 0.4981682 -0.345507 0.20795932 0.5657282 -0.044627775 -0.2768945 -0.02659532
0.5287008 -0.1333326 -0.60868806 -0.4021969 0.008618465 -0.24840304 -0.24584702 -0.15312341
-0.5488132 -0.10189046 -0.35202488 0.3774002 -0.24992797 -0.16656898 -0.13985807 -0.23499744
0.5699144 0.01313683 -0.37314174 0.27673167 0.34724113 0.117735215 -0.47024012 -0.029133145
-0.11546762 -0.4157917 -0.08050387 -0.18152842 -0.087451376 -0.08418968 -0.018380823 -0.4880657
0.4024494 -0.005441914 0.26680613 0.2404136 0.39407077 0.34500632 -0.28934178 0.9718191
0.35711703 0.5307547 -0.18087782 -0.17481995 0.43084127 0.037704643 0.47830704 -0.30108735
0.21597113 -0.36405486 -0.22150302 -0.011346199 -0.2610115 -0.43237218 0.027663607 -0.39108533
-0.307509 0.34512123 0.58646816 0.12435906 0.4954789 -0.2535712 0.1945316 0.42282724
0.38305172 -0.41128436 0.09853634 -0.35736364 0.24041142 0.5360803 0.66904837 -0.13057914
-0.7842106 0.37274712 0.08345918 0.26219246 -0.5024146 -0.39907554 0.24071485 -0.14166957
0.13207836 0.31382385 0.7093713 0.17096043 0.7046416 -0.088336065 0.6071814 0.24436608
0.18755579 -0.25038955 -0.26924372 -0.23131187 -0.3153303 -0.1216904 -0.5615986 -0.06025372
-0.14192685 -0.08277569 -0.41354215 0.6013312 0.3905787 0.027898487 0.32005143 0.3561833
0.3582337 0.12465822 0.1058676 0.072645344 0.057388972 -0.26287264 -0.17922957 -0.22122021
-0.48367476 0.12192094 0.157885 0.029681364 0.17991067 0.21643737 -0.7165039 -0.14392076
-0.34667835 0.13574652 0.30240944 -0.51098305 0.3052764 -0.6604095 0.041597642 0.342219
0.21287881 0.3161715 0.23886706 -0.686224 0.522593 0.08418251 0.2467149 -0.5006684
-0.026165461 0.4927607 0.17997524 -0.2201997 -0.13938309 -0.20878294 -0.174245 0.36099043
-0.10338874 -0.38890463 0.3164636 -0.60444504 0.29707628 0.3740589 0.46051142 0.30226302
0.18240765 -0.7342209 0.49658605 0.31916538 -0.43724865 0.18612058 0.22811367 -0.5643762
-0.013782597 0.6287306 -0.6470729 -0.48389125 -0.40535653 0.43752927 0.06502711 0.020413462
0.09703905 -0.29616877 0.041756447 -0.6619666 -0.39020562 0.4846741 0.3240077 -0.3027573
0.22171237 0.00394702 0.5611473 0.5596165 -0.13341105 -0.25907058 -0.16660832 -0.22353026
0.2545645 0.3483752 0.3162301 0.45297676 -0.50749 -0.33222294 0.5458175 0.274938
0.3349212 0.55229706 -0.38235763 0.06391264 0.78244483 -0.5362213 0.28571105 -0.44647756
0.13779648 0.13197103 0.40724993 0.14166899 0.15629822 -0.1580414 -0.5132244 -0.42555058
-0.5387903 0.059019 0.76311266 -0.38274875 -0.14626567 -0.78723574 0.18938655 0.31390247
-1.2138422 -0.23690143 -0.14674106 0.3030921 0.5796992 -0.60103315 0.24917418 -0.61980385
-0.5717277 -0.6771989 0.33391395 -0.624225 -0.17626901 -0.67890376 -0.4982042 -0.26748
0.5555383 0.3336874 0.5599508 -0.5602464 -0.24640058 0.37758946 -0.5683121 0.36326966
00000000: cd7f 4f3f 05ba 933e 4d58 f53e e24e 2bbe
00000010: 5597 a6bd fc3a ec3e b4c3 8a3e 788f c13e
00000020: b313 1a3e e70f ff3e 4be6 b0be 4af3 543e
00000030: 90d3 103f 9dcb 36bd 1ec5 8dbe 6ede d9bc
00000040: f058 073f 5788 08be fbd2 1bbf c1ec cdbe
00000050: 7634 0d3c 5e5d 7ebe 52bf 7bbe 62cc 1cbe
00000060: 067f 0cbf f2ab d0bd 9b3c b4be 993a c13e
00000070: 1eed 7fbe 0f91 2abe f436 0fbe 2ba3 70be
00000080: e9e5 113f dc3b 573c 6f0c bfbe c6af 8d3e
00000090: 97c9 b13e 291f f13d 50c3 f0be a2a8 eebc
000000a0: 4a7a ecbd a6e2 d4be 37df a4bd 96e2 39be
000000b0: b519 b3bd a46b acbd 6193 96bc bfe3 f9be
000000c0: d90d ce3e 1552 b2bb d09a 883e fc2e 763e
000000d0: a5c3 c93e aba4 b03e 9b24 94be 23c9 783f
000000e0: 0bd8 b63e 8adf 073f 0938 39be 0004 33be
000000f0: 3a97 dc3e 2f70 1a3d a9e4 f43e 1f28 9abe
00000100: 8927 5d3e 6665 babe b0d1 62be 68e5 39bc
00000110: 4da3 85be e35f ddbe ca9e e23c 563c c8be
00000120: d271 9dbe bbb3 b03e c722 163f f6af fe3d
00000130: 69af fd3e 16d4 81be 4b33 473e d07c d83e
00000140: 5b1f c43e dd93 d2be 6ccd c93d 5ef8 b6be
00000150: 692e 763e 8f3c 093f c146 2b3f 8ab6 05be
00000160: 07c2 48bf b6d8 be3e a6ec aa3d 173e 863e
00000170: 3e9e 00bf a153 ccbe f47d 763e d411 11be
00000180: 8d3f 073e 85ad a03e 5c99 353f 4010 2f3e
00000190: 6463 343f 8ae9 b4bd 3d70 1b3f 1a3b 7a3e
000001a0: a00e 403e 0f33 80be 50da 89be 05dd 6cbe
000001b0: f972 a1be d138 f9bd edc4 0fbf 9bcc 76bd
000001c0: 4655 11be 4d86 a9bd ccbb d3be d7f0 193f
000001d0: eef9 c73e 5e8b e43c c8dd a33e a85d b63e
000001e0: 686a b73e cf4c ff3d 1dd1 d83d 15c7 943d
000001f0: b310 6b3d 3e97 86be f587 37be 8d87 62be
00000200: 38a4 f7be b0b1 f93d 9bac 213e 5526 f33c
00000210: 813a 383e c2a1 5d3e cd6c 37bf f75f 13be
00000220: d37f b1be 2301 0b3e 69d5 9a3e c9cf 02bf
00000230: 304d 9c3e 9910 29bf 4a62 2a3d 5437 af3e
00000240: e7fc 593e 3be1 a13e 9199 743e 60ac 2fbf
00000250: a8c8 053f e167 ac3d d5a2 7c3e ce2b 00bf
00000260: f358 d6bc 214b fc3e 6e4b 383e 087c 61be
00000270: 71ba 0ebe 32cb 55be 486d 32be bdd3 b83e
00000280: 7abd d3bd 821e c7be 8407 a23e e9bc 1abf
00000290: 621a 983e a684 bf3e 27c8 eb3e 38c2 9a3e
000002a0: 12c9 3a3e e7f5 3bbf 8740 fe3e a569 a33e
000002b0: 0edf dfbe 6596 3e3e a196 693e f57a 10bf
000002c0: 67d0 61bc 7df4 203f 92a6 25bf 98c0 f7be
000002d0: e48a cfbe d603 e03e ef2c 853d 223a a73c
000002e0: 69bc c63d 6fa3 97be cf08 2b3d a576 29bf
000002f0: 08c9 c7be 3427 f83e 56e4 a53e 0103 9bbe
00000300: 9108 633e 0156 813b 59a7 0f3f 0743 0f3f
00000310: e89c 08be e6a4 84be 5f9b 2abe 1ee5 64be
00000320: 4756 823e 3c5e b23e e9e8 a13e 92ec e73e
00000330: ddea 01bf 2019 aabe b2ba 0b3f acc4 8c3e
00000340: cb7a ab3e 5763 0d3f 61c4 c3be a1e4 823d
00000350: 4e4e 483f cd45 09bf b848 923e b598 e4be
00000360: 851a 0d3e 6a23 073e 1083 d03e ad11 113e
00000370: a40c 203e 9bd5 21be ad62 03bf c4e1 d9be
00000380: 29ee 09bf e8bd 713d 5a5b 433f a5f7 c3be
00000390: abc6 15be 4888 49bf 8cee 413e d3b7 a03e
000003a0: 2e5f 9bbf 4a96 72be 4a43 16be e32e 9b3e
000003b0: 2b67 143f 4fdd 19bf 8427 7f3e 77ab 1ebf
000003c0: bf5c 12bf e85c 2dbf c5f6 aa3e 36cd 1fbf
000003d0: dd7f 34be a3cc 2dbf 9f14 ffbe 23f3 88be
000003e0: c237 0e3f 13d9 aa3e f058 0f3f 4f6c 0fbf
000003f0: 6f50 7cbe 6853 c13e e77c 11bf 7bfe b93e

fc3.bias f4 [2]
-0.16555695 0.19382387
00000000: c387 29be c479 463e

bn1.weight f4 [256]
1.2475076 1.2412912 1.4105757 0.8325694 1.0566251 0.80549794 0.90746516 1.250462
0.79647964 1.3025197 0.62062854 1.36145 1.0585303 1.3276083 1.0183644 0.82862985
1.2730196 1.2412634 1.1847417 0.88992333 1.3529407 1.1984644 1.0340793 0.95395666
0.94616574 0.6467671 1.1294055 1.1824342 0.8457743 1.5526063 1.1813784 1.5438856
1.341933 1.3029882 0.6119051 1.3060153 1.133993 1.3270365 2.016094 1.3203913
1.3397343 0.11247103 1.5243992 1.3888657 0.77988136 1.2001773 0.9518241 1.2326851
1.0139762 1.311439 1.3622966 0.8985611 0.99284756 0.6389991 1.1651955 1.2226101
1.4153311 1.0739923 0.7301538 1.2471211 0.7590907 0.8380157 1.3606781 1.0311484
1.3372867 1.1390653 0.7807633 1.1449181 1.1140957 0.45868805 1.0056792 0.98405206
1.1149918 1.2060918 1.2360319 1.2729025 0.75711375 0.2772983 0.79884934 1.452654
1.3009138 0.98157555 1.196381 1.271248 1.1027987 0.9250588 1.5146611 1.4492073
0.4328034 1.2530334 1.1015095 1.5178438 1.5174661 0.6418612 1.4159303 1.0538731
0.86430264 1.0403184 1.1712329 1.1453333 0.5160097 1.1313013 1.2132939 1.1362798
1.2140884 1.2902244 1.3006142 0.5230527 1.4366072 1.2591892 0.972426 1.4797581
0.8431509 1.205976 1.0205756 0.7996482 0.71662 1.3845763 1.3727319 0.9909333
1.2839321 1.4094892 1.2558105 1.3168181 0.46713984 1.1989824 0.7997615 0.9737018
0.6343113 0.4965189 1.3025643 1.1547697 1.2126118 0.7635439 0.8493427 1.2355976
1.12821 1.0331409 1.263354 1.3462664 1.1128039 1.0497361 1.3562301 1.1752304
0.9378591 0.9228513 1.3713912 0.9897498 0.6592469 0.48921746 1.168149 1.0322062
0.691114 1.071999 1.1753078 1.1542015 1.0654143 0.87770027 1.0866268 0.6624794
1.1907213 0.7993352 1.4956471 1.0506645 1.3293955 0.20337051 0.79918426 0.9429716
1.3127815 1.1794674 0.89209193 1.1950468 1.3409635 0.89834553 1.8971264 0.84147865
1.2169154 1.9833176 0.896347 1.2538877 0.8717082 0.4058962 0.64440024 0.542554
1.0189176 1.3069007 1.0123632 0.76449835 0.95997053 1.2544643 0.6513132 1.6192689
0.74070984 1.1628021 0.80694884 0.90853196 0.9951421 1.0997092 0.87969303 1.1526116
0.723146 1.2353952 1.1688064 1.3758839 0.9882076 0.6616366 1.2263986 1.2136945
1.3113787 1.2703345 1.1993663 1.3614967 0.6380523 1.0655956 1.2466561 1.2022898
1.1927153 1.1895918 1.3268704 0.7371173 1.2960712 1.1581742 1.0354033 1.738329
1.2099544 1.3793437 1.2570701 1.3384541 1.4209964 1.3003426 0.77525795 1.2528553
1.2419194 1.1510351 0.3497785 0.8610587 0.92775095 0.97710794 1.0998923 1.5283864
1.4294145 1.4938927 1.3514154 0.69016016 0.5050543 0.95222664 0.8411096 1.1330004
1.288128 1.0313063 1.0414288 1.346219 1.295058 1.1959063 1.6427261 0.9730864
00000000: 54ae 9f3f a1e2 9e3f bf8d b43f 4523 553f
00000010: 7e3f 873f 1d35 4e3f a34f 683f 240f a03f
00000020: 17e6 4b3f f7b8 a63f 83e1 1e3f fe43 ae3f
00000030: ec7d 873f 12ef a93f c459 823f 1621 543f
00000040: 4ef2 a23f b8e1 9e3f 9ea5 973f 04d2 633f
00000050: 292d ad3f 4867 993f b65c 843f 8136 743f
00000060: eb37 723f 8792 253f 5c90 903f 015a 973f
00000070: aa84 583f cebb c63f 6837 973f 0b9e c53f
00000080: 76c4 ab3f 51c8 a63f d0a5 1c3f 822b a73f
00000090: af26 913f 55dc a93f af07 0140 9502 a93f
000000a0: 6a7c ab3f 3657 e63d 831f c33f 5ac6 b13f
000000b0: 4ea6 473f 699f 993f bfaa 733f a0c8 9d3f
000000c0: f9c9 813f 3cdd a73f bc5f ae3f 1a08 663f
000000d0: 422b 7e3f 7295 233f 2025 953f 7d7e 9c3f
000000e0: 9229 b53f 9478 893f 5ceb 3a3f aaa1 9f3f
000000f0: c553 423f 3288 563f b32a ae3f acfc 833f
00000100: 362c ab3f e4cc 913f 1be0 473f ad8c 923f
00000110: b09a 8e3f 29d9 ea3e 19ba 803f d6ea 7b3f
00000120: 0db8 8e3f 3761 9a3f 4b36 9e3f 78ee a23f
00000130: 35d2 413f 0bfa 8d3e 6481 4c3f 91f0 b93f
00000140: 5884 a63f 8948 7b3f 0323 993f 41b8 a23f
00000150: 8228 8d3f a7d0 6c3f 6ae0 c13f a07f b93f
00000160: 6898 dd3e 6663 a03f 43fe 8c3f b548 c23f
00000170: 543c c23f 0451 243f 343d b53f 50e5 863f
00000180: f042 5d3f 2729 853f f6ea 953f 489a 923f
00000190: 3619 043f 7bce 903f 374d 9b3f 9e71 913f
000001a0: 4067 9b3f 1326 a53f 877a a63f c8e6 053f
000001b0: bfe2 b73f 1d2d a13f e9f0 783f b768 bd3f
000001c0: bdd8 573f 6c5d 9a3f 39a2 823f bfb5 4c3f
000001d0: 6974 373f cc39 b13f aeb5 af3f cead 7d3f
000001e0: e357 a43f 246a b43f 66be a03f 7f8d a83f
000001f0: f42c ef3e 4178 993f 2bbd 4c3f 8544 793f
00000200: 3a62 223f ba37 fe3e 6dba a63f 7ecf 933f
00000210: dd36 9b3f 9d77 433f 866e 593f 1028 9e3f
00000220: 2f69 903f f63d 843f 95b5 a13f 7552 ac3f
00000230: 5c70 8e3f c15d 863f f398 ad3f f36d 963f
00000240: 8917 703f fc3f 6c3f bf89 af3f 3e60 7d3f
00000250: 68c4 283f b67a fa3e e885 953f 551f 843f
00000260: d9ec 303f 4337 893f 7c70 963f e0bc 933f
00000270: 7f5f 883f f7b0 603f 9616 8b3f 4098 293f
00000280: 8e69 983f 3ba1 4c3f 5d71 bf3f 2d7c 863f
00000290: a229 aa3f 5c40 503e 5797 4c3f 9666 713f
000002a0: 3909 a83f caf8 963f 2360 643f 4bf7 983f
000002b0: b1a4 ab3f f9f9 653f 0ad5 f23f 256b 573f
000002c0: e2c3 9b3f 5add fd3f ff76 653f 647f a03f
000002d0: 4528 5f3f a0d1 cf3e 6af7 243f d2e4 0a3f
000002e0: e46b 823f 8648 a73f 1e95 813f 2ab6 433f
000002f0: a1c0 753f 4992 a03f 76bc 263f 3444 cf3f
00000300: 299f 3d3f b3d6 943f 3394 4e3f 8d95 683f
00000310: a2c1 7e3f 45c3 8c3f 9033 613f c788 933f
00000320: 1920 393f 6e21 9e3f 739b 953f f71c b03f
00000330: 2cfb 7c3f 0461 293f a1fa 9c3f 575a 9b3f
00000340: 42db a73f 529a a23f d684 993f 8645 ae3f
00000350: 6557 233f 7065 883f 6d92 9f3f a2e4 993f
00000360: e5aa 983f 8b44 983f e4d6 a93f b8b3 3c3f
00000370: a9e5 a53f 0d3f 943f 1888 843f 9181 de3f
00000380: c9df 9a3f 568e b03f ace7 a03f 7752 ab3f
00000390: 36e3 b53f a071 a63f 4e77 463f 905d a03f
000003a0: 37f7 9e3f 1e55 933f 2b16 b33e 586e 5c3f
000003b0: 1681 6d3f bf23 7a3f 45c9 8c3f 2aa2 c33f
000003c0: 0ef7 b63f e037 bf3f 2efb ac3f 56ae 303f
000003d0: 3d4b 013f 20c5 733f f552 573f 2806 913f
000003e0: 61e1 a43f d801 843f 8a4d 853f e750 ac3f
000003f0: 76c4 a53f 7513 993f d944 d23f 311c 793f

bn1.bias f4 [256]
0.09083562 0.0784705 -0.16368993 0.122431435 0.1895504 0.3440716 0.4945473 0.063294105
0.106718056 -0.041621786 0.15508139 0.24719839 0.14497855 0.2500013 0.26190585 0.033341806
-0.009694269 0.1841096 0.11951366 -0.20514148 0.07626114 -0.08669715 0.3337469 0.114601284
0.072756246 0.21292278 0.15572613 0.03229755 0.19656636 0.02400867 0.1814066 0.13032088
0.053831417 -0.0012450862 -0.04592073 0.07494238 -0.02859114 -0.019513225 0.15448838 0.14527114
0.3273741 -0.018907137 0.046527933 0.10708865 0.14946024 0.25015357 0.14409941 0.33730006
0.008729976 0.020712636 0.31565225 0.21878542 0.20361117 0.05242206 0.077814005 0.22738522
-0.027045792 0.14656892 0.3319637 0.016334556 -0.13509971 -0.031789593 0.046368208 0.011071833
0.104501665 0.17912649 -0.07505773 0.08181146 0.03518188 0.13690011 -0.31255424 -0.08043829
0.074403025 0.047055494 0.18818644 -0.091167286 0.12131643 0.064014636 -0.18410113 0.2967892
0.06761545 0.11140938 -0.13733861 0.01620626 0.13233604 0.1195694 0.21450138 0.10377561
0.20538208 0.07066134 0.16110075 0.27649325 0.23520008 0.08089218 -0.02162362 0.26625496
0.26082256 -0.2768684 0.23424028 0.23731068 -0.04326249 0.03167437 0.20066835 0.026937416
0.2976182 0.08131247 0.04756551 0.21984316 -0.21597214 0.12217041 0.15204479 0.29676437
0.06437137 -0.059558086 -0.065560676 0.08777861 0.281297 0.08979987 0.3216729 0.03833936
0.27166712 0.016192898 -0.084836885 -0.05558943 0.23509559 0.035639327 -0.08297306 0.14263935
-0.21250404 -0.038968123 0.094906665 -0.16537668 -0.13406673 0.18166631 0.03320589 0.21288094
-0.15035935 0.19046845 0.32866174 0.12601773 0.07105171 0.3377101 0.06483645 -0.082689926
-0.019544069 0.073166534 0.24973527 -0.048578493 0.12770312 -0.16588378 -0.19542557 0.113366164
0.07682584 0.17165908 0.21802233 0.20769648 0.11039083 0.014415114 0.07220053 0.33185664
-0.18623476 -0.1535754 0.07393211 -0.0028179344 0.026598217 0.049824927 0.12335036 0.25272912
-0.11218109 0.15403156 0.17413 -0.31320125 -0.028492851 0.36835745 0.24599557 -0.01267785
0.07968649 0.083929025 0.090732425 0.06674938 -0.065726034 0.08345489 0.19551307 0.056553446
-0.07196387 0.3061507 0.14082384 0.3795186 0.13412248 -0.05088364 0.047181506 0.15805788
-0.105890386 0.089707755 -0.24045868 0.3533823 0.15215689 -0.056370493 -0.111905456 0.07190249
0.07742994 0.07118434 0.1945789 0.016929656 -0.01683269 0.14179933 0.16897798 -0.13122179
0.005188455 -0.015672324 0.15626283 0.1619583 0.17553492 0.26186892 0.02593726 0.045631558
0.16848044 0.18122202 -0.0020912625 0.20829685 0.008744458 -0.2759446 0.114902645 -0.04868189
0.17695129 0.17103282 0.12860946 0.27592528 -0.06498883 -0.14930364 0.2720724 -0.22749503
0.46050718 0.1866136 0.20162165 0.12028729 0.18245994 -0.1296407 0.11641763 0.101924576
-0.33271968 0.17659657 0.29331207 0.12225143 0.007044854 0.23822252 0.24025273 0.14311895
0.14388989 0.030504353 0.12013015 0.13020268 0.08859274 0.26686394 -0.044277903 0.14031973
00000000: 0708 ba3d 24b5 a03d 559e 27be 55bd fa3d
00000010: 8019 423e 272a b03e 4e35 fd3e 57a0 813d
00000020: ff8e da3d 9b7b 2abd a8cd 1e3e 9321 7d3e
00000030: 4275 143e 2c00 803e 8618 863e 6b91 083d
00000040: b6d4 1ebc 3a87 3c3e 94c3 f43d 9c10 52be
00000050: cd2e 9c3d 468e b1bd e0e0 aa3e 14b4 ea3d
00000060: 3a01 953d 6e08 5a3e ac76 1f3e 704a 043d
00000070: b148 493e d5ad c43c a7c2 393e d672 053e
00000080: 557e 5c3d 2932 a3ba 6017 3cbd 647b 993d
00000090: f737 eabc 33da 9fbc 3432 1e3e f5c1 143e
000000a0: 949d a73e 24e3 9abc 1394 3e3d 4b51 db3d
000000b0: 1b0c 193e 2114 803e cc8e 133e 98b2 ac3e
000000c0: 2c08 0f3c 8cad a93c 2c9d a13e 4909 603e
000000d0: 727f 503e 84b8 563d f35c 9f3d acd7 683e
000000e0: 238f ddbc 2a16 163e 25f7 a93e 0cd0 853c
000000f0: 9457 0abe ce35 02bd 97ec 3d3d a266 353c
00000100: f804 d63d ef6c 373e deb7 99bd c48c a73d
00000110: e01a 103d 8b2f 0c3e 1c07 a0be d5bc a4bd
00000120: 9d60 983d 43bd 403d f2b3 403e eab5 babd
00000130: c074 f83d 1b1a 833d 0285 3cbe c1f4 973e
00000140: f879 8a3d 9a2a e43d 7ea2 0cbe fec2 843c
00000150: 1983 073e cde0 f43d 40a6 5b3e 4f88 d43d
00000160: ae4f 523e e5b6 903d 98f7 243e 8690 8d3e
00000170: 4ad8 703e cdaa a53d 0524 b1bc 9252 883e
00000180: 898a 853e b2c1 8dbe afdc 6f3e 9201 733e
00000190: 0234 31bd fcbc 013d 017c 4d3e dbab dc3c
000001a0: 6a61 983e 2787 a63d 0dd4 423d 911e 613e
000001b0: cd27 5dbe 7b34 fa3d a1b1 1b3e 80f1 973e
000001c0: 23d5 833d 2ef3 73bd ad44 86bd 46c5 b33d
000001d0: 2906 903e ffe8 b73d 4fb2 a43e bc09 1d3d
000001e0: f417 8b3e f8a6 843c f6be adbd beb1 63bd
000001f0: e6bc 703e 8bfa 113d c8ed a9bd 0d10 123e
00000200: a99a 59be 0a9d 1fbd 6d5e c23d 8158 29be
00000210: ca48 09be bc06 3a3e e602 083d 76fd 593e
00000220: cdf7 19be 290a 433e 5a46 a83e cb0a 013e
00000230: 8f83 913d 57e8 ac3e f9c8 843d 5659 a9bd
00000240: e21a a0bc 56d8 953d 9aba 7f3e 3efa 46bd
00000250: 9bc4 023e 70dd 29be a41d 48be 852c e83d
00000260: de56 9d3d 66c7 2f3e 3f41 5f3e 63ae 543e
00000270: 9614 e23d 5f2d 6c3c dfdd 933d 1de9 a93e
00000280: 53b4 3ebe df42 1dbe b869 973d 18ad 38bb
00000290: 81e4 d93c 3915 4c3d 1d9f fc3d b665 813e
000002a0: 33bf e5bd 73ba 1d3e 224f 323e ea5b a0be
000002b0: d769 e9bc 5999 bc3e 43e6 7b3e c2b6 4fbc
000002c0: ac32 a33d fbe2 ab3d ecd1 b93d e6b3 883d
000002d0: 5f9b 86bd 66ea aa3d 9434 483e 96a4 673d
000002e0: cb61 93bd c9bf 9c3e 2034 103e 4350 c23e
000002f0: 6757 093e 5d6b 50bd 6541 413d edd9 213e
00000300: 0fdd d8bd b3b8 b73d cd3a 76be 86ee b43e
00000310: 04cf 1b3e bfe4 66bd b02e e5bd 9d41 933d
00000320: 9793 9e3d 18c9 913d b13f 473e 10b0 8a3c
00000330: b6e4 89bc d833 113e 9008 2d3e 015f 06be
00000340: ea03 aa3b 3f63 80bc 5d03 203e 66d8 253e
00000350: 6dbf 333e af13 863e 607a d43c 28e8 3a3d
00000360: 2386 2c3e 4492 393e 900d 09bb c54b 553e
00000370: ea44 0f3c 9c48 8dbe 1452 eb3d a966 47bd
00000380: b832 353e 3a23 2f3e 33b2 033e 1446 8d3e
00000390: dd18 85bd 0ee3 18be 134d 8b3e 75f4 68be
000003a0: 99c7 eb3e a317 3f3e e875 4e3e 2f59 f63d
000003b0: c7d6 3a3e 88c0 04be 5e6c ee3d d5bd d03d
000003c0: 3c5a aabe bbd5 343e 002d 963e f55e fa3d
000003d0: 85d8 e63b 9bf0 733e d004 763e c68d 123e
000003e0: df57 133e 44e4 f93c cc06 f63d da53 053e
000003f0: 1c70 b53d 64a2 883e bf5c 35bd faaf 0f3e

bn1.running_mean f4 [256]
0.75305814 0.8444637 1.4779238 0.8568785 6e-45 5.258332 0.40983188 6e-45
0.4130676 2.2490063 15.089693 1.9240443 0.07173035 0.8669119 0.027206847 6.5819507
0.402034 0.47887254 0.13750656 0.03515971 3.9524474 0.22980113 5.919667 0.03146901
0.41503897 14.469174 0.17038164 1.742713e-06 0.93767744 7.166134 3.3376875 0.14900012
0.37529632 4.367412 5.5545764 1.7929338 6e-45 0.0050119455 5.722128 0.6281975
2.0296643 9.268957 1.332207 6e-45 0.7557376 4.788411 0.09557701 0.33647937
1.8374004 1.3003781 0.5234194 0.48504445 0.940602 2.2273796 0.09974394 0.79641676
0.4927801 4.576647 0.63437825 2.1122963 2.0714238 4.723247 3.9061484 0.0067015565
0.47115517 0.03211993 5.0610576 0.06841348 0.19334525 6.1967335 3.7890818 1.5784926
2.8363028 1.1830058 7.1412573 0.34528884 1.4086305 13.825348 0.33217895 1.4292063
0.9660987 0.6845333 1.6763375 0.16225065 2.6556234 0.86500305 0.3452193 4.069775
16.014473 2.7206154 1.887178 0.30484757 7.0522494 8.167026 3.493947 0.039807957
2.0711217 0.55964726 2.5003862 0.23572913 6.0505967 3.4397337 0.14067356 0.6162739
0.1628441 0.49609256 0.7694281 11.810728 2.9246075 1.0437735 0.77014667 0.20334423
1.7452748 1.1652128 2.3420205 1.1020808 7.63778 0.034500204 0.32886428 1.9725876
1.2403907 6e-45 0.5015055 1.8089459 6.2607365 0.12482821 2.3332157 0.89292085
0.6969001 1.5689771 3.7338884 0.18354066 0.28559843 9.266063 1.8412201 7.964231
1.604899 0.13774118 0.7284904 6.94954 2.7824745 0.41818294 0.5836769 5.5562744
0.22919321 0.03012959 2.1902945 0.42377797 0.10573146 3.9857898 5.304018 6.7675376
3.156366 1.8829287 0.98048294 1.721152 2.422712 0.92096883 10.1216755 5.4110103
2.2154262 8.79912 0.30349866 6e-45 2.2412663 15.855154 1.9781929 0.18725733
4.0643873 0.4805226 3.9598432 2.1833055 1.185828 1.9808472 3.330459 1.4516662
1.1631691 2.1042812 6.382232 0.83891785 1.5568136 19.491098 2.805177 3.5819583
0.31890172 0.11451466 0.37340736 3.6910374 0.066255905 0.48468703 3.0282948 0.04135553
0.003760433 1.6456058 0.76738584 4.0906224 6e-45 2.2869008 2.2393382 1.2720243
3.490867 5.6817226 0.27635732 0.12734284 0.12467249 20.878805 1.5364562 3.6565502
0.08742107 0.36933634 3.5183923 6.242661 10.337993 0.40718526 6.069525 1.4290373
0.018014066 1.2883726 0.42525443 0.43042782 5.8720117 0.49376464 1.0422751 3.871659
0.15586719 1.2754654 0.8302064 0.17599124 8.449485 4.175898e-15 3.320366 0.43433025
1.5162758 0.1561808 12.22975 1.5874233 0.93219364 2.0374072 0.9020873 6.954284
1.2337126 0.08691919 0.5484091 6.139031 2.714648 0.27873954 5.559992 2.5707386
0.17774425 1.0050827 6.8583136 0.58815527 7.4172196 0.5037339 8.891867 5.155999
00000000: 6bc8 403f c62e 583f 9b2c bd3f 645c 5b3f
00000010: 0400 0000 4144 a840 7cd5 d13e 0400 0000
00000020: 997d d33e b8ef 0f40 626f 7141 1547 f63f
00000030: 5de7 923d f0ed 5d3f e5e0 de3c 579f d240
00000040: 67d7 cd3e c82e f53e 85ce 0c3e a103 103d
00000050: e6f4 7c40 fd50 6b3e e96d bd40 a6e5 003d
00000060: fd7f d43e bd81 6741 8678 2e3e 2ae7 e935
00000070: a10b 703f f850 e540 ac9c 5540 7d93 183e
00000080: d726 c03e d7c1 8b40 17bf b140 db7e e53f
00000090: 0400 0000 3f3b a43b ac1b b740 8dd1 203f
000000a0: 05e6 0140 a64d 1441 c285 aa3f 0400 0000
000000b0: 0578 413f aa3a 9940 e1bd c33d 0647 ac3e
000000c0: f02f eb3f ca72 a63f d0fe 053f bf57 f83e
000000d0: 4bcb 703f 638d 0e40 8d46 cc3d f8e1 4b3f
000000e0: ac4d fc3e e473 9240 9d66 223f dd2f 0740
000000f0: 3592 0440 d724 9740 56fe 7940 bb98 db3b
00000100: 403b f13e 3090 033d 2ff4 a140 5e1c 8c3d
00000110: 4cfc 453e a44b c640 5180 7240 0c0c ca3f
00000120: fc85 3540 bc6c 973f 2e85 e440 b3c9 b03e
00000130: 014e b43f a034 5d41 5c13 aa3e 3bf0 b63f
00000140: 3f52 773f 933d 2f3f 3a92 d63f 0925 263e
00000150: bcf5 2940 d770 5d3f 96c0 b03e 993b 8240
00000160: a41d 8041 901e 2e40 0c8f f13f fb14 9c3e
00000170: 07ac e140 23ac 0241 d49c 5f40 ab0d 233d
00000180: 428d 0440 0b45 0f3f 5406 2040 fa62 713e
00000190: 7d9e c140 9924 5c40 bb0c 103e 20c4 1d3f
000001a0: 9bc0 263e d8ff fd3e 3df9 443f bef8 3c41
000001b0: c52c 3b40 5f9a 853f 5528 453f 7839 503e
000001c0: 2a65 df3f b125 953f aae3 1540 fc10 8d3f
000001d0: b268 f440 1650 0d3d e660 a83e c07d fc3f
000001e0: 1fc5 9e3f 0400 0000 aa62 003f 8a8b e73f
000001f0: f457 c840 efa5 ff3d 6853 1540 7696 643f
00000200: 0c68 323f 3ed4 c83f 07f8 6e40 15f2 3b3e
00000210: f539 923e cb41 1441 1aad eb3f fbda fe40
00000220: 556d cd3f 060c 0d3e 597e 3a3f a262 de40
00000230: 1014 3240 131c d63e d96b 153f 00cd b140
00000240: a0b1 6a3e 54d2 f63c c92d 0c40 6df9 d83e
00000250: bc89 d83d 2e17 7f40 84ba a940 ab8f d840
00000260: e701 4a40 cf03 f13f ee00 7b3f b54e dc3f
00000270: b70d 1b40 9dc4 6b3f 62f2 2141 ff26 ad40
00000280: 8bc9 0d40 32c9 0c41 2d64 9b3e 0400 0000
00000290: e870 0f40 b6ae 7d41 6d35 fd3f 63c0 3f3e
000002a0: 760f 8240 0f07 f63e 126e 7d40 47bb 0b40
000002b0: 36c9 973f 678c fd3f 3e26 5540 33d0 b93f
000002c0: bae2 943f 8bac 0640 3f3b cc40 52c3 563f
000002d0: ab45 c73f c5ed 9b41 0588 3340 ce3e 6540
000002e0: 1647 a33e a986 ea3d 402f bf3e f539 6c40
000002f0: 2db1 873d e628 f83e 95cf 4140 6b64 293d
00000300: 9971 763b 36a3 d23f 6673 443f 61e6 8240
00000310: 0400 0000 955c 1240 5151 0f40 b1d1 a23f
00000320: 5d6a 5f40 acd0 b540 b57e 8d3e 2966 023e
00000330: 4a54 ff3d cb07 a741 99aa c43f eb04 6a40
00000340: d109 b33d a719 bd3e 572d 6140 e1c3 c740
00000350: 6b68 2541 967a d03e 8c39 c240 b2ea b63f
00000360: 3c92 933c 65e9 a43f f3ba d93e 0961 dc3e
00000370: 85e7 bb40 b8ce fc3e 4569 853f 43c9 7740
00000380: a69b 1f3e 7342 a33f 6888 543f 0c37 343e
00000390: 1731 0741 dc73 9627 e080 5440 8960 de3e
000003a0: 5315 c23f dced 1f3e 0ead 4341 b030 cb3f
000003b0: 3ea4 6e3f e164 0240 31ef 663f 7f89 de40
000003c0: 4bea 9d3f b002 b23d 8a64 0c3f f172 c440
000003d0: cbbc 2d40 f3b6 8e3e 74eb b140 fb86 2440
000003e0: 9702 363e 8da6 803f 4e77 db40 5891 163f
000003f0: dd59 ed40 b4f4 003f 1645 0e41 f2fd a440
