checkpoints/mad4pg/mad4pg_per0_checkpoint_actor_local.pth (torch, 166151 bytes, 10 tensors)

fc1.weight f4 [256, 24]
000000 2c 77 54 3e c1 8f bb 3d 0f 58 07 bd 97 d8 f9 be
       0.20748585 0.09158278 -0.033042964 -0.48798057
000010 d3 30 a3 3e 53 35 24 bf 22 fd 92 bd 97 c8 f1 be
       0.31873187 -0.64143866 -0.071771875 -0.4722335
000020 3e e9 36 3c db 71 69 3d 03 60 03 3d d5 52 b6 be
       0.011164008 0.056993347 0.032073986 -0.3561007
000030 43 37 9f 3e 4f c5 d5 be 4c d2 10 be 4a 52 a0 be
       0.3109685 -0.41752097 -0.14142722 -0.31312782
000040 7d af 8b 3e d3 ad 81 be e8 eb b4 3c e4 f9 14 bd
       0.27282324 -0.2532793 0.022085145 -0.036371127
000050 80 8a 5a 3e cf ea 62 3e 47 33 6f bd 9b a6 d3 bd
       0.21341896 0.22159885 -0.05839851 -0.10334512
000060 e1 85 7f be 61 cb b4 be dc 39 09 be b4 b4 29 3c
       -0.24953414 -0.35311416 -0.13400978 0.010358024
000070 ea fa 10 3d 22 71 82 bf 0e eb 16 be f4 13 41 be
       0.03539554 -1.0190775 -0.14738104 -0.18855268
000080 51 69 1b 3e 7c 5a b9 be c4 57 af bd 12 37 9e bc
       0.15176894 -0.36201847 -0.08561662 -0.019313369
000090 59 e4 23 be 27 bc 15 bf 11 8e ef 3d 51 a6 25 be
       -0.16005076 -0.5849022 0.11697019 -0.16176726
0000a0 84 8c 7f bb 93 44 ac be 41 f5 9b bc 5e c7 86 3d
       -0.0038993666 -0.33646068 -0.019037845 0.06580995
0000b0 d8 77 04 bf d2 65 95 be 38 6a e8 bc d1 b1 9b bd
       -0.5174537 -0.29179245 -0.028370962 -0.07602275
0000c0 9d 3c 95 3e 4f c3 a8 bd 39 5b 29 3c 1c 0f 29 3f
       0.29147807 -0.08240377 0.010336691 0.6603868
0000d0 60 39 9a 3e 2f 5a 9f be 72 8a d3 bd ca b0 42 3f
       0.301219 -0.31123492 -0.10329141 0.7605101
0000e0 2e cb ad 3d 85 16 b8 bd 60 80 a0 3d c3 3f 80 3e
       0.08486019 -0.0898867 0.078369856 0.25048646
0000f0 13 a6 6d be f9 ed 01 be 0b 39 a6 3d 66 36 45 3e
       -0.23207884 -0.12688436 0.08116349 0.19259033
000100 d0 46 cd 3d 03 c8 96 be fa cf 4d bc 56 16 30 3b
       0.10023272 -0.29449472 -0.0125617925 0.0026868782
000110 e9 21 30 bf cb 68 07 3e 64 32 17 be 87 93 a3 3c
       -0.6880174 0.13223569 -0.14765316 0.019967807
000120 8e 24 cd 3d 7e 19 2e 3e e6 eb 74 bd 0e a9 18 bf
       0.10016738 0.17001912 -0.059795283 -0.59632957
000130 9a 10 40 be a2 0d 8f be d5 4f 91 bd 7e 14 2c bf
       -0.18756333 -0.2794009 -0.07095305 -0.6721877
000140 fa ec d2 3d 26 16 72 be b8 09 3d bd 0e 53 a4 be
       0.10299106 -0.23641261 -0.046151847 -0.32094616
000150 c8 19 1c bc 4e 26 4d be a1 11 75 3d b9 4f 8f be
       -0.009527631 -0.20034143 0.059831265 -0.2799051
000160 2f 72 ba 3c dc 0a 3e 3d 22 61 0c be 43 0e e9 bd
       0.022759525 0.046397075 -0.13708928 -0.11379673
000170 3a 70 a5 3d 0b 1d 2c bf 1d 7f 17 bd f3 67 24 3e
       0.08078046 -0.67231816 -0.03698646 0.16055278
000180 33 b3 85 3e 35 49 08 3e eb 9d 87 3d a3 d2 b5 bb
       0.2611328 0.13309176 0.06621917 -0.0055487915
000190 32 7a bd 3d 1b a7 97 be 4e 7e be bd 85 94 fc 3d
       0.092518225 -0.2961968 -0.093014345 0.12333015
0001a0 7e 6c 8b 3e 39 76 2a 3e 53 32 d5 3c 56 d4 b4 bd
       0.2723121 0.16646661 0.026024973 -0.08829562
0001b0 ca 95 0a bc be 01 a8 be 89 f3 7d bd 51 05 f2 3c
       -0.008458564 -0.3281383 -0.06199983 0.02954355
0001c0 6a 17 95 3e 7e b7 d6 3d 05 1a e3 bd fa da 0f 3d
       0.29119426 0.10484217 -0.11088947 0.03512094
0001d0 f1 76 c6 bd d8 14 44 be 08 73 b5 3d a9 a1 ac bd
       -0.09690655 -0.19148576 0.08859831 -0.08429272
0001e0 86 1b da 3c 28 85 d5 3e d0 29 e9 bd e7 cf 4c 3e
       0.026624452 0.41703153 -0.11384928 0.20001183
0001f0 8f cb dc bd 12 93 a6 be 16 28 8b 3c d5 94 33 3e
       -0.10781013 -0.3253408 0.016986888 0.17537244
000200 05 e6 89 3d 84 79 15 3e 45 82 0e 3b c5 46 76 3d
       0.06733326 0.14597136 0.0021745127 0.060126085
000210 79 10 ec 3d 4a 32 9f be cd 94 63 3b e3 ab 05 be
       0.115265794 -0.31093055 0.0034726143 -0.13053851
000220 7e 3e 91 3e 80 f5 28 3d 0b 42 8d 3e 54 17 c2 be
       0.2836799 0.041249752 0.2758945 -0.37908423
000230 97 78 14 3e a2 75 12 bf c7 19 38 3e 00 10 a2 be
       0.14499126 -0.57210743 0.17978583 -0.31652832
000240 c8 f4 f0 3e 0f bd ba be c0 e2 bf bd 53 f3 38 bd
       0.47061753 -0.36472365 -0.09369421 -0.045153927
000250 8f 45 b0 3d 29 fc 15 3e 4e c9 53 be 13 1b bc bd
       0.08607017 0.14646973 -0.2068226 -0.091848515
000260 73 e6 db 3e 69 63 7f be 25 27 95 3d e2 95 14 be
       0.42949256 -0.24940266 0.07282857 -0.14510301
000270 05 40 85 3c f3 13 25 3e 33 81 ac 3c 35 ee a7 be
       0.016265878 0.16120891 0.0210577 -0.32798925
000280 30 4a d4 3e 96 a4 ff bd 5f f8 ea 3d 50 b7 87 3e
       0.4146285 -0.12482564 0.11473154 0.26507044
000290 7d db 12 be 2f c6 a0 bc c6 42 ce 3c 8f 54 aa 3e
       -0.1434154 -0.019625751 0.025178324 0.33267638
0002a0 9e d9 a2 3e 46 86 ac 3d 09 78 c6 bd 2e ae c5 3d
       0.31806654 0.08424048 -0.09690864 0.09652363
0002b0 a2 4c 62 bc df 50 93 bd 1d 83 69 3d 05 0e 45 3d
       -0.013812216 -0.07193159 0.057009805 0.048109073
0002c0 de 30 86 3e 0b 76 a5 3d ef d2 1b bd 43 bd 2f 3d
       0.26209158 0.080791555 -0.03804296 0.042905103
0002d0 3c f5 17 3e 2e d8 ba 3d 88 0b 83 3b 41 e8 e1 bd
       0.14839643 0.09123264 0.0039991774 -0.11030627
0002e0 a5 d4 89 3e 6a 0e 25 3d 54 8b 29 3d 43 35 1d 3c
       0.26920047 0.04029695 0.04139264 0.009595218
0002f0 ed 23 b1 bd b2 08 0c 3e 77 13 7b bd 48 bf 13 3d
       -0.086494304 0.13675192 -0.06129786 0.036071092
000300 cf 60 92 3e 06 dc 91 3e b6 92 07 be 4c 21 7a 3e
       0.28589484 0.28488177 -0.1323956 0.24426764
000310 a5 da 63 3e 2f d6 a7 be 3e 8a 1c bd c5 53 bc 3e
       0.22251375 -0.32780597 -0.038217776 0.3678266
000320 07 b7 71 3e fd ad 8d 3e c7 3c 91 3d c5 2a 3b 3e
       0.23604976 0.27671805 0.070916705 0.18278034
000330 dd 5b 20 3c 64 f5 ac be 47 21 32 be 98 f0 8c 3e
       0.009787527 -0.33780968 -0.17395507 0.27527308
000340 e1 f7 8d 3e 4c a6 d9 3e f2 a1 fc 3c df 9d d2 3e
       0.2772818 0.42509687 0.03083894 0.4113607
000350 43 b5 0e bf 36 02 91 be ca e9 22 bd 78 b9 6e 3e
       -0.55745333 -0.28322 -0.03977374 0.23312938
000360 97 d8 0d 3e 41 a9 09 3e b2 a8 ae bd 8a 3d f6 3e
       0.13852154 0.13443471 -0.0852827 0.48093826
000370 f8 5b cd be f5 66 03 bf 01 1e 2d 3e ef 58 b9 3e
       -0.4010923 -0.51328975 0.16905977 0.36200663
000380 c4 b0 ab bc 69 ab 71 bd 91 ea ed bd 6d ef f1 3e
       -0.020958312 -0.05900136 -0.116170056 0.4725298
000390 40 2e e0 be 1f 8f b5 be d1 05 bb 3d e8 94 1f 3f
       -0.43785286 -0.35460755 0.09131969 0.6233659
0003a0 a5 64 41 3d 23 3a c0 3c b6 ab dc 3d 73 e0 ba 3e
       0.047215123 0.023465222 0.10774939 0.36499366
0003b0 b0 d0 87 be 7b ac 1d be 69 25 85 bd fb f6 fe 3e
       -0.26526403 -0.15397827 -0.06501276 0.49797806
0003c0 ad 84 fd 3d 0c ea e2 bd 32 41 c2 3e 9f bc c7 3c
       0.123788215 -0.11079797 0.37940365 0.024381934
0003d0 fd ba 8b 3e 28 e0 15 3e dc a4 c0 3e 88 1f f1 3d
       0.27291098 0.1463629 0.37625778 0.11773592
0003e0 7e b0 bf bd da 7d 2f be 91 1c 06 be 47 dd 46 3c
       -0.09359835 -0.17137852 -0.13096835 0.012137718
0003f0 9f 5b b4 3e 24 07 8a 3e f3 d0 54 bd 7e 83 53 bd
       0.3522615 0.26958573 -0.051957082 -0.051639073

fc1.bias f4 [256]
000000 4e 3c 84 be 00 7f c1 be e1 6f ef be 1c d2 ff 3b
       -0.2582726 -0.37792206 -0.46765044 0.0078070294
000010 55 ae b7 be 2c 51 22 3e 3a 50 bb be 91 2b de bd
       -0.35875192 0.15851277 -0.36584646 -0.108481534
000020 7d 53 16 be 43 a0 0d bf e1 7d f7 bd be 7e 79 3c
       -0.14680286 -0.55322665 -0.12084556 0.015227972
000030 fc ad f2 be 55 45 47 be 35 95 75 be 75 1c 4c 3e
       -0.47398365 -0.19460042 -0.23982699 0.1993273
000040 f0 01 16 bf 1b a3 05 bf 16 8e 81 bd ea b1 2a bd
       -0.58596706 -0.52202004 -0.06325929 -0.04167358
000050 c3 5b 96 be eb 8b ae be 83 47 95 be b2 79 bf be
       -0.29366884 -0.34091124 -0.29156122 -0.37397534
000060 a1 8a 48 bd 20 55 4c 3d 84 db b6 be 52 ac e9 be
       -0.04896033 0.04988587 -0.35714352 -0.45639282
000070 3d 34 a3 be 8a ae b6 bc 01 a7 02 3c 76 1a 52 be
       -0.31875792 -0.022300024 0.007974387 -0.20517907
000080 a9 33 4c bd f4 04 a7 bd 38 52 34 3d 09 d2 ac bc
       -0.049853954 -0.081552416 0.044023722 -0.021096246
000090 f7 3b de be 94 5d 8a be 0e 86 c7 be 9f bc 68 be
       -0.43405125 -0.2702452 -0.38969463 -0.22728203
0000a0 39 64 31 bd 7a ce 38 bd 93 8f d6 be 76 ee b7 be
       -0.04330847 -0.045118786 -0.41906413 -0.3592412
0000b0 ca 84 67 be 6e e7 51 be 2f 5e bd be 70 a7 0a bf
       -0.22609249 -0.2049844 -0.3698592 -0.5416174
0000c0 4f d7 9c bb e7 58 85 bd 75 2c c4 be 1c 6b 11 be
       -0.004786409 -0.065110974 -0.38315168 -0.14201015
0000d0 c7 fb c3 bd c3 d6 59 bc 26 c5 dc be 9e 26 b0 be
       -0.09569507 -0.013295832 -0.43119162 -0.34404463
0000e0 e3 41 d9 be 77 c7 59 be 62 78 da be 94 82 13 bf
       -0.4243308 -0.21267496 -0.4266997 -0.5762112
0000f0 94 8b e3 be e1 7b 95 be 0b dc a3 be 02 82 1e bf
       -0.44442427 -0.29196075 -0.32003817 -0.61917126
000100 0f a5 14 be 85 77 e5 be 79 19 e5 bd 7c 60 07 bf
       -0.1451609 -0.4481775 -0.11186499 -0.528816
000110 16 46 54 be 7d b8 84 be 57 f6 36 be e0 b4 72 be
       -0.2072986 -0.25922003 -0.17867409 -0.23701811
000120 b8 71 9f be fa 8e df be bd fa 47 be e6 78 f6 be
       -0.31141448 -0.4366377 -0.19529243 -0.48139113
000130 96 60 1a be 01 57 52 be b6 9c 9a be 99 87 98 be
       -0.15075907 -0.20541002 -0.30197686 -0.29790953
000140 64 0c 04 bf 71 56 9e be d2 96 2f bd dd f9 35 bd
       -0.51581407 -0.30925325 -0.042868443 -0.04442774
000150 c0 8a cc 3d 71 1c fd be e5 2f 6d bd cb eb 87 be
       0.09987402 -0.49435762 -0.057907004 -0.26547083
000160 bd 42 07 3e 7f ce 99 bd 02 2c fd bd 03 59 f2 bd
       0.13209052 -0.07510089 -0.123619094 -0.11833384
000170 97 66 24 be 53 07 ca 3d 08 be 06 be 77 b1 b8 be
       -0.1605476 0.09864678 -0.13158429 -0.36072895
000180 d0 a5 c2 bd 79 64 78 be ec 94 c9 be 5a 31 c7 bd
       -0.095042825 -0.24257077 -0.3937143 -0.0972621
000190 9e 5e 0c bd d7 3a bf be 71 ac d6 bd fa 32 05 bf
       -0.03426992 -0.3734958 -0.10482109 -0.5203091
0001a0 b0 b4 7b be e0 9b 03 bc c5 35 0a bf 65 61 5c bd
       -0.24580646 -0.008032769 -0.53988296 -0.05380382
0001b0 41 28 eb be 9d 44 19 be 2c df bf 3d b1 0c 95 be
       -0.4592915 -0.1496758 0.093687385 -0.29111245
0001c0 f4 b3 22 be 8c 3d 91 bd 09 cd e5 be e0 69 8b be
       -0.15888959 -0.07091817 -0.44882992 -0.27229214
0001d0 e4 4a 15 bd 65 d0 20 bf ba d2 c2 be 56 ff 71 be
       -0.036448374 -0.62817985 -0.38051397 -0.23632559
0001e0 ec 41 a4 be 87 a2 1f bf a9 16 bc be 0c 46 06 be
       -0.32081544 -0.6235737 -0.36736038 -0.13112658
0001f0 64 46 03 be 5e 63 00 bf 94 c0 d4 bb bd ba 0e bf
       -0.1281982 -0.5015162 -0.0064926837 -0.5575369
000200 07 38 68 bc 9a e7 06 3d a1 32 79 bd 80 8a c9 be
       -0.014173514 0.032935716 -0.0608393 -0.3936348
000210 2d 70 36 be 4f 69 58 3e b8 09 b6 be cd aa 05 3d
       -0.17816229 0.21133922 -0.3555429 0.03263359
000220 5a 33 b4 be 13 ab c7 be b8 a7 e8 bd b9 7a 74 be
       -0.35195428 -0.38997707 -0.11360115 -0.2387494
000230 40 52 dd be 71 67 81 be 55 45 bf be 9b 06 9c be
       -0.43226814 -0.25274232 -0.37357584 -0.3047379
000240 70 e1 1c be dc c6 92 be 82 37 1d bf 63 58 24 be
       -0.15320373 -0.28667343 -0.61412823 -0.16049342
000250 3e b0 a3 be e7 50 bd bd 3c 17 b8 be 2c 55 4b be
       -0.319704 -0.092439465 -0.35955226 -0.19856709
000260 8a 8c ed bc 0c 1b 07 bf 25 ae 84 be 73 53 9c be
       -0.028997678 -0.52775645 -0.25914112 -0.30532417
000270 50 fa 90 be 48 91 dd bd 4e 80 6a bd 69 d6 14 bd
       -0.28315973 -0.10818726 -0.057251267 -0.03633729
000280 b4 a7 d5 3c 8b 27 86 be 0c 5b 25 bf e1 a9 c6 be
       0.026080944 -0.26202044 -0.6459205 -0.38801482
000290 22 f8 05 be 51 15 34 3e 50 1b ed bd 69 36 9d be
       -0.13082936 0.17586257 -0.11577475 -0.30705574
0002a0 25 7e 64 be b9 4f 9a be 18 44 81 bd 18 8f 8c be
       -0.22313745 -0.3013895 -0.06311816 -0.27452922
0002b0 42 cb d0 be 48 5d 21 3e 5b 67 2f bf fd 92 56 be
       -0.40780073 0.1575824 -0.6851708 -0.20954509
0002c0 c6 74 6b 3c 74 82 43 bf 48 76 a7 3d 0a cd 67 be
       0.014371103 -0.7637093 0.08176857 -0.2263681
0002d0 2d 47 ac be 27 68 9c 3d df 6a 87 be da 60 57 3e
       -0.33648053 0.07637053 -0.26448724 0.2103304
0002e0 34 29 ac bc 9d b8 31 be 8c 89 34 bf 8d 8e a3 3d
       -0.02101574 -0.1735558 -0.7052238 0.07986174
0002f0 2b 7b 90 be 49 9a bc 3c c4 95 40 be 60 5f fe be
       -0.2821897 0.023022788 -0.18807131 -0.4968214
000300 7c 37 e7 be 58 62 b9 bc 80 39 af be d9 59 9f bc
       -0.4515952 -0.022629902 -0.34223557 -0.019452022
000310 40 21 32 be b1 4a 40 3e 28 64 f8 3d 08 da 92 be
       -0.17395496 0.18778493 0.12128478 -0.2868197
000320 ab dd fb bb 09 25 69 3b 1e dc e5 be 18 e9 df be
       -0.007686337 0.0035575053 -0.448945 -0.43732524
000330 c1 1e c9 be 41 f7 9c be ed a3 bd be bb 5c 16 3d
       -0.39281276 -0.3065739 -0.37039128 0.03670953
000340 72 10 c7 be b5 e4 fc be ee 4e 9f be 83 13 bd be
       -0.38879734 -0.4939324 -0.31114906 -0.3692895
000350 16 d7 9e be f6 62 9c be 67 03 9e be 9d 83 5e 3d
       -0.31023473 -0.3054425 -0.3086197 0.054324735
000360 2b 96 c4 be 6a 92 24 be f9 0d 83 be 25 b3 89 be
       -0.3839582 -0.16071478 -0.25596598 -0.2689449
000370 4b 4a 2d be c6 95 05 bf 3c e2 96 be 9d 03 eb be
       -0.16922872 -0.5218166 -0.29469478 -0.45901194
000380 7d a8 62 be 9d a9 0e bf 0c cd 7f be e2 7a d5 be
       -0.22134586 -0.5572756 -0.24980563 -0.41695315
000390 82 95 39 bf 97 66 d7 be 00 ca 4d bc ef 5f 6e be
       -0.72493756 -0.42070457 -0.012560368 -0.23278783
0003a0 44 bb 0b bd 83 c4 46 be 9d 67 3a be 86 e8 be 3c
       -0.034114137 -0.19410901 -0.18203588 0.023304235
0003b0 5f 4e 51 bc 09 b1 15 bf fd 05 e7 bd 01 41 ed be
       -0.012775033 -0.5847326 -0.11280439 -0.46338657
0003c0 46 43 7f be 19 88 83 bd 15 43 e2 bd 92 d8 47 be
       -0.24928007 -0.06422443 -0.11047951 -0.19516209
0003d0 a8 ed ac 3d be 4b 3f be 48 3a 0c be 0d c2 b2 be
       0.08443767 -0.18681237 -0.13694108 -0.34913674
0003e0 95 25 a0 be e8 3b b8 be 8d 80 8d be eb 99 f3 be
       -0.31278673 -0.35983205 -0.2763714 -0.47578368
0003f0 2b 05 ab be 71 7b 21 bd 3d 7d a3 be 05 05 39 be
       -0.3340238 -0.039424364 -0.31931487 -0.18068321

fc2.weight f4 [128, 256]
000000 e6 b3 bd 3e 0b 4d 2e 3e 16 92 3d 3d 99 bd 0f be
       0.37051314 0.17021577 0.046281897 -0.1403717
000010 d1 c2 80 be 2e 6d af 3c 2c 50 e5 be 19 4c c6 bd
       -0.25148633 0.021414366 -0.4478773 -0.09682483
000020 22 25 34 be 41 74 5f be 8f e4 e3 3c ef ef 8d 3c
       -0.1759229 -0.21821691 0.027818946 0.017326323
000030 44 ce 9c bd 85 12 03 bf d9 b6 58 be 10 4d 06 3e
       -0.076565295 -0.51200134 -0.21163501 0.13115335
000040 9d 94 cc bd c9 1f cb be 82 46 3a 3d 6f d1 70 3d
       -0.09989283 -0.39672688 0.045477398 0.05879348
000050 ad 11 bb 3e 50 47 9a 3e f5 96 fa 3d 30 e4 b0 3d
       0.36536923 0.30132532 0.12235824 0.08637273
000060 eb ca c8 3c a5 f6 ac bd 87 dc 9c bd c4 ef 18 bd
       0.024510821 -0.08445481 -0.0765925 -0.037338033
000070 48 b5 8c be 55 3d 8d 3e d9 06 14 3e cb 9e ee 3d
       -0.27482057 0.27585855 0.14455737 0.11651381
000080 a3 4f 89 bd 88 03 97 3d 60 32 24 bd 96 81 5b 3d
       -0.067046426 0.073737204 -0.040087104 0.05359038
000090 46 21 24 3e e3 c2 84 3e ba 5c b5 3e 97 c5 db bd
       0.16028318 0.25929937 0.35422307 -0.10731047
0000a0 26 d0 18 be 82 de 92 3e 4b ac ac 3e c8 e6 8f be
       -0.14923152 0.28685385 0.337252 -0.2810576
0000b0 5a d1 51 bd 52 ea 5c 3d e0 ed a7 bd 91 cd d1 be
       -0.051225044 0.053934403 -0.08199668 -0.40977147
0000c0 8d a4 2f be f8 ae a9 3e 22 52 65 3e f2 f2 21 be
       -0.17152615 0.33141303 0.22394612 -0.15815333
0000d0 48 cb 91 be 21 57 ba be f5 be 6b 3e d6 91 be 3e
       -0.28475404 -0.363946 0.23022063 0.3722064
0000e0 6c 4d 91 3e f6 4d 7a 3e b5 fd 1e 3e e6 ba 4d 3e
       0.2837938 0.24443802 0.15526469 0.20090827
0000f0 0e 7c 41 3e 7a 06 19 3e 3f 2e 51 3e 52 cd 86 3d
       0.1889498 0.14943877 0.20427798 0.065821305
000100 f0 c1 c9 bd ce 76 d8 bc b8 5d cf be 27 09 e4 3d
       -0.09851444 -0.026423838 -0.4050119 0.11134558
000110 d8 03 db bc b7 03 60 be 3d 5e 59 3e a3 ac af be
       -0.026735231 -0.21876417 0.21227355 -0.343114
000120 06 2f ac 3e 39 43 19 bd 4a c9 79 3e b2 70 74 3e
       0.33629626 -0.037417624 0.24393192 0.23871115
000130 15 07 64 3d 8f aa 09 3e 9f 88 2f be 30 9b bb bd
       0.055670816 0.13443969 -0.1714196 -0.09160459
000140 19 fa c5 3e ba 19 4c be a0 7a 9d 3d db fd a7 bd
       0.38667372 -0.19931689 0.076894045 -0.08202716
000150 1e 90 26 bd 6f 06 a9 be 29 a4 ad 3e e6 82 eb 3e
       -0.040664785 -0.3301272 0.33914307 0.45998305
000160 bf 38 18 3e e3 ad 58 3e 3c 38 04 3e 2f 84 50 be
       0.14865397 0.21160083 0.12912077 -0.20362924
000170 aa a1 af 3e 06 20 1b 3e 0f d0 ca 3e 43 2a 80 be
       0.34303027 0.15148935 0.3961186 -0.25032243
000180 dc 7d 22 3c 5f 28 b5 bd 9a 16 31 bd 2c 4b 8c 3e
       0.0099177025 -0.08845591 -0.043234445 0.27401102
000190 59 34 4f 3d 26 53 81 3e 25 03 8a 3e d1 c0 63 3e
       0.050587032 0.2525875 0.26955524 0.22241522
0001a0 e1 ee 30 bf 81 aa f1 3d b5 3a d5 bc 1c 5b 4f bd
       -0.691145 0.11800099 -0.02602897 -0.050623998
0001b0 0c 27 93 3e d2 21 18 3e 66 01 a4 be 76 72 c0 3d
       0.28740728 0.14856651 -0.32032317 0.09396832
0001c0 5b 69 60 bd 3b 9f a6 3e 47 d9 86 3e 08 5f 09 be
       -0.054787975 0.32543358 0.26337644 -0.13415158
0001d0 43 ed 6a 3d 7a ad 4f 3e 64 e8 f6 bc 01 71 74 bd
       0.057355177 0.2028102 -0.03014011 -0.05967808
0001e0 ff 6d 81 3e 30 e6 38 3d 81 de ab be 1e cd c2 be
       0.25279233 0.0451414 -0.33568195 -0.38047117
0001f0 90 28 3c 3e 99 1b 90 3e 62 64 84 3d fe d5 12 3e
       0.18374848 0.28146055 0.06464459 0.14339444
000200 f4 50 30 bd 05 01 fc bd e1 11 df 3d 6f 3f 86 3e
       -0.043045953 -0.12304882 0.10892082 0.2622027
000210 b2 d4 4c 3d 49 08 85 3e cb 6e 81 3d 36 81 95 3e
       0.05000753 0.25982884 0.0631996 0.29200143
000220 c2 5b e9 bd 49 ce 94 3c 0a f0 91 3d ec 21 a9 3e
       -0.113944545 0.01816477 0.07125862 0.33033693
000230 be f1 d0 bd 10 ea cd 3b 49 4f 61 3e 8a eb 52 3e
       -0.10202359 0.006284006 0.22002901 0.20597664
000240 73 fb 46 be 0b f7 93 3d 94 e2 c8 3d dd 10 cc 3d
       -0.19431858 0.07224854 0.09808841 0.09964154
000250 ef 47 9c be 93 6c 8c bc 17 14 50 3e 0e d3 51 3e
       -0.3052363 -0.017141616 0.20320164 0.20490667
000260 cd 43 0d bd 07 03 20 be a3 95 29 bf eb b6 12 be
       -0.034488488 -0.15626155 -0.6624395 -0.1432759
000270 2c ad a6 3e af d1 8f 3e 8d 84 b5 3e 65 a6 17 3e
       0.32553995 0.28089663 0.3545269 0.14809568
000280 dd 80 b9 3e 1a 9f 5e 3e 4d 49 2d 3d de bb 00 3e
       0.36231127 0.2174038 0.042306233 0.12571666
000290 8f a8 74 3d 7a 7c 8e bd 08 b3 91 3e ec e3 b0 bd
       0.059731063 -0.06957336 0.28456903 -0.08637223
0002a0 8b a4 98 3d 55 ab 18 be 83 61 17 3d 68 0d e2 3d
       0.07453259 -0.14909108 0.03695823 0.11037713
0002b0 8d d4 63 3c 96 93 a2 bd 3a c3 82 3e 81 35 84 bd
       0.0139056565 -0.07938306 0.2553957 -0.064555176
0002c0 35 3e 89 bd c9 b8 b0 3e 45 c8 c9 bd 4d fe fa be
       -0.06701318 0.3451598 -0.098526515 -0.4902214
0002d0 00 2f 6d 3d 75 7a cf bd 2b 3d 23 3d d4 9c b6 3c
       0.05790615 -0.10130779 0.039853256 0.022291578
0002e0 95 ae 74 3e 1f e4 1a 3e e5 e9 9b bd 4a 6f f5 3d
       0.23894723 0.15126084 -0.07612971 0.11984117
0002f0 61 55 fd 3c aa 21 67 3e 22 fe 39 3e 71 bd b7 3e
       0.0309245 0.22571436 0.1816335 0.3588672
000300 f7 c0 f8 bc 06 96 cf 3e 09 9f a2 3e e6 3f 3b 3e
       -0.03036545 0.40544146 0.3176196 0.18286094
000310 09 5a 72 be 84 06 0f bd 41 71 1e 3e 36 b0 60 3e
       -0.23667158 -0.034918323 0.1547289 0.21942219
000320 c9 e1 bb 3e 21 1b ec bd af 1b bb bd 2f 06 75 3d
       0.36695698 -0.11528612 -0.091361396 0.05982035
000330 3c 20 0a 3e f0 76 ee bd 68 72 b2 bd 9c d4 84 3e
       0.13488859 -0.11643779 -0.087132275 0.25943458
000340 59 cc 32 be 2b 55 a0 3e 89 47 5a 3e bb 4b 87 3e
       -0.17460765 0.31314978 0.21316351 0.26424965
000350 fc e5 d0 3d 28 2d 34 3e e8 19 d0 3e a9 13 ed bd
       0.10200116 0.1759535 0.40644765 -0.115760155
000360 dc d6 02 be 27 15 68 be 04 ef 2f 3f f7 5a d2 3d
       -0.12777275 -0.22664319 0.68724084 0.102712564
000370 3b 27 e3 3e d5 03 3f 3e 0f 37 22 be f8 67 83 bd
       0.44365868 0.18653806 -0.15841316 -0.06416315
000380 0b 05 a9 bc 77 e0 ac 3e 70 ee c5 be e8 64 83 3d
       -0.020632287 0.33765003 -0.38658476 0.06415731
000390 8f d4 de 3e 6b aa a5 3e 4f c8 8c 3d e5 73 13 3e
       0.43521544 0.3235658 0.06874143 0.14399679
0003a0 8e d8 ab be 9f 76 ef be 52 bc ad bc b1 b7 62 bd
       -0.33563656 -0.46770188 -0.021207962 -0.055350963
0003b0 9c ae 81 3e 78 67 20 3e 08 32 8d 3d 07 56 55 3e
       0.2532853 0.1566447 0.06894308 0.20833598
0003c0 ad 41 54 3e 33 ce 9b 3d 74 00 d4 bc f8 f9 2e 3e
       0.20728178 0.07607689 -0.025879122 0.17087543
0003d0 1e c9 cd 3e c8 83 0e 3c 34 1a cf 3c 7e 68 f0 3d
       0.40192503 0.008698411 0.02528105 0.1173868
0003e0 91 3d 8d 3e 3e 8f 3b 3e 0b 56 16 3e 5c 2f 80 3e
       0.27586034 0.18316361 0.1468126 0.25036132
0003f0 fe 1a a9 3e 53 17 84 3e 99 c8 c1 3e 5e f2 a2 3e
       0.33028406 0.25799045 0.37848356 0.31825536

fc2.bias f4 [128]
000000 11 31 e8 be 7b 2c 58 3d 83 3b a3 bd 6f 1e b0 bd
       -0.45349935 0.052776795 -0.07970335 -0.08599555
000010 9c 11 6d be 7b 8a 45 be 08 ad ee bd 1b 94 c7 be
       -0.23151249 -0.19291107 -0.11654097 -0.38980183
000020 a5 51 92 be 19 a8 8c 3d ef c4 00 be 85 6a c8 be
       -0.28577915 0.068679996 -0.12575124 -0.39143768
000030 18 6d 15 bc 82 c7 a7 be 9d d0 69 be 1f ef 54 be
       -0.009120248 -0.327694 -0.22833486 -0.20794342
000040 c7 23 16 be fc bf 8e bd a9 9e ab be 58 ff 5c be
       -0.14662085 -0.06970212 -0.33519486 -0.21581781
000050 20 38 5a be 09 7d 39 be b9 5f cf bd 54 cb d7 bd
       -0.21310472 -0.18114103 -0.101256795 -0.10536829
000060 fb 85 91 bd 32 12 bc be d5 cb 2e be aa 96 94 bd
       -0.07105633 -0.36732632 -0.17069943 -0.072552994
000070 9e fb 18 bd 5f df 25 be 4e e2 96 be a5 bc 00 be
       -0.037349336 -0.1619849 -0.29469532 -0.12571962
000080 f2 c2 94 bc 9a 08 4c be 2a d4 8f bd 5d 9a bb be
       -0.018159363 -0.19925156 -0.07022889 -0.36641207
000090 87 97 52 be 17 75 0c be 1b 5a 19 be 5a 28 1d be
       -0.20565616 -0.13716541 -0.14975779 -0.15347424
0000a0 e9 de d5 bc 74 b6 64 be 8c 0a 82 3d 3a 5c e2 3a
       -0.026107268 -0.22335225 0.06349668 0.0017269917
0000b0 7e 95 a9 be bd ff 06 bc 4c 7a 1c be 5d fb 76 be
       -0.33121866 -0.008239684 -0.15281028 -0.24119325
0000c0 a2 d4 99 be d0 54 b1 bd e2 00 8a bd 90 80 95 be
       -0.30045038 -0.08658755 -0.0673845 -0.29199648
0000d0 9e d5 86 be 72 d6 a9 3d cc aa 8f bd b9 e6 8b 3b
       -0.26334852 0.08292855 -0.07014999 0.0042694476
0000e0 74 c7 ba bd a5 0f 62 3d 90 ef 42 bd 5e 1c 4c be
       -0.09120074 0.0551907 -0.047591746 -0.19932696
0000f0 b7 b1 cf be a0 65 03 be 8d f4 9b 3d 0a 00 6d be
       -0.40565273 -0.12831736 0.07615004 -0.23144546
000100 a1 e2 19 be d8 bb d4 bd 19 7d 03 bd dd 67 ec be
       -0.15027858 -0.10387391 -0.032101724 -0.4617299
000110 bf c1 71 3b 92 9b e6 bd 5f 1a c5 bc 32 9a 75 be
       0.0036889163 -0.112601414 -0.024060426 -0.23984602
000120 23 4c 1f be 83 c8 51 be e7 47 a6 bd 15 23 58 be
       -0.15556388 -0.20486645 -0.08119183 -0.21107133
000130 ee 39 25 be 47 aa 03 bc ca da 9c bb 22 68 5a be
       -0.1613538 -0.008036203 -0.004786824 -0.21328786
000140 8f c8 75 be 8e fa 01 bd 09 d2 1a be 7f 71 31 bd
       -0.24002288 -0.03173309 -0.15119185 -0.04332113
000150 db ad 17 be 00 a1 dc bd 53 7c c6 be f2 cf 9e be
       -0.14812414 -0.10772896 -0.38766727 -0.31018025
000160 15 b7 47 be 21 c9 21 bb 55 b3 ce bd 65 80 ee 3d
       -0.19503434 -0.0024686533 -0.100927986 0.11645583
000170 4d 96 c0 bd 1a c6 29 3d 59 bc 3f be 0a 85 29 be
       -0.094036676 0.04144869 -0.18724193 -0.16554657
000180 95 24 89 be e6 10 76 be f7 e3 83 bd 5e e2 85 be
       -0.26785722 -0.24029884 -0.06439965 -0.26149267
000190 9d 77 e0 bd 96 0c aa bd 92 99 5e be 4b 66 38 be
       -0.109603144 -0.08303182 -0.2173827 -0.18007772
0001a0 73 45 66 be 47 75 6c be 22 32 47 be 11 8f bb bc
       -0.2248743 -0.23091613 -0.19452718 -0.022895368
0001b0 96 0e 25 be ad 33 ae be d3 e0 8e bd f4 d6 5c be
       -0.16118845 -0.340238 -0.069764756 -0.21566373
0001c0 11 dc 21 be 9c c0 93 be ac af df 3d cb ec 74 be
       -0.15806605 -0.28857887 0.109221786 -0.23918454
0001d0 8d 7a 10 be 79 f1 4a be 11 20 c9 3b 23 31 0a be
       -0.1410925 -0.19818677 0.006137856 -0.13495307
0001e0 87 26 02 be 48 e3 11 be 51 73 26 be 34 ab 12 be
       -0.1271001 -0.14246857 -0.16254927 -0.14323121
0001f0 83 64 18 be 76 60 07 be 00 ae 86 be c9 7d 04 be
       -0.14882092 -0.1322039 -0.26304626 -0.12938608

fc3.weight f4 [2, 128]
000000 5e 8d 51 3f 4f c5 91 3e 70 aa f1 3e c3 f7 2f be
       0.81856334 0.28470847 0.47200346 -0.17184357
000010 e6 24 aa bd 2f e4 ec 3e e3 68 8d 3e cc 11 c2 3e
       -0.08307819 0.4626784 0.27619085 0.37904203
000020 2a e7 17 3e 7d 57 00 3f fb 97 b0 be 60 0e 50 3e
       0.14834276 0.50133497 -0.34490952 0.20317984
000030 4b 80 10 3f 76 07 41 bd 7c d6 8f be 55 d0 e8 bc
       0.5644576 -0.047126256 -0.28093326 -0.028419653
000040 ec 04 07 3f 82 91 09 be 04 c4 1a bf ef 85 cd be
       0.52741885 -0.13434413 -0.60455346 -0.40141246
000050 b2 59 cd 3b d5 70 82 be b7 31 7d be 44 b9 1a be
       0.006266796 -0.2547671 -0.24725996 -0.15109736
000060 b7 c8 0c bf d8 38 d0 bd 4c fa b4 be 7e f6 c1 3e
       -0.54993767 -0.10167092 -0.3534721 0.3788337
000070 1c ec 80 be bb b9 29 be 48 84 12 be f4 0b 72 be
       -0.25180137 -0.16574757 -0.14308274 -0.23637372
000080 b3 a8 12 3f cb 54 6d 3c 83 1d c2 be 12 a5 87 3e
       0.57288665 0.014485548 -0.3791314 0.26493126
000090 f5 41 ad 3e e3 b2 ee 3d cb 5b f4 be 54 92 12 bd
       0.33839384 0.11655214 -0.47726282 -0.03578408
0000a0 77 de f7 bd 3f 8f d8 be 1d d0 a5 bd e6 29 37 be
       -0.12102979 -0.42296788 -0.08096335 -0.17887077
0000b0 e2 02 b6 bd 63 df ab bd b6 eb b4 bc fc bc fd be
       -0.088872686 -0.08392217 -0.022085052 -0.49558246
0000c0 44 ad ce 3e 74 2b c6 bb 9f 8b 85 3e e1 6c 74 3e
       0.40366566 -0.0060476605 0.26083085 0.23869659
0000d0 5c 3d c9 3e 68 bb ae 3e f4 70 98 be 66 9b 78 3f
       0.39304626 0.34127355 -0.29773676 0.9711212
0000e0 57 4d b5 3e 07 5a 0a 3f 71 4b 3c be c0 4d 37 be
       0.35410568 0.5404362 -0.18388154 -0.17900753
0000f0 60 dc db 3e 07 72 19 3d 37 74 ef 3e 12 d2 9f be
       0.4294157 0.03746226 0.46768352 -0.31214958
000100 b0 ce 58 3e cd 0b be be f7 5d 65 be 6a 1c 48 bc
       0.21172595 -0.37118378 -0.22399126 -0.012213806
000110 6f 06 88 be 83 98 da be 33 45 d3 3c b4 02 cb be
       -0.26567408 -0.42694482 0.025789833 -0.396505
000120 5e 4d 9e be 0d ae b0 3e f8 be 14 3f 92 f7 00 3e
       -0.309184 0.3450779 0.58103895 0.1259444
000130 e4 db fe 3e 41 a6 82 be d5 b5 3e 3e 13 90 da 3e
       0.49777138 -0.25517467 0.18624051 0.42688045
000140 bf 35 c3 3e 0a d6 d4 be ba 34 cf 3d 3d 83 b7 be
       0.38126943 -0.4156955 0.10117479 -0.35842314
000150 c3 aa 6f 3e 9c ac 09 3f 06 97 28 3f 2e a5 06 be
       0.23404984 0.53779006 0.65855443 -0.13148949
000160 61 77 48 bf 03 48 bd 3e 37 58 9f 3d 78 1d 86 3e
       -0.7830716 0.36969003 0.077804975 0.26194358
000170 1f 6b 00 bf df c3 ce be be 49 77 3e cd 9e 15 be
       -0.50163454 -0.40383813 0.24149224 -0.14611359
000180 0c 69 01 3e c6 a0 9c 3e 5d 32 37 3f 51 96 2e 3e
       0.12637728 0.3059141 0.71561223 0.17049529
000190 d9 be 34 3f 33 8e b9 bd 1b 16 1b 3f 36 99 7e 3e
       0.7060371 -0.090603255 0.60580605 0.24863133
0001a0 6b dd 37 3e 2b a7 80 be 07 eb 8a be 14 83 6e be
       0.17955558 -0.2512754 -0.27132437 -0.2329219
0001b0 d4 1a a3 be 4e 66 00 be 77 a7 0f bf df 59 84 bd
       -0.31856406 -0.12539026 -0.56114906 -0.06462454
0001c0 11 74 13 be fa f9 a8 bd 67 d9 d3 be 14 92 19 3f
       -0.14399745 -0.08250804 -0.41376802 0.5998852
0001d0 d4 68 ca 3e 64 41 b0 3c 1c 1e a4 3e 64 c1 b6 3e
       0.39533103 0.021515556 0.32054222 0.3569442
0001e0 6a cb b9 3e 3a fe f9 3d 20 59 ce 3d 66 20 91 3d
       0.36288005 0.12206693 0.10075593 0.07086258
0001f0 ba 9d 7c 3d ef 9a 87 be ce cb 3d be 9d 97 6f be
       0.061673857 -0.26485392 -0.18534777 -0.2339768
000200 f5 2e f3 be c2 97 f6 3d 13 54 1f 3e 80 ca 0c 3d
       -0.47496763 0.12040664 0.15559416 0.034372807
000210 a4 45 3d 3e 30 0b 5c 3e 57 07 38 bf 6a 27 12 be
       0.18483597 0.21488643 -0.718862 -0.14272848
000220 c0 76 b3 be 04 39 0c 3e ba 7b 9e 3e 38 fd 02 bf
       -0.35051537 0.13693625 0.3095377 -0.5116763
000230 6c 6d 9c 3e f0 fa 29 bf c5 12 21 3d f0 a2 b2 3e
       0.30552232 -0.66398525 0.03932454 0.34889936
000240 a4 c5 5d 3e 01 68 a5 3e 0a f4 74 3e 9e 16 2f bf
       0.21657425 0.3230591 0.23921219 -0.68393886
000250 7f 7a 05 3f 90 f6 9f 3d 27 f8 80 3e 07 ab 00 bf
       0.5214004 0.078107 0.25189325 -0.50260967
000260 1e cf de bc dd c6 f8 3e 9b c9 36 3e d4 08 5f be
       -0.02719837 0.4858922 0.17850344 -0.21780711
000270 9f 82 0e be 99 f0 56 be f6 8d 37 be 89 9c b6 3e
       -0.13917015 -0.20990218 -0.17925248 0.35666302
000280 b6 e0 cb bd e7 09 c5 be 0e b8 a0 3e f6 bf 1c bf
       -0.099549696 -0.38484117 0.31390423 -0.6123041
000290 9f 6d 98 3e 01 4b c1 3e c0 9f eb 3e bf 34 9d 3e
       0.29771134 0.37752536 0.46020317 0.30704305
0002a0 32 04 38 3e 1c 61 3c bf cd 3a ff 3e fb 3c a7 3e
       0.1797035 -0.7358568 0.4984955 0.32663712
0002b0 b3 e8 e2 be f2 25 3a 3e 5c 7d 6d 3e 9d d1 0e bf
       -0.4431816 0.18178537 0.23192352 -0.55788594
0002c0 d0 ca 4a bc 67 36 1f 3f f7 c0 23 bf 4f 7f f4 be
       -0.012377456 0.62192386 -0.63966316 -0.4775338
0002d0 f1 7a d0 be af 16 e0 3e 93 69 8a 3d 9d 02 b9 3c
       -0.40718797 0.43767306 0.06758418 0.022584254
0002e0 83 30 c8 3d c6 8c 95 be 16 ce 22 3d 0f 4b 29 bf
       0.09774878 -0.29208964 0.03974732 -0.66130155
0002f0 a9 cd c5 be 52 e0 f5 3e 78 b4 a6 3e d8 33 99 be
       -0.3863347 0.48022705 0.32559562 -0.29922366
000300 73 35 68 3e 5f 1d 4e 3b d8 8a 0f 3f d1 17 0f 3f
       0.2267664 0.0031450612 0.56071234 0.55895716
000310 32 da 0b be 52 0e 84 be 88 4f 28 be c8 07 5e be
       -0.13657454 -0.25792176 -0.16436589 -0.21682656
000320 7b 3e 81 3e e0 1c b5 3e c7 11 a4 3e fd e7 e7 3e
       0.2524298 0.35373592 0.32044813 0.4529418
000330 79 08 02 bf b3 a5 aa be 53 71 0c 3f bc 92 89 3e
       -0.5079418 -0.33329543 0.5486042 0.26869762
000340 3e 54 aa 3e f0 60 0d 3f 89 32 c3 be cd 95 81 3d
       0.33267397 0.5522604 -0.38124493 0.063274
000350 a7 22 49 3f 4b 60 09 bf 49 c1 93 3e d1 d0 e7 be
       0.785685 -0.53662556 0.28858402 -0.45276502
000360 0a 73 0e 3e 9c fc 07 3e 6f f8 d1 3e 20 42 10 3e
       0.13911071 0.13279957 0.41009852 0.14087725
000370 72 5b 21 3e cf ec 19 be 6d 77 03 bf 19 8e db be
       0.1575754 -0.15031742 -0.51354104 -0.4288185
000380 7f 1d 09 bf fa 3e 7f 3d a7 23 44 3f 44 71 c4 be
       -0.5356063 0.06231592 0.766169 -0.38367665
000390 68 6b 13 be e0 3d 49 bf aa b2 42 3e 1c 08 a4 3e
       -0.14396441 -0.7861004 0.19013467 0.32037437
0003a0 41 ef 9b bf 55 64 74 be 10 16 17 be fd d0 9a 3e
       -1.218239 -0.23866399 -0.1475451 0.3023757
0003b0 74 0e 16 3f 34 37 1a bf 90 25 80 3e e6 f3 1d bf
       0.58615804 -0.60240483 0.25028658 -0.61700284
0003c0 10 a4 12 bf 78 b1 2d bf 2f d4 a8 3e 18 38 21 bf
       -0.5728159 -0.6784892 0.32974383 -0.6297622
0003d0 9a 3c 31 be e5 73 2d bf 75 b6 fc be cf d9 86 be
       -0.17308274 -0.67754966 -0.49357954 -0.2633805
0003e0 49 4b 0f 3f 11 fe a8 3e f1 d3 0f 3f 32 36 10 bf
       0.5597425 0.33006337 0.5618277 -0.56332695
0003f0 da cf 7f be bc 59 c1 3e 17 f4 11 bf 64 5c bb 3e
       -0.24981633 0.37763774 -0.57013077 0.36593926

fc3.bias f4 [2]
000000 fa 81 2c be 01 eb 49 3e
       -0.16846457 0.19718553

bn1.weight f4 [256]
000000 6a 45 a0 3f cf 87 9e 3f 7f 96 b4 3f f4 7d 54 3f
       1.2521183 1.2385195 1.4108428 0.8300469
000010 fa 3e 87 3f ad 8e 4c 3f 4f 12 6b 3f 74 12 a0 3f
       1.0566094 0.79905206 0.9182481 1.2505631
000020 db ad 4a 3f fe 89 a7 3f cf 3f 1f 3f 1a 7b ae 3f
       0.7917153 1.3088987 0.6220674 1.3631318
000030 fa 65 87 3f 6f 2c a9 3f ed 98 80 3f a8 cf 51 3f
       1.0577996 1.3216685 1.0046669 0.81957483
000040 d1 8b a3 3f dc 5f 9f 3f ef bc 97 3f d9 c2 64 3f
       1.2777044 1.2451129 1.1854533 0.89359814
000050 70 78 ac 3f 4a 2b 99 3f 2c ba 83 3f 33 4b 74 3f
       1.3474255 1.1966336 1.029119 0.95427245
000060 9a 29 73 3f c8 50 24 3f 5b 60 91 3f 35 8b 97 3f
       0.94985354 0.6418576 1.135753 1.1839358
000070 6a a5 56 3f ce 1c c6 3f d7 7a 97 3f ef a0 c4 3f
       0.8384615 1.547754 1.1834363 1.5361613
000080 49 d1 ab 3f 87 e5 a6 3f d4 d5 1d 3f 7a a3 a7 3f
       1.3423244 1.3038796 0.616544 1.3096764
000090 ff 28 91 3f 1e 2d aa 3f 6c 90 00 40 b6 b5 a9 3f
       1.1340636 1.3295019 2.0088148 1.3258579
0000a0 0a 1d ac 3f cc 65 e9 3d 55 8b c3 3f fe c5 b1 3f
       1.3446362 0.11396369 1.5276896 1.3888547
0000b0 29 20 47 3f ad a8 99 3f bb a0 74 3f e7 7a 9d 3f
       0.7778345 1.2004601 0.95557755 1.2303132
0000c0 9d d0 80 3f ef 9c a8 3f 17 eb af 3f 13 0d 66 3f
       1.0063664 1.3172892 1.3743619 0.898637
0000d0 fb 48 7d 3f 14 fa 22 3f 6e 29 94 3f 0f 26 9c 3f
       0.98939484 0.6366284 1.1575143 1.2199115
0000e0 cf 4f b7 3f d6 66 89 3f 7c 13 3a 3f 14 3c 9f 3f
       1.4321231 1.0734508 0.7268598 1.2440209
0000f0 09 8d 41 3f e9 4d 54 3f 2c 1c ae 3f b2 c8 82 3f
       0.7560583 0.8293138 1.3602347 1.0217497
000100 b4 73 ab 3f e7 2b 93 3f e3 68 48 3f 22 80 93 3f
       1.3394685 1.1497773 0.78285044 1.1523478
000110 f8 8a 8e 3f b0 9b eb 3e 22 1a 81 3f 6f b2 7a 3f
       1.113616 0.46017218 1.00861 0.9792852
000120 b4 33 90 3f 3f b9 9a 3f 29 71 9e 3f 76 91 a3 3f
       1.1265779 1.2087783 1.2378284 1.2778766
000130 3d 3d 42 3f d2 23 89 3e 0a 8d 4b 3f 12 15 ba 3f
       0.7587469 0.2678514 0.79512084 1.453768
000140 b1 72 a7 3f ba 06 77 3f c6 4d 98 3f 5a 7a a1 3f
       1.3081876 0.9649464 1.1898735 1.2615464
000150 34 52 8b 3f f0 75 6f 3f 7b 3c c2 3f 6c 9b b9 3f
       1.0884461 0.93539333 1.5174707 1.4500556
000160 33 f6 da 3e be c4 a0 3f 2b 8a 8d 3f 61 7d c2 3f
       0.4276596 1.2560041 1.105779 1.5194513
000170 81 e6 c1 3f de b3 24 3f 10 17 b5 3f 76 c8 86 3f
       1.5148469 0.64336956 1.4147663 1.0529926
000180 a3 27 5f 3f 57 b9 84 3f d4 1e 96 3f 08 69 93 3f
       0.87169856 1.0369061 1.1728158 1.1516428
000190 1c 83 02 3f 08 e5 90 3f 44 2b 9c 3f eb 01 92 3f
       0.5098131 1.1319895 1.2200704 1.1406835
0001a0 1f 3d 9b 3f c3 66 a4 3f 98 ef a5 3f 83 69 04 3f
       1.2128028 1.284386 1.2963743 0.517235
0001b0 be b5 b7 3f 38 d0 a1 3f c6 86 78 3f 3c 30 bd 3f
       1.4352338 1.2641668 0.9708065 1.4780345
0001c0 1f 41 58 3f 9c e6 9a 3f 50 8b 83 3f ba f2 4b 3f
       0.84474367 1.2101626 1.027689 0.79667246
0001d0 be 3f 38 3f 4b ab b1 3f 3d 3a af 3f 3c 8a 7e 3f
       0.7197226 1.38804 1.3689648 0.9942968
0001e0 ee 94 a4 3f 01 67 b4 3f 09 a2 a0 3f 1c 97 a8 3f
       1.285795 1.4093934 1.2549449 1.3171115
0001f0 23 a1 eb 3e a9 e9 99 3f a7 75 4d 3f 7b 8e 76 3f
       0.46021375 1.2024432 0.8025765 0.9631116
000200 33 a6 22 3f b9 c9 01 3f 42 9c a6 3f 7c 66 94 3f
       0.6353485 0.5069843 1.3016436 1.1593776
000210 59 d8 9a 3f b5 b0 43 3f 65 49 57 3f f5 a5 9e 3f
       1.2097274 0.7644151 0.84096366 1.2394396
000220 40 ea 8f 3f d9 10 84 3f 81 a5 a1 3f 44 78 ac 3f
       1.1243362 1.0317641 1.2628633 1.3474202
000230 79 fd 8e 3f 26 7f 86 3f 13 64 ad 3f e5 19 97 3f
       1.1171104 1.0507553 1.3546165 1.1804777
000240 25 aa 6e 3f d5 32 6c 3f 94 8d af 3f 40 5c 7c 3f
       0.9322837 0.92265064 1.3715081 0.9857826
000250 a8 72 29 3f 68 62 f7 3e fa 04 96 3f 3a 6e 84 3f
       0.66190577 0.48317266 1.1720269 1.0346138
000260 f6 04 31 3f 7d 88 89 3f b9 7e 96 3f 17 ff 93 3f
       0.69148195 1.0744778 1.1757423 1.1562222
000270 40 0e 88 3f 05 16 60 3f 7c 4c 8a 3f cc 1b 2b 3f
       1.0629349 0.875336 1.0804591 0.6683929
000280 df da 97 3f da 5a 4c 3f 21 98 bf 3f 0d 7a 86 3f
       1.1863669 0.7982613 1.4968301 1.0505997
000290 ec 91 aa 3f a7 9f 4e 3e f2 83 4b 3f c0 39 71 3f
       1.3325782 0.2017809 0.7949821 0.94228745
0002a0 ed 7d a8 3f 44 d7 96 3f dd 65 64 3f 2a 66 98 3f
       1.316343 1.1784444 0.8921793 1.1906178
0002b0 ca 65 ab 3f df 5a 66 3f cf 84 f2 3f 11 1a 58 3f
       1.3390439 0.8998241 1.894678 0.84414774
0002c0 dd 55 9b 3f dd 3a ff 3f d6 60 65 3f 4a 32 a0 3f
       1.2135578 1.9939839 0.89600885 1.2515347
0002d0 81 a4 5c 3f d7 6b ce 3e 9c a6 26 3f 9d c7 0e 3f
       0.86188513 0.4031665 0.65097976 0.55773336
0002e0 0a 79 82 3f bb 27 a8 3f 53 ed 81 3f d2 bf 42 3f
       1.0193188 1.3137125 1.0150551 0.76073945
0002f0 0c 0a 76 3f 56 bd a0 3f cf e6 26 3f 12 bc ce 3f
       0.9610908 1.2557781 0.65195936 1.6151145
000300 ba 6c 3d 3f 81 18 94 3f da a9 4d 3f 4b 4e 69 3f
       0.7399403 1.1569978 0.803373 0.9113509
000310 41 bf 7e 3f 85 18 8e 3f a2 8a 61 3f 72 ae 92 3f
       0.9951058 1.1101233 0.8810216 1.1459486
000320 1d 20 39 3f 79 29 9d 3f 1c d7 95 3f a1 bd af 3f
       0.72314626 1.2278281 1.1706271 1.3729745
000330 11 e7 7b 3f c7 40 28 3f 28 0c 9c 3f 88 24 9c 3f
       0.98399454 0.6572384 1.219121 1.2198648
000340 53 76 a8 3f 8d 04 a3 3f 5e 1a 99 3f 00 b5 ad 3f
       1.316111 1.2735764 1.1961172 1.3570862
000350 92 20 22 3f e0 25 87 3f 19 50 9f 3f 28 c7 99 3f
       0.6333095 1.0558434 1.2446319 1.2013903
000360 f2 7e 99 3f ba 06 99 3f 22 47 a9 3f eb 51 3d 3f
       1.1991866 1.1955178 1.3224833 0.7395312
000370 6f 0e a6 3f 00 9d 93 3f 59 43 84 3f c3 c4 de 3f
       1.2973155 1.1532288 1.0333053 1.7403797
000380 12 ed 9a 3f 56 96 b0 3f d0 3a a1 3f a5 e2 ac 3f
       1.2103598 1.3795879 1.2596073 1.3506666
000390 47 cf b4 3f 6d 8e a6 3f ed bf 48 3f 91 be 9f 3f
       1.4125756 1.3012215 0.78417856 1.2480031
0003a0 31 0b 9f 3f 41 a2 92 3f 35 18 b3 3e 84 43 5b 3f
       1.242529 1.1455766 0.34979406 0.85649896
0003b0 6f ea 6f 3f c1 c0 79 3f ab bb 8c 3f a7 25 c3 3f
       0.9371709 0.97559744 1.0994772 1.5245866
0003c0 d5 05 b6 3f b8 3f bf 3f 33 68 ac 3f 78 d5 31 3f
       1.422053 1.494132 1.3469299 0.6946635
0003d0 db f1 fa 3e 61 76 73 3f 35 83 58 3f ec 08 91 3f
       0.49012646 0.95102507 0.84575206 1.1330848
0003e0 24 c5 a3 3f 14 c2 84 3f 98 28 85 3f a8 fb ac 3f
       1.2794538 1.0371728 1.0403013 1.3514299
0003f0 25 25 a6 3f ea fd 99 3f c5 77 d2 3f aa 08 79 3f
       1.2980086 1.2030613 1.6442801 0.97278845

bn1.bias f4 [256]
000000 7b aa be 3d 6b 73 a4 3d c1 1d 28 be 7e cc fc 3d
       0.0930986 0.08029827 -0.164176 0.12343691
000010 12 f4 43 3e 5b 73 b1 3e 65 14 fd 3e a3 b9 66 3d
       0.19136074 0.34658322 0.49429622 0.05632938
000020 07 f9 d9 3d 5a d1 39 bd 7e 48 1e 3e bf 07 79 3e
       0.10643201 -0.04536567 0.15457341 0.24319361
000030 f6 2e 14 3e ad 1e 84 3e e1 4a 87 3e 0c 21 11 3d
       0.14471039 0.25804654 0.26424316 0.035431907
000040 b0 07 6b bc 0c 82 3f 3e b0 6b ea 3d 6c a7 47 be
       -0.014345095 0.18701953 0.11446321 -0.1949746
000050 55 b8 a5 3d fe a1 a4 bd 77 ea aa 3e 45 dc ed 3d
       0.08091799 -0.0803871 0.33382007 0.11614279
000060 6e 9e 96 3d e3 01 58 3e 1f 20 21 3e 2b 1e 11 3d
       0.07354437 0.2109447 0.1573491 0.03542916
000070 fb e5 46 3e cb 2e e9 3c 10 c2 40 3e 06 4c 02 3e
       0.19423668 0.028464695 0.18824029 0.12724313
000080 33 25 44 3d 41 93 28 3a 2a d8 4f bd 92 24 a4 3d
       0.04788704 0.0006430634 -0.05074326 0.08014788
000090 b3 ce f8 bc f3 7a 7d bc 54 15 19 3e 70 c4 17 3e
       -0.030372 -0.015471208 0.14949542 0.14821029
0000a0 09 83 a7 3e 64 49 ae bc ff ef 31 3d 9c 93 e7 3d
       0.3271716 -0.02127523 0.04344177 0.11307451
0000b0 ab 53 1b 3e 06 c9 80 3e 75 12 0d 3e 2a 26 ac 3e
       0.15168636 0.2515337 0.13776572 0.33622867
0000c0 69 08 49 3c db ef b0 3c 9e 56 a3 3e 27 cc 64 3e
       0.012270072 0.021598747 0.3190202 0.22343503
0000d0 80 d4 50 3e 89 94 3b 3d 28 8e 98 3d 65 22 6b 3e
       0.20393562 0.04579595 0.07448989 0.22962339
0000e0 42 e2 05 bd db bd 1a 3e af 9e ad 3e 59 90 9f 3c
       -0.03268648 0.15111487 0.33910128 0.01947801
0000f0 20 81 10 be 2f fa 03 bd 7b 25 52 3d 37 d9 73 3c
       -0.14111757 -0.032221016 0.051305275 0.014883331
000100 2b d3 d3 3d 0e 61 30 3e 7d ea 95 bd de 09 ac 3d
       0.103430115 0.17224523 -0.07320116 0.084003195
000110 ef ac 1a 3d a2 0e 0b 3e dd 47 9f be 33 1b a3 bd
       0.03776258 0.135798 -0.31109515 -0.07964172
000120 5e e9 9b 3d 1c d2 3d 3d 66 08 3e 3e 25 33 b2 bd
       0.07612871 0.046342954 0.18557891 -0.08701161
000130 9d bb f6 3d 98 e3 84 3d 5d 6a 34 be 1b 1f 9a 3e
       0.12047503 0.064887226 -0.176187 0.30101857
000140 90 75 84 3d fd ba ee 3d 6e 0a 0d be 13 04 44 3c
       0.06467736 0.11656759 -0.1377351 0.011963862
000150 42 b4 07 3e db 57 fe 3d 6e b3 5a 3e 68 a7 dc 3d
       0.13252357 0.12419101 0.2135751 0.10774118
000160 9a 44 53 3e 85 dd 8d 3d d2 15 27 3e 67 7e 8e 3e
       0.20631638 0.06927017 0.16316918 0.27830812
000170 53 ce 6e 3e cb 6f a8 3d c7 7d 9b bc be fb 85 3e
       0.23320894 0.08224448 -0.018980874 0.26168627
000180 b9 0d 85 3e c9 21 91 be 2d 36 75 3e f1 21 71 3e
       0.25987032 -0.2834609 0.23946448 0.23548104
000190 6d 33 35 bd 76 9d e7 3c 0b de 4e 3e d0 9f ae 3c
       -0.044238497 0.028273325 0.2020189 0.021316439
0001a0 ab 3f 9c 3e 27 c9 b3 3d 06 26 60 3d 90 11 60 3e
       0.30517325 0.08778601 0.054723762 0.218817
0001b0 1a 0f 5d be 93 8f f6 3d 22 b4 19 3e 44 29 97 3e
       -0.21587792 0.12039103 0.15010121 0.2952367
0001c0 fb 0d 8b 3d 2b bd 7e bd 56 27 79 bd 1d a5 aa 3d
       0.06789776 -0.062192123 -0.06082853 0.08332274
0001d0 bb 99 8f 3e d9 ba b1 3d b0 0b a7 3e 01 e1 10 3d
       0.28046975 0.086782165 0.32626104 0.03537083
0001e0 0d 56 8b 3e 5b e2 bb 3c 15 6f a3 bd 79 c6 66 bd
       0.2721409 0.022935083 -0.079801716 -0.056341622
0001f0 38 b0 71 3e 94 8e 10 3d ec b2 a1 bd fb b8 14 3e
       0.23602378 0.035292223 -0.07895455 0.1452369
000200 15 a6 56 be 50 df 21 bd d7 f7 c2 3d ae 12 26 be
       -0.20961793 -0.039519608 0.09519928 -0.16218063
000210 95 6c 09 be 40 ae 33 3e 61 7d cb 3c 1a c0 55 3e
       -0.13420327 0.1754694 0.024840059 0.20874062
000220 52 47 14 be 67 58 3e 3e c9 3b a9 3e a3 a2 fb 3d
       -0.14480332 0.1858841 0.33053425 0.1228688
000230 85 8e 8e 3d c0 64 ab 3e ba c8 84 3d 16 c9 b7 bd
       0.06960777 0.33475304 0.06483598 -0.08973901
000240 27 eb 8e bc df b4 8d 3d 83 7b 7b 3e 1b 12 1a bd
       -0.017446114 0.06919264 0.24558835 -0.037614923
000250 0d ca 04 3e a1 5f 2b be 12 21 41 be 07 c5 e8 3d
       0.12967701 -0.16735698 -0.18860272 0.11365705
000260 df 7b a3 3d 5d c0 2b 3e e4 d0 5d 3e 2c 79 59 3e
       0.07982611 0.167726 0.21661717 0.2123763
000270 89 68 e9 3d 00 08 a0 3c 87 5e 94 3d 52 45 a9 3e
       0.113968916 0.019535065 0.07244592 0.330607
000280 75 14 3b be 28 83 21 be a3 a1 a5 3d 83 7d a9 3b
       -0.18269522 -0.15772688 0.080874704 0.005172433
000290 6a 81 c1 3c 4c b1 45 3d d1 be 00 3e 24 6a 82 3e
       0.02362128 0.048264787 0.1257279 0.25471604
0002a0 a3 64 e4 bd ce 31 1d 3e d9 25 33 3e e8 a6 a2 be
       -0.111520074 0.1535103 0.17494906 -0.31767964
0002b0 c1 17 d5 bc 1c c6 be 3e f0 7f 79 3e 7c 36 0b bc
       -0.026012303 0.3726052 0.2436521 -0.008496877
0002c0 12 c9 a1 3d fa b0 a8 3d 96 08 b0 3d 34 0d 8f 3d
       0.07899679 0.082368806 0.08595388 0.0698494
0002d0 20 e2 8c bd 7d 24 a0 3d df 35 52 3e d3 9b 7c 3d
       -0.068790674 0.078194596 0.20528363 0.061672043
0002e0 33 95 97 bd a5 f4 99 3e 48 04 0c 3e 3e 45 c4 3e
       -0.07401504 0.3006946 0.13673508 0.38334078
0002f0 e6 26 0d 3e 24 58 5e bd cd 21 44 3d d6 2c 24 3e
       0.1378437 -0.054283276 0.047883797 0.16032729
000300 93 6e d2 bd 48 c4 c6 3d 97 32 72 be b0 08 b4 3e
       -0.102749966 0.097054064 -0.23652111 0.35162878
000310 68 4f 1c 3e 9e 4d 62 bd 88 a2 ee bd ab a2 8d 3d
       0.15264666 -0.055249803 -0.11652094 0.06915792
000320 df b7 a1 3d 84 01 96 3d e5 69 4c 3e b1 c3 9b 3c
       0.07896399 0.07324508 0.1996227 0.019014211
000330 2b 30 a3 bc e1 3f 0d 3e f4 e1 2f 3e 74 a5 09 be
       -0.01992043 0.13793899 0.17176038 -0.13442022
000340 97 c4 39 3c 30 e8 65 bc c4 74 1f 3e dc e0 2b 3e
       0.011338375 -0.014032409 0.15571886 0.16784996
000350 99 78 34 3e dc 06 84 3e 88 7c cf 3c b5 bf 47 3d
       0.1762413 0.25786483 0.025327936 0.04876681
000360 25 a7 25 3e d7 c1 3e 3e 20 dd 11 ba 21 f7 5b 3e
       0.16177042 0.18628632 -0.0005564261 0.21480991
000370 6c c0 4e 39 79 9d 8e be 19 14 f3 3d a3 fc 4b bd
       0.00019717374 -0.27854517 0.11869068 -0.04980148
000380 17 34 38 3e c9 55 32 3e 29 0d 08 3e 90 c9 88 3e
       0.1798862 0.17415537 0.1328627 0.2671628
000390 46 0b 8f bd 8f 57 15 be 8a 3e 8a 3e 01 e3 62 be
       -0.06984572 -0.14584182 0.2700084 -0.22156908
0003a0 09 da ec 3e 30 67 40 3e 08 6f 48 3e 94 4c f2 3d
       0.46260098 0.18789363 0.19573605 0.11831012
0003b0 5b 7c 3e 3e 4a e4 0a be b3 8d f7 3d 75 46 d6 3d
       0.18602125 -0.13563648 0.12087574 0.10462657
0003c0 a9 6c aa be 96 07 3c 3e ba 46 9a 3e 79 18 fc 3d
       -0.33286026 0.18362269 0.30132085 0.12309355
0003d0 af 43 1c 3b ba 1b 7c 3e 44 0e 77 3e a8 78 10 3e
       0.0023844054 0.24619952 0.24126536 0.14108527
0003e0 a3 20 19 3e 29 5d 05 3d 29 db ed 3d fd 0e 08 3e
       0.14953856 0.032559548 0.11614067 0.13286968
0003f0 82 6b b1 3d 8b 99 87 3e 47 69 48 bd 03 51 0c 3e
       0.086630836 0.2648433 -0.048928525 0.13702779
