checkpoints/mad4pg/mad4pg_per0_checkpoint_critic_local.pth (torch, 481447 bytes, 14 tensors)

fc1.weight f4 [256, 52]
0	0x3e4c069e	0.199244
1	0xbe94378a	-0.28948623
2	0x3daaee8d	0.08346281
3	0x3e15fd98	0.1464752
4	0x3e297bb1	0.16551091
5	0xbe8b6c09	-0.27230862
6	0x3e117161	0.14203407
7	0xbd8c0ff0	-0.06838977
8	0x3d8584c6	0.06519465
9	0xbd7d64a4	-0.061863557
10	0x3c8c8ecc	0.017157935
11	0xbc2c8e88	-0.010532029
12	0x3df3d9a6	0.119067475
13	0xbe4a157f	-0.19734763
14	0x3c5bc1d7	0.013412914
15	0xbd1907ea	-0.037361063
16	0x3e68c507	0.2273141
17	0x3ddcb565	0.10776786
18	0xbd13565f	-0.03597104
19	0x3e5794b0	0.21052814
20	0x3e2ff716	0.171841
21	0x3e1eac50	0.1549542
22	0xbdb09dd8	-0.08623856
23	0x3d52dcdb	0.051480155
24	0x3c507fc2	0.012725772
25	0xbf0d94a8	-0.55304956
26	0x3d343cbb	0.04400323
27	0x3c4135ed	0.011792642
28	0xbe19cd20	-0.15019655
29	0xbe64ed8d	-0.22356243
30	0x3d8122a8	0.06305438
31	0x3e1e20d2	0.15442207
32	0xbdc6dfbd	-0.097106434
33	0xbedf91d9	-0.4366596
34	0x3c184b4f	0.009295299
35	0x3acb8005	0.0015525824
36	0xbd27d008	-0.04096988
37	0x3d3a4b06	0.045481704
38	0x3d9efd82	0.077631965
39	0xbdd02e2f	-0.10165059
40	0x3dadedf8	0.084926546
41	0xbf195973	-0.59902114
42	0xbdb1ff07	-0.08691221
43	0x3dc27ce4	0.09496477
44	0xbe10fe09	-0.14159407
45	0xbd60c43e	-0.05487465
46	0x3b0f9cef	0.0021913608
47	0x3cb96f91	0.022636207
48	0xbf1d3138	-0.61403227
49	0x3da2e385	0.07953552
50	0xbeee8718	-0.46587443
51	0xbe8c8aea	-0.27449733
52	0x3dd425ca	0.1035877
53	0x3ea5bd85	0.32371154
54	0x3d908eb1	0.07058466
55	0x3dd542c4	0.10413125
56	0xbbc92714	-0.0061386917
57	0xbe74a818	-0.23892248
58	0x3d8e0f5b	0.069365226
59	0x3d0b3707	0.033988025
60	0x3d62926a	0.055315413
61	0x3ef2ad82	0.47398
62	0x3db5a1ce	0.088687524
63	0x3e503468	0.20332491
64	0xbc3171b3	-0.010830331
65	0xbe80fbd7	-0.2519214
66	0xbe04c42f	-0.12965463
67	0x3e3c55ef	0.18392156
68	0x3df4feb0	0.1196264
69	0x3e6da342	0.23206809
70	0xbd0234a6	-0.03178849
71	0xbe1b46c6	-0.15163717
72	0xbd8e2b2d	-0.06941829
73	0xbd1f9803	-0.03896333
74	0xbc632167	-0.013862944
75	0xbe1814e5	-0.1485172
76	0xbbf6badc	-0.0075295996
77	0xbedab862	-0.42718798
78	0xbd49bcf9	-0.049252484
79	0x3dbdb764	0.092634946
80	0xbdeb2715	-0.11482064
81	0xbdd61319	-0.10452861
82	0x3d05af75	0.032638032
83	0xbe023f59	-0.12719478
84	0xbdd31ea2	-0.10308577
85	0xbee04a7b	-0.43806824
86	0xbce93768	-0.028468803
87	0xbd2e3e6d	-0.042540003
88	0xbdad9454	-0.08475557
89	0xbe248a5e	-0.16068408
90	0x3d3cee27	0.046125557
91	0x3e078638	0.13234794
92	0xbe5b5ec0	-0.21422863
93	0xbe945698	-0.28972316
94	0xbcde5252	-0.027138863
95	0xbe2f4950	-0.1711781
96	0x3d79f1d4	0.06102164
97	0xbe6a3aa8	-0.22873938
98	0x3d0c1e8f	0.03420883
99	0xbd30a021	-0.04312146
100	0x3f934b98	1.1507444
101	0x3d890089	0.06689555
102	0x3e57f08c	0.21087855
103	0xbe1f3fa0	-0.15551615
104	0x3d66b285	0.056322593
105	0xbd6f1527	-0.05836978
106	0xbd28a06b	-0.04116861
107	0xbe080093	-0.13281469
108	0xbdf64323	-0.12024524
109	0xbe25b7a8	-0.1618334
110	0xbd9253f1	-0.07144917
111	0x3d8ff1b0	0.0702852
112	0x3d9b8e8b	0.07595547
113	0xbdccd865	-0.100022115
114	0xbd20e9a6	-0.039285325
115	0x3d5a7749	0.053336415
116	0x3d44864b	0.047979634
117	0x3c8a3970	0.016873091
118	0xbbdc335f	-0.006719991
119	0x3dfbbf8d	0.12292395
120	0x3d692f3d	0.056929816
121	0x3e07d79b	0.1326584
122	0xbcd2bedc	-0.025725774
123	0x3db13cb5	0.08654157
124	0x3dc082cd	0.09399948
125	0xbe8e7d13	-0.278298
126	0x3d1bbb30	0.038020313
127	0x3e24b868	0.1608597
128	0xbcb6ff65	-0.022338578
129	0xbee48727	-0.44634363
130	0xbe0eb8d7	-0.13937698
131	0x3e1eb1a9	0.1549746
132	0xbcb96f8b	-0.022636196
133	0xbe367bc5	-0.17820652
134	0x3d6b1ee6	0.057402514
135	0xbca3ad2f	-0.019980041
136	0xbe1bac41	-0.15202428
137	0xbebc9fb2	-0.36840588
138	0x3b4771e7	0.0030432881
139	0x3dc67d80	0.09691906
140	0xbdb9c9c2	-0.090716854
141	0xbccb4c24	-0.02481658
142	0xbdb60fc4	-0.08889726
143	0xbc37417a	-0.011185044
144	0xbe0e4d00	-0.1389656
145	0xbed72002	-0.42016608
146	0x3e720cde	0.23637721
147	0xbdbec8b7	-0.09315627
148	0xbe539a0c	-0.20664233
149	0xbeba05ae	-0.36332458
150	0x3e340ca5	0.17582949
151	0x3d42a875	0.047523934
152	0x3e96ca4c	0.29451215
153	0x3d29d920	0.041466832
154	0x3d8b9ff6	0.068176195
155	0x3d63fd84	0.055661693
156	0xbd860398	-0.06543654
157	0xbe360ca1	-0.17778255
158	0x3bb582da	0.0055392804
159	0x3da8eacc	0.08247909
160	0xbf107b68	-0.56438303
161	0xbd4f2108	-0.05056861
162	0xbd2f5f56	-0.04281553
163	0x3e4043f5	0.18775924
164	0x3e3a7248	0.18207657
165	0xbd2dc691	-0.042425696
166	0xbdf706f6	-0.120618746
167	0x3d823426	0.06357603
168	0xbe870914	-0.26374114
169	0x3d9c234f	0.07623922
170	0x3da26bfd	0.079307534
171	0xbd785539	-0.06062815
172	0x3e583714	0.2111476
173	0xbe679c04	-0.22618109
174	0x3d0268fb	0.0318384
175	0x3e8a044e	0.2695641
176	0xbea6d0b0	-0.3258109
177	0x3cc15444	0.023599751
178	0xbd67508c	-0.0564733
179	0x3ec989a4	0.39362824
180	0xbe0b18c5	-0.13583668
181	0x3e0bf1fd	0.1366653
182	0x3d7b3104	0.06132604
183	0xbdbde476	-0.09272091
184	0x3f207d29	0.6269098
185	0x3daa103a	0.08303876
186	0x3b4905e4	0.0030673677
187	0x3e18f886	0.14938554
188	0xbdb4b55d	-0.08823655
189	0x3d95c795	0.07313458
190	0x3de87464	0.11350325
191	0x3c98c1a5	0.018647024
192	0x3ebbfe88	0.3671763
193	0xbd512a60	-0.051065803
194	0xbe07ae71	-0.13250138
195	0xbde25c73	-0.110527895
196	0x3dde7b39	0.108633466
197	0xbdab3f2b	-0.08361658
198	0x3d1c5d61	0.03817499
199	0x3dd65eae	0.104672775
200	0x3e5a84b5	0.21339686
201	0x3e4ff35c	0.20307678
202	0xbdbb7d38	-0.09154743
203	0x3d00a285	0.03140499
204	0x3eaf4a73	0.34236488
205	0x3e2790a7	0.16363774
206	0xbdc6f6cf	-0.09715044
207	0xbf0c59c0	-0.5482445
208	0x3ec15006	0.37756366
209	0xbdfb55d7	-0.12272232
210	0xbb9c6236	-0.00477245
211	0xbd49da10	-0.049280226
212	0x3dd9ed21	0.10640932
213	0x3da3ae3b	0.07992216
214	0xbd03db64	-0.03219165
215	0x3dba2cbf	0.09090566
216	0x3ea3d8c8	0.32001328
217	0x3d56fabe	0.05248522
218	0x3c396f20	0.011317998
219	0xbdb79841	-0.08964587
220	0xbd3a38cc	-0.045464322
221	0x3e22cb31	0.15897824
222	0xbdd13ac4	-0.10216287
223	0xbd7566d5	-0.05991252
224	0x3e7702e2	0.24122193
225	0xbde90cb3	-0.11379375
226	0xbd10a9e5	-0.035318274
227	0xbc105ef1	-0.008811698
228	0xbe04c089	-0.12964071
229	0x3e538bc3	0.20658784
230	0x3da15806	0.07878117
231	0x3d9ff3d8	0.078101814
232	0xbbc246f8	-0.0059288703
233	0xbe0c7363	-0.13715892
234	0x3d7d960f	0.061910685
235	0x3e0da296	0.13831553
236	0xbd8ba8b7	-0.06819289
237	0x3db30eaf	0.08743035
238	0xbd88ec5f	-0.06685709
239	0x3d716873	0.0589375
240	0xbc621425	-0.013798748
241	0x3e2cdfd8	0.16882265
242	0x3d4a2a01	0.049356464
243	0x3e3bd78e	0.18343946
244	0xbcc4f012	-0.024040256
245	0x3db710f8	0.089387834
246	0xbcad6762	-0.02116746
247	0x3e9a2439	0.3010576
248	0xbe284b61	-0.16435005
249	0xbd8fffeb	-0.07031234
250	0xbd0fc668	-0.035101324
251	0x3cd5f03c	0.02611553
252	0x3da858cf	0.08220064
253	0x3ea88bfc	0.329193
254	0x3c6a7050	0.014309004
255	0xbda2a9f3	-0.079425715

fc1.bias f4 [256]
0	0x3c80a796	0.015704911
1	0xbc2d90ee	-0.010593636
2	0x3d1d66b4	0.038428023
3	0xbe8a27b0	-0.26983404
4	0xbe0ae788	-0.13564885
5	0xbe1a8485	-0.15089615
6	0xbe6aa431	-0.22914197
7	0xbd60819c	-0.054811105
8	0x3d0f3e99	0.034971807
9	0xbcd01686	-0.025401365
10	0x3da1540c	0.07877359
11	0xbd4eb315	-0.050463755
12	0x3c766194	0.015037913
13	0x3d4b16b0	0.049582183
14	0xbdf1eef4	-0.11813155
15	0x3d98067a	0.0742311
16	0xbe4f86b2	-0.20266226
17	0xbebc0877	-0.36725208
18	0xbd3b8ad2	-0.045786686
19	0xbe899253	-0.2686945
20	0xbd8bd638	-0.06827968
21	0x3bb97da1	0.005660728
22	0xbdc88997	-0.09791868
23	0xbd878700	-0.06617546
24	0xbdbb3acb	-0.09142073
25	0x3ca7dddd	0.020491535
26	0xbd6e4037	-0.05816671
27	0xbdafe54d	-0.085886575
28	0xbd9aa6d1	-0.07551349
29	0xbe5d0043	-0.21582131
30	0xbba8ccb8	-0.0051513575
31	0xbdb64cc7	-0.08901363
32	0xbd5a0a66	-0.053232573
33	0xbca4786f	-0.020076958
34	0xbba330e8	-0.0049801953
35	0xbea5dcab	-0.3239492
36	0x3e0784dc	0.13234276
37	0xbdceabb3	-0.10091343
38	0x3d7f72a9	0.062365208
39	0xbe4cb32d	-0.19990225
40	0xbd0cc1b4	-0.034364417
41	0xbd2f032a	-0.042727627
42	0xbe1e255a	-0.15443936
43	0xbe7d57d9	-0.24740542
44	0xbc50bd64	-0.012740467
45	0xbde8ea82	-0.11372854
46	0xbeb4e722	-0.3533259
47	0xbe2903e4	-0.1650539
48	0xbe2534c9	-0.16133417
49	0xbd12bcaa	-0.035824455
50	0xbc9390ee	-0.018013444
51	0xba7b75da	-0.00095924514
52	0x3d665e90	0.056242526
53	0xbe2ae5a6	-0.16689166
54	0x3d6f064b	0.05835561
55	0x3de3c6b7	0.11121886
56	0xbe95c907	-0.29254934
57	0x3cf83b31	0.030301662
58	0x3db7982b	0.089645706
59	0xbe0ac77c	-0.1355266
60	0x3d04408b	0.032288115
61	0xbef6d8c3	-0.4821225
62	0x3c47d4dd	0.012196747
63	0x3dd7f2eb	0.1054438
64	0xbe0195f9	-0.12654866
65	0xbd4c2f24	-0.049849644
66	0xbe9d5df4	-0.30735743
67	0xbcf12a83	-0.029439216
68	0xbdb2a1cb	-0.08722266
69	0x3cd62c2c	0.02614411
70	0x3d93c36b	0.072150074
71	0xbc89a231	-0.016800972
72	0xbdfcdc48	-0.12346703
73	0xbdbbd644	-0.09171727
74	0xbc1ff6e9	-0.009763458
75	0x3d676952	0.056496926
76	0x3e16fb9f	0.14744423
77	0x3be066d0	0.0068481937
78	0x3da04561	0.07825733
79	0xbda31ff1	-0.07965077
80	0xbdee210e	-0.116273984
81	0xbe61569a	-0.22005692
82	0xbe7c7e7a	-0.24657622
83	0xbe932638	-0.28740096
84	0x3cc290ac	0.023750626
85	0x3d8ddd9d	0.06927035
86	0xbd1efee8	-0.038817316
87	0xbeac5676	-0.33659714
88	0xbc699a5d	-0.0142579945
89	0xbaab1d72	-0.001305504
90	0xbdd1b31e	-0.10239242
91	0xbe04c965	-0.12967451
92	0xbe413c88	-0.18870747
93	0xbd490d96	-0.049085222
94	0xbe295604	-0.16536719
95	0x3e06cfef	0.13165258
96	0xbd9f066b	-0.07764896
97	0xbdae60bb	-0.085145436
98	0xbdd0417c	-0.1016874
99	0xbe40e43f	-0.18837069
100	0xbdd6da6f	-0.10490882
101	0xbe353154	-0.17694598
102	0xbe1be3dc	-0.1522364
103	0x3dc8fcc7	0.098138385
104	0xbd2ab53c	-0.041676745
105	0xbebbd76d	-0.36687794
106	0xbe54e25f	-0.20789479
107	0xbdd3e7b3	-0.103469275
108	0x3afe6246	0.001940795
109	0xbe841b26	-0.25801963
110	0xbe53a478	-0.20668209
111	0x3d4dad9a	0.050214387
112	0xbdc60cdc	-0.096704215
113	0xbe1273f9	-0.14302053
114	0x3c537122	0.012905391
115	0xbcd0bb08	-0.025479808
116	0xbe8b51b9	-0.27210787
117	0xbeb1e2f6	-0.3474347
118	0xbda64972	-0.08119477
119	0xbe116fcb	-0.14202802
120	0xbe0bdc18	-0.13658178
121	0xbdc605cc	-0.096690744
122	0xbe9dd4cd	-0.30826417
123	0x3c91f8c8	0.017818823
124	0xbcfc1fcf	-0.030776886
125	0x3e55304f	0.2081921
126	0xbf250626	-0.64462507
127	0xbe70648f	-0.2347586
128	0xbe9b01d2	-0.30274826
129	0x3e10e243	0.14148812
130	0xbe375e95	-0.17907174
131	0xbe89d169	-0.2691758
132	0x3e10370b	0.14083497
133	0xbe05d84b	-0.1307079
134	0xbdb4d33d	-0.08829353
135	0xbe27aa3e	-0.16373536
136	0xbe8621a7	-0.2619755
137	0xbe570cd6	-0.2100099
138	0xbe1be8d4	-0.15225536
139	0x3d25cd1f	0.04047882
140	0xbdece0ad	-0.11566291
141	0xbc8b9728	-0.01703985
142	0xbe114f39	-0.14190377
143	0xbd20de47	-0.03927448
144	0xbd95f520	-0.073221445
145	0x3d7fd8c3	0.06246258
146	0xbca984cf	-0.02069321
147	0x3d5a9cdd	0.053372253
148	0xbc2eb0d1	-0.0106622735
149	0xbe65eed2	-0.22454384
150	0x3d5f01a8	0.05444494
151	0xbd6f9a91	-0.058497015
152	0xbe2723d6	-0.16322264
153	0xbdf807fd	-0.12110899
154	0xbdfd33f2	-0.123634234
155	0xbdb5fcb5	-0.08886091
156	0xbe160706	-0.14651117
157	0x3d2f794e	0.042840295
158	0xbe371118	-0.17877614
159	0xbc01915d	-0.007908192
160	0xbe6df911	-0.23239543
161	0xbe37f445	-0.17964275
162	0xbc7e63ba	-0.015526706
163	0xbe3ffbb0	-0.18748355
164	0xbdf13544	-0.11777738
165	0xbdd28e2f	-0.102810256
166	0xbe00f4ad	-0.12593336
167	0xbe00bc33	-0.12571792
168	0xbe9212bc	-0.28529918
169	0xbeb98d75	-0.36240736
170	0xbe6ec624	-0.23317772
171	0xbea10984	-0.31452572
172	0xbe061074	-0.13092214
173	0xbcaeb957	-0.021328611
174	0xbdbaf15b	-0.09128066
175	0xbe20f3da	-0.15718022
176	0xbe193fdb	-0.14965765
177	0xbea94816	-0.3306281
178	0xbe2476b2	-0.16060904
179	0xbdd03188	-0.10165697
180	0x3d565069	0.05232278
181	0xbc8d1b48	-0.017224923
182	0x3a086efe	0.00052045274
183	0x3c863c4f	0.01638618
184	0x3d81c684	0.06336692
185	0xbcc7b7bf	-0.02437961
186	0xbe8309c2	-0.25593382
187	0xbe4b164b	-0.19832723
188	0xbc31f100	-0.0108606815
189	0xbde67d8c	-0.11254415
190	0xbdc8052c	-0.097666115
191	0x3cb1345e	0.021631416
192	0x3d879dea	0.066219166
193	0x3d7e0a02	0.062021263
194	0x3dae2659	0.08503408
195	0xbe9964c3	-0.29959688
196	0xbcfdd6e2	-0.030986253
197	0xbce1f1b2	-0.02758107
198	0xbe57e6ba	-0.21084109
199	0x3d5c78f5	0.05382629
200	0x3c3e787c	0.011625405
201	0x3e418bda	0.18901005
202	0xbc59e910	-0.013300195
203	0xbd154796	-0.036445223
204	0x3d1d1b3a	0.038356043
205	0x3d03ac93	0.032147
206	0xbe19b07a	-0.15008727
207	0x3de2c012	0.11071791
208	0xbdd03a60	-0.10167384
209	0xbe32d588	-0.17464268
210	0xbe92495b	-0.2857159
211	0x3c69da2a	0.014273206
212	0xbe56adec	-0.20964783
213	0xbeb32266	-0.3498718
214	0xbee47a8a	-0.4462474
215	0x3dc09c69	0.09404833
216	0xbe1d4df7	-0.15361772
217	0xbe8a90bd	-0.27063552
218	0xbea771e6	-0.32704085
219	0xbe78c17a	-0.24292555
220	0xbd5f22d8	-0.05447659
221	0x3d668205	0.05627634
222	0x3db4b994	0.08824459
223	0xbe04ef25	-0.12981851
224	0xbf05ae0d	-0.52218705
225	0xbeac1ba3	-0.33614835
226	0xbbb0e9eb	-0.005398979
227	0xbe23675d	-0.15957399
228	0xbe076df9	-0.13225545
229	0xbe2c7990	-0.16843247
230	0xbe0c0be7	-0.13676415
231	0xbd3190e9	-0.043351088
232	0xbe06fd77	-0.13182627
233	0xbe0345d0	-0.128196
234	0x3d8390f8	0.06424135
235	0xbe38b3c2	-0.18037322
236	0x3caaaa0b	0.020833036
237	0xbea2ba7b	-0.31782898
238	0x3c922be0	0.017843187
239	0xbda54f1d	-0.0807173
240	0xbe2cdcbf	-0.16881083
241	0xbe163ddd	-0.14672036
242	0x3d1db669	0.038504038
243	0xbe17367b	-0.14766876
244	0xbe9e6d14	-0.30942595
245	0xbdd30679	-0.10303969
246	0xbdb73b7c	-0.089468926
247	0xbcf37b81	-0.029721977
248	0x3d835b5f	0.06413912
249	0xbe87a345	-0.26491752
250	0xbe492b64	-0.19645458
251	0xbe295f44	-0.16540247
252	0xbdbae399	-0.09125442
253	0xbdc0a10e	-0.09405719
254	0xbe91d0e6	-0.2847969
255	0xbe5951c8	-0.21222603

fc2.weight f4 [256, 256]
0	0x3cbe45cd	0.023226643
1	0x3c2f903c	0.0107155405
2	0x3d10851d	0.035283197
3	0xbdc5248d	-0.09626112
4	0xbdb199da	-0.08671923
5	0x3e4adcd5	0.19810803
6	0x3d5164ce	0.051121525
7	0xbca13c7e	-0.019682165
8	0x3d94750d	0.07248888
9	0x3e03865e	0.12844226
10	0x3c3d7b87	0.011565096
11	0x3df0e724	0.117628366
12	0x3b8ef73b	0.0043629683
13	0xbd7c26b7	-0.06156036
14	0x3d7c047c	0.061527714
15	0x3c3ad303	0.011402848
16	0xbd0772d3	-0.03306849
17	0x3e373f22	0.17895177
18	0x3e80e080	0.2517128
19	0x3d2008b4	0.0390708
20	0xbdee9eca	-0.1165138
21	0xbd0828c7	-0.033242013
22	0xbc25d22c	-0.01012091
23	0xbcb3b89c	-0.021938615
24	0x3d24da4a	0.04024724
25	0x3ca1d2d2	0.019753847
26	0x3d7785b8	0.06043026
27	0x3de7073c	0.11280677
28	0x3cab65f8	0.020922646
29	0xbdc0ad54	-0.0940806
30	0x3d394d0b	0.04523949
31	0xbd0cbd5d	-0.03436028
32	0xbb8b00f3	-0.0042420565
33	0xbca79af5	-0.020459631
34	0x3d369f07	0.044585254
35	0x3dab45af	0.083629005
36	0xbe428577	-0.18996225
37	0xbd9439e1	-0.07237602
38	0x3da93b18	0.08263224
39	0x3d8b1dc6	0.06792788
40	0x3d2474b7	0.04015037
41	0xbe22a3c7	-0.15882789
42	0xbdf9f560	-0.12205005
43	0xbd582c14	-0.05277641
44	0xbdc0e0a3	-0.09417846
45	0x3d662915	0.056191523
46	0x3de1dd50	0.1102854
47	0x3d6422d9	0.055697296
48	0xbcd14a92	-0.025548253
49	0x3d271e24	0.04080023
50	0x3cf9bf13	0.03048662
51	0x3c46fd5b	0.012145366
52	0xbd91c36d	-0.07117353
53	0x3d2fec45	0.042949934
54	0xbbc8904e	-0.006120718
55	0xbd5ff934	-0.054681018
56	0x3c248124	0.010040555
57	0xbddfdbed	-0.109306194
58	0xbd2ea601	-0.042638782
59	0xbd0ecb02	-0.034861572
60	0x3ca635b3	0.020289278
61	0x3e15c0e0	0.14624357
62	0x3c972c9a	0.018453885
63	0xbdb791aa	-0.0896333
64	0x3da2fe76	0.07958691
65	0x3ba361b2	0.0049860114
66	0x3dcf49ca	0.10121496
67	0x3db890b8	0.09011978
68	0xbd3111f7	-0.043230023
69	0x3c4cdd14	0.012503881
70	0x3e0946c2	0.13405898
71	0x3d8a9b10	0.06767857
72	0xbdba948c	-0.09110364
73	0x3e1219bb	0.14267628
74	0xbc468017	-0.0121155
75	0xbdf41a14	-0.119190365
76	0x3d0a811e	0.033814542
77	0xbce4d0be	-0.027931567
78	0xbcb4a221	-0.022049965
79	0x3dc6b3c3	0.097022556
80	0xbdee7d55	-0.11644999
81	0xbdf1524c	-0.11783275
82	0xbd4d065a	-0.050054885
83	0xbc801dcc	-0.015639208
84	0xbd2f1210	-0.042741835
85	0xbd2dac1e	-0.042400472
86	0x3da89e27	0.0823329
87	0x3dbf42c7	0.09338909
88	0x3c8f81da	0.017517973
89	0xbe86138c	-0.26186788
90	0xbdbd7ca5	-0.0925229
91	0x3ce73721	0.02822453
92	0xbdb3f71a	-0.08787365
93	0xbdfc28e3	-0.12312486
94	0xbd395ed0	-0.045256436
95	0x3ce3c365	0.027803132
96	0x3db8d4f7	0.09024995
97	0x3dc331f9	0.09531016
98	0xba98cedb	-0.0011658327
99	0x3e5d7b7d	0.21629138
100	0x3d109040	0.035293818
101	0xbd972912	-0.073808804
102	0xbdefb90b	-0.11705216
103	0xbd92c595	-0.07166592
104	0xbe467378	-0.19379985
105	0x3dea4b76	0.11440174
106	0xbb9aed1c	-0.0047279727
107	0x3cd50e4d	0.026007796
108	0xbe0d366d	-0.13790293
109	0x3dc18df1	0.09450901
110	0x3d3823d7	0.044956055
111	0xbcdb7dd2	-0.026793394
112	0x3dc9cd3f	0.09853601
113	0xbdb3c46f	-0.08777701
114	0x3dea079a	0.11427231
115	0xbc0fe550	-0.0087827
116	0x3c8d412e	0.017242994
117	0x3cf82bcf	0.030294327
118	0x3d9b3450	0.07578337
119	0x3dec8ca4	0.115502626
120	0xbddb7ae5	-0.107168
121	0x3d9cd65a	0.07658072
122	0xbc912f24	-0.017722674
123	0x38af9322	8.372056e-05
124	0x3d0e2c27	0.034710076
125	0x3dcda94b	0.10042056
126	0x3c35a3f8	0.0110864565
127	0xbdc680bb	-0.09692522
128	0x3df7e6ce	0.121045694
129	0xbe1474f0	-0.14497733
130	0xbe1663c9	-0.14686503
131	0xbc1e3b0a	-0.009657631
132	0xbe052d38	-0.13005531
133	0xbde8378d	-0.113387205
134	0x3d6a302d	0.05717485
135	0x3bae9dda	0.005328876
136	0xbd33abf8	-0.043865174
137	0x3e1e26ed	0.15444537
138	0xbdadb556	-0.08481853
139	0xbd0c0e86	-0.034193538
140	0x3c996e5c	0.018729381
141	0x3d89a644	0.06721166
142	0xbddd0f92	-0.107939854
143	0x3e0b3e6c	0.13598031
144	0xbe0b45fe	-0.13600919
145	0xbd8ccc77	-0.06874936
146	0x3de9938a	0.11405094
147	0x3dc6001c	0.096679896
148	0xbe0ba94a	-0.13638797
149	0x3d3f58d1	0.04671556
150	0xbd9416d1	-0.072309144
151	0xbbc19482	-0.005907596
152	0x3dfe26a0	0.12409711
153	0xbcd41076	-0.025886755
154	0xbdbafa2a	-0.09129746
155	0xbdc53593	-0.09629359
156	0x3da92597	0.08259123
157	0x3cb9ef4a	0.02269711
158	0xbc3007a3	-0.010744008
159	0xbc6409ef	-0.013918384
160	0xbde44376	-0.1114568
161	0x3c2d5503	0.01057935
162	0x3db58be6	0.08864574
163	0xbd8c24a7	-0.068429284
164	0x3e1b7fd8	0.15185487
165	0xbe658b39	-0.2241639
166	0x3d2d6ec1	0.04234195
167	0x3df3a776	0.11897175
168	0x3d4fda11	0.050745074
169	0x3e4fcda9	0.20293297
170	0xba14e6e1	-0.00056801556
171	0x3dbc3c17	0.09191149
172	0xbd9c7db0	-0.076411605
173	0xbd1126d8	-0.035437435
174	0xbd086be0	-0.033306003
175	0xbd1b68a6	-0.037941597
176	0x3e488ee5	0.1958576
177	0xbd618be7	-0.055065062
178	0xbd3bb2bb	-0.045824748
179	0x3e4855c5	0.19563968
180	0xbcbfb2a4	-0.023400612
181	0x3d4c6dd2	0.04990942
182	0xbd8ec0b3	-0.06970348
183	0x3d2bf1d9	0.04197869
184	0x3e4bc5b2	0.19899634
185	0x3da25897	0.079270534
186	0x3e376073	0.17907886
187	0x3da4a428	0.08039123
188	0x3db94ebe	0.09048222
189	0x3e2197cd	0.15780564
190	0x3dfc0fbb	0.12307688
191	0xba373396	-0.0006988583
192	0x3c9054f0	0.017618626
193	0xbc9e520e	-0.019326236
194	0xbe16dd81	-0.14732935
195	0x3e6d2c1e	0.2316136
196	0x3d8e9a65	0.06963042
197	0xbc87619e	-0.01652604
198	0x3e24768f	0.16060852
199	0xbd90be41	-0.07067538
200	0x3d800a8a	0.0625201
201	0x3dca182e	0.09867893
202	0x3d984197	0.07434385
203	0x3c1125f1	0.008859144
204	0x3db723c2	0.08942367
205	0x3cf63185	0.03005291
206	0xbd1b4847	-0.037910726
207	0x3dfc22d7	0.12311333
208	0xbe76bf42	-0.24096397
209	0xbe694db4	-0.22783548
210	0xbc095195	-0.008381267
211	0x3da5b93d	0.08091972
212	0xbd151367	-0.036395457
213	0x3e07bcac	0.13255566
214	0xbd1f279d	-0.038856138
215	0x3d656fa0	0.056014657
216	0xbc94284d	-0.018085623
217	0x3d44ac28	0.048015743
218	0x3e002919	0.12515678
219	0x3d83b3b3	0.06430759
220	0xbe838bac	-0.256925
221	0xbd49c0d4	-0.04925616
222	0x3e28a0dd	0.16467614
223	0x3d0cc2be	0.034365408
224	0xbdaaab4a	-0.08333452
225	0x3dadd0c2	0.08487083
226	0xbdbf381a	-0.093368724
227	0xbdbc7404	-0.09201816
228	0xbcdf2462	-0.027239028
229	0xbbe6775e	-0.0070332726
230	0xbd5861ce	-0.05282765
231	0xbd9837f2	-0.07432546
232	0x3e069b01	0.13145067
233	0xbb80f12c	-0.003935
234	0xbcdcb7f2	-0.02694318
235	0x3bba4cd0	0.0056854263
236	0x3cb4e4ef	0.02208182
237	0x3d2d0dec	0.042249605
238	0xbdb0ce21	-0.08633066
239	0xbcb78dd7	-0.022406502
240	0x3d7a3224	0.061082974
241	0xbe313567	-0.17305528
242	0x3c942ee7	0.018088771
243	0xbdd6af58	-0.10482663
244	0xbcb7ae33	-0.022421932
245	0xbded7de3	-0.115962766
246	0x3d8ebbbb	0.069694005
247	0xbcaef99d	-0.02135926
248	0xbbde80c2	-0.0067902515
249	0xbdbbd34c	-0.09171161
250	0xbe15c760	-0.14626837
251	0xbd63701a	-0.05552683
252	0xbe50e3a2	-0.20399335
253	0xbc097812	-0.008390443
254	0x3c91b867	0.017788125
255	0xbcd494b3	-0.025949812

fc2.bias f4 [256]
0	0xbe0f60f7	-0.14001833
1	0xbe565b3d	-0.20933242
2	0xbe3ce8a5	-0.18448122
3	0xbded561e	-0.11588691
4	0xbe0232b5	-0.12714656
5	0xbde9b4ef	-0.114114635
6	0xbe289a46	-0.164651
7	0xbe15eb56	-0.14640555
8	0xbe13ad86	-0.14421663
9	0xbd7d3bf5	-0.061824758
10	0xbd5e8687	-0.054327514
11	0xbde11859	-0.10990972
12	0xbdcb0680	-0.09913349
13	0xbe156922	-0.14590886
14	0xbe045b76	-0.12925515
15	0x3ba35c48	0.004985366
16	0xbe18e3ce	-0.1493065
17	0xbe1f5e5a	-0.15563336
18	0xbe714260	-0.23560476
19	0xbe114429	-0.14186157
20	0xbdcf5a54	-0.101246506
21	0xbe47004b	-0.19433706
22	0xbe87b6ce	-0.26506656
23	0xbdbac53c	-0.09119651
24	0xbde3d3f0	-0.11124408
25	0xbe2f8cbd	-0.17143531
26	0xbe5c755a	-0.21529141
27	0xbe371e2a	-0.178826
28	0xbdece64f	-0.115673654
29	0xbe139d13	-0.14415388
30	0xbdd44d95	-0.1036636
31	0xbe5444f5	-0.2072943
32	0xbe15e1d9	-0.14636935
33	0xbc13aaf8	-0.00901293
34	0xbe0b06de	-0.13576838
35	0xbe3061ef	-0.17224859
36	0xbe62933d	-0.2212648
37	0xbcf39526	-0.029734205
38	0xbe2acbc8	-0.16679299
39	0x3b89945f	0.0041985954
40	0xbde70e54	-0.1128203
41	0xbe0e6869	-0.13907017
42	0xbd80e841	-0.06294299
43	0xbcfe4e3e	-0.031043168
44	0xbe2eb5e1	-0.17061569
45	0xbd2a5dc0	-0.041593313
46	0xbdf0d29f	-0.11758923
47	0xbdb44f1a	-0.0880415
48	0xbe1179ba	-0.14206591
49	0xbc1181b6	-0.008881023
50	0xbdf8ba30	-0.121448874
51	0xbda33a11	-0.0797006
52	0xbd937eb0	-0.07201898
53	0xbe0c075e	-0.13674685
54	0xbe30ef52	-0.17278793
55	0xbd31f646	-0.043447755
56	0xbe02b1ca	-0.12763134
57	0xbdff4917	-0.12465113
58	0xbdfc31e2	-0.12314202
59	0xbcdb274a	-0.026752133
60	0xbd2de6ee	-0.04245656
61	0xbe3cdbf9	-0.18443288
62	0xbdb05d8c	-0.08611593
63	0xbde55ffa	-0.11199947
64	0xbe1ec0ca	-0.1550323
65	0xbe2eb879	-0.17062558
66	0xbe80374c	-0.25042188
67	0xbd034b97	-0.03205451
68	0xbd839b9e	-0.06426166
69	0xbc8226bd	-0.015887612
70	0xbe24b294	-0.16083747
71	0xbe36b802	-0.17843631
72	0xbe93bf3d	-0.2885684
73	0xbe089de1	-0.13341476
74	0xbdb5d514	-0.08878532
75	0xbec825b4	-0.39091265
76	0xbd892bdc	-0.06697819
77	0x3d75eec5	0.06004216
78	0xbe3a3822	-0.18185475
79	0xbe86164f	-0.26188895
80	0xbdf85606	-0.12125783
81	0xbdb7a017	-0.089660816
82	0xbe190ab3	-0.14945488
83	0xbdfec505	-0.12439922
84	0xbdb377c1	-0.087630756
85	0xbdeb443b	-0.11487623
86	0xbe00dadd	-0.1258349
87	0xbdd32b95	-0.10311047
88	0xbd83dc67	-0.06438523
89	0xbdadc6a1	-0.08485151
90	0xbe59bb21	-0.2126279
91	0xbe8ab1c1	-0.2708874
92	0xbd692952	-0.05692417
93	0xbc5ac99d	-0.013353732
94	0xbe82b9b4	-0.25532305
95	0xbe3f98ff	-0.18710707
96	0xbdab0514	-0.08350578
97	0x3d8d6db1	0.069056876
98	0xbb8d292b	-0.004307886
99	0xbe516b2d	-0.2045104
100	0xbe3f03da	-0.18653813
101	0xbda1a0d0	-0.07892001
102	0xbe08098a	-0.13284889
103	0xbd6ea0c2	-0.05825878
104	0xbe08d4fb	-0.13362496
105	0xbd6c38b5	-0.057671268
106	0xbcb846b9	-0.02249466
107	0xbd0dbbbe	-0.034602873
108	0x3d27ee0a	0.040998496
109	0xbe47bac8	-0.19504845
110	0xbd80ee36	-0.06295435
111	0xbe46379e	-0.19357154
112	0xbd1a5c20	-0.037685513
113	0xbe6f2f97	-0.23357998
114	0xbe2d507b	-0.16925232
115	0xbe37dbee	-0.1795499
116	0xbd115514	-0.035481527
117	0xbddcedab	-0.10787519
118	0xbdb10683	-0.0864382
119	0xbde18343	-0.11011364
120	0xbde89ad3	-0.113576554
121	0xbe34b2b8	-0.17646301
122	0xbe03fbf3	-0.1288908
123	0xbe2637d3	-0.16232233
124	0xba8fd2a3	-0.0010972809
125	0xbdb37ada	-0.087636665
126	0xbe1d2515	-0.15346177
127	0xbce4c712	-0.027926955
128	0xbe30f3c9	-0.17280497
129	0xbe2d2984	-0.16910368
130	0xbd38bff1	-0.045104925
131	0xbdc9998e	-0.09843741
132	0xbe2aadd9	-0.1666788
133	0xbd38e6c2	-0.045141943
134	0xbe18d079	-0.14923276
135	0xbc73acaa	-0.014872709
136	0xbe89b849	-0.2689841
137	0xbe28cd11	-0.16484477
138	0xbdb64041	-0.08898974
139	0x3d3abbb5	0.045589168
140	0xbe6f4ede	-0.23369929
141	0xbe44a9cd	-0.19205399
142	0xbe98ffd2	-0.29882675
143	0xbe1b8e20	-0.15190935
144	0xbd4100dc	-0.04711996
145	0xbda34524	-0.07972172
146	0xbda1da9f	-0.07903027
147	0xbd5aec83	-0.05344821
148	0xbcb1a123	-0.021683281
149	0xbe297693	-0.16549139
150	0xbdce3469	-0.1006859
151	0xbd41bc52	-0.047298737
152	0xbd8ff6c9	-0.070294924
153	0xbe28f015	-0.16497834
154	0xbe593952	-0.21213272
155	0xbdfba30b	-0.12286957
156	0xbe4299cf	-0.19003986
157	0xbd9c04a1	-0.076180704
158	0xbe1c3d6e	-0.15257809
159	0xbdc5edd3	-0.09664502
160	0xbdd9d3db	-0.10636111
161	0xbe06c83f	-0.13162325
162	0xbdaef16c	-0.08542141
163	0xbe0f0a21	-0.13968708
164	0xbe2d1275	-0.16901572
165	0xbe4fb0be	-0.20282266
166	0xbd87347a	-0.06601806
167	0xbe423b94	-0.1896804
168	0xbe203412	-0.15644863
169	0xbdf2f98a	-0.11864002
170	0xbd43d3bf	-0.04780936
171	0xbd88f81f	-0.0668795
172	0xbe7b4875	-0.24539359
173	0xbdf213a7	-0.11820155
174	0xbe2690b8	-0.16266143
175	0xbe6d0bae	-0.23148987
176	0xbdb30341	-0.08740855
177	0xbe0c1de7	-0.13683282
178	0xbdfdd1da	-0.12393542
179	0xbe5ea006	-0.21740732
180	0x3cd95c1d	0.02653318
181	0xbd1fb833	-0.038994025
182	0xbcd70e73	-0.026252007
183	0xbdada776	-0.08479206
184	0xbb87511f	-0.0041295434
185	0xbe0e260a	-0.13881698
186	0x3c70398e	0.01466216
187	0xbdfe8dc2	-0.12429382
188	0xbd0cd42c	-0.03438203
189	0xbe6b2340	-0.22962666
190	0xbde3b829	-0.1111911
191	0xbe15ea1f	-0.14640091
192	0xbe614215	-0.21997865
193	0xbe36b184	-0.17841154
194	0xbdfccc0f	-0.123436086
195	0xbe1ad83c	-0.1512155
196	0xbc10f194	-0.008846659
197	0xbda512b5	-0.08060209
198	0xbd61276c	-0.054969236
199	0xbe4cd274	-0.20002156
200	0xbd9e200d	-0.07720957
201	0xbd94c68b	-0.072644316
202	0xbe38ca03	-0.18045811
203	0xbdec869c	-0.11549112
204	0xbe11f279	-0.14252652
205	0xbdd150b0	-0.10220468
206	0x3d07cd21	0.03315461
207	0xbdc2745e	-0.094948515
208	0xbe2f4531	-0.17116238
209	0xbd9539b5	-0.07286397
210	0xbdff63e2	-0.12470223
211	0x3d37adea	0.04484359
212	0xbe04a360	-0.12952948
213	0xbd879478	-0.06620115
214	0xbdb45f32	-0.088072196
215	0xbe160491	-0.1465018
216	0xbe142ded	-0.14470644
217	0xbe06e92d	-0.13174887
218	0xbd5f21eb	-0.054475706
219	0xbd9b9789	-0.075972624
220	0xbd24d0a2	-0.04023803
221	0xbe6827c3	-0.22671418
222	0xbda2e528	-0.07953864
223	0xbe60acec	-0.21940964
224	0xbe3dfe20	-0.18553972
225	0xbd9efd2a	-0.07763131
226	0xbdb1d641	-0.08683444
227	0xbe32c2e5	-0.17457159
228	0xbe093bf5	-0.13401778
229	0xbda030d7	-0.078218155
230	0xbe0c4d87	-0.1370145
231	0xbdad9634	-0.084759146
232	0xbdc1d006	-0.094635054
233	0xbe039a79	-0.12851895
234	0xbd25a26b	-0.040438097
235	0xbdfeb2e5	-0.12436465
236	0xbdc64253	-0.09680619
237	0xbdc26e3b	-0.09493681
238	0x3ca6fba6	0.020383667
239	0xbe4dac47	-0.2008525
240	0xbe052ee4	-0.13006169
241	0xbe68633c	-0.22694105
242	0xbd7054d3	-0.058674645
243	0xbe08de99	-0.13366164
244	0xbdcd316e	-0.100191936
245	0xbe3579e0	-0.17722273
246	0xbe267449	-0.16255297
247	0xbe1b4227	-0.15161954
248	0x3d09cff8	0.0336456
249	0x3d2b923b	0.041887503
250	0xbd8941f1	-0.067020305
251	0xbe5cf12f	-0.21576379
252	0xbe1bc051	-0.15210082
253	0xbd87d654	-0.06632677
254	0xbe6a023c	-0.22852415
255	0xbe1beedc	-0.15227836

fc3.weight f4 [128, 256]
0	0xbd16b048	-0.03678921
1	0xbd8f83fd	-0.07007597
2	0xbc3e0c2e	-0.011599584
3	0xbdf38802	-0.11891176
4	0x3d475a06	0.048669837
5	0x3d21c627	0.039495613
6	0x3bfd80fa	0.0077363225
7	0xbc727ee7	-0.014800764
8	0x3d1a75c1	0.037709955
9	0x3dc15658	0.09440297
10	0xbb1b56ad	-0.0023702786
11	0x3dc2e33f	0.09516
12	0xbdd276dd	-0.102765776
13	0xbcbe764f	-0.023249773
14	0xbe02ffd2	-0.127929
15	0xbc722226	-0.014778649
16	0x3e3468ec	0.1761815
17	0xbdcb3685	-0.09922508
18	0x3d80fb91	0.062979825
19	0xbd861347	-0.065466456
20	0x3c9da63a	0.019244302
21	0xbda3f99c	-0.080065936
22	0xbc55ceb4	-0.01304977
23	0x3e37863d	0.17922302
24	0xbdea88c6	-0.11451869
25	0x3e0e3489	0.13887228
26	0x3d55e5d6	0.05222114
27	0xbd7cc11c	-0.0617076
28	0x3d15cce8	0.036572367
29	0xbdd6c3d7	-0.10486572
30	0xbc394180	-0.01130712
31	0xbd7c3178	-0.061570615
32	0xbdc40d70	-0.095728755
33	0x3d8596e0	0.06522918
34	0x3c208716	0.009797832
35	0x3d8c26fd	0.06843374
36	0xbe1dcf75	-0.1541117
37	0xbd937b28	-0.072012246
38	0xbc99ba81	-0.01876569
39	0xbe31d15e	-0.17365023
40	0xbd33f9d4	-0.043939427
41	0xbdd8b2da	-0.10580988
42	0x3cc79959	0.024365114
43	0x3de5d633	0.11222496
44	0x3d375b95	0.044765074
45	0xbdcc70db	-0.09982463
46	0x3cda5ae8	0.026654676
47	0xbca47f1f	-0.020080147
48	0xbdfb4b78	-0.12270254
49	0xbdb83541	-0.089945324
50	0x3ca1a53a	0.019732106
51	0xbd9c6bd9	-0.07637758
52	0xbc26f26b	-0.010189633
53	0x3c5acbfd	0.013354299
54	0x3c538ed2	0.012912469
55	0x3ce51007	0.027961744
56	0xbcfc40bd	-0.030792588
57	0x3e33dfdf	0.17565869
58	0xbdec7c43	-0.115471385
59	0x3c9afdfa	0.018919934
60	0xbdde6ad9	-0.10860223
61	0xbca1898e	-0.019718911
62	0x3dee95b7	0.116496496
63	0xbc9bb919	-0.01900916
64	0x3cb94023	0.02261359
65	0x3c281d7d	0.010260937
66	0xbd9b6bc3	-0.07588913
67	0xb952ea0d	-0.00020114351
68	0xbe340fdf	-0.1758418
69	0x3cdc1841	0.026867034
70	0xbde2c31d	-0.11072371
71	0xbd256706	-0.040381454
72	0x3c55b1f9	0.01304292
73	0xbc2e75ae	-0.010648174
74	0x3c8f6046	0.017501961
75	0xbd6d8375	-0.057986695
76	0xbdfe6939	-0.124224134
77	0x3ac89d15	0.0015305603
78	0xbdf9d875	-0.12199489
79	0xbd104765	-0.035224337
80	0xbc15c52c	-0.009141248
81	0xbdbb940a	-0.091590956
82	0x3e15ed0e	0.1464121
83	0x3ced8dab	0.028998217
84	0xbd570d2a	-0.05250279
85	0x3df07719	0.11741466
86	0x3e1abe67	0.15111695
87	0xbd790edd	-0.06080519
88	0xbdd4e92f	-0.10396039
89	0x3c9055ff	0.017619131
90	0xbe6600e1	-0.22461273
91	0x3cc1a76e	0.023639407
92	0xbd8b54da	-0.068032935
93	0x3c84286e	0.01613256
94	0x3b095f06	0.002096118
95	0xbccf535c	-0.025308304
96	0xbd5d6c47	-0.05405834
97	0xbc169a9d	-0.009192136
98	0xbdac3803	-0.08409121
99	0x3d5bac8e	0.053631358
100	0xbcac5515	-0.021036664
101	0xbcc91edb	-0.024550846
102	0xbdba41da	-0.090945914
103	0xbd0f0d67	-0.03492489
104	0xbddc4566	-0.10755424
105	0x3d5d7137	0.05406305
106	0xbc22c40c	-0.0099344365
107	0xbddd489d	-0.108048655
108	0xbd704816	-0.058662497
109	0x3d36d00e	0.04463201
110	0x3d15d89c	0.036583528
111	0xbe202a61	-0.15641166
112	0x3c534f20	0.012897283
113	0xbe39a7ad	-0.1813037
114	0xbccfd074	-0.025367953
115	0xbe0aa4cc	-0.13539428
116	0xbd4847b4	-0.048896506
117	0xbe471fd9	-0.19445743
118	0xbd6b7303	-0.05748273
119	0x3d21da20	0.03951466
120	0xbc2502e6	-0.010071492
121	0xbe13564d	-0.1438839
122	0x3d982b9d	0.074301936
123	0xbd438dca	-0.047742642
124	0x3d41741f	0.047229882
125	0x3db91301	0.09036828
126	0xbd21d117	-0.039506044
127	0x3c98e1c0	0.018662333
128	0x3d99bbc5	0.07506517
129	0xbdbe934b	-0.09305438
130	0x3d82eab8	0.06392425
131	0xbb71fb94	-0.0036923634
132	0x3c96853f	0.018374084
133	0xbd36711e	-0.04454147
134	0x3c40d43c	0.011769351
135	0x3d917280	0.07101917
136	0xbd2aa6c6	-0.041662954
137	0xbdc6c457	-0.097054176
138	0xbe26d4c1	-0.16292097
139	0x3d812c9f	0.06307339
140	0xbdefe550	-0.1171366
141	0xbd5ae34e	-0.05343943
142	0xbcc17cb0	-0.023619026
143	0xbe50c0a0	-0.2038598
144	0xbca4748b	-0.020075103
145	0x3cb68d23	0.022284096
146	0xbbdb534d	-0.00669328
147	0xbe28dbae	-0.16490051
148	0x3ddfe6d0	0.10932696
149	0xbd12cf03	-0.035841953
150	0x3c339eae	0.010963125
151	0x3e3f8872	0.18704394
152	0xbdff1948	-0.12455994
153	0x3dbb7d26	0.091547295
154	0xbdf8a67c	-0.121411294
155	0xbb9ad192	-0.0047246898
156	0xbd729105	-0.059220333
157	0xbcefac5b	-0.02925699
158	0xbd9eb940	-0.077501774
159	0xbe0457f3	-0.12924175
160	0xbda73c2c	-0.08165774
161	0xbe484d54	-0.19560748
162	0xbbcc8648	-0.0062415935
163	0x3d2d6dc0	0.042340994
164	0xbe1cce23	-0.1531301
165	0xbd1cb19a	-0.03825531
166	0xbe5a6d99	-0.2133087
167	0xbe0496dc	-0.12948173
168	0x3d1a25fb	0.037633877
169	0x3d28bc42	0.04119516
170	0xbd97e5c6	-0.07416873
171	0xbe5a8839	-0.21341027
172	0xbb8ba28c	-0.0042613205
173	0x3d8cce29	0.068752594
174	0xbcfed869	-0.031109052
175	0x3d1b3964	0.03789653
176	0x3c55bd68	0.013045646
177	0x3d3d18f8	0.04616639
178	0x3d495ce2	0.049160846
179	0x3bb0782e	0.0053854203
180	0xbd5db241	-0.054125074
181	0x3def1756	0.11674373
182	0x3b971206	0.004610303
183	0xbd3d8591	-0.046269957
184	0x3d8aa68c	0.067700475
185	0x3be02502	0.006840349
186	0xbdc758d8	-0.097337425
187	0x3cc0aa0b	0.023518583
188	0x3b339150	0.0027399845
189	0x3dad4429	0.08460266
190	0xbd2fc955	-0.042916615
191	0x3b735ce6	0.003713423
192	0x3da44e58	0.080227554
193	0xbd640f1e	-0.05567848
194	0xbd980a72	-0.07423867
195	0x3d2ab5ce	0.04167729
196	0xbc2fe898	-0.010736607
197	0xbe21b187	-0.15790378
198	0xbd359739	-0.04433367
199	0xbd7aa4ed	-0.06119244
200	0x3c8055f2	0.015665982
201	0xbdc1cdfd	-0.09463117
202	0xbe048e6d	-0.12944956
203	0xbc8f5924	-0.01749856
204	0xbdbade25	-0.09124402
205	0xbc96bdbf	-0.018401025
206	0x3dc52459	0.096260734
207	0xbe1e0b7b	-0.15434067
208	0xbd1d3157	-0.038377132
209	0xbdc1fb68	-0.0947178
210	0xbdf2123c	-0.11819884
211	0x3b91b60a	0.0044467496
212	0xbd91e62e	-0.071239814
213	0xb92318d2	-0.00015554138
214	0xbe0cfd7d	-0.13768573
215	0xbd860980	-0.06544781
216	0xbcfa4e24	-0.030554838
217	0x3de0cb16	0.109762356
218	0xbd81841d	-0.06324027
219	0xbdccdf69	-0.100035496
220	0x3d64ff03	0.05590726
221	0xbe027c20	-0.12742662
222	0xbd94ab36	-0.072592184
223	0xbdd79f3f	-0.10528421
224	0xbd340481	-0.043949608
225	0x3bbc95bf	0.005755156
226	0xbdcff1f6	-0.10153572
227	0xbc81148e	-0.015756872
228	0x3aa6cbcf	0.0012725535
229	0xbdda1bb5	-0.10649816
230	0xbd74696a	-0.059670843
231	0xbb3b2feb	-0.0028562497
232	0x3d380be7	0.044933226
233	0x3da12b1b	0.0786955
234	0xbcb24546	-0.021761548
235	0xbc96bbd5	-0.018400112
236	0xbd6c2244	-0.057649866
237	0xbe1af8b4	-0.15133935
238	0x3d8f48fe	0.06996344
239	0xbd938c6f	-0.0720452
240	0xbe41963a	-0.18904963
241	0xbd947a66	-0.07249908
242	0x3d4aed82	0.04954291
243	0xbd1e5157	-0.03865179
244	0x3ce6c2c7	0.028169049
245	0xbdc8956a	-0.097941235
246	0x3da56a0b	0.08076867
247	0xbe121a3d	-0.14267822
248	0xbcb80320	-0.022462428
249	0x3dabd510	0.08390248
250	0xbc3ceeb9	-0.011531525
251	0xbdedc369	-0.11609537
252	0x3d38b417	0.045093622
253	0x3d20f48a	0.03929571
254	0xbc07d7e6	-0.00829122
255	0xbd240f14	-0.040053442

fc3.bias f4 [128]
0	0xbda92f5d	-0.08260987
1	0x3e30cdcb	0.17266004
2	0x3cf71ac8	0.030164137
3	0xbd0e5aa8	-0.034754425
4	0x3e412f78	0.18865764
5	0xbcf68ff2	-0.030097935
6	0xbd4f0709	-0.05054382
7	0x3cef18d8	0.029186651
8	0x3df9b9bf	0.121936314
9	0xbda868c2	-0.08223106
10	0xbd843831	-0.0645603
11	0x3d5f0da4	0.054456368
12	0xbdbdf853	-0.0927588
13	0xbdde94db	-0.10868236
14	0xbcfd0cd0	-0.030889899
15	0x3d2bcb00	0.041941643
16	0xbd872e9b	-0.06600686
17	0xbd11c1b9	-0.03558514
18	0x3d381108	0.044938117
19	0xbd455a38	-0.048181742
20	0xbd8b7089	-0.06808574
21	0xbd91aca6	-0.07113008
22	0xbd11e150	-0.035615265
23	0x3db71ff9	0.08941645
24	0xbcabdbad	-0.020978773
25	0xbc1ab0ce	-0.009441568
26	0xbe13c302	-0.14429858
27	0xbd8809fa	-0.06642528
28	0xbdc898d7	-0.09794777
29	0x3e2e640a	0.1703035
30	0x3cc969fa	0.024586666
31	0xbd1c9a5d	-0.03823315
32	0x3d5435ef	0.051809248
33	0xbd25c343	-0.04046942
34	0x3c9d417e	0.019196268
35	0x3d0e6113	0.034760546
36	0x3c8d24d6	0.017229479
37	0xbd9401d5	-0.07226912
38	0xbd902607	-0.07038503
39	0x3cfabe2d	0.030608261
40	0x3cbb1f82	0.022842173
41	0xbc400c7e	-0.011721728
42	0xbd63cd8d	-0.05561595
43	0xbdac07ab	-0.083999
44	0x3de1d4a4	0.11026886
45	0x3c033872	0.008009063
46	0x3adcace4	0.0016836193
47	0xbd658255	-0.056032497
48	0x3e177e33	0.14794235
49	0x3de87c58	0.11351842
50	0xbce8a7f9	-0.028400408
51	0x3c32a65a	0.010903919
52	0xbcacf5a0	-0.021113217
53	0x3a8e3885	0.0010850584
54	0xbd3e15e4	-0.046407595
55	0xbd26eb3a	-0.040751673
56	0xbc554696	-0.013017317
57	0xbd911fea	-0.07086165
58	0xbcb759ba	-0.022381652
59	0x3c40b38c	0.011761557
60	0xbdaa07c0	-0.083022594
61	0xbdb4a88e	-0.08821212
62	0x3d1a7e92	0.037718363
63	0x3cc312fd	0.023812765
64	0xbcd47a7b	-0.02593731
65	0xbd8b9130	-0.06814802
66	0xbda6b924	-0.081407815
67	0xbda5b0fd	-0.080903985
68	0xbd7d4693	-0.061834883
69	0x3da24fd2	0.07925381
70	0xbd3f1b3f	-0.046656843
71	0x3ca7493c	0.020420663
72	0xbe05374f	-0.1300938
73	0x3da931f9	0.08261485
74	0xbd89af6d	-0.06722913
75	0x3c006f34	0.007839013
76	0x3d33e777	0.043921914
77	0xbdbf0ec4	-0.09328988
78	0xbd1169a3	-0.035501134
79	0xbd9f4492	-0.077767506
80	0xbdee5a9b	-0.11638375
81	0x3c01ea34	0.0079293735
82	0xbd2d70f7	-0.04234406
83	0xbdac278e	-0.08405982
84	0xbc993c10	-0.018705398
85	0x3d523dec	0.051328585
86	0xbd692137	-0.05691644
87	0x3e0e3db3	0.13890724
88	0xbd8ce2c2	-0.06879188
89	0x3dc588a0	0.096452
90	0x3f0918df	0.53553575
91	0x3c9f9dee	0.019484486
92	0x3c3802fd	0.011231181
93	0x3dd4ce51	0.10390914
94	0xbc94fd43	-0.01818717
95	0xbdadc30e	-0.08484469
96	0x3edf8f31	0.43663934
97	0xbd87ce02	-0.0663109
98	0x3e02105e	0.12701556
99	0xbcdfe221	-0.027329506
100	0xbd9f3cfe	-0.07775305
101	0x3a1fcd2c	0.00060959416
102	0x3da140c8	0.07873684
103	0xbda8e04f	-0.082459085
104	0xbd5af845	-0.053459425
105	0xbb9f037a	-0.0048527094
106	0x3b774ecf	0.0037736183
107	0xbdc85a55	-0.097828545
108	0xbd648caa	-0.05579821
109	0x3a945a56	0.0011318426
110	0xbb9fd93b	-0.004878191
111	0xbd47d62b	-0.04878823
112	0xbdc0fd89	-0.09423358
113	0xbd9c3674	-0.076275736
114	0x3e01fc84	0.12693983
115	0x3e7012f4	0.2344473
116	0x3d199cd8	0.037503093
117	0xbd8fc999	-0.070208736
118	0xbe2436b9	-0.160365
119	0xbdade2db	-0.08490535
120	0x3d94c2be	0.072637066
121	0x3df4ac4e	0.11946927
122	0x3e97ebed	0.29672185
123	0x3d869cae	0.06572853
124	0xbc524d53	-0.012835818
125	0x3ab5562d	0.0013834886
126	0x3d0eb907	0.034844425
127	0xbd538db0	-0.051648796

fc4.weight f4 [32, 128]
0	0x3aea89a3	0.0017893802
1	0xbe3d3c30	-0.18479991
2	0x3ce7badb	0.028287342
3	0xbe0855e8	-0.1331402
4	0x3c847444	0.016168721
5	0xbd54062d	-0.051763702
6	0xbe505898	-0.20346296
7	0xbdeb54a3	-0.114907525
8	0xbde3d6fe	-0.11124991
9	0xbd375a1a	-0.044763662
10	0xbcd0baba	-0.025479663
11	0x3e2751fe	0.16339871
12	0xbca2095f	-0.01977986
13	0x3d8c7a79	0.06859297
14	0x3da12b0f	0.07869541
15	0xbc0698ad	-0.008215112
16	0x3dbaa3e8	0.09113294
17	0x3e0ecc32	0.13945082
18	0xbdeed55d	-0.116617896
19	0x3e31ee3a	0.17376032
20	0xbaa320e5	-0.0012445716
21	0x3e321b04	0.17393118
22	0x3e05fb38	0.13084114
23	0xbe4f1c99	-0.20225753
24	0x3db22eb0	0.08700311
25	0x3db9e886	0.090775535
26	0xbe5bdb38	-0.21470344
27	0x3be8f53b	0.007109312
28	0xbe0d2efd	-0.13787456
29	0xbd420af1	-0.047373716
30	0x3e2256b6	0.1585339
31	0x3d63dbe9	0.055629645
32	0x3dce1508	0.10062605
33	0x3d3c3a80	0.045954227
34	0xbd72468b	-0.059149306
35	0x3a4d4d15	0.00078316155
36	0xbda7778a	-0.08177097
37	0x3dc06568	0.09394342
38	0x38fe27ab	0.000121190526
39	0xbc996c8a	-0.018728513
40	0x3e251dc8	0.16124642
41	0x3e29539c	0.165358
42	0xbdad3b12	-0.084585324
43	0xbe56c161	-0.20972206
44	0xbc06002c	-0.008178752
45	0xb9d07c84	-0.00039765623
46	0x3a8d4ba4	0.0010779989
47	0x3dd4a647	0.103832774
48	0x3b8b3f9e	0.004249527
49	0x3c7f775e	0.015592424
50	0xbe3f20c1	-0.18664838
51	0x3e0ac7e7	0.13552819
52	0x3e0d8940	0.13821888
53	0xbcfcfdba	-0.030882705
54	0xbe38e394	-0.18055564
55	0xbe310a39	-0.17289056
56	0xbe47c213	-0.19507627
57	0xbde1a8f6	-0.11018555
58	0xbd7520d8	-0.059845775
59	0x3dcf70e8	0.10128957
60	0x3e01dadb	0.12681143
61	0xbe1452b6	-0.14484677
62	0xbe05855e	-0.13039157
63	0xbe380a0a	-0.1797258
64	0x3db69140	0.08914423
65	0xbe55c919	-0.20877494
66	0xbdd56549	-0.10419709
67	0xbd9312c1	-0.071813114
68	0x3e10d070	0.14142013
69	0xbd76c297	-0.06024417
70	0x3e1c2a72	0.15250567
71	0xbe11b051	-0.14227416
72	0xbe00561d	-0.1253285
73	0xbe4fed58	-0.20305383
74	0x3db08869	0.08619768
75	0x3e3f6347	0.18690215
76	0xbe09207b	-0.13391297
77	0xbd42b113	-0.047532152
78	0xbe319798	-0.17342985
79	0x3db8bfa4	0.090209275
80	0xbdc05d21	-0.09392763
81	0xbdbe1591	-0.09281457
82	0x3dc881a8	0.09790355
83	0xbba37e94	-0.0049894545
84	0xbde69dd0	-0.11260569
85	0xbcd5cece	-0.026099589
86	0xbe45d8f8	-0.19321048
87	0xbe4e1283	-0.20124249
88	0xbd3980a8	-0.04528871
89	0xbe944a11	-0.28962758
90	0xbe747026	-0.23870906
91	0xbe0945c4	-0.1340552
92	0x3ce1e34b	0.027574202
93	0xbe12c180	-0.14331627
94	0x3d337f5c	0.04382263
95	0xbd9c0009	-0.07617194
96	0xbe8b955f	-0.272624
97	0x3c60fcd8	0.013732158
98	0x3c3f9918	0.011694215
99	0x3dc0a456	0.094063446
100	0xbd9f5a9c	-0.07780954
101	0x3e01e1b4	0.12683755
102	0xbd8b849a	-0.06812401
103	0xbdf6a88e	-0.12043868
104	0x3e1431a7	0.14472066
105	0xbe52066c	-0.20510262
106	0xbd213f85	-0.039367218
107	0xbd80b9b5	-0.06285421
108	0xbe39b072	-0.18133715
109	0xb8b92af9	-8.829492e-05
110	0x3d152c6d	0.03641932
111	0x3cfb5e6c	0.030684672
112	0xbe0e0fdd	-0.13873239
113	0xbc9d5690	-0.019206315
114	0xbe6147a4	-0.21999985
115	0xbe010c94	-0.12602454
116	0xbdc494cf	-0.095986955
117	0x3cd76893	0.026294982
118	0x3e17b782	0.14816096
119	0x3dce6350	0.10077536
120	0x3d48cd65	0.049024004
121	0xbe0e05fa	-0.13869467
122	0x3d65a204	0.056062713
123	0x3ded48a2	0.11586119
124	0xbe4b7c9c	-0.19871753
125	0x3d829dc5	0.063777484
126	0x3e1c5137	0.15265356
127	0xbdff1f61	-0.12457157
128	0xbd22d0b6	-0.039749824
129	0x3dd53ae2	0.10411622
130	0xbd3ad05f	-0.045608874
131	0x3cc83e84	0.024443872
132	0x3c3bec1e	0.011469869
133	0xbddcfe24	-0.10790661
134	0x3dfd18b6	0.12358229
135	0x3e4c451a	0.19948235
136	0x3e19c93b	0.1501817
137	0x3d54a6d4	0.051916912
138	0xbe4d6c25	-0.20060785
139	0x3e799f54	0.24377185
140	0x3c1a9db5	0.009437014
141	0xbe59bb3b	-0.21262829
142	0xbe428a69	-0.18998112
143	0x3def2781	0.11677457
144	0xbe0167a7	-0.12637196
145	0x3db36b91	0.08760751
146	0x3c8ab108	0.016930118
147	0xbf02b6b2	-0.5106002
148	0xbe22561e	-0.15853164
149	0xbeab9be1	-0.33517364
150	0xbd296347	-0.041354444
151	0xbbaccbdc	-0.0052733254
152	0xbf10e2c7	-0.56596035
153	0xbe783e9f	-0.24242638
154	0xbdbf074c	-0.09327564
155	0xbe91d86e	-0.28485435
156	0x3d087fd0	0.033325016
157	0xbc0de1a0	-0.00865975
158	0x3ddfcb44	0.10927442
159	0xbe8c1f3a	-0.27367574
160	0xbd81d255	-0.06338946
161	0xbdaef2e2	-0.0854242
162	0xbe9eeac5	-0.3103849
163	0xbeefb659	-0.46818808
164	0xbd461ba2	-0.048366196
165	0xba70471e	-0.0009165871
166	0x3dcd88d4	0.100358635
167	0x3d9f623c	0.077824086
168	0xbe48ca6b	-0.19608466
169	0xbead3431	-0.3382888
170	0x3c855047	0.01627363
171	0xbdffbf31	-0.12487639
172	0xbd0f20b2	-0.03494329
173	0x3e29eea8	0.16594946
174	0xbe292b25	-0.16520365
175	0xbdf428d2	-0.11921848
176	0x3d49a6c2	0.0492313
177	0xbe060a07	-0.13089763
178	0x3b330dff	0.0027321575
179	0xbeba0a85	-0.3633615
180	0xbe2e89a1	-0.17044689
181	0xbc7629e5	-0.015024637
182	0xbe485d90	-0.19566941
183	0xbe388634	-0.18019944
184	0xbe9a762f	-0.30168292
185	0xbcf1dcaf	-0.029524175
186	0xbe5fe875	-0.21866019
187	0xbccdbb4f	-0.02511373
188	0x3ca59eae	0.020217266
189	0xbe635d4c	-0.22203559
190	0xbf046aa4	-0.5172522
191	0xbf11171b	-0.5667588
192	0x3dc59539	0.096476026
193	0xbf27c005	-0.65527374
194	0xbec8152f	-0.39078662
195	0xbeb5ee3b	-0.35533318
196	0xbdfa24a0	-0.12214017
197	0x3dc1252c	0.09430918
198	0x3e1db9aa	0.15402856
199	0xbd3f567e	-0.046713345
200	0xbd674017	-0.056457605
201	0xbdaa33a7	-0.08310633
202	0xbf25ffd4	-0.6484349
203	0xbd9a0f1e	-0.075224146
204	0x3d5f995f	0.054589625
205	0xbf2a2297	-0.6645903
206	0xbed17f72	-0.40917546
207	0xbe8e6343	-0.27810106
208	0xbdf9741e	-0.12180351
209	0x3e9e7da8	0.30955243
210	0x3c5b4997	0.013384244
211	0xbdd8135b	-0.10550567
212	0xbdce16e7	-0.10062962
213	0xbd58cc89	-0.052929435
214	0x3d545f85	0.051848907
215	0xbd7cf86d	-0.061760355
216	0xbefc563c	-0.49284542
217	0x3c89c70b	0.016818544
218	0xbcde2ec5	-0.02712191
219	0xbd89a2ea	-0.067205265
220	0xbbb4fc9f	-0.005523279
221	0xbcbaa132	-0.022781942
222	0xbe88350d	-0.26602975
223	0x3c984f3a	0.018592466
224	0x3bbcc222	0.005760447
225	0xbf19f7bd	-0.60143644
226	0xbd96687b	-0.07344147
227	0x3d4f3729	0.050589714
228	0xbe90ae8a	-0.28258163
229	0x3d3875ec	0.045034334
230	0xbe94af83	-0.29040155
231	0xbcbec282	-0.023286108
232	0xbe82667a	-0.25468808
233	0xbeca4636	-0.39506692
234	0x3d57897d	0.052621353
235	0xbe7df26a	-0.24799505
236	0xbe0d9884	-0.13827711
237	0x3de38f45	0.11111311
238	0xbea3d93a	-0.32001668
239	0x3d72b4ce	0.05925446
240	0xbd98dce4	-0.074640065
241	0xbeef3ce6	-0.4672615
242	0xbea9a114	-0.33130705
243	0x3e24d6b3	0.16097526
244	0x3cb765da	0.022387434
245	0x3e661985	0.22470672
246	0xbe339cbe	-0.17540261
247	0xbcb9bd2a	-0.022673208
248	0xbbcb1070	-0.006197028
249	0x3e32ba4e	0.17453882
250	0x3dbaab41	0.09114695
251	0xbe7ba0ea	-0.24573103
252	0xbda9ceaa	-0.08291371
253	0xbe374af0	-0.1789968
254	0xbd930af2	-0.07179822
255	0x3d587efa	0.05285547

fc4.bias f4 [32]
0	0xbe5cca95	-0.21561654
1	0x3e45d12b	0.19318072
2	0xbe01ee38	-0.1268853
3	0x3da1ea17	0.07905977
4	0xbcfe0fb4	-0.031013347
5	0xbe3ebd78	-0.18626964
6	0x39cd638b	0.00039174812
7	0xbe5864e1	-0.21132232
8	0xbde8378b	-0.11338719
9	0xbe0e0a6a	-0.1387116
10	0x3dd5e358	0.10443753
11	0xbe22e3c7	-0.15907203
12	0xbd96e0db	-0.073671065
13	0x3e6a98d2	0.22909859
14	0xbe0b907b	-0.13629334
15	0xbdd9bfdc	-0.106322974
16	0x3e1f3cdb	0.15550558
17	0xbe429ab8	-0.19004333
18	0xbe1ef2da	-0.15522328
19	0x3e6791f4	0.2261427
20	0x3e9360a3	0.28784665
21	0xbe125bb3	-0.14292793
22	0xbe2c54cc	-0.16829222
23	0xbe1b8217	-0.15186344
24	0xbdee5224	-0.11636761
25	0xbe58dca2	-0.21177915
26	0xbe0fb46a	-0.14033666
27	0x3e765bad	0.24058409
28	0xbe04a49d	-0.1295342
29	0xbe23cd0d	-0.1599619
30	0xbe1b7b07	-0.1518365
31	0xbe5924fb	-0.21205513
