checkpoints/mad4pg/mad4pg_per1_checkpoint_actor_local.pth (torch, 166151 bytes, 10 tensors)

fc1.weight f4 [256, 24]
0	0xbe392363	-0.18079905
1	0xbdd53009	-0.104095526
2	0x3dfb342f	0.122658126
3	0x3d9a89de	0.07545827
4	0xbe3a7afb	-0.18210976
5	0x3f529148	0.8225293
6	0xbd2c74f3	-0.04210372
7	0x3d68179c	0.05666314
8	0xbe0a277c	-0.13491625
9	0xbe4feb82	-0.20304683
10	0xbd557201	-0.052110676
11	0xbe2ddc4d	-0.1697857
12	0xbc419109	-0.011814364
13	0x3f8c7f81	1.0976411
14	0x3ddc2a4e	0.107502565
15	0xbe2195ce	-0.15779802
16	0xbe58d27d	-0.21174045
17	0xbe578edc	-0.2105059
18	0x3de34468	0.11097032
19	0x3ce8bb0c	0.028409503
20	0xbdabd29f	-0.08389782
21	0x3f9e0110	1.2344074
22	0xbd9587d1	-0.073012955
23	0xbdaec5d1	-0.08533824
24	0xbe0765ff	-0.13222502
25	0x3eb5135c	0.35366333
26	0x3dbe2a84	0.09285453
27	0x3e823707	0.25432608
28	0xbf013dcb	-0.50484914
29	0x3da6cbe5	0.081443585
30	0x3db86c09	0.09004981
31	0x3d7eed7b	0.062238198
32	0x3dd78462	0.10523297
33	0x3e9d37cb	0.3070663
34	0xbe1c7508	-0.15279019
35	0x3ec0597f	0.3756828
36	0xbe8936bf	-0.2679958
37	0xbe849e31	-0.2590194
38	0xbd7aad39	-0.061200354
39	0x3f075b4c	0.5287368
40	0x3d1603db	0.03662477
41	0x3c8b6c23	0.017019337
42	0x3e623cb8	0.22093475
43	0xbe98de4a	-0.29857093
44	0xbe0678ea	-0.13132063
45	0xbea62540	-0.32450294
46	0x3da4849a	0.08033104
47	0xbce7d3f3	-0.028299307
48	0x3e4b8555	0.19875081
49	0x3e99cc66	0.30038756
50	0xbe02fad1	-0.12790991
51	0xbe54691b	-0.2074322
52	0x3de3b01d	0.11117575
53	0xbe7c1365	-0.24616773
54	0xbdbd9feb	-0.092590176
55	0xbd202353	-0.039096188
56	0x3e89b601	0.2689667
57	0x3e4a40db	0.19751303
58	0xbdca3f8a	-0.098754
59	0xbf08ead5	-0.53483325
60	0x3ea9ee8e	0.33189815
61	0xbdeb298c	-0.11482534
62	0xbdaf729b	-0.08566781
63	0xbef4d48f	-0.4781842
64	0x3e727274	0.23676473
65	0x3d3aebc0	0.045634985
66	0xbc441260	-0.011967272
67	0xbeaca1c6	-0.33717173
68	0x3ed6e781	0.41973498
69	0xbeb1551f	-0.34635255
70	0xbe149262	-0.14508966
71	0xbe8057c2	-0.25066954
72	0x3f2fa8ec	0.6861713
73	0xbe2e2d8c	-0.17009562
74	0xbc5a660d	-0.013329995
75	0xbf062c8d	-0.5241173
76	0x3e50d5df	0.20394085
77	0xbd53c1ce	-0.0516985
78	0x3d90fa4c	0.0707899
79	0xbf2bdc6f	-0.6713323
80	0x3ece4aaf	0.40291354
81	0xbe268c4f	-0.16264461
82	0x3d002b7f	0.03129148
83	0xbe796b09	-0.24357237
84	0xbdd9c4ea	-0.106332615
85	0xbde723d6	-0.11286132
86	0xbdd6dca8	-0.104913056
87	0xbd8aef1b	-0.06783887
88	0x3f32bd5b	0.69820184
89	0xbcefdb6f	-0.029279439
90	0x3b79e403	0.003813029
91	0x3dd4b7c7	0.10386615
92	0xbe070ef3	-0.13189296
93	0xbe28df0f	-0.1649134
94	0xbd9be113	-0.07611289
95	0x3d32730f	0.04356676
96	0x3c9fb1ae	0.019493904
97	0xbd73bc4b	-0.059505742
98	0xbd0ef4dc	-0.034901485
99	0x3eee8a79	0.4659002
100	0x3ecdfca3	0.4023181
101	0xbece3cb6	-0.40280694
102	0xbdbd5184	-0.092440635
103	0x3ebf779f	0.3739595
104	0x3b61c09d	0.0034447082
105	0xbd8ad6ab	-0.06779226
106	0xbce0c4aa	-0.027437527
107	0x3e6b6ae3	0.22989993
108	0x3f00565a	0.5013176
109	0xbd0636d8	-0.032767147
110	0x3d3ab189	0.045579467
111	0x3e8853ee	0.26626533
112	0x3d8862d1	0.06659473
113	0xbdb0f561	-0.08640552
114	0x3d4bdf40	0.049773455
115	0x3e71d87e	0.23617741
116	0x3f03a168	0.5141816
117	0x3e414cdc	0.18876976
118	0xbd5f3a58	-0.054499
119	0x3d29f85a	0.041496612
120	0x3ec4895d	0.3838605
121	0x3db73551	0.08945716
122	0xbe316c00	-0.17326355
123	0x3e9118a0	0.283391
124	0x3e1eec97	0.1551994
125	0xbebf3be4	-0.3735038
126	0xbc84b8b3	-0.016201353
127	0x3e40122e	0.18756935
128	0x3e645af5	0.22300322
129	0x3ea2685e	0.3172025
130	0xbd832d2f	-0.064051025
131	0x3cbd02e6	0.023072671
132	0x3ed96c1a	0.42465287
133	0xbed3e7e3	-0.41387853
134	0xbd398533	-0.045293044
135	0x3e49f979	0.19724073
136	0x3ebbb335	0.36660162
137	0x3e7674c4	0.2406798
138	0x3da26a23	0.079304
139	0xbd74c5a6	-0.059758805
140	0x3e006d4a	0.1254169
141	0xbf080d13	-0.5314495
142	0xbe06567f	-0.13118933
143	0xbd3a65dc	-0.045507297
144	0x3dc6f0ed	0.09713922
145	0x3eac06b3	0.3359886
146	0xbe49b739	-0.196988
147	0xbe9e9d51	-0.30979398
148	0xbcbc7f56	-0.023009937
149	0x3ded9784	0.11601165
150	0xbc2ee073	-0.01067363
151	0xbf147273	-0.57987136
152	0xbbf29fbd	-0.007404296
153	0x3e552661	0.20815422
154	0xbd03769d	-0.03209554
155	0xbe5300af	-0.2060573
156	0xbd5a28e4	-0.053261653
157	0x3ec1d592	0.37858254
158	0xbdefa6ef	-0.11701762
159	0xbdb9cdde	-0.09072469
160	0xbe13d963	-0.14438395
161	0x3e1250d7	0.1428865
162	0xbe378202	-0.17920688
163	0xbe177c71	-0.14793564
164	0xbdd0df8d	-0.10198889
165	0x3e2bbda3	0.1677156
166	0xbe5c1a8f	-0.21494506
167	0xbdde34c5	-0.10849909
168	0xb9787944	-0.00023696298
169	0xbf06a252	-0.5259143
170	0xbc97ed3d	-0.018545741
171	0xbe39c6bc	-0.18142217
172	0xbd46ba74	-0.04851766
173	0xbe32576a	-0.17416158
174	0xbd33de3b	-0.043913107
175	0xbe17b2da	-0.1481432
176	0x3d05bda1	0.032651547
177	0xbe55039c	-0.20802158
178	0xbea9b10c	-0.3314289
179	0xbd4e0419	-0.050296877
180	0xbe962959	-0.2932842
181	0xbc8c27a7	-0.017108751
182	0xbe137294	-0.14399177
183	0x3d29802a	0.041381992
184	0x3e726ffc	0.23675531
185	0xbe8f8f9f	-0.28039262
186	0xbea474c0	-0.32120323
187	0xbd673e39	-0.056455825
188	0xbe0d41bc	-0.13794607
189	0xbd9c6455	-0.07636324
190	0xbe5b6a6f	-0.2142732
191	0xbdb2b5da	-0.08726092
192	0xbd2709ef	-0.040780958
193	0xbebeade1	-0.37242034
194	0xbcf776c3	-0.030207997
195	0x3e72522f	0.23664163
196	0xbe942cc0	-0.28940392
197	0xbee40dab	-0.44541678
198	0x3df61293	0.120152615
199	0x3e8c89ee	0.27448982
200	0xbe8fa399	-0.28054503
201	0xbedaf276	-0.42763108
202	0xbe2d8b0c	-0.16947573
203	0x3d8b1e13	0.067928456
204	0x3cb8a841	0.022541167
205	0xbe84b8ba	-0.25922185
206	0xbe1c56bc	-0.15267462
207	0x3e5ead51	0.21745802
208	0xbd086336	-0.03329774
209	0xbeff5b2f	-0.49874255
210	0xb99d0ab9	-0.00029953363
211	0x3f13ca15	0.5773023
212	0x3ebcf3a6	0.3690464
213	0xbe700355	-0.23438771
214	0xbe313852	-0.1730664
215	0x3efb7ffc	0.49121082
216	0x3f21fb45	0.6327403
217	0xbe166f1c	-0.14690822
218	0x3cf4fcef	0.029905764
219	0xbdc1ed7d	-0.094691254
220	0x3e085b9d	0.13316198
221	0xbf137710	-0.5760355
222	0x3d87770c	0.06614503
223	0xbdf9b23c	-0.12192199
224	0x3f1d771b	0.61509866
225	0xbe39bb32	-0.18137816
226	0x3d6a0175	0.057130296
227	0x3d163e6f	0.036680635
228	0x3d70d812	0.05879981
229	0xbe856c91	-0.26059392
230	0xbc5e7a00	-0.013578892
231	0x3d11f6dd	0.035635818
232	0x3f174a2a	0.5909754
233	0xbd87335a	-0.066015914
234	0xbc8c054d	-0.017092371
235	0xbcf230b2	-0.029564235
236	0xbe33dadb	-0.17563955
237	0x3f0d90f7	0.55299324
238	0xbc99207f	-0.018692253
239	0xbdf30b3f	-0.118673794
240	0x3f080302	0.5312959
241	0x3f5864b1	0.8452864
242	0x3c77aa6b	0.015116314
243	0x3dcde1c8	0.1005283
244	0xbe034967	-0.1282097
245	0xbe8b893c	-0.2725314
246	0x3dcf6653	0.10126939
247	0x3e09ba3b	0.13449948
248	0x3e01dace	0.12681124
249	0x3f82de40	1.0224075
250	0xbceb7b1f	-0.028745232
251	0xbd383c35	-0.044979293
252	0x3e2021f7	0.15637957
253	0xbebc2956	-0.36750287
254	0xbdf04b3c	-0.117331
255	0x3dc64f30	0.096830726

fc1.bias f4 [256]
0	0xbe358125	-0.17725046
1	0xbe282a0a	-0.16422287
2	0xbe210d77	-0.15727793
3	0xbf04d0a6	-0.5188087
4	0xbdd7a9b5	-0.10530416
5	0xbdf12d88	-0.117762625
6	0xbe82d257	-0.25551102
7	0xbea8b084	-0.3294717
8	0xbedef5af	-0.43546817
9	0xbee12b01	-0.43978122
10	0xbe2e37d9	-0.17013492
11	0xbe7aff7f	-0.24511527
12	0x3e35e856	0.1776441
13	0xbe77b79c	-0.24191135
14	0xbe9c20d5	-0.304938
15	0xbec6f8f3	-0.38861808
16	0xbe4db0d5	-0.20086987
17	0xbec7a658	-0.38994098
18	0xbe4ba168	-0.1988579
19	0xbe820a49	-0.25398472
20	0xbd84a8d6	-0.064775154
21	0xbf2dd702	-0.679062
22	0xbe853236	-0.2601487
23	0xbec1376e	-0.37737602
24	0x3da99d90	0.08282006
25	0xbeb824b1	-0.35965493
26	0xbeaa0f0a	-0.332146
27	0xbf084b97	-0.5324034
28	0xbecc236a	-0.3987077
29	0xbde8e141	-0.11371089
30	0xbe2f4ffd	-0.17120357
31	0xbda773ff	-0.081764214
32	0xbec1dd0d	-0.3786396
33	0xbe82dfa1	-0.2556124
34	0xbe53e0d2	-0.20691231
35	0xbe5456f2	-0.20736292
36	0xbf01eff8	-0.5075679
37	0xbe2578b2	-0.16159323
38	0xbf11a002	-0.5688478
39	0xbc378aee	-0.011202557
40	0xbee76fac	-0.45202386
41	0xbe8dc1f8	-0.2768705
42	0xbe8b255e	-0.27176946
43	0xbf24b796	-0.6434263
44	0xbe418cd6	-0.18901381
45	0xbeb46301	-0.35231784
46	0x3a8f0db9	0.0010914124
47	0xbe60b554	-0.21944171
48	0xbe70a3a5	-0.23499925
49	0xbd0e7752	-0.03478176
50	0xbea54330	-0.32277822
51	0x3e48307b	0.19549744
52	0xbd95e720	-0.07319474
53	0xbe7a45a1	-0.24440624
54	0xbdff6e59	-0.12472219
55	0xbed028d4	-0.4065615
56	0xbe293fde	-0.1652827
57	0xbe33dccf	-0.175647
58	0xbece30ba	-0.4027155
59	0xbee3f840	-0.44525337
60	0xbeaba7b9	-0.335264
61	0xbe3f2d4e	-0.18669626
62	0x3c9a0840	0.018802762
63	0xbe191af9	-0.14951696
64	0xbea580bd	-0.32324782
65	0xbec646e0	-0.38725948
66	0xbf2215bc	-0.63314414
67	0xbe631385	-0.22175415
68	0xbed7b88c	-0.42132986
69	0xbebc976c	-0.36834276
70	0xbe22c86c	-0.15896767
71	0xbecb825f	-0.39747903
72	0xbe3f6b9b	-0.18693392
73	0xbcdab843	-0.026699191
74	0xbe1afa19	-0.15134467
75	0xbdef483f	-0.11683702
76	0xbe3e8727	-0.18606244
77	0xbe602ca8	-0.21892035
78	0xbea2e08b	-0.31811938
79	0xbe9ad707	-0.30242178
80	0xbeba90e6	-0.36438674
81	0xbe7c4981	-0.24637415
82	0xbdbaf493	-0.0912868
83	0x3daaf416	0.08347337
84	0xbeb621f5	-0.35572782
85	0xbe8f510d	-0.27991524
86	0xbe86202c	-0.2619642
87	0xbe45146e	-0.19246075
88	0xbf1322f8	-0.57475233
89	0x3dd88931	0.10573042
90	0xbed3ab99	-0.41341856
91	0xbdc7ded7	-0.097593
92	0xbebd0367	-0.36916658
93	0xbe6f2209	-0.23352827
94	0xbefd514c	-0.49476087
95	0xbd746753	-0.05966885
96	0xbda461f9	-0.08026499
97	0xbdecc542	-0.115610614
98	0xbe791c95	-0.2432731
99	0xbe6d515d	-0.23175569
100	0xbec85be3	-0.39132604
101	0xbe361144	-0.17780024
102	0xbec2456a	-0.37943584
103	0xbe190f30	-0.149472
104	0x3d269d71	0.04067749
105	0xbddce7ff	-0.10786437
106	0xbf02558d	-0.5091179
107	0x3cd6ab57	0.026204748
108	0xbe0ac117	-0.1355022
109	0xbd792721	-0.06082833
110	0xbf0183e6	-0.50591886
111	0xbcc344f6	-0.023836594
112	0xbe0e9dd4	-0.13927394
113	0xbe9476f7	-0.28997013
114	0xbe107ee5	-0.14110906
115	0xbe3c7d41	-0.18407156
116	0xbea3c25b	-0.3198422
117	0xbe42835f	-0.18995427
118	0x3d17133f	0.03688359
119	0xbdfdc45e	-0.1239097
120	0xbe80a125	-0.25122944
121	0xbe7ccd71	-0.24687745
122	0xbe273ef1	-0.16332604
123	0xbe33c03c	-0.175538
124	0xbee093bd	-0.43862715
125	0xbc6a55d5	-0.0143026905
126	0xbd800c80	-0.06252384
127	0xbeb398f1	-0.35077623
128	0xbed9d1f3	-0.4254299
129	0xbf0d9d90	-0.55318546
130	0xbb18e19a	-0.0023327828
131	0xbdac27c9	-0.08406026
132	0xbe437340	-0.19086933
133	0xbd983389	-0.074317046
134	0xbe46c604	-0.19411474
135	0xbea7e8c5	-0.32794777
136	0xbece0267	-0.40236208
137	0xbedee473	-0.43533668
138	0xbe0bd294	-0.13654548
139	0xbd0a50a4	-0.03376831
140	0xbdc36ed3	-0.095426224
141	0xbea55020	-0.32287693
142	0xbec25270	-0.3795352
143	0xbe033851	-0.12814452
144	0xbcb54a0f	-0.02213004
145	0x3db45f50	0.08807242
146	0xbf37904c	-0.71704555
147	0xbe2c0409	-0.16798414
148	0x3cf00497	0.029299064
149	0xbdb4d238	-0.088291585
150	0xbdaa6b96	-0.08321302
151	0xbe5a1725	-0.21297891
152	0xbf2ee631	-0.68319994
153	0xbed81e41	-0.42210582
154	0xbe953f58	-0.2914989
155	0xbed2c0fa	-0.41162854
156	0xbf05aaa0	-0.5221348
157	0xbe9db359	-0.30800894
158	0xbc6d0fbf	-0.014469086
159	0xbdc917b3	-0.098189734
160	0x3dd4775b	0.10374328
161	0xbdcdc389	-0.10047061
162	0xbe4025fc	-0.1876449
163	0xbe0e3593	-0.13887624
164	0xbdd3eea4	-0.103482515
165	0xbe5d3a23	-0.21604209
166	0xbc4cbdbf	-0.012496411
167	0xbe10e0c4	-0.14148241
168	0xbdc171c5	-0.09445528
169	0xbe820437	-0.2539384
170	0xbd5e8fdb	-0.05433641
171	0xbc640387	-0.013916857
172	0xbd969072	-0.073517695
173	0x3dabfa54	0.08397356
174	0xbe1132a8	-0.1417948
175	0xbed4c9a8	-0.41560102
176	0xbe2ff83f	-0.17184542
177	0xbef611a9	-0.4806035
178	0xbe20a65c	-0.15688461
179	0xbd0fb0c3	-0.035080682
180	0xbed4fd07	-0.41599295
181	0xbd99e237	-0.0751385
182	0xbdc7bbff	-0.09752654
183	0x3cd6d5be	0.026224967
184	0xbee8b982	-0.4545403
185	0xbed7bd14	-0.42136443
186	0xbe4eee9c	-0.2020821
187	0x3d6f287c	0.05838822
188	0xbdc42f52	-0.09579338
189	0xbeb7e606	-0.3591768
190	0xbe737aa3	-0.23777251
191	0xbece941e	-0.4034738
192	0xbf0f7968	-0.56044626
193	0xbe26307c	-0.16229433
194	0xbd3f039c	-0.0466343
195	0xbeae7486	-0.34073275
196	0xbe9c4156	-0.30518597
197	0xbe851145	-0.25989738
198	0xbece700e	-0.40319866
199	0xbec84488	-0.39114785
200	0xbeb0b5d7	-0.34513733
201	0xbe3ea490	-0.18617463
202	0xbdd3a94b	-0.103350244
203	0xbd8f5245	-0.069981135
204	0xbeda02d7	-0.42580292
205	0xbed95994	-0.42451155
206	0x3dc148a2	0.09437682
207	0xbdf079cb	-0.1174198
208	0xbee171e8	-0.44032216
209	0xbe5fcafa	-0.21854773
210	0x3d1a58ad	0.037682224
211	0xbf2046fd	-0.6260832
212	0xbeacf5d6	-0.33781308
213	0x3cc346c8	0.023837462
214	0xbe9adef4	-0.30248225
215	0xbe4ef8c4	-0.20212084
216	0xbef03325	-0.4691402
217	0xbead1b08	-0.33809686
218	0x3da041dd	0.078250624
219	0xbe1c3533	-0.15254669
220	0xbd48a53d	-0.04898571
221	0xbebe9a7a	-0.3722723
222	0xbec1f25a	-0.37880212
223	0xbd6e0417	-0.05810937
224	0xbf264ebb	-0.64963883
225	0xbe680fd3	-0.22662286
226	0xbcc49e73	-0.024001336
227	0xbe802652	-0.25029236
228	0x3d29ab0b	0.041422885
229	0x3d60abb0	0.054851234
230	0xbe5bfea5	-0.21483858
231	0xbe528de0	-0.20561934
232	0xbe713017	-0.23553501
233	0xbeb92027	-0.36157343
234	0xbf129885	-0.57263976
235	0xbee4a367	-0.44655916
236	0xbefbad08	-0.4915545
237	0xbcc22ca1	-0.023702921
238	0x3e0a7dd4	0.13524562
239	0xbd961fb7	-0.07330268
240	0xbec3a738	-0.38213515
241	0xbe99cd09	-0.30039242
242	0xbe507f21	-0.20360996
243	0xbd5bbbcf	-0.053645905
244	0xbd37f75b	-0.04491363
245	0xbeb22dce	-0.3480057
246	0x3b7b736a	0.0038368353
247	0xbdb776e7	-0.08958226
248	0xbf07fe04	-0.5312197
249	0xbe7562d9	-0.23963489
250	0xbe98c137	-0.2983491
251	0x3be7ba72	0.0070717866
252	0x3cc409cf	0.023930458
253	0xbeefe644	-0.46855366
254	0xbe12154f	-0.14265941
255	0xbc621116	-0.013798019

fc2.weight f4 [128, 256]
0	0x3ee9c68d	0.45659295
1	0x3dc4efcf	0.09616052
2	0x3d0fc4e2	0.03509987
3	0x3e957f3c	0.29198635
4	0x3e1b0c93	0.15141515
5	0xbcbda06a	-0.02314778
6	0x3dc87107	0.09787183
7	0xbd52a603	-0.051427852
8	0x3ebb9dd9	0.36643866
9	0xbe1d036e	-0.1533334
10	0xbe6be2a1	-0.23035671
11	0x3e652be9	0.22380032
12	0xbe2834ec	-0.16426438
13	0xbd8d2c61	-0.0689323
14	0xbeb4a5f1	-0.35282853
15	0xbdaacbae	-0.0833963
16	0xbd8c0eeb	-0.06838783
17	0xbe3ac5ae	-0.18239471
18	0xbd2daf1e	-0.042403333
19	0xbede83e2	-0.43459994
20	0x3dd487da	0.10377474
21	0x3ea84306	0.32863635
22	0xbce85f48	-0.028365746
23	0x3e424598	0.1897186
24	0xbd164911	-0.036690775
25	0x3d0a6bd0	0.033794224
26	0xbe90c14c	-0.28272474
27	0x3e5038d0	0.20334172
28	0x3ec03543	0.37540635
29	0xbc0f7f03	-0.008758309
30	0x3e88821c	0.26661766
31	0x3dc1a0bf	0.09454488
32	0x3e92c3c0	0.2866497
33	0x3e1983c9	0.14991678
34	0xbd8ca729	-0.06867821
35	0xbec4b0a3	-0.38416013
36	0xbd13ae79	-0.036055062
37	0xbd527d0b	-0.05138878
38	0xbe26749c	-0.1625542
39	0x3e664efb	0.22491066
40	0x3e369b3c	0.17832655
41	0xbb55ca12	-0.0032621664
42	0x3e5f7275	0.21821006
43	0x3eb41da2	0.35178858
44	0xbd87f915	-0.066393055
45	0x3ec0364b	0.37541422
46	0xbded4ad4	-0.11586538
47	0xbe0aad2a	-0.1354262
48	0xbd6b336e	-0.057422094
49	0x3d0d3027	0.03446975
50	0xbe3ae93b	-0.18253033
51	0x3e08495f	0.13309239
52	0xbe188ec6	-0.14898214
53	0xbe83a347	-0.25710508
54	0x3df3c834	0.1190342
55	0x3e8a8c7f	0.27060315
56	0x3e9f6056	0.31128186
57	0xbde855bc	-0.113444775
58	0xbb361f6d	-0.0027789727
59	0x3dc8ed5e	0.09810899
60	0xbd1cf1f8	-0.038316697
61	0xbe1d9037	-0.15387045
62	0xbe6e65d2	-0.23281029
63	0xbdb06a1b	-0.08613988
64	0x3d39c346	0.045352243
65	0x3e0e5ae3	0.13901858
66	0x3edad194	0.4273802
67	0xbe4c7104	-0.19964987
68	0xbe177699	-0.14791335
69	0x3dd54ffd	0.10415647
70	0xbe9996e9	-0.29997948
71	0x3df698fa	0.12040897
72	0x3dd62cc4	0.10457757
73	0x3d2c868b	0.042120498
74	0x3c737fd7	0.014862022
75	0x3e782272	0.2423189
76	0xbe0236de	-0.12716243
77	0x3ddbb53e	0.107279286
78	0xbe49c563	-0.19704203
79	0x3e35eaef	0.17765401
80	0x3e480f87	0.19537173
81	0xbe6ded02	-0.23234943
82	0x3e2c43ad	0.16822691
83	0xbea8da74	-0.32979167
84	0xbdf1f5b1	-0.1181444
85	0xbd8e7f93	-0.069579266
86	0x3eb9810c	0.36231267
87	0xbe7021b0	-0.23450351
88	0xbf353bc1	-0.707943
89	0xbe3bf6e4	-0.183559
90	0xbe241381	-0.16023065
91	0x3ccd7914	0.025082149
92	0xbe52c9aa	-0.20584741
93	0xbe18dfda	-0.14929143
94	0xbda4515a	-0.08023329
95	0x3d8cd112	0.068758145
96	0xbebaf414	-0.36514342
97	0xbe92e7a4	-0.28692353
98	0xbe323a38	-0.17405021
99	0xbe0ca0a3	-0.13733153
100	0xbdcf81aa	-0.10132153
101	0xbe8d4fdd	-0.27599993
102	0xbd00c1d7	-0.03143486
103	0xbea59528	-0.3234036
104	0xbecc7ed7	-0.3994052
105	0xbee609c7	-0.44929335
106	0x3e8d5f5b	0.27611813
107	0x3e834051	0.25635007
108	0xbdb652d7	-0.08902519
109	0xbe477e5a	-0.19481793
110	0xbd250bd3	-0.04029448
111	0xbe879f6c	-0.26488817
112	0xbdf35714	-0.11881843
113	0xbcaed364	-0.021341033
114	0xbebcb650	-0.36857843
115	0xbe24e68f	-0.16103576
116	0xbd0ff2e6	-0.035143755
117	0xbeb20bfd	-0.3477477
118	0x3b1c3925	0.0023837772
119	0x3ccfdd24	0.025374003
120	0xbea06a60	-0.31331158
121	0xbdbde8b7	-0.092729025
122	0xbe92e954	-0.2869364
123	0x3e2737e9	0.16329922
124	0xbd697270	-0.0569939
125	0xbdc56c55	-0.09639803
126	0xbe1fc1c8	-0.15601265
127	0xbe2ef221	-0.17084552
128	0x3e145bd7	0.14488159
129	0xbe708f52	-0.23492172
130	0xbe7ce8cc	-0.2469818
131	0x3e99ea80	0.30061722
132	0x3f222545	0.6333812
133	0xbe5f7af7	-0.21824251
134	0xbd386fb9	-0.045028422
135	0xbe9da767	-0.3079178
136	0xbb289a1c	-0.0025726622
137	0x3ca2d408	0.019876495
138	0x3d1d1a21	0.038354997
139	0xbe74d775	-0.23910315
140	0x3e303b87	0.17210208
141	0xbea9788d	-0.33099785
142	0x3e7e87bb	0.24856465
143	0xbe6459da	-0.222999
144	0x3de1b3ae	0.11020599
145	0x3d22ac21	0.039714936
146	0xbf1963df	-0.59918016
147	0xbd48d375	-0.049029786
148	0xbe55590c	-0.2083475
149	0xbe0df157	-0.13861595
150	0x3e39ba42	0.18137458
151	0xbd72924e	-0.05922156
152	0xbeadc1a7	-0.33936808
153	0x3e86ccad	0.2632803
154	0xbd299c40	-0.041408777
155	0x3d7206cc	0.059088513
156	0xbe93eca8	-0.28891492
157	0xbeb8b1a8	-0.3607304
158	0x3cf52b9b	0.02992802
159	0x3eb40e90	0.3516736
160	0x3e80913b	0.25110802
161	0xbe8942ed	-0.26808873
162	0x3d9c2100	0.07623482
163	0xbd858e10	-0.06521237
164	0xbd79490c	-0.06086068
165	0x3de977eb	0.11399826
166	0x3ddfdae6	0.109304234
167	0xbc4c68a9	-0.012476125
168	0xbe40bfc9	-0.1882316
169	0x3d88e8f9	0.06685061
170	0x3cf1d428	0.02952011
171	0xbe2f8312	-0.17139843
172	0xbe00dc61	-0.12584068
173	0xbe79de54	-0.24401218
174	0x3e39a694	0.18129951
175	0x3dc05290	0.093907475
176	0xbda5d9c1	-0.08098174
177	0x3e61b64a	0.22042194
178	0x3da77b65	0.081778325
179	0xbe984715	-0.2974173
180	0x3d024306	0.0318022
181	0x3d0fe3ba	0.035129286
182	0xbcce8542	-0.025210027
183	0x3df5426b	0.11975559
184	0x3eadbe69	0.33934334
185	0x3defca25	0.11708478
186	0x3e5c34f8	0.21504581
187	0x3ccd645f	0.025072275
188	0xbd45c6e0	-0.048285365
189	0xbc227f4c	-0.009918045
190	0xbe56cc14	-0.20976287
191	0x3dea324a	0.11435373
192	0xbe2655a4	-0.16243607
193	0x3e180a06	0.14847574
194	0x3e6e44b8	0.23268402
195	0xbd035fdb	-0.032073837
196	0xbd29d3e2	-0.041461833
197	0xbe6cde81	-0.23131754
198	0x3e8b644b	0.27224955
199	0xbd85ba6f	-0.065297
200	0x3dc80d1b	0.09768125
201	0x3e2c391c	0.1681866
202	0xbe8d5a3f	-0.27607915
203	0xbe9a21d8	-0.30103946
204	0x3d651ae1	0.055933837
205	0x39af50bf	0.00033438762
206	0xbe64b63b	-0.2233514
207	0xbd0c5b6c	-0.034266874
208	0x3d8c12f4	0.068395525
209	0xbeba5e8b	-0.36400256
210	0xbdb690cc	-0.089143366
211	0x3dca0b35	0.09865419
212	0xbdaa267a	-0.0830812
213	0xbddbd933	-0.10734787
214	0xbcd26a54	-0.025685467
215	0xbc4143e6	-0.011795973
216	0xbd71d8a4	-0.059044495
217	0xbe705eac	-0.23473614
218	0xbe2d38fe	-0.16916272
219	0xbecaeee3	-0.3963538
220	0x3e04eda0	0.12981272
221	0xbb3b7674	-0.002860454
222	0xbe0fd859	-0.14047374
223	0xbd03d8af	-0.032189067
224	0x3e6e02ff	0.2324333
225	0x3e6cc7e0	0.23123121
226	0xbf034764	-0.5128081
227	0xbd5852d8	-0.05281338
228	0xbea5fa3c	-0.32417476
229	0xbe67cc8b	-0.2263662
230	0x3e570cd6	0.2100099
231	0xbda40b9a	-0.08010025
232	0xbe0d7663	-0.13814692
233	0x3e4667d6	0.19375548
234	0xbe8935b6	-0.2679879
235	0x3e24c280	0.16089821
236	0x3ed931f4	0.42420924
237	0xbd9e2307	-0.07721525
238	0x3e417a0f	0.18894218
239	0xbeb63f7a	-0.35595304
240	0x3d326a94	0.043558672
241	0xbe0d6591	-0.13808276
242	0x3e01c5d8	0.12673128
243	0xbdcce477	-0.10004514
244	0x3d945593	0.072428845
245	0xbe3969ce	-0.18106768
246	0x3b9c559c	0.0047709476
247	0xbd4f9803	-0.05068208
248	0x3e8e8c0b	0.2784122
249	0x3dad6b0a	0.08467682
250	0x3de976ad	0.11399589
251	0x3bc3a911	0.005971082
252	0x3e4924e4	0.19642979
253	0x3de3bdde	0.11120199
254	0xbe11babd	-0.14231391
255	0xbe462e47	-0.19353591

fc2.bias f4 [128]
0	0xbe102257	-0.140756
1	0xbdd1a6cf	-0.10236894
2	0xbe547336	-0.20747074
3	0xbe44a664	-0.19204098
4	0x3d0bf19f	0.034165975
5	0xbe4c90d2	-0.1997712
6	0xbd6fa276	-0.058504544
7	0xbd95a218	-0.073063076
8	0x3be9930b	0.0071281246
9	0xbe46b5e4	-0.19405323
10	0x3d84d20f	0.06485378
11	0xbdc6e833	-0.09712257
12	0xbdc88c53	-0.0979239
13	0xbcb377b8	-0.021907672
14	0xbe843f4e	-0.25829548
15	0xbe141595	-0.14461358
16	0xbd0e3efa	-0.034728028
17	0xbe2e9e2b	-0.17052524
18	0xbe82bddf	-0.25535485
19	0xbe2acc3b	-0.1667947
20	0xbe8c05dd	-0.27348223
21	0x3c4fbe6e	0.012679679
22	0xbe902879	-0.28155878
23	0xbdf4ce0d	-0.119533636
24	0xbe9cc192	-0.30616432
25	0xbd9dfb23	-0.07713916
26	0xbe2a86d9	-0.16653003
27	0xbdf3ebf2	-0.11910237
28	0xbe4a04b9	-0.19728364
29	0xbdd2ec68	-0.10298997
30	0xbcb5ee76	-0.022208434
31	0xbc8a44ba	-0.016878475
32	0xbcd9b094	-0.026573457
33	0xbdef643e	-0.116890416
34	0xbe5e0631	-0.2168205
35	0xbd2bbc4a	-0.041927613
36	0xbe228ed5	-0.15874799
37	0xbb042c40	-0.0020167977
38	0xbec89f8a	-0.3918422
39	0xbf07ec30	-0.5309477
40	0xbd9c9bd9	-0.07646913
41	0xbe22e2c7	-0.15906821
42	0xbe5d13d8	-0.21589601
43	0xbea0efd5	-0.31432977
44	0xbe01bac9	-0.12668909
45	0x3dad6559	0.08466596
46	0xbcba0caa	-0.022711117
47	0xbe1c179b	-0.1524338
48	0xbe33b0fd	-0.17547984
49	0xbdc68e7b	-0.09695145
50	0x384bdf30	4.860683e-05
51	0xbdf6bce3	-0.12047746
52	0xbefb9e99	-0.49144438
53	0xbe84cf0b	-0.2593921
54	0xbe969c97	-0.29416344
55	0xbe3497c0	-0.17636013
56	0xbe189681	-0.14901163
57	0xbe225deb	-0.1585614
58	0xbe2d1a8a	-0.16904655
59	0xbe420100	-0.18945694
60	0xbe68d553	-0.22737627
61	0xbed2102c	-0.41027963
62	0xbc7f0564	-0.01556525
63	0xbd34513f	-0.044022795
64	0x3c87b32b	0.016564926
65	0xbf11b78f	-0.56920713
66	0xbe17cc82	-0.14824107
67	0xbeebc2b8	-0.46046996
68	0xbe8c6a8c	-0.2742504
69	0xbe148ddf	-0.14507245
70	0xbca432b7	-0.020043714
71	0xbe8ff45c	-0.2811612
72	0xbc97ae13	-0.018515622
73	0xbd180ceb	-0.037121695
74	0xbd5bb5da	-0.053640224
75	0xbd85cbec	-0.06533036
76	0xbe8192a9	-0.25307205
77	0xbd60957d	-0.054830063
78	0xbe84f463	-0.25967702
79	0x3cae8621	0.021304192
80	0xbe12889b	-0.14309923
81	0xbd7b9cd5	-0.061428864
82	0xbe67d395	-0.22639306
83	0xbc0f75b2	-0.008756088
84	0xbdac7220	-0.08420205
85	0xbd3b25b2	-0.045690246
86	0xbe12cac5	-0.14335163
87	0xbdb6df8f	-0.08929359
88	0xbd61a58a	-0.05508951
89	0xbe3d6bf1	-0.18498208
90	0xbe695de7	-0.22789727
91	0xbe2af23d	-0.16693969
92	0xbdc43f82	-0.09582426
93	0x3d007c71	0.031368677
94	0xbcc23983	-0.023709064
95	0xbd840c9f	-0.0644772
96	0xbded1033	-0.115753554
97	0xbd5de0c6	-0.05416944
98	0x3d0ad25c	0.03389202
99	0xbe7e93d9	-0.24861087
100	0xbe370003	-0.17871098
101	0xbe746715	-0.23867448
102	0xbe07d70e	-0.1326563
103	0xbe25b9e2	-0.1618419
104	0xbebf70b7	-0.37390682
105	0xbd95aed3	-0.07308736
106	0xbdcdcbd7	-0.10048645
107	0xbcd60bd8	-0.026128694
108	0xbe3717b4	-0.17880136
109	0xbea511fd	-0.32240286
110	0xbe30a362	-0.17249826
111	0xbe75fc1f	-0.24021958
112	0xbe3cb49e	-0.18428275
113	0xbe4a16d6	-0.19735274
114	0x3c92b189	0.017906921
115	0xbd7a33a5	-0.06108441
116	0xbe101ef3	-0.14074306
117	0xbe1f275e	-0.15542361
118	0xbca19422	-0.019723956
119	0xbe8cb100	-0.2747879
120	0xbe85c38c	-0.26125753
121	0xbeb29e50	-0.34886408
122	0xbdc0ed33	-0.09420242
123	0xbe1ed8e1	-0.1551242
124	0xbe883daa	-0.26609546
125	0xbd8e7d07	-0.06957441
126	0xbe2f0558	-0.17091882
127	0xbe5d194c	-0.21591681

fc3.weight f4 [2, 128]
0	0x3eb64def	0.35606334
1	0xbeeb788a	-0.45990402
2	0xbf596401	-0.8491822
3	0xbeb5b4a8	-0.35489392
4	0x3e5f5659	0.21810283
5	0x3f2095ac	0.6272838
6	0xbd6d323c	-0.057909235
7	0xbeaefb8b	-0.34176287
8	0x3a828d6c	0.000996036
9	0x3e54024a	0.20703998
10	0xbeb25dc2	-0.34837157
11	0xbf03b3c9	-0.51446205
12	0x3de7bd56	0.1131541
13	0xbf034b80	-0.5128708
14	0x3dc46260	0.09589076
15	0x3ebf0902	0.3731156
16	0x3eeeeb17	0.46663734
17	0x3e96068b	0.29301867
18	0xbf074746	-0.5284313
19	0xbeb1c8a3	-0.34723386
20	0xbd7456da	-0.05965314
21	0x3f18c65c	0.5967767
22	0x3ed5aff5	0.41735807
23	0x3e26b92c	0.16281575
24	0x3ee791c9	0.45228413
25	0x3e49886a	0.19680944
26	0x3dada9c4	0.08479646
27	0x3e49deb8	0.19713867
28	0xbebb147b	-0.36539063
29	0x3ea076d7	0.31340668
30	0xbe7c8dfd	-0.24663539
31	0x3e598618	0.21242559
32	0xbd6e86b5	-0.058233935
33	0x3f510d7f	0.8166122
34	0x3e6176a2	0.22017911
35	0xbf0acf0a	-0.54222167
36	0x3f086e10	0.5329294
37	0xbe5b0d54	-0.21391803
38	0x3eaed2b7	0.34145138
39	0xbf1c0db3	-0.60958403
40	0xbc71f616	-0.014768144
41	0xbe8b048f	-0.27151915
42	0xbe19ce7d	-0.15020175
43	0x3f0a61e0	0.54055595
44	0x3f2d2816	0.6763929
45	0xbe0e9501	-0.13924028
46	0x3dc0f96d	0.09422574
47	0x3e67ae5b	0.22625105
48	0x3eae65dd	0.3406209
49	0x3e85efce	0.2615952
50	0x3e9ae4e0	0.30252743
51	0xbec4b64c	-0.3842033
52	0x3f508448	0.81451845
53	0x3f098675	0.5372079
54	0x3dc55d9f	0.096369974
55	0x3ec952eb	0.39321074
56	0x3eccca89	0.39998272
57	0xbe840b5b	-0.25789914
58	0x3d253563	0.040334117
59	0xbe28e9da	-0.16495457
60	0xbef43d97	-0.4770324
61	0x3e373d9f	0.178946
62	0xbeb44611	-0.35209706
63	0xbe5fb8ba	-0.21847811
64	0xbe0d6bd4	-0.13810664
65	0x3ecfc19a	0.40577394
66	0xbe3be007	-0.18347178
67	0x3eba081b	0.3633431
68	0x3c3f0f1d	0.011661318
69	0xbe651ae6	-0.22373542
70	0xbd75adfa	-0.05998037
71	0xbe8049c0	-0.25056267
72	0x3ddf1d12	0.108942166
73	0xbebd0ceb	-0.36923918
74	0xbec2ed04	-0.38071454
75	0xbdb8f976	-0.09031956
76	0xbee0f950	-0.4394021
77	0xbda82bea	-0.08211501
78	0xbea40944	-0.3203832
79	0xbc361aec	-0.011114817
80	0x3e3431d4	0.17597133
81	0xbf267b5d	-0.6503199
82	0x3d37e9c3	0.044900667
83	0xbede13cc	-0.4337448
84	0x3e82f572	0.25577885
85	0xbe16ebc0	-0.14738369
86	0xbedf0abf	-0.43562886
87	0xbe32ef5a	-0.17474118
88	0xbececd0d	-0.40390816
89	0x3ebfbfa1	0.3745089
90	0x3f1da020	0.61572456
91	0x3ed834fb	0.4222792
92	0xbee0985f	-0.4386625
93	0x3e5a3224	0.2130819
94	0xbebc65ef	-0.3679652
95	0xbe7f10d9	-0.2490877
96	0x3ec0c8aa	0.37653095
97	0xbed92eff	-0.42418668
98	0xbdb26945	-0.08711485
99	0x3ef034e7	0.4691536
100	0xbea74de1	-0.32676604
101	0x3e96412f	0.29346606
102	0xbedfdd6e	-0.43723625
103	0x3eb0cc84	0.34531033
104	0x3eedd320	0.46450138
105	0x3e79876b	0.24368064
106	0x3d0cd123	0.034379136
107	0xbe6f05f5	-0.23342116
108	0xbed054a3	-0.40689573
109	0x3e72b54b	0.2370197
110	0x3dc3196d	0.09526334
111	0x3e908e56	0.28233594
112	0xbd925bc6	-0.07146411
113	0xbd624089	-0.055237327
114	0x3e5249fd	0.20536037
115	0xbec49ac4	-0.38399327
116	0x3e98e487	0.29861853
117	0xbe966ce5	-0.29379955
118	0xbee6c4d5	-0.45072046
119	0xbeb13b2d	-0.3461546
120	0x3ef21083	0.47278222
121	0xbf68226e	-0.90677536
122	0x3e5ad367	0.21369706
123	0x3e0b4696	0.13601145
124	0x3e8b15f0	0.27165174
125	0xbe71fc08	-0.23631299
126	0xbec04220	-0.3755045
127	0x3b86c066	0.004112291
128	0x3f07f5ee	0.53109634
129	0x3ce78419	0.028261231
130	0xbeb21925	-0.3478481
131	0xbe3caf05	-0.1842614
132	0x3f2fb0de	0.6862925
133	0xbe5a587f	-0.21322821
134	0xbf1ccb4a	-0.61247694
135	0x3e58ea75	0.21183188
136	0xbf54b0dc	-0.83082366
137	0x3f1252de	0.57157695
138	0xbe081285	-0.13288315
139	0x3eaa0415	0.3320624
140	0xbd86c07f	-0.065796845
141	0xbd45c0ea	-0.04827968
142	0xbf1bc688	-0.6084981
143	0xbedfcc7b	-0.43710694
144	0xbea23435	-0.31680456
145	0x3f028f6a	0.5100008
146	0x3ee5ccc0	0.44882774
147	0xbd8435c8	-0.064555705
148	0x3f04b398	0.5183654
149	0xbec7c092	-0.39014107
150	0xbec29ac4	-0.38008702
151	0xbe34f66b	-0.17672126
152	0xbddfd25d	-0.109287955
153	0x3d831526	0.06400518
154	0x3e4354cf	0.1907532
155	0xbf1da393	-0.6157772
156	0xbeda54c1	-0.42642787
157	0x3ea8dca2	0.3298083
158	0xbcc422f8	-0.023942456
159	0xbee63f8b	-0.44970354
160	0x3f1cd2eb	0.61259335
161	0x3d9a84a8	0.075448334
162	0x3ee0fb76	0.4394185
163	0x3e99e839	0.30059984
164	0x3e8e7d54	0.27829993
165	0xbf32fe91	-0.6991969
166	0x3f02dabb	0.51115006
167	0x3d186554	0.03720601
168	0x3f0118d7	0.5042853
169	0xbed724a7	-0.4202015
170	0x3dacc1c3	0.084353946
171	0xbe9d37fc	-0.30706775
172	0x3f0bb4b7	0.54572624
173	0x3f1238d1	0.57117945
174	0xbefa7279	-0.4891546
175	0xbf3889a0	-0.72085
176	0x3f06742c	0.52521014
177	0xbf0ea9dd	-0.5572794
178	0xbeb58eb9	-0.3546045
179	0x3ee2e0d6	0.4431216
180	0x3da4c232	0.08044852
181	0x3da66230	0.081241965
182	0x3eee8a1e	0.4658975
183	0xbe22e8eb	-0.15909164
184	0xbe22e1c1	-0.15906431
185	0x3e295054	0.16534549
186	0x3f165a03	0.58731097
187	0xbf24e666	-0.6441406
188	0xbe2eee39	-0.17083062
189	0x3f27fafa	0.65617335
190	0x3ec367ef	0.38165233
191	0xbf101ad4	-0.56290936
192	0x3ed045b6	0.40678185
193	0xbeb7b196	-0.35877675
194	0x3d50f731	0.05101699
195	0xbf1c258b	-0.60994786
196	0xbf62676f	-0.8843908
197	0xbf4d9bea	-0.8031603
198	0x3f025925	0.50917274
199	0xbf892a87	-1.0716103
200	0xbf1e74fa	-0.6189724
201	0x3e841d6a	0.2580369
202	0xbe6e8583	-0.23293118
203	0xbe8cf0b7	-0.275274
204	0xbeaf6408	-0.34256005
205	0x3e95af85	0.29235473
206	0x3e77d261	0.24201347
207	0xbf0cf050	-0.5505419
208	0x3eee1776	0.46502274
209	0x3f040585	0.5157092
210	0xbebbf507	-0.3671038
211	0xbe2d8f84	-0.16949278
212	0xb950a869	-0.00019899163
213	0xbebdd460	-0.37076092
214	0x3f1a5976	0.60292757
215	0xbf47f350	-0.7810564
216	0xbd80c539	-0.06287617
217	0xbe291366	-0.16511306
218	0xbde87f4f	-0.11352407
219	0x3f0bcb3b	0.5460698
220	0xbea72e6e	-0.3265261
221	0x3eec2046	0.46118373
222	0xbd1480f0	-0.036255777
223	0xbf1b0fac	-0.6057079
224	0xbe38f15d	-0.18060823
225	0x3e4e9efc	0.20177835
226	0x3f2b7fdb	0.66991967
227	0xbf733617	-0.9500441
228	0x3f015004	0.5051272
229	0x3e907a6b	0.28218397
230	0xbeecec60	-0.4627409
231	0x3efca17c	0.49341953
232	0x3f1fa1eb	0.6235644
233	0x3f27d61b	0.65561074
234	0xbf11e969	-0.5699678
235	0xbcb64cf2	-0.022253487
236	0x3e656cf3	0.22404842
237	0xbead5c93	-0.3385969
238	0x3ec37016	0.38171452
239	0x3e4d7bf0	0.2006681
240	0xbeee0658	-0.46489215
241	0xbf215aef	-0.6302938
242	0x3ef93aad	0.4867758
243	0xbefb9b2d	-0.49141827
244	0x3d8a7ec7	0.06762462
245	0xbe42f717	-0.1903957
246	0x3cccfab4	0.025021888
247	0xbf37a3e2	-0.7173444
248	0x3d5b4c2b	0.053539436
249	0x3dcc6c88	0.09981638
250	0x3e064d48	0.13115418
251	0xbedbe479	-0.42947748
252	0x3f1983dc	0.59966826
253	0xbe0c90fd	-0.13727184
254	0x3f2381d5	0.6386998
255	0xbf762902	-0.9615632

fc3.bias f4 [2]
0	0xbe050e53	-0.12993746
1	0x3dee53cc	0.11637077

bn1.weight f4 [256]
0	0x3fd3201c	1.6494174
1	0x3f43a5be	0.7642478
2	0x3f84d453	1.0377296
3	0x3fa1e39c	1.2647586
4	0x3f692f70	0.9108801
5	0x3f9d46c4	1.2287221
6	0x3f0f25e6	0.55917203
7	0x3f295f9f	0.6616153
8	0x3fa8119c	1.3130374
9	0x3f9db904	1.2322087
10	0x3f851263	1.0396236
11	0x3fa70846	1.30494
12	0x3fb50949	1.4143459
13	0x3f68d389	0.9094778
14	0x3f8c9e30	1.0985775
15	0x3fd23356	1.6421916
16	0x3fc2b53d	1.521156
17	0x3f91da8c	1.139482
18	0x3fa956af	1.3229579
19	0x3fc7d002	1.5610354
20	0x3f753509	0.9578405
21	0x3fc237e9	1.5173312
22	0x3f7acb22	0.97966206
23	0x3fa552da	1.2915909
24	0x3f9e85bf	1.2384566
25	0x3fa11a1b	1.2586092
26	0x3fb0f309	1.3824168
27	0x3fda2288	1.7041788
28	0x3f9299a1	1.1453134
29	0x3f7a95a0	0.9788456
30	0x3f00de6b	0.5033938
31	0x3f8180c7	1.0117425
32	0x3f9a5083	1.205582
33	0x3f8e7eb3	1.1132416
34	0x3f8cae7b	1.0990747
35	0x3fa33dde	1.2753255
36	0x3f777ffb	0.9667966
37	0x3f040060	0.5156307
38	0x3fa5396f	1.2908152
39	0x3f8eadc7	1.1146783
40	0x3f8146c5	1.0099722
41	0x3f28ac5a	0.6588799
42	0x3f8125de	1.0089681
43	0x3fd5727e	1.6675565
44	0x3f6d5709	0.9271093
45	0x3faf74f8	1.3707571
46	0x3f248120	0.6425953
47	0x3f84da80	1.0379181
48	0x3f91d13c	1.1391978
49	0x3f91a725	1.1379133
50	0x3f8c6b8e	1.0970323
51	0x3f826fe2	1.0190394
52	0x3fc25bf7	1.5184315
53	0x3f64b517	0.8933882
54	0x3f91b157	1.1382245
55	0x3fb8d481	1.4439851
56	0x3f937abe	1.1521833
57	0x3f2e0b63	0.67986125
58	0x3fa136c3	1.2594837
59	0x3f85b39e	1.044544
60	0x3f8e7f1b	1.113254
61	0x3f5b8d6e	0.8576268
62	0x3fa96fdb	1.323726
63	0x3f7495c6	0.95541036
64	0x3f667af7	0.9003138
65	0x3fb93c6c	1.4471564
66	0x3f85ff6a	1.0468571
67	0x3fb3c38e	1.4044054
68	0x3f97d863	1.1862911
69	0x3f8eee52	1.116648
70	0x3f92427d	1.1426541
71	0x3f92edbe	1.1478803
72	0x3fb1827a	1.3867943
73	0x3f793014	0.97338986
74	0x3f7060bd	0.9389761
75	0x3f5ecc18	0.8703017
76	0x3f9100d0	1.1328373
77	0x3ef4c47a	0.4780615
78	0x3f806c5c	1.0033069
79	0x3f9773d5	1.1832224
80	0x3f757a62	0.95889866
81	0x3f70c91a	0.94056857
82	0x3f7e80dd	0.9941538
83	0x3f4f1a3b	0.808994
84	0x3f6d15c3	0.9261133
85	0x3f3aab84	0.7291796
86	0x3fcafd84	1.5858617
87	0x3f88d37b	1.0689539
88	0x3fb6ab35	1.4270998
89	0x3f9e645d	1.2374378
90	0x3f9e5fc0	1.237297
91	0x3f6eb839	0.9324985
92	0x3fb93631	1.4469663
93	0x3fad3ff6	1.3535144
94	0x3f9e95dc	1.2389483
95	0x3f70fcab	0.9413554
96	0x3f4043a3	0.75103205
97	0x3f7472a0	0.95487404
98	0x3f44b3a6	0.7683662
99	0x3fa2d1c2	1.2720263
100	0x3f8d7a78	1.1053
101	0x3fc058d9	1.5027114
102	0x3fba6767	1.4562806
103	0x3f800d9d	1.0004154
104	0x3f6e1914	0.93007016
105	0x3f2c817e	0.6738509
106	0x3f90513e	1.1274793
107	0x3f50b629	0.81527954
108	0x3fb19930	1.3874874
109	0x3fab54ca	1.338525
110	0x3fa2fa6c	1.2732673
111	0x3f883a12	1.0642722
112	0x3f954258	1.1660872
113	0x3f96b0fb	1.177276
114	0x3f7a4dd2	0.97774994
115	0x3f9c62d3	1.2217659
116	0x3fba8d3f	1.4574355
117	0x3faf26ea	1.3683751
118	0x3f5ca407	0.86187786
119	0x3f92d3f5	1.1470934
120	0x3f1c5792	0.6107112
121	0x3f3ebbbb	0.74505204
122	0x3f217c14	0.63079953
123	0x3f928cb3	1.1449188
124	0x3f737cda	0.95112383
125	0x3f944c95	1.1585871
126	0x3f9bb6d3	1.2165169
127	0x3f90ef76	1.1323078
128	0x3fca6e83	1.5814976
129	0x3f859f83	1.0439304
130	0x3f32f5d3	0.6990635
131	0x3fb31093	1.3989433
132	0x3fd23bf7	1.642455
133	0x3f969690	1.1764698
134	0x3f6ab0b8	0.916759
135	0x3f8b73d9	1.0894729
136	0x3f84f1d3	1.0386299
137	0x3fa198e8	1.2624788
138	0x3f7f1e62	0.99655735
139	0x3fb3f933	1.4060425
140	0x3f83dff7	1.0302724
141	0x3f8f8488	1.121232
142	0x3f9af13a	1.2104867
143	0x3f9b935c	1.2154346
144	0x3f37b30a	0.71757567
145	0x3f8432d8	1.0328016
146	0x3fbec3ae	1.4903467
147	0x3f88c426	1.068486
148	0x3f938e23	1.1527752
149	0x3f4e675c	0.80626464
150	0x3f8b26ca	1.0871212
151	0x3f86ad5d	1.0521656
152	0x3fbe971c	1.4889865
153	0x3fd57143	1.667519
154	0x3f3e4724	0.743273
155	0x3f889561	1.0670587
156	0x3fa3b664	1.2790036
157	0x3fc537e7	1.5407685
158	0x3fc9ae82	1.575638
159	0x3f9bc3df	1.216915
160	0x3fbe4ed5	1.4867808
161	0x3f740b69	0.9532991
162	0x3fb727f4	1.4309068
163	0x3faed9ec	1.3660254
164	0x3f8e36ce	1.1110475
165	0x3f5a9c31	0.8539458
166	0x3faac00b	1.3339857
167	0x3f786df0	0.9704275
168	0x3f9b4d7e	1.2133024
169	0x3fb4c4b7	1.4122533
170	0x3f91da5d	1.1394764
171	0x3f0fadba	0.5612446
172	0x3f7a09b3	0.9767105
173	0x3f1bfd19	0.6093307
174	0x3fa59b75	1.2938067
175	0x3f85e1b0	1.0459499
176	0x3f801512	1.000643
177	0x3fd2b369	1.6461002
178	0x3f38d227	0.7219567
179	0x3f917457	1.1363629
180	0x3f908c22	1.1292765
181	0x3f8e49ae	1.1116235
182	0x3f5fed30	0.87471294
183	0x3f063d3e	0.524372
184	0x3fa4727e	1.284744
185	0x3fb111b5	1.3833529
186	0x3f8e1c83	1.1102451
187	0x3f9e0882	1.2346346
188	0x3f5202cc	0.8203552
189	0x3fa7676f	1.307844
190	0x3f92b050	1.1460056
191	0x3fa1df71	1.2646314
192	0x3f10a58e	0.56502616
193	0x3f539560	0.82649803
194	0x3f8fe64a	1.1242154
195	0x3f64964e	0.89291847
196	0x3f905c28	1.1278124
197	0x3fb18d3c	1.3871226
198	0x3fc5d143	1.5454487
199	0x3f84a36f	1.0362376
200	0x3f95e78f	1.1711291
201	0x3faea019	1.3642608
202	0x3f3a5aea	0.72794974
203	0x3f847f58	1.0351362
204	0x3fa83c57	1.3143414
205	0x3f9f55aa	1.2448018
206	0x3f8fd919	1.1238128
207	0x3f8bbd8e	1.0917222
208	0x3f0cc6a6	0.54990613
209	0x3f5c72d5	0.8611272
210	0x3f781cbe	0.9691886
211	0x3face74b	1.3508085
212	0x3fae1c06	1.3602302
213	0x3f9119c3	1.1335987
214	0x3f9b3034	1.2124085
215	0x3f6baa5f	0.9205684
216	0x3fae7b69	1.3631412
217	0x3f591964	0.8480437
218	0x3f5630b4	0.83668065
219	0x3f85230a	1.0401318
220	0x3fbe21db	1.4854082
221	0x3f5e1652	0.8675281
222	0x3f94a78c	1.1613631
223	0x3f9e21e0	1.2354088
224	0x3ffaa70a	1.9582226
225	0x3fa5c178	1.2949667
226	0x3fb55ee1	1.416958
227	0x3f9d5193	1.229052
228	0x3f272138	0.6528506
229	0x3edfa2b2	0.43678814
230	0x3fa2a241	1.2705766
231	0x3f90c84e	1.1311128
232	0x3f5b1a96	0.8558744
233	0x3fa9dd70	1.3270702
234	0x3f9b745d	1.2144886
235	0x3f95dc3a	1.1707833
236	0x3f9dbcaa	1.2323201
237	0x3f445298	0.7668853
238	0x3f58a03c	0.846195
239	0x3f96a18f	1.1768054
240	0x3fa4dfed	1.2880837
241	0x3fb3d74b	1.4050077
242	0x3f842930	1.032507
243	0x3f8f6edd	1.1205708
244	0x3fb489d3	1.4104561
245	0x3f4b0cba	0.79316294
246	0x3f8f8e2c	1.1215262
247	0x3f7f9706	0.9983982
248	0x3f80d7e1	1.0065881
249	0x3f88be44	1.0683064
250	0x3f6ccde6	0.92501676
251	0x3f8b9829	1.090581
252	0x3f725d13	0.9467327
253	0x3f726ec7	0.9470028
254	0x3f7a8791	0.9786311
255	0x3fabb018	1.3413115

bn1.bias f4 [256]
0	0xbea4c05b	-0.32178006
1	0xbd193a73	-0.037409257
2	0xbd314d1b	-0.043286424
3	0x3ea08de5	0.31358257
4	0x3ec5fde8	0.38670278
5	0x3e6a5943	0.22885613
6	0x3cc74c9e	0.024328526
7	0x3d19c8bf	0.037544962
8	0x3d143529	0.03618351
9	0x3e40b6a7	0.18819676
10	0x3daf19f3	0.08549871
11	0x3da9e2f8	0.08295244
12	0x3e983220	0.29725742
13	0xbcf8f598	-0.030390546
14	0x3e6ecba6	0.23319873
15	0xbdacd0f3	-0.084382914
16	0x3ee88871	0.45416597
17	0x3c7a65b8	0.015283041
18	0x3dc61316	0.09671609
19	0x3e082dc4	0.13298708
20	0xbe9b446e	-0.30325645
21	0xbdb177af	-0.08665406
22	0x3d9220f5	0.07135192
23	0x3e3fda2f	0.18735574
24	0x3e0be026	0.13659725
25	0x3e8e18ae	0.27753204
26	0x3b031b71	0.002000537
27	0xbebf09e4	-0.37312233
28	0xbdc955d9	-0.09830827
29	0x3e7ef43a	0.24897853
30	0x3e17bbec	0.1481778
31	0xbd1fd0ff	-0.039017674
32	0x3db13870	0.08653343
33	0x3dcefd2c	0.101068825
34	0x3e6a92b3	0.22907524
35	0x3d9055df	0.070476286
36	0xbcb76e43	-0.022391444
37	0x3d926cec	0.071496814
38	0x3eaca21f	0.3371744
39	0x3db17cb9	0.08666367
40	0xbd9b19e0	-0.07573295
41	0x3d9815ad	0.07426009
42	0xbd922f6a	-0.0713795
43	0xbe99bd69	-0.3002732
44	0xbd3376d2	-0.043814488
45	0x3da1e718	0.07905406
46	0x3dd06db8	0.10177177
47	0x3e54aa03	0.2076798
48	0x3d7f2c13	0.06229789
49	0xbc9a4a04	-0.018834122
50	0x3e164424	0.14674431
51	0x3c1bad66	0.009501791
52	0x3d8fade7	0.07015591
53	0x3e0c229d	0.13685079
54	0x3e51a786	0.20474061
55	0xbe01c7ec	-0.1267392
56	0xbbb57774	-0.0055379216
57	0x3dde6dfa	0.1086082
58	0x3e6d7498	0.23189008
59	0xbe66436e	-0.2248666
60	0xbda64a3b	-0.08119627
61	0x3e169434	0.14704973
62	0x3d3e0cbf	0.046398874
63	0x3df41296	0.119176075
64	0x3db861f2	0.090030566
65	0x3d620c10	0.055187285
66	0xbe47233c	-0.19447035
67	0x3eafab12	0.34310204
68	0x3e63fec3	0.22265153
69	0x3e4aaa06	0.19791421
70	0x3c2aa994	0.010416407
71	0x3ea8051c	0.32816398
72	0x3e159e0f	0.14611076
73	0xbe767ef2	-0.24071863
74	0x3e850ea0	0.2598772
75	0xbe24ffd6	-0.16113219
76	0xbd96417a	-0.073367074
77	0xbe01827e	-0.12647435
78	0xbe23ba03	-0.15988927
79	0xbe3348db	-0.17508261
80	0xbc3f147e	-0.011662601
81	0x3d8687bd	0.06568859
82	0x3ddf21d9	0.10895128
83	0x3f26ccb6	0.65156114
84	0x3e1d59d9	0.15366305
85	0x3e170767	0.14748918
86	0xbe5aad0e	-0.21355078
87	0x3cec072e	0.028812017
88	0x3e659371	0.22419526
89	0x3ec561a1	0.38551047
90	0xbe266741	-0.16250326
91	0xbb6f96eb	-0.003655846
92	0x3d2a7375	0.041614015
93	0x3e9f0e60	0.31065655
94	0x3e315631	0.17318036
95	0xbd8e45d6	-0.06946914
96	0x3e0ec04f	0.13940547
97	0x3dddb5a1	0.108256586
98	0x3e782565	0.24233015
99	0x3e21b56d	0.15791865
100	0x3e3d1476	0.18464836
101	0x3e080246	0.13282117
102	0xbe5dbccf	-0.21654056
103	0x3dd364c9	0.103219576
104	0x3e1f70c9	0.15570368
105	0x3e714ac4	0.23563677
106	0xbddf16e4	-0.10893038
107	0xbe4673b4	-0.19380075
108	0x3cf9aec9	0.030478852
109	0x3df34978	0.118792474
110	0x3e1a610c	0.15076083
111	0x3ed54e84	0.41661465
112	0x3dada75b	0.08479186
113	0x3c8947ca	0.016757865
114	0x3e592493	0.21205358
115	0x3d8e6ee8	0.069547474
116	0x3d55ae94	0.052168444
117	0x3e8087d3	0.25103626
118	0x3ed4f2ed	0.41591588
119	0x3e3a2139	0.18176736
120	0x3e30894e	0.17239878
121	0x3dfffc53	0.12499299
122	0xbca617ac	-0.02027496
123	0x3e51e174	0.2049616
124	0x3d4597c1	0.048240427
125	0xbe273abf	-0.16331004
126	0x3d9e3eba	0.07726808
127	0x3dd66e3e	0.10470246
128	0x3e3676c2	0.1781874
129	0x3e0c00f0	0.13672233
130	0x3ed6df3c	0.4196719
131	0xbdb7a811	-0.08967603
132	0xbe86b0cb	-0.26306757
133	0xbdb42025	-0.087951936
134	0xbbd8799d	-0.0066062943
135	0x3ea04a99	0.31306913
136	0x3e657467	0.22407685
137	0x3e171a41	0.14756109
138	0x3d85ac07	0.06526952
139	0xbde88811	-0.113540776
140	0xbe3a9b08	-0.18223202
141	0x3e6d2404	0.2315827
142	0x3e18afed	0.1491086
143	0x3c3f2ac6	0.011667913
144	0x3e4a25a2	0.19740918
145	0xbc542c51	-0.012950019
146	0x3e0b0ca0	0.13579035
147	0x3e3853fa	0.18000785
148	0x3e906079	0.28198603
149	0x3e69005b	0.22754042
150	0x3dd274df	0.10276198
151	0x3e9b9e43	0.30394182
152	0x3de53ef8	0.11193651
153	0x3c6a9439	0.014317566
154	0xbd710b45	-0.058848638
155	0x3dcaee8f	0.09908783
156	0x3e7a68d2	0.24454048
157	0x3e943d4e	0.28953022
158	0x3eb90c7d	0.3614234
159	0xbe2904e4	-0.16505772
160	0x3e360c8f	0.17778228
161	0x3e912af3	0.2835308
162	0x3e95107f	0.29114148
163	0x3e7936d6	0.24337325
164	0xbc846532	-0.016161535
165	0x3e43d825	0.19125421
166	0x3e2dabe7	0.16960107
167	0xbdee25e1	-0.116283186
168	0x3e455b6d	0.19273157
169	0x3e94ea8f	0.29085204
170	0x3d082618	0.033239454
171	0x3e17c97d	0.14822955
172	0x3d87cf29	0.066313095
173	0x3d929e99	0.07159156
174	0x3e68eaa7	0.22745763
175	0xbdb41257	-0.087925605
176	0xbd687881	-0.056755546
177	0xbe2deb7c	-0.16984361
178	0x3e2a0738	0.16604316
179	0x3e66f427	0.22554074
180	0x3d8827fa	0.0664825
181	0x3e40ec55	0.18840154
182	0x3dce867c	0.100842446
183	0xbdbfc38f	-0.09363472
184	0x3e86ca1b	0.2632607
185	0x3d3c0fad	0.045913387
186	0xbbf3ed00	-0.007444024
187	0x3e3f5d61	0.18687965
188	0xbc10a827	-0.008829153
189	0x3e17219f	0.14758919
190	0x3dc3b4dd	0.09555981
191	0xbe00bbd8	-0.12571657
192	0xbe9c41fb	-0.3051909
193	0x3db87fe5	0.09008769
194	0x3dc66599	0.09687347
195	0x3d9c9509	0.07645614
196	0x3e4e9054	0.20172244
197	0x3e75d323	0.24006324
198	0xbe303949	-0.17209353
199	0x3e96864d	0.29399338
200	0xbd7bb34a	-0.06145028
201	0xbc9b8816	-0.01898579
202	0x3dab53ef	0.083656184
203	0x3df05723	0.1173537
204	0x3d59122e	0.052995853
205	0x3e03442a	0.12818971
206	0x3e24d230	0.16095805
207	0x3e951d42	0.29123884
208	0xbe2279d6	-0.15866789
209	0x3e21dbf2	0.15806559
210	0xbda05352	-0.07828392
211	0x3e015c44	0.12632853
212	0x3dac2278	0.08405012
213	0x3d7babae	0.061443023
214	0x3ea5fb4b	0.32418284
215	0xbd309375	-0.043109376
216	0x3d57606d	0.052582193
217	0x3df74874	0.12074366
218	0x3e0b4a51	0.13602568
219	0x3dd5c97a	0.10438819
220	0x3e80d859	0.2516506
221	0x3e29f11d	0.16595884
222	0xbc057265	-0.00814495
223	0xbc417ada	-0.011809075
224	0xbbb2c29e	-0.005455329
225	0x3e4f7bcc	0.20262069
226	0x3e59fd0e	0.21287939
227	0x3da17adc	0.07884762
228	0x3cf2b20a	0.029625911
229	0x3e0f7ed0	0.14013219
230	0x3dbc5ac6	0.09197001
231	0xbdf6ad18	-0.12044734
232	0x3e8b6429	0.27224854
233	0x3e2102b6	0.1572369
234	0xbca7cec6	-0.02048434
235	0x3dc4b9d3	0.09605756
236	0xbe0d1239	-0.13776483
237	0x3e8c000b	0.27343783
238	0xbc4dd2d1	-0.01256247
239	0x3e44b42e	0.19209358
240	0x3dbf6deb	0.09347137
241	0x3cafdea8	0.021468475
242	0x3dad3b71	0.08458603
243	0x3a74579a	0.0009320915
244	0x3cb6c598	0.022311017
245	0x3da2c1d0	0.07947123
246	0x3e0e6d3a	0.13908854
247	0x3e7ef688	0.24898732
248	0x3d012b09	0.031535182
249	0x3e0609a9	0.13089623
250	0x3df4fede	0.119626746
251	0xbc29d13a	-0.010364825
252	0x3eb869eb	0.3601831
253	0xbcaad7cb	-0.020854851
254	0x3e021eb8	0.12707031
255	0x3e01ac46	0.12663373

bn1.running_mean f4 [256]
0	0x41822a1f	16.270567
1	0x40851d52	4.159829
2	0x3f04bc95	0.51850253
3	0x3ece7f15	0.4033133
4	0x401225d3	2.2835586
5	0x3d9bb61c	0.07603094
6	0x405834e7	3.378229
7	0x4050acf8	3.2605572
8	0x4040b043	3.0107582
9	0x3eb32455	0.34988657
10	0x3da2572a	0.079267815
11	0x40828c12	4.0795984
12	0x3f2775b2	0.65413964
13	0x408ec44c	4.461462
14	0x406f2dd4	3.7371721
15	0x3f36bd40	0.7138252
16	0x3f747a7c	0.95499396
17	0x3e0de1ae	0.13855621
18	0x3eaa50c9	0.3326476
19	0x3ec14688	0.37749124
20	0x41481c54	12.506916
21	0x4040c96c	3.0122938
22	0x3d1febe5	0.039043326
23	0x3e80efb2	0.25182873
24	0x4013671d	2.3031685
25	0x3e36b7ad	0.17843504
26	0x3e278d1a	0.1636242
27	0x402841e4	2.6290216
28	0x403150a1	2.7705462
29	0x3fbe83fc	1.4884028
30	0x40f2505e	7.5723104
31	0x41241a26	10.256384
32	0x4009a298	2.150549
33	0x40a81891	5.252999
34	0x3fbb47e2	1.4631312
35	0x3f63c889	0.8897787
36	0x3f6e0aba	0.9298512
37	0x40963c22	4.6948404
38	0x3e67bb65	0.22630079
39	0x3f654fc5	0.89574844
40	0x3fb8941f	1.4420203
41	0x407a2527	3.9085176
42	0x3fd3b9d8	1.654109
43	0x4092a005	4.5820336
44	0x3ff42459	1.9073592
45	0x3f17022b	0.58987683
46	0x3fe3e30e	1.7803667
47	0x3fcd80f0	1.6054974
48	0x3e4655a2	0.19368604
49	0x3faba449	1.3409511
50	0x3f2ae298	0.66752005
51	0x40f3398a	7.600774
52	0x3f5236d1	0.82114893
53	0x403978f9	2.8980086
54	0x3ee6a9c2	0.4505139
55	0x3feab9c4	1.8337941
56	0x3fb985cb	1.4493955
57	0x408de446	4.4341154
58	0x3e6df60c	0.2323839
59	0x3fa56331	1.2920896
60	0x3ebb9249	0.36635044
61	0x3f84c55d	1.037273
62	0x3f9dd2d8	1.232997
63	0x3f44172b	0.7659785
64	0x404e7ee6	3.2264953
65	0x3fef731e	1.8707006
66	0x40b7feaa	5.749837
67	0x3f15c591	0.5850459
68	0x3e9ba4cf	0.30399176
69	0x3de209da	0.11037035
70	0x3fa0a9e3	1.2551845
71	0x402b5f80	2.6777039
72	0x4067d126	3.6221404
73	0x3fc22790	1.5168324
74	0x401a6601	2.4124758
75	0x40bce0f8	5.902462
76	0x3f61a6b9	0.88145024
77	0x4102314b	8.137034
78	0x3eedcdcf	0.46446082
79	0x401c04ed	2.4378006
80	0x401a7746	2.4135299
81	0x40ec5162	7.3849344
82	0x3ff803b0	1.9376125
83	0x40afe478	5.4966393
84	0x3f90afc7	1.1303643
85	0x407fabc6	3.9948592
86	0x40882bfe	4.25537
87	0x4088564f	4.2605357
88	0x3e259294	0.16169196
89	0x40411888	3.0171223
90	0x402bb488	2.6828938
91	0x3fc96cf3	1.5736374
92	0x3e192b84	0.14958006
93	0x3fee58cd	1.862085
94	0x3f8f7c2c	1.1209769
95	0x40a14eae	5.0408545
96	0x4062d54f	3.5442693
97	0x40876d68	4.2321053
98	0x3f152f9b	0.58275765
99	0x400cda92	2.2008405
100	0x3ef1cd2e	0.47226852
101	0x3f934ef4	1.150847
102	0x403ad00d	2.9189484
103	0x4009b859	2.1518767
104	0x3fb13ca6	1.3846633
105	0x41376ef0	11.464584
106	0x3e3fc9fc	0.18729395
107	0x40e7b01f	7.240249
108	0x3f45fc66	0.77338254
109	0x3ffaa017	1.9580106
110	0x3f75ae61	0.95969206
111	0x3e693a32	0.22776106
112	0x3eea234d	0.45730057
113	0x3dae0065	0.08496169
114	0x410f8db7	8.972098
115	0x4002337f	2.034393
116	0x3f1cf0fd	0.6130522
117	0x3f3e2b05	0.7428439
118	0x3f7048cb	0.93861073
119	0x3f71a50c	0.94392467
120	0x402756cf	2.6146734
121	0x4014d1f8	2.3253155
122	0x406d7e42	3.7108312
123	0x3e63fdd3	0.22264795
124	0x3e82be63	0.2553588
125	0x405cef83	3.4521186
126	0x40446593	3.0686996
127	0x400a73da	2.163321
128	0x3ed45ad5	0.4147555
129	0x3fecea70	1.8509045
130	0x40ec81ec	7.3908596
131	0x4028d3b8	2.6379223
132	0x418319bf	16.387571
133	0x3f8ee712	1.1164267
134	0x3fab9bf0	1.3406963
135	0x3fa6f071	1.3042127
136	0x40abd157	5.369304
137	0x3fbd64dd	1.4796406
138	0x3d1c78a7	0.038201
139	0x407e37f6	3.9721656
140	0x413fb34c	11.981274
141	0x3f02946e	0.51007736
142	0x40a75d36	5.2301283
143	0x3f948f81	1.1606294
144	0x3f0ea782	0.55724347
145	0x4094969b	4.6433845
146	0x3f3ec07d	0.74512464
147	0x3dbc488e	0.09193526
148	0x3f233c08	0.63763475
149	0x3f51447a	0.8174511
150	0x3f25f9bb	0.64834183
151	0x3f5ee158	0.870626
152	0x3f3abf22	0.72947896
153	0x3fd5b98e	1.6697252
154	0x403b0d7d	2.9226983
155	0x00000004	6e-45
156	0x3eca0c4e	0.39462513
157	0x3f290f0a	0.6603857
158	0x3e9e9523	0.30973157
159	0x409fb69c	4.991041
160	0x3edca364	0.43093407
161	0x406e4abb	3.7233112
162	0x3f5c6096	0.8608488
163	0x3f0ba579	0.54549366
164	0x4008ca67	2.1373537
165	0x3f878194	1.0586419
166	0x3d8f0378	0.069830835
167	0x40a4e7c2	5.1532907
168	0x3f44299d	0.76625997
169	0x3ef9eac0	0.48811913
170	0x3d8e0c36	0.06935923
171	0x404ef06f	3.233425
172	0x00000004	6e-45
173	0x4187032a	16.876545
174	0x408a0add	4.313826
175	0x4009d6d2	2.1537366
176	0x3f14a67e	0.58066547
177	0x3f950817	1.1643094
178	0x40067530	2.1009026
179	0x3faa5899	1.3308288
180	0x3f1eafda	0.6198708
181	0x3f241623	0.6409628
182	0x3f0d111a	0.5510422
183	0x415b096a	13.689798
184	0x3f46709d	0.77515584
185	0x40623e9d	3.5350716
186	0x40702c0d	3.7526886
187	0x403d6ccc	2.9597654
188	0x3f6e3c23	0.9306051
189	0x00000004	6e-45
190	0x3e75c576	0.24001107
191	0x3feb210e	1.8369462
192	0x40b5a506	5.6763945
193	0x3f72f155	0.94899493
194	0x3f9c48a5	1.2209669
195	0x3d83f02d	0.06442294
196	0x3ed0fbb1	0.40817025
197	0x403968ba	2.897017
198	0x3ffa3331	1.9546872
199	0x3e72defa	0.23717871
200	0x3e4dc9e1	0.20096542
201	0x3f0365d0	0.5132723
202	0x411df329	9.871865
203	0x3f8a6ee9	1.0815097
204	0x00000004	6e-45
205	0x3f942736	1.1574466
206	0x40244e90	2.567295
207	0x401b7069	2.428736
208	0x40d0f9ce	6.5304937
209	0x40944c18	4.634289
210	0x40a87549	5.264317
211	0x3f6f60d2	0.9350711
212	0x3e25e564	0.16200787
213	0x40c4a563	6.145189
214	0x3f2e23ad	0.68023187
215	0x3ff45102	1.9087222
216	0x3cc311a7	0.023812128
217	0x401c4d69	2.4422247
218	0x41004fc8	8.019478
219	0x3dc83e4b	0.097775064
220	0x3d8b3e94	0.06799045
221	0x3f7150b7	0.94263786
222	0x3f879673	1.0592788
223	0x4059a5d2	3.4007459
224	0x3f9046ad	1.1271569
225	0x403396db	2.8060825
226	0x3f56578a	0.83727324
227	0x3f069406	0.52569616
228	0x40c8e65b	6.2781196
229	0x417173b2	15.090746
230	0x409e5d26	4.9488707
231	0x3fc0d900	1.5066223
232	0x407d907c	3.9619436
233	0x3ed46922	0.4148646
234	0x3ed0f2a2	0.40810114
235	0x00000004	6e-45
236	0x412d8404	10.84473
237	0x40568c05	3.352296
238	0x408d711a	4.4200563
239	0x408ff219	4.498303
240	0x406bc370	3.6838036
241	0x402ffa9d	2.7496712
242	0x3d935945	0.07194761
243	0x3d14ed00	0.036358833
244	0x3fd7b9f8	1.6853628
245	0x4092103c	4.5644817
246	0x3f6e9fea	0.9321276
247	0x401e378d	2.4721406
248	0x3f20c4d3	0.6280033
249	0x40e44b01	7.1341558
250	0x40e99b26	7.300189
251	0x3f09a120	0.5376148
252	0x405cdd14	3.4509935
253	0x3d581119	0.05275068
254	0x3f6dce00	0.92892456
255	0x3dcea92c	0.10090861
