checkpoints/mad4pg/mad4pg_per0_checkpoint_critic_target.pth (torch, 481447 bytes, 14 tensors)

fc1.weight f4 [256, 52]
000000 9d 60 4b 3e c8 8c 94 be c2 da ac 3d 9e 55 19 3e
       0.19861074 -0.29013658 0.08440162 0.14974067
000010 e3 55 28 3e 55 eb 8a be a5 67 12 3e 64 61 85 bd
       0.16439013 -0.2713267 0.1429735 -0.065127164
000020 7e 3f 84 3d 4d d3 7d bd 6f 88 8e 3c 01 09 10 bc
       0.06457423 -0.06196909 0.017399041 -0.008791209
000030 19 1d f3 3d 72 34 49 be c8 b4 5f 3c f5 e6 11 bd
       0.11870784 -0.19648913 0.013653941 -0.03562065
000040 b4 98 69 3e 19 c3 dd 3d 5a 3c 00 bd 20 6a 58 3e
       0.22812158 0.108282275 -0.031307556 0.21134233
000050 54 70 30 3e 06 62 1f 3e 2c 11 a7 bd 5a 30 56 3d
       0.1723035 0.15564737 -0.08157572 0.052292205
000060 9b 81 50 3c 30 af 0d bf c7 bb 35 3d 52 09 68 3c
       0.012726213 -0.5534544 0.04436853 0.014162378
000070 5b a7 18 be 11 ec 63 be 49 e2 81 3d 78 8e 20 3e
       -0.14907591 -0.22258021 0.063419886 0.15679348
000080 9d f7 c4 bd 03 ae df be 9d 37 4e 3c 50 9d 82 3b
       -0.09617541 -0.43687448 0.012586501 0.0039860383
000090 cc 55 26 bd b9 d2 3d 3d 81 bb a5 3d fe 32 cb bd
       -0.040609166 0.04634354 0.08092404 -0.09921835
0000a0 6f cb b0 3d ad 4c 19 bf 03 38 b1 bd 37 9b c5 3d
       0.08632552 -0.5988262 -0.086532615 0.096487455
0000b0 35 77 11 be 2e f0 5d bd 77 90 28 3b 07 e7 c5 3c
       -0.1420563 -0.05418413 0.0025720873 0.024158014
0000c0 d4 07 1d bf c7 87 a0 3d 5b 08 ed be e5 70 8b be
       -0.6134007 0.078383975 -0.46295437 -0.2723457
0000d0 bc f7 da 3d ca bb a5 3e 89 09 8d 3d 6b b1 d0 3d
       0.10691783 0.32369834 0.06886584 0.1019009
0000e0 fe 14 da bb 8f d6 77 be 25 8a 8a 3d 80 13 02 3d
       -0.0066553345 -0.24202941 0.0676463 0.031756878
0000f0 df 5a 72 3d a5 69 f2 3e 5a 63 b5 3d 59 42 4e 3e
       0.059168693 0.47346225 0.088568404 0.20142497
000100 37 fc 48 bc e8 bd 82 be 1f e4 04 be c6 63 3a 3e
       -0.012267164 -0.25535512 -0.12977646 0.18202123
000110 e3 4c fa 3d 6c f2 6c 3e 01 21 08 bd bd 27 1c be
       0.12221696 0.23139352 -0.0332346 -0.15249534
000120 8d e9 91 bd ac 1d 33 bd 17 d2 7a bc eb f5 18 be
       -0.071246244 -0.04372947 -0.015308878 -0.1493756
000130 49 5a d2 bb 80 6b d8 be 11 c4 51 bd c3 9a bb 3d
       -0.0064194542 -0.42269516 -0.051212374 0.09160378
000140 03 19 ea bd 1b 6f dc bd de 52 fb 3c 67 4e 03 be
       -0.11430552 -0.10763379 0.030679163 -0.12822877
000150 fa 35 cf bd b1 2e de be 25 43 db bc 18 8f 38 bd
       -0.10117717 -0.43394998 -0.026765415 -0.04505834
000160 ad a3 aa bd 18 0e 28 be 3e e9 43 3d a8 f2 04 3e
       -0.08332 -0.16411626 0.04782986 0.12983191
000170 eb 5d 59 be f5 76 92 be ec 1a f9 bc 59 13 32 be
       -0.21227233 -0.28606382 -0.030408345 -0.17390193
000180 38 b7 80 3d b7 1c 6f be 3a 76 fd 3c 68 c6 3b bd
       0.06284946 -0.23350798 0.030940164 -0.04584351
000190 51 56 92 3f 3e 63 78 3d ec b2 50 3e de 80 16 be
       1.1432592 0.06064152 0.20380753 -0.14697596
0001a0 a1 fd 6a 3d 69 0f 82 bd a9 81 25 bd 20 40 07 be
       0.057370786 -0.063505955 -0.040406857 -0.13208055
0001b0 b0 b6 f4 bd 82 04 25 be de c4 90 bd fb 73 91 3d
       -0.119489074 -0.16115001 -0.070687994 0.071022
0001c0 2b c4 9d 3d 3f bc d7 bd 7d ec 24 bd cb 0f 5a 3d
       0.07703432 -0.10533952 -0.040264595 0.053237718
0001d0 99 f0 44 3d 23 1f 8d 3c 98 46 fc bb 4b 8c fb 3d
       0.048081014 0.017226761 -0.007698845 0.12282618
0001e0 3a 95 6e 3d a3 3f 03 3e 4e 86 b9 bc b4 59 b7 3d
       0.058247782 0.12817244 -0.02264705 0.089526564
0001f0 1e 1a c0 3d 2f 5f 8e be 59 58 28 3d 0c c7 27 3e
       0.093799815 -0.27806994 0.04109988 0.16384524
000200 d6 67 af bc 5d aa e3 be 95 ea 10 be de 8c 1f 3e
       -0.021411818 -0.44465914 -0.14151986 0.1558108
000210 f3 a4 bf bc ae c8 35 be 5e 5a 62 3d 27 d9 9c bc
       -0.023394084 -0.17752334 0.055261962 -0.019146515
000220 90 71 1b be 08 b1 bb be e1 0c d1 3a ad cb c5 3d
       -0.1518004 -0.36658502 0.0015949273 0.09657989
000230 23 ff b9 bd 9c 67 c8 bc c6 07 b9 bd de d5 3c bc
       -0.090818666 -0.024463467 -0.09034686 -0.011525599
000240 1a 74 0d be c3 45 d6 be 52 29 70 3e 97 46 bc bd
       -0.1381382 -0.418501 0.23453262 -0.091931514
000250 0f 66 53 be f0 e7 b9 be ef 28 32 3e 9f ae 47 3d
       -0.20644401 -0.36309767 0.17398427 0.048750516
000260 96 b9 95 3e c8 da 27 3d 19 64 8f 3d ef e0 55 3d
       0.29243153 0.04098013 0.07001514 0.052216467
000270 8c 4f 86 bd 11 e3 34 be 70 8d 45 3b 4d cc a5 3d
       -0.06558141 -0.17664744 0.0030144118 0.08095608
000280 46 cf 0f bf dd ed 4e bd 76 b7 39 bd 14 b5 3e 3e
       -0.5617565 -0.050519813 -0.045340978 0.18623763
000290 80 5a 3a 3e f8 b3 28 bd e3 43 f4 bd 1a 41 82 3d
       0.18198586 -0.041187257 -0.11927011 0.063600734
0002a0 6e 8a 86 be 8d 9f 9c 3d 59 30 a5 3d 02 3d 78 bd
       -0.26277488 0.076476194 0.08065862 -0.060605057
0002b0 ab 12 58 3e dd f5 65 be 3b d5 00 3d e5 d1 89 3e
       0.21100871 -0.2245707 0.031453352 0.2691795
0002c0 09 8b a6 be de d0 c3 3c 84 e5 68 bd 74 57 c9 3e
       -0.3252795 0.023903307 -0.05685951 0.39324534
0002d0 73 54 0a be e4 3c 0a 3e 15 7d 80 3d 50 24 be bd
       -0.13508777 0.1349979 0.062738575 -0.0928427
0002e0 10 d1 1f 3f a6 2a aa 3d 54 c6 92 3b 65 d9 18 3e
       0.6242838 0.08308916 0.004479209 0.1492668
0002f0 85 29 b2 bd a4 45 92 3d a6 d9 ea 3d 01 59 9d 3c
       -0.086993255 0.07142189 0.114672944 0.01920748
000300 fe 7f bb 3e aa 33 50 bd a6 7c 06 be 64 37 e1 bd
       0.36621088 -0.05083052 -0.13133487 -0.10996893
000310 71 e9 e0 3d 39 4f ae bd 67 e6 1a 3d 48 03 d8 3d
       0.109820254 -0.08511204 0.037817385 0.10547501
000320 f0 f8 59 3e 86 43 50 3e a6 39 bc bd d0 ea 03 3d
       0.21286368 0.20338258 -0.09190683 0.032206357
000330 68 9d af 3e cd 43 27 3e 0c 57 c9 bd 11 49 0c bf
       0.3429978 0.16334458 -0.09831056 -0.5479899
000340 d9 f5 bf 3e 39 4c ed bd fb b5 c6 bb aa ea 40 bd
       0.37492254 -0.11586804 -0.006064174 -0.047098793
000350 a3 3a d6 3d 39 33 a6 3d 4d 26 09 bd 63 a5 be 3d
       0.10460403 0.08115239 -0.033483792 0.09308889
000360 92 b8 a2 3e 3b 3b 78 3d 11 15 29 3c 22 fd b2 bd
       0.3178144 0.06060336 0.010319964 -0.087396875
000370 ef 98 40 bd 0a 20 23 3e e5 46 d3 bd 24 30 6c bd
       -0.04702085 0.1593019 -0.103162564 -0.057663098
000380 ec 70 74 3e 2e 35 da bd 61 7a 0d bd 22 15 2d bc
       0.23871201 -0.106546745 -0.034540538 -0.0105641205
000390 00 9f 05 be 08 ad 53 3e a0 f0 a2 3d c6 5d 9c 3d
       -0.13048935 0.20671475 0.07956052 0.07635073
0003a0 b1 29 04 bc 04 16 09 be c4 51 81 3d 05 1c 0f 3e
       -0.008066581 -0.13387305 0.06314424 0.13975532
0003b0 f5 f5 87 bd be 93 b5 3d 7a 66 86 bd 71 4d 77 3d
       -0.066387095 0.0886607 -0.065625146 0.06037659
0003c0 f4 86 72 bc a9 83 30 3e 2b 50 53 3d c6 a0 3b 3e
       -0.014802683 0.17237724 0.051590126 0.18323049
0003d0 d9 31 b8 bc 14 ba b7 3d 05 1d 9b bc f2 08 9a 3e
       -0.022484707 0.089710385 -0.018934736 0.3008495
0003e0 d8 ed 29 be 13 9c 8a bd c1 44 11 bd e9 31 ca 3c
       -0.16594636 -0.0676805 -0.03546596 0.024682002
0003f0 8c 15 aa 3d e1 9c a8 3e 1d 7a 64 3c 35 9a a5 bd
       0.08304891 0.3293219 0.01394513 -0.08086053

fc1.bias f4 [256]
000000 e5 e5 86 3c 6c a1 59 bc 51 79 18 3d c8 df 89 be
       0.016467044 -0.013283115 0.03722507 -0.26928544
000010 70 4f 09 be a1 29 1a be 64 ed 6c be 82 d9 62 bd
       -0.13409209 -0.15054943 -0.23137432 -0.055383213
000020 7c 6c 09 3d e4 d6 dd bc ae eb a2 3d f9 d7 46 bd
       0.033550724 -0.027080007 0.079551086 -0.04854581
000030 42 40 6e 3c ce 5c 51 3d be 30 f5 bd 8f 28 93 3d
       0.014541687 0.051113896 -0.119721875 0.0718547
000040 ab a6 51 be c1 30 ba be 9f 13 40 bd 5d 90 8a be
       -0.20473735 -0.3636532 -0.046893712 -0.27063265
000050 3a 21 8b bd 12 14 c4 3b fa 17 c8 bd d0 78 81 bd
       -0.06793447 0.005983838 -0.09770198 -0.06321871
000060 9c b2 b5 bd 58 b0 a4 3c fa f7 7a bd 2a 80 af bd
       -0.08871958 0.020103619 -0.061271645 -0.08569367
000070 23 43 95 bd 32 b8 5b be b8 58 91 bb 31 43 b6 bd
       -0.07288196 -0.21456984 -0.004435625 -0.088995345
000080 65 98 59 bd 69 7c ad bc f5 30 e8 bb d7 9b a5 be
       -0.05312385 -0.021177487 -0.0070859143 -0.3234546
000090 5d 18 06 3e ab a3 cf bd 29 11 7f 3d f1 3b 4d be
       0.13095231 -0.10138639 0.062272225 -0.20042397
0000a0 7e d7 13 bd 65 b6 34 bd 3f f1 1c be 0b cb 7a be
       -0.03609418 -0.044119257 -0.15326403 -0.24491517
0000b0 fc c6 70 bc 29 86 e5 bd b2 c2 b3 be b6 d4 27 be
       -0.014695879 -0.1120723 -0.35109478 -0.16389737
0000c0 90 fc 25 be f9 14 1e bd 96 0a 95 bc e4 e5 1d 37
       -0.16209626 -0.03859422 -0.018193524 9.411455e-06
0000d0 92 95 61 3d b8 4e 2b be ea e7 78 3d 50 7f df 3d
       0.055074282 -0.16729248 0.060768045 0.10912955
0000e0 53 ee 93 be dc d5 fd 3c 77 af c1 3d 85 94 09 be
       -0.28892764 0.030985765 0.094572954 -0.13435562
0000f0 3a 88 e8 3c 73 d8 f4 be 0f 9a 0d 3c c8 41 d5 3d
       0.02838527 -0.47821388 0.008642687 0.104129374
000100 59 00 fd bd c9 2f 54 bd 56 c1 9d be 1f ae e9 bc
       -0.12353582 -0.051803384 -0.30811566 -0.02852541
000110 b1 ab b5 bd df b5 da 3c 47 ad 93 3d ed ba 80 bc
       -0.08870638 0.026698051 0.072107844 -0.015714133
000120 35 43 f9 bd ff 69 b6 bd 3a 65 f6 bb 6d b8 6d 3d
       -0.12171022 -0.08906936 -0.0075193914 0.05803721
000130 d9 a2 17 3e 8c 8d 06 3c 4b c6 a3 3d 7c 77 a2 bd
       0.14808215 0.008212458 0.07996806 -0.07932946
000140 4c 72 f4 bd 65 78 5f be 83 fc 7b be b7 b9 91 be
       -0.11935863 -0.2182327 -0.24608044 -0.28462002
000150 c2 11 b7 3c d3 a8 90 3d 95 86 1a bd ad 34 ac be
       0.022347335 0.07063451 -0.037726004 -0.33633938
000160 44 70 7e bc 2a 5a d3 ba a8 ec d0 bd b0 93 07 be
       -0.015529696 -0.0016124893 -0.102013886 -0.13239932
000170 6d 07 42 be ce 05 43 bd 15 13 28 be 66 45 07 3e
       -0.18948145 -0.047612958 -0.16413529 0.13210067
000180 fb 40 9b bd 7f 0a ab bd 4e 5f d2 bd da 1e 42 be
       -0.075807534 -0.08351611 -0.10272084 -0.18957081
000190 f3 3a d6 bd 46 4d 37 be b1 4d 1c be 54 de cc 3d
       -0.104604624 -0.17900571 -0.15264012 0.10003343
0001a0 01 93 2b bd 4e 2f ba be 10 2a 57 be 4d 0a d7 bd
       -0.04188824 -0.36364216 -0.2101214 -0.105000116
0001b0 dd ba 17 3a 0f 96 83 be 83 71 50 be 43 ed 4d 3d
       0.00057880377 -0.25700423 -0.20355801 0.0502751
0001c0 8a c0 c6 bd 63 9c 11 be 25 0c 6a 3c 1d 1b d1 bc
       -0.09704693 -0.14219813 0.014285122 -0.025525624
0001d0 87 3a 8c be b3 16 b2 be de 3d a8 bd d8 87 10 be
       -0.27388403 -0.34782943 -0.08214925 -0.1411432
0001e0 20 2d 0c be c4 be c5 bd a5 c4 9d be 04 41 89 3c
       -0.13689089 -0.09655526 -0.3081409 0.016754635
0001f0 2d a0 05 bd 9f 66 55 3e da 61 25 bf 9b 3e 6e be
       -0.03262346 0.20839928 -0.64602435 -0.2326607
000200 9e 0b 9c be f2 a6 10 3e 62 45 37 be 4e c8 88 be
       -0.30477613 0.14126185 -0.17897561 -0.2671532
000210 6f c5 0e 3e 63 79 05 be 39 d1 b4 bd 93 2c 26 be
       0.13942502 -0.13034587 -0.088289686 -0.16227941
000220 6b c7 86 be 01 d0 53 be c4 3b 1a be 20 10 23 3d
       -0.2632402 -0.20684816 -0.15061861 0.0398103
000230 25 a5 eb bd b9 30 78 bc fc 96 13 be 92 1c 21 bd
       -0.11506108 -0.015148335 -0.14413065 -0.039333887
000240 fd 52 96 bd 2c 87 80 3d 64 18 9b bc 9c 74 58 3d
       -0.073400475 0.06275782 -0.018932529 0.052845582
000250 f1 c4 11 bc 0d 97 65 be 8d e5 62 3d 67 93 6c bd
       -0.008897052 -0.22420903 0.055394698 -0.05775776
000260 80 27 28 be 92 91 f9 bd 06 51 ff bd c7 b8 b5 bd
       -0.16421318 -0.121859685 -0.12466626 -0.08873134
000270 3a 2c 13 be 2c e8 2b 3d 3f ae 35 be a0 c7 f9 bb
       -0.1437234 0.041969463 -0.17742251 -0.007622674
000280 09 f4 70 be b7 64 36 be 14 41 90 bc a5 73 3e be
       -0.23530592 -0.17811857 -0.017609157 -0.18598802
000290 a5 ec e8 bd e2 4f d0 bd fb da 01 be 27 9c 00 be
       -0.11373261 -0.101714864 -0.1268119 -0.12559567
0002a0 a0 90 91 be 42 52 b9 be db a5 6e be 26 11 9f be
       -0.28430653 -0.3619557 -0.23305456 -0.3106777
0002b0 7d b6 05 be 69 12 ac bc dd 1d b8 bd 62 52 24 be
       -0.13057895 -0.021004872 -0.08990071 -0.16047052
0002c0 4e a1 16 be 06 62 a9 be a6 03 27 be 5d b6 c8 bd
       -0.1470997 -0.33082598 -0.16309986 -0.09800408
0002d0 85 e7 59 3d 68 ad 80 bc 81 6d 28 3b 39 c4 68 3c
       0.05319931 -0.015707687 0.0025700035 0.014206939
0002e0 91 f6 80 3d c1 bd b1 bc 9c 07 80 be 3a ae 49 be
       0.06297029 -0.021696927 -0.25005805 -0.19695368
0002f0 0d bc 21 bc 97 68 e2 bd ec d8 c8 bd 20 f8 95 3c
       -0.009871495 -0.11055105 -0.098069996 0.018306792
000300 00 4e 89 3d 3a cc 82 3d 3b 36 ae 3d 51 bc 9a be
       0.067043304 0.063866094 0.085064374 -0.302218
000310 ea 7b fc bc 9e 47 e3 bc 41 1d 58 be 9e 17 50 3d
       -0.030820806 -0.02774411 -0.2110491 0.050803773
000320 9b 49 32 3c 20 47 3f 3e e3 dd 84 bc f6 81 1d bd
       0.010881807 0.18679476 -0.016219085 -0.03845402
000330 01 80 0e 3d 5e 45 05 3d 64 75 16 be ae 48 e8 3d
       0.034790043 0.032536857 -0.14693218 0.113419876
000340 1a 57 ce bd 26 16 33 be 9f 88 93 be e1 de 68 3c
       -0.10075207 -0.17488918 -0.2881517 0.014213295
000350 f4 0e 56 be e7 0c b2 be a4 99 e4 be 86 f4 b6 3d
       -0.20904142 -0.3477547 -0.44648468 0.08933358
000360 33 40 20 be 98 e9 8a be 02 d0 a5 be aa c6 79 be
       -0.1564949 -0.27131343 -0.3238526 -0.2439219
000370 35 64 60 bd df 98 73 3d c9 79 b6 3d e3 e3 04 be
       -0.054783065 0.05947196 0.089099474 -0.12977557
000380 ec e1 05 bf b4 3c ad be f0 ed c1 bb bb 24 23 be
       -0.52297854 -0.33835375 -0.005918257 -0.1593198
000390 db b7 0c be d6 f0 2d be 13 b9 0c be 46 63 33 bd
       -0.1374201 -0.16986403 -0.13742475 -0.043795846
0003a0 82 31 05 be 82 7c 02 be 1b 1b 83 3d 64 1e 37 be
       -0.13007167 -0.12742808 0.06401654 -0.17882687
0003b0 21 0b ab 3c 58 21 a2 be b3 2d 70 3c 7a 5a a8 bd
       0.02087933 -0.31666064 0.014659333 -0.08220382
0003c0 f4 ef 2a be 3a ad 14 be 9d f5 1c 3d 9d 18 16 be
       -0.16693097 -0.14519206 0.038320173 -0.14657827
0003d0 04 80 9d be e0 eb d1 bd 18 cb b8 bd 54 0c f7 bc
       -0.3076173 -0.10250068 -0.09023112 -0.030157246
0003e0 0c 6f 85 3d 32 75 87 be a9 09 4a be fb 64 24 be
       0.06515321 -0.264566 -0.19730248 -0.16054146
0003f0 ce 62 bd bd 78 f5 c1 bd f0 14 8f be 61 3c 5b be
       -0.09247361 -0.094706476 -0.27945662 -0.21409751

fc2.weight f4 [256, 256]
000000 49 41 e0 3c 3f ab 3f 3c 9c ff 11 3d d2 e8 c6 bd
       0.02737488 0.011698543 0.03564416 -0.09712376
000010 82 e4 ac bd 08 5a 4a 3e b6 95 59 3d 6c 3c a1 bc
       -0.08442022 0.19760907 0.05312129 -0.019682132
000020 ac 15 91 3d e7 c8 fc 3d a8 3e 01 3c 77 5d ec 3d
       0.07084212 0.123430066 0.007888474 0.115412645
000030 0b 93 f4 3b bb 98 85 bd 30 91 79 3d 45 ea 4c 3c
       0.007463818 -0.06523272 0.060929477 0.012507026
000040 bc 61 0f bd 1b 0f 39 3e 48 24 82 3e 6d 18 15 3d
       -0.035005316 0.18072169 0.25418305 0.036400247
000050 b0 06 ef bd 85 3f 0d bd d4 7a 38 bc 95 86 a5 bc
       -0.116711974 -0.034484405 -0.011259753 -0.020205775
000060 b7 b1 15 3d 7a 38 b2 3c f3 a6 7c 3d bd df de 3d
       0.036546435 0.021755446 0.061682653 0.108825184
000070 7e 10 9c 3c b6 4c c0 bd 3c 2d 3e 3d 25 49 0f bd
       0.019050833 -0.093896315 0.046429858 -0.034981865
000080 db 04 bf ba bc 7d bc bc 96 fe 32 3d 80 35 ae 3d
       -0.0014573591 -0.023009174 0.043699823 0.08506298
000090 42 1a 42 be e5 1d 8d bd 61 cd a7 3d 71 2b 8b 3d
       -0.18955329 -0.068904676 0.0819347 0.06795395
0000a0 6d 5c 2c 3d a3 bd 22 be c2 63 f8 bd ca 41 52 bd
       0.04208033 -0.15892653 -0.12128402 -0.051332273
0000b0 35 bc bf bd a0 d8 6c 3d 76 de e1 3d 81 1b 70 3d
       -0.093620695 0.057823777 0.11028759 0.05861998
0000c0 0f 06 bf bc 68 ca 26 3d 5a ad fe 3c 17 0b 36 3c
       -0.023318319 0.040720373 0.03108852 0.011111042
0000d0 e1 2d 90 bd 1f 03 29 3d a8 d1 c0 bb a6 80 6b bd
       -0.07040001 0.041262742 -0.005884368 -0.057495736
0000e0 44 b1 44 3c c9 74 e2 bd f6 5e 25 bd 75 9c 11 bd
       0.012005154 -0.11057431 -0.040373765 -0.0355496
0000f0 f7 2c bd 3c 9a 3d 13 3e 16 35 96 3c 58 3f b1 bd
       0.02309273 0.14378968 0.01833586 -0.0865466
000100 b5 a0 a5 3d 29 74 d8 3b 77 15 d1 3d e0 86 ba 3d
       0.08087293 0.0066056442 0.10209172 0.091077566
000110 83 fc 2b bd 3f 98 7c 3c d8 c8 0a 3e c1 6a 89 3d
       -0.04198886 0.015417158 0.13553178 0.06709815
000120 fb 94 b6 bd 2a 4c 15 3e f4 7f e5 bb be 00 f3 bd
       -0.089151345 0.14579836 -0.0070037786 -0.11865376
000130 55 a3 0f 3d c5 12 fe bc da 6f 9c bc fc 20 c6 3d
       0.035067875 -0.03101481 -0.019096304 0.0967426
000140 68 63 ee bd 7f ee ef bd 4a 6c 46 bd bc fe 8b bc
       -0.11640054 -0.117154114 -0.048443116 -0.01708924
000150 0c b0 2b bd b7 42 38 bd a8 86 a3 3d 6f e0 c5 3d
       -0.04191594 -0.0449855 0.07984668 0.09661948
000160 92 45 a3 3c 2f 1d 85 be 08 12 bb bd c7 1f db 3c
       0.019930635 -0.25998828 -0.091342986 0.026748551
000170 24 33 b4 bd 85 e4 f6 bd f2 36 31 bd 44 88 d7 3c
       -0.08798817 -0.120553054 -0.04326529 0.026310094
000180 90 a0 b7 3d 1d b7 c0 3d 68 af 76 bb df f7 5b 3e
       0.08966172 0.09409926 -0.0037641171 0.21481274
000190 e1 2a 0f 3d 76 46 9a bd a8 a7 eb bd ab b1 92 bd
       0.034953002 -0.075329706 -0.11506587 -0.07162794
0001a0 07 a6 44 be d2 4c ef 3d 10 54 2e bb 3d b9 b4 3c
       -0.1920396 0.11684574 -0.0026600398 0.022060985
0001b0 7f f9 0e be 01 e7 c2 3d eb ac 3e 3d 3b 1b db bc
       -0.13962363 0.09516717 0.046551626 -0.026746383
0001c0 6d 1f ce 3d 90 08 ae bd cb 73 e9 3d d6 f0 e9 bb
       0.10064588 -0.08497727 0.11399039 -0.0071393056
0001d0 89 b4 8b 3c 29 0e fd 3c 78 9c 9f 3d 7e f9 ec 3d
       0.01705386 0.030890541 0.07793516 0.11571024
0001e0 17 5e e4 bd db 6c 9e 3d 99 c7 82 bc f6 61 fb ba
       -0.11150759 0.07735606 -0.015964316 -0.0019178975
0001f0 85 88 09 3d 4a d3 cd 3d cc f7 a4 3b fb be c0 bd
       0.03357746 0.10050066 0.0050344225 -0.09411427
000200 bf 74 f6 3d c9 e7 12 be b7 ed 12 be 19 65 0b bc
       0.12033986 -0.14346232 -0.14348494 -0.00850799
000210 2c fe 02 be 6a 2b e5 bd 73 bb 64 3d 41 70 9d 3b
       -0.12792271 -0.11189921 0.055842828 0.0048046415
000220 71 d7 32 bd 0d 17 1d 3e 71 d0 a5 bd 01 df 05 bd
       -0.043662492 0.15340824 -0.08096398 -0.032683376
000230 58 0c 9f 3c 2d 01 88 3d 96 ff cc bd a3 8d 0d 3e
       0.019415066 0.06640849 -0.10009687 0.13823561
000240 cb 3f 0a be ce 2a 91 bd 7f 36 e9 3d f5 04 c3 3d
       -0.13500898 -0.070882425 0.113873474 0.0952243
000250 b4 52 0a be c1 f7 3f 3d b6 5e 9d bd d5 71 9d bb
       -0.13508111 0.046867136 -0.0768408 -0.0048048296
000260 da 62 fb 3d ec 40 c9 bc b1 be b7 bd df a1 c2 bd
       0.12274714 -0.02456709 -0.089719184 -0.09503531
000270 0e f4 a8 3d 7f 46 ba 3c 6c b8 0f bc 0e 11 5b bc
       0.08249675 0.022738693 -0.008771997 -0.013370765
000280 0e 6c e5 bd 21 dc 49 3c 54 73 b6 3d 7f e9 85 bd
       -0.112022504 0.012320549 0.08908716 -0.065386765
000290 7e c8 1a 3e 5c ea 64 be 1b e8 27 3d 71 6f fc 3d
       0.15115544 -0.22355026 0.040992837 0.12325943
0002a0 68 05 55 3d 7c 9e 4f 3e cd df a4 ba a6 54 bc 3d
       0.05200711 0.202753 -0.0012578905 0.09195833
0002b0 e0 15 92 bd fb ab 06 bd 21 47 15 bd 2f ca 15 bd
       -0.071330786 -0.032878857 -0.036444787 -0.03656977
0002c0 20 9d 44 3e 2e 40 58 bd 85 c6 34 bd 7f 65 4a 3e
       0.19200563 -0.05279558 -0.044134635 0.1976528
0002d0 65 32 bc bc ed db 57 3d a3 fb 88 bd 73 5e 34 3d
       -0.022973249 0.052699972 -0.06688621 0.044035386
0002e0 7b 59 4a 3e 25 fd 9e 3d f9 48 39 3e 5c 39 a7 3d
       0.19760697 0.07763127 0.18094243 0.08165237
0002f0 c8 90 ba 3d bd 3d 21 3e 00 9e f9 3d 23 bd 90 3b
       0.09109646 0.15746208 0.12188339 0.004417078
000300 b2 bd 82 3c 06 49 92 bc da d9 16 be 2f 53 6a 3e
       0.015959594 -0.017857086 -0.14731541 0.22883295
000310 4c 51 8b 3d 3c c1 89 bc 5f 96 25 3e 37 f3 8a bd
       0.068026155 -0.016815774 0.16170643 -0.06784671
000320 60 69 77 3d 6d 5d c8 3d 98 03 98 3d 4a 4d 1d 3c
       0.060403228 0.097834446 0.074225605 0.009600947
000330 b4 50 b1 3d b8 dc f5 3c 8a 36 1a bd 60 34 02 3e
       0.08657971 0.030012473 -0.03764967 0.12715292
000340 87 30 74 be cd 5c 6b be 64 33 ab bb 7d fb a0 3d
       -0.23846637 -0.2298462 -0.005224632 0.078604676
000350 5f 78 1c bd 90 07 05 3e 43 60 22 bd 5f 4f 6b 3d
       -0.038200732 0.12991166 -0.039642584 0.05744874
000360 8f 71 4d bc cd 6f 45 3d 48 72 01 3e c8 c6 84 3d
       -0.0125392815 0.048202325 0.12641251 0.06483227
000370 28 96 83 be 78 77 4d bd 7d 11 27 3e 8f 38 14 3d
       -0.25700498 -0.050162762 0.16315265 0.03618675
000380 f3 43 a9 bd bf c0 a9 3d ea 7c bd bd f0 ea ba bd
       -0.082649134 0.082887165 -0.09252341 -0.09126842
000390 1b 41 ee bc da 64 1a bc 0d fa 69 bd be f2 94 bd
       -0.02908378 -0.009423459 -0.057123233 -0.07272862
0003a0 24 eb 08 3e af 5b aa bb 31 11 ef bc 33 99 87 3b
       0.13370949 -0.005198918 -0.029183002 0.004138136
0003b0 c4 e3 ad 3c ee c9 28 3d 19 3e ac bd 56 c3 d2 bc
       0.021226771 0.0412082 -0.08410282 -0.025727909
0003c0 b5 ce 7b 3d b7 a5 31 be 91 a5 85 3c 51 8d cd bd
       0.061476428 -0.17348371 0.0163143 -0.100367196
0003d0 cc 18 c3 bc 35 85 ea bd 59 a9 95 3d 94 89 91 bc
       -0.023815535 -0.114511885 0.07307691 -0.017765798
0003e0 60 5d b9 bb 8e fc c2 bd a2 35 14 be 8b 34 64 bd
       -0.005656883 -0.09520827 -0.14473584 -0.05571417
0003f0 6f 5e 4e be f8 96 dc bb 7f 77 9d 3c d3 65 df bc
       -0.20153211 -0.006731864 0.01922202 -0.027270233

fc2.bias f4 [256]
000000 8d a0 0f be 01 8f 56 be e0 cf 3a be b1 62 f0 bd
       -0.14026089 -0.20952989 -0.1824336 -0.11737574
000010 e3 09 01 be 86 c2 eb bd b3 be 26 be 2b b2 16 be
       -0.12601428 -0.11511712 -0.16283683 -0.14716403
000020 0c 1e 14 be 09 2d 7e bd c5 b5 53 bd 0f 8d e5 bd
       -0.14464587 -0.062054668 -0.05168702 -0.112085454
000030 98 c5 ca bd 22 76 15 be 9d 68 06 be db 65 bf 3b
       -0.09900969 -0.14595845 -0.13125844 0.0058409995
000040 c8 a8 18 be 1c bb 1f be 0a 5e 6e be 11 41 0f be
       -0.14908135 -0.1559872 -0.2327806 -0.13989665
000050 3c e7 c5 bd 44 ca 43 be f1 85 87 be e7 d4 ba bd
       -0.09663245 -0.19120127 -0.26469377 -0.09122639
000060 5c 4e e0 bd 1c 1c 2d be 3d 9b 5c be cd 4f 37 be
       -0.10952446 -0.16905254 -0.21543594 -0.17901535
000070 e2 71 e4 bd d6 69 15 be c9 71 d2 bd 0c e3 52 be
       -0.11154534 -0.14591154 -0.10275609 -0.20594424
000080 45 0a 15 be 34 6d c1 bb 78 4c 0a be 80 2c 34 be
       -0.14554699 -0.0059029106 -0.13505733 -0.175951
000090 80 ee 61 be 63 43 f1 bc bd fc 28 be 94 84 aa 3b
       -0.22063637 -0.029451078 -0.16502662 0.005203793
0000a0 fb e2 e2 bd f9 c3 10 be f1 b1 80 bd fc f4 ef bc
       -0.11078449 -0.14137258 -0.0628394 -0.029291622
0000b0 8c 27 2d be b3 60 2b bd 92 a1 f1 bd 4b 73 b2 bd
       -0.16909617 -0.041840266 -0.11798395 -0.08713397
0000c0 37 94 0e be 1f dc 27 bc 6e 3c f7 bd 6f 38 9a bd
       -0.13923727 -0.010245352 -0.12072073 -0.07530295
0000d0 94 e8 97 bd b6 ff 09 be bf c3 2f be 07 26 32 bd
       -0.07417408 -0.13476452 -0.17164515 -0.043493297
0000e0 16 82 00 be a7 09 00 be a9 c5 00 be 54 76 d3 bc
       -0.12549624 -0.12503682 -0.12575401 -0.02581326
0000f0 84 bf 34 bd 6a 5b 3c be 7c 5f b2 bd bc de e5 bd
       -0.044127956 -0.18394247 -0.087096184 -0.11224124
000100 ad d9 1e be e1 04 2e be 6f fa 7e be a5 1e 06 bd
       -0.15512724 -0.16994049 -0.2490022 -0.03274407
000110 5a 81 84 bd 91 f4 91 bc 69 5b 25 be a6 45 38 be
       -0.06469984 -0.017816814 -0.16148151 -0.17995319
000120 13 40 93 be 8f ef 09 be 3c b8 b3 bd 46 da c5 be
       -0.28759822 -0.1347029 -0.08775374 -0.38643092
000130 df 62 8a bd 9a 2e 71 3d d6 22 3a be 5c d6 85 be
       -0.067571394 0.058882333 -0.18177351 -0.26140106
000140 5e b4 f6 bd 53 8c b2 bd b7 c7 19 be 0e fd f9 bd
       -0.12046121 -0.08718171 -0.15017591 -0.122064695
000150 76 e8 bc bd b1 07 e9 bd c5 aa fe bd b4 9c d4 bd
       -0.09224026 -0.1137842 -0.124349155 -0.10381451
000160 f8 b3 87 bd 6f 01 b0 bd cc e4 59 be e4 41 8a be
       -0.06626123 -0.085940234 -0.21278685 -0.27003396
000170 58 ad 65 bd c3 3b 56 bc ad 9f 82 be 6d ef 40 be
       -0.056073517 -0.013075772 -0.25512448 -0.18841334
000180 d4 27 aa bd 65 a6 8e 3d f1 70 4a bb 5d 3e 50 be
       -0.08308378 0.06965331 -0.0030890072 -0.2033629
000190 5e 23 3f be b0 c1 9f bd 73 4a 06 be 15 a7 78 bd
       -0.18665835 -0.07800615 -0.13114338 -0.060706217
0001a0 ca 7f 0a be fd 7c 6b bd 58 63 bc bc ba 6b 0b bd
       -0.1352531 -0.057492245 -0.02299659 -0.034038283
0001b0 f9 cb 28 3d a8 fe 46 be 70 3a 72 bd 23 9d 48 be
       0.04121015 -0.19433081 -0.05913776 -0.19591193
0001c0 67 97 18 bd 0d f4 6b be 98 d8 2d be a7 80 38 be
       -0.037253764 -0.23042317 -0.16977155 -0.18017827
0001d0 ec fc 0f bd b9 59 dd bd 82 b9 b0 bd 90 e9 e2 bd
       -0.035153314 -0.10808129 -0.08629133 -0.11079705
0001e0 ae 45 e6 bd 44 75 34 be 41 dd 01 be 03 b9 24 be
       -0.11243759 -0.17622858 -0.12682058 -0.16086201
0001f0 87 59 fe ba 44 cc b3 bd 44 8d 1e be 0a 61 dc bc
       -0.0019405343 -0.08779195 -0.15483576 -0.02690174
000200 ce e2 2e be 98 28 2d be 2b cc 42 bd 9e cc ca bd
       -0.17078707 -0.16910017 -0.04755799 -0.09902309
000210 c1 4e 2a be 53 9d 3a bd 49 14 1c be 63 87 5f bc
       -0.16631605 -0.045560192 -0.15242113 -0.013643119
000220 01 81 89 be ed 38 2c be 51 40 bb bd 20 5c 40 3d
       -0.26856235 -0.1681859 -0.09143127 0.046962857
000230 3a c9 6d be 84 bd 45 be 42 42 99 be f1 c6 1b be
       -0.23221293 -0.19310576 -0.29933363 -0.15212609
000240 a4 7e 44 bd 8d 51 a0 bd b6 60 a1 bd f6 9f 5b bd
       -0.047972336 -0.078280546 -0.07879774 -0.053619348
000250 50 0d b4 bc 3d bb 29 be 8e 2b d2 bd 16 d2 48 bd
       -0.021979004 -0.16575332 -0.10262214 -0.04902848
000260 b5 0e 8d bd 43 a0 29 be a0 c5 59 be aa 39 f7 bd
       -0.06887571 -0.16565041 -0.21266794 -0.120715454
000270 27 24 3d be da 8a 96 bd af 66 1c be d8 f2 c4 bd
       -0.18470822 -0.073507026 -0.15273546 -0.09616631
000280 a9 1f d9 bd 9d 45 04 be b7 40 b2 bd ce 86 0d be
       -0.10601742 -0.1291718 -0.087037496 -0.13820955
000290 36 c4 2f be 5c eb 4f be af 41 87 bd 0f 5e 44 be
       -0.17164692 -0.20304626 -0.06604325 -0.19176506
0002a0 8d f8 1f be fc 3d ef bd 96 1f 52 bd 4e 21 8c bd
       -0.15622158 -0.116817445 -0.051299654 -0.0684229
0002b0 62 e8 79 be 94 64 ee bd 43 41 26 be d8 39 6d be
       -0.24405053 -0.116402775 -0.16235833 -0.23166597
0002c0 4a 05 af bd a3 09 0c be d7 dd fe bd 47 b7 5d be
       -0.08545931 -0.13675551 -0.12444656 -0.21651946
0002d0 57 d5 d5 3c 3f 84 1d bd df 79 db bc 45 45 b0 bd
       0.026102705 -0.038456198 -0.026791511 -0.08606962
0002e0 58 b6 1c ba e9 b5 0e be db 6b 81 3c 3b ef fb bd
       -0.0005978099 -0.1393658 0.0157985 -0.12301489
0002f0 d1 23 0a bd 98 68 6c be 40 42 e4 bd 9a 6a 11 be
       -0.033725563 -0.23086774 -0.11145449 -0.14200822
000300 fc 34 61 be 2c 2d 35 be 8e 59 f8 bd 67 a0 1a be
       -0.21992868 -0.17693013 -0.12126456 -0.15100251
000310 a9 e1 1a bc 25 22 a6 bd 70 c5 60 bd a3 e8 4a be
       -0.009453216 -0.08111981 -0.05487579 -0.19815306
000320 e1 3e 9e bd 29 55 9b bd 2f a2 35 be 08 12 f1 bd
       -0.07726837 -0.075846024 -0.1773765 -0.11771017
000330 52 25 10 be b4 5d cf bd d8 cf 04 3d aa 4a c2 bd
       -0.14076737 -0.10125294 0.032424778 -0.09486897
000340 e2 d2 2c be cb c6 8e bd a4 80 fa bd e1 d9 39 3d
       -0.1687732 -0.069715105 -0.122315675 0.0453738
000350 cb 9d 01 be 59 73 85 bd e9 49 af bd e0 20 15 be
       -0.1265785 -0.065161414 -0.08559019 -0.14563322
000360 c3 88 15 be 38 de 06 be 10 5f 62 bd 5e 2a a4 bd
       -0.14602952 -0.13170707 -0.05526644 -0.080158934
000370 0c 48 20 bd d7 e0 67 be 46 e3 9e bd a7 e6 63 be
       -0.03913121 -0.22644363 -0.07758193 -0.22255956
000380 5e 9a 3b be 1f 8d a5 bd 6a f3 ac bd 72 6e 33 be
       -0.18320605 -0.08083557 -0.08444865 -0.175226
000390 4d 0c 09 be 35 da 9c bd ed 2e 0c be 45 df ae bd
       -0.13383599 -0.07658807 -0.13689776 -0.08538679
0003a0 80 18 c2 bd e7 74 05 be a4 9e 2c bd 20 26 fc bd
       -0.09477329 -0.13032876 -0.04214348 -0.12311959
0003b0 67 f8 c8 bd 02 27 ba bd 3d ab 9d 3c a6 0e 4d be
       -0.09813004 -0.090894714 0.019246692 -0.20025119
0003c0 23 4b 01 be 1f fe 66 be 7e 10 6b bd af 9e 09 be
       -0.12626319 -0.22557877 -0.057388775 -0.13439439
0003d0 d2 e1 c4 bd a5 48 35 be 33 67 25 be b2 bf 1b be
       -0.09613384 -0.17703493 -0.16152649 -0.15209845
0003e0 d1 15 0f 3d 91 ce 34 3d be fa 84 bd 4f 59 5e be
       0.034932915 0.04414231 -0.06493138 -0.21713756
0003f0 6e 22 1d be ce 1c 87 bd 5a 4c 66 be c0 71 1b be
       -0.15345165 -0.06597291 -0.22490063 -0.15180111

fc3.weight f4 [128, 256]
000000 8a 97 14 bd 0e 63 8a bd ee ca 13 bc 5f 34 f9 bd
       -0.03627733 -0.067571744 -0.00902055 -0.12168192
000010 fe 5b 44 3d 5a 10 15 3d d6 3b 18 3c 5a b7 4f bc
       0.047939293 0.036392547 0.00929161 -0.012677992
000020 12 36 15 3d 85 73 ba 3d 25 58 07 bc 07 e6 ce 3d
       0.03642852 0.09104065 -0.008260761 0.10102468
000030 4e e8 cf bd 24 b7 e7 bc a4 e3 03 be 39 65 89 bc
       -0.101517305 -0.02828557 -0.12879807 -0.0167719
000040 87 65 35 3e 12 57 cc bd f7 35 7e 3d fd 04 88 bd
       0.17714511 -0.09977545 0.062063184 -0.066415764
000050 ae b2 c0 3c 3e 3f b3 bd 61 73 0b bc 3b 6d 34 3e
       0.023522701 -0.08752297 -0.008511395 0.17619793
000060 05 25 f5 bd 32 55 03 3e 93 09 5c 3d c6 bf 85 bd
       -0.119699515 0.12825468 0.05372007 -0.065307185
000070 35 b6 fa 3c 60 b8 de bd 87 bc f2 bb 13 95 84 bd
       0.030604461 -0.108750105 -0.007407728 -0.06473746
000080 a4 c9 be bd 06 a7 75 3d b8 53 f5 3b 2d 1e 8a 3d
       -0.09315804 0.05997374 0.0074867867 0.06744037
000090 50 91 1a be 3a d1 95 bd 17 31 d2 bc e1 f3 35 be
       -0.15094495 -0.073152974 -0.025658173 -0.17768814
0000a0 2e a2 39 bd b4 9b d9 bd ef 16 5d 3c de ef e7 3d
       -0.045320682 -0.10625401 0.013494237 0.11325048
0000b0 80 0b 37 3d 24 00 c5 bd 79 f9 05 3d ea 1a 92 bc
       0.0446887 -0.096191674 0.03270862 -0.0178351
0000c0 ad e9 f6 bd 88 40 bf bd fd d3 b1 3c 51 82 9d bd
       -0.12056289 -0.0933848 0.02170753 -0.076908715
0000d0 73 bb 33 bc 4a 5f 3d 3c d7 09 3e 3c 35 a0 d5 3c
       -0.010969984 0.011558363 0.011599026 0.02607737
0000e0 09 64 0e bd 40 24 2e 3e 30 45 eb bd a8 6d 8f 3c
       -0.03476337 0.17006016 -0.11487806 0.017508343
0000f0 6b ab e1 bd bc 39 e4 bc cd 51 f1 3d 55 58 a0 bc
       -0.110190235 -0.027859561 0.117831804 -0.01957337
000100 dd 63 b4 3c 55 42 5f ba 30 15 a7 bd 24 c0 b6 3a
       0.022020275 -0.0008516659 -0.08158338 0.001394276
000110 7b aa 38 be cf 27 d7 3c a4 bd e3 bd 50 98 28 bd
       -0.18033783 0.0262641 -0.111201555 -0.04116088
000120 aa 56 05 ba 6e cb 3e bc 9d ab 55 3c 63 3e 7e bd
       -0.00050864613 -0.011645181 0.013041404 -0.062071215
000130 7f fa f2 bd 88 33 31 3b 75 8d ed bd 38 88 08 bd
       -0.118641846 0.0027038772 -0.115992464 -0.033333033
000140 c0 b6 fa bb 3c d9 b6 bd 4f fb 12 3e 76 7e e3 3c
       -0.00765118 -0.08928153 0.14353679 0.027770262
000150 a7 4f 67 bd ce 41 d5 3d 35 8a 16 3e f2 71 68 bd
       -0.056472447 0.10412942 0.1470116 -0.05674929
000160 d5 6e c3 bd 25 14 a5 3c a4 43 64 be 79 74 7b 3c
       -0.09542624 0.020151207 -0.22291428 0.015347593
000170 74 d8 8c bd 46 94 56 3c 35 4d b5 3a 50 c0 ee bc
       -0.06877223 0.013096875 0.0013832214 -0.029144436
000180 c5 3d 54 bd 2c 2b 4a bc 5f 0a ac bd 52 fc 4d 3d
       -0.05181672 -0.012339395 -0.08400416 0.05028946
000190 8c a1 87 bc b9 15 e6 bc 8e 33 b2 bd 9b ef 05 bd
       -0.016556524 -0.02808653 -0.087012395 -0.03269921
0001a0 d8 65 d3 bd d7 fa 51 3d 1c 9f 27 bc 9b 59 e5 bd
       -0.103221595 0.05126461 -0.010230806 -0.111987315
0001b0 42 3c 70 bd 6f b6 38 3d 1f 0f 31 3d d8 5e 1f be
       -0.058651216 0.045095857 0.04322731 -0.15563524
0001c0 11 ea 79 3c 0c d8 3d be 88 e1 fc bc 39 26 0e be
       0.01525356 -0.18539447 -0.03086926 -0.13881768
0001d0 8b d5 5a bd b1 d8 42 be af af 66 bd 3e e6 25 3d
       -0.053426307 -0.19027974 -0.05631989 0.04050278
0001e0 ef 04 82 bc 80 f4 10 be 7a 2b 94 3d 0f 3e 42 bd
       -0.015871493 -0.1415577 0.07234855 -0.047422465
0001f0 4e 1f 41 3d c1 b9 b2 3d 93 8c 27 bd 30 cd 7c 3c
       0.047148995 0.08726836 -0.040905546 0.01542978
000200 55 83 90 3d d1 03 bc bd 30 f0 91 3d c7 b7 24 39
       0.070562996 -0.091804154 0.0712589 0.00015708721
000210 e3 03 8e 3c 02 49 2b bd 8b 01 77 3c 10 83 83 3d
       0.017335838 -0.041817673 0.0150760515 0.064214826
000220 1c 4e 10 bd 5f f3 c0 bd 82 e6 24 be 2f 91 6d 3d
       -0.03523074 -0.09421419 -0.16103557 0.057999786
000230 44 58 f3 bd 37 85 68 bd b7 10 9a bc de d6 50 be
       -0.1188207 -0.05676767 -0.018806798 -0.20394465
000240 84 69 c3 bc bd c6 b4 3c f7 c5 86 bb 9d 14 2d be
       -0.023854025 0.022067422 -0.0041129547 -0.16902395
000250 fa 31 da 3d 0b 63 19 bd 6d a3 38 3c 03 28 3a 3e
       0.106540635 -0.03744797 0.0112694325 0.18179326
000260 02 38 01 be ff 6a bc 3d 55 8d f0 bd 08 9b bb bb
       -0.12619022 0.092000954 -0.11745707 -0.0057252683
000270 3b bd 7e bd f7 f0 ef bc fa 32 9f bd 91 1f 08 be
       -0.062192183 -0.029289706 -0.07773395 -0.13293292
000280 89 0e a6 bd b8 62 47 be c4 51 ea bb bf a6 30 3d
       -0.08108241 -0.19471252 -0.0071508605 0.04312777
000290 a1 fa 1c be b4 00 29 bd a1 d3 5a be 21 48 03 be
       -0.15329982 -0.041260436 -0.21369793 -0.12820484
0002a0 43 40 14 3d c4 0a 18 3d 9c e2 8b bd e8 1f 52 be
       0.036194097 0.037119642 -0.06830332 -0.20519984
0002b0 83 c3 aa bb 6d f2 86 3d ab 07 df bc 2d 0c 14 3d
       -0.005211295 0.06589208 -0.027225336 0.036144424
0002c0 ad 0b 82 3c b7 0e 2c 3d 2a 2e 3e 3d 8e 96 11 3c
       0.015874708 0.04200622 0.046430744 0.008885993
0002d0 41 f8 68 bd 32 55 eb 3d a3 91 4d 3a 2b 2b 36 bd
       -0.05687738 0.11490859 0.0007841831 -0.044474762
0002e0 0d 08 91 3d b5 6b b9 3b cb 3f bc bd ed 36 f5 3c
       0.07081614 0.0056585916 -0.09191855 0.029933417
0002f0 97 13 ef ba 8b ab ae 3d f6 e5 38 bd 09 69 bd 3a
       -0.0018240091 0.08528813 -0.045141183 0.0014450859
000300 6b c9 9e 3d cd 76 6b bd 1e db 97 bd e1 8c 24 3d
       0.07753261 -0.057486344 -0.0741484 0.040173415
000310 9d e6 6e bc d6 4d 1c be a5 03 3d bd 4c 68 8d bd
       -0.01458135 -0.15264067 -0.046146054 -0.06904659
000320 a8 a4 a7 3c 5e 77 c3 bd a3 4d 02 be 08 27 9e bc
       0.020464256 -0.09544252 -0.12724929 -0.01930572
000330 03 29 bd bd 42 5c b4 bc 2d b7 c6 3d b9 74 1f be
       -0.09236338 -0.022016648 0.09702907 -0.1557187
000340 92 f3 1c bd 19 ea c1 bd 69 de 04 be 62 95 a4 3a
       -0.038318224 -0.09468479 -0.12975468 0.0012556727
000350 07 86 84 bd c2 66 99 3a 0b c5 12 be 32 f0 8b bd
       -0.06470876 0.0011703598 -0.14332978 -0.06832923
000360 6a 58 03 bd 72 cf e0 3d e4 e1 87 bd 12 c0 bc bd
       -0.03206674 0.10977067 -0.06634882 -0.09216322
000370 6e 63 45 3d d7 e3 00 be 81 d1 9e bd 69 6f d2 bd
       0.048190527 -0.12586914 -0.077548034 -0.10275156
000380 b0 d5 37 bd 57 8a 20 3b 72 aa cf bd 39 fb a2 bc
       -0.044881523 0.002449652 -0.10139932 -0.019895183
000390 8e 5f c3 ba 72 d4 dc bd 14 b4 7b bd ba e0 80 ba
       -0.0014905797 -0.10782708 -0.061451033 -0.0009832599
0003a0 4f aa 2d 3d 95 fa 97 3d da b5 f8 bc 29 07 a1 bc
       0.042398747 0.074208416 -0.030360151 -0.019656735
0003b0 bf 49 78 bd 3f 03 17 be fe f7 93 3d 8b c3 88 bd
       -0.060617205 -0.14747332 0.07225035 -0.06677922
0003c0 e0 0a 3e be 4f 4f 8d bd 7c 9f 40 3d b5 46 25 bd
       -0.18558836 -0.068998925 0.047027096 -0.040350635
0003d0 8a ab f7 3c 3e eb bd bd 19 b4 9c 3d 8a f9 0f be
       0.030233163 -0.092733845 0.076515384 -0.14060035
0003e0 1d bf cc bc 24 66 a4 3d ea 98 3d bc bb 7a ee bd
       -0.024993474 0.08027294 -0.011572102 -0.11644503
0003f0 b2 ab 29 3d c0 67 2e 3d 23 ee e6 bb 59 ea 17 bd
       0.041423507 0.042579412 -0.007047431 -0.037088726

fc3.bias f4 [128]
000000 5e cc ae bd b9 0b 31 3e ae 7d f5 3c 2c a6 0e bd
       -0.08535074 0.17289628 0.029967155 -0.034826443
000010 7b 93 40 3e 0a ed 00 bd 20 ee 52 bd 00 2c e6 3c
       0.1880626 -0.031476058 -0.051496625 0.028097153
000020 86 ea f8 3d ff 78 a5 bd a3 4c 82 bd 59 60 5c 3d
       0.12154107 -0.08079719 -0.063622735 0.05380282
000030 6f d6 ba bd 24 63 e0 bd e2 8c 07 bd 41 9d 2c 3d
       -0.09122931 -0.109564096 -0.03309334 0.042142157
000040 e7 45 84 bd 4b 9d 16 bd c9 5d 2e 3d 6b 5c 45 bd
       -0.06458645 -0.0367711 0.04256991 -0.04818384
000050 50 60 8c bd 23 59 92 bd bf 1a 0a bd d5 ec b5 3d
       -0.06854308 -0.07145908 -0.033716913 0.08883063
000060 c1 0c b0 bc fa 4c 09 bc a7 b4 13 be c2 37 87 bd
       -0.021490457 -0.008380169 -0.14424382 -0.06602432
000070 17 bc ca bd c2 4d 2f 3e 89 9d d5 3c a1 a9 17 bd
       -0.098991565 0.17119506 0.026076095 -0.037027005
000080 f1 ef 57 3d 4f e5 24 bd 57 07 95 3c 79 19 09 3d
       0.05271906 -0.04025775 0.018191976 0.03347156
000090 ac 9c 7a 3c bd d1 94 bd 9b 06 8e bd 5c d7 ff 3c
       0.015296143 -0.07266567 -0.06934854 0.031230621
0000a0 16 1d b6 3c b8 26 67 bc 25 d7 62 bd fe 24 af bd
       0.022230666 -0.014108352 -0.05538096 -0.085519776
0000b0 d9 f1 e1 3d f5 ef 1e 3c 89 09 46 3b 29 fc 6a bd
       0.11032457 0.009700765 0.0030218086 -0.057369385
0000c0 3e 78 17 3e 45 94 e8 3d c0 ad e0 bc c9 9c 30 3c
       0.14791963 0.11356405 -0.0274266 0.010779568
0000d0 dc 2b b8 bc f1 51 0d 3b e1 a6 41 bd 79 62 26 bd
       -0.022481851 0.0021563733 -0.04727829 -0.040621255
0000e0 88 4e 67 bc 27 d5 8f bd e4 44 b5 bc 01 9d 65 3c
       -0.014117844 -0.070230775 -0.022127576 0.014014483
0000f0 d2 39 aa bd ab 16 b3 bd d5 b9 1c 3d dd b8 c9 3c
       -0.083118096 -0.08744558 0.03826316 0.024624282
000100 48 79 d4 bc ad ff 8d bd 61 1e a6 bd 45 6f a3 bd
       -0.025936738 -0.06933532 -0.08111263 -0.07980207
000110 bd 70 78 bd 39 45 a1 3d c8 fb 3e bd cf 5d 95 3c
       -0.06065439 0.07874531 -0.046626836 0.018233208
000120 14 f6 06 be 58 bc a7 3d 66 32 88 bd bf a7 ca 3b
       -0.13179809 0.081902206 -0.06650238 0.0061845477
000130 be 60 31 3d 63 15 be bd 7e 93 17 bd fd aa a4 bd
       0.04330515 -0.09281423 -0.037005894 -0.08040426
000140 5e 5a ee bd 72 22 0b 3c 1f 4d 2d bd ee 24 ac bd
       -0.1163833 0.008492099 -0.042309877 -0.08405481
000150 db cf 95 bc 3c 30 4f 3d b6 6e 65 bd 9d 5f 0e 3e
       -0.01828759 0.05058311 -0.056013785 0.13903661
000160 d6 46 8f bd ab 0a c4 3d 75 79 08 3f da 0f 9f 3c
       -0.06995933 0.09572347 0.5331033 0.019416738
000170 1f 49 2e 3c 34 42 d4 3d 14 10 8b bc 73 ae a8 bd
       0.010637551 0.1036419 -0.01697544 -0.082363985
000180 02 ab de 3e 83 75 85 bd 2f 25 02 3e 06 1a da bc
       0.43489844 -0.06516554 0.12709497 -0.026623737
000190 e8 d8 a0 bd be c3 27 3b 5c 9f a1 3d 1b 70 a4 bd
       -0.078538716 0.002559885 0.078917235 -0.08029195
0001a0 13 71 5a bd f0 8b bf bb 66 1d 8f 3b 7b 4b c7 bd
       -0.053330492 -0.0058455393 0.0043675182 -0.09731194
0001b0 23 1d 6d bd e5 5c 3a 3a a3 ca 85 bb 0a 71 41 bd
       -0.057889115 0.0007109179 -0.004082994 -0.047226943
0001c0 af 2f bf bd 43 e3 9e bd ef 70 01 3e c7 47 70 3e
       -0.09335267 -0.077581905 0.12640737 0.23464881
0001d0 b7 01 18 3d bb fa 95 bd a8 ea 24 be 3f e2 ad bd
       0.03711101 -0.07323214 -0.1610514 -0.08490419
0001e0 ea 76 93 3d 73 0b f4 3d 34 c1 97 3e 66 9e 87 3d
       0.072004154 0.11916246 0.2963959 0.06622009
0001f0 ae 5b 46 bc 43 2f c7 3a 6b ab 13 3d c3 14 50 bd
       -0.012106819 0.001519658 0.03605215 -0.05080105

fc4.weight f4 [32, 128]
000000 b1 8d ea 3a e3 3f 3d be 08 bb e7 3c d8 54 08 be
       0.001789501 -0.18481402 0.028287426 -0.13313615
000010 8b 78 84 3c 17 04 54 bd ac 56 50 be eb 54 eb bd
       0.01617076 -0.051761713 -0.20345563 -0.11490806
000020 ed d6 e3 bd 27 58 37 bd 55 b8 d0 bc 71 56 27 3e
       -0.11124978 -0.044761803 -0.025478521 0.16341569
000030 87 d7 a0 bc 5a 7b 8c 3d 64 28 a1 3d 6d 9b 06 bc
       -0.019634021 0.06859465 0.07869032 -0.008215767
000040 d1 a7 ba 3d 1c cd 0e 3e 76 d3 ee bd 52 f1 31 3e
       0.0911404 0.1394543 -0.11661427 0.17377213
000050 4e 20 a3 ba 63 18 32 3e 2d ff 05 3e 43 1a 4f be
       -0.0012445541 0.17392115 0.13085623 -0.20224862
000060 d2 2f b2 3d 69 e8 b9 3d ee db 5b be 70 f7 e8 3b
       0.08700527 0.09077532 -0.21470615 0.007109575
000070 0c 2f 0d be 78 0a 42 bd 14 59 22 3e bc de 63 3d
       -0.13787478 -0.047373265 0.15854293 0.055632338
000080 71 18 ce 3d 2b 3a 3c 3d 49 46 72 bd 39 51 4d 3a
       0.100632556 0.04595391 -0.05914906 0.00078322325
000090 b2 75 a7 bd 19 b3 c0 3d 4a 29 fe 38 e6 6b 99 bc
       -0.081767455 0.0940916 0.000121193545 -0.018728208
0000a0 20 1c 25 3e 2a 56 29 3e 47 3a ad bd 52 bf 56 be
       0.1612401 0.16536775 -0.08458381 -0.2097142
0000b0 22 01 04 bc d4 79 d0 b9 4b 4e 8d 3a 40 a4 d4 3d
       -0.008056911 -0.0003976362 0.0010780779 0.10382891
0000c0 7c f1 8f 3b 3b 79 7f 3c 5e 20 3f be 05 ee 0a 3e
       0.004392801 0.015592868 -0.18664691 0.1356736
0000d0 cb 8c 0d 3e 69 00 fd bc b0 e2 38 be f2 06 31 be
       0.1382324 -0.030883985 -0.18055224 -0.17287806
0000e0 6d bf 47 be 53 a8 e1 bd c3 20 75 bd 1b 74 cf 3d
       -0.19506617 -0.110184334 -0.059845697 0.10129567
0000f0 91 dc 01 3e 32 53 14 be 2d 82 05 be f0 07 38 be
       0.12681796 -0.14484861 -0.1303794 -0.17971778
000100 d6 94 b6 3d 39 c9 55 be a9 63 d5 bd c8 16 93 bd
       0.08915107 -0.20877542 -0.10419399 -0.071820796
000110 a6 d4 10 3e bd c2 76 bd 20 27 1c 3e 67 af 11 be
       0.14143619 -0.06024431 0.152493 -0.14227067
000120 f1 55 00 be 34 ed 4f be f0 89 b0 3d c6 62 3f 3e
       -0.12532784 -0.2030533 0.086200595 0.18690023
000130 f8 1f 09 be 89 ae 42 bd 7a 97 31 be 6f c3 b8 3d
       -0.13391101 -0.04752973 -0.1734294 0.09021651
000140 c7 5c c0 bd d5 12 be bd d6 7e c8 3d 0e 7e a3 bb
       -0.09392696 -0.09280936 0.09789817 -0.004989392
000150 df 9d e6 bd 21 cd d5 bc 23 d7 45 be a2 10 4e be
       -0.1126058 -0.02609879 -0.1932035 -0.20123532
000160 f1 7e 39 bd 37 39 94 be 13 6d 74 be 20 43 09 be
       -0.045287076 -0.289499 -0.23869734 -0.13404512
000170 d2 e6 e1 3c d8 c0 12 be ab 83 33 3d f7 03 9c bd
       0.027575884 -0.14331377 0.04382674 -0.07617944
000180 e2 94 8b be 59 00 61 3c 17 98 41 3c fe a6 c0 3d
       -0.27262026 0.013732993 0.011816046 0.09406851
000190 72 5b 9f bd 61 e4 01 3e 5a 81 8b bd 65 a7 f6 bd
       -0.07781114 0.12684776 -0.06811781 -0.12043647
0001a0 f1 33 14 3e 5e 04 52 be d5 3f 21 bd 99 b7 80 bd
       0.14472939 -0.20509478 -0.039367516 -0.062850185
0001b0 d1 ad 39 be 01 29 b9 b8 f1 2d 15 3d 58 62 fb 3c
       -0.18132712 -8.829125e-05 0.036420766 0.030686542
0001c0 b4 0d 0e be e9 53 9d bc ba 22 61 be a1 09 01 be
       -0.13872415 -0.01920505 -0.21985903 -0.1260133
0001d0 8e 47 c4 bd 31 6b d7 3c fe de 17 3e ab 62 ce 3d
       -0.095839605 0.02629623 0.14831159 0.10077413
0001e0 1b 50 49 3d e4 05 0e be dd a3 65 3d d4 4c ed 3d
       0.04914866 -0.13869435 0.056064475 0.115869194
0001f0 78 7c 4b be fb 9b 82 3d 17 52 1c 3e 64 1f ff bd
       -0.198717 0.06377407 0.1526569 -0.12457159
000200 69 ce 2f bd b1 66 d4 3d d7 e5 39 bd 50 aa b4 3c
       -0.042921457 0.10371149 -0.045385208 0.022053868
000210 77 3f 53 3c d3 77 dd bd a8 79 fc 3d 0c 99 4a 3e
       0.012893549 -0.1081387 0.123278916 0.19784945
000220 de 25 19 3e f8 61 5e 3d 10 6c 49 be 23 f3 79 3e
       0.14955851 0.05429265 -0.19670129 0.24409156
000230 c6 4f 17 3c 31 de 5b be f5 85 42 be 5f 9d ea 3d
       0.009235328 -0.21471478 -0.18996413 0.114557974
000240 2a e9 00 be dd ba b6 3d 02 6a 9d 3c a1 cd 01 bf
       -0.12588945 0.0892236 0.019215588 -0.5070439
000250 26 3b 21 be 48 cd aa be a7 5d 2a bd b1 98 af bb
       -0.1574522 -0.33359742 -0.04159322 -0.0053587784
000260 cf cb 0e bf ef 14 7e be 90 83 bf bd 5a 37 91 be
       -0.5577974 -0.24812673 -0.093512654 -0.28362542
000270 ab a6 11 3d 33 35 22 bc ce 44 df 3d 63 3e 8b be
       0.035559338 -0.009900379 0.10901795 -0.27196035
000280 06 ba 76 bd fe 7a b0 bd 75 03 9f be 4a 66 ec be
       -0.060236 -0.08617209 -0.31057325 -0.4617179
000290 77 1e 40 bd 2f bf cb ba 96 ed ca 3d b0 bf a5 3d
       -0.046904054 -0.0015544648 0.09908597 0.08093202
0002a0 d3 01 4a be de d2 ac be e5 26 55 3c 2f d9 ff bd
       -0.19727258 -0.3375463 0.013009761 -0.12492596
0002b0 97 41 10 bd 9e fe 29 3e 6b 01 23 be 59 5c f6 bd
       -0.0352188 0.16601035 -0.1591851 -0.12029333
0002c0 6e 00 47 3d 39 d8 06 be fe 90 d3 3b 40 08 b8 be
       0.048584394 -0.1316842 0.0064564934 -0.35943794
0002d0 d3 c4 2d be 2a 6f 75 bc 49 24 46 be 88 63 3a be
       -0.16969614 -0.014980117 -0.19349779 -0.1820203
0002e0 70 45 9a be 5d 5d d1 bc 8c 29 62 be 08 cb e1 bc
       -0.30131102 -0.025557214 -0.22086161 -0.027562633
0002f0 29 8b c1 3c b3 69 5e be f4 29 04 bf 10 61 10 bf
       0.023625927 -0.21720009 -0.51626515 -0.56398106
000300 a2 98 c5 3d a2 61 27 bf 27 07 c8 be 43 42 b3 be
       0.09648253 -0.6538335 -0.39067957 -0.3501149
000310 4d 2e f5 bd e8 f8 bf 3d 61 bd 1d 3e f0 ea 37 bd
       -0.11971722 0.09373647 0.15404274 -0.04490179
000320 4d ab 78 bd a9 ad ab bd aa a2 24 bf 5b a6 a1 bd
       -0.06071024 -0.083827324 -0.64310706 -0.07893058
000330 96 80 62 3d c3 f1 29 bf 3f 6c d3 be 1e 57 8d be
       0.05529841 -0.66384524 -0.41293523 -0.27605528
000340 26 76 f9 bd 47 f2 9e 3e 65 e9 82 3c 12 17 d8 bd
       -0.12180738 0.31044218 0.015980432 -0.10551275
000350 6a fc d3 bd b5 82 4e bd b5 3b 46 3d 7d 9e 79 bd
       -0.103508785 -0.05041762 0.048396785 -0.06094216
000360 30 86 fc be 98 c8 90 3c de 47 da bc 9f dc 8d bd
       -0.49321127 0.017673776 -0.026645597 -0.06926846
000370 57 43 f3 bb 62 88 cc bc 76 e3 85 be 15 67 7b 3c
       -0.007423799 -0.024967376 -0.261501 0.015344401
000380 11 ba c1 3b 98 c8 19 bf 51 dc 97 bd 70 c9 4a 3d
       0.0059120734 -0.60071707 -0.07415069 0.049508512
000390 29 4a 91 be 40 1f 38 3d cf 9b 93 be d2 90 cb bc
       -0.28376892 0.044951677 -0.2882981 -0.02484933
0003a0 38 dc 84 be 44 3c c7 be e9 b0 5b 3d bf ac 7d be
       -0.25949264 -0.38913167 0.05363551 -0.24772929
0003b0 7b 48 0e be e7 e1 e6 3d 87 e0 a5 be 85 89 88 3d
       -0.13894837 0.11273556 -0.32397863 0.06666855
0003c0 c7 3b 98 bd 6a 02 ef be 67 79 aa be 54 e7 23 3e
       -0.074332766 -0.4668153 -0.33295748 0.16006213
0003d0 ac 80 b4 3c 46 e7 63 3e 79 cb 33 be 71 bd b9 bc
       0.022034012 0.22256193 -0.17558087 -0.02267334
0003e0 b5 d2 95 bb a9 7a 34 3e a9 f8 ba 3d a0 76 7d be
       -0.0045722374 0.17624916 0.091294594 -0.24752283
0003f0 1e 2f b2 bd df fd 39 be bc b2 96 bd f6 df 52 3d
       -0.08700393 -0.1816325 -0.073583096 0.051483117

fc4.bias f4 [32]
000000 46 a6 5c be 17 0f 45 3e 32 ec 01 be 63 a4 a0 3d
       -0.21547803 0.19244038 -0.12687758 0.07843854
000010 cd 07 02 bd d9 47 3e be c4 08 b2 b9 33 65 58 be
       -0.03174572 -0.18582095 -0.00033957337 -0.21132354
000020 08 38 e8 bd cc 09 0e be f9 8e d2 3d ce e1 22 be
       -0.11338812 -0.13870925 0.10281176 -0.1590645
000030 63 01 96 bd 27 59 6a 3e 12 8d 0b be d6 94 d9 bd
       -0.07324483 0.22885571 -0.13628033 -0.10624091
000040 d9 f1 1e 3e 01 9b 42 be 50 1a 1b be 2f 10 65 3e
       0.15521945 -0.19004442 -0.15146756 0.22369455
000050 57 f7 92 3e 26 42 12 be a1 12 2a be 28 7f 1b be
       0.2870433 -0.14283046 -0.16608669 -0.15185225
000060 71 74 ed bd 63 da 58 be 96 b3 0f be bb c2 75 3e
       -0.11594475 -0.21177058 -0.1403335 0.24000065
000070 94 22 04 be 2f cc 23 be 3b 5a 1b be 9c 24 59 be
       -0.12903816 -0.15995859 -0.15171139 -0.21205372
